Audit-log_Analysis/code/GNN/training/checkpoint_GCN_exp3/best_model_GraphSAGE_transR_50.pt (torch, 219991 bytes, 6 tensors)

gcn.layer1.weight f4 [50, 64]
3.9552426 5.3269844 2.2779856 -1.6451924 3.288983 -0.9230511 1.9406674 2.1192548
1.5544541 5.7254868 2.0762782 2.1553721 -1.1116023 -0.90432614 3.5718055 1.695644
1.163515 -1.7998016 2.9337716 2.5457642 0.69690174 1.1073506 1.9740115 3.5174258
2.9213374 1.571194 -3.64063 -3.042081 2.2106152 0.04984993 -3.334989 2.2226422
1.7536671 -3.4239209 1.2174863 2.7955244 2.7033868 0.5121085 2.6657484 1.069871
-0.06305779 -1.3497354 3.777264 -0.74622005 2.2379837 3.4134786 -1.6003269 -1.0598865
-1.5071014 1.5274222 1.6151966 -4.842385 -1.1314353 -3.1525261 1.3313675 2.4546041
1.1678979 5.6325064 -1.94587 0.8530336 0.095298715 0.20788771 -1.6853788 -4.8683677
-0.4040111 -2.0519526 -1.2643993 1.6475391 -0.8228771 1.9619856 -0.8147095 0.7704418
1.5695448 -1.0597138 0.79233575 0.6996039 -1.2017267 0.08803274 0.6580931 -1.0275121
2.0367973 1.5948381 -0.6574469 0.20981343 0.80634725 2.2170832 -0.49028784 -1.7011675
-0.8102062 0.5139407 0.20386633 2.1379437 -0.21258363 -0.055863436 0.5082768 3.0325747
0.7550844 2.9410503 -0.121089146 -0.020328108 0.23740579 -1.1024671 0.253876 1.2832811
0.7896348 2.7198143 1.3524514 1.8824819 -0.9873522 0.009194892 1.0859233 1.8290846
-1.5004255 -0.017746618 1.3626996 2.2962124 2.214646 1.2952996 0.90376747 -0.53251755
-1.257376 1.967425 2.0848818 2.7640085 -0.11821514 -0.34426317 0.59432375 2.5951817
1.2210238 -1.4210843 -0.018799286 -0.6788614 -1.1288276 3.2665591 -0.2465216 0.87288064
4.6079226 -3.0488098 1.1724102 -1.615347 -3.2161121 -1.53585 -1.2627854 1.3577815
1.7793298 -0.7674614 -0.23538762 2.2388806 1.0980477 1.6680686 -2.270126 -2.2198563
-2.4325957 -1.0792358 -3.2181916 0.55778635 -2.929112 0.06098467 -1.2555027 2.5344572
-1.8624481 -1.4382951 -0.7452202 -0.9967369 -0.065248 -2.0124185 0.23953024 0.1781223
2.445213 -1.0229013 -0.147177 2.4339914 -3.7652788 -0.13722368 0.32993895 2.6857784
-2.8052306 -0.7334989 2.5650356 -0.937181 2.9764183 -1.1477032 1.217838 -0.41232425
-0.8963215 -1.1434842 -1.6184322 1.3876747 -0.47440404 -3.6774004 -2.3954802 -1.1200986
2.9768815 -1.4447472 -0.5695453 -3.201489 1.094487 -1.6194482 5.779813 -2.666033
2.5683577 -2.3580666 0.002180469 0.99013627 0.3305873 -0.3863979 1.6977631 3.2063074
-1.1345496 1.4475875 2.3008053 2.32152 0.4748574 -1.6747056 -0.16763851 2.4560874
-3.273582 -0.7204861 2.624936 -0.4057425 2.1621861 -0.04120745 0.7006923 -4.625121
4.042859 0.83980083 0.7271414 0.43326405 -3.7427242 5.2038164 -1.8376981 0.43249336
1.7031058 -1.444598 -3.032769 -3.1025383 1.5351765 0.7729983 -1.342216 -3.6131847
1.2646115 1.7820308 -0.2658285 1.5420406 0.3607756 1.473205 -1.9195074 2.5401082
4.6264544 -4.9460516 -0.9397063 -2.697693 -1.4295526 3.4394276 1.2949158 1.3194396
00000000: b222 7d40 a876 aa40 84ca 1140 aa95 d2bf
00000010: b37e 5240 144d 6cbf ca67 f83f dfa1 0740
00000020: 5af8 c63f 3037 b740 bee1 0440 9ef1 0940
00000030: fc48 8ebf eb81 67bf 7698 6440 dd0a d93f
00000040: 0fee 943f e65f e6bf eac2 3b40 cded 2240
00000050: 2768 323f aabd 8d3f 69ac fc3f 811d 6140
00000060: 31f7 3a40 e31c c93f 1500 69c0 75b1 42c0
00000070: b87a 0d40 712f 4c3d 7670 55c0 c53f 0e40
00000080: 2a78 e03f 8521 5bc0 97d6 9b3f dfe9 3240
00000090: 4a04 2d40 8b19 033f 9f9b 2a40 88f1 883f
000000a0: 7124 81bd 21c4 acbf b2be 7140 4708 3fbf
000000b0: 203b 0f40 6f76 5a40 83d7 ccbf 5caa 87bf
000000c0: b3e8 c0bf 9282 c33f c3be ce3f d1f4 9ac0
000000d0: dfd2 90bf fdc2 49c0 406a aa3f 3c18 1d40
000000e0: ae7d 953f 7e3d b440 4512 f9bf 6960 5a3f
000000f0: f92b c33d 84e0 543e 7eba d7bf abc9 9bc0
00000100: 8bda cebe 3153 03c0 d6d7 a1bf 90e2 d23f
00000110: 13a8 52bf 5822 fb3f cd90 50bf ac3b 453f
00000120: d8e6 c83f b4a4 87bf 84d6 4a3f 3e19 333f
00000130: 2ed2 99bf 824a b43d ca78 283f 8485 83bf
00000140: e35a 0240 a823 cc3f 714e 28bf 55d9 563e
00000150: c66c 4e3f b1e4 0d40 0207 fbbe dbbf d9bf
00000160: ac69 4fbf 9e91 033f 56c2 503e 12d4 0840
00000170: 86af 59be 0fd1 64bd 6e1e 023f b415 4240
00000180: 364d 413f 2b3a 3c40 96fd f7bd 2287 a6bc
00000190: 811a 733e a41d 8dbf 09fc 813e 8e42 a43f
000001a0: 8225 4a3f 7011 2e40 211d ad3f 2bf5 f03f
000001b0: 1dc3 7cbf 2ca6 163c 89ff 8a3f 721f ea3f
000001c0: f10d c0bf 5b61 91bc f16c ae3f 25f5 1240
000001d0: c3bc 0d40 61cc a53f 4e5d 673f 1253 08bf
000001e0: b2f1 a0bf 95d4 fb3f b46e 0540 84e5 3040
000001f0: c81a f2bd 4343 b0be 9a25 183f 7517 2640
00000200: 824a 9c3f 17e6 b5bf f600 9abc dcc9 2dbf
00000210: 6c7d 90bf 4e0f 5140 2970 7cbe 1b75 5f3f
00000220: 1a74 9340 b31f 43c0 8a11 963f b1c3 cebf
00000230: c8d4 4dc0 bc96 c4bf f4a2 a1bf c9cb ad3f
00000240: 14c1 e33f 5a78 44bf 7409 71be d249 0f40
00000250: d48c 8c3f 4683 d53f bf49 11c0 2012 0ec0
00000260: a6af 1bc0 6624 8abf daf6 4dc0 16cb 0e3f
00000270: 9276 3bc0 10cb 793d 50b4 a0bf 8c34 2240
00000280: b364 eebf 0e1a b8bf c0c6 3ebf 262a 7fbf
00000290: bea0 85bd 77cb 00c0 6a47 753e b165 363e
000002a0: 5f7e 1c40 6eee 82bf 91b5 16be 84c6 1b40
000002b0: 54fa 70c0 5d84 0cbe c2ed a83e cbe3 2b40
000002c0: e688 33c0 95c6 3bbf 8b29 2440 18eb 6fbf
000002d0: a37d 3e40 f0e7 92bf 1ee2 9b3f 2a1c d3be
000002e0: 5375 65bf b15d 92bf c928 cfbf 539f b13f
000002f0: 16e5 f2be 875a 6bc0 8c4f 19c0 645f 8fbf
00000300: 3a85 3e40 7aed b8bf b9cd 11bf 32e5 4cc0
00000310: 2618 8c3f 144a cfbf 3af4 b840 49a0 2ac0
00000320: f95f 2440 90ea 16c0 33e6 0e3b 9279 7d3f
00000330: bd42 a93e f2d5 c5be 4d50 d93f 2434 4d40
00000340: ec38 91bf 8c4a b93f 6540 1340 c993 1440
00000350: 8220 f33e c15c d6bf 6ea9 2bbe 8930 1d40
00000360: 5e82 51c0 c771 38bf f4fe 2740 7bbd cfbe
00000370: 4261 0a40 25c9 28bd 9260 333f fe00 94c0
00000380: 1a5f 8140 30fd 563f f025 3a3f c9d4 dd3e
00000390: cb88 6fc0 aa85 a640 b139 ebbf c56f dd3e
000003a0: 5fff d93f 96e8 b8bf e318 42c0 fd8f 46c0
000003b0: aa80 c43f 37e3 453f bccd abbf 6b3e 67c0
000003c0: cade a13f 9619 e43f ac1a 88be 9661 c53f
000003d0: 94b7 b83e fb91 bc3f 6bb2 f5bf 2291 2240
000003e0: ea0b 9440 0e46 9ec0 9890 70bf 01a7 2cc0
000003f0: 94fb b6bf 951f 5c40 cdbf a53f 66e3 a83f

gcn.layer1.bias f4 [64]
0.031839944 0.018442731 0.075602524 -0.0038295046 0.058151335 0.024084777 0.017517136 0.02215023
0.032873824 0.025762264 0.020119624 -0.0045484663 0.015483887 0.014168142 0.02021056 0.042837575
0.022767559 -0.0023361852 0.023111032 0.016645884 -0.005601638 0.03432133 -0.008994633 0.014048781
0.018799102 -0.0040985467 -0.0047422494 -0.0035643445 -0.0043307655 -0.0057859346 3.2110882e-05 0.02203246
-0.0054463106 -0.0032970856 0.018412175 0.02664746 0.051304623 -0.0030627535 0.016056577 -0.009377395
0.014228311 -0.0001346921 0.018457973 0.068456925 -0.0029626575 0.030514305 -0.00092191517 0.026213985
-0.0023130728 0.030567016 0.046800427 -0.007641011 0.027416684 -0.0008230438 0.063316636 0.06682498
0.014828577 0.019582719 -0.0035400183 0.012804112 -0.0056629484 -3.76985e-05 0.013718313 -0.0062775053
00000000: 9a6a 023d 3615 973c 7fd5 9a3d 6df8 7abb
00000010: 1830 6e3d 704d c53c 1980 8f3c 6674 b53c
00000020: b4a6 063d 620b d33c e9d1 a43c 4d0b 95bb
00000030: 21b0 7d3c 7f21 683c 9e90 a53c 7476 2f3d
00000040: 0883 ba3c af1a 19bb 5953 bd3c f35c 883c
00000050: f28d b7bb 8694 0c3d 3a5e 13bc dc2c 663c
00000060: 9300 9a3c 1a4d 86bb df64 9bbb c797 69bb
00000070: 18e9 8dbb f097 bdbb ccae 0638 6b7d b43c
00000080: f776 b2bb eb13 58bb 21d5 963c c64b da3c
00000090: cc24 523d 7ab8 48bb 1589 833c a5a3 19bc
000000a0: dd1d 693c 233c 0db9 2d35 973c 2533 8c3d
000000b0: 2529 42bb 23f9 f93c aeac 71ba b6be d63c
000000c0: ec96 17bb ae67 fa3c ceb1 3f3d 7261 fabb
000000d0: f498 e03c 89c1 57ba 27ac 813d 89db 883d
000000e0: 8ff3 723c f06b a03c a7ff 67bb 57c8 513c
000000f0: 4190 b9bb 751e 1eb8 c6c2 603c 88b3 cdbb

gcn.layer2.weight f4 [64, 128]
0.07105162 0.41219962 -0.38666967 -0.6900075 -0.1399888 -0.061706822 -0.37431243 -2.438572
-0.46436048 0.3323755 -0.35170567 -0.1722935 0.052252974 0.05507862 -0.10543276 -0.35624546
-0.00708147 -0.5093859 -0.0050492897 0.35289428 0.0871898 0.053512853 0.09735594 -0.86490124
1.6524936 -1.0598485 -0.35941944 -0.33160606 -0.6990163 0.29717797 0.3243 -0.20431922
0.14845079 -0.007649283 0.038475927 -0.12430088 -0.40563753 -0.19478521 -0.3224444 1.4924031
0.6850285 -0.48343173 -0.20284651 -0.15631871 0.13835374 -0.20357947 0.11991366 -0.69469225
0.22337992 -0.06836847 0.0016749011 0.14453328 -0.10865718 0.1461285 0.09218549 0.52223706
0.5828504 0.3852622 -0.015779799 0.059727337 -0.15388446 -0.1384937 0.07029906 0.13021788
-0.20130868 -0.07742146 0.035441417 -0.58110565 0.65712464 0.19877517 0.73343545 0.08044179
-0.13534771 -0.38731414 -0.021222081 0.14804268 0.89403516 -0.12566394 0.020191647 0.028087957
-0.11823009 0.3745978 0.33723217 -0.16056997 -0.0016019108 -0.47735512 -0.72936326 -0.015280535
0.13876818 0.0519209 0.010967701 0.14908424 -0.19846985 0.07862546 -0.29907647 0.32184523
-1.0032434 -0.04955388 0.34268716 0.45147654 0.25128546 -0.5896785 -0.047512878 -0.5315169
0.0736648 -0.01830115 0.2643861 0.05217124 -0.16779818 -0.09497092 -0.15911682 0.11128642
0.2914651 0.08895443 -0.11489544 -1.019498 -0.04152634 0.6953391 -0.13394512 -0.09898642
0.28078482 -1.3278304 0.6457466 0.1380064 0.009089703 0.02724051 0.38053155 0.15666813
0.7499757 0.86104834 0.070793785 -0.62657773 0.06762974 -0.2652846 0.38323918 -2.4245355
0.7584833 0.008492548 -0.23752865 0.3871245 -0.42269033 0.6950705 -0.058602817 0.2776908
-0.36055678 -0.9843421 0.022787908 0.41235492 -0.2603089 0.37545156 0.24633105 -0.048820302
1.9234154 -1.2116647 -0.10575138 0.37981772 -0.7064127 0.4749376 0.035711948 -0.49583647
-0.21721028 -0.15226914 0.16591667 0.18575814 -0.9381441 0.37069097 -0.13686253 1.9772259
-1.0389578 0.17506076 0.1561238 -0.10562938 0.35422975 -0.19732831 -0.3185299 -1.1539947
-0.43872777 -0.04735323 -0.0874471 0.35805583 0.29710525 -0.48072538 -0.3470313 0.7034177
-0.0027008925 -0.1988849 -0.0034950185 0.16894817 0.39065817 -0.011019184 0.03355215 0.52870923
0.37464786 0.23725541 -0.32567996 -0.31241992 0.8766395 0.19661589 0.47187987 0.27463475
0.3535922 -0.6568031 0.34446424 -0.31304893 1.1317173 -0.31838498 0.4494302 -0.13500804
-0.14570238 0.33627802 -0.78821176 0.2883533 0.21766613 -0.523776 -0.2573968 -0.050098985
-0.15007736 -0.16749868 0.3317494 0.38268688 -0.20823158 0.20153055 -0.06651788 -0.5581041
-0.21602593 0.12764588 -0.3326036 -0.27224758 0.011532844 -0.6694309 -0.12689437 -0.33430526
0.15550888 0.13233088 -0.25096694 0.4523686 0.43035302 0.20539486 -0.037599105 -0.21063215
-0.25123182 -0.024661753 -0.06551876 -1.4241706 0.07693565 -0.32680973 -0.0061829234 0.32142076
0.52549237 -1.6696715 1.2954779 -0.06393519 0.21272965 -0.02946579 0.23293313 0.15410377
00000000: 8383 913d d40b d33e 91f9 c5be 55a4 30bf
00000010: 3959 0fbe 4bc0 7cbd e1a5 bfbe 9011 1cc0
00000020: a8c0 edbe 1f2d aa3e c412 b4be b56d 30be
00000030: 3707 563d 1e9a 613d 22ed d7bd ce65 b6be
00000040: ad0b e8bb 1d67 02bf 8374 a5bb 8fae b43e
00000050: 9190 b23d 4b30 5b3d 8d62 c73d 2b6a 5dbf
00000060: e984 d33f 1ea9 87bf d305 b8be 45c8 a9be
00000070: bbf2 32bf b627 983e a60a a63e 0f39 51be
00000080: 7c03 183e d6a6 fabb ef98 1d3d 7691 febd
00000090: b9af cfbe c675 47be 6f17 a5be 1107 bf3f
000000a0: 075e 2f3f 5d84 f7be ffb6 4fbe 0312 20be
000000b0: 9aac 0d3e 2377 50be 4b95 f53d 5ad7 31bf
000000c0: b5bd 643e c504 8cbd 5b88 db3a 8800 143e
000000d0: a887 debd b6a2 153e bfcb bc3d 54b1 053f
000000e0: af35 153f 1641 c53e a344 81bc a7a4 743d
000000f0: e393 1dbe 4bd1 0dbe f4f8 8f3d d657 053e
00000100: dd23 4ebe 248f 9ebd 052b 113d 57c3 14bf
00000110: 5239 283f b88b 4b3e 6dc2 3b3f aabe a43d
00000120: 9798 0abe 0a4e c6be eed9 adbc 8098 173e
00000130: 7ddf 643f 0cae 00be f468 a53c b718 e63c
00000140: 9e22 f2bd 48cb bf3e b2a9 ac3e 746c 24be
00000150: 35f7 d1ba e467 f4be 8db7 3abf 365b 7abc
00000160: 3f19 0e3e 02ab 543d dfb1 333c 8aa9 183e
00000170: ae3b 4bbe 6306 a13d 8d20 99be e6c8 a43e
00000180: 486a 80bf 02f9 4abd b174 af3e ef27 e73e
00000190: 7da8 803e 2cf5 16bf dd9c 42bd 7e11 08bf
000001a0: 92dd 963d 4bec 95bc 9d5d 873e 83b1 553d
000001b0: 49d3 2bbe 1d80 c2bd 85ef 22be 22ea e33d
000001c0: ea3a 953e bd2d b63d 4d4e ebbd e97e 82bf
000001d0: 8617 2abd be01 323f e928 09be 64b9 cabd
000001e0: 07c3 8f3e 59f6 a9bf a64f 253f 8d51 0d3e
000001f0: faec 143c 7d27 df3c 08d5 c23e 9c6d 203e
00000200: 68fe 3f3f aa6d 5c3f 55fc 903d 6667 20bf
00000210: 7681 8a3d 62d3 87be ed37 c43e 972b 1bc0
00000220: f62b 423f 5424 0b3c b63a 73be 2f35 c63e
00000230: de6a d8be 24f0 313f 8209 70bd 7d2d 8e3e
00000240: e69a b8be d8fd 7bbf b5ad ba3c 2f20 d33e
00000250: 3547 85be 303b c03e 353e 7c3e ccf7 47bd
00000260: 7a32 f63f d417 9bbf 2e94 d8bd 7877 c23e
00000270: 76d7 34bf 052b f33e b146 123d 47de fdbe
00000280: 5f6c 5ebe 71ec 1bbe 0fe6 293e 6237 3e3e
00000290: 362a 70bf 35cb bd3e b125 0cbe bd15 fd3f
000002a0: 92fc 84bf 2143 333e ebde 1f3e 3754 d8bd
000002b0: 9a5d b53e 6f10 4abe 5a16 a3be 19b6 93bf
000002c0: eda0 e0be 76f5 41bd 7717 b3bd 1853 b73e
000002d0: 2e1e 983e a321 f6be 16ae b1be 2f13 343f
000002e0: 7501 31bb 7ca8 4bbe ae0c 65bb c000 2d3e
000002f0: 5904 c83e cf89 34bc fb6d 093d 7d59 073f
00000300: d8d1 bf3e 15f3 723e 86bf a6be 81f5 9fbe
00000310: 726b 603f ad55 493e 3d9a f13e ed9c 8c3e
00000320: 090a b53e 3f24 28bf 9e5d b03e f347 a0be
00000330: 1ddc 903f 5b03 a3be b71b e63e 8c3f 0abe
00000340: 0133 15be a22c ac3e 3fc8 49bf 0ba3 933e
00000350: dfe3 5e3e 2f16 06bf 83c9 83be 9834 4dbd
00000360: e1ad 19be c684 2bbe 0fdb a93e 89ef c33e
00000370: a93a 55be 065e 4e3e 873a 88bd e9df 0ebf
00000380: e735 5dbe 9ab5 023e 054b aabe 0964 8bbe
00000390: 41f4 3c3c d35f 2bbf 99f0 01be 0f2a abbe
000003a0: b83d 1f3e bf81 073e bd7e 80be db9c e73e
000003b0: 3b57 dc3e 0853 523e 8501 1abd f4af 57be
000003c0: 75a1 80be 7207 cabc b32e 86bd 394b b6bf
000003d0: 7090 9d3d 9b53 a7be 1f9a cabb 4391 a43e
000003e0: ab86 063f ccb7 d5bf 38d2 a53f 74f0 82bd
000003f0: cdd5 593e 3e62 f1bc 0686 6e3e 61cd 1d3e

gcn.layer2.bias f4 [128]
-0.08868307 -0.37261263 -0.011344942 -0.03233639 0.015758635 0.006319936 0.2617445 -0.109857805
-0.004182315 -0.08035785 0.14031634 0.083643645 -0.002262647 -0.14082475 0.048566684 0.15931858
0.15670288 0.15085022 0.047375455 -0.29458493 0.09040076 -0.046990514 -0.035972353 -0.019253315
-0.27965286 -0.026351575 0.14742817 -0.018421732 -0.027219621 -0.122855015 0.057629284 0.054590773
0.0083262455 0.0003401904 -0.002035344 0.18385103 0.3562668 0.08076557 -0.013980954 -0.029039236
0.0057150656 0.29233497 -0.0008829852 0.039793592 -0.118296646 0.13237938 0.004184379 0.3997076
0.005843867 -0.1384076 -0.0039017396 -0.22776285 -0.009902234 -0.061906733 -0.055908702 -0.07132765
-0.37956765 -0.00023289953 0.0007850065 0.005331469 -0.2576593 0.00064351916 -0.0047337967 -0.052541237
0.0016933102 -0.010545399 0.08045877 0.33363235 -0.4764952 0.0026884363 0.016538868 -0.27062103
0.13807012 0.22218607 -0.05787644 0.08695919 -0.35842735 0.04148513 -0.17020081 -0.034705225
0.0006078978 -0.31472522 0.11765335 -0.006846471 -0.010602549 0.31865454 0.42072028 0.07974431
-0.15797354 -0.040386625 0.0016802889 -0.05499113 0.059862334 0.02217499 -0.06806436 0.22468562
0.36046326 -0.20082651 0.016761253 -0.10206368 0.07311377 0.45525193 0.06318897 0.27500206
0.019602045 0.13990498 -0.004544593 -0.08636611 -0.15463191 -0.01821012 -0.026391009 0.00399718
0.036121566 -0.099626206 -0.013547564 0.3158488 0.12855594 -0.34669316 -0.035252284 0.0022672615
-0.2692629 -0.030354708 -0.25445372 -0.00496958 -0.00034413315 0.02060489 -0.36646947 -0.03681715
00000000: 789f b5bd 15c7 bebe 23e0 39bc 2a73 04bd
00000010: 4118 813c 7717 cf3b 6003 863e 21fd e0bd
00000020: cd0b 89bb a892 a4bd 16af 0f3e 5c4d ab3d
00000030: eb48 14bb 5d34 10be dced 463d 6924 233e
00000040: b876 203e 7b78 1a3e c40c 423d d6d3 96be
00000050: 0924 b93d 2079 40bd bf57 13bd 21b9 9dbc
00000060: a92e 8fbe 42df d7bc 69f7 163e 2ce9 96bc
00000070: affb debc 699b fbbd af0c 6c3d 939a 5f3d
00000080: ce6a 083c 955b b239 6863 05bb 7243 3c3e
00000090: 9a68 b63e 6b68 a53d 5f10 65bc b1e3 edbc
000000a0: 7245 bb3b eeac 953e 2278 67ba 9bfe 223d
000000b0: 8345 f2bd 768e 073e 1d1d 893b 79a6 cc3e
000000c0: e97d bf3b b9ba 0dbe 54b4 7fbb aa3a 69be
000000d0: fb3c 22bc ea91 7dbd 8600 65bd 3b14 92bd
000000e0: b156 c2be 7e36 74b9 e5c8 4d3a 9ab3 ae3b
000000f0: ebeb 83be d7b1 283a f71d 9bbb 7b35 57bd
00000100: 10f2 dd3a 9cc6 2cbc 91c7 a43d dcd1 aa3e
00000110: 2ef7 f3be 7a30 303b 857c 873c d78e 8abe
00000120: 4162 0d3e bf84 633e d90f 6dbd a917 b23d
00000130: ca83 b7be 50ec 293d 1f49 2ebe 1127 0ebd
00000140: 555b 1f3a aa23 a1be 3df4 f03d 5d58 e0bb
00000150: 50b6 2dbc b026 a33e a668 d73e fc50 a33d
00000160: d1c3 21be 726c 25bd 243d dc3a 613e 61bd
00000170: 3532 753d 53a8 b53c 5465 8bbd fd13 663e
00000180: a48e b83e 77a5 4dbe e54e 893c c306 d1bd
00000190: acbc 953d c816 e93e 3869 813d 12cd 8c3e
000001a0: 7894 a03c 4043 0f3e cfea 94bb b7e0 b0bd
000001b0: d457 1ebe 642d 95bc f531 d8bc c7fa 823b
000001c0: 35f4 133d d308 ccbd 9af6 5dbc efb6 a13e
000001d0: 2ba4 033e c481 b1be b364 10bd 5696 143b
000001e0: d4dc 89be 70aa f8bc c247 82be dcd7 a2bb
000001f0: c56c b4b9 96cb a83c e3a1 bbbe 94cd 16bd

pred.W.weight f4 [167, 256]
0.2842514 0.3611478 -0.08453309 -0.07259751 -0.32245237 0.08509049 -0.34715867 -0.06874023
0.035207856 0.25414944 -0.29123133 -0.26222074 0.22712412 0.33276203 -0.25227186 -0.24201164
-0.22427303 -0.15209544 -0.31492195 0.3172389 -0.1799432 0.21604712 0.22922122 -0.06684673
0.23917584 -0.06561251 -0.30102625 0.17832871 -0.07625209 0.23746566 -0.20901269 -0.24794099
-0.13629894 -0.36645868 0.059791215 -0.29892978 -0.3538702 -0.3041139 0.19710451 0.15873115
0.0072907237 -0.35230148 -0.09257159 -0.19588493 0.27911288 -0.26368806 0.25596073 -0.36269313
0.22315 0.29614338 0.34997997 0.3368532 -0.07164771 0.33202466 0.23958488 0.27655843
0.3270977 -0.13504618 -0.007764716 0.11212922 0.28609115 0.1182852 0.13662174 0.160583
0.08104171 0.2116633 -0.2938942 -0.34852073 0.36377153 -0.13213886 0.08548576 0.28480017
-0.26995507 -0.3347821 0.24917026 -0.21785921 0.3026769 -0.24938284 0.25459465 0.39563152
0.0035075387 0.33774418 -0.18696655 -0.27468857 -0.052586842 -0.325791 -0.33272588 -0.1994286
0.26367158 0.31842116 0.013897893 0.15771796 -0.250836 -0.293226 0.28703296 -0.25339034
-0.31879926 0.29982027 -0.16542529 0.31756705 -0.21762154 -0.35699317 -0.22655642 -0.24343184
-0.3466596 -0.2501363 0.12601772 0.31933096 0.2359442 0.17480333 0.320272 0.011272686
-0.17971508 0.22310768 -0.058473486 -0.29914623 -0.29919517 0.34485942 0.24301836 -0.19154227
0.32486013 -0.064563416 0.21597125 0.12676129 -0.3371321 -0.19658267 0.38673863 0.24956685
0.7355266 -0.06464991 -0.06274833 0.044340707 1.1358382 0.048510846 0.20162266 -0.031236438
0.2445767 0.36400628 -0.23558672 0.2697353 0.45466018 0.35570198 0.13590507 0.391441
-0.18862419 -0.16481724 0.17176588 -0.0024884036 -0.075934164 -0.033010893 0.04321 -0.27609456
0.074657105 0.020917248 -0.029399175 0.19818418 -0.0981571 0.663141 -0.02588548 -0.8621426
1.4754833 0.8457699 -0.26759183 -0.58416283 -0.013274048 -0.46005976 0.450991 0.0030655616
-0.11607087 0.39427194 0.65318114 -0.23716012 0.86047125 -0.18508036 -0.5788119 -0.019914322
-0.41648176 0.21597484 0.26534566 -0.17665492 -0.18572423 -0.2978774 0.24274118 0.39167583
0.121190034 0.4682344 -0.5787887 0.28713444 0.26109222 0.1744191 1.0975187 0.19812243
-0.21375366 -0.7460563 0.06911199 0.038571734 0.062393766 2.4321387 0.18310969 -0.79477626
-0.2864668 -0.24919069 0.32504004 0.0054204836 0.06601278 -0.327857 -0.0032657473 -0.7651153
-0.81659764 0.00093178404 -0.24202959 0.30760577 -0.005511463 -0.0038253674 -0.1263412 -0.39547724
-0.0150228515 0.0041179466 -0.32807755 0.1715895 -0.90396225 0.1411628 -0.36070648 0.43097442
0.04647177 0.22471492 -0.43016377 -0.40679297 0.15222536 -0.06941204 0.17965756 -0.117689855
-0.29636765 -0.36330256 -0.42978418 0.46560368 0.44637764 0.57452506 -0.50552064 -0.34193507
-0.53287727 0.5555313 -0.10199965 -0.0530734 -0.5369499 0.28862634 -0.73025155 -0.11870287
0.14356732 -0.04318231 0.11433452 -2.0299525 0.106519476 0.14065361 0.113748 -0.10938052
00000000: 6689 913e 5de8 b83e af1f adbd 01ae 94bd
00000010: 7a18 a5be ec43 ae3d c8be b1be adc7 8cbd
00000020: 1d36 103d e01f 823e 461c 95be cc41 86be
00000030: 3a93 683e c95f aa3e c729 81be e6d1 77be
00000040: d4a7 65be e8be 1bbe 733d a1be 236d a23e
00000050: 0843 38be 753b 5d3e f8b8 6a3e f0e6 88bd
00000060: 83ea 743e da5f 86bd 1d20 9abe cd9b 363e
00000070: 0e2a 9cbd 332a 733e 6c07 56be 3ee4 7dbe
00000080: f391 0bbe 79a0 bbbe a2e7 743d 530d 99be
00000090: 7a2e b5be d1b4 9bbe c4d5 493e 6b8a 223e
000000a0: 06e7 ee3b dc60 b4be 2c96 bdbd 0f96 48be
000000b0: e2e7 8e3e 1f02 87be 490d 833e eab2 b9be
000000c0: 6f81 643e 1ba0 973e 9330 b33e 0678 ac3e
000000d0: 09bc 92bd 23ff a93e bd55 753e 1199 8d3e
000000e0: 5a79 a73e 8c49 0abe 296f febb 01a4 e53d
000000f0: 8a7a 923e 833f f23d 92e6 0b3e df6f 243e
00000100: 32f9 a53d 44be 583e 4d79 96be 4f71 b2be
00000110: 4340 ba3e 694f 07be 2813 af3d 54d1 913e
00000120: 8d37 8abe 8f68 abbe 7d26 7f3e 7c16 5fbe
00000130: 77f8 9a3e 375e 7fbe 3b5a 823e 3790 ca3e
00000140: bcde 653b ceec ac3e 2974 3fbe fba3 8cbe
00000150: 4d65 57bd 14ce a6be 0c5b aabe 0337 4cbe
00000160: f6ff 863e 1908 a33e fdb3 633c d180 213e
00000170: 946d 80be b821 96be fcf5 923e 61bc 81be
00000180: a839 a3be 0b82 993e 3f65 29be 2698 a23e
00000190: 2ed8 5ebe cfc7 b6be 68fe 67be 3246 79be
000001a0: 5e7d b1be dd11 80be ca0a 013e 597f a33e
000001b0: 5b9b 713e a5ff 323e b1fa a33e 12b1 383c
000001c0: 3b07 38be 5776 643e e581 6fbd b229 99be
000001d0: 1c30 99be 6a91 b03e ced9 783e a823 44be
000001e0: 1154 a63e d339 84bd 9127 5d3e b6cd 013e
000001f0: 949c acbe f84c 49be 9b02 c63e 748e 7f3e
00000200: 794b 3c3f 2c67 84bd 3282 80bd 9a9e 353d
00000210: 2563 913f 4fb3 463d 2c76 4e3e 8fe3 ffbc
00000220: 5072 7a3e 085f ba3e a53d 71be bf1a 8a3e
00000230: 38c9 e83e 921e b63e b32a 0b3e f46a c83e
00000240: b326 41be dac5 28be 65e3 2f3e 7c14 23bb
00000250: 5f83 9bbd 6e36 07bd f8fc 303d 445c 8dbe
00000260: d3e5 983d a65a ab3c 8ad6 f0bc cbf0 4a3e
00000270: 9706 c9bd 9cc3 293f c90d d4bc 61b5 5cbf
00000280: a3dc bc3f 6084 583f cc01 89be b28b 15bf
00000290: 657b 59bc f48c ebbe 4be8 e63e 97e7 483b
000002a0: 90b6 edbd 03de c93e e136 273f 1ada 72be
000002b0: d847 5c3f b585 3dbe 042d 14bf 5c23 a3bc
000002c0: 193d d5be 8228 5d3e 63db 873e 07e5 34be
000002d0: 7e2e 3ebe 6383 98be 2591 783e bc89 c83e
000002e0: 7b32 f83d 6bbc ef3e 7f2b 14bf 4903 933e
000002f0: e1ad 853e ec9a 323e 7e7b 8c3f 9be0 4a3e
00000300: 3de2 5abe 8cfd 3ebf 968a 8d3d 65fd 1d3d
00000310: 9b90 7f3d 29a8 1b40 1b81 3b3e 7576 4bbf
00000320: c7ab 92be d82b 7fbe a66b a63e 509e b13b
00000330: b531 873d dfdc a7be 2606 56bb 99de 43bf
00000340: 8b0c 51bf f842 743a 9bd6 77be 817e 9d3e
00000350: 8199 b4bb 04b3 7abb 965f 01be fe7b cabe
00000360: 6822 76bc d7ef 863b c8f9 a7be 28b5 2f3e
00000370: 126a 67bf fb8c 103e 85ae b8be aea8 dc3e
00000380: 2f59 3e3d ab1b 663e 6d3e dcbe 2b47 d0be
00000390: f7e0 1b3e e627 8ebd 27f8 373e 6107 f1bd
000003a0: 80bd 97be cb02 babe ac0c dcbe 9b63 ee3e
000003b0: 9c8b e43e 1314 133f cd69 01bf 1d12 afbe
000003c0: a56a 08bf 4d37 0e3f 31e5 d0bd 7e63 59bd
000003d0: 8c75 09bf d5c6 933e c4f1 3abf 7e1a f3bd
000003e0: 5003 133e efdf 30bd 3828 ea3d beea 01c0
000003f0: e226 da3d 8007 103e b6f4 e83d e502 e0bd

pred.W.bias f4 [167]
-0.16157615 -0.20869514 -0.20919994 0.09524511 -0.17917326 -0.14127946 0.0004228394 -0.008763928
-0.057595924 -0.19822825 -0.15895104 -0.20132336 -0.18278646 -0.21052824 -0.18780921 -0.28464377
0.020745393 0.112631924 -0.18506205 -0.14278242 -0.15694965 0.026005805 -1.6334755 -0.114066504
-0.20948677 0.079001255 -0.10706742 -0.29552335 0.055719893 0.049903046 -0.2101326 -0.20824905
-0.04039568 -0.18871142 -0.19585288 0.08909414 -0.19498454 -0.08359729 -0.20542379 -0.100413665
-0.08665835 -0.107481256 -0.19516793 -0.1595954 -0.20229945 -0.17753166 -0.20049539 -0.20396219
-0.1808772 -0.20481497 -0.22522244 -0.015325896 -0.018326283 -0.18736379 -0.18934831 -0.17519037
-0.20184739 -0.19559981 -0.12852298 -0.02179774 -0.2058334 -0.1365229 -0.05500014 -0.13707303
-0.07276765 -0.42273527 -0.008050775 -0.08133848 -0.06907617 -0.11118211 -0.33671185 -0.12540087
-0.21657813 -0.3237865 -0.21874449 -0.20125031 -0.21181765 -0.0054368717 -0.121324204 -0.17029877
0.0804127 -0.20734134 0.084630154 -0.2057918 -0.11667794 -0.073201925 -0.18316637 -0.1769412
-0.08256356 -0.31631702 -0.051849578 -0.014799702 -0.18737322 -0.065102495 -0.2593185 -0.26674077
0.12665623 -0.17834288 -0.19649811 0.24210058 -0.039247744 0.046355654 -0.24115744 -0.090368554
-0.20267153 0.070038475 -0.777893 -0.026611965 -0.00051829877 -0.1908275 -0.06734289 -0.19151296
-0.21922585 -0.088510804 -0.071995415 0.0478876 -0.1918205 -0.21793805 -0.0019075064 -0.18226886
-0.054978967 -0.22075304 -0.04122456 -0.12243513 -0.21050227 -0.18964346 -0.24410418 0.0039053771
-0.01866809 -0.04529077 -0.08705501 0.018026602 0.015888473 0.0019000632 0.0074036974 -0.32595325
0.0016680531 -0.116938345 -0.13172024 -0.12771657 0.03845158 -0.29975918 -0.21069324 -0.1909396
-0.21459015 -0.00758331 0.19038492 0.017914578 -0.026655935 0.01977039 -0.18127042 -0.18132694
-0.17790742 -0.14337766 0.10416733 -0.08228386 0.08385405 -0.19517726 -0.20489088 -0.024722798
-0.009561226 0.1640717 -0.18433644 -0.1666176 -0.19511105 0.07253146 -0.007570365
00000000: 3874 25be 2eb4 55be 8238 56be de0f c33d
00000010: 3279 37be 90ab 10be 8bb0 dd39 9496 0fbc
00000020: b4e9 6bbd 59fc 4abe 10c4 22be b627 4ebe
00000030: 602c 3bbe b794 57be 0f51 40be d4bc 91be
00000040: 3ef2 a93c 91ab e63d e880 3dbe 8e35 12be
00000050: 69b7 20be 200a d53c ba15 d1bf b39b e9bd
00000060: b383 56be 69cb a13d 2a46 dbbd d64e 97be
00000070: 8b3a 643d 2367 4c3d 002d 57be 3d3f 55be
00000080: f175 25bd 913d 41be a88d 48be fd76 b63d
00000090: 07aa 47be 0e35 abbd 9d5a 52be aea5 cdbd
000000a0: ef79 b1bd 221f dcbd 1ada 47be fa6c 23be
000000b0: 9627 4fbe dcca 35be aa4e 4dbe 77db 50be
000000c0: df37 39be 04bb 51be b6a0 66be 7819 7bbc
000000d0: 0021 96bc 4bdc 3fbe 86e4 41be 1b65 33be
000000e0: 15b1 4ebe 514b 48be 879b 03be 2d91 b2bc
000000f0: fec5 52be a9cc 0bbe d447 61bd df5c 0cbe
00000100: 3507 95bd c270 d8be 66e7 03bc ca94 a6bd
00000110: cf77 8dbd 72b3 e3bd 7f65 acbe 1669 00be
00000120: a8c6 5dbe 58c7 a5be 8efe 5fbe 9014 4ebe
00000130: bae6 58be c927 b2bb d378 f8bd cd62 2ebe
00000140: 6aaf a43d 4a51 54be 9352 ad3d 16bb 52be
00000150: d8f4 eebd e4ea 95bd f78f 3bbe 1330 35be
00000160: 1517 a9bd 4ef4 a1be 3960 54bd 737a 72bc
00000170: c4de 3fbe 7554 85bd 65c5 84be 3f92 88be
00000180: 2cb2 013e 849f 36be cd36 49be 37e9 773e
00000190: 3ec2 20bd 6ddf 3d3d faf1 76be 2613 b9bd
000001a0: 2089 4fbe 5570 8f3d ff23 47bf 5601 dabc
000001b0: 71de 07ba 4968 43be 12eb 89bd f91b 44be
000001c0: be7c 60be 2745 b5bd 5572 93bd ca25 443d
000001d0: 986c 44be 272b 5fbe 4b05 faba b0a4 3abe
000001e0: a031 61bd 160d 62be 16db 28bd 45bf fabd
000001f0: e88d 57be e531 42be 72f6 79be 5bf1 7f3b
00000200: d3ed 98bc d082 39bd e649 b2bd 86ac 933c
00000210: 8b28 823c 8b0b f93a b79a f23b 58e3 a6be
00000220: 93a2 da3a 5f7d efbd ace1 06be 22c8 02be
00000230: 677f 1d3d 097a 99be f8bf 57be ac85 43be
00000240: 85bd 5bbe 6a7d f8bb 44f4 423e 98c1 923c
00000250: 8c5d dabc 83f5 a13c f49e 39be c5ad 39be
00000260: 5d2d 36be 98d1 12be ae55 d53d 7184 a8bd
00000270: acbb ab3d 8cdc 47be eace 51be 7787 cabc
00000280: b0a6 1cbc 6902 283e b1c2 3cbe ce9d 2abe
00000290: 31cb 47be 608b 943d d310 f8bb
