Audit-log_Analysis/code/GNN/training/checkpoint_GAT_exp3/best_model_GAT_transR_50.pt (torch, 737263 bytes, 16 tensors)

layer1.attn_l f4 [1, 8, 16]
000000 a3 57 38 bd 0c 00 44 3d ad 3c e7 3d fa 22 b8 3e
       -0.045005452 0.047851607 0.1129087 0.35964185
000010 14 10 b0 3e 78 5e 24 3e f8 79 d6 bd 8e 76 01 3d
       0.34387267 0.16051662 -0.104724824 0.031607203
000020 2d 9c 06 bc a2 f8 53 39 4c ad 0e be a3 19 3c bc
       -0.008215946 0.00020215151 -0.13933295 -0.011480722
000030 f5 33 c0 bd 26 33 46 3e 2a b5 35 3b 2e 1b 52 3e
       -0.0938491 0.19355449 0.002772639 0.2051818
000040 73 5c e8 bd e4 72 42 be 47 18 49 be 78 4a 7f bd
       -0.11345758 -0.1898914 -0.19638167 -0.06232688
000050 dc f7 15 be 7d 20 50 3c 81 18 30 3d f5 79 50 be
       -0.14645332 0.012703058 0.04299212 -0.20359023
000060 94 f3 12 3e e9 35 58 bd 24 ab b6 bd af fc 7e bd
       0.1435073 -0.052785788 -0.08919361 -0.062252697
000070 7f 69 04 be 03 37 c9 3b 03 cb d7 3b c8 c2 7f 3d
       -0.12930869 0.006140591 0.00658548 0.062441617
000080 89 da eb bd eb 50 46 3d 00 c9 86 3d 67 b5 fb bd
       -0.11516292 0.048417013 0.065813065 -0.12290459
000090 16 c2 84 be fe cc c6 3d 93 d3 c5 bd ab 46 46 be
       -0.25929326 0.09707068 -0.09659495 -0.19362895
0000a0 3b cd d9 3d 31 15 82 3e 03 58 9e bd 36 d4 60 bc
       0.10634848 0.25406793 -0.07731631 -0.01372247
0000b0 7d 38 13 3d 14 ba 7f 3d 5e 61 a1 be 8d ea 65 bc
       0.035942543 0.062433317 -0.31519598 -0.014032972
0000c0 6b 04 cc bd 57 8c 4e be bb 51 0d be ce da 9f bd
       -0.0996178 -0.20170723 -0.13800709 -0.078054056
0000d0 37 be 37 bd 40 93 04 bb 72 90 f2 3d 62 80 70 be
       -0.044859137 -0.002022937 0.11843957 -0.23486474
0000e0 23 12 aa 3d 13 23 3e be 71 49 33 3d 27 8f 14 3e
       0.083042406 -0.18568067 0.04377121 0.14507733
0000f0 a9 6b 85 3e 28 a6 ad bd 22 e7 95 be 54 90 2e be
       0.260587 -0.084789574 -0.29277903 -0.17047244
000100 e5 62 e7 3d 02 1c 83 be bd ea 0c 3e 1b 6d 09 bd
       0.112981595 -0.25607306 0.1376142 -0.033551317
000110 26 b4 99 3d f2 31 ba bd 2e 0f 2b 3d de 55 ca 3c
       0.07505064 -0.090915576 0.041762523 0.024699148
000120 f3 ca 4c 3e 94 ed eb bd 44 6b 78 bd 3a f2 57 3d
       0.19999294 -0.11519924 -0.06064917 0.05272124
000130 e9 85 5a 3d 70 5e 6b bd 97 43 fc bd 02 3c 1f be
       0.053350363 -0.05746311 -0.12317579 -0.15550235
000140 cd 7a 83 bd f1 4e 8e 3d d9 ff 67 3c 13 5b 27 3d
       -0.06419907 0.06948651 0.01416012 0.04085834
000150 3a 3d 4b bd 6b 05 d5 bb 6a 3d ae 3d 15 cb ad bd
       -0.049618937 -0.00650089 0.085078076 -0.084860004
000160 49 b5 84 3d ed df 11 be 07 c4 0e 3d a4 ad 53 be
       0.0647989 -0.14245577 0.034854915 -0.20671707
000170 dc c5 a9 bd 31 30 10 3e 99 f3 ac bd b7 5d 47 3d
       -0.08289692 0.14080884 -0.084449 0.048673358
000180 88 32 1f be cc 12 7b be dd be 67 bd d1 29 8a bd
       -0.1554662 -0.24518889 -0.056578506 -0.06746257
000190 40 eb 78 be 1b 09 d0 bd f9 5d 26 3e 9e 5c 06 be
       -0.24308491 -0.10157987 0.16246785 -0.13121268
0001a0 f4 12 83 bd b4 7b 83 bc dc ca c1 bd cb 64 5a bd
       -0.064000994 -0.016050197 -0.094625205 -0.05331878
0001b0 33 e7 9a bd 4b 67 25 be 02 8c 12 3c b1 eb 81 be
       -0.07563629 -0.16152684 0.008944513 -0.2537513
0001c0 14 68 db 3b cd 08 8a 3d db 2d 96 bd 27 fb 3b 3c
       0.0066957567 0.0673996 -0.07332965 0.011473454
0001d0 4b 84 18 3e cc d5 90 bd de 8c 09 bc 3c df b4 bd
       0.14894216 -0.070720285 -0.008395402 -0.08831641
0001e0 95 50 30 3d 10 d4 44 be 6d b1 88 3e c5 6a 90 bc
       0.0430456 -0.1922152 0.26697865 -0.017629037
0001f0 4d 96 89 3e 40 a1 62 be 25 77 e2 3d b4 18 a0 3d
       0.26872483 -0.22131824 0.11057881 0.07817212

layer1.attn_r f4 [1, 8, 16]
000000 eb db 99 be 1b 51 1a be 19 d0 98 be 9f a0 1a 3e
       -0.30050597 -0.15070002 -0.29846266 0.15100335
000010 2a 90 8a be 35 ef e0 3d 66 3b 91 bd 0b 19 8f bd
       -0.27063113 0.10983125 -0.070914075 -0.069871984
000020 61 3b 81 3e 34 7c a1 bc 4d 8f 7f bd f4 fc d9 bd
       0.25240615 -0.019712545 -0.06239252 -0.1064395
000030 dd 64 52 bd c6 9e 78 be b5 2e cf bd 71 6d 42 3e
       -0.051365722 -0.24279317 -0.101163305 0.18987061
000040 16 45 11 3d 4a 8e b8 ba 51 45 3e be bb 76 da bd
       0.035466276 -0.0014080491 -0.1858113 -0.10667177
000050 b3 08 7a be 50 1c 8e 3e 50 b2 34 be c1 35 8a be
       -0.24417381 0.27755976 -0.17646146 -0.26994136
000060 dc 07 ce bd 3e 1f b9 3e 16 89 b0 3d db 58 47 be
       -0.10060093 0.36156648 0.08619897 -0.1946749
000070 7b 9a 18 bd 8c a0 08 3e de 3d 3b bc a9 ad 28 3e
       -0.0372567 0.13342494 -0.0114283245 0.16472496
000080 21 1c 93 bd e1 69 19 be 3a 3c 1f bb a0 53 c9 3d
       -0.071830995 -0.14981796 -0.0024297372 0.09830403
000090 9e 14 a4 bd 06 7e 9f 3c c6 d5 6f 3e 0f f8 d8 bd
       -0.08011745 0.019469272 0.23421392 -0.105941884
0000a0 95 49 fb bd 7a 33 a2 3d 6e 02 ac 3d da f1 d1 3d
       -0.12269894 0.079199746 0.08398901 0.10251208
0000b0 42 c9 a7 bd 66 4b 28 be 02 6f cf bd ef 18 a2 3d
       -0.08192684 -0.16435012 -0.10128595 0.07914912
0000c0 61 dc e1 bd 00 86 ee bd 16 11 04 3d ef e4 f2 bd
       -0.11028362 -0.11646652 0.032242857 -0.11860072
0000d0 ff 00 a6 3d 46 78 54 be 09 53 28 be 47 f4 ef 3d
       0.08105659 -0.20749006 -0.16437925 0.11716514
0000e0 46 71 8d 3e 5e f2 07 3e 57 64 b2 3c 10 4c 86 3d
       0.27625483 0.1327605 0.021776361 0.065574765
0000f0 4d 34 9c bd 9c 2c ba 3d 2c 6a 39 be 37 ac ad 3e
       -0.07627163 0.0909054 -0.18106908 0.33920452
000100 55 2b 86 be a7 01 f6 be 8e cd 52 3e 2d 99 b2 3e
       -0.26204935 -0.48048136 0.20586225 0.3488249
000110 c3 6b 6c be 0a a2 67 3e f9 f7 d9 bd 60 41 52 3e
       -0.23087983 0.22620407 -0.10643 0.20532751
000120 54 79 f4 3d e0 96 f8 3d 05 6b 81 be 6f e7 d2 3d
       0.11937204 0.12138152 -0.25276962 0.10298049
000130 44 9f 9f 3d cd 6d 28 bb e6 4c 8f bd d1 fe 0a bd
       0.077940494 -0.0025700212 -0.06997089 -0.033934418
000140 03 08 06 3d fd bc c4 3d 84 ac 3a be 85 c5 40 3e
       0.032722484 0.09606359 -0.18229872 0.18825348
000150 14 83 86 be 1d 32 41 be 27 81 8e be ce 74 e2 3c
       -0.2627188 -0.18866773 -0.2783291 0.027643587
000160 cf d1 4d be 48 cf 42 bd ad ca 2a be 94 62 19 3e
       -0.20099567 -0.04756096 -0.16678877 0.14979011
000170 cc 25 1f be f0 ce 58 3e 61 b8 49 be 81 87 22 bc
       -0.15541762 0.2117269 -0.19699241 -0.009920002
000180 8a 94 10 3e 94 ca 99 3d 4a 9e 01 3d 79 a7 7d bd
       0.14119163 0.07509342 0.031645097 -0.061927292
000190 79 f7 6f 3e e3 ca 17 bd a6 0e 20 bd e0 d9 34 3b
       0.23434247 -0.037058722 -0.03907647 0.0027595684
0001a0 a8 30 23 3e ed 2e 30 3e 2c 5c 1e bc ae 07 03 3e
       0.1593653 0.17205401 -0.00966553 0.12795898
0001b0 bb 7c 28 3e 14 3e 43 bd 8b 52 b2 bd fa a0 db be
       0.16453831 -0.047666624 -0.0870715 -0.42896253
0001c0 f7 8f b1 3e c4 59 e0 be d6 d0 66 be 2e 88 76 3e
       0.3468015 -0.43818486 -0.22540602 0.24075386
0001d0 15 6e 9b 3c 49 73 c1 bc 7b be 97 3e fa bf 6c 3e
       0.01897339 -0.023614543 0.29637513 0.23120108
0001e0 da 9e 83 be 65 48 b4 3d 53 a6 5e 3d 6f 31 c6 bc
       -0.25707132 0.08802871 0.054357838 -0.024193494
0001f0 bb 66 f4 bc ee a7 8a bc de 41 ee bd 5f 05 64 bd
       -0.029834142 -0.016925778 -0.11633657 -0.055669185

layer1.bias f4 [128]
000000 60 7a 6f 3e 39 19 7c 3e cf 65 65 3e 97 3e 70 3e
       0.23386526 0.24618997 0.22402118 0.23461376
000010 f0 cd 61 3e 2b 23 64 3e 4b 67 78 3e 3b 76 7f 3e
       0.22051215 0.2227904 0.24258153 0.24947445
000020 15 d0 77 3e bc 00 7b 3e cd f1 75 3e 82 11 5b 3e
       0.24200471 0.24511999 0.24018021 0.21393397
000030 24 1b 7b 3e 61 7e 6b 3e 1c b3 73 3e 21 f8 6a 3e
       0.24522072 0.22997428 0.23798794 0.22946216
000040 e8 f5 77 3e 9a a8 6e 3e 80 25 73 3e fd be 72 3e
       0.242149 0.23306504 0.23744774 0.23705669
000050 66 99 73 3e ee 22 76 3e 33 05 6e 3e 8d e3 6d 3e
       0.23788986 0.24036762 0.23244171 0.23231335
000060 77 33 65 3e 2e 9e 62 3e 07 43 61 3e 0e 5c 67 3e
       0.22382914 0.22130653 0.21998225 0.2259371
000070 4f b8 87 3e 30 a9 62 3e b2 02 77 3e 3a 15 85 3e
       0.26507804 0.22134852 0.24122122 0.25992757
000080 9d 92 68 3e 0f e7 7d 3e d6 e9 75 3e 95 ba 70 3e
       0.22712179 0.24795173 0.24014983 0.23508675
000090 ac e1 7e 3e 2d 09 7a 3e 5c 5e 6b 3e 6e 23 82 3e
       0.24890774 0.24417563 0.22985214 0.25417656
0000a0 9b 45 64 3e 69 65 65 3e d9 1a 74 3e e9 61 85 3e
       0.22292177 0.22401966 0.23838367 0.26051262
0000b0 b1 90 68 3e 4f 70 66 3e 68 60 65 3e 50 a7 68 3e
       0.22711445 0.2250378 0.22400057 0.22720075
0000c0 6b 3e 5a 3e 17 ec 72 3e a6 a5 67 3e 1f 82 74 3e
       0.21312873 0.23722874 0.22621784 0.23877762
0000d0 7c 3c 77 3e d7 17 69 3e ef 23 7c 3e 79 5f 80 3e
       0.24144167 0.22763 0.24623083 0.2507284
0000e0 b5 2c 77 3e 83 38 82 3e 63 71 87 3e bb dd 7c 3e
       0.24138148 0.2543374 0.26453695 0.24693958
0000f0 a9 9e 7e 3e c2 a6 76 3e e5 a2 72 3e b6 7d 6b 3e
       0.24865212 0.2408705 0.23694952 0.22997174
000100 c0 ae 7c 3e f1 9e 7a 3e 53 8c 6e 3e 67 2e 6d 3e
       0.24676037 0.24474694 0.23295717 0.23162232
000110 d2 da 73 3e fe 71 62 3e 91 52 7a 3e ea df 6e 3e
       0.23813942 0.22113797 0.24445559 0.23327604
000120 d9 5c 73 3e 87 a1 7c 3e 79 a7 79 3e b6 80 83 3e
       0.23765887 0.24670993 0.24380292 0.25684136
000130 48 56 52 3e 1e ef 89 3e 8f dd 6b 3e 1f 57 7c 3e
       0.20540726 0.26940244 0.23033737 0.24642609
000140 62 90 6b 3e 52 48 80 3e 8a 28 69 3e b9 2c 6b 3e
       0.23004296 0.25055176 0.2276937 0.22966279
000150 e0 10 88 3e 07 24 7d 3e 88 d5 8b 3e b3 44 5b 3e
       0.26575375 0.24720775 0.2731135 0.21412925
000160 9b 5c 85 3e 20 fc 62 3e 16 cb 81 3e b6 0f 87 3e
       0.26047215 0.2216649 0.25350255 0.26379174
000170 79 d8 60 3e e0 0f 72 3e 6d 4e 61 3e 23 95 83 3e
       0.21957578 0.23638868 0.22002573 0.2569972
000180 ad 32 66 3e 6c 42 83 3e 2e 76 66 3e 68 f2 67 3e
       0.22480269 0.25636613 0.2250602 0.22651064
000190 0b 7c 8a 3e 06 93 6e 3e d2 1d 6a 3e 64 6b 73 3e
       0.27047762 0.23298272 0.22862938 0.23771435
0001a0 1c 30 7c 3e 44 ab 52 3e 51 6d 5d 3e 61 f0 84 3e
       0.24627727 0.20573145 0.21623732 0.25964645
0001b0 f3 38 84 3e 54 19 70 3e 35 0f 64 3e 2c 2a 64 3e
       0.258247 0.23447162 0.22271426 0.22281712
0001c0 ef c7 74 3e 20 19 60 3e 42 60 61 3e 63 33 84 3e
       0.23904394 0.21884584 0.22009376 0.25820455
0001d0 32 9d 89 3e 0c bc 77 3e 8e 43 6c 3e 83 27 69 3e
       0.26877743 0.24192828 0.23072645 0.22768979
0001e0 36 ed 7c 3e f6 e1 8a 3e 8c b1 80 3e 86 36 75 3e
       0.24699864 0.2712552 0.25135458 0.2394658
0001f0 8f d2 76 3e ad 78 68 3e e9 d3 80 3e 17 bb 6a 3e
       0.24103759 0.22702284 0.25161675 0.22922932

layer1.fc.weight f4 [128, 50]
000000 c4 dc 51 3e 9b c0 ae be ac 2c 8c 3f c5 27 c3 be
       0.20494372 -0.3413132 1.0951133 -0.3811628
000010 dd b0 44 bf 00 4f ea be ec 1c 02 bf 51 ed b1 3f
       -0.7683237 -0.45763397 -0.5082538 1.3900548
000020 f3 4c d4 be b6 99 93 3e 23 fc 51 3e cf 06 97 3e
       -0.41464958 0.2882821 0.20506339 0.29497382
000030 14 13 48 3e 56 ed 7a be 4e 7c af 3d 42 17 5c bd
       0.19538528 -0.24504599 0.08568631 -0.053733118
000040 82 7a 0d be c8 d0 44 3f 23 b0 19 3e 56 18 0f 3f
       -0.13816264 0.76881075 0.15008597 0.5589651
000050 d4 af 13 3e 54 6c 6c 3e f6 f4 60 3e 0a b8 2b be
       0.14422542 0.23088199 0.21968445 -0.16769424
000060 b8 03 1e 3f 35 98 99 bf d8 e8 35 3f 71 72 a9 be
       0.61724424 -1.1999575 0.71058416 -0.33095124
000070 5e 7d 45 bf f8 87 18 be 49 18 10 bf 08 73 14 bf
       -0.7714442 -0.14895618 -0.56287056 -0.57988024
000080 10 2e d8 be 5d e2 48 bf 3c fa 62 3f 83 c4 3d 3f
       -0.42222643 -0.784704 0.8866308 0.7412798
000090 6e da 8e 3f 28 b3 fa be ee a0 3a 3f cc 5a 28 bf
       1.116041 -0.4896481 0.7290181 -0.65763545
0000a0 49 c6 96 3f ac e1 41 bf d9 13 3e 3f aa 54 12 3f
       1.1779262 -0.7573497 0.74249035 0.5716044
0000b0 1e bd 9b 3e 85 cb b7 be dd df ba bf 57 53 2e be
       0.30417722 -0.3589746 -1.4599568 -0.17023979
0000c0 57 4e 62 3f a1 0d 70 3f e6 95 22 3f e0 9a 6f be
       0.8840079 0.93770796 0.63509977 -0.23398924
0000d0 c2 49 81 3f a5 de 99 3d 02 b9 2d be f6 55 a4 be
       1.0100634 0.07513169 -0.16965106 -0.32096833
0000e0 2b 8b e2 be 23 42 5d 3f ca 6a 3b bf 8e ce 06 be
       -0.44246802 0.8642904 -0.7320982 -0.13164732
0000f0 38 34 a7 3d c8 d0 50 bd 70 d1 f9 3d 95 e8 26 be
       0.08164257 -0.05098036 0.1219815 -0.1629966
000100 e4 d6 b5 3e d8 60 9f 3c 95 c8 30 3d 53 b1 8e 3f
       0.3551551 0.019455358 0.04316004 1.1147865
000110 66 38 ad 3e 8e 54 16 3f db 7a 42 be 6c ce 91 3d
       0.3383209 0.5872277 -0.18992178 0.0711945
000120 ad 11 b9 3d aa 13 38 be e8 ce c5 3e 6c 4c 80 bf
       0.090365745 -0.17976251 0.3863442 -1.0023322
000130 87 fc 0e 3f 30 52 10 bf d1 d4 5d bf 35 c2 80 3d
       0.55854076 -0.5637541 -0.8665286 0.06287042
000140 10 8f 0d bf 69 88 ac be e6 13 f9 be 2d 71 0a bf
       -0.5529642 -0.33697823 -0.48647994 -0.5407894
000150 b5 c4 4d 3f 52 e6 1d 3f 92 70 80 3f 39 e5 bf be
       0.80378276 0.61679566 1.0034354 -0.3747957
000160 a0 23 48 3f 7d 1d 80 bf 65 f9 3d 3f ed 32 3e bf
       0.7817936 -1.0008999 0.7420867 -0.74296457
000170 b2 df 56 3f 41 9d 1c 3f 31 e9 98 3e bb 75 9e be
       0.8393508 0.6117745 0.2986541 -0.30949196
000180 24 7e 94 bf b8 42 fd bd e3 92 33 3f ef e4 52 3f
       -1.1600995 -0.12366241 0.70146006 0.82380575
000190 c3 ed 08 3f d7 1d 6b be 7c b9 9d 3f 93 df b7 3e
       0.53487796 -0.22960602 1.232223 0.3591276
0001a0 99 9f b7 be 9c 9d 10 bf 42 2c 33 bf ad be a4 3f
       -0.3586395 -0.5649049 -0.6998941 1.287069
0001b0 a0 43 6f bf ed d0 c5 3e 57 6a 44 3d 84 da 5f be
       -0.9346256 0.3863596 0.047952976 -0.21860701
0001c0 b3 1f bd bd 6c 97 b5 be e2 57 c8 3e b9 a1 14 3e
       -0.09234562 -0.35467088 0.3912955 0.14514817
0001d0 36 2a 06 bf 02 0c 8f 3f f5 b0 8c 3d 3c 8e 24 3f
       -0.5240816 1.117554 0.068696894 0.6427953
0001e0 69 81 99 3e be 94 06 3f 2b 29 2e 3e ae 49 4a 3d
       0.29981545 0.5257071 0.17007892 0.049386673
0001f0 98 22 41 3f b3 16 68 bf c0 ed 54 3f 37 86 0c bf
       0.7544341 -0.90659636 0.8317528 -0.54892296
000200 03 88 2b bf bf 62 c7 be ce 20 3b bf dd e0 54 bf
       -0.6700441 -0.38942525 -0.7309693 -0.83155614
000210 cf a4 8d be 85 4d 2a bf 45 d2 74 3f 76 58 4e 3f
       -0.276648 -0.66524535 0.95633346 0.8060373
000220 eb 48 b5 3f d9 5d 53 bf a6 c3 96 3f c1 e7 21 bf
       1.4162878 -0.82565075 1.1778457 -0.63244253
000230 c3 57 af 3f f3 19 0d bf 60 39 3c 3f f2 e6 62 3f
       1.3698658 -0.5511772 0.7352505 0.88633645
000240 0b 9b b8 3e 13 28 24 bf c6 90 b4 bf 4a 9e 36 be
       0.36055788 -0.6412365 -1.4106681 -0.1783382
000250 73 7f 3d 3f 40 50 67 3f fa ba 5b 3d 75 66 e9 bc
       0.740226 0.90356827 0.05364511 -0.028491238
000260 47 e0 8d 3f 43 7d 4f 3d cd f1 11 bf a5 b1 60 bf
       1.1084069 0.05065657 -0.57009584 -0.87771064
000270 bc 01 77 bf 69 90 92 3f 01 62 6d bf ca 10 87 be
       -0.9648702 1.145032 -0.9272767 -0.26379997
000280 66 b9 a3 3e 7a ab a1 be af 6b 8e 3e 06 54 08 be
       0.31977385 -0.3157614 0.2781653 -0.13313302
000290 b5 e3 73 3f b3 69 a4 bc 2a 78 35 bf 90 39 18 3f
       0.9526933 -0.020069933 -0.7088648 0.59462833
0002a0 a2 0b 70 bd 54 d7 9e 3e 50 1f 71 3d 18 8b 05 3f
       -0.058604844 0.31023657 0.058867753 0.52165365
0002b0 3b 94 92 3e ea 46 7a 3e 54 d8 dd 3e 82 5c f0 be
       0.28628716 0.24441114 0.43329108 -0.46945578
0002c0 3b 82 95 3f 73 20 18 be 8b 97 e1 be 53 83 c0 3c
       1.1680368 -0.14856128 -0.4406093 0.02350012
0002d0 10 4a 95 bf 19 a8 42 bf 85 ce 28 bf b8 81 43 bf
       -1.1663227 -0.76037747 -0.65940124 -0.7636981
0002e0 d0 b4 9f 3f 71 03 f1 3e d7 10 9b 3f ce 1f d4 be
       1.2477055 0.47072938 1.2114514 -0.41430515
0002f0 6b 74 74 3f b6 d2 82 bf bd 6e 9f 3f cc c0 89 bf
       0.9549014 -1.0220554 1.245567 -1.0761962
000300 a1 44 87 3f 41 a8 31 3f ee b6 99 3e 4f ae 14 bf
       1.0567819 0.6939736 0.30022377 -0.58078474
000310 31 a0 a8 bf 78 cf bb bd 9a cc 7e 3f 17 ca 8d 3f
       -1.3173887 -0.09170431 0.9953095 1.1077298
000320 e9 2c 46 3f e8 d3 93 be 4f 15 af 3f f4 f5 3c be
       0.7741228 -0.2887261 1.3678378 -0.18453199
000330 c9 3d 2f bf 60 0f e5 be 45 b1 ff be 9a c5 7f 3f
       -0.6845365 -0.44738293 -0.49939933 0.9991089
000340 72 6d e8 be 27 56 5a 3e 37 02 8b be 13 b1 9f 3e
       -0.45396 0.21321927 -0.27150127 0.31189784
000350 b0 95 d1 3e 4f 3d a2 be 7c 48 d8 3e cc 31 82 3d
       0.40934515 -0.316874 0.422428 0.06357154
000360 35 c2 71 be 3e 95 8e 3f df 4c cb 3d ae 65 b7 3e
       -0.2360924 1.1139295 0.099267714 0.35819763
000370 97 50 23 3e 07 e1 16 3f 66 6b de 3e c9 6b 54 be
       0.15948711 0.58937114 0.43441314 -0.20744242
000380 b9 9c 59 3f 16 6b 55 bf c6 57 2e 3f 62 8f 2a bf
       0.85004765 -0.83366525 0.6810268 -0.66625035
000390 8a cf 50 bf 5d ca 89 bd 38 10 4b bf 98 d8 11 bf
       -0.8156668 -0.06728051 -0.7932162 -0.5697112
0003a0 b5 fd 25 be fe 3d 51 bf 19 e7 70 3f db 08 55 3f
       -0.16210063 -0.8173522 0.9410263 0.8321664
0003b0 c5 03 c3 3f 86 01 41 bf 1d 9c 44 3f fc 11 2f bf
       1.5235525 -0.7539295 0.7680071 -0.68386817
0003c0 7c 4e 70 3f 94 6e 44 bf 52 0f 51 3f 10 ff d1 3e
       0.9386976 -0.7673123 0.81664 0.4101491
0003d0 31 db 94 3e 93 48 e1 be 2b 3c dd bf eb d2 a1 be
       0.2907348 -0.44000682 -1.7283987 -0.3160623
0003e0 75 80 d3 3e 83 8e 71 3f 46 eb a8 3c 14 ab 84 3d
       0.41308942 0.9435808 0.02062 0.06477943
0003f0 c3 2b b4 3f 62 cd a9 bd 56 16 4a bf 42 35 4f bf
       1.4075855 -0.08291127 -0.7894033 -0.8094064

layer2.attn_l f4 [1, 8, 167]
000000 88 03 a8 be 15 26 b7 be 03 a2 a2 be f9 b3 85 be
       -0.32815194 -0.35771242 -0.3176423 -0.2611387
000010 3e 54 9f be b8 c3 a9 be 6f 0f 93 be d6 8d 84 be
       -0.3111896 -0.33157134 -0.28722712 -0.25889462
000020 79 b1 93 be fb cd 7c be 44 93 9e be f4 1c 5f be
       -0.28846338 -0.2468795 -0.3097173 -0.21788388
000030 4b 68 bd be ac b2 be be 73 1a aa be 10 67 63 be
       -0.36993632 -0.3724569 -0.33223304 -0.22207284
000040 65 83 91 be aa 98 65 be f2 62 a1 be de e2 70 be
       -0.2842056 -0.22421518 -0.31520802 -0.23524043
000050 22 be b2 be c1 33 7c be fb 56 df be a7 88 7c be
       -0.34910685 -0.24629118 -0.43621048 -0.24661504
000060 bf 01 86 be b0 03 6b be b7 1e 56 be a0 5b a0 be
       -0.26173207 -0.22950625 -0.20910154 -0.31319904
000070 79 df 78 be 59 ae 80 be 73 3f c3 be 50 05 8e be
       -0.24303998 -0.25133017 -0.38134345 -0.27738428
000080 7c 18 9c be a2 0d a6 be 7c ca 8b be 1f 5f 7f be
       -0.3048743 -0.32432276 -0.2730292 -0.2493863
000090 82 9a 8e be db 3f 86 be 37 17 7d be e5 5e 15 be
       -0.27852255 -0.26220593 -0.24715887 -0.1458698
0000a0 c2 72 8f be 3c ed 96 be 1c 33 4f be 9f 93 9f be
       -0.2801724 -0.2947787 -0.2023434 -0.31167313
0000b0 5e 75 74 be 15 e6 91 be f1 b1 93 be 9b a6 7d be
       -0.23872897 -0.2849585 -0.28846696 -0.24770586
0000c0 1b bf 71 be fa fa 73 be 6a 2b 94 be 29 31 a4 be
       -0.23608057 -0.23826209 -0.28939372 -0.32068756
0000d0 54 8f 5c be 48 cd 90 be d4 4e 5d be dc c8 56 be
       -0.2153905 -0.28281617 -0.21612102 -0.2097506
0000e0 82 97 91 be 96 fc 91 be 86 fe 69 be ac 29 c8 be
       -0.28435904 -0.2851302 -0.22850999 -0.39094293
0000f0 b0 b8 b1 be 36 31 73 be ff 91 98 be 74 cf 90 be
       -0.34711218 -0.23749241 -0.29798886 -0.28283274
000100 11 25 a4 be 24 b3 c0 bd a0 06 87 be af 8e 7b be
       -0.3205953 -0.09409168 -0.26372242 -0.24566148
000110 24 08 98 be ad d2 8d be 73 03 67 be 7e f9 9a be
       -0.2969371 -0.27699795 -0.2255991 -0.30268472
000120 43 56 a6 be b0 b4 49 be 5a b1 8a be f8 b4 9f be
       -0.32487687 -0.19697833 -0.27088434 -0.31192756
000130 e6 b7 69 be 83 5a 91 be 84 c3 9b be e2 89 92 be
       -0.22824058 -0.28389367 -0.30422604 -0.2862082
000140 3e 9f 8f be b5 a0 83 be bb 16 98 be 65 63 bd be
       -0.2805118 -0.25708547 -0.29704842 -0.36989895
000150 6d 01 9e be 99 4a 80 be 82 db bd be ac e1 86 be
       -0.30860463 -0.25056913 -0.37081534 -0.2634405
000160 c9 42 6f be dd 06 98 be b0 08 6f be 59 16 83 be
       -0.2336532 -0.29692736 -0.23343158 -0.25602987
000170 2c 1b 84 be 2d f3 a9 be 05 a9 5b be 17 f3 81 be
       -0.2580198 -0.3319334 -0.21451195 -0.25380775
000180 5b 3d b4 be a3 a0 c4 be 80 96 9f be df 65 94 be
       -0.3520306 -0.38403806 -0.3116951 -0.2898397
000190 ca ed 84 be c3 cb 74 be 81 ef b1 be c1 43 7e be
       -0.2596267 -0.23905854 -0.3475304 -0.24830534
0001a0 c5 33 b7 be 8a 4e 9a be 89 14 b3 be 67 33 9b be
       -0.35781685 -0.30138046 -0.34976605 -0.30312654
0001b0 d1 7c 41 be e0 8a 69 be e5 10 8e be 57 8f 9c be
       -0.1889527 -0.22806883 -0.27747265 -0.3057811
0001c0 98 15 a5 be 40 64 6c be 66 17 43 be a5 90 aa be
       -0.32243037 -0.23085117 -0.19051895 -0.3331348
0001d0 2c 3b 85 be 99 a6 9e be 9f 33 96 be 26 d6 89 be
       -0.26021707 -0.3098648 -0.2933626 -0.26921195
0001e0 f6 c6 58 be d0 5c b4 be fa 82 bb be 4e 57 a3 be
       -0.21169648 -0.3522706 -0.36623365 -0.31902546
0001f0 f0 4e 88 be 64 5c 85 be df 34 80 be 2a 18 90 be
       -0.26622725 -0.2604705 -0.25040337 -0.28143436
000200 4a f3 98 be bd f5 63 be 9c f7 aa be 84 05 61 be
       -0.29873115 -0.2226171 -0.33392036 -0.2197476
000210 1e fe 86 be ea 71 88 be e4 59 3a be 79 6a 9f be
       -0.2636575 -0.2664941 -0.18198353 -0.3113592
000220 58 de 6e be 60 9e 46 be 62 9f 06 be fc 4f 83 be
       -0.23327005 -0.19396353 -0.13146737 -0.2564696
000230 be 49 7b be 33 b5 9f be 81 7b a1 be 9b c6 6a be
       -0.24539849 -0.31192932 -0.31539539 -0.22927324
000240 e8 75 a0 be ba 1c 85 be df 38 99 be 66 b7 69 be
       -0.31339955 -0.2599848 -0.29926202 -0.22823867
000250 dc bd 93 be 73 c6 94 be 34 6c a3 be d4 11 9e be
       -0.2885579 -0.29057655 -0.3191849 -0.30872977
000260 d1 4b 84 be f0 65 b8 be 2d d7 76 be 6f 3f 76 be
       -0.25839093 -0.36015272 -0.2410552 -0.24047635
000270 9f 36 ce be 73 7a 9b be 14 c5 83 be 97 8d 99 be
       -0.40276048 -0.3036686 -0.25736296 -0.29990837
000280 6e 8f 9e be 4a 57 5d be 3b 3f 78 be b5 9b 8c be
       -0.30968803 -0.2161533 -0.2424287 -0.27462545
000290 30 ff 56 be 08 50 75 be 74 88 88 be e0 52 6c be
       -0.20995784 -0.23956311 -0.26666605 -0.2307849
0002a0 00 38 99 be bd 13 61 be e9 f1 a8 be 14 3f 54 be
       -0.29925537 -0.21980186 -0.32997063 -0.20727187
0002b0 82 7d 9e be eb 89 8b be 95 a7 61 be 34 ee 8d be
       -0.3095513 -0.2725366 -0.22036584 -0.27720797
0002c0 5e a2 90 be 02 6a 8e be 1a 3a 76 be d5 34 81 be
       -0.28248876 -0.27815253 -0.24045601 -0.2523562
0002d0 e6 44 3a be 10 55 87 be 93 60 8b be 86 67 ad be
       -0.18190345 -0.26432085 -0.27222118 -0.33868045
0002e0 4b 70 b2 be 85 ca 96 be 08 01 6b be ad be 6b be
       -0.34851298 -0.29451385 -0.22949612 -0.23021956
0002f0 8d 88 7d be 3b be ae be 0a 93 88 be db 2a b9 be
       -0.24759121 -0.3412951 -0.26674682 -0.3616551
000300 bb 25 4b be 9f aa 6a be 80 df 63 be 93 e5 93 be
       -0.19838612 -0.2291665 -0.22253227 -0.2888609
000310 49 dd 92 be b4 f2 92 be 20 5b 79 be 7e 26 83 be
       -0.28684452 -0.28700793 -0.24351168 -0.25615305
000320 91 ca 81 be 61 c3 45 be 76 2a 99 be da 9c ae be
       -0.25349858 -0.19312812 -0.29915208 -0.34104043
000330 e2 04 ad be 81 5e af be 26 4b 6c be 20 2d 89 be
       -0.33792788 -0.34251788 -0.23075542 -0.2679224
000340 bc f6 91 be 6d cd 97 be 57 3f 96 be d8 59 53 be
       -0.28508556 -0.29648915 -0.293452 -0.20639741
000350 a2 8b 82 be 2e 14 73 be e8 67 b4 be dd db 7b be
       -0.25497156 -0.23738167 -0.35235524 -0.2459559
000360 bb 14 79 be 67 57 95 be 3a b8 82 be 84 cf 4b be
       -0.24324314 -0.29168245 -0.2553118 -0.1990338
000370 b3 6b 96 be 6b 1f 62 be 29 db 69 be 67 98 8f be
       -0.29379043 -0.22082298 -0.22837509 -0.2804596
000380 76 93 41 be 6f 8d 95 be c1 e4 62 be 07 5e 74 be
       -0.18903908 -0.29209468 -0.22157575 -0.23863994
000390 99 a5 86 be b5 20 83 be 64 fb 9d be b0 14 46 be
       -0.26298216 -0.2561089 -0.30855858 -0.19343829
0003a0 00 84 55 be 1b 2c 3d be e0 7d 77 be 6a 31 aa be
       -0.20851135 -0.18473856 -0.24169111 -0.33240825
0003b0 e1 91 80 be 9a 4b 9f be b6 99 76 be 15 c3 d1 be
       -0.25111297 -0.31112367 -0.24082074 -0.40969148
0003c0 fe 5f 81 be 7e 28 9f be ef 8e 69 be d1 65 8b be
       -0.2526855 -0.3108558 -0.22808431 -0.27226117
0003d0 ce 6f 92 be 18 5c 8c be c2 6f a0 be c8 26 8d be
       -0.28600925 -0.27414012 -0.31335264 -0.2756865
0003e0 31 8d 8d be e3 86 c4 be f8 c0 9b be 95 78 50 be
       -0.27646783 -0.3838416 -0.3042066 -0.20358498
0003f0 c7 a2 56 be 40 d1 84 be 77 c2 9c be 68 38 a3 be
       -0.20960532 -0.25940895 -0.30617115 -0.31878972

layer2.attn_r f4 [1, 8, 167]
000000 4e b3 cf 3c 44 e2 35 bd c9 da d8 3c 16 41 06 bd
       0.025354054 -0.044405237 0.026471512 -0.032776915
000010 07 76 08 3e 32 f7 87 bc ae fb 81 3c 67 fb 18 bd
       0.13326274 -0.016597364 0.01586708 -0.03734913
000020 5a c8 b6 3d b8 2a cf bb b8 ca 18 bc ca e3 8f bc
       0.08924933 -0.006322231 -0.009325676 -0.017564673
000030 d3 73 01 3b 05 60 42 3c 6e 61 78 3d 01 ea e2 bc
       0.0019752875 0.011863713 0.06063979 -0.027699472
000040 40 b4 3a bc 03 37 80 3d ab 21 06 bd e7 9f 95 3d
       -0.011395514 0.06260493 -0.032746952 0.073058896
000050 68 21 59 3c b4 50 07 3d 6a ba f8 3b b9 b3 51 3d
       0.013252594 0.03303595 0.0075905817 0.051196788
000060 04 95 dd 3b 19 18 ba bd ca ac 9c bb 60 64 48 3d
       0.006762149 -0.090866275 -0.0047813402 0.04892385
000070 83 21 87 bd e1 97 62 bc 70 23 0f 3d 85 ee b2 3c
       -0.06598189 -0.013830156 0.034945905 0.02184225
000080 f6 74 0b 3d 4d 2e ca 3d 1f 21 36 3d 0d a6 8c 3d
       0.03404709 0.098721124 0.04446518 0.06867609
000090 ee 7d 1e 3a 33 14 9f 3c ad e9 f2 3c 77 7b 3c bd
       0.00060459867 0.019418811 0.02965244 -0.046016183
0000a0 e7 ce 73 3d 59 3f 9f bd 5e ea 0f 3d 65 78 05 bc
       0.05952349 -0.077757545 0.03513562 -0.00814638
0000b0 d6 cb ea bd b4 37 e7 bc ab 2d 5c bd 90 28 e0 bc
       -0.1146466 -0.028224804 -0.05375449 -0.027363092
0000c0 0c 2a 13 bd d0 be 18 bc cc dd 32 bd 97 59 7d 3c
       -0.03592877 -0.009322837 -0.043668553 0.015463254
0000d0 ed 45 5c 3d 5f ca 85 3d 34 dc 61 bb 68 1e bb bc
       0.053777624 0.0653274 -0.0034463527 -0.022841647
0000e0 dc e4 2c bd 8c 65 10 3d f0 a5 30 bd 59 07 2d bb
       -0.042210445 0.035253093 -0.043127 -0.0026402085
0000f0 74 51 84 3d ee 19 b3 bd 49 fe 2c 3d 91 e2 12 3d
       0.064608485 -0.0874518 0.042234693 0.0358606
000100 8d 41 8e bd e8 7d bc bd a0 7f ac bc 21 e3 57 3a
       -0.069460966 -0.09203702 -0.02105695 0.0008235444
000110 0e 89 1f bb 83 ae a2 bd 23 8d 39 bd 5c dc 08 3d
       -0.0024343166 -0.07943442 -0.045300614 0.033413276
000120 b3 08 d0 3d b8 f0 0d bd 48 e6 7e 3c 3f f8 7c bd
       0.10157909 -0.034653395 0.015557833 -0.061760183
000130 e4 0a 65 bd ef aa 11 bc fc 9d 59 bd 3e b1 89 bd
       -0.05591859 -0.008890851 -0.05312918 -0.067232594
000140 42 eb a7 3c b5 16 51 3b 0b 54 9f bd 6c 67 0b 3d
       0.020497922 0.0031904404 -0.07779702 0.034034178
000150 4d 2d c7 bd 0c cf 85 3b eb 0d 0c 3d d3 f7 7b 3d
       -0.09725437 0.00408352 0.03419296 0.06151564
000160 cf c1 4b bd 74 59 3d 3b c2 6d 60 3d ae ee 2e bb
       -0.049745377 0.002889243 0.054792173 -0.0026692557
000170 a6 27 c0 3a 9d 58 a7 3d e9 6a 23 bd 3d 94 d5 bc
       0.0014660254 0.081711985 -0.03989688 -0.026071662
000180 0b 1c 5f 3c fc 68 70 bc d4 d0 c1 bd f2 d6 90 bd
       0.013617526 -0.014673468 -0.09463659 -0.070722476
000190 95 bf 9a 3c 8c a9 99 3d da 21 cc bd 3d 06 19 bd
       0.018890182 0.075030416 -0.09967394 -0.037359465
0001a0 aa e8 77 3d 68 c8 23 bd 73 a9 59 3d 72 4d dc 3c
       0.06052462 -0.039986044 0.053140115 0.026892398
0001b0 35 86 17 bd eb b7 d0 3d 5a 43 f9 3c 93 4d 74 3c
       -0.036993224 0.101913296 0.030427624 0.014911073
0001c0 8c e4 44 bc 42 98 af bc 58 ab 3d bc 32 d8 b4 3c
       -0.01201738 -0.021434907 -0.011576496 0.022075746
0001d0 c8 2c 9a 3d fb ec 69 3c 09 ba ea bc 05 05 a2 3c
       0.075280726 0.014277692 -0.028653162 0.019777784
0001e0 6a 0e 10 bd 92 30 03 3e cb a5 ae bc c8 e4 0b 3e
       -0.035169996 0.12811497 -0.02131929 0.13661492
0001f0 e7 02 b0 bd 47 ab 1f bd 64 53 2b 3d f5 98 ae bc
       -0.085943036 -0.038981702 0.041827574 -0.02131317
000200 b3 b5 07 bd f5 6f 9a 3c 39 5b 29 3d 79 f7 0e bb
       -0.033132266 0.018852213 0.041346762 -0.0021814986
000210 cf 93 7c 3d 34 fb cc 3c f2 dd a7 bd 84 0b c6 3d
       0.0616644 0.025022127 -0.081966296 0.09670165
000220 63 e5 16 bd 45 b0 7e 3d 88 75 3c 3d ca 23 d9 3c
       -0.036839854 0.062179822 0.046010524 0.026506323
000230 41 da 36 3d 26 b7 2a bd cd 4f e0 bb d7 5e 3b 3d
       0.044641737 -0.04167857 -0.0068454505 0.045744743
000240 4c 33 17 bd 53 45 98 3c 20 a2 68 bd fc 2c 1a 3d
       -0.036914155 0.018587744 -0.05679524 0.037640557
000250 b3 81 fe bb c8 e5 9d 3d 63 0a e1 bd da c9 8b 3d
       -0.007766926 0.07709843 -0.10988309 0.068256095
000260 f7 3e 36 bd 3f b8 b0 3d 29 5e 19 bd 9f 72 c6 bd
       -0.04449364 0.08628892 -0.037443314 -0.09689831
000270 92 b0 29 bc 4a ff a0 3c 7a ef 35 bc cf 20 38 bc
       -0.010357039 0.019652981 -0.011104459 -0.011238291
000280 26 21 ed bb 2f f5 c5 bd 6e c7 67 bd 2a 86 39 bc
       -0.0072366176 -0.09665906 -0.056586675 -0.011323491
000290 67 7e cb bc 21 bb 30 bd 48 1d 35 bd 35 8f f1 bc
       -0.024840547 -0.04314721 -0.044217378 -0.029487232
0002a0 bb d6 b9 3c e0 d1 a1 bd 64 47 18 3d 22 5e b5 3c
       0.0226854 -0.079013586 0.03717746 0.022139613
0002b0 40 5e 07 bd 00 bd 0b bd b6 1d c3 3d 85 92 ee 3d
       -0.03304887 -0.03411579 0.09527151 0.1164904
0002c0 ba 57 f8 3c fe ec 00 3e 96 36 84 3c 43 c1 f2 bd
       0.030315269 0.12590405 0.01613931 -0.11853268
0002d0 f1 b9 ce bb ec 77 0a bd ba 86 dc bc f2 4b 4c 3d
       -0.006308787 -0.033805773 -0.026919711 0.049877115
0002e0 bf 70 5e bc 4c 7b d9 3d 93 b1 b9 3c 10 25 bb bc
       -0.013576685 0.1061922 0.022667682 -0.022844821
0002f0 ab f7 84 3b 9c 0e 47 3d c5 0f f6 3d 78 87 76 bd
       0.0040578446 0.048597917 0.120147265 -0.060187787
000300 d1 71 80 3d 2d 37 80 3d 5b a9 a5 bd 95 07 eb 3b
       0.06271709 0.06260524 -0.080889426 0.0071725347
000310 48 d5 45 bd 9f a6 a1 bd 8a cd 1d 3d d5 b4 38 3d
       -0.048299104 -0.078931086 0.038526095 0.04509433
000320 f7 db 3c bc 5d be b7 ba 55 76 2e bd 76 7b 4c 3c
       -0.011527053 -0.0014018525 -0.04259332 0.012480607
000330 e8 9d f5 3c c2 8f 9a 3b bf e8 9b 3d 0c df 5c bb
       0.029982522 0.0047168443 0.07612752 -0.0033702282
000340 63 1d 5f 3d 21 58 e8 bc 75 ab cf bc ea 47 dd 3c
       0.054471385 -0.028362336 -0.025350312 0.02701183
000350 fd 96 a4 3c 3b 87 64 bd ea 0a c9 39 d2 69 03 bd
       0.020091528 -0.05579303 0.0003834584 -0.03208334
000360 37 a2 9b bc ae a1 82 39 c3 62 e4 3d c6 7a 3a bc
       -0.018998249 0.00024915993 0.1115165 -0.0113818105
000370 5d be 18 bd 64 4f 97 bc eb 39 ef bc c6 7c 1e 3c
       -0.03729092 -0.018470474 -0.029202422 0.009673303
000380 bb 72 af 3d a5 06 e2 3b ce 69 b5 bd c0 86 08 3d
       0.08566805 0.0068977647 -0.08858071 0.033331633
000390 1e d3 db bc 9c ba 0d bd ea 1f bd bd d3 9b 53 3d
       -0.026834067 -0.034601793 -0.09234603 0.051662277
0003a0 e3 64 18 bd 09 31 0d 3d d4 1a f4 bc 24 2a 82 3b
       -0.037205588 0.03447059 -0.029797949 0.0039723087
0003b0 e6 aa 67 3c 17 9f 78 bd ca 45 8d bd b5 11 e0 bb
       0.014139866 -0.060698595 -0.06898077 -0.0068380483
0003c0 9b 83 c9 3c 42 60 df 3b 06 8c cf 3c ac f5 c4 ba
       0.024598887 0.0068168947 0.025335323 -0.0015026829
0003d0 00 9b b6 3d 05 33 0a 3d 76 a3 59 bc 3a 1b 1c 3d
       0.08916283 0.033740062 -0.013283601 0.038111903
0003e0 dd 00 9b bd ca c7 3f bc 1a f2 84 3d e6 bd d1 bc
       -0.07568524 -0.011705348 0.0649149 -0.025603246
0003f0 05 77 e2 bc cb 32 b5 bd fe 3a 13 3d 65 83 39 bd
       -0.027644644 -0.088475786 0.03594493 -0.045291323

layer2.bias f4 [1336]
000000 3a e0 55 bf 06 7a 40 bf 24 1a 41 bf 9e 69 65 bf
       -0.8354527 -0.75186193 -0.7543051 -0.89614284
000010 bb ce 41 bf 5e f0 56 bf 8a e7 f1 be f7 cc 8a bf
       -0.7570607 -0.8396052 -0.47246963 -1.08438
000020 b0 c5 6b bf 84 83 3e bf bb 76 3d bf 79 ec 40 bf
       -0.9209852 -0.74419427 -0.74009293 -0.7536083
000030 d8 d7 40 bf e4 e1 57 bf d9 9e 3f bf 35 02 5b bf
       -0.7532935 -0.84329057 -0.7485176 -0.8555024
000040 6b c0 8e bf 66 d3 83 bf 17 7c 3e bf 5e 0b 3f bf
       -1.1152471 -1.0298889 -0.74408096 -0.7462672
000050 29 66 3e bf 5b 0c 7e bf 99 b6 72 bf 3e 42 5f bf
       -0.74374634 -0.992376 -0.9480987 -0.8721045
000060 0a d5 40 bf cd 07 82 bf e8 7c 40 bf 96 88 56 bf
       -0.7532507 -1.0158631 -0.7519059 -0.83802164
000070 0a 19 90 bf 0d 64 7e bf 01 75 3d bf e8 ec 42 bf
       -1.1257641 -0.99371415 -0.7400666 -0.7614274
000080 8b ea 77 bf 8e 14 3e bf 74 5e 43 bf 2e e5 6e bf
       -0.9684226 -0.74250114 -0.76316 -0.9331845
000090 b1 51 3d bf aa 18 6a bf f0 e6 42 bf 41 0b 52 bf
       -0.73952776 -0.91443884 -0.7613363 -0.8204842
0000a0 97 83 73 bf 89 99 40 bf a8 6b 42 bf 25 3e 40 bf
       -0.95122665 -0.75234276 -0.7594552 -0.75094825
0000b0 17 33 43 bf d1 bc 4a bf 71 1e 2a bf 7a 63 3d bf
       -0.7624983 -0.7919436 -0.664527 -0.73979914
0000c0 c5 75 40 bf db 4d 3f bf 01 44 59 bf ae a4 6d bf
       -0.751797 -0.74728173 -0.8486939 -0.92829406
0000d0 b0 49 8a bf 49 58 40 bf 58 ae 40 bf 90 b1 3f bf
       -1.0803738 -0.7513471 -0.7526603 -0.74880314
0000e0 be 6b 55 bf 1d 44 43 bf fe 76 45 bf 52 8d 7e bf
       -0.83367527 -0.7627581 -0.7713469 -0.9943439
0000f0 4b 6c 3f bf 36 fc 5b bf 27 88 71 bf a6 d6 40 bf
       -0.74774617 -0.8593172 -0.94348377 -0.7532753
000100 44 83 6a bf 31 fe 73 3e c2 43 86 bf d8 23 55 bf
       -0.91606545 0.23827435 -1.0489428 -0.8325782
000110 cf 4f 6c bf 4a 7c 74 bf fb 70 05 bf 40 ec 3e bf
       -0.9230928 -0.9550215 -0.5212552 -0.7457924
000120 a7 51 58 bf ce c4 54 bf 03 7a 41 bf f6 e1 3a bf
       -0.8449959 -0.831128 -0.755768 -0.7300104
000130 8d 64 3f bf f9 e0 7c bf 10 d3 52 bf 50 10 54 bf
       -0.74762803 -0.9878078 -0.82353306 -0.8283739
000140 37 d1 64 bf 1e 22 3f bf 56 e2 87 bf fb 1d 40 bf
       -0.89381737 -0.74661434 -1.0615947 -0.75045747
000150 70 21 63 bf 18 51 81 bf 1b f3 3f bf 3b 66 41 bf
       -0.88722897 -1.0102873 -0.74980325 -0.75546616
000160 23 94 6d bf 99 1a 55 bf 3b 6b 6a bf 6c 60 80 bf
       -0.92804164 -0.8324371 -0.9156987 -1.0029426
000170 57 09 43 bf 84 84 6a bf b7 fe 58 bf 65 90 52 bf
       -0.76186126 -0.9160845 -0.84763664 -0.8225158
000180 5d d0 69 bf 44 96 41 bf 86 ea 40 bf 64 87 6c bf
       -0.9133356 -0.7561991 -0.75357854 -0.9239409
000190 33 75 6c bf f3 0c 82 bf 63 d1 09 bf 98 3c 6e bf
       -0.9236633 -1.0160202 -0.53835124 -0.9306121
0001a0 a6 88 3f bf 8b 97 82 bf 1e aa e5 bd bb 2a 6b bf
       -0.74817884 -1.0202497 -0.11214088 -0.91862077
0001b0 f9 70 87 bf 75 2e 3d bf af 0d 6c bf 76 09 41 bf
       -1.0581352 -0.7389901 -0.9220838 -0.7540506
0001c0 28 d9 3f bf 6f 02 6f bf 64 f7 68 bf 5d a7 82 bf
       -0.7494073 -0.9336309 -0.9100249 -1.0207325
0001d0 1e 6e 3d bf 82 10 54 bf b4 a1 89 bf c7 92 3f bf
       -0.7399615 -0.8283769 -1.0752473 -0.7483334
0001e0 26 33 6f bf 9c 9c 3f bf 99 b1 71 bf 51 43 76 bf
       -0.9343742 -0.7484834 -0.9441162 -0.96196467
0001f0 90 1a 40 bf 8e d8 41 bf 04 54 5b bf 4a e6 75 bf
       -0.7504053 -0.7572106 -0.8567507 -0.9605452
000200 16 e2 7c bf 67 50 6f bf 9d 8f 59 bf 8c 96 8a bf
       -0.9878248 -0.9348206 -0.8498476 -1.0827193
000210 f2 39 9b bf 4c d3 68 bf 0e 1f 7d bf 5f 26 c6 be
       -1.2127059 -0.90947413 -0.9887551 -0.3870115
000220 d0 a6 65 bf 81 d5 3f bf 27 75 70 bf 35 00 44 bf
       -0.8970766 -0.74935156 -0.9392876 -0.76562816
000230 09 88 62 bf bb dd 4b be 4b 64 42 bf e3 b2 42 bf
       -0.88488823 -0.19908802 -0.75934285 -0.7605421
000240 2a ce 40 bf 4e ba 6f bf 78 5d 6d bf e9 0c 0b bf
       -0.7531458 -0.93643653 -0.92720747 -0.54316574
000250 15 5b 6c bf f5 d8 4c bf d7 f5 42 bf 7c 8c 40 bf
       -0.9232648 -0.8001855 -0.7615637 -0.7521436
000260 4d b1 41 bf 45 82 40 bf 41 c0 32 bf 6c 1d 48 bf
       -0.75661165 -0.75198776 -0.69824606 -0.78169894
000270 e5 9b 70 bf 4d d7 3d bf 8d cf 40 bf e5 7a 81 bf
       -0.93987876 -0.7415665 -0.753167 -1.011563
000280 4b 30 6d bf 7e b8 9a bf 8c 63 3f bf 4f 5a 40 bf
       -0.92651814 -1.2087553 -0.7476127 -0.751378
000290 07 f5 3c bf e7 de 8c bf 37 66 7d bf 3a e0 55 bf
       -0.7381138 -1.1005524 -0.9898409 -0.8354527
0002a0 06 7a 40 bf 24 1a 41 bf 9e 69 65 bf bb ce 41 bf
       -0.75186193 -0.7543051 -0.89614284 -0.7570607
0002b0 5e f0 56 bf 8a e7 f1 be f7 cc 8a bf b0 c5 6b bf
       -0.8396052 -0.47246963 -1.08438 -0.9209852
0002c0 84 83 3e bf bb 76 3d bf 79 ec 40 bf d8 d7 40 bf
       -0.74419427 -0.74009293 -0.7536083 -0.7532935
0002d0 e4 e1 57 bf d9 9e 3f bf 35 02 5b bf 6b c0 8e bf
       -0.84329057 -0.7485176 -0.8555024 -1.1152471
0002e0 66 d3 83 bf 17 7c 3e bf 5e 0b 3f bf 29 66 3e bf
       -1.0298889 -0.74408096 -0.7462672 -0.74374634
0002f0 5b 0c 7e bf 99 b6 72 bf 3e 42 5f bf 0a d5 40 bf
       -0.992376 -0.9480987 -0.8721045 -0.7532507
000300 cd 07 82 bf e8 7c 40 bf 96 88 56 bf 0a 19 90 bf
       -1.0158631 -0.7519059 -0.83802164 -1.1257641
000310 0d 64 7e bf 01 75 3d bf e8 ec 42 bf 8b ea 77 bf
       -0.99371415 -0.7400666 -0.7614274 -0.9684226
000320 8e 14 3e bf 74 5e 43 bf 2e e5 6e bf b1 51 3d bf
       -0.74250114 -0.76316 -0.9331845 -0.73952776
000330 aa 18 6a bf f0 e6 42 bf 41 0b 52 bf 97 83 73 bf
       -0.91443884 -0.7613363 -0.8204842 -0.95122665
000340 89 99 40 bf a8 6b 42 bf 25 3e 40 bf 17 33 43 bf
       -0.75234276 -0.7594552 -0.75094825 -0.7624983
000350 d1 bc 4a bf 71 1e 2a bf 7a 63 3d bf c5 75 40 bf
       -0.7919436 -0.664527 -0.73979914 -0.751797
000360 db 4d 3f bf 01 44 59 bf ae a4 6d bf b0 49 8a bf
       -0.74728173 -0.8486939 -0.92829406 -1.0803738
000370 49 58 40 bf 58 ae 40 bf 90 b1 3f bf be 6b 55 bf
       -0.7513471 -0.7526603 -0.74880314 -0.83367527
000380 1d 44 43 bf fe 76 45 bf 52 8d 7e bf 4b 6c 3f bf
       -0.7627581 -0.7713469 -0.9943439 -0.74774617
000390 36 fc 5b bf 27 88 71 bf a6 d6 40 bf 44 83 6a bf
       -0.8593172 -0.94348377 -0.7532753 -0.91606545
0003a0 31 fe 73 3e c2 43 86 bf d8 23 55 bf cf 4f 6c bf
       0.23827435 -1.0489428 -0.8325782 -0.9230928
0003b0 4a 7c 74 bf fb 70 05 bf 40 ec 3e bf a7 51 58 bf
       -0.9550215 -0.5212552 -0.7457924 -0.8449959
0003c0 ce c4 54 bf 03 7a 41 bf f6 e1 3a bf 8d 64 3f bf
       -0.831128 -0.755768 -0.7300104 -0.74762803
0003d0 f9 e0 7c bf 10 d3 52 bf 50 10 54 bf 37 d1 64 bf
       -0.9878078 -0.82353306 -0.8283739 -0.89381737
0003e0 1e 22 3f bf 56 e2 87 bf fb 1d 40 bf 70 21 63 bf
       -0.74661434 -1.0615947 -0.75045747 -0.88722897
0003f0 18 51 81 bf 1b f3 3f bf 3b 66 41 bf 23 94 6d bf
       -1.0102873 -0.74980325 -0.75546616 -0.92804164

layer2.fc.weight f4 [1336, 128]
000000 ef 1d 88 be e4 b7 24 be 86 47 3b be 21 bf a0 be
       -0.26585338 -0.16085774 -0.18289003 -0.3139582
000010 3f 26 ac be 28 16 a2 be d1 2a e6 bd 50 f0 62 be
       -0.3362293 -0.3165753 -0.11238635 -0.22161984
000020 56 3e 99 be 2a 8b a2 be 95 51 99 be a5 d1 97 be
       -0.2993037 -0.317468 -0.29945055 -0.29652134
000030 7f 80 9f be 96 88 6b be 67 5c 8d be b1 6d 28 be
       -0.31152722 -0.23001322 -0.2760956 -0.16448094
000040 1c 2e c0 be 18 fc 8f be 4f 2d 70 be bd bb 68 be
       -0.3753518 -0.2812202 -0.23454784 -0.22727866
000050 0a cd 89 be 86 45 ac be 49 d2 52 be 9d d9 a2 be
       -0.26914245 -0.33646792 -0.2058803 -0.3180665
000060 ad ed 7f be 57 b3 64 be f2 00 71 be 03 7a 31 be
       -0.2499301 -0.22334038 -0.23535517 -0.173317
000070 59 b2 47 be 4a 88 3e be f2 8f 86 be 96 56 01 be
       -0.19501628 -0.18606678 -0.26281697 -0.12630686
000080 55 e9 2b be 4f f2 98 be df df 82 be 83 e9 a0 be
       -0.16788228 -0.29872367 -0.25561425 -0.31428155
000090 81 01 89 be d2 0d 8d be e5 75 7f be 59 4b 87 be
       -0.2675896 -0.27549607 -0.24947317 -0.26424673
0000a0 45 d5 6a be 40 87 8f be 06 1f 85 be ee ca 82 be
       -0.22932918 -0.28032875 -0.26000232 -0.25545448
0000b0 48 1c b5 be 0b 42 a2 be ae ba 95 be 41 0d 97 be
       -0.3537314 -0.31691012 -0.29243988 -0.295023
0000c0 62 58 62 be 46 fa 8e be 6e 16 93 be 0d 64 8b be
       -0.22104028 -0.27925318 -0.2872805 -0.2722477
0000d0 87 42 a3 be 66 c9 8b be de a7 81 be 9f 91 91 be
       -0.31886694 -0.27302092 -0.25323385 -0.28431413
0000e0 a1 a1 b9 be b9 c6 5a be 56 7d 8e be 80 c7 84 be
       -0.36256126 -0.21364869 -0.2783 -0.25933456
0000f0 85 f9 b1 be 02 7c 89 be 32 32 68 be ae 87 71 be
       -0.3476068 -0.26852423 -0.22675398 -0.23586914
000100 df c9 6e be 90 9c 83 be 88 a1 98 be 16 17 a3 be
       -0.23319195 -0.25705385 -0.2981074 -0.3185355
000110 5c 3c 72 be b1 01 92 be b6 79 6e be 07 fa a9 be
       -0.23655838 -0.28516915 -0.23288617 -0.33198568
000120 ed 78 9e be b3 21 76 be 1e c2 42 be 0b a9 60 be
       -0.30951634 -0.24036293 -0.19019362 -0.21939485
000130 3b b5 96 be 43 77 7f be 5f 76 a0 be aa 74 a0 be
       -0.29435143 -0.24947838 -0.3134031 -0.31339008
000140 31 f8 55 be b8 39 4b be 8f f7 ab be dd 21 b6 be
       -0.20895459 -0.19846237 -0.3358731 -0.3557271
000150 49 6b 82 be 06 42 6a be 2e 4b 71 be ff aa be be
       -0.25472477 -0.22876748 -0.23563835 -0.37239835
000160 1d e6 96 be cd 5d 6b be 51 85 a3 be 4d d3 88 be
       -0.29472438 -0.22985001 -0.3193765 -0.2672371
000170 5c b6 22 be 83 c6 98 be 94 3b 9d be ea f6 4e be
       -0.15889877 -0.29838952 -0.30709517 -0.20211378
000180 4d 78 83 be 8e 72 30 be 02 84 65 be 6f f7 5f be
       -0.2567772 -0.17231199 -0.22413638 -0.21871732
000190 9d 50 3a be 98 6f 54 be 9e db 92 be 6b d8 66 be
       -0.18194814 -0.20745695 -0.2868318 -0.22543494
0001a0 c9 60 79 be 07 6d 93 be ad be ab be 9a b5 bb be
       -0.24353327 -0.2879412 -0.33543912 -0.36661988
0001b0 2f 88 69 be 4f 1d 73 be dc be 9f be 9c 96 4a be
       -0.22805856 -0.23741649 -0.31200302 -0.19784015
0001c0 2d b4 8c be ba b0 76 be 97 84 c3 be 51 68 77 be
       -0.27481213 -0.24090853 -0.38187096 -0.24160887
0001d0 6b b7 15 be 32 2b 97 be 5e bf a4 be 28 15 8a be
       -0.1462075 -0.29525143 -0.32177252 -0.26969266
0001e0 4e 62 a6 be a4 bc 8f be e6 d6 75 be 10 93 a5 be
       -0.32496876 -0.2807361 -0.24007758 -0.32338762
0001f0 58 10 5f be 80 a5 8a be 6b 21 8e be 13 06 89 be
       -0.21783578 -0.2707939 -0.2775987 -0.26762447
000200 c7 ef 41 be 65 4f 8c be 22 1c b7 be 84 1c 9d be
       -0.18939124 -0.27404323 -0.3576365 -0.30685818
000210 ad 53 d5 be 96 1d 86 be c0 ec 82 be 24 b4 87 be
       -0.41665402 -0.26194447 -0.2557125 -0.26504624
000220 c7 e2 96 be fd 83 c1 be 9e 16 df be b8 60 c1 be
       -0.29469892 -0.37796012 -0.43571943 -0.37769103
000230 ce 52 7b be 18 58 c0 be 99 62 82 be fd dc a7 be
       -0.24543306 -0.3756721 -0.2546585 -0.32785788
000240 bd c4 9d be e8 1d 85 be 61 86 55 be 1f 7b a3 be
       -0.30814162 -0.2599938 -0.20852043 -0.3192987
000250 85 36 6a be 54 b8 a8 be fe 6d 76 be ed 9d 9b be
       -0.2287236 -0.3295313 -0.24065396 -0.30393925
000260 fa 50 79 be 52 ec 7c be c5 fe a7 be fb 96 90 be
       -0.24347296 -0.24699524 -0.3281156 -0.2824019
000270 d6 ae b8 be 34 d0 76 be d8 ed 81 be 7e 1f 9d be
       -0.3607089 -0.2410286 -0.25376773 -0.3068809
000280 68 e1 93 be 42 8e 72 be a5 7f 7b be f7 48 80 be
       -0.2888291 -0.2368708 -0.24560411 -0.25055668
000290 01 9b 3c be b0 ce 4d be bf f9 8b be 9c 43 a9 be
       -0.18418504 -0.20098376 -0.2733898 -0.33059394
0002a0 c4 eb 88 be ea f7 85 be dc 97 80 be 5f 49 73 be
       -0.26742375 -0.26165706 -0.2511586 -0.23758458
0002b0 14 1c 98 be 84 7c 09 be 17 43 77 be 4a 18 98 be
       -0.29708922 -0.13426405 -0.24146686 -0.2970603
0002c0 c2 91 8b be e2 5b 60 be 73 0f 66 be 37 e4 93 be
       -0.27259642 -0.2191005 -0.22466831 -0.28885052
0002d0 ed 21 a9 be 19 cd 99 be 45 6f 81 be aa d4 8e be
       -0.33033696 -0.3003929 -0.25280204 -0.27896625
0002e0 01 61 8d be 5d c8 91 be 8b ba af be d6 3e 67 be
       -0.2761307 -0.28473178 -0.34322008 -0.22582564
0002f0 0d 3d a0 be f2 a6 a4 be 0b a3 af be 4a 5b 9c be
       -0.31296578 -0.3215862 -0.3430408 -0.30538398
000300 7f d4 b3 be 94 52 b0 be 60 80 a1 be bf e1 75 be
       -0.3512306 -0.34438002 -0.31543255 -0.24011897
000310 63 99 8b be 32 e7 58 be d3 d0 8e be 8c 84 88 be
       -0.27265462 -0.21181944 -0.27893695 -0.26663625
000320 1c 85 38 be 0d c6 a0 be 32 4c 5a be 56 80 68 be
       -0.18019527 -0.314011 -0.21318129 -0.22705206
000330 d1 1a 4d be 99 90 9b be 5a 7a 5d be 03 13 e3 be
       -0.20029761 -0.30383757 -0.21628705 -0.44350442
000340 21 3c 77 be 05 13 bb be a3 14 29 be ba b8 3e be
       -0.24144031 -0.36537948 -0.16511779 -0.18625155
000350 53 54 ae be 0a 29 8d be 8c f7 46 be fa 20 98 be
       -0.3404871 -0.27570373 -0.19430369 -0.2971266
000360 9e 87 b0 be 00 af 93 be f1 19 71 be 72 f2 a4 be
       -0.34478468 -0.28844452 -0.23545052 -0.3221622
000370 3b 75 5d be d9 c1 50 be ee 15 24 be bb c1 a8 be
       -0.21626751 -0.20386447 -0.1602399 -0.32960305
000380 f3 02 78 be 9c c7 a0 be f5 90 ae be 14 f4 94 be
       -0.24219875 -0.3140229 -0.34094968 -0.29092467
000390 f4 0a c5 be 9e cb a9 be 70 1e 83 be a6 b0 3e be
       -0.3848492 -0.3316316 -0.2560916 -0.18622074
0003a0 b7 db b6 be 28 e7 95 be 20 dc bd be 28 6a 44 be
       -0.35714504 -0.2927792 -0.37082005 -0.1918112
0003b0 dc da ba be 8d 94 84 be be b6 74 be 28 22 b0 be
       -0.364951 -0.25894585 -0.23897836 -0.3440106
0003c0 53 52 3e be f3 15 68 be 5e e5 43 be 9b 10 82 be
       -0.18586092 -0.22664623 -0.19130465 -0.25403294
0003d0 19 38 9c be 0f 79 8e be 67 df 68 be 66 7c ab be
       -0.3051155 -0.27826735 -0.22741471 -0.33493346
0003e0 db 84 3c be e7 ba 99 be ff 58 8e be bc 43 91 be
       -0.18410055 -0.30025408 -0.27802274 -0.2837199
0003f0 fd 8e 84 be e9 90 a2 be b0 28 b7 be 0a 36 8f be
       -0.2589034 -0.31751183 -0.3577323 -0.27970916

batchnorm1.weight f4 [128]
000000 00 00 80 3f 00 00 80 3f 00 00 80 3f 00 00 80 3f
       1.0 1.0 1.0 1.0
000010 00 00 80 3f 00 00 80 3f 00 00 80 3f 00 00 80 3f
       1.0 1.0 1.0 1.0
000020 00 00 80 3f 00 00 80 3f 00 00 80 3f 00 00 80 3f
       1.0 1.0 1.0 1.0
000030 00 00 80 3f 00 00 80 3f 00 00 80 3f 00 00 80 3f
       1.0 1.0 1.0 1.0
000040 00 00 80 3f 00 00 80 3f 00 00 80 3f 00 00 80 3f
       1.0 1.0 1.0 1.0
000050 00 00 80 3f 00 00 80 3f 00 00 80 3f 00 00 80 3f
       1.0 1.0 1.0 1.0
000060 00 00 80 3f 00 00 80 3f 00 00 80 3f 00 00 80 3f
       1.0 1.0 1.0 1.0
000070 00 00 80 3f 00 00 80 3f 00 00 80 3f 00 00 80 3f
       1.0 1.0 1.0 1.0
000080 00 00 80 3f 00 00 80 3f 00 00 80 3f 00 00 80 3f
       1.0 1.0 1.0 1.0
000090 00 00 80 3f 00 00 80 3f 00 00 80 3f 00 00 80 3f
       1.0 1.0 1.0 1.0
0000a0 00 00 80 3f 00 00 80 3f 00 00 80 3f 00 00 80 3f
       1.0 1.0 1.0 1.0
0000b0 00 00 80 3f 00 00 80 3f 00 00 80 3f 00 00 80 3f
       1.0 1.0 1.0 1.0
0000c0 00 00 80 3f 00 00 80 3f 00 00 80 3f 00 00 80 3f
       1.0 1.0 1.0 1.0
0000d0 00 00 80 3f 00 00 80 3f 00 00 80 3f 00 00 80 3f
       1.0 1.0 1.0 1.0
0000e0 00 00 80 3f 00 00 80 3f 00 00 80 3f 00 00 80 3f
       1.0 1.0 1.0 1.0
0000f0 00 00 80 3f 00 00 80 3f 00 00 80 3f 00 00 80 3f
       1.0 1.0 1.0 1.0
000100 00 00 80 3f 00 00 80 3f 00 00 80 3f 00 00 80 3f
       1.0 1.0 1.0 1.0
000110 00 00 80 3f 00 00 80 3f 00 00 80 3f 00 00 80 3f
       1.0 1.0 1.0 1.0
000120 00 00 80 3f 00 00 80 3f 00 00 80 3f 00 00 80 3f
       1.0 1.0 1.0 1.0
000130 00 00 80 3f 00 00 80 3f 00 00 80 3f 00 00 80 3f
       1.0 1.0 1.0 1.0
000140 00 00 80 3f 00 00 80 3f 00 00 80 3f 00 00 80 3f
       1.0 1.0 1.0 1.0
000150 00 00 80 3f 00 00 80 3f 00 00 80 3f 00 00 80 3f
       1.0 1.0 1.0 1.0
000160 00 00 80 3f 00 00 80 3f 00 00 80 3f 00 00 80 3f
       1.0 1.0 1.0 1.0
000170 00 00 80 3f 00 00 80 3f 00 00 80 3f 00 00 80 3f
       1.0 1.0 1.0 1.0
000180 00 00 80 3f 00 00 80 3f 00 00 80 3f 00 00 80 3f
       1.0 1.0 1.0 1.0
000190 00 00 80 3f 00 00 80 3f 00 00 80 3f 00 00 80 3f
       1.0 1.0 1.0 1.0
0001a0 00 00 80 3f 00 00 80 3f 00 00 80 3f 00 00 80 3f
       1.0 1.0 1.0 1.0
0001b0 00 00 80 3f 00 00 80 3f 00 00 80 3f 00 00 80 3f
       1.0 1.0 1.0 1.0
0001c0 00 00 80 3f 00 00 80 3f 00 00 80 3f 00 00 80 3f
       1.0 1.0 1.0 1.0
0001d0 00 00 80 3f 00 00 80 3f 00 00 80 3f 00 00 80 3f
       1.0 1.0 1.0 1.0
0001e0 00 00 80 3f 00 00 80 3f 00 00 80 3f 00 00 80 3f
       1.0 1.0 1.0 1.0
0001f0 00 00 80 3f 00 00 80 3f 00 00 80 3f 00 00 80 3f
       1.0 1.0 1.0 1.0

batchnorm1.bias f4 [128]
000000 00 00 00 00 00 00 00 00 00 00 00 00 00 00 00 00
       0.0 0.0 0.0 0.0
000010 00 00 00 00 00 00 00 00 00 00 00 00 00 00 00 00
       0.0 0.0 0.0 0.0
000020 00 00 00 00 00 00 00 00 00 00 00 00 00 00 00 00
       0.0 0.0 0.0 0.0
000030 00 00 00 00 00 00 00 00 00 00 00 00 00 00 00 00
       0.0 0.0 0.0 0.0
000040 00 00 00 00 00 00 00 00 00 00 00 00 00 00 00 00
       0.0 0.0 0.0 0.0
000050 00 00 00 00 00 00 00 00 00 00 00 00 00 00 00 00
       0.0 0.0 0.0 0.0
000060 00 00 00 00 00 00 00 00 00 00 00 00 00 00 00 00
       0.0 0.0 0.0 0.0
000070 00 00 00 00 00 00 00 00 00 00 00 00 00 00 00 00
       0.0 0.0 0.0 0.0
000080 00 00 00 00 00 00 00 00 00 00 00 00 00 00 00 00
       0.0 0.0 0.0 0.0
000090 00 00 00 00 00 00 00 00 00 00 00 00 00 00 00 00
       0.0 0.0 0.0 0.0
0000a0 00 00 00 00 00 00 00 00 00 00 00 00 00 00 00 00
       0.0 0.0 0.0 0.0
0000b0 00 00 00 00 00 00 00 00 00 00 00 00 00 00 00 00
       0.0 0.0 0.0 0.0
0000c0 00 00 00 00 00 00 00 00 00 00 00 00 00 00 00 00
       0.0 0.0 0.0 0.0
0000d0 00 00 00 00 00 00 00 00 00 00 00 00 00 00 00 00
       0.0 0.0 0.0 0.0
0000e0 00 00 00 00 00 00 00 00 00 00 00 00 00 00 00 00
       0.0 0.0 0.0 0.0
0000f0 00 00 00 00 00 00 00 00 00 00 00 00 00 00 00 00
       0.0 0.0 0.0 0.0
000100 00 00 00 00 00 00 00 00 00 00 00 00 00 00 00 00
       0.0 0.0 0.0 0.0
000110 00 00 00 00 00 00 00 00 00 00 00 00 00 00 00 00
       0.0 0.0 0.0 0.0
000120 00 00 00 00 00 00 00 00 00 00 00 00 00 00 00 00
       0.0 0.0 0.0 0.0
000130 00 00 00 00 00 00 00 00 00 00 00 00 00 00 00 00
       0.0 0.0 0.0 0.0
000140 00 00 00 00 00 00 00 00 00 00 00 00 00 00 00 00
       0.0 0.0 0.0 0.0
000150 00 00 00 00 00 00 00 00 00 00 00 00 00 00 00 00
       0.0 0.0 0.0 0.0
000160 00 00 00 00 00 00 00 00 00 00 00 00 00 00 00 00
       0.0 0.0 0.0 0.0
000170 00 00 00 00 00 00 00 00 00 00 00 00 00 00 00 00
       0.0 0.0 0.0 0.0
000180 00 00 00 00 00 00 00 00 00 00 00 00 00 00 00 00
       0.0 0.0 0.0 0.0
000190 00 00 00 00 00 00 00 00 00 00 00 00 00 00 00 00
       0.0 0.0 0.0 0.0
0001a0 00 00 00 00 00 00 00 00 00 00 00 00 00 00 00 00
       0.0 0.0 0.0 0.0
0001b0 00 00 00 00 00 00 00 00 00 00 00 00 00 00 00 00
       0.0 0.0 0.0 0.0
0001c0 00 00 00 00 00 00 00 00 00 00 00 00 00 00 00 00
       0.0 0.0 0.0 0.0
0001d0 00 00 00 00 00 00 00 00 00 00 00 00 00 00 00 00
       0.0 0.0 0.0 0.0
0001e0 00 00 00 00 00 00 00 00 00 00 00 00 00 00 00 00
       0.0 0.0 0.0 0.0
0001f0 00 00 00 00 00 00 00 00 00 00 00 00 00 00 00 00
       0.0 0.0 0.0 0.0
