Audit-log_Analysis/code/GNN/training/checkpoint_GAT_exp3/best_model_GraphSAGE_transR_50.pt (torch, 219991 bytes, 6 tensors)

gcn.layer1.weight f4 [50, 64]
000000 21 01 c7 3e a2 86 d1 3f 92 a1 f6 3e 4b 49 3c bf
       0.3886805 1.6369212 0.48170143 -0.73549336
000010 15 a3 05 40 78 7e 22 3f 3c 49 c1 3e 0b ce d5 3f
       2.0880787 0.63474226 0.37751186 1.6703504
000020 ab bd cc be d7 df a4 3f 1a 2a 67 3f eb 20 ba 3e
       -0.39988455 1.288081 0.90298617 0.3635324
000030 c7 ef d1 3e 2f 4a 36 3f 4a b7 ee 3f 23 16 82 3f
       0.41003248 0.71206945 1.8649685 1.0163006
000040 be 21 44 3f cb e5 a8 bf 3c 0e ee be 1d e3 85 3f
       0.76613986 -1.3195127 -0.46495235 1.0459934
000050 14 b1 55 be ad 53 f4 be 32 18 18 bf 60 e0 6b 3f
       -0.20868331 -0.4772009 -0.5941192 0.92139244
000060 3e 3b 2a be a9 f3 66 bf 77 15 d3 3e 8d ac a3 bf
       -0.16624162 -0.90215546 0.41227314 -1.2787033
000070 64 6b e7 3e d3 66 15 3e d4 39 8a bf d9 32 3d 3f
       0.4519912 0.14590006 -1.0798898 0.7390571
000080 07 e0 7b 3f 84 15 af bf a2 b2 8c 3f 8a d9 a8 3f
       0.98388714 -1.3678441 1.0992014 1.3191388
000090 4d a2 fa 3f c3 7d 9b 3f 9f 06 b0 3f f0 36 8e 3e
       1.958078 1.2147754 1.3752021 0.2777629
0000a0 df 7c f9 be ff fa c6 be 09 cb 17 3f 68 fb 96 be
       -0.48728082 -0.3886337 0.5929418 -0.29488683
0000b0 ee c6 a9 3f 01 e9 f6 be 9c c7 4b bf 49 e7 11 bf
       1.3263834 -0.48224643 -0.79601455 -0.5699354
0000c0 37 db c7 be c5 b8 9c 3f 40 bb 82 3f b0 d8 b0 bf
       -0.39034435 1.2243887 1.0213394 -1.3816128
0000d0 e4 fe 89 3f 44 4f 12 bf d7 a8 a7 3f 03 c5 83 3f
       1.0780911 -0.571522 1.3098401 1.0294498
0000e0 d4 04 2a 3f b6 e3 99 3f 12 60 90 bf 52 a5 96 3f
       0.6641362 1.2022617 -1.1279318 1.1769202
0000f0 ca bf 77 bf 1e a6 f8 3e 84 82 4a 3f e8 4f f8 bf
       -0.9677702 0.48564237 0.791054 -1.9399385
000100 85 34 0d 3f 73 84 16 bf 04 ed 88 3f 27 1a 05 40
       0.55158263 -0.5879585 1.0697331 2.0797212
000110 87 33 f3 be 91 ae 9e bf 62 b8 77 3e 50 83 b0 bf
       -0.4750025 -1.2397023 0.2419143 -1.3790073
000120 42 c9 ef 3e 59 84 71 3f 5d 81 ab bf ea c2 c0 3f
       0.46833235 0.9434257 -1.3398854 1.5059483
000130 ae 13 ce bf 6f 18 f6 bf 92 bc b6 be 03 e5 fc bf
       -1.6099756 -1.9226207 -0.35690743 -1.9757389
000140 15 17 68 bf 6b dd 5d 3f b3 02 0b 40 40 0e 41 3e
       -0.9066022 0.8666598 2.1720397 0.18853092
000150 fb 7b 0e 40 5e f9 20 40 1e 80 16 40 ca 13 b1 bf
       2.2263172 2.5152202 2.3515697 -1.3834164
000160 f4 ff 02 40 fb 2a 2b 40 f7 ee be bf 6c fd d7 3f
       2.0468721 2.6744983 -1.4916676 1.6874213
000170 6f 1f 7d 3f 73 6c 27 be b7 b0 b2 3f 9e be 50 3f
       0.9887609 -0.16349964 1.3960179 0.8154086
000180 54 b4 a5 be 91 7d 77 3f ca f8 c3 bf 06 20 d3 bf
       -0.32364142 0.96675974 -1.5310299 -1.6494148
000190 c8 8c 01 bf af 4e c4 bf 53 8b 97 3f 59 0c f5 3f
       -0.5060544 -1.5336512 1.1839393 1.9144393
0001a0 a4 5d ab 3f 6e 0f d9 3f e0 40 18 40 0b c2 20 40
       1.3387952 1.6957834 2.3789597 2.5118434
0001b0 9a bb bd bf 43 4e 0a 40 d4 41 18 40 df a7 0e 3f
       -1.4822876 2.1610267 2.3790178 0.557249
0001c0 a0 1c 26 3f 97 52 d1 be 24 8d 0f bf b2 cb 8b 3f
       0.6488743 -0.40883324 -0.5607474 1.0921538
0001d0 04 fb 8d bf aa 8a c8 3f 31 ab 65 bf 4c 4e f7 be
       -1.1092229 1.5667317 -0.8971434 -0.48301923
0001e0 9b 06 d6 bf e5 ff 40 3f 36 7a ec 3f df 85 af bf
       -1.6720766 0.75390464 1.8474796 -1.3712729
0001f0 71 3c 01 40 32 7c c7 bf 5f e7 c4 bf be 5a a0 3f
       2.019314 -1.5584776 -1.5383109 1.2527692
000200 50 40 c5 3f aa 74 3f bf 1e 61 f6 3e 89 60 b0 bf
       1.5410252 -0.7478739 0.4812097 -1.377946
000210 31 83 0e bd 64 33 dc 3f 90 86 94 3f 3e d6 79 3f
       -0.034793083 1.7203183 1.1603565 0.9759253
000220 e9 cd 01 40 99 95 9e bf 8c 8a 00 3f 42 5f 69 be
       2.0281928 -1.2389404 0.50211406 -0.22790244
000230 75 0e d4 bd 3c 3d 4b 3f 3f 2c 77 be 9f 2f f5 3e
       -0.1035432 0.7939031 -0.24137972 0.47887895
000240 07 0a 9e 3f 86 e7 cd bf 7d 0b 59 3e 5f df be 3f
       1.234681 -1.608628 0.21195789 1.4911917
000250 1c 7a 9f 3e 10 82 d9 3e a0 b0 36 bf b7 41 0e 3f
       0.3114785 0.42482042 -0.7136326 0.5556902
000260 84 96 6c bf 78 54 a0 be f9 f1 f8 3e 92 21 80 bf
       -0.9241717 -0.31314445 0.4862211 -1.0010245
000270 7f 1f 02 c0 91 c5 36 3e 76 52 a7 bf 56 71 b3 3f
       -2.0331724 0.17848803 -1.307204 1.4018962
000280 b5 ef d0 3e 40 db ab bf 79 4b 68 3f 62 d1 e6 3e
       0.40807882 -1.3426285 0.9074016 0.4508162
000290 b9 ec 4e 3f db a0 a2 3f ce 8f 21 3f 67 61 0f bf
       0.8082996 1.2705339 0.63110054 -0.56008
0002a0 b0 d1 38 3f 9b 74 ae bf 9c 29 16 3f b4 f7 70 3f
       0.7219496 -1.3629335 0.5865724 0.94127965
0002b0 b9 28 a7 3e 1b 4a fb 3d f3 3f 8b bf c9 8b 9f 3f
       0.32648256 0.12269994 -1.0878891 1.2464534
0002c0 a9 99 09 c0 96 7d 8b be eb 5c 9d 3e bf 59 c3 bf
       -2.1500037 -0.27244252 0.30734953 -1.5261763
0002d0 63 4d ad 3f 52 fc a3 bf 4d 98 d2 3e a2 68 94 3f
       1.3539242 -1.2811377 0.4113182 1.1594431
0002e0 4e 11 33 3f 03 59 91 3e 18 05 cb bf c6 ec 91 3f
       0.6994828 0.28388223 -1.586093 1.1400383
0002f0 cb 0b 83 bf 29 9c 26 3e f9 e2 07 3f 25 bc a6 bf
       -1.0237974 0.16270508 0.5308071 -1.3026167
000300 0f 52 01 3f d7 5a 47 3f b1 6d 29 bd 1b bd db bf
       0.50515836 0.77872986 -0.041364376 -1.7167085
000310 dd e3 70 3f 72 c3 b5 3f 3c f5 b9 3f 5d b5 97 3f
       0.9409769 1.420027 1.4527965 1.1852223
000320 d0 61 0c 3f 4d 44 71 bf 2e df 87 3f 98 38 4c bd
       0.5483675 -0.94244844 1.0614984 -0.04985866
000330 fb 21 e6 3f ac fd 09 40 73 2f 98 3e 8d 6d 79 3f
       1.797912 2.156108 0.297237 0.97432786
000340 84 d5 57 3f 95 ce 2d bf e6 08 99 3e b0 e8 a9 3f
       0.84310174 -0.67893344 0.298896 1.3274136
000350 c7 aa 81 bf df ff 3d bf 4b e2 b3 bf 72 5d 0b 40
       -1.0130242 -0.74218553 -1.4053434 2.1775784
000360 b8 0b ab bf 03 5a a2 bf fe 87 03 40 0e d4 a6 bf
       -1.3362951 -1.2683719 2.0551753 -1.3033464
000370 1d 4f 33 bf bb 01 f7 bd 9c cc a9 bf a5 f3 1e be
       -0.7004259 -0.12060877 -1.3265567 -0.1552263
000380 12 8b b6 3f 16 26 8e bf 7f 46 dd 3f 1b 8c f4 3f
       1.4261191 -1.1105373 1.7287139 1.9105257
000390 5e 7c 4e 3b 80 b7 1d 40 a8 ba 26 bf d0 46 32 bf
       0.0031507234 2.464325 -0.65128565 -0.696393
0003a0 09 2d ce 3e 1f 47 e6 bf 3e 0e c8 bf 85 8f 9f bf
       0.40268734 -1.7990454 -1.5629346 -1.2465674
0003b0 aa 7e 0c 40 57 01 24 bf 26 6d d9 bf 50 bc 3b 3f
       2.195231 -0.64064544 -1.6986434 0.7333422
0003c0 5f 33 7f bf 87 72 b9 3e 50 af 45 3f 42 01 a9 bf
       -0.9968776 0.3622019 0.7722063 -1.3203509
0003d0 dc e3 04 40 a6 c1 85 bf 90 5d 8b 3f cf 91 57 3f
       2.0764074 -1.0449722 1.0887928 0.8420686
0003e0 ff 20 0f 40 e9 a0 c2 be 15 c9 c4 bf 23 a8 b0 3f
       2.236389 -0.3801339 -1.5373865 1.3801311
0003f0 19 82 a0 bf bf a5 11 40 c5 c6 fe 3f ea 28 84 bf
       -1.2539703 2.2757413 1.990441 -1.0324986

gcn.layer1.bias f4 [64]
000000 75 d8 d1 3d 1b 5c e8 3d 9c 55 42 3e 54 97 6e 3c
       0.10246364 0.11345693 0.1897797 0.014562447
000010 11 78 8b 3e b9 da f1 3d 40 7a 95 3d 03 5b aa 3d
       0.2724004 0.11809296 0.07298708 0.0831814
000020 6e db 0f 3e 4c 62 c2 3d b7 d4 97 3d 49 a6 67 3d
       0.1404855 0.09491405 0.07413619 0.056555066
000030 06 51 03 3d 59 b6 3a 3d ca 3a 32 3d f5 30 20 3e
       0.03205969 0.045584057 0.043513097 0.15643676
000040 e9 04 dd 3d a8 ab 86 b8 e5 80 03 3e c0 ff 78 3d
       0.10791952 -6.4215914e-05 0.12842138 0.060790777
000050 5e f4 77 3d ef eb 9f 3d 55 e6 6d 3c 92 29 37 3d
       0.06053578 0.07808673 0.0145202475 0.04471738
000060 3c 3f 5f 3d 25 41 30 3d fc 98 10 3d 8f 03 0a 3c
       0.054503664 0.043030877 0.035302147 0.0084237
000070 5c b7 03 3c d6 b7 8a bc f1 49 a8 3c 25 85 1f 3e
       0.008039322 -0.016933363 0.02054307 0.15578134
000080 ff 53 59 3d ba 84 5a 3b b1 5b 25 3d 33 25 33 3d
       0.05305862 0.0033343271 0.040370647 0.043736648
000090 f8 86 8a 3e e5 35 22 3d 24 fa 8c 3d db 23 21 3d
       0.27056098 0.03960218 0.06883648 0.039340835
0000a0 8c b6 cb 3d e4 1c 87 3c ac 75 b9 3d 20 d5 4d 3e
       0.099469274 0.016493268 0.09055647 0.20100832
0000b0 56 4d 2c 3d 8f 85 a6 3d 18 38 67 3c 90 a6 8a 3e
       0.04206594 0.08130943 0.014112495 0.27080202
0000c0 bd 3d 08 3b fb 4f 82 3d 41 35 09 3e 14 af f1 3a
       0.0020788752 0.06362911 0.13399221 0.0018439018
0000d0 3b d0 57 3d 37 e2 20 3c f4 35 29 3e ea 6c b2 3e
       0.05268882 0.009819559 0.16524488 0.3484872
0000e0 79 9d 1c 3d de d8 e2 3d b4 94 25 3b 55 16 83 3d
       0.038236115 0.110765204 0.0025265636 0.06400744
0000f0 9d cd c6 3c b4 db 1a 3d 4b 74 2f 3d 9d d1 ae b8
       0.024267966 0.03780718 0.042835515 -8.33601e-05

gcn.layer2.weight f4 [64, 128]
000000 95 64 9e 3d 3b 73 8d 3e a1 81 a6 be 19 9b b5 be
       0.07734028 0.27626976 -0.32520774 -0.35469893
000010 8f b9 56 be 25 1f 14 3d 87 b8 9f be 25 6d 93 bf
       -0.20969222 0.036162514 -0.3119547 -1.1517683
000020 a3 6c 59 be 00 30 56 3e 35 a3 81 be 31 06 b3 3b
       -0.21232848 0.20916748 -0.2531983 0.0054633846
000030 4d 82 93 3e 96 82 36 3e db d5 08 3e 72 5e 0a be
       0.2881035 0.17823252 0.1336283 -0.1351259
000040 e7 13 68 3c eb bd f9 3d 85 40 ab bd f1 26 59 3e
       0.014164901 0.12194427 -0.083619155 0.21206261
000050 3b a4 f7 bc 13 ef 80 be c8 ea 54 be 04 f2 8d bd
       -0.030229678 -0.251824 -0.20792687 -0.069309264
000060 07 f8 12 3f 30 10 f5 be db c8 39 bd 40 8f 9d be
       0.5740971 -0.47863913 -0.045357566 -0.30773354
000070 ee 7e 6a be d9 5a c9 3c 0e bf 03 3e 6b 29 12 3d
       -0.22899982 0.024579452 0.1286585 0.03568403
000080 19 35 b3 3d 43 fb c0 3d 7c 2c 13 bd 41 13 14 be
       0.08750362 0.09422924 -0.035931095 -0.1446047
000090 10 72 d8 bd 6b d0 33 be 09 28 04 be aa 4b 1c 3f
       -0.10568631 -0.17559974 -0.12905897 0.61052954
0000a0 76 78 73 3e c1 4c 9c be 37 93 72 be 56 c3 85 bd
       0.23776421 -0.3052731 -0.2368897 -0.06531398
0000b0 57 3b 88 bd 10 38 7d bc ad 91 2a 3e 77 16 eb be
       -0.06651943 -0.015455261 0.16657133 -0.45915577
0000c0 64 a9 af 3e 1f 61 13 3e 9b fd 21 3e 0e c8 71 3e
       0.34308922 0.14392518 0.15819399 0.23611471
0000d0 54 d8 b8 bd a0 dc 3b 3e cf 3f 7d 3e 2d 74 64 3e
       -0.09025636 0.1834588 0.24731372 0.22309943
0000e0 41 85 b1 3e 82 c1 59 3e 7d c5 c3 3d 2a 02 4e 3e
       0.34671977 0.21265224 0.09559152 0.20118013
0000f0 9e f6 ce 3c 49 f1 38 be ff 71 0b 3e 1e 95 b8 3d
       0.02526408 -0.18060793 0.13617705 0.09012817
000100 af 99 73 39 8e f3 17 3e 27 79 b5 bd 4b f0 7b be
       0.00023231537 0.14839002 -0.088609986 -0.24603383
000110 8e b7 40 3e 35 21 88 3d 03 ba 5e 3d ed 28 0c 3e
       0.1882002 0.06646959 0.054376613 0.13687487
000120 f7 76 2d bd dc 22 22 be e1 ea a4 bd 7b 1d 4d 3e
       -0.04234978 -0.1583361 -0.08052612 0.20030777
000130 7a 42 e5 3e e6 a0 1c be f6 8a 0e be 3a 8d 80 3e
       0.4477728 -0.15295753 -0.13920197 0.25107747
000140 4f be e4 bd 7d 9c 92 3e b3 ac 4c 3e 4e 60 84 be
       -0.11169111 0.28635016 0.19987755 -0.25854725
000150 91 f2 12 be 10 d6 a8 be 85 c8 1c be e4 ae 89 3e
       -0.14350344 -0.32975817 -0.15310867 0.26891243
000160 87 b6 37 3d 5d 18 45 3e 50 f3 39 be d9 28 f6 bc
       0.044851806 0.19247575 -0.18159223 -0.030048775
000170 c5 69 19 be f2 a8 91 3d c3 06 b0 3c 40 b8 ed 3d
       -0.14981754 0.07112302 0.0214876 0.116074085
000180 d5 64 ea be aa 04 69 3c 04 6e 1f 3e 90 41 aa 3e
       -0.45780054 0.014222303 0.15569311 0.33253145
000190 90 63 17 3e 3f d2 94 be be eb da 3d 8f b2 d0 3c
       0.14784074 -0.29066655 0.106894955 0.025475768
0001a0 f8 8e 6d 3b e9 73 fa bd 7a 55 d6 3e 45 9c 82 3d
       0.0036248546 -0.12229139 0.41862088 0.06377462
0001b0 8c 53 50 be 03 cf 35 be 21 97 c2 3d cf 85 98 3c
       -0.2034437 -0.1775475 0.09501482 0.018618492
0001c0 f5 34 82 3e 8b ed 2a be 9d fc c8 be 02 10 11 bf
       0.25431028 -0.16692178 -0.3925523 -0.5666505
0001d0 c7 2c 51 be 21 8e 17 3e 28 b3 66 bd f1 2b 02 be
       -0.20427237 0.14800312 -0.0563232 -0.12712075
0001e0 85 7e b2 3d d4 b2 0f bf 4a 48 d5 bd 22 a4 3e 3e
       0.08715538 -0.56132245 -0.10414179 0.18617299
0001f0 a5 99 20 bc 7e 7c 59 3c 0f 91 67 3e da 24 1e 3e
       -0.009802257 0.01327431 0.22613929 0.15443745
000200 e0 d7 3b 3e 30 4b 57 3e 47 c7 5b 3e 94 82 8e be
       0.18344069 0.21024776 0.21462737 -0.27833998
000210 d3 fa 45 3d 43 a2 de bd 67 ee 92 3d 7b de 7f bf
       0.048334908 -0.10870793 0.07174378 -0.99948853
000220 85 8d 66 3e 93 8d 19 3e a6 6c 2e bd 71 84 13 3d
       0.22514923 0.14995413 -0.042584084 0.036014978
000230 8d 56 5d be e8 d6 02 3e e1 0d 75 3d 55 1e 16 3d
       -0.21615048 0.12777293 0.05982769 0.03665002
000240 80 0d cf bd 53 36 a7 be 48 80 c7 3d 40 56 7a 3e
       -0.10109997 -0.32658634 0.097412646 0.24446964
000250 2b a4 41 be b9 f6 a1 3e e3 0a 30 3e 5a 4d f9 3d
       -0.18910281 0.31633547 0.17191653 0.12172957
000260 f8 ec 0f 3f bd b4 df be 4b 96 74 be b6 7c f8 3d
       0.5622096 -0.4369258 -0.23885457 0.12133162
000270 14 d1 2f be 7c ab 42 3e c7 2a 3b 3d cb eb 2a be
       -0.171696 0.19010729 0.045695093 -0.1669151
000280 3d 7b b2 bc 32 f8 88 bd f6 82 3c bd f7 53 45 3e
       -0.02178728 -0.066879645 -0.04602333 0.19270311
000290 f9 8a e1 be 4f e6 1f 3e 1d 31 d3 bd 8f 25 52 3f
       -0.4405134 0.156152 -0.10312102 0.8208856
0002a0 d1 78 01 be 6a 7b 3d bd 88 9d ff bc fb 7b 65 be
       -0.12643744 -0.046260275 -0.031203046 -0.22410576
0002b0 bd 95 2c 3c 9d 81 cb bd 87 1b 5b be 62 8e dd be
       0.010533747 -0.09936831 -0.2139722 -0.43272692
0002c0 60 f5 92 be f4 9a 30 be 23 a1 35 be 2b 4e e0 3d
       -0.2870283 -0.1724661 -0.1773725 0.10952409
0002d0 11 a5 14 3e 3b 5f 06 be 7b 0b a8 bd 76 bb 51 3e
       0.14516093 -0.13122265 -0.08205315 0.20481667
0002e0 6d 1a 22 3d bb ed 76 bb b8 81 ce bd 05 f5 15 3e
       0.039575983 -0.003767832 -0.10083336 0.14644249
0002f0 07 b8 61 3e 03 98 19 bb ca 53 5e 3d d2 db f9 3d
       0.22042857 -0.0023436553 0.054279126 0.122001305
000300 ef 87 41 3d 16 05 96 bd cc 0f 08 be 29 11 1e be
       0.047248777 -0.07325189 -0.13287276 -0.15436234
000310 29 fb be 3e 06 57 e7 bb 6d 54 84 3e 3f 09 2b 3e
       0.37300995 -0.0070599345 0.25845662 0.16702746
000320 1f e6 50 bd 5b fd 52 be 6e 59 53 3d 97 e1 ca bd
       -0.05100071 -0.2060446 0.05159896 -0.09906309
000330 c3 52 09 3f bc aa c0 3d 7c 43 41 3e 15 b0 1b be
       0.5364191 0.09407565 0.188734 -0.15203889
000340 74 74 48 be 6c 50 b5 3d 68 8b 2f be d2 85 9c 3e
       -0.19575673 0.0885323 -0.17143023 0.30570847
000350 73 41 0a be 67 8c 9f be 24 e7 2e be 6c 49 04 be
       -0.1350153 -0.31161806 -0.1708036 -0.12918633
000360 25 b5 10 3d 1b 69 e5 bd 48 9b 86 3d c9 ad e1 3d
       0.035329003 -0.11201688 0.06572586 0.11019475
000370 32 2a 76 be ff 71 17 3e ba 1d 4b be da e8 8d bc
       -0.24039534 0.1478958 -0.19835559 -0.017322946
000380 83 b2 f1 bd 99 fb 61 3e 37 8c 0f 3d 5a db a0 bd
       -0.118016265 0.22068633 0.03504583 -0.07854338
000390 41 25 57 bc 52 5b 89 be 35 9f 3f be 3b 6e ba bd
       -0.013131441 -0.26827484 -0.18713076 -0.09103056
0003a0 49 17 2d 3e 83 0a 2b 3d 3c d5 2e be 88 f1 7e 3d
       0.16903414 0.04175807 -0.1707353 0.06224206
0003b0 c1 45 6c 3e e5 ec 68 3e 88 1f a1 bc 2d aa 71 be
       0.23073484 0.22746618 -0.019668356 -0.23600073
0003c0 18 3c 31 be ab 69 21 bd 05 2a fb bc 90 7d 37 bf
       -0.1730808 -0.039407413 -0.030659685 -0.7167597
0003d0 10 49 10 3e 58 47 91 3d 8a 9b ca bd cd a1 0f 3e
       0.14090371 0.07093686 -0.09892948 0.14026566
0003e0 6d b5 47 3e 4f 2a 44 bf 9e 21 1d 3d ac a0 0b bd
       0.19502802 -0.7662706 0.038362138 -0.034088776
0003f0 f7 c7 3f 3d d2 46 7b 3d 80 d2 5c 3e 84 f2 12 3e
       0.04682156 0.061346836 0.21564674 0.14350325

gcn.layer2.bias f4 [128]
000000 97 b8 b4 bd 06 af eb be 7e 5e ac 3c a4 08 82 bd
       -0.0882427 -0.4603197 0.021041151 -0.06349304
000010 af 95 4e 3e 42 b2 a4 bd 50 45 01 3f a7 71 96 3d
       0.20174287 -0.080418125 0.5049639 0.07345896
000020 30 d3 8a be 16 7d 08 be bc 8a fd 3d f7 01 6c 3e
       -0.27114248 -0.13328966 0.12379977 0.23047625
000030 ea 72 86 bd fd 0c 9b be 1c 1e dc 3d 7b 6b 9c 3e
       -0.06564887 -0.30283347 0.107479304 0.3055075
000040 ab 6c 2b 3e 46 19 47 3d e7 48 a0 3d 6f 48 cc be
       0.16740672 0.048608087 0.07826405 -0.39899012
000050 ce 95 08 3d 35 6a 0c be 0b 6a e6 bd 3f 86 06 3d
       0.03334599 -0.1371239 -0.11250695 0.03284287
000060 c7 31 b7 be a4 08 16 bd 01 e9 37 3e c1 7b 6f be
       -0.35780165 -0.036629334 0.17959978 -0.23387052
000070 66 b9 61 bd 7d 26 30 be 7f 12 6d 3d c4 8f 07 3e
       -0.05510845 -0.17202182 0.057878967 0.13238436
000080 58 34 d3 3d 74 7f 08 bc 5e b6 1b be 0e d5 37 3e
       0.10312718 -0.008331168 -0.15206286 0.17952368
000090 38 e7 e0 3e 95 e6 0c 3e 1c 13 5f bd 78 71 83 be
       0.43926406 0.13759835 -0.054461583 -0.25672507
0000a0 a0 11 a7 3d 24 51 00 3f 24 4c 23 be 57 70 00 3e
       0.081576586 0.5012381 -0.15947014 0.12542854
0000b0 72 78 36 be 82 77 0e 3e 77 53 07 be b3 1d d2 3e
       -0.17819384 0.13912776 -0.13215433 0.41038284
0000c0 6e b8 86 3d 20 af 4f be 3b e2 82 bd 78 be b7 be
       0.06578146 -0.20281649 -0.06390806 -0.35887504
0000d0 d5 76 5c bd ce 74 1a be de f9 9c bd 05 f7 4e be
       -0.053824265 -0.1508362 -0.07664846 -0.20211418
0000e0 54 c2 d2 be 90 42 aa 3d 02 52 fe 3d 40 24 8d bc
       -0.41163886 0.08313477 0.124179855 -0.0172292
0000f0 58 3b a6 be d1 31 34 bd 34 6b 1d bd 39 62 d3 bb
       -0.3246715 -0.04399282 -0.038432315 -0.006450918
000100 16 3e ab 3d 0e 3c 1f be 86 54 41 3e c1 85 c1 3e
       0.08361451 -0.15550253 0.188799 0.3779736
000110 90 8f d6 be 91 a7 b5 bd f0 2c 10 bc 22 79 e3 be
       -0.41906404 -0.088698514 -0.008799776 -0.44428355
000120 f7 6a eb 3d 74 d2 be 3e 95 c3 74 bd b2 d3 43 3c
       0.11495011 0.37269938 -0.059756834 0.011952328
000130 73 29 ba be 5a ec d1 3d e5 28 11 be d3 19 d9 bd
       -0.36359748 0.102501586 -0.14175756 -0.10600629
000140 42 4b 77 3d 31 44 ec be e2 6b 98 3e 39 9d ee bc
       0.060374506 -0.46145776 0.29769808 -0.029127704
000150 f1 59 cb bd f5 da e3 3e d5 02 e5 3e 3b 63 51 3e
       -0.09929264 0.44502988 0.44728723 0.2044801
000160 39 38 39 be f1 33 ac bd f5 8b 1b 3d f6 67 4c bd
       -0.18087853 -0.084083445 0.03797527 -0.049903832
000170 64 b4 b7 3d 76 cd 7e 3d 88 52 1f be bc ff 04 3f
       0.08969954 0.06220766 -0.15558827 0.5195272
000180 af cb a6 3e b9 3e 5e be 68 e5 00 3e 71 27 30 be
       0.32577273 -0.21703614 0.12587512 -0.17202546
000190 b0 56 cf 3c 98 3b d5 3e 3f 59 25 3e 93 03 b8 3d
       0.02530989 0.4164703 0.16147326 0.08985057
0001a0 73 c3 81 3d 44 58 66 3e 2c 20 a9 3d 2e c7 03 be
       0.06336107 0.22494608 0.082580894 -0.1286895
0001b0 31 c4 6d be 9c 0a a2 bd a1 bf 29 be f3 d1 37 3b
       -0.23219372 -0.0791218 -0.16577007 0.0028048723
0001c0 f7 08 0d 3e 20 b3 03 be d1 20 c2 bd d4 82 c9 3e
       0.13772951 -0.128613 -0.094789155 0.39357626
0001d0 bf 30 18 3e 9a f1 d8 be 22 46 06 be db eb fe 3d
       0.14862345 -0.42371827 -0.13112691 0.124473296
0001e0 6b 54 d2 be b4 3c 07 bd 59 6c 01 be b0 30 13 3d
       -0.4108003 -0.033016875 -0.12638988 0.035935104
0001f0 20 6a ab 3d be f1 3c 3e 8c 2b e4 be ba 4e ac bd
       0.08369851 0.18451592 -0.44564474 -0.084134534

pred.W.weight f4 [167, 256]
000000 3f 36 93 3d a2 dd 82 3e 76 b3 8d bd 6b de 80 bd
       0.07188081 0.25559717 -0.06918995 -0.06292423
000010 86 07 25 3d 8a 72 1a bd e8 66 0f be 3a 87 65 bd
       0.040290378 -0.03770689 -0.140041 -0.056037165
000020 20 55 fd bc fc 39 3e bb 10 49 3c bd fd 70 02 3e
       -0.03092438 -0.002902626 -0.045968115 0.12738414
000030 fd 53 36 bc 6a 8b e4 3d 21 15 90 3b 32 30 0d 3e
       -0.011128423 0.111594036 0.00439705 0.13787916
000040 46 75 f6 3d d7 77 a2 bd 51 8c 43 bc bd ce fa 3d
       0.12034087 -0.07933014 -0.0119353095 0.122464634
000050 a1 f1 b3 bc 65 b4 95 bd 6f 2d a8 bd ea 41 90 bc
       -0.021965804 -0.07309798 -0.08211791 -0.017609555
000060 af b2 5a 3e d5 97 35 bd 21 91 4f be 80 78 aa bc
       0.21357225 -0.04433425 -0.20270206 -0.020809412
000070 bc ab b0 bd fa d0 88 bd 50 c3 81 3d 40 c3 62 3b
       -0.08626506 -0.06680484 0.06336081 0.0034601241
000080 6e f3 8e 3c 28 df 87 3d 03 bb 9e bd f1 4f 7d bd
       0.01745006 0.066343606 -0.077505134 -0.061843816
000090 12 d2 73 be 77 33 b5 bd 1e b4 2a 3d 8b 3a 4d 3e
       -0.23810604 -0.08847707 0.04167568 0.20041864
0000a0 f6 14 bf 3c 7d fa 43 be 34 9b 4a bc 13 b9 94 3d
       0.023325425 -0.19138522 -0.012366105 0.072618626
0000b0 8e 8e 12 3c 1b 85 e0 bc 87 85 1b bc da bf 88 be
       0.0089451205 -0.02740722 -0.009492285 -0.2670887
0000c0 fa 7a 9e 3d b9 f0 0a bd 8b e6 a5 3c 10 1f 21 3e
       0.077383 -0.033920977 0.020251533 0.15734506
0000d0 88 9c df ba 11 94 e0 3d e0 f6 66 3d a0 5e cd bc
       -0.00170602 0.109657414 0.056387782 -0.025069535
0000e0 59 e7 2c 3e aa 9b 89 bc fc a2 70 3d 12 47 fe 3d
       0.16885127 -0.01679786 0.058749184 0.12415899
0000f0 ad 33 b7 3d 8c d7 65 3c 67 91 4c 38 6c 9e dd 3d
       0.08945403 0.014028441 4.8772807e-05 0.10821232
000100 80 5b ce 3d 07 e1 e8 bc a7 1d 01 bd ab 1f 64 be
       0.10076046 -0.028427614 -0.03152242 -0.22277705
000110 b2 78 88 3e b3 f8 37 bd dc 7d 0e 3e b4 52 c8 3c
       0.26654583 -0.044914912 0.13915199 0.024453498
000120 50 f9 e2 bd c0 eb 41 be 06 54 13 3c cd de a4 bd
       -0.11082709 -0.18937588 0.008992201 -0.080503084
000130 01 d4 37 3e d2 0f 42 3c 5d c4 2c 3d ac e2 9b 3d
       0.17951967 0.011844592 0.042179454 0.076115936
000140 0f c5 07 3d 66 5f 35 3e a2 4b f3 3d 9b 43 46 bb
       0.033146914 0.17712173 0.1187966 -0.0030252698
000150 fe 8a 2a bb 73 5c 21 be 57 74 47 be 6f ba de 3d
       -0.0026022787 -0.15757923 -0.19477974 0.10875403
000160 d5 a1 80 3d aa bb c1 3c 22 04 70 bc b5 94 80 bd
       0.06280867 0.023649056 -0.014649423 -0.062783636
000170 98 dd 95 3c a7 d1 6b 3d 6a f6 de bc 5b 32 19 bd
       0.01829414 0.057572987 -0.027217109 -0.03740154
000180 90 9d 19 be 82 f8 03 3e 0a cb 44 3d 0f bf 4d 3d
       -0.15001512 0.12887767 0.048045196 0.050231036
000190 6d 5f 66 bd 23 75 78 be a4 6b b0 3c 2d 94 16 bd
       -0.05624335 -0.24263434 0.021535702 -0.036762405
0001a0 66 22 45 3d d7 30 b9 3d eb 1d 99 3d 7c 0e 03 3e
       0.048128508 0.090425186 0.074764095 0.12798494
0001b0 08 7f 7b bd 1b c6 f2 bc 8c bb 38 bd 45 48 da bd
       -0.061400443 -0.02963548 -0.045100734 -0.106583156
0001c0 13 36 47 3d 22 71 8c bd bb dc e3 bc f0 f4 70 be
       0.048635554 -0.06857516 -0.027815213 -0.23530936
0001d0 88 44 68 bd b6 cd 54 3e cc 20 81 bd e6 d7 f1 3d
       -0.05670598 0.20781597 -0.06305084 0.118087575
0001e0 66 de ec 3d a3 be 3c bd 12 cc ee 3d ba 21 03 3d
       0.11565857 -0.046080243 0.11660017 0.032014586
0001f0 88 c3 0f bd c7 10 d6 3b 13 8e a5 3e 58 b8 1e bc
       -0.035098583 0.0065327617 0.32334957 -0.009687506
000200 6c ce 6c 3e 5b b6 a9 bc d0 6f 50 be 1c 04 2b 3e
       0.23125619 -0.020716837 -0.20355153 0.16700786
000210 aa 7e 24 3f 0a b4 3a 3c c8 69 fb 3d 27 b3 b0 3d
       0.64255774 0.011395464 0.122760355 0.086279206
000220 aa 51 5f 3e 30 80 af 3e 56 9b 9d be 51 b0 8f 3e
       0.21808496 0.34277487 -0.30782574 0.28064206
000230 1c 9f 49 3e 4e 22 fe 3c c6 09 6e be c4 aa b5 3e
       0.19689602 0.031022217 -0.23245916 0.35481846
000240 2d a9 a0 be 66 bd 99 be d8 0f 8b bd 2b f7 88 3d
       -0.3137907 -0.30027312 -0.06790131 0.066877685
000250 4a 38 c9 be d8 cb 60 3e 45 db 92 3e 0e 50 4c be
       -0.39300758 0.2195276 0.28682914 -0.19952413
000260 41 46 39 3c f9 de 19 3e a1 d0 8c be fe 66 7c 3e
       0.011308254 0.15026464 -0.2750292 0.24648663
000270 6a 62 5f 3d 77 7e bd 3e 91 a7 81 be 47 a5 81 be
       0.054537214 0.37010548 -0.25323156 -0.2532141
000280 89 b8 35 bc 1f 12 a5 3e a0 5e de bc 33 fb cb bd
       -0.01109136 0.32240388 -0.02714473 -0.09960022
000290 ca 5d ac 3d 62 e5 b2 be cc bd 87 3e 9b a1 e7 bd
       0.08416326 -0.3494063 0.2651199 -0.11310121
0002a0 12 86 7f be 17 ab 0d 3f 50 d9 af 3e b2 8e a9 be
       -0.24953488 0.5533919 0.34345484 -0.3311668
0002b0 6d e6 7d 3e 6e a7 5f be 04 dd 83 bd e9 8d e4 3c
       0.24794932 -0.21841213 -0.0643864 0.0278997
0002c0 e1 96 a2 be c2 6c 06 3e 87 18 9c 3d 8e 63 f0 b9
       -0.31755736 0.13127425 0.07621866 -0.0004585054
0002d0 4a 16 01 3e 5e 40 85 3d 6e 3c 98 3e e8 61 70 3d
       0.12606159 0.06506418 0.29733604 0.05868712
0002e0 6f 4f b9 bb 8c 49 da bd f4 37 47 be fd 0e 87 3e
       -0.005655221 -0.10658559 -0.19454938 0.26378623
0002f0 a7 a4 4e 3e 88 cb 69 3e ea d0 7f 3e 45 11 77 3e
       0.20179997 0.22831547 0.24982038 0.24127682
000300 58 ce 8b be 40 2d 80 3d 8c d3 13 be c3 ca 19 3d
       -0.27305865 0.06258631 -0.14436167 0.037546884
000310 98 50 b6 bd 8c ac a5 3e 2f a0 ae 3e 8b ae e5 be
       -0.08902091 0.32358205 0.34106585 -0.44859728
000320 a6 62 a7 be f2 d8 e4 bc 0c 3a 7a 3e af 6d 9a be
       -0.3269245 -0.027935479 0.24436206 -0.30161807
000330 ea f0 96 bd 39 c9 33 be af 94 58 3e d7 e8 9a bd
       -0.073701695 -0.17557229 0.21150468 -0.07563942
000340 52 61 95 be 0e cb d4 bc fb f6 88 be e7 93 85 3e
       -0.29175812 -0.02597573 -0.2675093 0.26089403
000350 24 98 5b 3d f8 a5 f2 ba a4 84 ee bc a5 3e 8f be
       0.05361189 -0.0018512597 -0.029115982 -0.2797748
000360 70 39 8b 3e 2b 0a 16 3e 7e 51 b6 be 81 80 64 3e
       0.2719226 0.14652316 -0.3560905 0.22314645
000370 fb e4 a2 be 0e 63 7f bd 78 30 8c bd 1c 3c bc 3e
       -0.31815323 -0.062350325 -0.06845182 0.3676461
000380 39 f8 30 3d 29 43 57 3e 0a 73 2c be 24 1d c2 be
       0.043205474 0.21021713 -0.16840759 -0.37912858
000390 21 3f 82 be c7 a1 bc 3d f9 1f 8c be e2 d1 89 be
       -0.2543879 0.09210544 -0.27368143 -0.2691794
0003a0 12 3b 4f be ce a4 dd bd 71 0f d9 be a2 92 4d 3e
       -0.20237377 -0.108224496 -0.42394593 0.20075467
0003b0 91 95 bc 3e dc 69 af 3e f8 0f 75 3d 3a 5e cf be
       0.3683286 0.34260452 0.059829682 -0.40501577
0003c0 18 fb ae be db 99 9b 3e 50 ca ff 3d 12 80 12 bb
       -0.34175944 0.3039082 0.1248976 -0.0022354168
0003d0 1f 98 90 be 68 3a 13 bd 42 e1 8b 3d 74 27 44 be
       -0.2824106 -0.035944372 0.06830074 -0.19155675
0003e0 7e af 98 bd 01 2f c7 3d 41 05 40 3e fd 4e 6e be
       -0.074553475 0.09725762 0.18752004 -0.23272319
0003f0 8e 69 9b 3d 4d 68 cf bd 14 d0 6c bd 13 95 90 3e
       0.07588492 -0.10127316 -0.057815626 0.28238735

pred.W.bias f4 [167]
000000 f9 34 ca 3b 65 1b 22 be a9 62 09 be cc b8 28 bd
       0.0061708656 -0.15830763 -0.13416542 -0.04119186
000010 d8 ec 95 bd 48 43 99 bc 64 46 34 3c 15 78 b6 bd
       -0.07320565 -0.01870884 0.011003111 -0.089096226
000020 9c 1e 22 3c b5 3f 09 be 9f 7c 8f bd 8b 55 0b be
       0.009894993 -0.13403209 -0.070061915 -0.13606851
000030 c5 b1 db bd 9b 3d 34 be 64 b6 cb bd 3c 95 39 be
       -0.10727266 -0.17601626 -0.099468976 -0.18123335
000040 5e 73 69 3d 51 63 3f 3c 0b 45 a5 bd 95 ff 01 be
       0.05699479 0.011681394 -0.080698095 -0.12695153
000050 22 ca 90 bd 8c 6c 0a 3d d9 65 0b be 09 79 75 bd
       -0.07069804 0.033794925 -0.1361307 -0.05992988
000060 09 8f 19 be d3 7e 9d 3d fe b0 62 bd b7 9d 16 be
       -0.1499597 0.076902054 -0.055344574 -0.14708601
000070 64 71 39 3d 30 b0 2b 3d 56 cb 17 be 37 b2 0c be
       0.045274153 0.041916072 -0.1482366 -0.13739859
000080 d9 8f 24 bc 92 fe aa bd 70 43 eb bd 33 0e 1e 3c
       -0.010044062 -0.08349337 -0.11487472 0.00964694
000090 da 05 d7 bd 0f 3e a8 bd 07 59 07 be 44 00 e2 bc
       -0.10499163 -0.08214962 -0.13217555 -0.027588017
0000a0 e5 1f 98 bd 9c 0e 4a bd ad 31 fc bd dd c4 9b bd
       -0.074279584 -0.04933034 -0.123141624 -0.07605908
0000b0 2c 85 08 be 94 71 25 be 2b 58 16 be 71 80 e0 bd
       -0.13332051 -0.16156608 -0.14682071 -0.10961998
0000c0 c7 46 89 bd c2 e6 17 be c5 ee 1e be c2 4e 0b bc
       -0.06702953 -0.14834121 -0.15520771 -0.008502664
0000d0 e3 3d 0a bd 17 3b cd bd 02 1f 62 bd a8 e2 67 bd
       -0.033750426 -0.10021036 -0.055205353 -0.05661264
0000e0 1d 97 e0 bd 2f c1 e2 bd c6 0d b6 bd 1c 16 b2 bb
       -0.109663226 -0.11072003 -0.08889346 -0.0054347645
0000f0 bf 66 18 be 2d 57 24 bd 7b ef b1 bd a8 61 0e be
       -0.14882945 -0.0401222 -0.086882554 -0.1390444
000100 11 8d 95 bd 73 d0 c4 bd c0 4c 1a bd 94 7e e4 bd
       -0.07302297 -0.09610071 -0.03767085 -0.11156955
000110 0a 9f d4 bc 47 0f 2a be 10 d1 9a bd 2b a6 d1 bd
       -0.025954742 -0.1660739 -0.07559407 -0.10236772
000120 93 b7 86 bd cc 12 1e be 7c 35 2a be a8 f7 f8 bd
       -0.06577983 -0.15436858 -0.16621965 -0.12156612
000130 b5 0c 25 be c5 b8 df 3b 61 c8 47 be 3d b1 3a bd
       -0.16118129 0.006827446 -0.19510032 -0.045579184
000140 d7 73 cf 3d 6b 63 1e be aa a0 13 3e 1c 0e e6 bd
       0.101295166 -0.15467612 0.14416757 -0.1123316
000150 e2 44 0a be a4 38 a6 bd d3 ec 1d be 73 24 bf bd
       -0.13502839 -0.08116272 -0.15422373 -0.09333124
000160 61 56 5c bd ba 7d 19 be de 4c 93 bb f8 ca 7c 3c
       -0.053793315 -0.14989367 -0.0044952473 0.015429251
000170 70 d7 d0 bd f3 d0 21 bd 14 0f 73 bd 24 77 6b be
       -0.101973414 -0.03950591 -0.05934055 -0.22994667
000180 17 63 b3 3c df de 90 bd 2d 6b d4 bd 39 55 0a 3e
       0.021897836 -0.07073759 -0.10372005 0.13509072
000190 f0 81 a6 3a 34 80 36 3d 45 fa ef bd 74 d1 d2 bd
       0.0012703519 0.044555858 -0.11717657 -0.10293856
0001a0 42 3a 06 be 85 ba 1b 3d 13 50 bf be 59 6f 5a bd
       -0.13108161 0.038019676 -0.3736578 -0.053328846
0001b0 57 8f 1b 3d 43 fc a0 bd da d0 3b bc c3 fc c7 bd
       0.037978496 -0.07860615 -0.011463368 -0.09765007
0001c0 6f 9a 1f be d5 72 cb bd 6f 10 9d bc a9 d2 fc 3b
       -0.15586255 -0.09934012 -0.019172875 0.0077155423
0001d0 04 da f4 bd 70 c6 9c bd 9d f9 2e bb f4 7f 9b bd
       -0.11955646 -0.076550364 -0.0026699074 -0.075927645
0001e0 8a 5b 86 bd 03 28 26 be 9a a6 36 3c 1c 86 80 bd
       -0.065604284 -0.16226201 0.011148119 -0.06275579
0001f0 52 f0 13 be 5c 2f ba bd 49 68 ad bd 91 16 21 3d
       -0.14447144 -0.09091064 -0.084671564 0.03932816
000200 6a 55 e8 bd b9 99 99 bc ab c2 77 bd 7e ce 83 3d
       -0.113444164 -0.018750058 -0.060488384 0.0643587
000210 ab 59 27 3d bc ff bc 3c 03 ad aa 3d 4d 25 5e be
       0.040857 0.023071162 0.083337806 -0.21693917
000220 90 7f 1b 3d 1f b5 c2 bd d5 f3 eb bd 76 33 e5 bd
       0.03796345 -0.09507202 -0.11521117 -0.11191456
000230 d9 db 8e bc 2d 2d 21 be 9f 0d 1b be e3 76 98 bd
       -0.017438816 -0.1573989 -0.15141915 -0.07444551
000240 b3 6c 17 be 04 8b 53 3d 28 1a 1f 3e 88 92 0d be
       -0.14787559 0.051646248 0.15537322 -0.13825428
000250 9f 09 43 bd 76 40 5d bd cc 21 84 bd 32 62 8a bd
       -0.047616597 -0.054016553 -0.06451759 -0.067570105
000260 ce e7 a0 bd 53 68 ac bd 01 f8 f2 3d 78 03 94 bd
       -0.07856713 -0.08418336 0.11863709 -0.07227224
000270 53 42 06 3e ab e3 ec bd f6 3c 23 be 54 ac cd bc
       0.13111238 -0.11566862 -0.15941224 -0.025106587
000280 d8 94 1a bc d9 1e e3 3d 22 1f cd bd 9d ad bd bd
       -0.009434901 0.11089868 -0.10015704 -0.0926163
000290 81 3e d4 bd 9c 39 e3 3d da 63 0e 3d
       -0.10363484 0.110949725 0.034763195
