Audit-log_Analysis/code/GNN/training/model1_initial/initial_weight.pth (torch, 766767 bytes, 16 tensors)

layer1.attn_l f4 [1, 8, 16]
0	0x3aac88e7	0.0013163359
1	0xbd51581c	-0.05110942
2	0x3cb8f5da	0.022578169
3	0xbe1c8da1	-0.15288402
4	0xbe2b92f0	-0.16755271
5	0xbe0afe3c	-0.13573545
6	0x3b84cb3a	0.004052547
7	0x3b21267d	0.0024589591
8	0x3cee546e	0.029092994
9	0xbdfefbdf	-0.12450384
10	0xbddb9a40	-0.1072278
11	0x3e4bc96c	0.19901055
12	0x3d384f7b	0.044997673
13	0x3da4246e	0.08014761
14	0x3e368634	0.17824632
15	0x3eaf36d2	0.34221512
16	0xbe479bff	-0.19493102
17	0xbcd96614	-0.026537932
18	0x3e2c9c9a	0.16856614
19	0x3ea12dda	0.31480294
20	0xbc3ae42b	-0.011406939
21	0x3e144624	0.14479882
22	0xbdeccb78	-0.11562246
23	0x3e5ac078	0.21362484
24	0xbdae279f	-0.08503651
25	0xbbe8f3b6	-0.0071091307
26	0x3cc3f7dc	0.0239219
27	0x3b0fc29d	0.0021936067
28	0xbe4afe52	-0.19823578
29	0xbd9b744d	-0.07590542
30	0x3e39a5b2	0.18129614
31	0x3dcfebac	0.10152373
32	0xbd9feecb	-0.07809218
33	0x3c0074f9	0.007840388
34	0xbd8638dd	-0.065538146
35	0xbbc1bdda	-0.0059125246
36	0x3e1d6afc	0.15372843
37	0xbd1a58cb	-0.037682336
38	0xbd7c5f54	-0.06161435
39	0xbde0f14c	-0.10983524
40	0xbde21684	-0.11039451
41	0x3e73bf08	0.23803341
42	0x3e32ce1e	0.1746144
43	0x3b4573f7	0.0030128935
44	0x3e91884e	0.28424305
45	0xbe494a6c	-0.19657296
46	0xbda86689	-0.08222682
47	0xbe5e76fa	-0.21725073
48	0xb94dbe98	-0.00019621325
49	0xbd77d29c	-0.060503587
50	0xbe90e2a4	-0.28297913
51	0xbe1ae658	-0.15126932
52	0x3dc45d9c	0.09588167
53	0xbd97e16a	-0.07416041
54	0x3e17ede4	0.14836842
55	0x3d4e16c3	0.050314676
56	0xbdad5494	-0.084633976
57	0xbc41b63a	-0.011823231
58	0x3e8d979f	0.2765474
59	0xbd7aa7b0	-0.061195076
60	0xbdccc500	-0.09998512
61	0xbe35b1a2	-0.17743543
62	0xbe382c64	-0.17985684
63	0x3e3cd2aa	0.18439737
64	0x3d8ba8dd	0.068193175
65	0x3e11ef08	0.1425134
66	0x3dc34f0b	0.095365606
67	0xbda1ee4f	-0.07906782
68	0xbe9f3682	-0.31096274
69	0x3bb1d2ca	0.0054267393
70	0xbcf10eb2	-0.029425953
71	0x3e52d918	0.20590627
72	0x3e5a6e84	0.21331221
73	0x3d3ba98a	0.045815982
74	0xbdf6d28e	-0.12051879
75	0xbe232699	-0.15932693
76	0x3d19e1ab	0.03756873
77	0x3d2a561b	0.041586023
78	0x3e087abf	0.13328074
79	0xbe0afe1a	-0.13573495
80	0xbdd5baa8	-0.104359925
81	0xbe22b325	-0.1588865
82	0x3e8add25	0.27121845
83	0x3e179d59	0.14806117
84	0xbde44854	-0.11146608
85	0xbc3d958b	-0.011571298
86	0xbde39ce2	-0.111139074
87	0x3e358c02	0.1772919
88	0x3e731a94	0.23740608
89	0x3e32aede	0.17449519
90	0x3d816ffa	0.06320186
91	0xbd21989e	-0.039452188
92	0x3e445856	0.19174322
93	0xbdf2dccb	-0.11858519
94	0xbe4f0448	-0.20216477
95	0xbeb77e16	-0.35838383
96	0xbe82b01a	-0.2552498
97	0x3e021cd1	0.12706305
98	0x3e0a68e8	0.13516581
99	0xbe8fc0ca	-0.28076774
100	0xbac87eb0	-0.0015296545
101	0x3d066036	0.032806598
102	0xbdb6120f	-0.08890163
103	0xbd3289aa	-0.043588318
104	0x3d07a942	0.0331204
105	0xbd7d5152	-0.06184513
106	0x3e0f8c58	0.1401838
107	0x3e67d3d3	0.22639398
108	0xbda2901e	-0.079376444
109	0x3e2b8566	0.16750106
110	0xbb9a9967	-0.004717994
111	0xbcf5f7be	-0.03002536
112	0xbe202064	-0.15637356
113	0x3e3d6d8f	0.18498825
114	0xbcd37f72	-0.025817607
115	0x3ca9b3ee	0.02071568
116	0x3de03eb8	0.10949463
117	0x3e3a280b	0.18179338
118	0x3ac2b56c	0.0014855093
119	0x3c34e227	0.011040247
120	0xbdb4d5d0	-0.08829844
121	0xbcc58aaf	-0.024113981
122	0xbd8e598e	-0.06950675
123	0xbba712f2	-0.005098694
124	0xbe8cc742	-0.27495772
125	0xbdb86ea8	-0.09005481
126	0x3dd5eedb	0.10445949
127	0x3dee14ce	0.11625062

layer1.attn_r f4 [1, 8, 16]
0	0xbc431e87	-0.011909134
1	0xbb8f3426	-0.0043702303
2	0xbe40359a	-0.18770447
3	0x3d0fe893	0.03513391
4	0x3db0b886	0.08628945
5	0xbe46acb2	-0.19401816
6	0x3bc939aa	0.0061409073
7	0xbd9388be	-0.07203816
8	0xbe97e962	-0.29670244
9	0xbd9a5b22	-0.075369135
10	0x3e19b0e2	0.15008882
11	0x3e53ee9a	0.20696488
12	0x3dbbf006	0.0917664
13	0x3e7f67d6	0.24941954
14	0xbd621db8	-0.055204123
15	0xbdcdb3e3	-0.10044076
16	0xbd6b2c3e	-0.05741524
17	0x3ecbeb62	0.3982802
18	0x3e30c598	0.17262876
19	0x3d7d0240	0.061769724
20	0xbe0fdb19	-0.14048423
21	0xbd8a54cc	-0.06754455
22	0x3d75e7c4	0.060035482
23	0x3e0295cc	0.12752455
24	0x3d6a0b82	0.05713988
25	0xbd256820	-0.040382504
26	0x3d8b137a	0.06790824
27	0xbeb9bf97	-0.36278984
28	0xbe87d565	-0.26529995
29	0x3d1bcd59	0.03803763
30	0x3e9f6606	0.31132525
31	0xbdd25302	-0.10269739
32	0xbdbd3b36	-0.09239809
33	0x3e4c5c2e	0.19957039
34	0x3e16e430	0.14735484
35	0xbe797d5f	-0.24364232
36	0xbd4b07d7	-0.049568024
37	0x3b80d3d2	0.003931501
38	0x3c9734e2	0.018457834
39	0x3c6611cf	0.014042332
40	0x3e8f756e	0.2801928
41	0xbe8d8d48	-0.27646852
42	0xbc9a3946	-0.018826138
43	0x3ea48a04	0.32136548
44	0xbeb3ca1b	-0.35115132
45	0xbde328b6	-0.11091749
46	0xbd9803b8	-0.07422584
47	0xbe3ea934	-0.18619233
48	0x3e3728d7	0.17886673
49	0x3e3ed0c0	0.1863432
50	0x3d84f4c2	0.06491996
51	0x3e59e5d8	0.21279085
52	0xbd178f9b	-0.037002187
53	0x3e311032	0.17291334
54	0x3e2ca463	0.16859584
55	0x3dbe1240	0.09280825
56	0xbe7cd2df	-0.24689816
57	0x3e8fa40e	0.2805485
58	0xbe9f2549	-0.31083134
59	0x3d70456b	0.058659952
60	0xbe0bda75	-0.13657553
61	0xbdeb4233	-0.11487236
62	0x3e13bc9a	0.14427415
63	0xbb523057	-0.003207227
64	0x3e8d77c9	0.2763045
65	0xbd660488	-0.056156665
66	0xbddac90e	-0.106828794
67	0xbe1281fa	-0.14307395
68	0x3b7c1d16	0.0038469485
69	0x3e534b9e	0.20634314
70	0xbd969a4c	-0.073536485
71	0xbd356156	-0.04428228
72	0xbd92dcd0	-0.07171023
73	0xbe74f073	-0.23919849
74	0x3f0590da	0.5217415
75	0x3e4e4114	0.20142013
76	0x3c289fd4	0.010292012
77	0xbbc84a73	-0.0061123907
78	0xbd9660b4	-0.073426634
79	0xbe52f01f	-0.20599411
80	0x3e761c28	0.24034178
81	0x3cb1bb3f	0.021695731
82	0xbdc9638c	-0.0983344
83	0x3c41fe06	0.011840349
84	0xbdf40ce4	-0.11916521
85	0x3ddefd2f	0.10888135
86	0xbea396fe	-0.31951135
87	0xbe82f882	-0.2558022
88	0x3d8aa318	0.06769389
89	0xbe3cd51f	-0.18440674
90	0x3d7a98d6	0.061180912
91	0xbe2f2ed8	-0.17107713
92	0x3bedbbb0	0.00725504
93	0x3e8e00c4	0.2773496
94	0x3dc715cc	0.09720954
95	0xbde8374b	-0.11338671
96	0x3e1cc726	0.15310344
97	0x3d3ae9bb	0.04563306
98	0x3d70e714	0.058814123
99	0x3e50dc6b	0.20396583
100	0xbe5740e2	-0.21020845
101	0x3d87dbf9	0.06633753
102	0x3dfffc8f	0.124993436
103	0xbe2b7572	-0.1674402
104	0xbe893d82	-0.2680474
105	0x3daf3cee	0.08556543
106	0x3e6e5ee3	0.23278384
107	0xbe99cd76	-0.30039567
108	0xbe8395c2	-0.25700194
109	0xbcc0a360	-0.023515403
110	0x3d4a0d54	0.049329117
111	0x3e09ae97	0.13445507
112	0xbddd9787	-0.10819917
113	0x3e370017	0.17871128
114	0xbc62db66	-0.013846254
115	0x3dbcde47	0.092220835
116	0x3d0b0d00	0.033947945
117	0xbdc4ffc2	-0.096190944
118	0xbe21dd02	-0.15806964
119	0xbe248e46	-0.16069898
120	0xbe6cb617	-0.23116337
121	0x39f5e017	0.00046897
122	0x3daf5cf4	0.08562651
123	0x3d67e99a	0.056619264
124	0xbdd85af3	-0.10564222
125	0x3e4a7c80	0.19774055
126	0xbdd629cb	-0.1045719
127	0xbe5c96ce	-0.21541902

layer1.bias f4 [128]
0	0x00000000	0.0
1	0x00000000	0.0
2	0x00000000	0.0
3	0x00000000	0.0
4	0x00000000	0.0
5	0x00000000	0.0
6	0x00000000	0.0
7	0x00000000	0.0
8	0x00000000	0.0
9	0x00000000	0.0
10	0x00000000	0.0
11	0x00000000	0.0
12	0x00000000	0.0
13	0x00000000	0.0
14	0x00000000	0.0
15	0x00000000	0.0
16	0x00000000	0.0
17	0x00000000	0.0
18	0x00000000	0.0
19	0x00000000	0.0
20	0x00000000	0.0
21	0x00000000	0.0
22	0x00000000	0.0
23	0x00000000	0.0
24	0x00000000	0.0
25	0x00000000	0.0
26	0x00000000	0.0
27	0x00000000	0.0
28	0x00000000	0.0
29	0x00000000	0.0
30	0x00000000	0.0
31	0x00000000	0.0
32	0x00000000	0.0
33	0x00000000	0.0
34	0x00000000	0.0
35	0x00000000	0.0
36	0x00000000	0.0
37	0x00000000	0.0
38	0x00000000	0.0
39	0x00000000	0.0
40	0x00000000	0.0
41	0x00000000	0.0
42	0x00000000	0.0
43	0x00000000	0.0
44	0x00000000	0.0
45	0x00000000	0.0
46	0x00000000	0.0
47	0x00000000	0.0
48	0x00000000	0.0
49	0x00000000	0.0
50	0x00000000	0.0
51	0x00000000	0.0
52	0x00000000	0.0
53	0x00000000	0.0
54	0x00000000	0.0
55	0x00000000	0.0
56	0x00000000	0.0
57	0x00000000	0.0
58	0x00000000	0.0
59	0x00000000	0.0
60	0x00000000	0.0
61	0x00000000	0.0
62	0x00000000	0.0
63	0x00000000	0.0
64	0x00000000	0.0
65	0x00000000	0.0
66	0x00000000	0.0
67	0x00000000	0.0
68	0x00000000	0.0
69	0x00000000	0.0
70	0x00000000	0.0
71	0x00000000	0.0
72	0x00000000	0.0
73	0x00000000	0.0
74	0x00000000	0.0
75	0x00000000	0.0
76	0x00000000	0.0
77	0x00000000	0.0
78	0x00000000	0.0
79	0x00000000	0.0
80	0x00000000	0.0
81	0x00000000	0.0
82	0x00000000	0.0
83	0x00000000	0.0
84	0x00000000	0.0
85	0x00000000	0.0
86	0x00000000	0.0
87	0x00000000	0.0
88	0x00000000	0.0
89	0x00000000	0.0
90	0x00000000	0.0
91	0x00000000	0.0
92	0x00000000	0.0
93	0x00000000	0.0
94	0x00000000	0.0
95	0x00000000	0.0
96	0x00000000	0.0
97	0x00000000	0.0
98	0x00000000	0.0
99	0x00000000	0.0
100	0x00000000	0.0
101	0x00000000	0.0
102	0x00000000	0.0
103	0x00000000	0.0
104	0x00000000	0.0
105	0x00000000	0.0
106	0x00000000	0.0
107	0x00000000	0.0
108	0x00000000	0.0
109	0x00000000	0.0
110	0x00000000	0.0
111	0x00000000	0.0
112	0x00000000	0.0
113	0x00000000	0.0
114	0x00000000	0.0
115	0x00000000	0.0
116	0x00000000	0.0
117	0x00000000	0.0
118	0x00000000	0.0
119	0x00000000	0.0
120	0x00000000	0.0
121	0x00000000	0.0
122	0x00000000	0.0
123	0x00000000	0.0
124	0x00000000	0.0
125	0x00000000	0.0
126	0x00000000	0.0
127	0x00000000	0.0

layer1.fc.weight f4 [128, 100]
0	0xbd1889f1	-0.037240926
1	0x3d22840f	0.039676722
2	0x3dbf8c91	0.09352983
3	0x3e988ceb	0.29795012
4	0x3e91d65a	0.2848385
5	0x3e0831d2	0.13300255
6	0xbdb18849	-0.086685725
7	0x3cd6e2dc	0.026231222
8	0xbbdb967e	-0.0067012897
9	0x3938e2b2	0.00017632058
10	0xbdec22f7	-0.115301065
11	0xbc1ac4c1	-0.009446324
12	0xbd9f0450	-0.077644944
13	0x3e243ccd	0.16038819
14	0x3b1ae0fd	0.0023632639
15	0x3e2e1b38	0.1700257
16	0xbdc0a3b5	-0.09406225
17	0xbe210bb3	-0.15727119
18	0xbe26b974	-0.16281682
19	0xbd53774e	-0.05162745
20	0xbdf7d51b	-0.121011935
21	0x3c2f719d	0.01070824
22	0x3d1179eb	0.03551666
23	0xbe2ccf15	-0.1687587
24	0x3df37ab3	0.118886374
25	0xbd3471ac	-0.04405372
26	0xbd978ad1	-0.07399524
27	0xbd5430ba	-0.05180428
28	0xbddb55c1	-0.10709716
29	0x3ba22587	0.0049483213
30	0x3bb2bb08	0.005454425
31	0x3d546999	0.05185852
32	0xbdc34c5b	-0.09536048
33	0x3d2458ef	0.040123876
34	0x3d5f6c11	0.05454642
35	0xbdd07833	-0.10179176
36	0xbe5be82c	-0.21475285
37	0x3da4c3d0	0.08045161
38	0xbda3c776	-0.079970285
39	0xbe2434da	-0.16035786
40	0x3db477c6	0.088119075
41	0x3e576fb7	0.2103871
42	0xbd831882	-0.06401159
43	0xbc39f828	-0.011350669
44	0x3cf4436c	0.029817306
45	0x3d540725	0.051764626
46	0xbe85aa22	-0.26106364
47	0xbc3d4b4a	-0.011553595
48	0xbda8f8bd	-0.08250568
49	0xbe2b27ca	-0.16714397
50	0xbdea3294	-0.11435428
51	0xbd84615b	-0.064638816
52	0xbd17f2e8	-0.037096888
53	0xbad8633b	-0.0016509065
54	0x3dc8ee45	0.09811071
55	0xbe472ef5	-0.19451506
56	0x3d8cc26d	0.06873021
57	0xbe1d8779	-0.1538371
58	0x3d14c8cf	0.03632432
59	0x3df6240d	0.12018595
60	0x3e5d0a71	0.21586014
61	0xbd8feb2d	-0.07027278
62	0xbe7858a8	-0.2425257
63	0xbe109383	-0.14118771
64	0x3dbfa6ee	0.09358011
65	0xbe592bf2	-0.2120817
66	0x3de98bed	0.11403642
67	0xbce2b1c7	-0.027672661
68	0x3d7ec625	0.062200684
69	0xbd99dccd	-0.075128175
70	0x3d0e0b97	0.03467902
71	0x3ca82ff5	0.02053068
72	0x3e2966ef	0.16543172
73	0xbdc386c2	-0.095471874
74	0xbd4e686b	-0.05039255
75	0x3d3239e4	0.04351224
76	0x3d34b710	0.044119895
77	0xbd42bfcb	-0.04754619
78	0xbdd13685	-0.10215477
79	0xbe0427a8	-0.12905753
80	0xbd5a2258	-0.05325541
81	0x3d6baae6	0.05753603
82	0x3c409a47	0.011755533
83	0x3d0a9fda	0.033843853
84	0xbd284e04	-0.041090026
85	0xbbb10b9e	-0.005402996
86	0x3d9048bd	0.07045124
87	0xbd900379	-0.07031912
88	0x3d5bd626	0.053671025
89	0xbdf1a52c	-0.11799082
90	0x3cec13b9	0.028817998
91	0xbe2f5db7	-0.17125593
92	0xbd8c8bfb	-0.06862637
93	0x3deef2f1	0.11667431
94	0xbd8f3865	-0.06993178
95	0x3d24fbbc	0.040279135
96	0xbe03fa5f	-0.12888478
97	0xbe5004cd	-0.20314331
98	0xbd3fd2c0	-0.046831846
99	0xbd64f666	-0.055899046
100	0xbe4dffd1	-0.20117117
101	0xbdac0ef0	-0.084012866
102	0x3e09a7cf	0.1344292
103	0xbddec69a	-0.10877724
104	0xbd5968af	-0.05307835
105	0xbc5af0b9	-0.013363057
106	0xbda05779	-0.07829184
107	0xbd35369a	-0.044241525
108	0xbd806cbe	-0.06270741
109	0xbe08f42f	-0.13374399
110	0x3bf3bdd8	0.0074384026
111	0xbe576276	-0.21033654
112	0x3bb66d01	0.0055671935
113	0x3d64e1f7	0.05587956
114	0xbd786f06	-0.060652755
115	0x3c1c3f73	0.009536612
116	0x3dfc9277	0.123326235
117	0xbd7031d7	-0.05864128
118	0xbbe4293d	-0.006962924
119	0xbd95b7e7	-0.07310467
120	0x3d11a4b1	0.035557453
121	0xbe230259	-0.15918864
122	0x3e625ecd	0.22106476
123	0xbc715751	-0.0147302905
124	0x3e63ea27	0.22257291
125	0xbe3befbb	-0.18353169
126	0x3dbb6d93	0.09151759
127	0x3d84760c	0.06467828
128	0xbe7edc43	-0.2488871
129	0xbdff9af3	-0.12480726
130	0xbe7d1fa1	-0.24719097
131	0x3e001571	0.12508179
132	0xbe6586e5	-0.2241474
133	0x3dba4b57	0.09096401
134	0xbd708835	-0.058723647
135	0xbd6d0088	-0.057861835
136	0x3e561666	0.20906982
137	0xbc85a86c	-0.016315661
138	0xbd539c80	-0.051662922
139	0xbdb48856	-0.088150665
140	0xbd2e36be	-0.042532675
141	0xbe4de60d	-0.20107289
142	0xbdab91ea	-0.0837744
143	0x3e210810	0.15725732
144	0x3cf08fc6	0.029365432
145	0xba999137	-0.0011716251
146	0xbe1d9808	-0.15390027
147	0xbdb4f06d	-0.0883492
148	0xbe4f11e1	-0.20221664
149	0x3e6b647b	0.22987549
150	0xbe15aa51	-0.14615752
151	0xbe64f23e	-0.22358033
152	0xbdaaa5a0	-0.08332372
153	0x3e99524a	0.29945594
154	0x3d923688	0.07139307
155	0xbe251e52	-0.16124848
156	0xbcfce009	-0.030868547
157	0x3de25108	0.11050612
158	0xbc1b2eea	-0.009471634
159	0x3e0bb327	0.1364256
160	0xbd73b360	-0.059497237
161	0xbdfe1f3f	-0.124083035
162	0xbb040c92	-0.0020149094
163	0x3da6bcdd	0.081414916
164	0xbd87e4d3	-0.06635442
165	0x3c840c72	0.016119216
166	0x3e46a2a3	0.19397978
167	0xbdb3b2c4	-0.08774331
168	0xbdd020c4	-0.101624995
169	0x3d86554e	0.06559239
170	0x3d8e76df	0.069562666
171	0x3daddfef	0.084899776
172	0xbd8af7e1	-0.067855604
173	0xbe0b642d	-0.13612433
174	0xbdabcf4d	-0.08389149
175	0x3d863efd	0.06554983
176	0xbdbb1306	-0.09134488
177	0xbdc58ffe	-0.09646605
178	0x3cdab57b	0.026697865
179	0xbdc92cdc	-0.09823009
180	0x3d8979dd	0.06712697
181	0xbe2ffae1	-0.17185546
182	0xbe0b685a	-0.13614026
183	0x3dc6bab6	0.09703581
184	0x3e6a4919	0.22879447
185	0x3de12e88	0.10995203
186	0x3c93b758	0.018031761
187	0x3d5e778e	0.054313235
188	0xbd81627e	-0.06317614
189	0x3d9a2bb8	0.0752787
190	0xbe199118	-0.14996755
191	0x3e8fd656	0.28093213
192	0xbe5e3e6b	-0.21703498
193	0xbecbbfbc	-0.3979472
194	0x3e2e9967	0.17050706
195	0x3e93ec7f	0.2889137
196	0xbe43cf27	-0.19121991
197	0x3e3fd74e	0.18734476
198	0xbdb48d13	-0.0881597
199	0x3e2e2226	0.17005214
200	0x3dca7a97	0.098866634
201	0x3dcde85e	0.10054086
202	0xbe565dd3	-0.20934229
203	0x3daead75	0.08529178
204	0x3d84393a	0.064562276
205	0xbb0b2d74	-0.002123681
206	0xbd6d54f9	-0.057942364
207	0xbce628f9	-0.02809571
208	0x3cde064b	0.02710261
209	0x3da2f40f	0.07956707
210	0xbe1a9d97	-0.15099178
211	0x3e1fa8a3	0.15591674
212	0xbe5ed15b	-0.2175955
213	0xbe20025b	-0.15625899
214	0xbe6c0be0	-0.23051405
215	0x3cbb8f56	0.022895496
216	0xbe2a7760	-0.166471
217	0xbd215618	-0.039388746
218	0xbe0d7245	-0.13813122
219	0x3dfe142c	0.12406191
220	0xbe03d049	-0.12872423
221	0x3e338f82	0.17535213
222	0xbe2712c6	-0.16315755
223	0xbc06b8d3	-0.008222776
224	0x3def7dcd	0.116939165
225	0x3d7ec4b6	0.062199317
226	0x3cd6a82c	0.026203237
227	0xbd521abb	-0.051295023
228	0x3e46bd75	0.1940821
229	0xbcfb69c9	-0.03069009
230	0xbd049125	-0.032364983
231	0x3b161583	0.0022901006
232	0x3e0729fd	0.13199611
233	0x3e11ec58	0.14250314
234	0xbc0343c6	-0.008011764
235	0x3dd90c8d	0.10598097
236	0x3e0b8bd3	0.13627557
237	0xbd21ba1d	-0.039484132
238	0xbd93b873	-0.07212915
239	0xbeb5e6a9	-0.35527542
240	0x3e93100b	0.28723177
241	0xbeb9d082	-0.3629189
242	0xbe3f2cfd	-0.18669505
243	0x3e4c2fb8	0.19940078
244	0x3c80b684	0.01571203
245	0xbca0321d	-0.019555146
246	0x3e7b5aff	0.24546431
247	0x3e441558	0.19148767
248	0xbe5a066a	-0.2129151
249	0x3d9550e7	0.072908215
250	0x3d386b3c	0.04502414
251	0xbca41356	-0.020028751
252	0xbcca5f0d	-0.024703527
253	0xbc658a94	-0.01401009
254	0xbdc55317	-0.09634989
255	0xbd3cdf18	-0.046111196

layer2.attn_l f4 [1, 8, 168]
0	0x3bd97b87	0.00663704
1	0xbca45c1b	-0.02006345
2	0xbb82fedc	-0.0039976668
3	0x3c4aee45	0.012385909
4	0xbd09b478	-0.033619374
5	0xbcb6a66e	-0.022296157
6	0xbd191202	-0.03737069
7	0xbc42c88d	-0.011888635
8	0x3d491296	0.04908999
9	0x3d18e157	0.037324276
10	0xbd570e7d	-0.05250405
11	0xbb7bc223	-0.0038415275
12	0xbc930186	-0.017945062
13	0x3c063993	0.008192438
14	0xbc191e9d	-0.009345678
15	0xbd16b5f9	-0.036794636
16	0x3a2374df	0.00062353717
17	0x3d92ee5d	0.071743704
18	0x3cdf61e7	0.027268363
19	0x3cd11df2	0.025526974
20	0xbc5c9dc2	-0.013465347
21	0x3d255597	0.040364828
22	0x3d1d8f3c	0.038466677
23	0xbd3bac31	-0.04581851
24	0xbbc513ca	-0.006014322
25	0x3c308dae	0.010775967
26	0x3d20d45b	0.039265018
27	0x3d49b2f6	0.049242936
28	0xbc85a039	-0.016311752
29	0xbd95f13e	-0.07321404
30	0xbddb3e53	-0.10705247
31	0xbd43a964	-0.047768965
32	0xbcee265c	-0.029071026
33	0x3c6e6a7f	0.014551758
34	0x3ced3df1	0.0289602
35	0x3d2a7585	0.04161598
36	0x3d85208f	0.06500351
37	0xbc4f0636	-0.012635758
38	0x3b898959	0.0041972813
39	0xbc96847a	-0.018373717
40	0xbc4ea109	-0.012611636
41	0xbd2e678e	-0.042579226
42	0xbd507685	-0.05089428
43	0xbd4d722e	-0.05015772
44	0xbd35c017	-0.044372644
45	0x3d0a9c49	0.03384045
46	0x3b839cbd	0.0040164874
47	0xbcd732f5	-0.026269415
48	0xbd316d0c	-0.043316886
49	0x3cb8f379	0.022577034
50	0xbde73e73	-0.11291208
51	0x3d25ad1c	0.040448293
52	0x3c71daa5	0.014761602
53	0x3d8b9b42	0.068167225
54	0xbd5afc28	-0.05346313
55	0xbc881505	-0.016611585
56	0x3d7f8556	0.06238302
57	0x3d05feda	0.03271375
58	0x3c25ff1f	0.010131626
59	0x3c980d95	0.018561164
60	0x3d9cc894	0.07655445
61	0xbb6b58bc	-0.0035911044
62	0xbd82d4ec	-0.06388268
63	0x3d2f10ff	0.042740818
64	0xbada5771	-0.001665814
65	0xbd959d19	-0.073053546
66	0xbb8bb929	-0.004264016
67	0xbd7d7c2a	-0.06188599
68	0x3d6e331c	0.05815421
69	0xbd3a2ffc	-0.045455918
70	0xbcd3b229	-0.02584179
71	0xbc3f7833	-0.011686373
72	0xbcc38f1d	-0.023871953
73	0x3c8e4a8d	0.017369533
74	0x3cae22c8	0.02125682
75	0x3b817fcf	0.0039520035
76	0xbd45dbeb	-0.048305433
77	0xbcdaa385	-0.0266893
78	0x3d66fdb4	0.056394294
79	0xbd7fbe08	-0.062437087
80	0xbd25e34b	-0.040499967
81	0xbd2f5f00	-0.04281521
82	0xbd5a0ce7	-0.05323496
83	0x3e004d02	0.12529376
84	0xbd9e5535	-0.07731096
85	0x3ccaa16c	0.024735175
86	0x3b51a87d	0.0031991296
87	0x3d1a6ae1	0.037699584
88	0x3d97d167	0.07412987
89	0x3d1f1359	0.03883681
90	0xbd738670	-0.05945438
91	0xbba279fb	-0.004958389
92	0xbcd2adf2	-0.02571771
93	0x3d5930f0	0.053025186
94	0xbc752140	-0.014961541
95	0xbd7ff02e	-0.062484913
96	0x3d673364	0.056445494
97	0xbd63d39b	-0.055621725
98	0xbcb25896	-0.021770757
99	0xbd611438	-0.054950923
100	0x3d95eddd	0.073207594
101	0xbc63ad78	-0.013896339
102	0x3d156cee	0.036480837
103	0xbd9ba62e	-0.07600056
104	0x3c09ab73	0.008402693
105	0x3c253b10	0.010084882
106	0xbd982dbf	-0.074306004
107	0x3dc5c613	0.0965692
108	0x3d3c3ec4	0.045958295
109	0x3b7a207c	0.0038166335
110	0xbbb5c685	-0.005547347
111	0xbd1255dd	-0.035726417
112	0xbcdf5b77	-0.027265294
113	0x3ce3e977	0.027821286
114	0x3c98d7ed	0.018657649
115	0x3d86b23c	0.06576964
116	0x3d81530b	0.06314667
117	0x3a01c3d9	0.0004950143
118	0x3db632a0	0.08896375
119	0xbd889d2d	-0.06670604
120	0xb938fe48	-0.00017642335
121	0x3d335126	0.04377856
122	0xbb94e6af	-0.004544101
123	0xbca2bbf6	-0.019865017
124	0xbaf052c9	-0.0018335219
125	0xbd16ab47	-0.036784437
126	0xbb75d939	-0.0037513508
127	0x3da661db	0.08124133
128	0x3b3511b2	0.0027628955
129	0xbd1f6b8f	-0.038920935
130	0xbb9df3ff	-0.0048203464
131	0xbd089180	-0.033341885
132	0xbd307f79	-0.043090317
133	0xbd68d4e5	-0.056843657
134	0xbdb9d9e3	-0.09074762
135	0x37329633	1.0644598e-05
136	0xbd8d5f83	-0.06902983
137	0xbbf4254b	-0.0074507347
138	0xbd5d848d	-0.05408149
139	0xbcffc80c	-0.03122332
140	0x3d570d46	0.052502893
141	0x3dbb1141	0.0913415
142	0xbd3461f2	-0.04403872
143	0xbb3fd704	-0.0029272446
144	0x3d043ed2	0.032286473
145	0x3d249eb2	0.040190406
146	0x3e009a0d	0.12558766
147	0xbd747054	-0.059677437
148	0xbcf14fdc	-0.029457025
149	0xbd00c151	-0.03143436
150	0xbc4dfd30	-0.012572572
151	0xb902b6f2	-0.00012465919
152	0xbd1fed8d	-0.039044905
153	0x3d90fc55	0.070793785
154	0xbcaf8951	-0.021427782
155	0xbc1963c2	-0.009362163
156	0x3c5fd611	0.013661877
157	0x3bb2d084	0.005456986
158	0xbd78bdc1	-0.06072784
159	0x3d26c06a	0.040710844
160	0x3db23ba5	0.087027825
161	0x3d03ec82	0.032207973
162	0x3dc79634	0.09745446
163	0x3c05b5ef	0.008161052
164	0x3ca0b912	0.019619498
165	0xbc7413e3	-0.0148973195
166	0xbcc66b1b	-0.024220994
167	0x3d376ba6	0.044780396
168	0x3d88d91d	0.06682036
169	0x3d25e9e6	0.040506266
170	0x3d20ec22	0.039287694
171	0x3d6344aa	0.055485405
172	0x3d009543	0.031392347
173	0xbc930e92	-0.017951284
174	0x3cbf47b7	0.023349626
175	0x3d4afac1	0.049555544
176	0x3d2deb4c	0.042460725
177	0x3d5e489a	0.054268457
178	0x3c2225c9	0.009896704
179	0x3d8b92d6	0.06815116
180	0x3c3e6164	0.011619899
181	0xbd59b91d	-0.053155053
182	0xbdb1baf7	-0.08678239
183	0xbd1c546a	-0.03816644
184	0xbd212d6b	-0.039349955
185	0x3d755559	0.059895847
186	0x3d1f6780	0.038917065
187	0xbd5d0905	-0.05396368
188	0x3ce21521	0.027597966
189	0xbd721d7a	-0.059110142
190	0xbbcc11dd	-0.0062277154
191	0xbd1dbe2c	-0.03851144
192	0xbe164fd8	-0.14678895
193	0x3c0247e0	0.007951707
194	0x3d8db813	0.06919875
195	0x3c01ec5d	0.007929889
196	0xbd19bc7d	-0.037533272
197	0x3cd76dce	0.026297476
198	0x3d4b7d3a	0.049679972
199	0x39a2b4e9	0.00031033836
200	0x3d30e531	0.043187324
201	0xbcdc2395	-0.026872436
202	0x3c4bae95	0.01243176
203	0xbc0b70e1	-0.008510799
204	0x3c51eb53	0.012812453
205	0x3d76bc4a	0.06023816
206	0x3d79dcac	0.061001465
207	0x3c16f71c	0.009214189
208	0xbd14ac65	-0.03629722
209	0x3c0653f6	0.008198729
210	0x3c60a3af	0.0137109
211	0xbd6b586d	-0.057457376
212	0xbca21c8b	-0.019789001
213	0x3d2f7189	0.042832885
214	0x3d9c601c	0.07635519
215	0xbce42486	-0.027849447
216	0xbd88077d	-0.06642053
217	0xbd2942c0	-0.041323423
218	0x3d7fe10f	0.062470492
219	0x3b8418a9	0.00403126
220	0xbccdc1e3	-0.025116866
221	0x3cd04251	0.025422247
222	0xbd43e906	-0.04782965
223	0x3d1d3a92	0.038385935
224	0x3ce97462	0.028497878
225	0x3ac00510	0.0014649946
226	0x3d42b27d	0.0475335
227	0xbd98d430	-0.074623466
228	0xbd2aa6a0	-0.041662812
229	0x3dadfb7f	0.08495235
230	0xbdc85ed0	-0.09783709
231	0x3d8dcaa1	0.06923414
232	0x3c7460b1	0.014915631
233	0xbd9dbfb8	-0.07702583
234	0xbd05db6e	-0.032679968
235	0xbdb7add4	-0.08968702
236	0xbdf1239c	-0.1177437
237	0xbda48897	-0.08033865
238	0x3c1de85e	0.00963792
239	0xbd256f57	-0.040389385
240	0x3d87de8d	0.06634245
241	0xbd3e83bc	-0.04651235
242	0x3d1b4ff2	0.03791804
243	0xbc50d5f8	-0.012746327
244	0xbcf745c2	-0.03018463
245	0xbd5207cb	-0.051276963
246	0xbcab614e	-0.020920422
247	0xbd9a86f5	-0.07545272
248	0x3d26763d	0.040640105
249	0xbd4723e5	-0.048618216
250	0xbc8bdab9	-0.017072069
251	0xbcb80746	-0.022464406
252	0x3dacedb1	0.084437735
253	0x3d041e14	0.032255247
254	0x3d5d9c6c	0.054104254
255	0x3d4d82a5	0.05017342

layer2.attn_r f4 [1, 8, 168]
0	0x3cfbac4a	0.030721802
1	0x3cfd4e4e	0.030921128
2	0xbd0c6479	-0.034275506
3	0x3b3a34c0	0.002841279
4	0xbd849fbe	-0.06475781
5	0x3d1ec5c6	0.03876283
6	0xbd26dc0d	-0.0407372
7	0x3d862b7b	0.06551262
8	0xbc00a215	-0.007851143
9	0xbc8f2e23	-0.017478054
10	0xbcef0556	-0.029177349
11	0xbb298d5e	-0.0025871615
12	0xbdee6e17	-0.11642092
13	0xbdb32086	-0.08746438
14	0x3c0d93f5	0.008641233
15	0xbbc0cc94	-0.0058837626
16	0xbc63b912	-0.013899105
17	0x3c804c4b	0.01566138
18	0xb8da54fe	-0.00010410881
19	0xbd2acd2a	-0.041699566
20	0xb9efa561	-0.0004570885
21	0x3b08fbfc	0.0020902148
22	0x3d24539b	0.040118795
23	0x3db8b228	0.090183556
24	0xbd90694b	-0.07051333
25	0xbc911256	-0.017708939
26	0xbc41456f	-0.011796339
27	0xbb918e3a	-0.0044420036
28	0x3d3c7867	0.046013262
29	0xbcf9d699	-0.030497836
30	0x3d03ae18	0.03214845
31	0x3b7c02c2	0.0038453792
32	0x3d531fa4	0.051543847
33	0x3c9e07ec	0.019290887
34	0xbdaafc78	-0.08348936
35	0xbd672ad5	-0.056437332
36	0xbb3d951f	-0.0028927994
37	0xbde035a5	-0.10947732
38	0x3d0be73a	0.03415606
39	0x3db9de86	0.09075646
40	0x3e19a2c3	0.15003495
41	0x3d719d57	0.05898794
42	0xbcd01b88	-0.025403753
43	0x3cad0eea	0.021125276
44	0xbce3eb91	-0.027822288
45	0x3dd51163	0.10403707
46	0x3d0bf936	0.034173213
47	0x3d3aa8fe	0.04557132
48	0xbc98f72c	-0.018672548
49	0x3c548b57	0.012972674
50	0x3ca117b8	0.01966463
51	0x3d234917	0.039864626
52	0x3cd3dc38	0.025861844
53	0x3d4a7c13	0.049434733
54	0x3c4945ee	0.012284739
55	0x3d46ab87	0.048503425
56	0xbd07a4f8	-0.03311631
57	0x3cc2ac37	0.023763759
58	0x3db45026	0.088043496
59	0xbce4375b	-0.027858427
60	0x3d9a3014	0.075287014
61	0x3bab92f3	0.0052360236
62	0xbbdda045	-0.0067634904
63	0x3b686529	0.0035460687
64	0x3c7b367b	0.015332813
65	0x3c33ab5d	0.010966149
66	0x3c6c0e5e	0.014407722
67	0xbc4b8078	-0.012420766
68	0x3c859d07	0.016310228
69	0x3c63e3ee	0.013909323
70	0xbc9dfb68	-0.019284919
71	0x3c1096be	0.008825002
72	0x3d15c1ac	0.036561653
73	0xbdbcd493	-0.09220233
74	0xbdaa6d0f	-0.083215825
75	0x3ca8ce76	0.02060626
76	0xbdbed7e1	-0.093185194
77	0xbb991b50	-0.0046724454
78	0xbd758ffb	-0.059951764
79	0x3cbcd521	0.023050847
80	0x3cde3b07	0.027127756
81	0x37c4220c	2.3380875e-05
82	0x3d3d7e84	0.046263233
83	0x3c229e0a	0.009925375
84	0xbd872551	-0.065989144
85	0x3ceb1ee2	0.02870125
86	0x3d89b403	0.06723788
87	0x3cb4827d	0.022034878
88	0xbe1c8a08	-0.1528703
89	0x3ba57215	0.005049
90	0x3d38be2c	0.045103237
91	0x3d38ffc2	0.045165785
92	0xbcc3d8b9	-0.023907052
93	0x3cd46db7	0.025931222
94	0x3d59e222	0.053194173
95	0x3c8849b6	0.01663671
96	0xbd3cb32a	-0.0460693
97	0x3b7d7313	0.0038673326
98	0x3c0c9662	0.008580776
99	0xbd128198	-0.03576812
100	0xbbaad01b	-0.0052127964
101	0xbc2f8b13	-0.01071431
102	0x3d122d27	0.035687592
103	0x3d53136b	0.05153219
104	0x3b48f267	0.0030662061
105	0x3d51349f	0.051075574
106	0x3d03db6d	0.032191683
107	0x3d71d833	0.059044074
108	0x3c7be7be	0.015375076
109	0xbbffaebc	-0.0078028124
110	0xbbe1b7a7	-0.006888348
111	0x3d873e7c	0.06603715
112	0x3bce5506	0.0062967567
113	0xbdf600fc	-0.120119065
114	0x3cfb4d70	0.030676574
115	0x3d99d513	0.07511344
116	0xbcbaa584	-0.022784002
117	0xbd04e82b	-0.032447975
118	0xba61e91c	-0.0008617805
119	0xbb898f71	-0.0041980078
120	0xbca65f31	-0.020309063
121	0xbd27b5e8	-0.040944964
122	0xbc4b7874	-0.012418855
123	0xbd0c62d2	-0.03427393
124	0xbd80b19f	-0.062838785
125	0x3db9c653	0.090710305
126	0x3d2b99d8	0.041894764
127	0xbd3a9dc2	-0.045560606
128	0xbd3c576b	-0.045981806
129	0x3cc425ca	0.0239438
130	0xbd7dfe32	-0.062009998
131	0xbd38f362	-0.045153983
132	0x3cff1894	0.03113965
133	0xbd8f6d13	-0.07003226
134	0xbd2a1cfd	-0.04153155
135	0xbd5e65b8	-0.054296225
136	0xbd98370d	-0.07432375
137	0xbbb555e8	-0.0055339225
138	0xbcb46533	-0.022020912
139	0x3c97c5f6	0.018527012
140	0xbab7d0f2	-0.0014024063
141	0x3d9db40c	0.07700357
142	0x3ce5d91f	0.028057633
143	0x3d052b1e	0.032511823
144	0xbc58a766	-0.013223505
145	0xbd89e22c	-0.06732592
146	0xbd4ddbba	-0.050258376
147	0x3d4cbc2a	0.049984135
148	0xbd019f5b	-0.031646114
149	0xbdb80f28	-0.08987266
150	0x3c418d7b	0.011813517
151	0x3bba5b6a	0.005687167
152	0x3d2a69e6	0.0416049
153	0x3d8e0e2a	0.06936295
154	0xbd138ea0	-0.03602469
155	0x3d4a23fe	0.04935073
156	0x3d792344	0.060824648
157	0x3d25b273	0.040453386
158	0xbc9cb136	-0.01912747
159	0x3d8acfcd	0.06777916
160	0xbd703647	-0.058645513
161	0xbd0d09e2	-0.034433253
162	0xbd7d830d	-0.061892558
163	0xbc74d980	-0.014944434
164	0xbd930701	-0.0717907
165	0xbcd16cf1	-0.025564643
166	0x3cfb1fab	0.030654749
167	0xbd79b98b	-0.060967963
168	0xbd1d6609	-0.038427386
169	0xbc5ccf1e	-0.013477115
170	0xbd0b83be	-0.034061186
171	0xbd0a52c8	-0.033770353
172	0xbc5c8202	-0.013458731
173	0xbcd2a2ce	-0.025712397
174	0xbbd2962c	-0.0064265933
175	0x3d85af19	0.06527538
176	0xbdb71937	-0.08940356
177	0x3cb28d62	0.021795932
178	0x3c8a5ded	0.01689049
179	0x3b6fc4a7	0.003658572
180	0xbc70557a	-0.014668817
181	0xbc9af041	-0.01891339
182	0xbcca22d4	-0.02467481
183	0xbbfcf399	-0.007719469
184	0xbdb4acea	-0.08822043
185	0x3d10c463	0.03534354
186	0xbb5e9add	-0.0033966817
187	0xbd9c9652	-0.07645859
188	0x3c65e6b6	0.014032057
189	0xbd3cf80b	-0.04613499
190	0xbd2b2e53	-0.041792225
191	0xbc8f667b	-0.017504921
192	0xbcbda85e	-0.023151573
193	0xbb568905	-0.0032735479
194	0x3d34548e	0.04402595
195	0xbac57113	-0.0015063606
196	0x3c7df9c3	0.015501442
197	0x3c88ef1f	0.016715584
198	0xbca80b14	-0.020513095
199	0xbd07cf32	-0.03315658
200	0xbd57be11	-0.052671496
201	0x3d13b77d	0.03606366
202	0x3c60ff81	0.013732792
203	0xbb1093ed	-0.0022060827
204	0x3d95047d	0.07276247
205	0x3d3b6a21	0.04575551
206	0xbbd5ed09	-0.006528501
207	0x3d3b834d	0.045779515
208	0xbdb0f255	-0.08639971
209	0x3aaa958b	0.0013014538
210	0x3c9d87bd	0.019229764
211	0x3d477457	0.048694935
212	0x3da59a6a	0.08086093
213	0x3c3b11bc	0.011417802
214	0xbc84fa12	-0.016232524
215	0xbd9d3e09	-0.07677848
216	0xbd0babec	-0.034099504
217	0x3d9787a1	0.07398916
218	0xbc1badee	-0.009501917
219	0x3d6c4e5d	0.05769192
220	0x3c53d384	0.012928847
221	0x3d66d4bb	0.05635522
222	0xbbdeaae4	-0.006795274
223	0x3c0a61ef	0.008446201
224	0x3c6f04c8	0.014588542
225	0xbda67da3	-0.08129432
226	0xbd5c398f	-0.05376583
227	0x3d140a96	0.036142908
228	0x3d5ecdba	0.054395415
229	0xbd3f5d24	-0.046719685
230	0xbbeefb53	-0.007293144
231	0xbd5cf1ca	-0.053941526
232	0xbcf65561	-0.030070009
233	0xbcd539f3	-0.026028609
234	0x3d877635	0.06614343
235	0xbceaf1ea	-0.028679807
236	0x3d635154	0.055497482
237	0x3cfea003	0.031082159
238	0xbd86b07c	-0.065766305
239	0x3ddab0f4	0.106782824
240	0xbdeeabd0	-0.116538644
241	0x3caafcb5	0.020872453
242	0x3d70cb4b	0.058787625
243	0xb9f0c317	-0.0004592172
244	0xbd4e89e8	-0.050424486
245	0x3d565a05	0.052331943
246	0x3a94744b	0.0011326162
247	0x3b27630c	0.0025541214
248	0xbcc8d78b	-0.024516841
249	0x3ddb1495	0.10697285
250	0x3d4fb358	0.050708145
251	0x3c266d4e	0.010157896
252	0x3d0e47f9	0.034736607
253	0x3c9bade1	0.01900381
254	0xbcce12b9	-0.025155412
255	0xbd866512	-0.065622464

layer2.bias f4 [1344]
0	0x00000000	0.0
1	0x00000000	0.0
2	0x00000000	0.0
3	0x00000000	0.0
4	0x00000000	0.0
5	0x00000000	0.0
6	0x00000000	0.0
7	0x00000000	0.0
8	0x00000000	0.0
9	0x00000000	0.0
10	0x00000000	0.0
11	0x00000000	0.0
12	0x00000000	0.0
13	0x00000000	0.0
14	0x00000000	0.0
15	0x00000000	0.0
16	0x00000000	0.0
17	0x00000000	0.0
18	0x00000000	0.0
19	0x00000000	0.0
20	0x00000000	0.0
21	0x00000000	0.0
22	0x00000000	0.0
23	0x00000000	0.0
24	0x00000000	0.0
25	0x00000000	0.0
26	0x00000000	0.0
27	0x00000000	0.0
28	0x00000000	0.0
29	0x00000000	0.0
30	0x00000000	0.0
31	0x00000000	0.0
32	0x00000000	0.0
33	0x00000000	0.0
34	0x00000000	0.0
35	0x00000000	0.0
36	0x00000000	0.0
37	0x00000000	0.0
38	0x00000000	0.0
39	0x00000000	0.0
40	0x00000000	0.0
41	0x00000000	0.0
42	0x00000000	0.0
43	0x00000000	0.0
44	0x00000000	0.0
45	0x00000000	0.0
46	0x00000000	0.0
47	0x00000000	0.0
48	0x00000000	0.0
49	0x00000000	0.0
50	0x00000000	0.0
51	0x00000000	0.0
52	0x00000000	0.0
53	0x00000000	0.0
54	0x00000000	0.0
55	0x00000000	0.0
56	0x00000000	0.0
57	0x00000000	0.0
58	0x00000000	0.0
59	0x00000000	0.0
60	0x00000000	0.0
61	0x00000000	0.0
62	0x00000000	0.0
63	0x00000000	0.0
64	0x00000000	0.0
65	0x00000000	0.0
66	0x00000000	0.0
67	0x00000000	0.0
68	0x00000000	0.0
69	0x00000000	0.0
70	0x00000000	0.0
71	0x00000000	0.0
72	0x00000000	0.0
73	0x00000000	0.0
74	0x00000000	0.0
75	0x00000000	0.0
76	0x00000000	0.0
77	0x00000000	0.0
78	0x00000000	0.0
79	0x00000000	0.0
80	0x00000000	0.0
81	0x00000000	0.0
82	0x00000000	0.0
83	0x00000000	0.0
84	0x00000000	0.0
85	0x00000000	0.0
86	0x00000000	0.0
87	0x00000000	0.0
88	0x00000000	0.0
89	0x00000000	0.0
90	0x00000000	0.0
91	0x00000000	0.0
92	0x00000000	0.0
93	0x00000000	0.0
94	0x00000000	0.0
95	0x00000000	0.0
96	0x00000000	0.0
97	0x00000000	0.0
98	0x00000000	0.0
99	0x00000000	0.0
100	0x00000000	0.0
101	0x00000000	0.0
102	0x00000000	0.0
103	0x00000000	0.0
104	0x00000000	0.0
105	0x00000000	0.0
106	0x00000000	0.0
107	0x00000000	0.0
108	0x00000000	0.0
109	0x00000000	0.0
110	0x00000000	0.0
111	0x00000000	0.0
112	0x00000000	0.0
113	0x00000000	0.0
114	0x00000000	0.0
115	0x00000000	0.0
116	0x00000000	0.0
117	0x00000000	0.0
118	0x00000000	0.0
119	0x00000000	0.0
120	0x00000000	0.0
121	0x00000000	0.0
122	0x00000000	0.0
123	0x00000000	0.0
124	0x00000000	0.0
125	0x00000000	0.0
126	0x00000000	0.0
127	0x00000000	0.0
128	0x00000000	0.0
129	0x00000000	0.0
130	0x00000000	0.0
131	0x00000000	0.0
132	0x00000000	0.0
133	0x00000000	0.0
134	0x00000000	0.0
135	0x00000000	0.0
136	0x00000000	0.0
137	0x00000000	0.0
138	0x00000000	0.0
139	0x00000000	0.0
140	0x00000000	0.0
141	0x00000000	0.0
142	0x00000000	0.0
143	0x00000000	0.0
144	0x00000000	0.0
145	0x00000000	0.0
146	0x00000000	0.0
147	0x00000000	0.0
148	0x00000000	0.0
149	0x00000000	0.0
150	0x00000000	0.0
151	0x00000000	0.0
152	0x00000000	0.0
153	0x00000000	0.0
154	0x00000000	0.0
155	0x00000000	0.0
156	0x00000000	0.0
157	0x00000000	0.0
158	0x00000000	0.0
159	0x00000000	0.0
160	0x00000000	0.0
161	0x00000000	0.0
162	0x00000000	0.0
163	0x00000000	0.0
164	0x00000000	0.0
165	0x00000000	0.0
166	0x00000000	0.0
167	0x00000000	0.0
168	0x00000000	0.0
169	0x00000000	0.0
170	0x00000000	0.0
171	0x00000000	0.0
172	0x00000000	0.0
173	0x00000000	0.0
174	0x00000000	0.0
175	0x00000000	0.0
176	0x00000000	0.0
177	0x00000000	0.0
178	0x00000000	0.0
179	0x00000000	0.0
180	0x00000000	0.0
181	0x00000000	0.0
182	0x00000000	0.0
183	0x00000000	0.0
184	0x00000000	0.0
185	0x00000000	0.0
186	0x00000000	0.0
187	0x00000000	0.0
188	0x00000000	0.0
189	0x00000000	0.0
190	0x00000000	0.0
191	0x00000000	0.0
192	0x00000000	0.0
193	0x00000000	0.0
194	0x00000000	0.0
195	0x00000000	0.0
196	0x00000000	0.0
197	0x00000000	0.0
198	0x00000000	0.0
199	0x00000000	0.0
200	0x00000000	0.0
201	0x00000000	0.0
202	0x00000000	0.0
203	0x00000000	0.0
204	0x00000000	0.0
205	0x00000000	0.0
206	0x00000000	0.0
207	0x00000000	0.0
208	0x00000000	0.0
209	0x00000000	0.0
210	0x00000000	0.0
211	0x00000000	0.0
212	0x00000000	0.0
213	0x00000000	0.0
214	0x00000000	0.0
215	0x00000000	0.0
216	0x00000000	0.0
217	0x00000000	0.0
218	0x00000000	0.0
219	0x00000000	0.0
220	0x00000000	0.0
221	0x00000000	0.0
222	0x00000000	0.0
223	0x00000000	0.0
224	0x00000000	0.0
225	0x00000000	0.0
226	0x00000000	0.0
227	0x00000000	0.0
228	0x00000000	0.0
229	0x00000000	0.0
230	0x00000000	0.0
231	0x00000000	0.0
232	0x00000000	0.0
233	0x00000000	0.0
234	0x00000000	0.0
235	0x00000000	0.0
236	0x00000000	0.0
237	0x00000000	0.0
238	0x00000000	0.0
239	0x00000000	0.0
240	0x00000000	0.0
241	0x00000000	0.0
242	0x00000000	0.0
243	0x00000000	0.0
244	0x00000000	0.0
245	0x00000000	0.0
246	0x00000000	0.0
247	0x00000000	0.0
248	0x00000000	0.0
249	0x00000000	0.0
250	0x00000000	0.0
251	0x00000000	0.0
252	0x00000000	0.0
253	0x00000000	0.0
254	0x00000000	0.0
255	0x00000000	0.0

layer2.fc.weight f4 [1344, 128]
0	0x3d76311a	0.06010542
1	0x3b19d60f	0.0023473536
2	0x3d9690e3	0.07351854
3	0x3d3bfb72	0.045894094
4	0xbd178144	-0.03698851
5	0x3ace3328	0.0015731798
6	0x3c7a8050	0.015289381
7	0x3c279798	0.010229014
8	0x3ca19419	0.019723939
9	0x3ce2cf2f	0.027686683
10	0x3cab3a85	0.020901928
11	0x3cdbfaf9	0.026853072
12	0x3d6910b9	0.056900714
13	0xbc2c3343	-0.010510269
14	0xbc346f42	-0.011012854
15	0x3c60bedc	0.013717379
16	0xbd1ff77d	-0.039054383
17	0x3d862a18	0.065509975
18	0xbba8d822	-0.005152718
19	0x3bf9931c	0.0076164138
20	0xbd264356	-0.04059156
21	0xbc9e5448	-0.019327298
22	0x3cc70a82	0.024297003
23	0x3d8efc68	0.069817364
24	0x3d149e87	0.036283996
25	0xbd0eb57b	-0.034841042
26	0x3b5baf5f	0.0033521277
27	0x3d79c13b	0.060975295
28	0x3c80c251	0.015717657
29	0xbddf1c70	-0.10894096
30	0x3cc3d2d6	0.023904245
31	0x3d1a9f4c	0.037749574
32	0xbd61aa49	-0.055094037
33	0xbd1ac1ab	-0.037782352
34	0xbd96b475	-0.07358638
35	0x3d7d3c8b	0.061825316
36	0xbc786c7a	-0.015162582
37	0xbdace3ad	-0.08441863
38	0xbda09a4b	-0.07841929
39	0x3d6b5457	0.05745348
40	0xbca39412	-0.019968066
41	0x3d4169db	0.047220092
42	0xbd88c77c	-0.066786736
43	0x3b44343a	0.0029938356
44	0xbd5ae338	-0.05343935
45	0xbbd7f7d6	-0.0065908236
46	0xbd0b8ba6	-0.034068726
47	0xbdc3915c	-0.095492095
48	0xbd1ba8d8	-0.03800282
49	0x3ccb73a1	0.02483541
50	0xbd35ba8c	-0.044367358
51	0x3db87182	0.09006025
52	0xbbbf3be9	-0.0058359993
53	0xbda12793	-0.07868876
54	0x3d98fbc9	0.07469899
55	0xbb2266dd	-0.002478055
56	0xbd533fbc	-0.051574454
57	0xbcb88267	-0.022523118
58	0xbc6c23e9	-0.0144128585
59	0x3de954d4	0.11393133
60	0xbdbb1b82	-0.09136106
61	0xbba6b952	-0.00508801
62	0xbc28a29c	-0.010292675
63	0xbd597ddd	-0.05309855
64	0x3c22c7d5	0.009935339
65	0xbda08dee	-0.07839571
66	0xbcd7837b	-0.026307812
67	0x3d50d687	0.05098584
68	0x3ced1692	0.028941426
69	0x3d2d6f28	0.042342335
70	0x3c91b9df	0.017788826
71	0xbc8011b3	-0.01563344
72	0xbdae473c	-0.08509681
73	0xbd5efbbd	-0.054439295
74	0x3d53b2ca	0.05168418
75	0xbcc20ebe	-0.02368867
76	0xbd4d8616	-0.050176702
77	0xbd9539f3	-0.072864436
78	0xbd88cc52	-0.06679596
79	0xbd6174a0	-0.055042863
80	0x3d0c874d	0.03430872
81	0xbd3906f0	-0.04517263
82	0x3b9cef79	0.0047892896
83	0xbd5e786a	-0.054314055
84	0xbc69eece	-0.014278127
85	0x3d187bd3	0.037227463
86	0x3b824ef5	0.0039766976
87	0x3d579cba	0.0526397
88	0xbd14b4fa	-0.036305405
89	0x3d2c691e	0.042092435
90	0xbd359baf	-0.044337925
91	0xbd39c7cb	-0.045356553
92	0x3c2cb8b4	0.0105420835
93	0x3da60d55	0.08108012
94	0xbc928aa3	-0.017888373
95	0xbc596c11	-0.013270394
96	0xbda267c0	-0.07929945
97	0xbcc1fa6a	-0.023678977
98	0x3d249f24	0.04019083
99	0x3c1ffded	0.0097651305
100	0x3c148b2d	0.009066385
101	0xbc842d25	-0.016134808
102	0x3d53ee39	0.05174086
103	0xbb0fbd53	-0.0021932914
104	0xbce00f4e	-0.027351048
105	0xbd3839c9	-0.044976983
106	0x3b3ed2d5	0.0029117365
107	0xb8e55c10	-0.00010936719
108	0x3daf0b81	0.08547116
109	0xbc68b7c7	-0.014203972
110	0xbd792d3b	-0.06083415
111	0xbd63981b	-0.05556498
112	0x3c76f108	0.015072115
113	0x3ddeb3d4	0.10874143
114	0xbd31f621	-0.043447617
115	0xbcff7e31	-0.031188102
116	0xbd909c74	-0.07061091
117	0xbd28ba54	-0.04119332
118	0xbcfaa131	-0.03059444
119	0x3d7404d8	0.05957493
120	0xbdb172e3	-0.08664491
121	0xbcdce81b	-0.026966145
122	0x3dc26f51	0.09493888
123	0xbd585eae	-0.05282467
124	0xbd315947	-0.043298032
125	0x3db02e2e	0.08602558
126	0x3b80f185	0.0039350414
127	0xbd3e5550	-0.04646808
128	0x3dfbaac1	0.12288428
129	0x3de59078	0.11209196
130	0x3d8a3088	0.06747538
131	0xbb97f155	-0.0046369233
132	0x3bb36789	0.005474989
133	0xba919842	-0.0011107998
134	0x3ab888a0	0.0014078803
135	0x3d62edbb	0.0554025
136	0x3c89a66a	0.016802985
137	0xbd135a2b	-0.035974663
138	0x3c04c3c6	0.008103317
139	0x3daca5d6	0.08430068
140	0xbd22936c	-0.039691374
141	0xbbe42aef	-0.006963126
142	0xbb99d3d3	-0.004694441
143	0x3ce5660b	0.02800276
144	0x3bf3f08e	0.007444448
145	0x3d712527	0.05887332
146	0x3da5276b	0.08064159
147	0xbddfb81d	-0.10923789
148	0x3d29a88a	0.041420497
149	0x3d84cece	0.06484757
150	0x3cd86630	0.026415914
151	0x3d948b33	0.07253113
152	0x3d793f2d	0.060851265
153	0xbd4db59b	-0.05022202
154	0xbd24a156	-0.040192924
155	0xbd93f911	-0.0722524
156	0x3c7926b8	0.015206985
157	0xbd7886dc	-0.060675487
158	0x3cdf8638	0.02728568
159	0xbd02e910	-0.031960547
160	0x3c96562a	0.018351633
161	0x3ced448e	0.028963353
162	0xbd11dfe3	-0.035613906
163	0xbc731838	-0.014837317
164	0xbd7578fe	-0.05992984
165	0x3d3cb8a2	0.046074517
166	0xbdb94352	-0.090460435
167	0xbe06036b	-0.13087241
168	0xbd159b17	-0.03652486
169	0x3cf78339	0.030213939
170	0xbd9725de	-0.073802695
171	0x3d5c9794	0.053855494
172	0xbc244fed	-0.010028821
173	0x3c3dcbaf	0.0115842065
174	0xbd270d72	-0.040784307
175	0xbcde1991	-0.0271118
176	0xbcc57d27	-0.024107529
177	0x3bd5f54a	0.006529485
178	0x3bb28bc6	0.005448791
179	0x3d064cac	0.032787964
180	0x3c367e1f	0.011138468
181	0x3afef7d3	0.001945252
182	0x3d2046c9	0.039130006
183	0xbd9d7f15	-0.076902546
184	0x3da4210e	0.08014117
185	0x3d7977df	0.060905334
186	0xbd906538	-0.07050556
187	0x3c16ffb8	0.009216242
188	0x3d5d8c1c	0.054088697
189	0xbdb86651	-0.0900389
190	0x3c541cfc	0.012946364
191	0xbd0b2bd6	-0.033977352
192	0x3c40bbac	0.011763494
193	0xbdbed2cd	-0.09317551
194	0xbd7b3ff7	-0.0613403
195	0xbdaf1401	-0.08548737
196	0xbcb54012	-0.022125278
197	0xbc589487	-0.013219005
198	0xbc1ba500	-0.009499788
199	0xbd26cf8e	-0.040725283
200	0x3c1e28a8	0.009653248
201	0xbc5545eb	-0.013017158
202	0x3a982432	0.0011607467
203	0xbd0ac4fd	-0.03387927
204	0xbd032489	-0.032017265
205	0x3bf71432	0.0075402493
206	0xbd1bccce	-0.038037114
207	0xbd5ebf45	-0.054381628
208	0xbcb7b4ab	-0.022425016
209	0xbd80f2b4	-0.06296292
210	0xbd24bd12	-0.040219374
211	0x3d228226	0.0396749
212	0x3d388ab1	0.04505414
213	0x3bb4e43f	0.005520373
214	0xbc79d3a0	-0.015248209
215	0x3dace3e3	0.084419034
216	0x3dace79d	0.08442614
217	0x3d3b836b	0.045779627
218	0xbcc37d17	-0.023863358
219	0x3d9e65ef	0.07734286
220	0x3ce5fef8	0.02807568
221	0x3d8eb678	0.06968397
222	0x3cecd0a0	0.028908074
223	0xbd7f2154	-0.062287644
224	0xbd8888e6	-0.06666736
225	0x3d860090	0.06543076
226	0x3c995384	0.018716581
227	0x3d1279d8	0.03576073
228	0xbd69b833	-0.05706043
229	0x3b959f49	0.0045661074
230	0x3dda2f1d	0.106535174
231	0xbd34f390	-0.04417759
232	0xbd57b8fa	-0.05266664
233	0xbd88670a	-0.06660278
234	0xbe0a0284	-0.13477522
235	0xbe0f8603	-0.14015965
236	0xbdc14e05	-0.09438709
237	0x3d8f58ee	0.06999384
238	0x3db42e03	0.087978385
239	0x3d2ade82	0.041716106
240	0x3ba61abf	0.0050691064
241	0xbcdd2991	-0.02699736
242	0xbcad8930	-0.02118358
243	0xbc2f3f51	-0.010696248
244	0xba4189eb	-0.0007382917
245	0x3cf4cd32	0.029883001
246	0xbc6b1955	-0.014349301
247	0xbd9e9ec9	-0.077451296
248	0xbd127b4a	-0.03576211
249	0x3d56d0b7	0.05244514
250	0xbc362fca	-0.011119792
251	0x3bfcb34a	0.0077118026
252	0xbd991d34	-0.07476273
253	0x3d03e902	0.032204635
254	0x3dccf3c8	0.10007435
255	0x3cec4c99	0.028845118

batchnorm1.weight f4 [128]
0	0x3f800000	1.0
1	0x3f800000	1.0
2	0x3f800000	1.0
3	0x3f800000	1.0
4	0x3f800000	1.0
5	0x3f800000	1.0
6	0x3f800000	1.0
7	0x3f800000	1.0
8	0x3f800000	1.0
9	0x3f800000	1.0
10	0x3f800000	1.0
11	0x3f800000	1.0
12	0x3f800000	1.0
13	0x3f800000	1.0
14	0x3f800000	1.0
15	0x3f800000	1.0
16	0x3f800000	1.0
17	0x3f800000	1.0
18	0x3f800000	1.0
19	0x3f800000	1.0
20	0x3f800000	1.0
21	0x3f800000	1.0
22	0x3f800000	1.0
23	0x3f800000	1.0
24	0x3f800000	1.0
25	0x3f800000	1.0
26	0x3f800000	1.0
27	0x3f800000	1.0
28	0x3f800000	1.0
29	0x3f800000	1.0
30	0x3f800000	1.0
31	0x3f800000	1.0
32	0x3f800000	1.0
33	0x3f800000	1.0
34	0x3f800000	1.0
35	0x3f800000	1.0
36	0x3f800000	1.0
37	0x3f800000	1.0
38	0x3f800000	1.0
39	0x3f800000	1.0
40	0x3f800000	1.0
41	0x3f800000	1.0
42	0x3f800000	1.0
43	0x3f800000	1.0
44	0x3f800000	1.0
45	0x3f800000	1.0
46	0x3f800000	1.0
47	0x3f800000	1.0
48	0x3f800000	1.0
49	0x3f800000	1.0
50	0x3f800000	1.0
51	0x3f800000	1.0
52	0x3f800000	1.0
53	0x3f800000	1.0
54	0x3f800000	1.0
55	0x3f800000	1.0
56	0x3f800000	1.0
57	0x3f800000	1.0
58	0x3f800000	1.0
59	0x3f800000	1.0
60	0x3f800000	1.0
61	0x3f800000	1.0
62	0x3f800000	1.0
63	0x3f800000	1.0
64	0x3f800000	1.0
65	0x3f800000	1.0
66	0x3f800000	1.0
67	0x3f800000	1.0
68	0x3f800000	1.0
69	0x3f800000	1.0
70	0x3f800000	1.0
71	0x3f800000	1.0
72	0x3f800000	1.0
73	0x3f800000	1.0
74	0x3f800000	1.0
75	0x3f800000	1.0
76	0x3f800000	1.0
77	0x3f800000	1.0
78	0x3f800000	1.0
79	0x3f800000	1.0
80	0x3f800000	1.0
81	0x3f800000	1.0
82	0x3f800000	1.0
83	0x3f800000	1.0
84	0x3f800000	1.0
85	0x3f800000	1.0
86	0x3f800000	1.0
87	0x3f800000	1.0
88	0x3f800000	1.0
89	0x3f800000	1.0
90	0x3f800000	1.0
91	0x3f800000	1.0
92	0x3f800000	1.0
93	0x3f800000	1.0
94	0x3f800000	1.0
95	0x3f800000	1.0
96	0x3f800000	1.0
97	0x3f800000	1.0
98	0x3f800000	1.0
99	0x3f800000	1.0
100	0x3f800000	1.0
101	0x3f800000	1.0
102	0x3f800000	1.0
103	0x3f800000	1.0
104	0x3f800000	1.0
105	0x3f800000	1.0
106	0x3f800000	1.0
107	0x3f800000	1.0
108	0x3f800000	1.0
109	0x3f800000	1.0
110	0x3f800000	1.0
111	0x3f800000	1.0
112	0x3f800000	1.0
113	0x3f800000	1.0
114	0x3f800000	1.0
115	0x3f800000	1.0
116	0x3f800000	1.0
117	0x3f800000	1.0
118	0x3f800000	1.0
119	0x3f800000	1.0
120	0x3f800000	1.0
121	0x3f800000	1.0
122	0x3f800000	1.0
123	0x3f800000	1.0
124	0x3f800000	1.0
125	0x3f800000	1.0
126	0x3f800000	1.0
127	0x3f800000	1.0

batchnorm1.bias f4 [128]
0	0x00000000	0.0
1	0x00000000	0.0
2	0x00000000	0.0
3	0x00000000	0.0
4	0x00000000	0.0
5	0x00000000	0.0
6	0x00000000	0.0
7	0x00000000	0.0
8	0x00000000	0.0
9	0x00000000	0.0
10	0x00000000	0.0
11	0x00000000	0.0
12	0x00000000	0.0
13	0x00000000	0.0
14	0x00000000	0.0
15	0x00000000	0.0
16	0x00000000	0.0
17	0x00000000	0.0
18	0x00000000	0.0
19	0x00000000	0.0
20	0x00000000	0.0
21	0x00000000	0.0
22	0x00000000	0.0
23	0x00000000	0.0
24	0x00000000	0.0
25	0x00000000	0.0
26	0x00000000	0.0
27	0x00000000	0.0
28	0x00000000	0.0
29	0x00000000	0.0
30	0x00000000	0.0
31	0x00000000	0.0
32	0x00000000	0.0
33	0x00000000	0.0
34	0x00000000	0.0
35	0x00000000	0.0
36	0x00000000	0.0
37	0x00000000	0.0
38	0x00000000	0.0
39	0x00000000	0.0
40	0x00000000	0.0
41	0x00000000	0.0
42	0x00000000	0.0
43	0x00000000	0.0
44	0x00000000	0.0
45	0x00000000	0.0
46	0x00000000	0.0
47	0x00000000	0.0
48	0x00000000	0.0
49	0x00000000	0.0
50	0x00000000	0.0
51	0x00000000	0.0
52	0x00000000	0.0
53	0x00000000	0.0
54	0x00000000	0.0
55	0x00000000	0.0
56	0x00000000	0.0
57	0x00000000	0.0
58	0x00000000	0.0
59	0x00000000	0.0
60	0x00000000	0.0
61	0x00000000	0.0
62	0x00000000	0.0
63	0x00000000	0.0
64	0x00000000	0.0
65	0x00000000	0.0
66	0x00000000	0.0
67	0x00000000	0.0
68	0x00000000	0.0
69	0x00000000	0.0
70	0x00000000	0.0
71	0x00000000	0.0
72	0x00000000	0.0
73	0x00000000	0.0
74	0x00000000	0.0
75	0x00000000	0.0
76	0x00000000	0.0
77	0x00000000	0.0
78	0x00000000	0.0
79	0x00000000	0.0
80	0x00000000	0.0
81	0x00000000	0.0
82	0x00000000	0.0
83	0x00000000	0.0
84	0x00000000	0.0
85	0x00000000	0.0
86	0x00000000	0.0
87	0x00000000	0.0
88	0x00000000	0.0
89	0x00000000	0.0
90	0x00000000	0.0
91	0x00000000	0.0
92	0x00000000	0.0
93	0x00000000	0.0
94	0x00000000	0.0
95	0x00000000	0.0
96	0x00000000	0.0
97	0x00000000	0.0
98	0x00000000	0.0
99	0x00000000	0.0
100	0x00000000	0.0
101	0x00000000	0.0
102	0x00000000	0.0
103	0x00000000	0.0
104	0x00000000	0.0
105	0x00000000	0.0
106	0x00000000	0.0
107	0x00000000	0.0
108	0x00000000	0.0
109	0x00000000	0.0
110	0x00000000	0.0
111	0x00000000	0.0
112	0x00000000	0.0
113	0x00000000	0.0
114	0x00000000	0.0
115	0x00000000	0.0
116	0x00000000	0.0
117	0x00000000	0.0
118	0x00000000	0.0
119	0x00000000	0.0
120	0x00000000	0.0
121	0x00000000	0.0
122	0x00000000	0.0
123	0x00000000	0.0
124	0x00000000	0.0
125	0x00000000	0.0
126	0x00000000	0.0
127	0x00000000	0.0

batchnorm1.running_mean f4 [128]
0	0x00000000	0.0
1	0x00000000	0.0
2	0x00000000	0.0
3	0x00000000	0.0
4	0x00000000	0.0
5	0x00000000	0.0
6	0x00000000	0.0
7	0x00000000	0.0
8	0x00000000	0.0
9	0x00000000	0.0
10	0x00000000	0.0
11	0x00000000	0.0
12	0x00000000	0.0
13	0x00000000	0.0
14	0x00000000	0.0
15	0x00000000	0.0
16	0x00000000	0.0
17	0x00000000	0.0
18	0x00000000	0.0
19	0x00000000	0.0
20	0x00000000	0.0
21	0x00000000	0.0
22	0x00000000	0.0
23	0x00000000	0.0
24	0x00000000	0.0
25	0x00000000	0.0
26	0x00000000	0.0
27	0x00000000	0.0
28	0x00000000	0.0
29	0x00000000	0.0
30	0x00000000	0.0
31	0x00000000	0.0
32	0x00000000	0.0
33	0x00000000	0.0
34	0x00000000	0.0
35	0x00000000	0.0
36	0x00000000	0.0
37	0x00000000	0.0
38	0x00000000	0.0
39	0x00000000	0.0
40	0x00000000	0.0
41	0x00000000	0.0
42	0x00000000	0.0
43	0x00000000	0.0
44	0x00000000	0.0
45	0x00000000	0.0
46	0x00000000	0.0
47	0x00000000	0.0
48	0x00000000	0.0
49	0x00000000	0.0
50	0x00000000	0.0
51	0x00000000	0.0
52	0x00000000	0.0
53	0x00000000	0.0
54	0x00000000	0.0
55	0x00000000	0.0
56	0x00000000	0.0
57	0x00000000	0.0
58	0x00000000	0.0
59	0x00000000	0.0
60	0x00000000	0.0
61	0x00000000	0.0
62	0x00000000	0.0
63	0x00000000	0.0
64	0x00000000	0.0
65	0x00000000	0.0
66	0x00000000	0.0
67	0x00000000	0.0
68	0x00000000	0.0
69	0x00000000	0.0
70	0x00000000	0.0
71	0x00000000	0.0
72	0x00000000	0.0
73	0x00000000	0.0
74	0x00000000	0.0
75	0x00000000	0.0
76	0x00000000	0.0
77	0x00000000	0.0
78	0x00000000	0.0
79	0x00000000	0.0
80	0x00000000	0.0
81	0x00000000	0.0
82	0x00000000	0.0
83	0x00000000	0.0
84	0x00000000	0.0
85	0x00000000	0.0
86	0x00000000	0.0
87	0x00000000	0.0
88	0x00000000	0.0
89	0x00000000	0.0
90	0x00000000	0.0
91	0x00000000	0.0
92	0x00000000	0.0
93	0x00000000	0.0
94	0x00000000	0.0
95	0x00000000	0.0
96	0x00000000	0.0
97	0x00000000	0.0
98	0x00000000	0.0
99	0x00000000	0.0
100	0x00000000	0.0
101	0x00000000	0.0
102	0x00000000	0.0
103	0x00000000	0.0
104	0x00000000	0.0
105	0x00000000	0.0
106	0x00000000	0.0
107	0x00000000	0.0
108	0x00000000	0.0
109	0x00000000	0.0
110	0x00000000	0.0
111	0x00000000	0.0
112	0x00000000	0.0
113	0x00000000	0.0
114	0x00000000	0.0
115	0x00000000	0.0
116	0x00000000	0.0
117	0x00000000	0.0
118	0x00000000	0.0
119	0x00000000	0.0
120	0x00000000	0.0
121	0x00000000	0.0
122	0x00000000	0.0
123	0x00000000	0.0
124	0x00000000	0.0
125	0x00000000	0.0
126	0x00000000	0.0
127	0x00000000	0.0
