Audit-log_Analysis/code/GNN/training/checkpoint_GCN/best_model_GCN_transH_50.pt (torch, 52887 bytes, 6 tensors)

conv1.weight f4 [50, 16]
000000 8f 43 8a 3f 12 4d f9 c0 d7 a1 e9 3f 80 cb 63 3d
       1.0801867 -7.790658 1.8252515 0.055613995
000010 77 b0 ac bf f8 32 31 c1 51 a8 03 be 6e 48 f8 3d
       -1.3491353 -11.074944 -0.12857176 0.1212319
000020 7e ef b7 bd d4 4d 45 40 42 15 d1 40 76 35 01 41
       -0.089812264 3.0828753 6.533845 8.075552
000030 59 e8 59 c1 27 7e 21 40 f4 d8 36 c1 b3 79 d5 bc
       -13.6192255 2.5233247 -11.427967 -0.026059007
000040 eb 63 36 c1 db 72 52 41 45 97 60 c0 b0 5c 89 3d
       -11.399394 13.153041 -3.5092328 0.06707132
000050 64 87 ea c0 a7 4e 18 40 23 65 ae 3d 3e 68 90 bd
       -7.329027 2.3798006 0.08515384 -0.070511326
000060 fe 60 9b 3c f9 12 05 c1 76 99 23 c1 a8 fc 4e c1
       0.018967148 -8.317132 -10.224966 -12.936684
000070 e7 32 d1 40 10 a3 36 c1 07 55 2a 41 da 2d b3 bc
       6.5374637 -11.41481 10.645759 -0.02187245
000080 08 62 ff bf ee 5f 80 40 25 3e 98 c0 00 72 c2 3d
       -1.9951792 4.01171 -4.757586 0.094944
000090 42 81 4b c0 b0 ec 87 be 2d 4a 03 3c 3f 6a 93 3b
       -3.1797643 -0.26547766 0.00801329 0.0044987495
0000a0 8d fe 0a be 49 31 79 c0 bf 25 8b c0 5b 02 6a 3e
       -0.13573666 -3.8936331 -4.3483577 0.22852461
0000b0 12 52 7c bf a0 c0 07 c0 15 d7 53 40 86 f9 0c be
       -0.9856273 -2.121132 3.3100026 -0.1376706
0000c0 be 2e 00 40 eb 6d 7c bf d8 d6 9e 40 6a fd 56 3d
       2.002853 -0.9860522 4.963726 0.05248777
0000d0 00 4c e8 be 99 0b 73 3f 94 d4 ba 3d 06 e3 cd 3d
       -0.45370483 0.9493957 0.09122577 0.10053067
0000e0 ab 47 cc bd d0 53 6b 40 1f c6 9c 40 f8 e4 c3 40
       -0.09974607 3.6769905 4.8991847 6.1217003
0000f0 21 d9 51 bc e2 a2 4a 40 f3 33 89 40 0b ea 04 be
       -0.012808115 3.1661916 4.2875915 -0.12979905
000100 ef df 12 c1 65 b2 25 41 27 6f bf c0 69 c6 22 bc
       -9.179671 10.356053 -5.9823184 -0.009935
000110 39 b9 b1 c0 43 43 a8 bf c4 45 ea bb 98 47 c0 3d
       -5.55386 -1.3145527 -0.00714943 0.093886554
000120 ac 2a 6e 3c 81 60 0a c1 9b e5 22 c1 7a eb 3f c1
       0.014536541 -8.648561 -10.181056 -11.994989
000130 af 10 9e 40 4f 54 1e c1 64 d8 e0 40 85 77 ed bd
       4.9395366 -9.895583 7.026415 -0.11595062
000140 6f cd c7 bf 87 58 22 40 84 b7 13 40 0d ea 39 bd
       -1.5609568 2.5366533 2.308076 -0.045389224
000150 59 45 06 40 6b bd 33 40 cf 8e af bd 72 b2 e8 3d
       2.0979826 2.8084362 -0.085721605 0.11362161
000160 97 8c ff 3d e0 79 e4 3d ba 9c 0e c0 9b fd d9 c0
       0.12477987 0.11156058 -2.2283158 -6.8122077
000170 11 57 c2 40 6d 20 1b c0 b8 aa 0b 40 9f b2 cf bd
       6.073128 -2.423854 2.1822948 -0.10141491
000180 4c 8b 81 c0 4b 76 4b 41 4b 44 26 c0 79 3e 0e 3c
       -4.048254 12.71638 -2.5979183 0.008681887
000190 f9 b9 1e c0 98 c2 36 41 a1 d9 6f bd 30 31 38 bd
       -2.4801009 11.422508 -0.058557156 -0.044968784
0001a0 0c 63 38 3d ef 98 a6 c0 37 07 0e c1 5f 3a 0f c1
       0.045016333 -5.2061687 -8.876761 -8.951751
0001b0 ba 95 63 41 ef ea a3 c0 85 4f 8a 41 0a 92 05 bd
       14.224054 -5.1224284 17.288828 -0.032609977
0001c0 0a 26 96 3e 13 3e 30 40 69 19 3c c0 8b 1b ba 3d
       0.29325897 2.7537887 -2.939051 0.09087285
0001d0 fb 6e 75 40 d7 2d ac 40 24 b8 c5 3d 0f f2 d6 bd
       3.8348987 5.3805957 0.09654263 -0.10495388
0001e0 20 27 0c be 6b 94 14 c0 f4 74 a3 c0 40 44 d6 c0
       -0.136868 -2.3215587 -5.1080265 -6.6958313
0001f0 2b 3e cd 40 59 8d cd bf da 4c 7a 3f 02 64 c0 3d
       6.413839 -1.6058761 0.97773516 0.09394075
000200 cb 75 4c c1 7f 50 00 41 8f 85 c5 c0 d5 01 49 bd
       -12.778758 8.019652 -6.1725535 -0.049074013
000210 9d 9d 21 c1 c9 43 0e c1 ac 47 6c 3d b8 af 62 3d
       -10.10098 -8.891549 0.05768554 0.05534336
000220 4e f9 aa 3d 2a 69 17 c1 fe 43 fe c0 61 85 1a c1
       0.08348332 -9.463175 -7.9458 -9.657563
000230 fe 67 b8 c0 79 ab 40 c1 47 16 90 bf 4f e0 ba 3b
       -5.7626944 -12.041863 -1.1256799 0.005703009
000240 77 3c 19 3f 2a c3 59 c1 19 3f a0 c0 68 10 d5 3c
       0.5985789 -13.610147 -5.0077024 0.0260088
000250 b5 73 a9 c0 0b 47 81 c1 5c be 0d 3d d0 a9 ab 3d
       -5.2953744 -16.159689 0.03460537 0.083819985
000260 7b 05 10 3e 91 40 02 3f 0f 25 0c 41 bc d0 65 41
       0.1406459 0.5087977 8.7590475 14.363461
000270 c8 3a 8d c1 ee 8d 34 40 2e fc 80 c1 39 94 eb bd
       -17.653702 2.8211627 -16.123135 -0.115028806
000280 e8 39 1c c1 7e 7a 7e 41 11 09 f4 c0 59 e0 3b ba
       -9.764137 15.904905 -7.6261067 -0.00071669143
000290 8a ec e6 c0 7c 70 ec 40 fd 55 b4 3d b6 fa 1d bd
       -7.2163744 7.388731 0.088054635 -0.038569175
0002a0 c1 5b 85 3d 0b 3c 23 c1 2b d8 54 c1 a2 fc 5b c1
       0.06511641 -10.202159 -13.302775 -13.749178
0002b0 fd 25 4b 41 71 4d 27 c1 0a 75 91 41 76 47 9d bd
       12.6967745 -10.456407 18.182148 -0.07679646
0002c0 08 27 0c 40 84 5e 55 c0 92 d0 bb 40 e5 fa bc bd
       2.1898823 -3.3338938 5.8692102 -0.09227542
0002d0 a5 ab e3 3f a0 8f 9a be 9d ad 9b 39 2f a8 26 3d
       1.7786757 -0.30187702 0.00029693256 0.040687736
0002e0 00 cd 94 3d 2e dd a1 40 df 00 b5 40 97 85 85 40
       0.07265663 5.0582495 5.6563563 4.1725574
0002f0 cd a0 a5 be b9 a7 4f 40 c7 e9 03 bc c4 30 b3 b9
       -0.32349244 3.244612 -0.008051342 -0.00034177874
000300 8d 88 98 c0 b9 e1 50 41 e4 c1 61 c0 29 a6 0d be
       -4.766669 13.055108 -3.5274591 -0.13832916
000310 cf 33 90 c0 7a 32 1a 41 8c f8 0e bd c2 a6 0a be
       -4.5063243 9.637323 -0.034905 -0.13540176
000320 69 d0 20 3c d7 ab c1 c0 1e 42 11 c1 02 08 ec c0
       0.009815314 -6.0522265 -9.078642 -7.3759775
000330 12 81 3c 41 2c ff ac c0 77 4a 8c 41 29 15 d1 bd
       11.781511 -5.406149 17.53636 -0.10209114
000340 56 08 87 c0 4c 35 4b c1 15 10 91 c0 bf a5 08 3e
       -4.2197676 -12.700512 -4.533213 0.13344477
000350 12 bc bd c0 29 59 82 c1 85 d1 2e 3d f6 96 36 bd
       -5.929208 -16.293535 0.042680282 -0.04457756
000360 ba 01 8f bd e9 a5 7b bf 80 bf a2 40 00 ef b0 40
       -0.06982751 -0.98300034 5.0858765 5.529175
000370 47 29 82 c1 09 b0 0e c0 74 8c 86 c1 17 3e c4 3c
       -16.270155 -2.2294943 -16.81858 0.023955388
000380 5d e3 37 bf 4f 88 f5 c0 39 05 da 3e aa 82 7a 3b
       -0.71831304 -7.672889 0.4258211 0.0038224855
000390 84 71 9a 3f a5 34 1c c1 bc 39 8d bd 4c aa b6 bd
       1.2065892 -9.762853 -0.068957776 -0.089192
0003a0 c7 51 cf 3d 4e 38 c2 3f ea b0 28 40 40 1d 00 c0
       0.1012302 1.5173433 2.635798 -2.0017853
0003b0 a5 f1 1b c1 9e 4e f0 be 49 82 75 c1 83 f6 d5 3d
       -9.746495 -0.4693498 -15.344308 0.10447409
0003c0 47 76 8e c0 d0 86 23 3f ef e0 37 bf 96 b4 5d bd
       -4.451938 0.6387758 -0.71827596 -0.0541273
0003d0 95 61 63 be dc 45 ab c0 3c 38 83 3c b0 e5 c1 bd
       -0.22205193 -5.3522778 0.016018026 -0.094676375
0003e0 d4 be dc 3d 23 76 dd bf 4d 96 45 c0 58 4c 08 c1
       0.10778585 -1.7301677 -3.0872986 -8.518639
0003f0 2c 70 37 c0 5e da 95 c0 0a c1 e1 c0 56 e3 f2 3c
       -2.8662214 -4.682906 -7.0548143 0.029649418

conv1.bias f4 [16]
000000 b7 f6 93 40 69 2f 72 38 5f 39 b3 40 bf f1 a0 bb
       4.6238666 5.774145e-05 5.6007533 -0.004911631
000010 f8 cb 9a 40 31 19 b5 40 e6 4a d5 bb a5 4b 5d bc
       4.8373985 5.659325 -0.0065091727 -0.013506805
000020 3e 0d 52 bc fc 43 ac 40 45 96 83 40 82 ca ed 3f
       -0.01282054 5.383299 4.1120934 1.8577425
000030 9e 41 a4 40 75 7e 9c 40 b5 8e 9b 40 d4 a7 87 bb
       5.13301 4.8904366 4.8611703 -0.0041398797

conv2.weight f4 [16, 64]
000000 ec 38 23 3f 7a 44 a0 3d 24 a0 3d bd 27 0b d6 3d
       0.6375873 0.07825561 -0.0462953 0.10451346
000010 a8 b5 a3 3d 26 21 9c 3d 4d 33 67 3f 36 e0 aa 3c
       0.079936326 0.0762351 0.90312654 0.020858865
000020 b0 e4 d3 bd 28 89 77 bd d0 f1 57 3f cb 8a 43 3f
       -0.10346353 -0.060433537 0.8435335 0.76383656
000030 f1 28 70 bd f3 54 7a 3f c4 24 a6 bd 3c 47 ba bd
       -0.058632795 0.9778587 -0.08112481 -0.09095618
000040 92 0a d5 3d e8 b4 0d 3d ca ff 0d 3f a4 24 49 3f
       0.10402407 0.034596354 0.5546843 0.78571534
000050 4f 08 5f 3f 84 39 5a 3f eb cf 41 3f 04 bd 8e bd
       0.8712205 0.8524401 0.7570788 -0.069696456
000060 ae 56 74 3b 2e ae f7 3c 5f e9 25 3f c0 d8 d5 3d
       0.003728311 0.030234423 0.6480922 0.104417324
000070 b1 c9 35 3f b0 d9 38 bc 65 d5 c3 bd b1 72 ef bd
       0.7101088 -0.0112823695 -0.09562186 -0.116917975
000080 9c 1f b7 3f c5 bd 33 3d 18 6e 91 bd b1 14 de 3d
       1.4306521 0.04388215 -0.07101077 0.1084379
000090 a4 a5 a9 bd cd d8 30 3f 55 97 61 3f 63 d3 1f 3b
       -0.082835466 0.6908081 0.8812154 0.002438747
0000a0 e2 33 f6 3d a0 66 f3 3e 1d 41 06 3d ae 6b f7 bd
       0.120216146 0.47539234 0.03277694 -0.12081085
0000b0 85 b5 02 be c4 79 70 3f 72 1f f3 bd 17 5b c7 bd
       -0.12764557 0.939358 -0.11871232 -0.09734171
0000c0 c3 9a 38 3f 06 71 80 bd 11 92 b3 bd 80 91 a5 3d
       0.7211115 -0.062715575 -0.08768094 0.080843925
0000d0 e6 34 64 3f 5b 63 1b 3d df 0f 16 3f a0 9d 2d 3f
       0.89143217 0.03793655 0.5861797 0.6781864
0000e0 51 49 ff 3e 0d 88 9f 3d af 7a 9e bd cc cc b6 3e
       0.49860623 0.077896215 -0.07738244 0.35703123
0000f0 9f 75 07 3f 14 c3 a0 bd f4 58 10 3f 2a d3 3b 3f
       0.5291385 -0.07849708 0.5638573 0.73369086
000100 d3 1f 28 c1 bf a7 09 bd be 37 e0 bc eb b6 8a bd
       -10.50777 -0.03360724 -0.02737033 -0.0677317
000110 2f d4 04 ba ad 0e d6 bd 17 f9 ae c0 70 9f 0d 3d
       -0.0005067018 -0.10452018 -5.4679065 0.03457588
000120 8a 51 67 3d 88 ac 78 3d 92 a9 fc c0 d2 b3 35 41
       0.056474246 0.060711414 -7.8956995 11.356401
000130 76 39 f2 3d 55 b7 00 c1 52 57 eb bd 09 78 b4 3d
       0.11827366 -8.044759 -0.114912644 0.088119574
000140 e4 3c dd bd 4e 33 94 3d 20 fc 03 c1 7c f7 af bf
       -0.108026296 0.07236348 -8.249054 -1.3747401
000150 29 34 29 c1 a3 64 1e c1 63 ac f3 c0 70 a1 b3 3d
       -10.575234 -9.8995695 -7.6147933 0.08771026
000160 a2 63 d7 3d f6 8a 08 3d a9 c6 8d bf 63 ea dc bd
       0.1051705 0.03333565 -1.1076251 -0.10786893
000170 14 94 11 41 65 db a5 bd 3e 80 95 bd 32 d0 98 bd
       9.098652 -0.08098487 -0.07299851 -0.07461585
000180 1e 69 8f bf 89 43 27 bd 57 f7 d5 3c 8c 6c 65 3d
       -1.1203954 -0.04083589 0.026118917 0.05601172
000190 c1 26 10 bd c4 c6 94 c0 1c 82 24 c1 00 9e 9d bd
       -0.03519321 -4.6492634 -10.281765 -0.07696152
0001a0 57 d5 5a bd e9 e4 50 41 27 c1 17 3d 49 7a e5 bb
       -0.053426113 13.055886 0.03704944 -0.007003103
0001b0 d8 19 f2 bc 59 b8 ee c0 39 54 ea 3d 48 93 f2 3d
       -0.029553339 -7.4600034 0.114418454 0.11844498
0001c0 5a 81 3b c1 30 47 de bd ec 54 d6 bd a6 b2 fa 3c
       -11.71908 -0.10853422 -0.10465416 0.030602764
0001d0 5d 28 8d c0 05 5e 4c bd 3d ee 6e 41 1d 9b 79 40
       -4.411177 -0.04989435 14.933164 3.9000924
0001e0 ee ee 16 41 3b 65 a2 bc 04 2d f0 bd ec 7c 8e 41
       9.433332 -0.019823661 -0.11727336 17.810997
0001f0 b7 b4 3b 41 33 3f 95 bd 25 39 6b 41 0a 7d 28 41
       11.73162 -0.07287445 14.701451 10.530527
000200 85 ef 13 3f c5 d4 01 be 81 f6 e6 bd 44 4c 95 3d
       0.5778735 -0.12678821 -0.11277486 0.07289937
000210 ab 64 c1 39 02 fb a2 bd 94 34 3d 3f a2 c1 fb 3d
       0.00036886832 -0.07958032 0.7390835 0.12292792
000220 4e 31 dd bc fa 2b 80 3c f5 85 42 3f 36 4b 5f 3f
       -0.02700105 0.01564597 0.7598565 0.8722414
000230 98 f3 9b 3d 65 75 5b 3f ea 6c 05 bd 2a 22 01 be
       0.07614821 0.85726005 -0.03257457 -0.12610689
000240 79 dc d9 bd d9 70 dd bd de 41 fe 3e f4 25 6a 3f
       -0.10637755 -0.108125396 0.49659628 0.9146416
000250 10 fa 87 3f 68 e4 23 3f 25 ab 1e 3f 1d 84 b6 3d
       1.0623188 0.64020395 0.61979896 0.08911917
000260 48 68 a0 3d 3c ff 7d 3d 83 00 fb 3e 34 f8 79 bd
       0.0783239 0.06201099 0.49023828 -0.06102772
000270 de a6 2b 3f d4 de 86 3d 9e 83 6f 3c 75 a5 85 bc
       0.67051494 0.0658547 0.014618782 -0.016314248
000280 ab ad b2 3f 25 a1 cc bc 77 2c 37 3d 46 4a 94 3d
       1.3959249 -0.024979183 0.04472014 0.07240729
000290 a2 01 ec bd 03 6f 22 3f 6c 92 73 3f 4d 63 04 3d
       -0.11523749 0.6345064 0.951453 0.032321263
0002a0 38 fe 82 3d ab 27 3c 3f 3b f8 e6 3d 55 6d 92 3d
       0.06396145 0.7349803 0.11277815 0.0714976
0002b0 ca 98 2f bd eb f5 7d 3f ca 26 a4 bd e5 7e 68 3c
       -0.04287032 0.99203366 -0.08015211 0.01419041
0002c0 02 3c 68 3f 41 89 63 bd b1 ac 87 3d df 93 64 3c
       0.90716565 -0.055550817 0.06624735 0.013951271
0002d0 70 a0 23 3f b9 4b 6e bd 89 5c 0a 3f 73 ab 19 3f
       0.63916683 -0.058177684 0.5404745 0.60027236
0002e0 51 bd 3e 3f fe b0 fe bd be 9c 00 be 2f c1 aa 3e
       0.74507624 -0.12436102 -0.12559792 0.33350512
0002f0 2c 84 43 3f af e9 a5 3b bd 0d 1f 3f f5 dd 6d 3f
       0.76373553 0.0050632576 0.6213034 0.92916805
000300 06 cc a0 bd 4e f7 f0 bd e8 a2 d5 bd a5 b4 90 bd
       -0.078514144 -0.117659196 -0.104314625 -0.07065705
000310 e0 b2 cd bc 8c 84 f5 3d 06 d8 7e 3c 7a 97 f2 3c
       -0.025109708 0.11988172 0.015554434 0.029613245
000320 0f ce ea 3d 1a fc bc bd b1 8c e8 bd 4b 11 8b 3a
       0.11465084 -0.09227772 -0.1135496 0.0010610012
000330 1f 69 c4 3b b0 45 b7 3d 0b 19 3b bd 78 7b fb bc
       0.0059939767 0.08948839 -0.04567818 -0.030698523
000340 41 ca 4f 3c 7d d2 88 bc 79 0d d6 bd 49 47 92 3d
       0.012682498 -0.016701931 -0.104517885 0.07142503
000350 9f c1 62 3c 41 2a 21 bd be 20 f7 bc 5f a9 27 3d
       0.013840108 -0.039346937 -0.03016698 0.04093301
000360 e0 c6 a4 3d d6 9a 6c bd 68 c4 f5 bc f9 a9 cb bc
       0.08045745 -0.05776485 -0.03000088 -0.024861323
000370 bc b8 c0 3d 9c f0 c7 bd ed f2 9d 3c 20 b8 f6 bd
       0.09410235 -0.097626895 0.019280875 -0.12046838
000380 a2 82 a0 bd 30 84 7c 3b c2 9b 9d bd b9 50 6a 3c
       -0.07837416 0.0038530938 -0.07695724 0.014301472
000390 88 d6 8a bd e0 ea d5 bd 69 7f d3 bd 0d 88 e3 bd
       -0.067792 -0.104451895 -0.10327036 -0.11109934
0003a0 bc 9e af bc 71 e6 36 3c 77 f3 57 3d cd 62 9a 3d
       -0.021437995 0.01116334 0.05272242 0.07538376
0003b0 2a c4 cd 3d 61 39 e9 3d ef 9b a7 3d 00 1f af 3d
       0.10047181 0.11387897 0.08184039 0.08550835
0003c0 ca 45 e8 3d f6 d2 50 3d 68 38 bb 3c 3f 7c 6e 3c
       0.11341436 0.050982438 0.022854045 0.01455599
0003d0 cb 61 f4 3c 68 10 dd 3c ca e9 9a 3d 80 fd e5 bd
       0.029831788 0.026985362 0.07564123 -0.11229992
0003e0 93 c1 ad 3d 3c 54 13 3c 86 00 75 bc 82 5b 6d 3d
       0.08484187 0.008992251 -0.014953738 0.057948597
0003f0 15 72 dc bc 08 e5 e8 bb 86 02 2e bd c0 ae 30 bd
       -0.026909867 -0.007107381 -0.042482875 -0.043135405

conv2.bias f4 [64]
000000 1f fd 75 c0 d7 d3 62 ba ae 74 93 ba 39 71 b6 bb
       -3.8435743 -0.00086527824 -0.0011249983 -0.0055676964
000010 8e 7e 57 bc f0 ac 91 bc 5b 89 b5 c0 1d d4 0c b8
       -0.013152732 -0.017782658 -5.673017 -3.3576147e-05
000020 50 fe 9b ba fd 7b aa ba 3b 56 a4 b6 00 47 44 b6
       -0.0011901353 -0.0013006922 -4.8976194e-06 -2.9247603e-06
000030 29 e5 95 ba 29 05 f1 c0 91 67 a1 ba 00 00 00 00
       -0.0011436093 -7.53188 -0.001231419 0.0
000040 c5 28 64 bc d2 fc 9b ba 4b a8 87 b6 64 ad e5 b6
       -0.013925736 -0.0011900908 -4.0429054e-06 -6.844917e-06
000050 de 5b 05 b7 c7 2c 45 3f 43 56 57 c0 6d a3 a9 bc
       -7.948807e-06 0.7702145 -3.36464 -0.02070781
000060 fc 6f 80 ba 2b 9f 73 bb f2 33 5a c0 b0 89 ef bb
       -0.0009798999 -0.003717373 -3.4094205 -0.007310115
000070 dc 5b 54 b6 05 ad f3 ba 96 69 7f ba 73 6b cb ba
       -3.164393e-06 -0.0018590993 -0.00097432116 -0.0015519693
000080 a0 b0 72 c1 f7 ce dd bb e3 e2 13 bb b6 ce cf bb
       -15.168121 -0.006769057 -0.0022565655 -0.0063417805
000090 f7 a2 94 bb 1c 19 14 b7 e9 0e 6e b6 28 ee 74 ba
       -0.0045360285 -8.827334e-06 -3.5473442e-06 -0.00093433494
0000a0 53 b9 2e bb 92 47 6b b6 fa 89 a1 ba 95 25 0c bc
       -0.0026660755 -3.5059388e-06 -0.0012324445 -0.008553882
0000b0 a1 ad 43 ba 99 6c e9 b6 88 81 b3 ba ec b6 36 bc
       -0.00074645324 -6.9565835e-06 -0.001369522 -0.01115201
0000c0 45 55 23 b7 00 00 00 00 4b 3a c4 ba 45 c3 a0 bc
       -9.7354105e-06 0.0 -0.0014970986 -0.019624362
0000d0 80 5d 46 b6 c5 2d a9 bc cf a3 82 b6 7f 2e 2a b6
       -2.9558723e-06 -0.020651707 -3.8933717e-06 -2.5359038e-06
0000e0 0f dc 84 b6 b3 d3 9c ba a1 d2 9c ba 2f 2d 14 c0
       -3.9595247e-06 -0.0011964947 -0.0011964628 -2.3152578
0000f0 a5 ba da b5 82 f6 9c ba 0b 54 94 c0 60 9d 1f b6
       -1.6296586e-06 -0.001197532 -4.635259 -2.378445e-06

conv3.weight f4 [64, 167]
000000 43 86 00 3e 42 c6 63 bf c9 2b 69 bf b3 00 eb 3d
       0.12551217 -0.8897439 -0.91082436 0.11474743
000010 e6 65 5b bf 87 c9 b4 3c a2 d1 6e bf b3 5a 3f c0
       -0.8570236 0.022068752 -0.93288624 -2.9899108
000020 0d 9e 56 bf 4b fb 58 bf 67 d9 5d bf bf f1 54 bf
       -0.83834916 -0.8475844 -0.86659855 -0.83181375
000030 d2 2a 65 bf 76 4f 82 3d 54 b4 71 bf b4 e9 f9 3d
       -0.89518464 0.06362812 -0.94415784 0.122027785
000040 35 46 ec bd f0 b7 b0 bf 8c 95 6e bf 9f da 6c bf
       -0.115368284 -1.3806133 -0.9319694 -0.9252109
000050 3a 96 72 bf 1a cd 76 bf 78 72 23 bf 19 fb 09 3e
       -0.9476048 -0.9640671 -0.6384654 0.13474692
000060 0f 08 77 bf a4 21 d9 be 94 44 5b bf 78 6c 21 3e
       -0.9649667 -0.42408478 -0.85651517 0.15764034
000070 74 f2 71 bf a2 59 c7 be ec ac 4b bf a1 89 72 bf
       -0.9451058 -0.38935572 -0.7956073 -0.94741255
000080 b6 38 83 be d7 9e 76 bf 71 43 60 bf 8a af 8c bd
       -0.25629205 -0.9633612 -0.8760291 -0.06869419
000090 16 31 5f bf 94 78 7b bf 2a 7a 74 bf 44 22 0c 3e
       -0.87184274 -0.9823086 -0.9549891 0.13684946
0000a0 46 ca 3e be e3 78 62 bf 88 bb 55 bf 56 7d 69 bf
       -0.18631849 -0.8846571 -0.83489275 -0.9120687
0000b0 20 13 69 bf f4 7c a8 3d ec 2f 61 bf d5 36 5e bf
       -0.9104481 0.08226958 -0.8796375 -0.8680242
0000c0 b4 68 65 bf ae 48 5d bf 07 a2 01 3e 3f d9 74 bf
       -0.8961289 -0.86439025 0.12659465 -0.9564399
0000d0 8e 4a 5c c1 f9 e3 62 bf da e6 5c bf 68 5a 5f bf
       -13.768202 -0.8862911 -0.8628975 -0.87247324
0000e0 06 e7 17 3e 1c 9c 69 bf b8 e4 5e bf 4c f1 76 bf
       0.14834222 -0.9125383 -0.8706775 -0.9646194
0000f0 86 3f 71 bf 48 a8 93 3d d4 50 54 be d3 5e 6f bf
       -0.94237554 0.072098315 -0.20733958 -0.93504065
000100 eb de 70 bf d1 48 01 3e e4 c9 5a bf 9f 2b 96 3d
       -0.94090146 0.12625434 -0.8546431 0.07332539
000110 a9 4b 6a bf 5e 5b ce be ea a5 0d 3f be 07 6b bf
       -0.915217 -0.40304083 0.5533129 -0.9180869
000120 06 b2 18 3e 02 48 7c 3d 0b 34 7b bf fc 02 54 bf
       0.1491166 0.06159211 -0.98126286 -0.82817054
000130 d0 4f 66 bf 42 bd 5c bf 29 85 61 3d f0 f1 05 3d
       -0.89965534 -0.86226285 0.055058632 0.032701433
000140 73 59 f9 3d b1 b0 59 bf f7 51 7b 3d 52 de 57 bf
       0.12175264 -0.85035235 0.061357465 -0.8432361
000150 57 ea d2 3d f6 ff 6e be 93 7b 64 bf 1f 82 5a bf
       0.10298603 -0.23339829 -0.8925106 -0.853548
000160 72 a4 64 bf 6c 1b af 3d 6f 0d 5a bf d4 97 63 bf
       -0.89313424 0.08550152 -0.8517675 -0.88903546
000170 01 4a 62 bf a6 10 6e bf cc a0 05 3e 05 2e 8f 3d
       -0.8839417 -0.92994153 0.1304962 0.069911994
000180 c4 aa 18 3e 42 e9 5e bf 97 9f 5a bf 93 8b 3e 3e
       0.14908892 -0.87074673 -0.85399765 0.18607931
000190 83 b6 5f bf 77 c0 74 bf 01 1b 61 bf d5 a5 6e bf
       -0.87387866 -0.9560618 -0.8793183 -0.9322179
0001a0 7b 1a 59 bf c1 97 d7 be 95 7f a0 bf b7 c4 64 bf
       -0.8480603 -0.42107967 -1.2538935 -0.89362663
0001b0 13 81 81 bf 6c 0d 74 bf 43 c5 60 bf 94 22 60 bf
       -1.0117515 -0.9533298 -0.87801 -0.8755276
0001c0 19 4d 55 bf ba c2 67 bf 4a f8 72 bf 9a b1 a8 be
       -0.83320767 -0.90531504 -0.9491011 -0.32948
0001d0 f7 18 68 bf d7 82 c3 3d 9e 32 b5 be e8 ae 55 bf
       -0.90663093 0.0954644 -0.3539018 -0.8347001
0001e0 d4 d8 40 be e5 96 58 bf f6 8b 79 be d7 7c a7 be
       -0.18832713 -0.84605247 -0.24369797 -0.32712433
0001f0 41 af 5f bf 1a ac 70 bf 91 f6 27 3d 85 c8 95 be
       -0.8737679 -0.94012606 0.04100663 -0.29254547
000200 23 49 c2 be 4e 0f 6e bf 7d 0a e5 3d c3 f3 5b bf
       -0.37946424 -0.92992103 0.11183641 -0.85918826
000210 f6 7f 82 bf 46 2c 6d bf 22 fd 20 3f 52 a3 63 bf
       -1.01953 -0.9264568 0.6288625 -0.8892108
000220 a3 06 0a 3e b2 97 5a bf 0b 3e 9a be a5 f8 70 bf
       0.13479094 -0.8538772 -0.3012546 -0.941294
000230 b7 7a 84 3d 61 a2 70 bf 6e 00 6c bf 68 b0 62 bf
       0.064687185 -0.9399777 -0.92188156 -0.88550425
000240 7b d9 58 bf 68 68 22 3e e7 56 09 be 4e 57 2c 3e
       -0.8470685 0.1586014 -0.13412057 0.16830179
000250 55 77 6d bf 22 cb e0 be 55 e8 62 bf be 8d 6a bf
       -0.9276021 -0.43904978 -0.8863576 -0.9162253
000260 e9 3b 58 bf 85 2b 5f bf e8 0a 83 bf 6b f0 6d bf
       -0.84466416 -0.8717578 -1.0237703 -0.92944974
000270 a2 fb 94 c1 02 5c 59 bf 1b 3d 66 bf b6 bc 1a bf
       -18.622868 -0.8490602 -0.8993699 -0.604442
000280 e9 b0 6f bf ea fe 74 bf 4c 77 69 bf 66 30 6d bf
       -0.9362932 -0.9570147 -0.9119766 -0.92651975
000290 d6 31 66 bf 3c b1 b5 c1 90 23 65 bf 49 60 42 3c
       -0.89919794 -22.71154 -0.8950739 0.0118637765
0002a0 17 70 36 bd 15 24 74 3d ec ce c0 3c 8d 0f 15 bd
       -0.04454049 0.059604723 0.023536168 -0.036391784
0002b0 f0 d5 e4 3c f5 a0 3c 3d 16 c4 24 3d 50 78 03 bd
       0.027934045 0.046051938 0.040226065 -0.03209716
0002c0 76 e1 13 3d 83 38 4e 3d f9 a1 37 bc db 01 f6 3c
       0.03610369 0.050346863 -0.011208051 0.030030182
0002d0 82 f6 8c 3d 58 f4 96 bd c7 c1 93 3d 40 8b 9c bb
       0.06882955 -0.073708236 0.072146945 -0.004777342
0002e0 a8 e5 d7 3c 4f a3 27 bd 2a 0a 75 bd 72 ef 72 3d
       0.026354626 -0.040927228 -0.059824146 0.059310384
0002f0 9d 9b db 3b 6f e8 9b 3c 93 c1 3f 3d d0 79 0e bd
       0.0067019 0.019031731 0.046815466 -0.03478414
000300 5a 70 76 3d 2a 49 7b bd ed 65 dc ba 5b ac 15 3c
       0.06016574 -0.06134907 -0.0016815044 0.009135331
000310 a1 fc 09 3d 11 8d a7 3c 7c 3d 44 3d 7f df b4 3c
       0.03368819 0.020453008 0.0479102 0.022079227
000320 7e 9b 0c bc a7 f8 c1 3c 98 de 80 3c 53 5d 30 3d
       -0.008581994 0.023678137 0.015731141 0.04305775
000330 0a fc 91 bd 35 c8 98 3c 02 4a d2 bb 99 07 a4 bb
       -0.07128151 0.018650154 -0.006417514 -0.0050057885
000340 68 e2 7c bc 1b 6a d0 3c d0 2c 65 bd d3 e4 80 3d
       -0.015434839 0.02544122 -0.05595094 0.06293645
000350 b2 b9 03 3d 6a d0 49 3d 9b e4 56 bc e8 8f 55 bd
       0.032159515 0.049271025 -0.013116027 -0.052139193
000360 08 0c 69 3d 5e e8 69 bc d8 b0 10 3d a5 ab bf bc
       0.05689624 -0.014276592 0.0353249 -0.023397276
000370 7b c7 cf 3c d1 f1 74 bd 04 46 86 3d 9e ce 5a bd
       0.025363674 -0.059800927 0.06556323 -0.0534197
000380 75 f1 52 3c a3 21 47 bd 58 03 06 3d 19 ab d7 3c
       0.012874951 -0.048616063 0.032718033 0.026326703
000390 1d e2 79 3c db 3e 4d bd 78 cc ff bc db a4 1c bc
       0.0152516635 -0.05010877 -0.031225428 -0.009560789
0003a0 e2 78 57 bc cb 21 1b 3c ea 01 c4 bc 23 0b ad 3b
       -0.013151379 0.009468506 -0.023926694 0.0052808686
0003b0 b3 21 1e 3c 37 89 14 bd ae e3 7d 3d 7e 3f 59 bd
       0.009651589 -0.03626367 0.06198471 -0.053039066
0003c0 aa 00 c8 bc c5 8a 10 3c e9 e2 32 3d b6 27 52 38
       -0.02441438 0.008822148 0.04367343 5.0104885e-05
0003d0 6d 84 59 3d 21 28 24 3d 72 56 3f 3c 37 ff 4a bc
       0.053104807 0.040077332 0.011678325 -0.0123899495
0003e0 52 18 d2 3c 12 56 5e 3c 5d 76 73 3d 5a 79 09 bd
       0.025646362 0.013570325 0.059439052 -0.033562995
0003f0 54 fd bd bc d0 5f 33 bd 9d 27 1f 3d f9 6d 4d bd
       -0.023192085 -0.043792546 0.038856138 -0.050153706

conv3.bias f4 [167]
000000 61 0b 0d c0 41 43 6d 3f f1 f5 69 3f f4 8e f0 bf
       -2.2038195 0.92680746 0.913909 -1.8793626
000010 25 aa 6e 3f c8 a7 0b c0 8d 95 03 40 1c 59 b5 c0
       0.9322837 -2.1821156 2.0560029 -5.6671276
000020 68 e5 85 3f 43 01 70 3f eb 31 7b 3f 22 c9 70 3f
       1.0460634 0.93751925 0.98123044 0.94056904
000030 24 5f 6d 3f be b3 0b c0 63 85 6d 3f 56 83 0a c0
       0.927233 -2.1828456 0.92781657 -2.164266
000040 85 66 c0 bf d7 cb 45 c0 0a 19 71 3f 18 d9 5f 3f
       -1.5031286 -3.0905664 0.9417883 0.87440634
000050 97 ce 62 3f 2a 9a a9 3f 8d 3e 60 c1 4d 4a 34 c0
       0.8859648 1.3250172 -14.015271 -2.817035
000060 6f a0 73 3f 18 bf 1c c0 5a f6 68 3f 20 42 0a c0
       0.9516668 -2.4491634 0.910009 -2.160286
000070 72 6d 0b 40 4d 1f 78 bf a3 90 66 3f 7c 7e 6b 3f
       2.178555 -0.9692276 0.9006445 0.91989875
000080 04 8e 40 c0 6c 19 7b 3f ae 99 76 3f 39 9b 4f bf
       -3.008668 0.98085666 0.96328247 -0.81096226
000090 08 b8 73 3f 3c f5 8f 3f 8e 9c 6a 3f e5 8a 0e c0
       0.95202684 1.1246715 0.91645133 -2.2272274
0000a0 ee f2 1e c0 f0 40 63 3f c6 5c 6f 3f cb 49 62 3f
       -2.4835773 0.8877096 0.93500936 0.8839385
0000b0 7a dd 70 3f 34 5c 0c c0 c5 55 65 3f da ff 78 3f
       0.94087946 -2.1931276 0.89584 0.972654
0000c0 89 19 6f 3f 4e 27 69 3f 13 b4 0b c0 02 56 bb 3f
       0.9339834 0.910756 -2.1828659 1.4635623
0000d0 e9 2d 94 c0 05 7e 71 3f c6 2a 73 3f 11 a2 73 3f
       -4.6306043 0.94332916 0.9498714 0.9516917
0000e0 a5 40 0c c0 c2 f2 71 3f 2b 92 a2 3f b5 cc 95 3f
       -2.1914456 0.94511044 1.2700857 1.1703097
0000f0 50 37 73 3f 5b b2 0b c0 ec 50 22 c0 a0 df 67 3f
       0.95006275 -2.182761 -2.536189 0.905756
000100 d4 0f 84 3f db e8 e9 3e 4a c9 bb 3f 01 68 0b c0
       1.031733 0.45685467 1.4670804 -2.178223
000110 78 85 85 3f 12 61 66 c0 ad 4b 57 bf 33 57 6d 3f
       1.0431356 -3.5996747 -0.8409985 0.9271118
000120 58 fd 0b c0 05 42 0c c0 28 11 67 3f 22 ab 76 3f
       -2.1873379 -2.1915295 0.90260553 0.9635488
000130 c2 79 6e 3f 22 69 b1 3f 6b c4 0c c0 33 9c 0b c0
       0.9315454 1.3860209 -2.1994884 -2.1814086
000140 ed 55 03 c0 3c 5a 72 3f 1e c9 16 c0 0f 28 6c 3f
       -2.0521195 0.94668937 -2.3560252 0.92248625
000150 9c c4 34 c0 2c 5c ad be 72 e5 6a 3f 37 a8 69 3f
       -2.8245 -0.33859384 0.91756356 0.912723
000160 7a e5 86 3f d1 ca 0a c0 87 39 86 3f 8a 2b 99 3f
       1.0538781 -2.168629 1.0486306 1.1966412
000170 7f 52 5a 3f f0 09 87 3f f9 64 0b c0 01 0c 0c c0
       0.8528213 1.0549908 -2.178038 -2.1882327
000180 60 64 1b c0 ed 51 73 3f dd ab 71 3f 35 15 0e bf
       -2.4280014 0.95046884 0.9440287 -0.5550111
000190 dd 3e 98 3f 6e 9b 9c 3f f5 f5 6c 3f a1 ec 82 3f
       1.1894184 1.2234933 0.925628 1.0228463
0001a0 ba cf 73 3f 75 69 c0 bf 6d 14 a2 c0 87 a5 82 3f
       0.9523884 -1.5032183 -5.0649934 1.0206765
0001b0 5a 12 b1 3f 84 b6 6e 3f fb e2 7c 3f 7e 66 80 3f
       1.3833725 0.93247247 0.98783845 1.0031278
0001c0 3e 21 69 3f 0f e4 82 3f b2 c3 7c 3f 7f 51 0b c0
       0.9106635 1.0225848 0.9873611 -2.1768491
0001d0 c2 09 78 3f 6d cc 0b c0 11 6e 41 c0 b9 44 75 3f
       0.9688989 -2.1843522 -3.022343 0.9580799
0001e0 30 a3 21 c0 f2 4d 6e 3f a0 9d 5a bf 4d ed be bf
       -2.5255852 0.93087685 -0.85396767 -1.4916168
0001f0 63 c7 65 3f b1 d1 72 3f c3 51 0d c0 ff e2 45 c0
       0.89757365 0.94851214 -2.2081153 -3.0919797
000200 44 6c 5f c0 63 4e 96 3f 4b 29 0d c0 04 55 c4 3f
       -3.490983 1.1742672 -2.2056453 1.5338445
000210 69 f8 8e 40 3a 21 87 3f b1 60 30 c0 80 ef 6a 3f
       4.4678235 1.0557015 -2.7559016 0.917717
000220 20 15 18 c0 fc ea 74 3f e5 da 59 bf 78 49 62 3f
       -2.3762894 0.9567106 -0.8509963 0.88393354
000230 d3 85 27 c0 18 16 86 3f fb 02 6c 3f 8f b4 6e 3f
       -2.617543 1.0475492 0.9219205 0.9324426
000240 f4 30 77 3f b4 5f 1c c0 9c a7 4f bf b8 1d 35 c0
       0.9655907 -2.4433413 -0.81115127 -2.829939
000250 52 58 88 3f b6 eb 47 bf a0 e9 64 3f f7 6c 69 3f
       1.0651953 -0.7809404 0.89418983 0.9118189
000260 c8 b0 6a 3f 3a a2 72 3f 20 56 94 bf 30 46 aa 3f
       0.91675997 0.9477879 -1.1588783 1.330267
000270 dc 9a e7 bf a1 8d 6f 3f d2 f4 66 3f 27 84 88 c0
       -1.8094134 0.93575484 0.90217316 -4.266132
000280 dd 8c 85 3f eb 22 3e 40 33 84 75 3f a0 96 65 3f
       1.0433613 2.9708812 0.95904845 0.8968296
000290 6c 7c 62 3f a3 1b 83 bf bc 4e a5 3f
       0.884711 -1.0242809 1.2914653
