Audit-log_Analysis/code/GNN/training/checkpoint_graphSAGE/best_model_GraphSAGE_transE_100.pt (torch, 350017 bytes, 12 tensors)

sage.layer1.fc_pool.weight f4 [100, 100]
-0.5681819 -0.1198013 -0.5723561 -0.117454976 -0.20348187 -0.10825233 -0.04193965 -0.07078822
0.10261854 0.34558496 -0.020886986 0.016515262 0.13004014 -0.044696335 0.28189892 -0.5066307
-0.06474299 0.19623077 0.060680483 0.38154668 0.009086521 0.17833725 -0.49248663 -0.2823012
-0.048862606 -0.72372705 -0.30703527 -0.13129419 0.1314031 0.42449942 -0.24506386 -0.059878886
0.22113651 0.20107676 -0.18355751 -0.30870733 -0.12833926 0.23260334 -0.48089975 0.047435433
0.050986897 -0.076783985 -0.112299316 0.09191239 -0.11973597 -0.52412796 -0.094507046 0.549496
-0.14332117 0.06563448 -0.12103286 0.03316341 0.37309626 -0.038170885 -0.30790338 -0.25653753
0.036432616 -0.039043557 -0.119830124 0.07578599 -0.13168547 0.27605155 -0.14958851 -0.015687196
0.10193007 0.0931854 0.13227056 0.26919505 -0.100409694 0.33982602 -0.12440598 0.0064090667
-0.14545335 -0.30643374 0.2283795 0.052004136 0.28206456 -0.369285 -0.04845547 -0.17251094
-0.059777476 0.5414574 -0.16304788 -0.08817837 -0.0556284 -0.094805315 -0.07026832 -0.08784516
0.1545261 0.15355273 0.12142254 0.46087468 -0.17734006 0.2334842 0.060920324 -0.121024296
0.13523199 -0.14585908 0.079759225 -0.20863533 0.008297295 -0.22598463 0.29269612 -0.21753225
0.64856386 0.16277786 0.07346039 0.29142106 0.20063064 -0.23825073 0.2563975 0.30652592
-0.052449215 -0.28307995 0.1944405 -0.113371894 0.35635793 -0.52852446 0.052470256 -0.44181544
0.058497727 -0.009109412 0.012600992 -0.11827898 -0.08671341 -0.13604318 0.4126993 -0.2980719
0.66508925 -0.4365036 0.004846822 -0.046794213 0.035369605 -0.5822643 0.0012776988 -0.28507468
0.13531527 0.078112185 0.08659236 0.20169151 -0.3186417 0.079749174 0.1755806 0.009596044
-0.46494952 0.22906181 0.09750075 -0.006928853 0.06251346 0.39264008 0.3355256 0.23035511
-0.20672064 -0.11118279 0.03395898 -0.22444338 0.15789263 0.25212052 0.08618296 -0.015778555
-0.007171781 0.009258434 -0.5215084 0.023981499 -0.30029517 -0.011219896 -0.18170048 -0.07703195
0.00362965 -0.5922078 0.121439286 0.27544516 -0.40667954 -0.34664965 0.09477296 0.07133418
-0.24820836 0.094976716 0.26892594 0.25172532 0.45374575 0.2915533 0.32858124 0.16375598
-0.11446642 -0.90629536 0.04232725 -0.0048158434 0.20596173 0.19805089 -0.076636285 0.03572162
0.055376932 0.29525936 0.07879728 0.008869946 0.04132537 -0.092907354 -0.037684403 0.32832053
0.05590702 0.106762566 0.2412001 -0.31847557 -0.08839053 -0.29272595 -0.0956567 0.07351368
-0.37983212 0.13023517 0.122102894 0.021743227 -0.26979616 0.03955085 -0.18427353 0.24394067
-0.40235224 -0.023721246 -0.19936457 -0.0040686256 -0.006390664 0.3605598 -0.01686144 0.26350322
0.5683167 -0.13746388 -0.028642947 0.43560135 0.16575463 -0.45098227 -0.08014725 -0.3118238
-0.018171284 0.06764868 -0.17452215 -0.20472212 0.05374623 0.06313703 0.053459562 0.6207496
-0.087888375 -0.013494437 -0.38046253 0.054423105 -0.12568516 -0.11887906 0.029355716 0.2509676
-0.20163415 0.023563214 0.08992238 0.1297654 0.10361145 0.13740787 -0.29974097 0.09435273
00000000: 5e74 11bf 625a f5bd ee85 12bf 3c8c f0bd
00000010: 8d5d 50be 66b3 ddbd e9c8 2bbd 6af9 90bd
00000020: ab29 d23d 83f0 b03e 2f1b abbc 044b 873c
00000030: 3e29 053e 8113 37bd 0e55 903e 8db2 01bf
00000040: f997 84bd b8f0 483e 198c 783d 165a c33e
00000050: a2df 143c 0a9e 363e 3527 fcbe c889 90be
00000060: 2824 48bd 2d46 39bf ba33 9dbe fc71 06be
00000070: 898e 063e fd57 d93e 05f2 7abe 9043 75bd
00000080: 9c71 623e 11e7 4d3e 80f6 3bbe e30e 9ebe
00000090: 5e6b 03be 922f 6e3e 7e38 f6be a84b 423d
000000a0: a3d7 503d ec40 9dbd 2ffd e5bd 903c bc3d
000000b0: 2238 f5bd 402d 06bf e98c c1bd c5ab 0c3f
000000c0: c9c2 12be 5f6b 863d 13e0 f7bd 5bd6 073d
000000d0: 7906 bf3e 1359 1cbd 83a5 9dbe e358 83be
000000e0: 5e3a 153d 23ec 1fbd 7f69 f5bd af35 9b3d
000000f0: 8ed8 06be a156 8d3e bb2d 19be 6f82 80bc
00000100: b6c0 d03d fdd7 be3d ef71 073e efd3 893e
00000110: 99a3 cdbd adfd ad3e 90c8 febd 2603 d23b
00000120: b9f1 14be e2e4 9cbe 51dc 693e 4a02 553d
00000130: c46a 903e ec12 bdbe 3e79 46bd b5a6 30be
00000140: 3ad9 74bd f49c 0a3f 06f6 26be dc96 b4bd
00000150: 9bda 63bd 4a29 c2bd d6e8 8fbd 2ae8 b3bd
00000160: 173c 1e3e ed3c 1d3e 61ac f83d c4f7 eb3e
00000170: a298 35be 7b16 6f3e 9787 793d 96db f7bd
00000180: 417a 0a3e 155c 15be ce58 a33d 80a4 55be
00000190: 61f1 073c 8468 67be 44dc 953e c6c0 5ebe
000001a0: 4808 263f 3daf 263e 6772 963d 2435 953e
000001b0: 1e72 4d3e 00f8 73be 8846 833e f7f0 9c3e
000001c0: fdd4 56bd dbef 90be 691b 473e 862f e8bd
000001d0: 8c74 b63e 614d 07bf 0deb 563d a235 e2be
000001e0: 509b 6f3d a53f 15bc 6474 4e3c 403c f2bd
000001f0: cd96 b1bd e74e 0bbe 534d d33e e19c 98be
00000200: 4a43 2a3f 667d dfbe 17d2 9e3b 4aab 3fbd
00000210: b8df 103d 460f 15bf 7578 a73a 4ff5 91be
00000220: 1690 0a3e 48f9 9f3d 5657 b13d 3888 4e3e
00000230: 0125 a3be 8953 a33d 67cb 333e ba38 1d3c
00000240: dd0d eebe 2e8f 6a3e 79ae c73d 6f0b e3bb
00000250: 0f07 803d 1f08 c93e 03ca ab3e 36e2 6b3e
00000260: 93ae 53be cdb3 e3bd 9218 0b3d 7cd4 65be
00000270: 9bae 213e f115 813e b180 b03d 0742 81bc
00000280: 4201 ebbb b0b0 173c 9381 05bf d974 c43c
00000290: 4ac0 99be a8d3 37bc b10f 3abe edc2 9dbd
000002a0: 6cdf 6d3b ee9a 17bf 29b5 f83d 2607 8d3e
000002b0: 4d38 d0be 107c b1be 5318 c23d a817 923d
000002c0: 552a 7ebe 2783 c23d a9b0 893e 24e2 803e
000002d0: 5d51 e83e 7946 953e cd3b a83e a6af 273e
000002e0: 5f6d eabd f902 68bf 575f 2d3d 39ce 9dbb
000002f0: a2e7 523e dacd 4a3e 7cf3 9cbd d550 123d
00000300: ecd2 623d 3c2c 973e 7860 a13d 4053 113c
00000310: cb44 293d 3646 bebd f65a 1abd a119 a83e
00000320: c2fe 643d 55a6 da3d 29fd 763e 3b0f a3be
00000330: 1806 b5bd 2de0 95be a9e7 c3bd 578e 963d
00000340: 5b79 c2be 5e5c 053e 1511 fa3d da1e b23c
00000350: b922 8abe 1200 223d 33b2 3cbe 95cb 793e
00000360: 1d01 cebe 0f53 c2bc 3a26 4cbe 1b52 85bb
00000370: c668 d1bb 4b9b b83e 0121 8abc e5e9 863e
00000380: 347d 113f 55c3 0cbe 9da4 eabc 2407 df3e
00000390: 95bb 293e 26e7 e6be 3e24 a4bd 5ea7 9fbe
000003a0: f2db 94bc 648b 8a3d efb5 32be ada2 51be
000003b0: 0225 5c3d fd4d 813d 6af8 5a3d 72e9 1e3f
000003c0: d2fe b3bd c517 5dbc fccb c2be c3ea 5e3d
000003d0: 9cb3 00be dd76 f3bd 667b f03c d37e 803e
000003e0: 2f79 4ebe a407 c13c 3a29 b83d 39e1 043e
000003f0: 3d32 d43d a6b4 0c3e a677 99be 013c c13d

sage.layer1.fc_pool.bias f4 [100]
0.05799064 -0.0085201645 0.014964021 -0.011367986 -0.017030861 0.029194629 0.011639174 0.0051337634
0.016406316 0.0030073551 -0.028606696 0.024194293 -0.019561494 -0.0038644897 -0.008567872 -0.0031821693
0.049473763 0.079501495 0.04374634 -0.0032709462 -0.025048338 0.06039666 -0.01005123 0.058723632
-0.017375518 0.05441779 -0.068083614 0.0058138412 0.03861944 0.035153214 0.0533311 0.03148758
0.0434503 0.008305016 0.0026777284 -0.009282005 -0.021890216 -0.010321772 -0.011322042 -0.0058577363
-0.021665478 -0.004962364 -0.009657389 -0.004780015 0.05301977 0.05396836 -0.017428 -0.014514548
-0.0069006137 -0.026668891 0.054680686 0.05755284 -0.039805647 -0.012986659 0.0022960145 -0.019132191
-0.020461641 0.0712807 0.026677674 0.01900564 0.043808542 -0.01249425 0.080560476 0.027222153
0.05035336 0.02885708 0.016876586 0.010794619 0.14051546 -0.014832837 -0.014899798 0.01875239
0.030316453 0.020738354 0.0077018887 -0.019493842 0.09007997 0.013438694 0.020882836 0.0033302924
0.027751977 0.018015968 -0.0092653325 -0.024017282 0.050807465 -0.011607141 0.0005639386 0.0052667917
-0.028390592 0.034798294 0.04236726 -0.047726322 0.025306014 -0.008145419 0.0010060732 0.0433247
0.024987789 0.055136263 0.015469256 0.022187192
00000000: 9887 6d3d 2998 0bbc a72b 753c ca40 3abc
00000010: 4e84 8bbc 9329 ef3c 3cb2 3e3c 2139 a83b
00000020: 8a66 863c 0c17 453b 9758 eabc 1c33 c63c
00000030: 6d3f a0bc 6143 7dbb 4360 0cbc f18b 50bb
00000040: 00a5 4a3d aed1 a23d 5d2f 333d 5f5d 56bb
00000050: 2c32 cdbc 7d62 773d eaad 24bc 3188 703d
00000060: 1a57 8ebc 30e5 5e3d 6c6f 8bbd 0982 be3b
00000070: 6b2f 1e3d d1fc 0f3d b671 5a3d 1ff9 003d
00000080: f1f8 313d c311 083c d47c 2f3b 8d13 18bc
00000090: 1c53 b3bc a61c 29bc 1680 39bc 41f2 bfbb
000000a0: cd7b b1bc 549b a2bb 063a 1ebc aca1 9cbb
000000b0: 422b 593d ed0d 5d3d 2ac5 8ebc 6dce 6dbc
000000c0: 8b1e e2bb b878 dabc dbf8 5f3d 87bc 6b3d
000000d0: 3f0b 23bd ffc5 54bc bb78 163b 1dbb 9cbc
000000e0: 2c9f a7bc 9efb 913d 238b da3c b7b1 9b3c
000000f0: 9670 333d afb4 4cbc e4fc a43d fe00 df3c
00000100: 533f 4e3d af65 ec3c c440 8a3c eadb 303c
00000110: 49e3 0f3e 6d05 73bc 481e 74bc 9d9e 993c
00000120: 365a f83c 7be3 a93c 2060 fc3b 8db1 9fbc
00000130: d97b b83d f82d 5c3c 7b12 ab3c 0941 5a3b
00000140: 1d58 e33c 3996 933c 9fcd 17bc e4bf c4bc
00000150: 7d1b 503d e12b 3ebc 47d5 133a 0d95 ac3b
00000160: 6393 e8bc a888 0e3d 4b89 2d3d ad7c 43bd
00000170: 8f4e cf3c 5d74 05bc 37de 833a 3e75 313d
00000180: 31b3 cc3c 90d6 613d c372 7d3c eac1 b53c

sage.layer1.fc_neigh.weight f4 [64, 100]
0.15587965 -0.48586226 0.32382873 -0.50507164 0.027733453 0.040888976 -0.22045276 -0.2567474
0.33586696 -0.19840507 -0.55758023 0.072891586 -0.32540363 -0.25807384 -0.20350185 -0.034239758
0.008456636 0.12598813 0.095110945 -0.39295626 0.05405101 0.247767 -0.08760269 0.38993615
0.37237 0.19245434 0.14114162 -0.020817801 0.038851775 0.053406794 0.1495839 0.2179202
0.2832628 -0.25010803 -0.30666703 0.3083868 -0.0856071 -0.6521404 -0.13366444 -0.024144175
-0.27941203 -0.17038193 -0.70431226 -0.3735343 0.065271035 -0.016861835 -0.08668513 -0.29558575
-0.039717503 -0.07020858 0.19941445 -0.15489204 -0.40090847 -0.054813176 -0.20475109 0.024108445
-0.04883513 0.016207533 0.05650982 0.086963706 -0.30227736 -0.09143117 0.22219911 0.2870241
-0.13547672 0.33316392 0.30049583 -0.14862685 0.046848755 -0.34990907 -0.1318152 -0.09954421
0.44280395 0.20426422 0.2833021 -0.12316495 -0.062580824 -0.016656943 0.023522388 -0.34170753
-0.023369262 0.4185124 -0.34831887 -0.19338745 0.1860972 0.2785985 0.290675 -0.2677402
0.44679028 0.31442663 -0.08116816 -0.13386825 -0.32464215 0.12657808 -0.31933466 0.38058046
-0.064283706 -0.12522419 -0.2806705 -0.10732102 0.2768371 0.14439724 0.07975212 -0.24072689
0.2584173 -0.43770012 -0.36539173 -0.16521528 0.029675916 -0.08864766 0.087002866 -0.0010026953
0.025894068 -0.038495444 0.054401983 0.34288618 0.121559724 0.09574123 -0.36830598 -0.9160905
0.20952544 -0.054453697 0.1322461 0.298533 0.41666073 0.31646505 -0.13973461 0.19695748
-0.025062032 0.39207903 0.1518759 0.26629043 -0.42372006 -0.13183628 -0.34611836 -0.07665815
-0.1980152 0.22710295 -0.116692625 0.0625499 -0.17526022 -0.055850264 0.06469522 -0.10815394
-0.10596891 -0.3089542 -0.17575344 -0.16613202 -0.3401307 0.15297337 0.35602978 0.22605702
-0.31272966 -0.19794321 0.040700562 0.032864545 0.06593623 0.2535364 -0.039472267 -0.2529388
-0.31281692 -0.12992744 0.2094744 0.12827644 -0.32044023 -0.19770244 0.16553193 -0.03365476
-0.020410346 0.08917632 0.121074796 0.25554317 -0.26275536 0.036307387 0.42001313 0.15747477
0.07395804 -0.005083383 0.09662045 0.1365461 -0.28056479 -0.07530137 0.1286991 -0.53963244
-0.18807143 -0.04276283 -0.17286691 0.17902586 0.15872799 0.08923401 0.055170592 0.07108427
0.05269651 -0.26759043 0.2942075 -0.18440753 0.12265112 -0.28288147 -0.06797254 -0.18436967
-0.12619337 0.36625504 -0.54195726 0.66528296 -0.42349464 -0.03852608 0.40347204 -0.4117612
0.20855552 0.016026463 -0.2152855 0.2570687 -0.0855791 0.06587797 0.10611563 0.2295003
0.15654871 0.12323193 0.5046989 -0.71384716 -0.12095502 -0.09090865 -0.44146144 -0.10987519
-0.14404024 0.35450703 0.01980295 -0.15207577 0.26506928 0.2233781 0.0561789 0.29265043
-0.40601867 -0.37021407 -0.36712316 -0.21331938 -0.20809296 -0.73996025 -0.25132146 -0.12864372
0.28818434 -0.2376827 0.7264476 -0.08622709 -0.43748948 0.18830407 -0.45901597 0.02923674
0.34754667 -0.27360722 0.116155736 -0.24805938 -0.79558 -0.46668294 0.16928972 -0.36560154
00000000: ea9e 1f3e f0c2 f8be e1cc a53e 604c 01bf
00000010: 4431 e33c 337b 273d 5ebe 61be 6574 83be
00000020: c1f6 ab3e b32a 4bbe 94bd 0ebf 2f48 953d
00000030: 4e9b a6be 4122 84be ca62 50be fd3e 0cbd
00000040: b48d 0a3c 0803 013e 87c9 c23d 9031 c9be
00000050: 9864 5d3d a2b6 7d3e 0a69 b3bd b6a5 c73e
00000060: 48a7 be3e c012 453e 6e87 103e 188a aabc
00000070: 0a23 1f3d 15c1 5a3d 862c 193e 7926 5f3e
00000080: d207 913e 290e 80be 7603 9dbe e0e4 9d3e
00000090: c652 afbd acf2 26bf 55df 08be 01ca c5bc
000000a0: 180f 8fbe 9a78 2ebe cf4d 34bf e33f bfbe
000000b0: d2ac 853d d521 8abc f987 b1bd 0457 97be
000000c0: d2ae 22bd 84c9 8fbd 4d33 4c3e 059c 1ebe
000000d0: e043 cdbe c883 60bd 45aa 51be 137f c53c
000000e0: 5807 48bd a9c5 843c d776 673d 071a b23d
000000f0: 19c4 9abe 4440 bbbd 2a88 633e d3f4 923e
00000100: 69ba 0abe 7694 aa3e 97da 993e a331 18be
00000110: 7be4 3f3d 4827 b3be 90fa 06be d6dd cbbd
00000120: 33b7 e23e a42a 513e f90c 913e e83d fcbd
00000130: 602a 80bd 2474 88bc 06b2 c03c 4af4 aebe
00000140: e570 bfbc 4247 d63e da56 b2be 5c07 46be
00000150: 4490 3e3e 76a4 8e3e 5bd3 943e 3e15 89be
00000160: b2c1 e43e 87fc a03e 7e3b a6bd c214 09be
00000170: 7f37 a6be af9d 013e d57f a3be 71db c23e
00000180: 2da7 83bd c53a 00be 0bb4 8fbe 1fcb dbbd
00000190: 98bd 8d3e dfdc 133e 1455 a33d 1c81 76be
000001a0: 464f 843e 3b1a e0be a014 bbbe 322e 29be
000001b0: e81a f33c e88c b5bd 8f2e b23d df6c 83ba
000001c0: cc1f d43c 66ad 1dbd 9dd4 5e3d c78e af3e
000001d0: 4ef4 f83d fa13 c43d 9a92 bcbe e884 6abf
000001e0: d68d 563e d70a 5fbd 866b 073e 51d9 983e
000001f0: 8e54 d53e b507 a23e 9716 0fbe 39af 493e
00000200: e44e cdbc 95be c83e 5b85 1b3e 3857 883e
00000210: d6f1 d8be 1700 07be 6d36 b1be f3fe 9cbd
00000220: 7fc4 4abe ad8d 683e 8bfc eebd 291a 803d
00000230: 6a77 33be 3fc3 64bd ed7e 843d d07f ddbd
00000240: 3a06 d9bd 3f2f 9ebe b6f8 33be 831e 2abe
00000250: 9c25 aebe 0da5 1c3e 8949 b63e 7e7b 673e
00000260: 1a1e a0be a0b1 4abe a2b5 263d f99c 063d
00000270: 9309 873d 86cf 813e acad 21bd 3281 81be
00000280: 8a29 a0be b30b 05be 7580 563e e65a 033e
00000290: be10 a4be 8272 4abe 3481 293e 93d9 09bd
000002a0: 9933 a7bc 13a2 b63d 10f6 f73d 8ed6 823e
000002b0: df87 86be 0eb7 143d f60b d73e 1141 213e
000002c0: 5077 973d 8292 a6bb f1e0 c53d bed2 0b3e
000002d0: 30a6 8fbe 9b37 9abd b2c9 033e 5a25 0abf
000002e0: cc95 40be 1428 2fbd 0604 31be 8e52 373e
000002f0: 9789 223e 52c0 b63d 8ffa 613d a194 913d
00000300: 4cd8 573d 9d01 89be 5ea2 963e 54d5 3cbe
00000310: 8330 fb3d d7d5 90be 3035 8bbd 67cb 3cbe
00000320: d638 01be c885 bb3e b6bd 0abf fc4f 2a3f
00000330: 4ad4 d8be 86cd 1dbd e393 ce3e 5dd2 d2be
00000340: 948f 553e ee49 833c cd73 5cbe 829e 833e
00000350: 1844 afbd 07eb 863d 2753 d93d 2002 6b3e
00000360: 4e4e 203e 0661 fc3d f233 013f b0be 36bf
00000370: 44b7 f7bd 502e babd 3c07 e2be 3e06 e1bd
00000380: 497f 13be f281 b53e cc39 a23c c0b9 1bbe
00000390: 29b7 873e 3bbd 643e d91b 663d 47d6 953e
000003a0: aee1 cfbe b38c bdbe 91f7 bbbe 6570 5abe
000003b0: 5216 55be 096e 3dbf 35ad 80be 2ebb 03be
000003c0: e68c 933e 1863 73be 78f8 393f d497 b0bd
000003d0: 9ffe dfbe c8d2 403e 2404 ebbe e381 ef3c
000003e0: a3f1 b13e 3f16 8cbe 0fe3 ed3d 4703 7ebe
000003f0: 22ab 4bbf 11f1 eebe 495a 2d3e 2030 bbbe

sage.layer1.fc_self.weight f4 [64, 100]
0.43581712 -0.41680723 0.4979322 -1.0290833 -0.7066846 0.27734917 0.6125047 -0.3827903
-0.7150807 -0.024747096 -0.18777135 -0.23444717 0.4476812 0.6842896 0.30415472 -0.7348148
0.066065654 1.1747634 -0.8854977 0.38553143 0.3507606 0.30325896 0.45256057 -1.1886667
0.2636955 0.3299793 -0.62770915 -0.18242106 0.8139292 -0.21639805 -0.29289323 -0.35742795
1.1525667 -0.055681366 -0.2420856 -0.4928265 0.30168912 0.42680764 -0.88264716 1.2251954
0.2876593 -0.89879405 0.062282275 -1.5202863 -0.11415168 -0.22648053 0.05158056 -0.1685333
-0.08924246 -0.44071752 0.051672444 -0.44069245 0.5058405 0.1093026 0.7383695 -0.08792152
0.1423419 -0.1986954 -0.5271157 -0.41401896 -0.12366753 -0.24727497 -0.21013904 -0.76062846
0.065533526 0.42027402 -0.5927016 0.025552388 0.5193813 -0.52695054 -0.01430557 0.3825
0.25165263 -0.4045885 -0.70519596 0.05374165 0.96687126 -0.2248933 0.46480557 -0.6558053
-0.3846702 -0.41998753 0.23288211 -0.60585886 -0.9711224 0.786764 -0.39192045 0.08803229
-0.5265551 -0.75479597 0.38502806 1.2617347 -0.4243836 -1.2687067 -0.38498262 -0.33465376
-0.7388277 -0.6180396 0.13536592 0.79819465 0.039824836 1.1917282 -0.053769886 0.04933595
-0.63309926 -0.23701589 1.1684929 -0.5326549 1.4352448 0.5742128 0.30323786 0.40190145
-0.1442198 -0.136922 0.17197873 -0.3045497 0.2302026 -0.6657177 -0.36470503 -0.2820516
0.10390625 0.37739617 -0.16590735 -0.4647952 -0.18241188 0.1551927 -0.9337743 -0.5776483
0.46801603 -0.3915245 -0.12544186 -0.96608686 -0.96840507 0.28411797 -0.11583379 -0.5315351
0.64991206 -0.061876725 -0.82971394 0.4093694 0.93326646 0.03966152 -0.42626122 -0.11031627
0.34969667 -0.9720548 0.71677125 -0.03549284 -0.35599375 -0.09394366 0.052744184 0.17400138
0.15044649 0.31699222 -0.027619647 0.23406766 1.0016865 0.50190115 -0.37104967 0.0050884485
-0.99939096 0.19630206 -0.3718234 -0.6241656 -0.66074705 0.6717407 0.78254026 -0.8977565
-0.19637153 0.32566774 0.80024844 -0.23574717 0.019162672 0.0446063 -0.0022841932 0.20667239
0.052396946 -0.7334012 -0.21805435 -0.17006876 -0.47215253 -0.15251519 -0.5748164 0.55010986
0.64055586 -0.92140836 -0.2937654 -0.13865194 0.41908222 0.17093416 -0.09481421 1.3837544
-0.045350794 -0.37157947 0.097397566 -0.6509364 0.39091313 -1.476126 -0.16931376 0.16593727
0.3688814 -0.58924663 0.16542375 0.5797199 0.5422883 0.69591475 0.30565313 0.0094456645
-0.15084533 -0.8602472 0.10815355 -0.38493577 0.5936226 0.80027944 -0.57457024 0.6906569
0.1347501 -0.22026545 -1.3091707 -1.0202199 -0.30261847 -0.9314498 0.27904597 -0.107876696
-0.022587348 -0.18738072 0.093139924 -0.62584305 -0.82308275 -0.42767048 0.21260019 0.47880653
-0.8653876 -0.34270453 -0.36278248 -0.19789396 0.2934888 -1.0959557 -0.51139885 -0.39856187
-0.07057731 0.035026688 -0.04032319 -0.68757427 -0.19346943 0.28556257 -0.019241815 -0.40353465
-0.110499054 -0.08132906 -0.401161 -0.5706781 -0.115407795 -0.4428913 0.18220738 -0.49421632
00000000: 6c23 df3e c267 d5be f8f0 fe3e 00b9 83bf
00000010: 48e9 34bf b600 8e3e 1ccd 1c3f 17fd c3be
00000020: 870f 37bf 6cba cabc 2247 40be eb12 70be
00000030: 7836 e53e 9a2d 2f3f 2bba 9b3e d31c 3cbf
00000040: 6e4d 873d a65e 963f faaf 62bf 6064 c53e
00000050: e596 b33e c244 9b3e 05b6 e73e 3b26 98bf
00000060: 1903 873e 0cf3 a83e 8cb1 20bf 96cc 3abe
00000070: aa5d 503f 7397 5dbe 1af6 95be cc00 b7be
00000080: 4e87 933f 2512 64bd 4ae5 77be c153 fcbe
00000090: ff76 9a3e 8886 da3e 2af5 61bf 34d3 9c3f
000000a0: 1448 933e 5e17 66bf b31b 7f3d be98 c2bf
000000b0: 5bc8 e9bd 83ea 67be 2346 533d fe93 2cbe
000000c0: c0c4 b6bd baa5 e1be 7ca6 533d 71a2 e1be
000000d0: c37e 013f 0bda df3d c905 3d3f 3310 b4bd
000000e0: 13c2 113e cf76 4bbe 0ef1 06bf 4bfa d3be
000000f0: 6745 fdbd a635 7dbe b02e 57be 8cb8 42bf
00000100: 7136 863d 282e d73e 4bbb 17bf 3e53 d13c
00000110: 2cf6 043f 3be6 06bf e961 6abc 0ad7 c33e
00000120: 9dd8 803e 3926 cfbe b987 34bf 3420 5c3d
00000130: e084 773f 6e4a 66be fffa ed3e dbe2 27bf
00000140: 7ef3 c4be 9b08 d7be a678 6e3e 9119 1bbf
00000150: 7a9b 78bf 5e69 493f cca9 c8be 464a b43d
00000160: 51cc 06bf 4f3a 41bf 6622 c53e 8680 a13f
00000170: cf48 d9be fb64 a2bf 711c c5be bd57 abbe
00000180: d023 3dbf d837 1ebf 5d9d 0a3e 7c56 4c3f
00000190: 5e1f 233d 8d8a 983f d03d 5cbd 7e14 4a3d
000001a0: cb12 22bf 4bb4 72be 2d91 953f 125c 08bf
000001b0: 1ab6 b73f 9cff 123f fe41 9b3e 07c6 cd3e
000001c0: 5bae 13be 4835 0cbe 311b 303e f0ed 9bbe
000001d0: 3bba 6b3e 7a6c 2abf 9eba babe 1169 90be
000001e0: cdcc d43d 123a c13e 9ee3 29be a3f9 edbe
000001f0: 2eca 3abe d6ea 1e3e d50b 6fbf c2e0 13bf
00000200: cc9f ef3e e675 c8be d573 00be 7851 77bf
00000210: 65e9 77bf e977 913e 443a edbd af12 08bf
00000220: a360 263f 7372 7dbd 2268 54bf de98 d13e
00000230: 8dea 6e3f 1e74 223d e93e dabe 7fed e1bd
00000240: 710b b33e 95d8 78bf 527e 373f f160 11bd
00000250: d044 b6be 8965 c0bd 490a 583d 6b2d 323e
00000260: a50e 1a3e ce4c a23e 9942 e2bc 6faf 6f3e
00000270: 4337 803f 987c 003f 39fa bdbe 00bd a63b
00000280: 16d8 7fbf 6803 493e a35f bebe 51c9 1fbf
00000290: b826 29bf 33f7 2b3f 8f54 483f 5fd3 65bf
000002a0: 9e15 49be ecbd a63e 15dd 4c3f b567 71be
000002b0: 09fb 9c3c 18b5 363d 67b2 15bb eda1 533e
000002c0: 2e9e 563d 2ec0 3bbf a449 5fbe 8126 2ebe
000002d0: fabd f1be f12c 1cbe 2b27 13bf 00d4 0c3f
000002e0: 78fb 233f 6be1 6bbf 6b68 96be c6fa 0dbe
000002f0: f291 d63e 5d09 2f3e f42d c2bd dd1e b13f
00000300: c1c1 39bd aa3f bebe 6078 c73d c5a3 26bf
00000310: c425 c83e b2f1 bcbf 9660 2dbe 76eb 293e
00000320: 06de bc3e ded8 16bf d864 293e 8668 143f
00000330: 68d3 0a3f 7827 323f 917e 9c3e fdc1 1a3c
00000340: 3377 1abe 2939 5cbf 9c7f dd3d 4d16 c5be
00000350: a7f7 173f 1ddf 4c3f 0917 13bf e4ce 303f
00000360: eefb 093e 448d 61be e892 a7bf 9196 82bf
00000370: cff0 9abe 7e73 6ebf 1ddf 8e3e 75ee dcbd
00000380: 1a09 b9bc bbe0 3fbe 25c0 be3d 4037 20bf
00000390: 8db5 52bf a0f7 dabe ddb3 593e 2126 f53e
000003a0: 0b8a 5dbf f876 afbe a0be b9be b7a4 4abe
000003b0: 2a44 963e 4748 8cbf 09eb 02bf 4d10 ccbe
000003c0: d68a 90bd 2578 0f3d ee29 25bd de04 30bf
000003d0: da1c 46be 4235 923e 03a1 9dbc 189c cebe
000003e0: 544d e2bd da8f a6bd f964 cdbe f617 12bf
000003f0: ec5a ecbd a6c2 e2be 9294 3a3e ec09 fdbe

sage.layer1.fc_self.bias f4 [64]
-0.02212196 0.03429571 -0.047743246 0.0333945 0.010271678 0.009421474 -0.024095053 -0.0039791935
0.004452704 0.012474659 0.06824075 -0.052663513 0.005202428 0.07523063 -0.035431895 -0.06933394
0.039509334 0.00618466 0.003626206 -0.026864437 -0.059665 -0.022371022 0.063443236 -0.039875343
-0.03871122 0.03394252 -0.020820508 0.006195936 -0.036442876 0.021187335 0.08607869 -0.011371666
0.020693261 0.041707676 0.037105914 0.04598527 0.05217514 0.06426757 -0.09136742 -0.020535154
-0.020652644 -0.009847758 -0.01742688 0.041154772 -0.101627715 0.005884193 0.028356036 0.0071417387
-0.03722658 -0.0063981027 0.01904439 0.06472259 0.07297364 -0.0064332266 -0.07345473 -0.030589579
0.0008504447 -0.06835675 -0.05248663 0.06795918 -0.08187367 0.021548849 -0.03588965 -0.004312184
00000000: 1d39 b5bc a979 0c3d 6c8e 43bd acc8 083d
00000010: 8a4a 283c 875c 1a3c fd62 c5bc e563 82bb
00000020: fde7 913b 8362 4c3c cec1 8b3d b2b5 57bd
00000030: 2179 aa3b 8412 9a3d 0921 11bd f4fe 8dbd
00000040: 8ad4 213d b0a8 ca3b a4a5 6d3b cf12 dcbc
00000050: 4963 74bd 6f43 b7bc 87ee 813d 5454 23bd
00000060: a88f 1ebd 5007 0b3d c58f aabc 4707 cb3b
00000070: 2045 15bd 1091 ad3c 064a b03d 3950 3abc
00000080: ea84 a93c abd5 2a3d 5ffc 173d 0d5b 3c3d
00000090: 99b5 553d b79e 833d d81e bbbd 5739 a8bc
000000a0: bc2f a9bc 7e58 21bc d1c2 8ebc e891 283d
000000b0: 3122 d0bd 30d0 c03b eb4a e83c 3f05 ea3b
000000c0: e67a 18bd 2da7 d1bb fb02 9c3c 478d 843d
000000d0: 3473 953d d1cd d2bb 6f6f 96bd ff96 fabc
000000e0: 61f0 5e3a a0fe 8bbd 38fc 56bd 2f2e 8b3d
000000f0: 62ad a7bd 3687 b03c 0701 13bd 394d 8dbb

sage.layer2.fc_pool.weight f4 [64, 64]
-0.29604384 -0.34450877 0.30103824 0.4660883 -0.33283558 0.071502484 -0.16507556 -0.14083563
-0.35481137 -0.1720599 0.015918888 0.3319598 -0.6772194 0.12800978 -0.08541114 -0.31874266
0.39838827 -0.15114935 -0.055124916 -0.080563426 -0.059371945 -0.048767656 0.11369214 -0.29235968
-0.12101345 0.1803581 -0.09708438 -0.1263805 0.07889949 -0.07659155 0.032422505 -0.11614926
0.13910839 0.16705802 -0.34744334 -0.052101456 -0.31084275 -0.23303096 -0.06333018 0.1789192
0.2030671 0.44603693 0.19670673 -0.021747136 0.12796664 0.14624695 0.0057799504 -0.20001915
-0.41788408 0.046556585 0.09904479 -0.22735338 0.100098066 -0.37516686 0.16363691 -0.10328794
-0.017113457 -0.5487161 0.13508616 -0.4611006 -0.45588145 0.3705295 0.28575024 0.45855433
-0.10593706 -0.038893126 -0.22496885 0.20390137 0.704992 0.077141784 0.3534373 0.07055578
0.2807236 -0.01729918 -0.21495737 0.17714903 -0.025122523 0.14301832 -0.20635775 0.1737438
0.2604012 -0.19912525 -0.06771139 -0.06677099 -0.044170372 -0.50512874 -0.27414182 0.050346464
-0.1506359 0.10065824 -0.0036497123 0.27542275 0.13515629 -0.02446193 -0.11836534 -0.39425173
-0.33602288 -0.0060718744 -0.3847057 0.020822031 -0.22770603 0.10703136 -0.16265832 -0.27178344
-0.045648996 -0.43052194 -0.19855484 -0.07125267 0.035801582 -0.04388834 0.17681855 -0.15270256
-0.29215485 -0.045087792 -0.30249253 -0.06759724 0.078145035 -0.3043856 -0.06038071 0.26592666
-0.27933133 -0.63659215 -0.09008132 0.045280557 -0.14159745 -0.10698544 -0.13420773 -0.12323565
0.30599296 -0.08316923 -0.28753707 -0.08998748 0.07667309 -0.37605682 0.33246326 -0.11362938
0.2867072 0.17158127 -0.57313395 -0.10742309 0.16741289 0.05871252 0.16639091 0.33453402
-0.46838906 -0.07437061 0.32558116 0.27140316 0.10539663 0.22115639 -0.19641021 0.057506006
0.4770525 -0.22763126 0.010085504 0.23013729 0.41635814 -0.07025 -0.34737906 0.114545345
0.19531043 -0.3059303 -0.08890821 -0.056012046 0.26468226 -0.66255844 0.058168624 0.14157835
-0.035417672 0.16029815 -0.14272135 0.11264275 -0.29253846 -0.08914602 -0.11915568 0.32554254
0.12049738 -0.07203463 0.2173347 -0.5745081 -0.35922062 -0.0922867 -0.058865476 0.32300213
0.12188321 -0.14156011 -0.020266691 -0.66266227 0.21724245 0.3551396 0.18417011 -0.13184273
-0.075610526 -0.099431165 -0.24571791 0.091549374 -0.09229807 0.24253428 0.35765952 -0.3559467
0.13316837 0.016874667 -0.12607364 0.2244636 0.12572755 0.18774295 0.3806358 -0.18566808
0.10121528 -0.08407649 -0.5537719 0.082171865 -0.22071661 0.42074087 -0.083109364 -0.23026665
-0.10683986 0.03220282 -0.11607422 -0.2562276 0.060924802 -0.006803857 0.08653405 0.50285465
-0.116901465 0.31729972 0.25642678 -0.15885445 -0.1871358 -0.05153145 0.123654306 -0.22911441
-0.5135205 0.1729254 0.043031886 0.30363485 0.04460152 -0.25053957 -0.016307423 0.03900194
-0.13486663 0.113359146 -0.13400753 -0.0005830807 0.017386764 -0.10987469 -0.4661431 0.40919572
0.35206985 -0.17895262 0.15838529 -0.21581759 0.19553025 -0.014607873 0.8651387 0.04934048
00000000: 0f93 97be 7463 b0be af21 9a3e 20a3 ee3e
00000010: 6d69 aabe e56f 923d 9109 29be 3737 10be
00000020: d6a9 b5be 7830 30be 5468 823c a3f6 a93e
00000030: 405e 2dbf ff14 033e 09ec aebd 3d32 a3be
00000040: 8cf9 cb3e e5c6 1abe aaca 61bd 70fe a4bd
00000050: ff2f 73bd 98c0 47bd 6dd7 e83d 2bb0 95be
00000060: e6d5 f7bd cbaf 383e 2dd4 c6bd e469 01be
00000070: 0e96 a13d 08dc 9cbd 76cd 043d aadf edbd
00000080: 6e72 0e3e 4211 2b3e 18e4 b1be 5668 55bd
00000090: c826 9fbe ab9f 6ebe 41b3 81bd 9836 373e
000000a0: d2f0 4f3e f45e e43e 7d6d 493e 0d27 b2bc
000000b0: b009 033e c3c1 153e bd65 bd3b d2d1 4cbe
000000c0: e7f4 d5be 1eb2 3e3d ffd7 ca3d 53cf 68be
000000d0: 3700 cd3d df15 c0be 6f90 273e a188 d3bd
000000e0: 8531 8cbc a978 0cbf 0754 0a3e 6115 ecbe
000000f0: 4b69 e9be 0bb6 bd3e db4d 923e a2c7 ea3e
00000100: 88f5 d8bd 664e 1fbd 3c5e 66be 85cb 503e
00000110: 5b7a 343f 83fc 9d3d bcf5 b43e 8c7f 903d
00000120: 01bb 8f3e 03b7 8dbc c91d 5cbe 8e66 353e
00000130: c0cd cdbc 6573 123e 724f 53be e5e9 313e
00000140: 4e53 853e 7de7 4bbe 45ac 8abd 3bbf 88bd
00000150: feeb 34bd 1e50 01bf 515c 8cbe 1838 4e3d
00000160: 4c40 1abe e825 ce3d 0330 6fbb 3604 8d3e
00000170: 6966 0a3e 6364 c8bc 8769 f2bd 5ddb c9be
00000180: 310b acbe 93f6 c6bb 25f8 c4be f792 aa3c
00000190: c52b 69be 4233 db3d e78f 26be 3327 8bbe
000001a0: 71fa 3abd 5f6d dcbe f651 4bbe ebec 91bd
000001b0: aea4 123d 43c4 33bd ec0f 353e 0f5e 1cbe
000001c0: 5295 95be faad 38bd 4de0 9abe 6c70 8abd
000001d0: 810a a03d 6ed8 9bbe c351 77bd 8a27 883e
000001e0: 8404 8fbe b4f7 22bf 8e7c b8bd 1b78 393d
000001f0: ecfe 10be 2f1b dbbd c06d 09be f962 fcbd
00000200: 1cab 9c3e a154 aabd 0f38 93be 5b4b b8bd
00000210: c806 9d3d 858a c0be a038 aa3e 85b6 e8bd
00000220: 49cb 923e 00b3 2f3e e8b8 12bf a300 dcbd
00000230: 496e 2b3e 8a7c 703d 6162 2a3e 0b48 ab3e
00000240: b1d0 efbe 9e4f 98bd 93b2 a63e 5bf5 8a3e
00000250: 30da d73d d276 623e c21f 49be 6b8b 6b3d
00000260: 3a40 f43e 2b18 69be ab3d 253c 1ca9 6b3e
00000270: e52c d53e 3bdf 8fbd abdb b1be c096 ea3d
00000280: 75ff 473e e5a2 9cbe 8215 b6bd e36c 65bd
00000290: 6f84 873e 6e9d 29bf 3942 6e3d eaf9 103e
000002a0: 1f12 11bd 3325 243e 8c25 12be 3eb1 e63d
000002b0: 9ac7 95be 3092 b6bd e507 f4bd 83ad a63e
000002c0: 55c7 f63d e486 93bd fd8c 5e3e f612 13bf
000002d0: c4eb b7be cf00 bdbd ed1c 71bd 8960 a53e
000002e0: e89d f93d 22f5 10be 5506 a6bc 3ca4 29bf
000002f0: ce74 5e3e dcd4 b53e 1797 3c3e c801 07be
00000300: b1d9 9abd 91a2 cbbd 7a9d 7bbe 3d7e bb3d
00000310: c506 bdbd e85a 783e 261f b73e a53e b6be
00000320: 4a5d 083e be3c 8a3c 7319 01be c9d9 653e
00000330: b9be 003e b03f 403e b2e2 c23e c61f 3ebe
00000340: f549 cf3d 4b30 acbd ffc3 0dbf b949 a83d
00000350: 8903 62be 596b d73e 3e35 aabd 05cb 6bbe
00000360: dbce dabd 1be7 033d 52b8 edbd 4430 83be
00000370: 498c 793d e4f2 debb c438 b13d 15bb 003f
00000380: 096a efbd 1c75 a23e 5f4a 833e beaa 22be
00000390: 87a0 3fbe a412 53bd 783e fd3d f89c 6abe
000003a0: 1476 03bf 5b13 313e 3442 303d 0776 9b3e
000003b0: 15b0 363d b946 80be 2597 85bc 80c0 1f3d
000003c0: 7a1a 0abe d728 e83d 4539 09be e2d9 18ba
000003d0: b06e 8e3c fb05 e1bd 4faa eebe 1a82 d13e
000003e0: 8042 b43e 5b3f 37be c12f 223e 49ff 5cbe
000003f0: 1539 483e dc55 6fbc bb79 5d3f 3e19 4a3d

sage.layer2.fc_pool.bias f4 [64]
0.22359389 0.1891209 0.040136844 0.033073027 0.13615386 0.034618415 0.20920433 0.04942054
0.042369638 -0.13461323 0.20177603 0.26256803 0.025323799 0.121445954 0.11569866 0.02245678
0.1980135 0.09986124 -0.03224258 0.14179528 0.07055151 0.1345194 0.18725763 0.20829292
0.010579877 0.040983707 0.074926026 -0.04704306 -0.045340676 0.11220698 0.17996198 0.0018832113
0.17800455 0.1413159 0.040114205 0.124771506 -0.02237677 -0.055637244 0.06575645 0.009980697
0.19075489 0.13977118 0.15794873 -0.020002777 0.05320521 0.27422345 0.047345214 -0.1358264
0.24080458 0.09034205 -0.09393521 0.21869488 0.051276274 0.14509332 0.05667819 -0.030961134
0.014693787 0.17986684 0.16463882 0.1510851 0.04688038 -0.06803363 0.27734467 0.12525049
00000000: ccf5 643e e9a8 413e 8866 243d 9577 073d
00000010: eb6b 0b3e 0acc 0d3d a939 563e 316d 4a3d
00000020: c98b 2d3d 0dd8 09be 609e 4e3e 516f 863e
00000030: db73 cf3c a8b8 f83d 6bf3 ec3d 48f7 b73c
00000040: 0dc4 4a3e 0d84 cc3d cc10 04bd c832 113e
00000050: 4f7d 903d 74bf 093e 77c0 3f3e bd4a 553e
00000060: 3857 2d3c 88de 273d d172 993d 39b0 40bd
00000070: 25b7 39bd c6cc e53d f447 383e 16d6 f63a
00000080: d346 363e 1eb5 103e cb4e 243d 3488 ff3d
00000090: 7d4f b7bc e1e3 63bd 51ab 863d 1486 233c
000000a0: 4055 433e 2d20 0f3e 50bd 213e dddc a3bc
000000b0: b5ed 593d 0467 8c3e 0eed 413d 1316 0bbe
000000c0: 7a95 763e 4105 b93d 1a61 c0bd 8df1 5f3e
000000d0: 1207 523d 5893 143e 6427 683d 34a2 fdbc
000000e0: 36be 703c 032f 383e 1497 283e 0db6 1a3e
000000f0: a405 403d 3755 8bbd 1f00 8e3e aa41 003e

sage.layer2.fc_neigh.weight f4 [128, 64]
0.047377333 -0.037258837 0.020825354 0.34192875 0.22838224 -0.05171675 -0.14474791 -0.2984789
-0.13779274 0.17849 -0.24290198 0.28460532 0.047771122 0.2659677 0.16957408 0.40840328
0.2676344 -0.16188927 -0.20843233 0.07892638 -0.263789 -0.029908521 0.2536954 -0.08250855
-0.16022736 0.39693877 -0.02487303 -0.082313396 -0.00644951 0.05834297 0.057127535 0.010285595
0.072727025 -0.46804455 -0.0359052 0.12592125 -0.26812986 -0.029223382 -0.3526945 -0.24461186
-0.27439335 -0.019292075 -0.20309645 -0.17992347 0.23785149 0.22907528 0.04036169 0.28179324
0.29279962 0.2685096 0.067413785 -0.022200048 0.098991625 -0.20375724 -0.14063403 -0.0077495226
0.10981367 -0.02974434 0.18136337 -0.031100918 -0.10649515 0.07818487 0.5256714 0.4076449
-0.09595202 -0.20529078 -0.05213713 -0.16108555 0.020668065 -0.06358899 0.030819569 -0.12826236
0.012126973 0.13012208 -0.18077248 -0.19711454 0.2544173 -0.052555893 0.0115029765 0.05993612
0.10200095 0.24539132 -0.030400364 -0.18365498 -0.21882632 0.26950186 -0.20761548 0.26356784
0.15143546 -0.00013582669 0.24304126 0.109160714 -0.31752613 -0.1568899 -0.43104768 0.2645193
0.05807077 -0.35607085 0.2655861 -0.056744322 0.045446347 0.0794991 0.27109647 0.322351
0.08510227 0.40176162 -0.030332679 -0.14739873 -0.2741751 -0.116706476 -0.11717467 -0.13684823
0.13301766 0.20129174 -0.03941539 0.13350065 0.08322685 0.40468946 0.35900617 0.1070673
0.17847022 0.37853748 0.48173502 -0.14253898 -0.0031356593 0.3310342 -0.1613866 -0.13059443
-0.15570197 -0.0037695167 0.19340211 0.11619654 0.1844892 -0.13187276 -0.14282705 -0.0658329
-0.26082873 -0.03844242 -0.0898226 0.16017024 0.070780285 0.15247995 -0.026128897 0.2640738
-0.23102616 0.06911242 -0.07039784 -0.17915621 0.09186414 0.07905881 0.015047031 0.18518619
0.12992685 0.13157955 0.29224247 -0.012236408 0.035321757 0.0049663093 -0.20804073 -0.11699914
0.3075929 0.115112744 -0.13070245 0.27068797 0.020616056 0.28194085 0.041828763 0.02054948
0.17911574 0.2302571 -0.038559847 -0.12020148 0.6953617 -0.32464582 -0.22227149 -0.14414974
0.065274805 0.06333378 -0.31416628 0.16581538 0.016356617 0.13601817 -0.07767037 -0.13106634
0.21033037 -0.12159928 0.11711399 0.32799888 0.020739703 -0.11129173 -0.025428388 -0.01634718
0.124784544 0.04754578 -0.21188408 -0.43335056 -0.27659875 -0.34761867 0.35873362 0.16522498
-0.06267516 0.03679185 0.23850481 -0.22299792 -0.34770325 0.02904371 0.2507276 -0.13126907
-0.13236666 -0.3385234 0.20143044 0.23646311 -0.13292098 -0.078328386 0.085093625 0.23223978
-0.34814256 -0.3175781 0.036370084 -0.4439034 -0.19525635 0.03504984 0.31945184 0.1446526
0.02446823 0.050866693 -0.22850928 -0.11633517 -0.21264215 -0.23931007 0.11630101 0.08461823
0.101968035 -0.004026164 0.4743683 0.14542967 -0.2881576 -0.111827925 0.41385275 -0.15376519
-0.12892197 0.010012281 0.12358198 -0.124725044 -0.2567955 0.17634207 -0.119552985 -0.25988066
-0.412582 0.12670937 -0.03160166 -0.2644084 -0.32829955 0.20304833 0.098472 -0.018261582
00000000: bc0e 423d b99c 18bd ef99 aa3c 4911 af3e
00000010: 09dd 693e f1d4 53bd cc38 14be 3ad2 98be
00000020: 8a19 0dbe 15c6 363e 4cbb 78be cab7 913e
00000030: a7ab 433d eb2c 883e d4a4 2d3e 3c1a d13e
00000040: 6007 893e 4dc6 25be 496f 55be 27a4 a13d
00000050: 5a0f 87be b702 f5bc 5de4 813e 3efa a8bd
00000060: a412 24be 8f3b cb3e 86c2 cbbc ed93 a8bd
00000070: 6956 d3bb 0af9 6e3d 90fe 693d ea84 283c
00000080: e8f1 943d 89a3 efbe 5511 13bd 80f1 003e
00000090: 5148 89be e065 efbc 6094 b4be 887b 7abe
000000a0: 497d 8cbe 6a0a 9ebc 84f8 4fbe dc3d 38be
000000b0: 578f 733e b692 6a3e 4d52 253d 3447 903e
000000c0: d5e9 953e 177a 893e 3d10 8a3d e0dc b5bc
000000d0: 1fbc ca3d bda5 50be 5e02 10be b5ef fdbb
000000e0: fde5 e03d 67aa f3bc 52b7 393e 5ac7 febc
000000f0: 211a dabd 641f a03d 6792 063f d5b6 d03e
00000100: 7e82 c4bd bf37 52be be8d 55bd 9cf3 24be
00000110: 1350 a93c f23a 82bd 5279 fc3c 3557 03be
00000120: 36b0 463c b93e 053e 6c1c 39be 65d8 49be
00000130: fc42 823e d944 57bd fb76 3c3c 947f 753d
00000140: e0e5 d03d dd47 7b3e 2f0a f9bc 0d10 3cbe
00000150: 0214 60be 26fc 893e 2799 54be 5df2 863e
00000160: e611 1b3e b36c 0eb9 cfdf 783e a78f df3d
00000170: c992 a2be bfa7 20be 48b2 dcbe 136f 873e
00000180: 9edb 6d3d eb4e b6be e7fa 873e bc6c 68bd
00000190: f325 3a3d 6dd0 a23d 28cd 8a3e 310b a53e
000001a0: 194a ae3d b3b3 cd3e 3d7c f8bc b1ef 16be
000001b0: ae60 8cbe ce03 efbd 46f9 efbd f121 0cbe
000001c0: c835 083e 6c1f 4e3e 0872 21bd 65b4 083e
000001d0: d772 aa3d 7533 cf3e a8cf b73e 1a46 db3d
000001e0: e6c0 363e aacf c13e f9a5 f63e bdf5 11be
000001f0: a27f 4dbb 517d a93e 8742 25be 8cba 05be
00000200: 5670 1fbe ff09 77bb 340b 463e 74f8 ed3d
00000210: bdea 3c3e a709 07be 4141 12be 66d3 86bd
00000220: 588b 85be cd75 1dbd e9f4 b7bd ab03 243e
00000230: 41f5 903d b423 1c3e 450c d6bc ae34 873e
00000240: 1f92 6cbe d08a 8d3d be2c 90bd ba74 37be
00000250: 4423 bc3d 96e9 a13d d387 763c 73a1 3d3e
00000260: 8b0b 053e cabc 063e cea0 953e 377b 48bc
00000270: 8cad 103d 6cbc a23b a108 55be 3f9d efbd
00000280: d17c 9d3e 3bc0 eb3d ddd6 05be 9d97 8a3e
00000290: 01e3 a83c 8d5a 903e a354 2b3d 6257 a83c
000002a0: 1e6a 373e 84c8 6b3e eef0 1dbd 322c f6bd
000002b0: 3903 323f fa37 a6be 239b 63be fd9b 13be
000002c0: ccae 853d 24b5 813d 67da a0be 82cb 293e
000002d0: 50fe 853c 5948 0b3e a511 9fbd 4136 06be
000002e0: d860 573e 0b09 f9bd 76d9 ef3d 78ef a73e
000002f0: 4fe6 a93c ebec e3bd 324f d0bc 85ea 85bc
00000300: 0a8f ff3d 5dbf 423d 24f8 58be 20e0 ddbe
00000310: 5a9e 8dbe 13fb b1be efab b73e bd30 293e
00000320: d65b 80bd 0db3 163d 9b3a 743e 9159 64be
00000330: 2906 b2be 13ed ed3c 5e5f 803e 666b 06be
00000340: 208b 07be f052 adbe c843 4e3e 6323 723e
00000350: 701c 08be a26a a0bd 9145 ae3d 44d0 6d3e
00000360: be3f b2be 9999 a2be ccf8 143d 4e47 e3be
00000370: 48f1 47be 6c90 0f3d 318f a33e d01f 143e
00000380: 9971 c83c 9859 503d 56fe 69be 2241 eebd
00000390: ddbe 59be b30d 75be 392f ee3d 534c ad3d
000003a0: 9ed4 d03d e9ed 83bb 67e0 f23e 84eb 143e
000003b0: 6589 93be 0a06 e5bd 82e4 d33e 9f74 1dbe
000003c0: 1f04 04be 8d0a 243c 8d18 fd3d d86f ffbd
000003d0: b37a 83be 0493 343e 32d8 f4bd 140f 85be
000003e0: f33d d3be 1ac0 013e be70 01bd 8a60 87be
000003f0: e116 a8be e7eb 4f3e b0ab c93d 5099 95bc

sage.layer2.fc_self.weight f4 [128, 64]
0.28434417 0.2630867 -0.45146647 -0.21619467 -0.19150048 0.9426952 0.5755533 -0.37649268
-0.5442109 0.5673213 1.7358688 0.10388391 0.7796721 1.0284612 -0.57157844 -0.12352423
-0.5554869 -0.41551816 0.12538478 0.26924065 -0.69931954 0.16647334 -0.1234046 -0.28115758
-0.03302532 0.17789166 -1.0124056 -0.24249011 0.24270734 0.19705977 1.0337635 0.8570773
-0.21249656 0.65319645 0.08179898 0.48921067 0.8535338 1.232756 0.017070126 -0.17042418
-0.6989046 -1.4326184 0.0519902 -0.11653348 -1.517419 0.07016599 0.33044216 0.31616798
0.43139422 0.31481826 -0.44712287 1.016814 1.3789579 -0.34223986 -0.2664506 0.32540402
-0.2936877 0.32969356 -0.1646301 1.4325492 -0.64335835 -0.5852488 -0.28101444 -0.6953355
-0.16346167 -0.03863521 0.11095743 -0.34887385 0.7316628 -0.21354415 -0.60406667 0.36530945
-1.4133569 -0.31271502 1.9292136 -0.86919343 0.48604688 0.11198761 -0.32418627 -0.6253581
0.38155898 0.4164369 0.11029222 -0.39249745 -0.4267748 -0.049837478 0.6405543 -0.047167744
0.24391288 -0.17027001 -0.26789978 -1.0448532 0.17702508 0.1272834 0.52533084 0.09261542
0.22254619 0.23891665 0.47320774 1.1908168 0.047731195 1.5287069 -0.12742671 -0.93277687
-0.65672934 -0.59854996 -0.07758619 0.03598162 -0.3060488 0.002970693 0.4512988 -0.18698923
-0.1342313 -0.71864295 -0.60247666 1.2341295 1.1974033 0.46447372 0.093932435 -0.7379094
-0.38431242 0.708405 -0.6679686 1.0770438 -0.01917645 -0.349367 -1.1501579 -0.12862709
0.31228775 0.049574696 -0.21536171 -0.5717197 0.6454413 0.6298042 0.6176565 0.43986055
0.5885526 -0.3675653 0.7410772 0.2213949 0.3047118 -0.086187296 -0.054854482 -0.18768474
-0.5529002 -1.3723842 -0.9802663 -0.22519882 0.31313044 0.94549656 -0.60261697 -0.036633335
0.2812069 -0.3313592 -0.441196 -0.7583054 -0.2957659 0.038143985 0.5619326 -0.28760642
-0.14639254 0.28979307 0.3484475 0.25053403 0.4029484 0.5474823 -0.15212275 -0.8841235
-1.3893785 -0.45608675 -0.12163773 -0.4471127 -0.8070303 -0.1540647 0.07594071 0.4594261
-0.43792453 -0.4149399 -0.676347 0.49701038 1.058685 0.15211648 -0.80656606 0.6845701
0.26545507 0.5581304 -0.63296497 0.8982398 -0.24529904 0.08365521 -0.24435759 -0.74874634
-0.12932348 0.05263619 0.20785148 0.67478496 0.101527765 -0.3494245 0.5207496 -0.8453329
-1.1778582 -0.59410757 -0.49821672 0.4283795 -0.8735767 -0.54390943 -0.5004998 0.52786374
0.3521542 -0.085616246 0.0091797 0.06399741 -0.21930628 -0.3333865 -0.038051423 -0.30236852
-0.053559843 0.43596625 0.17581953 0.63506055 0.12628901 -0.13606182 -0.05131085 -1.1633716
-0.3028218 -0.5507423 0.4327277 -0.94050336 -0.2278236 -0.47473866 -0.14736475 -0.2942866
0.6897846 -0.26416567 -0.28423563 -0.37227005 -0.07893131 0.99161184 -0.00385318 0.04831667
-0.92689514 -0.57646745 0.66946626 -0.8109945 -0.8954687 -0.37917617 0.14773785 -0.95277977
-0.92592 -0.29558128 -0.21581176 -0.8702391 -0.97934043 -0.3725021 0.35288495 0.44536525
00000000: 8f95 913e 4db3 863e 9d26 e7be 2362 5dbe
00000010: b418 44be 7954 713f 7657 133f a6c3 c0be
00000020: 6851 0bbf f83b 113f f330 de3f 16c1 d43d
00000030: 9798 473f 9ea4 833f f752 12bf 46fa fcbd
00000040: 6434 0ebf ccbe d4be de64 003e e9d9 893e
00000050: 9b06 33bf fd77 2a3e 8dbb fcbd e3f3 8fbe
00000060: 8f45 07bd 3b29 363e 8296 81bf 544f 78be
00000070: 4688 783e 09ca 493e 5d52 843f 6b69 5b3f
00000080: b398 59be e237 273f 3986 a73d d279 fa3e
00000090: 3181 5a3f f3ca 9d3f a6d6 8b3c ad83 2ebe
000000a0: 69eb 32bf 0a60 b7bf adf3 543d 1ba9 eebd
000000b0: c93a c2bf 30b3 8f3d b72f a93e c5e0 a13e
000000c0: b4df dc3e dc2f a13e 4aed e4be f626 823f
000000d0: b181 b03f 103a afbe 376c 88be 5b9b a63e
000000e0: 3c5e 96be 98cd a83e cb94 28be c65d b73f
000000f0: 22b3 24bf ded2 15bf 20e1 8fbe 8201 32bf
00000100: 7f62 27be f43f 1ebd a63d e33d 989f b2be
00000110: 414e 3b3f 51ab 5abe 1da4 1abf d709 bb3e
00000120: e1e8 b4bf 2f1c a0be 79f0 f63f 7683 5ebf
00000130: 23db f83e c359 e53d befb a5be 7817 20bf
00000140: b35b c33e 3837 d53e e3e0 e13d 6df5 c8be
00000150: 3a82 dabe 6222 4cbd 5efb 233f f732 41bd
00000160: 4cc4 793e 435b 2ebe 292a 89be c0bd 85bf
00000170: 1046 353e 9456 023e 157c 063f 27ad bd3d
00000180: 26e3 633e 91a6 743e 4948 f23e af6c 983f
00000190: c981 433d abac c33f 267c 02be 77ca 6ebf
000001a0: 6a1f 28bf 923a 19bf 82e5 9ebd 7761 133d
000001b0: 6eb2 9cbe f5af 423b a310 e73e 1b7a 3fbe
000001c0: ee73 09be fcf8 37bf e93b 1abf f5f7 9d3f
000001d0: 8344 993f 80cf ed3e a65f c03d a1e7 3cbf
000001e0: 99c4 c4be 085a 353f fdff 2abf 92dc 893f
000001f0: ee17 9dbc 3be0 b2be 6038 93bf d2b6 03be
00000200: 2ee4 9f3e d60e 4b3d c887 5cbe 395c 12bf
00000210: a43b 253f d93a 213f bd1e 1e3f 6735 e13e
00000220: 62ab 163f 8531 bcbe 3cb7 3d3f 58b5 623e
00000230: 2f03 9c3e f782 b0bd 18af 60bd 6e30 40be
00000240: de8a 0dbf 49aa afbf bbf2 7abf 859a 66be
00000250: a252 a03e 100c 723f 1b45 1abf d60c 16bd
00000260: 5afa 8f3e eaa7 a9be 71e4 e1be 4d20 42bf
00000270: a16e 97be de3c 1c3d d1da 0f3f 2641 93be
00000280: ede7 15be c25f 943e b667 b23e ff45 803e
00000290: 414f ce3e cd27 0c3f 11c6 1bbe eb55 62bf
000002a0: 28d7 b1bf 3484 e9be 341d f9bd f5eb e4be
000002b0: 8a99 4ebf 23c3 1dbe ce86 9b3d e639 eb3e
000002c0: a537 e0be 0173 d4be 1425 2dbf 2578 fe3e
000002d0: fd82 873f 6cc4 1b3e 1d7b 4ebf fc3f 2f3f
000002e0: bae9 873e a2e1 0e3f fe09 22bf 0bf3 653f
000002f0: ac2f 7bbe 6c53 ab3d e038 7abe d7ad 3fbf
00000300: 606d 04be 0c99 573d 05d7 543e b5be 2c3f
00000310: caed cf3d c5e7 b2be d94f 053f bd67 58bf
00000320: 0fc4 96bf 6f17 18bf 4316 ffbe 8f54 db3e
00000330: b9a2 5fbf a63d 0bbf c120 00bf 1422 073f
00000340: 8e4d b43e 9257 afbd 7466 163c 1311 833d
00000350: d391 60be a3b1 aabe cfdb 1bbd 0cd0 9abe
00000360: 9161 5bbd f836 df3e 090a 343e 5493 223f
00000370: e851 013e ca53 0bbe 532b 52bd 5ce9 94bf
00000380: 750b 9bbe 73fd 0cbf 7c8e dd3e d4c4 70bf
00000390: 974a 69be f210 f3be c9e6 16be bcac 96be
000003a0: b995 303f b940 87be 5587 91be 2e9a bebe
000003b0: bda6 a1bd 46da 7d3f a285 7cbb b3e7 453d
000003c0: 0049 6dbf 5f93 13bf 2462 2b3f 569d 4fbf
000003d0: 703d 65bf 6123 c2be 9748 173e 60e9 73bf
000003e0: 1809 6dbf 6e56 97be c2fd 5cbe fdc7 5ebf
000003f0: 0eb6 7abf 98b8 bebe 56ad b43e ea06 e43e

sage.layer2.fc_self.bias f4 [128]
-0.11891856 -0.018536538 0.09844401 0.14372711 0.0110064605 0.07731719 -0.03381442 -0.22318025
-0.10681512 0.06159172 -0.17405218 -0.017361522 0.057458106 -0.009171814 -0.087113015 0.025415117
0.09425902 0.062767744 -0.07905531 0.053764246 0.07672103 0.0754651 0.07396385 -0.010472894
0.050688993 0.0302748 0.054504566 0.08949786 -0.052551612 -0.010412983 -0.031058924 -0.13609959
0.15934028 -0.07709303 0.26553917 0.053477913 0.05365185 0.04622313 0.06408823 0.022790782
0.32671806 0.100742765 0.016650885 -0.09900849 0.08390064 0.16753663 0.07611866 0.04165956
0.02193476 -0.19037655 0.07168245 0.20992419 0.021751057 0.016999627 0.06188623 0.14025539
-0.011766332 -0.11484019 -0.073043935 -0.0424679 0.07014019 0.09457149 0.14402026 0.08240975
0.024521468 -0.12185388 0.06037187 0.023375154 -0.036469817 0.21742027 -0.1392945 0.09598819
0.04195578 0.009970348 -0.11186252 -0.061192323 -0.013652146 -0.021878317 -0.20287831 -0.017889384
-0.013078563 -0.1267609 0.050837286 -0.098808825 -0.05741068 -0.11398692 0.08983676 -0.050244812
0.005427038 0.07308289 -0.10987895 0.11180866 -0.041738015 -0.040272713 -0.0474133 0.037475012
-0.056198064 -0.010332683 0.005862633 -0.10994301 0.042603336 0.021240389 -0.102993764 -0.04636562
-0.094981395 0.12671271 -0.25920805 0.00075137685 -0.015136131 -0.17497869 0.013018749 -0.03266877
-0.06340103 -0.030937903 -0.117199 -0.06709926 -0.114688136 0.0070829345 -0.014522817 0.0008207156
0.090548106 -0.028606236 0.16558205 -0.08671368 0.219914 -0.022750594 -0.06774602 0.041746352
00000000: 938b f3bd f0d9 97bc 039d c93d 332d 133e
00000010: 7154 343c 7a58 9e3d fd80 0abd 5d89 64be
00000020: e3c1 dabd 9947 7c3d bc3a 32be c039 8ebc
00000030: 3159 6b3d 6045 16bc 4f68 b2bd 5d33 d03c
00000040: e00a c13d 608c 803d c0e7 a1bd e637 5c3d
00000050: ea1f 9d3d 728d 9a3d 5c7a 973d 8096 2bbc
00000060: 439f 4f3d db02 f83c 2e40 5f3d a74a b73d
00000070: 5c40 57bd 379b 2abc 496f febc b15d 0bbe
00000080: 192a 233e f3e2 9dbd c0f4 873e a80b 5b3d
00000090: 0bc2 5b3d 7754 3d3d b140 833d bcb3 ba3c
000000a0: 9747 a73e 3952 ce3d 7067 883c f7c4 cabd
000000b0: 19d4 ab3d b98e 2b3e 1ae4 9b3d 37a3 2a3d
000000c0: 87b0 b33c 12f2 42be 40ce 923d 5ef6 563e
000000d0: 462f b23c cd42 8b3c 6a7c 7d3d 1c9f 0f3e
000000e0: 93c7 40bc 5531 ebbd 0f98 95bd d2f2 2dbd
000000f0: a9a5 8f3d b3ae c13d 0c7a 133e 71c6 a83d
00000100: 3fe1 c83c 878e f9bd 7e48 773d 407d bf3c
00000110: 6061 15bd 6ba3 5e3e 38a3 0ebe 7595 c43d
00000120: d3d9 2b3d ac5a 233c 2d18 e5bd cda4 7abd
00000130: 40ad 5fbc 283a b3bc 55bf 4fbe c28c 92bc
00000140: 7847 56bc 9ccd 01be c23a 503d 485c cabd
00000150: 7627 6bbd f971 e9bd 56fc b73d 81cd 4dbd
00000160: 4bd5 b13b 7bac 953d 3708 e1bd f0fb e43d
00000170: 7bf5 2abd 00f5 24bd 7334 42bd 667f 193d
00000180: f12f 66bd 6a4a 29bc 551b c03b cd29 e1bd
00000190: d680 2e3d 5300 ae3c 65ee d2bd e0e9 3dbd
000001a0: 9b85 c2bd fac0 013e ebb6 84be 0cf8 443a
000001b0: 89fd 77bc 9d2d 33be 974c 553c b0cf 05bd
000001c0: 66d8 81bd 7c71 fdbc 0806 f0bd 566b 89bd
000001d0: 9de1 eabd f617 e83b 1cf1 6dbc 4b25 573a
000001e0: 4971 b93d a057 eabc 578e 293e f196 b1bd
000001f0: 2331 613e 745f babc 6dbe 8abd 39fe 2a3d
