Audit-log_Analysis/code/GNN/training/checkpoint_graphSAGE/best_model_GraphSAGE_transE_50.pt (torch, 294273 bytes, 12 tensors)

sage.layer1.fc_pool.weight f4 [50, 50]
0	0x3e14b77f	0.14523123
1	0x3f3b10ab	0.7307231
2	0x3e2f47f8	0.17117298
3	0x3e372041	0.17883398
4	0x3f1ba31e	0.6079577
5	0xbecf8e7f	-0.40538403
6	0x3f536a83	0.825844
7	0xbd90bec8	-0.07067639
8	0xbeebd09c	-0.46057594
9	0xbea78d0e	-0.32724804
10	0xbebd224a	-0.36940223
11	0xbf3f560f	-0.7474069
12	0x3dc28062	0.09497143
13	0x3f3522c4	0.70756173
14	0xbe89dd5e	-0.26926702
15	0xbeb65df2	-0.3561855
16	0x3f0ce0ec	0.55030704
17	0xbee931fd	-0.4554595
18	0x3f508570	0.8145361
19	0xbf0fea32	-0.5621673
20	0xbf80575b	-1.0026659
21	0xbe51090b	-0.20413606
22	0x3ddd6eb4	0.108121306
23	0x3ef87716	0.48528355
24	0xbe041472	-0.12898424
25	0xbe8aa366	-0.27077788
26	0x3e90eab0	0.28304052
27	0xbedceccb	-0.4314941
28	0x3e47c4a4	0.19508606
29	0xbefefe62	-0.49803454
30	0xbe8d8dc4	-0.2764722
31	0x3ea1e6aa	0.31621295
32	0xbf6b24fb	-0.918533
33	0xbe8c3032	-0.2738052
34	0xbe823b1b	-0.2543572
35	0xbf37e0fc	-0.71827674
36	0x3cd6d2e1	0.026223602
37	0x3eea8d98	0.45811152
38	0xbe006bb0	-0.1254108
39	0xbef9d30f	-0.48793837
40	0x3f0392dc	0.51395965
41	0x3db70896	0.089371845
42	0xbd83e7ff	-0.06440734
43	0x3eb04b09	0.34432247
44	0xbdbcaa49	-0.09212167
45	0x3ef974f6	0.48722047
46	0xbf22e8ab	-0.63636273
47	0xbeb1df38	-0.34740615
48	0x3ea305e0	0.3184042
49	0x3eeb22d5	0.45925012
50	0x3f59e25f	0.8511104
51	0xbd4b9d8a	-0.049710788
52	0xbd5aff79	-0.053466294
53	0x3ec8d2d9	0.39223364
54	0xbef168ce	-0.47150272
55	0x3e62c6a0	0.22146082
56	0xbf2d6c02	-0.6774293
57	0xbe9cc472	-0.30618626
58	0x3f081619	0.5315872
59	0xbd26baff	-0.040705677
60	0x3e815c75	0.25265852
61	0xbf4fd039	-0.811771
62	0xbcce6c0f	-0.02519801
63	0xbf17268e	-0.59043205
64	0x3f215af9	0.6302944
65	0x3dedf8e4	0.11619738
66	0xbe6e97bb	-0.23300068
67	0x3e2ce239	0.16883172
68	0x3e89b438	0.26895308
69	0xbe9a3b5d	-0.30123416
70	0x3edc1a8d	0.42989007
71	0x3f0e0071	0.55469424
72	0x3bda9e67	0.006671715
73	0xbecde986	-0.40217227
74	0xbee7bddd	-0.45262042
75	0x3e4d3265	0.20038755
76	0x3ecbac09	0.3977969
77	0x3be819c2	0.0070831487
78	0x3eb73bbb	0.35787758
79	0xbdeb6a51	-0.114948876
80	0x3d9f107a	0.077668145
81	0x3decec5c	0.115685195
82	0x3d8691c8	0.06570774
83	0x3cf088ab	0.029362043
84	0x3db4eb75	0.08833972
85	0xbefae555	-0.4900309
86	0xbf05dda9	-0.5229135
87	0x3e122630	0.1427238
88	0xbcf15cfa	-0.02946328
89	0x3ce2b9ef	0.02767655
90	0x3d641a5b	0.055689197
91	0x3dbb76ef	0.09153544
92	0xbcf3f92f	-0.029781906
93	0x3da72891	0.08162034
94	0xbe3ff57d	-0.1874599
95	0xbe39f589	-0.1816007
96	0x3e6796e0	0.22616148
97	0xbe085e63	-0.13317256
98	0xbed3b8dd	-0.41351977
99	0xbdc050f2	-0.09390439
100	0x3f355430	0.70831585
101	0xbf52dde0	-0.82369804
102	0x3e8f1384	0.27944577
103	0x3ee08a71	0.43855622
104	0x3f80a18d	1.0049301
105	0x3ecc136f	0.39858577
106	0xbdbc3c01	-0.09191132
107	0xbde6f211	-0.11276639
108	0x3ed19efc	0.40941608
109	0xbf1f9ec2	-0.6235162
110	0xbfaefbb6	-1.3670566
111	0xbf830767	-1.0236634
112	0x3f0f40e4	0.5595839
113	0xbe4cb5bc	-0.19991201
114	0x3f7263cd	0.94683534
115	0xbec7eaf6	-0.39046448
116	0x3ef20c62	0.47275072
117	0x3e9625ac	0.29325616
118	0xbed006a6	-0.40630072
119	0xbd9103b1	-0.07080782
120	0x3e070742	0.13186362
121	0xbed06e09	-0.4070895
122	0xbf1d9316	-0.6155256
123	0xbf05989c	-0.5218599
124	0xbf22e1bf	-0.6362571
125	0x3f3131c1	0.69216543
126	0xbed1b78f	-0.40960357
127	0xbf1c5c81	-0.6107865
128	0xbf870d53	-1.0550941
129	0x3f22df70	0.6362219
130	0xbe238642	-0.15969184
131	0x3f05cccf	0.5226564
132	0xbf313748	-0.6922498
133	0x3f39464d	0.72372895
134	0x3d971417	0.07376879
135	0xbf6a2647	-0.91464657
136	0x3ddbc15e	0.10730241
137	0xbf685b1c	-0.9076402
138	0xbdf64ef5	-0.120267786
139	0xbe472065	-0.19445951
140	0xbe827cf2	-0.2548595
141	0xbf0f08be	-0.55872715
142	0x3dad5693	0.08463778
143	0x3eff49b0	0.49860907
144	0x3d947454	0.0724875
145	0x3ed4a9ad	0.41535702
146	0x3ec58b47	0.38582823
147	0x3efb722a	0.49110538
148	0xbf8abe3f	-1.0839309
149	0x3edfc938	0.43708205
150	0xbf774b56	-0.9659933
151	0x3eb8d352	0.36098725
152	0x3e4c24ee	0.19935963
153	0x3e9904d0	0.29886484
154	0x3f14d165	0.5813201
155	0x3f3b4309	0.7314916
156	0xb86e533e	-5.6821147e-05
157	0xbedd6351	-0.43239835
158	0xbf1b13ab	-0.60576886
159	0x3ec5d82c	0.3864149
160	0xbda08fe2	-0.078399435
161	0x3d5110b8	0.051041335
162	0xbf598493	-0.8496792
163	0xbd706909	-0.05869392
164	0x3d1cfbb1	0.03832597
165	0xbf09f226	-0.53885114
166	0x3e67e7f7	0.22647081
167	0xbf07bdac	-0.5302379
168	0xbe13b1f4	-0.14423352
169	0x3d8aed61	0.06783558
170	0xbdc9d549	-0.09855134
171	0x3d29e8d2	0.0414818
172	0xbedcd12f	-0.43128344
173	0x3ea54498	0.32278895
174	0x3f4b384c	0.7938278
175	0xbd8bf7e7	-0.06834393
176	0x3ed4040e	0.41409343
177	0x3f0ba86e	0.5455388
178	0x3dce9c36	0.100883886
179	0x3c0ea429	0.008706131
180	0x3de38800	0.11109924
181	0xbea15ebd	-0.31517592
182	0xbf341de9	-0.7035814
183	0x3f0ed0c3	0.55787295
184	0xbd626ab6	-0.05527755
185	0x3cdbb1db	0.026818207
186	0x3eafc46f	0.34329554
187	0xbcd0f6da	-0.025508333
188	0xbee35fc3	-0.44408998
189	0x3f2c61fb	0.67337006
190	0x3e1f4d58	0.15556848
191	0xbd3b4a2f	-0.045725044
192	0x3ebd94c6	0.37027568
193	0x3f55daba	0.83536875
194	0x3e403b71	0.18772675
195	0xbf0d24e1	-0.551344
196	0x3eb9772d	0.36223736
197	0x3e7a8239	0.24463739
198	0x3edb19fb	0.4279326
199	0xbde04885	-0.10951332
200	0x3e4e7005	0.2015992
201	0x3e974efa	0.29552442
202	0xbf3f64f7	-0.74763435
203	0xbf1cba60	-0.61221886
204	0xbe51e884	-0.20498854
205	0xbe380552	-0.1797078
206	0x3f3848e3	0.71986216
207	0x3ec4c07f	0.38428113
208	0x3ef670b5	0.48132864
209	0xbf1bf433	-0.60919493
210	0xbf691e79	-0.9106212
211	0xbef293ed	-0.47378483
212	0x3f6706d2	0.9024478
213	0x3f083119	0.5319992
214	0x3f0dc718	0.5538192
215	0xbde9e0c9	-0.114198275
216	0xbbfe1765	-0.0077542537
217	0xbf697a69	-0.9120241
218	0xbd4a73a5	-0.049426693
219	0xbe426e4c	-0.18987387
220	0xbf3d0dfe	-0.73849475
221	0x3ee97f7b	0.45605072
222	0x3f0981b1	0.5371352
223	0x3f53d652	0.827489
224	0xbf689163	-0.9084684
225	0x3f09b828	0.53796625
226	0x3dd4191c	0.10356352
227	0x3de57f7f	0.112059586
228	0xba10a5cd	-0.00055178703
229	0xbdcda1a8	-0.10040599
230	0x3ee1e1cf	0.4411759
231	0x3e8ecc63	0.2789031
232	0xbcbc3e56	-0.022978943
233	0xbf5540da	-0.8330208
234	0x3ee57c23	0.4482127
235	0xbefe6555	-0.49686685
236	0xbf49c948	-0.78822756
237	0xbf45b25a	-0.7722527
238	0xbf381ac7	-0.7191586
239	0xbf708e09	-0.9396673
240	0x3e8be7ee	0.27325386
241	0x3eaf90e4	0.3429023
242	0x3f4b1d99	0.7934204
243	0xbcdce341	-0.026963832
244	0x3e3ece49	0.18633379
245	0x3e972839	0.29522875
246	0xbf157c73	-0.5839302
247	0x3eb5f225	0.35536304
248	0xbe06ef27	-0.13177167
249	0x3e753396	0.2394546
250	0x3d8ac2c9	0.067754336
251	0x3e2b4224	0.1672445
252	0x3eb0e7ef	0.3455195
253	0xbe1587a8	-0.1460253
254	0x3e8df819	0.27728346
255	0x3ec83d5e	0.3910932

sage.layer1.fc_pool.bias f4 [50]
0	0x3d4b087b	0.049568634
1	0x3da4fc0f	0.08055889
2	0x3e3662a7	0.1781107
3	0x3d845866	0.06462173
4	0x3e08cbd0	0.13358998
5	0x3e0751ab	0.13214748
6	0x3db175e7	0.08665066
7	0x3e0ed0da	0.13946858
8	0x3d4854f8	0.048909158
9	0x3e467a12	0.19382504
10	0x3db0b626	0.08628492
11	0x3d9d6bbe	0.07686566
12	0xbcb1a330	-0.02168426
13	0x3dc05039	0.09390301
14	0x3d5f6669	0.054541025
15	0x3d5645d9	0.052312706
16	0x3d75c81c	0.060005292
17	0x3e095d1f	0.13414429
18	0x3d7180ee	0.058960848
19	0x3e6997a3	0.22811751
20	0xbe020f69	-0.12701191
21	0x3d857063	0.06515577
22	0x3e02a393	0.12757711
23	0x3d70d7d2	0.058799572
24	0x3e06a276	0.13147911
25	0x3db81584	0.08988479
26	0xbdd07e37	-0.101803236
27	0x3e109884	0.1412068
28	0x3d533324	0.051562443
29	0xbd8f0787	-0.069838576
30	0x3e51e553	0.20497636
31	0xbdfdd122	-0.123934045
32	0xbcf1d707	-0.029521478
33	0x3df7df42	0.1210313
34	0x3d191307	0.03737166
35	0x3d5518d6	0.05202564
36	0x3d56bbdc	0.05242525
37	0xbcdf05c8	-0.027224436
38	0x3d4f9bf2	0.05068583
39	0x3d1be401	0.03805924
40	0x3d0e40e6	0.03472986
41	0x3dce8370	0.100836635
42	0x3d6f1801	0.0583725
43	0x3dad513f	0.08462762
44	0x3e25c516	0.16188464
45	0x3dbbaf70	0.091643214
46	0x3e1b7610	0.15181756
47	0xbd0740f2	-0.03302092
48	0x3d057c85	0.032589454
49	0xbcd11547	-0.025522841

sage.layer1.fc_neigh.weight f4 [64, 50]
0	0x3ef972ab	0.48720297
1	0xbee2b3c6	-0.4427778
2	0xbf050482	-0.51960003
3	0x3ed3340d	0.4125065
4	0x3e8e9aa2	0.2785235
5	0xbec120da	-0.37720376
6	0x3e37f8f5	0.17966063
7	0xbea670a7	-0.32507822
8	0x3e19cdce	0.15019915
9	0x3e4b9048	0.19879258
10	0xbe76717e	-0.24066731
11	0xbd9ebeb6	-0.07751219
12	0x3e23965d	0.15975328
13	0xbea7cf76	-0.32775468
14	0x3e9010ce	0.2813782
15	0xbc9147c7	-0.017734421
16	0x3e9b22b9	0.3029993
17	0xbe12883a	-0.14309779
18	0x3f060ea4	0.5236609
19	0xbdc782da	-0.09741755
20	0x3c501a94	0.012701649
21	0xbf342ff4	-0.7038567
22	0x3e7a068c	0.2441656
23	0x3f20c31e	0.62797725
24	0x3e41bded	0.18920107
25	0x3e7335ce	0.23750994
26	0x3e56b6de	0.20968196
27	0x3d116724	0.035498753
28	0x3e7296ea	0.23690382
29	0x3e48ec13	0.19621305
30	0x3e2fcff1	0.17169167
31	0xbe23b2db	-0.15986197
32	0x3e2f5eff	0.17126082
33	0x3d847b18	0.06468791
34	0xbccca3ac	-0.024980389
35	0xbe0f8740	-0.14016438
36	0x3e40fbfd	0.18846126
37	0x3e14c7b6	0.14529309
38	0x3ea49f44	0.3215276
39	0x3e96e235	0.29469457
40	0xbe7bdc6b	-0.24595802
41	0xbd83e9ac	-0.06441054
42	0xbe303adb	-0.17209952
43	0x3f2c696a	0.6734835
44	0x3e515e61	0.20446159
45	0x3ee23d4c	0.4418739
46	0xbda87d65	-0.08227042
47	0x3e94514e	0.2896828
48	0x3eda9242	0.4268971
49	0x3e723d60	0.23656225
50	0x3eeab103	0.45838174
51	0xbde6c9ba	-0.11268945
52	0x3e8add20	0.2712183
53	0xbeacb311	-0.33730367
54	0x3e8fda4b	0.28096232
55	0xbd464fce	-0.04841595
56	0xbe2c7ccf	-0.16844486
57	0xbe446170	-0.19177794
58	0xbdb5f746	-0.08885054
59	0xbde2d0e4	-0.11074999
60	0xbe0994ff	-0.13435744
61	0x3edcc0ee	0.43115944
62	0x3c19b838	0.0093823
63	0xbdb93770	-0.09043777
64	0xbf2e8468	-0.68170786
65	0xbe2d058b	-0.16896646
66	0x3e28fa8b	0.16501825
67	0x3e9ed135	0.31018987
68	0x3e729ee1	0.2369342
69	0xbe8377da	-0.25677377
70	0xbd3e3a66	-0.04644241
71	0x3e591395	0.21198876
72	0x3ea00fee	0.31262153
73	0x3f49e95f	0.7887172
74	0xbe881042	-0.26574904
75	0xbef2508b	-0.47327074
76	0xbddff98a	-0.10936268
77	0xbb447d8c	-0.0029982058
78	0xbe5d5197	-0.21613155
79	0x3e9ea5dc	0.30985916
80	0x3e0bf5a0	0.13667917
81	0x3d7b3c58	0.061336845
82	0xbd948dff	-0.07253646
83	0x3d025cd0	0.031826794
84	0x3e9a76c3	0.30168733
85	0x3e8ba0d6	0.27271146
86	0xbe2ca0ac	-0.16858166
87	0xbdbde0fd	-0.09271429
88	0x3eeb061f	0.45903108
89	0x3eb3237d	0.34988013
90	0x3f0803dc	0.5313089
91	0x3e01ce7f	0.12676428
92	0x3f2cb8c2	0.6746942
93	0x3e9d1011	0.3067632
94	0xbe236c1a	-0.15959206
95	0xbde605a5	-0.11231545
96	0x3cb7fbc2	0.022458915
97	0xbe284d2c	-0.16435689
98	0x3f2d68fe	0.6773833
99	0x3dde7e8d	0.108639814
100	0x3e939dde	0.2883138
101	0xbeb4088b	-0.35162768
102	0x3eaf82b5	0.3427941
103	0x3e9ca966	0.3059799
104	0xbdaa326b	-0.08310398
105	0x3bef867d	0.0073097334
106	0x3e8a02d9	0.26955298
107	0x3decddff	0.1156578
108	0xbe4c4d2d	-0.19951315
109	0xbe82aa6b	-0.25520644
110	0xbe5a74a9	-0.21333565
111	0xbeb035df	-0.344161
112	0xbe6efc08	-0.2333833
113	0xbe494f75	-0.19659217
114	0x3f0bc97b	0.5460431
115	0xbd93b017	-0.07211321
116	0x3e23f6b0	0.16012073
117	0xbe9f9d3b	-0.31174645
118	0x3ea3e3d7	0.32009766
119	0xbd6c4c78	-0.057690114
120	0xbe1ed3b1	-0.15510441
121	0xbe0485bd	-0.12941642
122	0xbdc8526e	-0.09781347
123	0x3ea47b8f	0.32125518
124	0x3e92b83d	0.28656188
125	0x3ed3c03e	0.41357607
126	0xbad02f7f	-0.0015883296
127	0xbc23cecb	-0.009998034
128	0x3e82a0d8	0.2551334
129	0xbd221423	-0.039569985
130	0x3ebd6110	0.36988115
131	0x3d8615e3	0.06547143
132	0x3e0c2770	0.13686919
133	0x3ea99b46	0.33126277
134	0x3ea6ce8e	0.32579464
135	0xbcaa57f4	-0.020793892
136	0xbeafccf6	-0.3433606
137	0xbe54162f	-0.20711587
138	0x3e1b2beb	0.15153472
139	0x3eb31e62	0.34984118
140	0x3e614f1e	0.22002837
141	0x3c50c3db	0.012742008
142	0xbdb4b4ce	-0.08823548
143	0xbdadf58b	-0.08494099
144	0x3ccb7cd5	0.024839798
145	0xbe10796e	-0.14108822
146	0xbb9b6992	-0.0047428096
147	0x3e93b63d	0.28849974
148	0xbd7a28fc	-0.061074242
149	0xbe841a5d	-0.25801364
150	0xbea7f2ea	-0.32802516
151	0xbe36dab7	-0.1785687
152	0x3ef80cf9	0.48447397
153	0x3d70a7b8	0.0587537
154	0x3ceb86d7	0.02875082
155	0x3e39c438	0.18141258
156	0x3e23766b	0.15963142
157	0x3d2b2073	0.041778993
158	0x3e2c21f1	0.16809823
159	0xbe95cce9	-0.29257897
160	0x3cf27d70	0.029600829
161	0xbe91e950	-0.28498316
162	0xbdfb84fb	-0.122812234
163	0xbe427c5e	-0.18992755
164	0xbf249749	-0.6429334
165	0x3e9e0522	0.3086329
166	0x3dcaf913	0.099107884
167	0xbd21a860	-0.039467216
168	0x3e89347b	0.26797852
169	0x3ee716a7	0.4513447
170	0x3e1ef301	0.15522386
171	0x3e612cdf	0.21989773
172	0xbd5aba31	-0.053400222
173	0xbe93d98c	-0.28876913
174	0x3eba95cf	0.3644242
175	0x3efb3b9e	0.49068922
176	0xbd90a147	-0.07062011
177	0xbd652c39	-0.055950377
178	0x3f2580fb	0.64649934
179	0xbe7bea30	-0.24601054
180	0x3ec46dce	0.38365024
181	0x3e9d0070	0.30664396
182	0xbe31a4d0	-0.17348027
183	0x3e784e53	0.24248628
184	0xbe1b8f44	-0.1519137
185	0xbb8c30a0	-0.0042782575
186	0x3eb6e328	0.3572018
187	0xbeb146da	-0.34624368
188	0xbf268699	-0.6504913
189	0x3f0f231e	0.5591296
190	0xbf04de28	-0.51901484
191	0x3ef6f298	0.4823196
192	0xbe58d891	-0.21176364
193	0xbf31febf	-0.69529337
194	0x3e88337d	0.26601782
195	0xbe68afe7	-0.22723351
196	0x3de54e69	0.11196596
197	0x3e9aca8e	0.30232662
198	0x3e819808	0.25311303
199	0x3d4615a6	0.04836049
200	0xbe74817d	-0.23877521
201	0x3eadd306	0.3395006
202	0xbe93c964	-0.28864586
203	0x3ef9270b	0.486626
204	0x3dc0eb15	0.09419838
205	0x3ea1502d	0.31506482
206	0xbf09688d	-0.53675157
207	0xbeae4549	-0.34037235
208	0xbe4e37bb	-0.20138447
209	0xbd2e361d	-0.042532075
210	0x3e0f4aa7	0.13993321
211	0x3e2af6be	0.16695687
212	0x3d7b1665	0.061300654
213	0xbeda3b80	-0.4262352
214	0xbefbc1b8	-0.49171233
215	0xbe2719b5	-0.163184
216	0xbe357753	-0.177213
217	0x3ddd2523	0.10798099
218	0x3f208fae	0.6271924
219	0x3cef14db	0.02918475
220	0xbd84e1be	-0.064883694
221	0xbe5f04d5	-0.21779187
222	0xbe323791	-0.1740401
223	0xbe03ddf9	-0.12877645
224	0xbeabcd4d	-0.3355507
225	0x3e9bc420	0.3042307
226	0xbe2f06c5	-0.17092426
227	0x3e851ecf	0.26000068
228	0xbe011e0d	-0.1260912
229	0xbe5c0580	-0.21486473
230	0x3e14924e	0.14508936
231	0xbe0eef36	-0.13958439
232	0xbd9b223c	-0.07574889
233	0xbc7427fd	-0.014902112
234	0x3adcd70c	0.0016848757
235	0x3d6a7093	0.057236265
236	0x3e9f73a2	0.31142908
237	0x3e81b496	0.2533309
238	0x3e9bfdb6	0.30467004
239	0x3e2bc806	0.16775522
240	0xbe8dc36b	-0.27688155
241	0x3eda1873	0.42596778
242	0x3edae519	0.42752913
243	0x3e3b68b1	0.18301655
244	0xbe161e66	-0.14660034
245	0xbdd5aa9c	-0.10432932
246	0x3e8f133e	0.27944368
247	0xbe2d3ee0	-0.16918516
248	0x3f25e29f	0.6479892
249	0x3ca93cb8	0.020658836
250	0xbe2761f7	-0.16345964
251	0x3eb3c2b0	0.35109472
252	0x3dd5caa2	0.1043904
253	0xbe13992d	-0.144139
254	0x3d1f374f	0.038871106
255	0x3c804fb6	0.01566301

sage.layer1.fc_self.weight f4 [64, 50]
0	0xbede46f2	-0.43413502
1	0x3ebc3b21	0.36763862
2	0xbea6661f	-0.32499787
3	0xbfafb75f	-1.3727835
4	0x3f209f64	0.6274321
5	0xbebd6c5f	-0.36996743
6	0xbc2ce9fe	-0.010553835
7	0x3f69a05f	0.9126033
8	0x3db83875	0.08995143
9	0x3f31e043	0.6948282
10	0x3ed32eac	0.41246545
11	0xbde2f897	-0.11082571
12	0xbf0916c5	-0.5355037
13	0x3e9474a0	0.28995228
14	0xbfa4082b	-1.2814993
15	0x3f9b8a08	1.2151499
16	0xbf59bec5	-0.85056716
17	0xbf05184c	-0.519902
18	0xbec31eae	-0.38109344
19	0x3f13c03c	0.577152
20	0x3e54b7a2	0.20773175
21	0xbeb07f9b	-0.34472355
22	0xbd0a4f53	-0.033767056
23	0x3f1d1aee	0.61369216
24	0x3e1130d1	0.14178778
25	0x3e26fbe6	0.16307029
26	0xbf227df4	-0.6347344
27	0x3f7b2a76	0.98111665
28	0xbe17bc2e	-0.14817879
29	0x3f0e620e	0.5561837
30	0x3f4e6138	0.80617094
31	0xbd917e68	-0.07104188
32	0xbf26ab5c	-0.65105224
33	0xbf792e97	-0.97336715
34	0x3e842f39	0.25817278
35	0x3fbf6e8e	1.4955614
36	0x3f34b170	0.7058325
37	0xbdba9dc4	-0.09112123
38	0xbe1d336a	-0.15351644
39	0x3f02bd92	0.5107051
40	0x3e42f3fc	0.19038385
41	0xbe8fca44	-0.28084004
42	0x3f84bfc6	1.0371025
43	0x3f436888	0.7633138
44	0x3f42dbfc	0.7611692
45	0x3decbf2a	0.11559899
46	0xbf7a49ae	-0.97768676
47	0xbde6ec9c	-0.112755984
48	0x3f1b9d85	0.6078723
49	0xbf013958	-0.50478125
50	0xbe83d93f	-0.25751683
51	0x3e6ab587	0.2292081
52	0x3d5ccc6e	0.053905897
53	0xbdfd695b	-0.123736106
54	0x3f16897b	0.5880353
55	0x3ddb5deb	0.10711273
56	0xbe205993	-0.1565917
57	0x3eaa26e8	0.33232808
58	0xbee6f157	-0.45106003
59	0xbed75193	-0.42054424
60	0x3e396cbd	0.18107887
61	0xbf407279	-0.7517467
62	0x3e8099fd	0.25117484
63	0x3e91df84	0.2849084
64	0x3ed7e8a4	0.42169678
65	0xbec9e21a	-0.39430314
66	0xbd5f916d	-0.05458205
67	0xbf1c520a	-0.6106268
68	0xbd758ab0	-0.059946716
69	0xbde51568	-0.111857235
70	0xbef1d55f	-0.47233102
71	0x3dce5c8d	0.100762464
72	0x3e017f2a	0.12646165
73	0x3e985d2f	0.29758593
74	0xbec63c99	-0.38718107
75	0x3e192e9e	0.1495919
76	0x3ea9e282	0.33180624
77	0xbe0b278d	-0.13589306
78	0xbe9371cd	-0.2879776
79	0x3e9b6a0a	0.3035434
80	0x3ed559dc	0.4167012
81	0x3f2a2cef	0.66474813
82	0xbe863a42	-0.26216322
83	0xbea83a94	-0.32857192
84	0x3e579918	0.21054494
85	0x3d598643	0.053106558
86	0x3efca232	0.49342495
87	0x3e4abbdb	0.19798224
88	0xbe8700cb	-0.26367792
89	0xbf0dc6b7	-0.5538134
90	0x3ead20d6	0.33814114
91	0x3d22c3e4	0.039737597
92	0x3e9f3159	0.31092337
93	0x3e951d56	0.29123944
94	0x3f1f0b23	0.6212637
95	0x3e25a1d5	0.16175015
96	0xbf417140	-0.7556343
97	0x3d8b45b6	0.06800406
98	0x3eda3f1d	0.42626277
99	0x3f0de3f6	0.55425966
100	0xbf3b900f	-0.7326669
101	0x3f1e65ef	0.6187429
102	0x3f1897c6	0.5960659
103	0x3e91ba41	0.28462413
104	0x3f93afdc	1.1538043
105	0xbdc9368a	-0.098248556
106	0x3f0d0a58	0.5509391
107	0x3f41b46c	0.75665927
108	0xbf0e3cfc	-0.55561805
109	0xbf872164	-1.0557065
110	0xbf453dda	-0.77047503
111	0xbcc21e23	-0.023696011
112	0x3ecf2d69	0.40464333
113	0x3f327ddc	0.69723296
114	0xbefb2da6	-0.49058264
115	0x3eab30d0	0.33435678
116	0x3f1f6b78	0.6227336
117	0x3f1868f5	0.5953515
118	0x3f6b29ab	0.91860455
119	0xbf36b4d0	-0.7136965
120	0xbe95b149	-0.2923682
121	0xbed12446	-0.40847987
122	0xbe63618c	-0.2220518
123	0xbf14fc15	-0.58197147
124	0x3e8d7277	0.27626392
125	0xbfaed0ed	-1.3657509
126	0xbf1509dc	-0.5821817
127	0xbf1fa642	-0.62363064
128	0xbf778476	-0.96686494
129	0xbe8fe8e3	-0.28107366
130	0x3dd0861b	0.101818286
131	0x3e7da374	0.24769384
132	0x3f0ff685	0.56235534
133	0x3e84691d	0.25861445
134	0x3e22c6e5	0.15896185
135	0x3e373094	0.17889625
136	0x3d94e944	0.072710544
137	0xbbedc4ba	-0.0072561176
138	0x3f28e56b	0.65975064
139	0xbe137de0	-0.14403486
140	0xbeafb0c8	-0.3431456
141	0xbde23e3f	-0.11047029
142	0x3f02d8f8	0.5111232
143	0x3f1e8770	0.6192541
144	0x3f5689c6	0.83803976
145	0x3ed3a40c	0.41336095
146	0xbf2e2b61	-0.6803494
147	0x3efca1af	0.49342105
148	0xbf0263ff	-0.5093383
149	0xbe4aeb45	-0.1981631
150	0xbf6d2b71	-0.9264441
151	0xbedf739d	-0.43642893
152	0x3e9ddcad	0.30832425
153	0x3f6db229	0.92849976
154	0x3e0d5573	0.13802128
155	0x3f17684f	0.5914354
156	0x3ca65c92	0.020307813
157	0xbf1a9052	-0.60376465
158	0x3ecb8461	0.39749435
159	0x3da787ad	0.08180175
160	0xbf0ccd99	-0.5500122
161	0x3e484c9d	0.19560476
162	0xbec41c5a	-0.3830288
163	0xbef7b758	-0.48382068
164	0x3f7e63ea	0.99371207
165	0xbf6ecb69	-0.9327913
166	0xbedce73d	-0.4314517
167	0x3d83599f	0.06413578
168	0x3f5116a2	0.8167516
169	0xbf3cfec2	-0.7382623
170	0x3e934c57	0.2876918
171	0x3f273d73	0.6532814
172	0x3eac859d	0.3369569
173	0xbc752131	-0.014961527
174	0x3e3d3da6	0.18480548
175	0x3e902ffb	0.28161606
176	0xbebd7fc5	-0.37011543
177	0x3ccd3612	0.025050197
178	0x3dfc4551	0.123179086
179	0x3dd62eb8	0.1045813
180	0x3e0c47ba	0.13699237
181	0x3e5c9fb5	0.21545298
182	0x3f425ef1	0.7592612
183	0x3eb8c515	0.36087862
184	0xbea02ef8	-0.31285834
185	0x3f0ca954	0.54945874
186	0x3ed9b109	0.4251788
187	0xbf25177b	-0.64488953
188	0x3d32da21	0.043665055
189	0x3dc9de7f	0.09856891
190	0xbf1e0f70	-0.61742306
191	0xbd9af601	-0.07566453
192	0x3f4d1878	0.8011546
193	0xbf189036	-0.5959505
194	0x3f69f696	0.91391885
195	0xbf0d68d3	-0.55238074
196	0x3fa364a3	1.2765087
197	0xbf454f6d	-0.7707432
198	0xbf0bd2e8	-0.5461869
199	0x3e4d3d7e	0.20042989
200	0xbed0f7dc	-0.40814102
201	0x3d1d546d	0.038410593
202	0x3ea20930	0.31647635
203	0x3f350f4b	0.7072646
204	0x3ec52d18	0.38510966
205	0x3f29abeb	0.6627795
206	0x3e88978e	0.26678127
207	0x3e03704c	0.12835807
208	0x3ef215cf	0.47282264
209	0xbe17b9b1	-0.1481693
210	0x3ee70df5	0.45127836
211	0x3d7c7d1d	0.061642755
212	0xbf17c02f	-0.59277624
213	0x3ec186fe	0.37798303
214	0x3f8d6a9e	1.1048162
215	0xbf029c37	-0.51019615
216	0xbf26c1d9	-0.6513954
217	0xbf89d110	-1.0766926
218	0x3f9f3c45	1.2440268
219	0xbf021752	-0.50816834
220	0x3f3a1588	0.72689104
221	0x3f43692f	0.7633237
222	0xbeb7946f	-0.35855433
223	0x3efa2626	0.4885723
224	0xbf0322c1	-0.51224905
225	0xbd505740	-0.050864458
226	0xbf125ef4	-0.57176137
227	0x3ee5a2aa	0.44850665
228	0xbd6f95be	-0.058492415
229	0xbd3aaec4	-0.045576826
230	0x3dff2691	0.12458528
231	0x3e3032d9	0.17206897
232	0x3eefee45	0.46861473
233	0x3d686c07	0.056743648
234	0x3cd52564	0.026018806
235	0x3dee3066	0.11630325
236	0x3ccae88e	0.024769094
237	0x3dbba906	0.09163098
238	0xbf3009be	-0.68764865
239	0xbe2edde5	-0.17076834
240	0x3e2efde8	0.17089045
241	0x3e8739ad	0.2641119
242	0x3f37664b	0.7164046
243	0x3dc291d1	0.095004685
244	0xbed97b5d	-0.4247693
245	0xbe00c3aa	-0.1257464
246	0x3f5b9cea	0.85786307
247	0x3cf5e87d	0.030018086
248	0xbeec4988	-0.4614985
249	0xbe6bd079	-0.23028745
250	0xbb3c3955	-0.0028720696
251	0xbeb97270	-0.3622012
252	0x3ddb5d03	0.107111
253	0x3ed61e9e	0.41820234
254	0xbe601d7f	-0.21886252
255	0xbe2b610a	-0.16736236

sage.layer1.fc_self.bias f4 [64]
0	0x3e2bfec2	0.16796401
1	0x3da9fc3d	0.08300064
2	0x3db90859	0.09034795
3	0x3d8ef159	0.06979627
4	0x3dd3d444	0.10343221
5	0x3dde309d	0.10849116
6	0xbda1d994	-0.07902828
7	0x3dace7ef	0.08442675
8	0x3e5da8f8	0.21646488
9	0x3e0cf8a7	0.13766728
10	0x3dd6b9ea	0.10484679
11	0x3d9271e3	0.071506284
12	0xbda76f0b	-0.08175477
13	0xbe18ea8b	-0.14933221
14	0xbe185816	-0.14877352
15	0x3daf1b5b	0.085501395
16	0x3d6fe8f9	0.05857179
17	0x3d8f0a14	0.06984344
18	0x3d9aed7f	0.0756483
19	0x3da98747	0.08277755
20	0xbdb363a8	-0.08759242
21	0x3d954e4b	0.07290324
22	0x3dbb7227	0.09152632
23	0x3e1c0466	0.15236053
24	0xbd4e72b4	-0.05040236
25	0x3e023dee	0.12718937
26	0x3dbe4b30	0.09291685
27	0x3e09cf0d	0.1345789
28	0x3dda5a37	0.10661738
29	0x3da632e8	0.08115178
30	0x3dcaac40	0.09896135
31	0x3dc6d5be	0.09708737
32	0x3dd07475	0.101784624
33	0x3e1efce5	0.15526159
34	0xbdd6d020	-0.104889154
35	0x3dfa1dbf	0.12212705
36	0x3dd58219	0.10425205
37	0xbdc8cd6b	-0.09804805
38	0x3d95d110	0.07315266
39	0x3de94957	0.113909416
40	0x3dae1c4f	0.08501493
41	0x3d3b6c5b	0.045757633
42	0x3db82beb	0.08992752
43	0x3e3c13e0	0.18366957
44	0x3dab6f21	0.083708055
45	0x3d913cd1	0.07091678
46	0x3d9fc26b	0.07800754
47	0x3e2659b6	0.1624516
48	0x3de9872a	0.114027336
49	0x3df37795	0.11888043
50	0x3d710633	0.058843803
51	0x3d4a2109	0.04934791
52	0x3e5913b3	0.21198921
53	0xbd25eb12	-0.040507384
54	0xbdc0e3ef	-0.09418475
55	0x3dd6175e	0.10453676
56	0x3d68eb58	0.056865066
57	0x3e562730	0.20913386
58	0x3d3c4c30	0.045971096
59	0x3dc2923a	0.09500547
60	0xbcf17b5e	-0.029477771
61	0x3d5b897b	0.05359791
62	0xbdf2ac08	-0.118492186
63	0x3d5d91f9	0.05409429

sage.layer2.fc_pool.weight f4 [64, 64]
0	0xbdc3b10f	-0.095552556
1	0xbc982466	-0.018572044
2	0xbee4e8e7	-0.4470894
3	0xbe0b4b12	-0.13602856
4	0x3e617821	0.22018482
5	0x3edc7f12	0.43065697
6	0xbe31d768	-0.17367327
7	0xbea92da1	-0.33042625
8	0x3e09f7b3	0.13473396
9	0xbcada1c3	-0.021195298
10	0xbee4d38c	-0.44692647
11	0x3e381bb6	0.17979321
12	0x3ec80e6c	0.39073503
13	0x3eb6b0aa	0.3568166
14	0x3e830fac	0.25597894
15	0x3e93f132	0.28894955
16	0xbd714ee5	-0.05891313
17	0xbede707e	-0.434452
18	0x3e8cfc12	0.27536064
19	0x3e9a980f	0.30194137
20	0x3dc53a93	0.09630313
21	0x3e0602f2	0.13087061
22	0x3d95f7ea	0.073226765
23	0x3f00d181	0.5031968
24	0x3e11d424	0.14241081
25	0x3ce8f5c4	0.028437503
26	0xbe6c2072	-0.23059252
27	0xbdbca1ae	-0.092105255
28	0x3f02f0e5	0.51148826
29	0x3e65507c	0.22393984
30	0x3b81aa97	0.0039571035
31	0x3d2a8600	0.0416317
32	0xbdd690e4	-0.104768544
33	0x3e8680d7	0.26270172
34	0x3e8f24d6	0.2795779
35	0x3ee1484c	0.4400047
36	0x3ed27899	0.41107634
37	0x3e186d6f	0.14885496
38	0xbd9a2a0e	-0.075275525
39	0x3e2f972f	0.17147516
40	0x3ea5b47b	0.32364258
41	0x3c6a6724	0.014306817
42	0xbd93cf1a	-0.07217236
43	0xbe90f4d2	-0.28311783
44	0x3da21c4b	0.07915553
45	0x3edc5cb1	0.43039468
46	0x3e7db37d	0.247755
47	0xbe3e2340	-0.18568134
48	0xbeb4ad4f	-0.35288474
49	0xbe48f5c4	-0.19625002
50	0xbe713450	-0.23555112
51	0xbe1cede0	-0.15325117
52	0x3dfaddd7	0.12249344
53	0xbe2ad2f2	-0.16682032
54	0x3e110ff7	0.14166246
55	0x3d75765a	0.059927322
56	0x3ebe128c	0.37123525
57	0x3e97309d	0.29529276
58	0x3d5e9a23	0.054346215
59	0xbe78efff	-0.24310301
60	0x3e2a8ffa	0.16656485
61	0xbeb1c4bb	-0.34720406
62	0xbc0adb94	-0.008475203
63	0x3d9e4c9c	0.07729456
64	0xbe71600f	-0.235718
65	0x3e65f4b4	0.22456628
66	0x3e434506	0.19069299
67	0x3e53f573	0.206991
68	0x3ddd05a3	0.10792091
69	0xbeb0e8a2	-0.34552485
70	0x3e9ba10c	0.30396307
71	0xbe665239	-0.22492303
72	0x3edff37a	0.43740445
73	0x3ee84b8d	0.4537014
74	0x3d45d88b	0.048302215
75	0xbdc8200e	-0.09771739
76	0xbc129f98	-0.008949183
77	0xbe171af6	-0.14756379
78	0x3cdc6936	0.026905637
79	0x3e36ae27	0.17839871
80	0x3e540db1	0.20708348
81	0xbd39366a	-0.04521791
82	0xbdabe402	-0.083930984
83	0x3b687904	0.0035472522
84	0x3e895afe	0.26827234
85	0xbd1d17d6	-0.03835281
86	0x3d7b674d	0.061377812
87	0xbeb5fdec	-0.3554529
88	0xbd950f31	-0.07278288
89	0xbe4da28e	-0.20081541
90	0x3eb14505	0.3462297
91	0xbd9d37a9	-0.07676632
92	0xbe32dbba	-0.17466632
93	0x3eedb7f6	0.46429414
94	0x3e0bba56	0.136453
95	0x3e907fc2	0.2822247
96	0xbd016c82	-0.03159762
97	0x3dfaa67a	0.12238784
98	0x3e4b9635	0.19881518
99	0xbeba70b9	-0.36414126
100	0x3c5dffc8	0.0135497525
101	0xbdeeb236	-0.11655085
102	0xbcbf0f24	-0.02332265
103	0xbe949c68	-0.29025578
104	0xbee828e8	-0.4534371
105	0xbd7cc8ab	-0.06171481
106	0x3e638cb6	0.22221646
107	0x3f224e70	0.63400936
108	0x3cf84a32	0.030308817
109	0x3cc108f6	0.023563843
110	0xbc968800	-0.018375397
111	0x3db812fb	0.08987995
112	0xbe17c282	-0.14820293
113	0x3e5a92b6	0.21345028
114	0x3e01cc73	0.12675647
115	0xbed1dece	-0.409903
116	0xbe68a103	-0.22717671
117	0xbe0ac59b	-0.13551943
118	0xbdd3f2a4	-0.103490144
119	0xbe6a5e16	-0.22887453
120	0x3e464bc1	0.19364835
121	0xbe92047a	-0.2851904
122	0x3e82af32	0.25524288
123	0xbe813158	-0.2523296
124	0x3d7d5c92	0.06185586
125	0x3f161e18	0.5863967
126	0x3df455e2	0.11930443
127	0x3de51223	0.111851
128	0xbe622368	-0.22083819
129	0xbe184fab	-0.14874141
130	0xbdae6a80	-0.08516407
131	0x3e7d9119	0.24762382
132	0x3f026416	0.5093397
133	0x3ec33cab	0.38132223
134	0x3d6ceb24	0.057841435
135	0x3d9f9567	0.07792168
136	0x3ee5c6db	0.44878277
137	0xbe00beed	-0.12572832
138	0x3e847e22	0.25877482
139	0xbdfd4faf	-0.12368714
140	0xbbbc16de	-0.0057400307
141	0x3d6ced9e	0.057843797
142	0x3e6d8958	0.23196924
143	0xbeaaef84	-0.3338586
144	0xbf44c1d6	-0.7685827
145	0xbeda8e3e	-0.42686647
146	0xbe531af7	-0.20615755
147	0x3e160d6e	0.1465356
148	0x3d71f06d	0.05906718
149	0xbe8af2ba	-0.2713831
150	0x3d0d328c	0.034472033
151	0xbe272ad9	-0.16324939
152	0xbe381663	-0.1797729
153	0xbebb8fd5	-0.36633173
154	0xbc198976	-0.009371152
155	0xbdb6271d	-0.08894179
156	0x3e0a8e33	0.13530807
157	0x3e15b1a7	0.1461855
158	0x3eec0d9a	0.46104127
159	0x3e8dc1dc	0.27686965
160	0x3da08ea6	0.07839708
161	0xbe810329	-0.25197724
162	0xbd6988af	-0.057015117
163	0x3d35debf	0.04440188
164	0x3d29215a	0.041291572
165	0xbdb89ce0	-0.090142965
166	0x3da3316d	0.079684116
167	0xbec87701	-0.39153293
168	0x3ed921bd	0.42408553
169	0x3e8db070	0.27673674
170	0x3e0831e1	0.13300277
171	0xbd870165	-0.06592063
172	0xbea48f73	-0.32140693
173	0x3e8343e7	0.25637743
174	0xbf327908	-0.6971593
175	0xbd91e650	-0.07124007
176	0x3e056d07	0.13029872
177	0x3ea21751	0.31658414
178	0x3f1b4dbc	0.6066549
179	0xbf102900	-0.5631256
180	0xbe263e94	-0.16234809
181	0x3e9a7dcf	0.3017411
182	0x3e9b0c21	0.3028269
183	0x3e18f7f5	0.14938338
184	0xbf0a2a90	-0.53971195
185	0xbe3581e4	-0.1772533
186	0xbeb4ac5c	-0.3528775
187	0xbd9f0e1d	-0.07766364
188	0xbe43692f	-0.19083093
189	0xbe40e222	-0.18836263
190	0x3df05690	0.117352605
191	0x3e5506f1	0.20803429
192	0x3ea07264	0.31337273
193	0x3dd5261a	0.10407658
194	0xbeff56ec	-0.49871004
195	0x3e2189f4	0.15775281
196	0xbe153097	-0.14569317
197	0x3e404aac	0.18778485
198	0x3e3b9136	0.18317112
199	0xbc9fd5c7	-0.019511117
200	0xbe31a252	-0.17347077
201	0xbe6db14b	-0.23212163
202	0xbeca078d	-0.39458886
203	0xbdc94de8	-0.098293126
204	0x3d549ab6	0.051905356
205	0x3e67d272	0.22638872
206	0xbdfecfe6	-0.12441997
207	0xbddc481c	-0.10755941
208	0x3c8b938b	0.017038127
209	0x3d88be55	0.06676928
210	0x3e243720	0.16036654
211	0x3e7372c2	0.23774245
212	0x3ee2187a	0.441593
213	0x3e7b1656	0.24520239
214	0x3ed0f7d7	0.40814087
215	0x3eb1a437	0.34695598
216	0x3ec218ba	0.3790949
217	0x3ed9cc18	0.42538524
218	0xbc7a3dd5	-0.015273531
219	0x3ecea70c	0.40361822
220	0x3e8b3d1d	0.27195063
221	0x3ea2675b	0.3171948
222	0x3ecbc5d4	0.39799368
223	0xbe4badf8	-0.19890583
224	0x3e70dad4	0.23520976
225	0x3c7866aa	0.015161196
226	0xbd75cdf0	-0.06001085
227	0x3f096281	0.5366593
228	0xbc03c8b7	-0.00804346
229	0xbe015616	-0.12630495
230	0x3e810251	0.2519708
231	0xbe828483	-0.25491723
232	0xbcea71a5	-0.028618643
233	0x3e35ae5c	0.17742294
234	0x3d6c4470	0.057682455
235	0x3e8db169	0.27674416
236	0xbdcc6160	-0.0997951
237	0xbe3d39b6	-0.18479046
238	0x3e9084ab	0.28226218
239	0xbe20388e	-0.15646574
240	0xbe966ce7	-0.2937996
241	0x3d5cbbfd	0.053890217
242	0xbe088c2d	-0.13334723
243	0x3f521470	0.82062435
244	0xbe87bf1c	-0.26512992
245	0x3e55ffe2	0.20898393
246	0x3dc561f3	0.09637823
247	0xbea179cc	-0.31538236
248	0x3f2edb44	0.6830332
249	0xbc7fd85e	-0.015615551
250	0xbe08deb2	-0.13366202
251	0x3df4c9ca	0.11952551
252	0x3e5b391a	0.21408501
253	0xbefc90c1	-0.49329188
254	0x3e760e23	0.2402883
255	0x3ee879c6	0.45405406

sage.layer2.fc_pool.bias f4 [64]
0	0xbce73374	-0.028222777
1	0xb98b17e2	-0.0002652994
2	0x3e42620a	0.18982711
3	0x3d4c4c89	0.049877677
4	0x3b4d8cb7	0.003136439
5	0xbcc61bba	-0.024183143
6	0x3d858dc4	0.0652118
7	0x3e3fc3ad	0.18726988
8	0xbd9bcf0f	-0.07607853
9	0x3d0ff685	0.03514721
10	0x3dc7baf8	0.09752458
11	0x3d12dbef	0.035854276
12	0xbd157f9c	-0.03649865
13	0x3e05be51	0.13060881
14	0x3ca39336	0.019967657
15	0xbd138320	-0.036013722
16	0x3d8cc530	0.06873548
17	0xbd96f181	-0.07370282
18	0x3ca4c348	0.020112649
19	0x3e1d01a0	0.15332651
20	0x3db35dde	0.08758138
21	0x39653992	0.00021860588
22	0x3d9efa2b	0.077625595
23	0x3db4c870	0.08827293
24	0xbd9ad858	-0.075607955
25	0x3d8ec525	0.06971196
26	0xbc356c5f	-0.011073201
27	0x3d64f0f9	0.055893872
28	0x3c9b9111	0.018990071
29	0x3da856a6	0.08219652
30	0x3c72ef12	0.014827507
31	0x3d0c9514	0.03432186
32	0x3d6c81fd	0.057741154
33	0x3d4bd864	0.049766913
34	0x3e16a2e9	0.14710583
35	0xbdac7a29	-0.08421738
36	0x3ca81a71	0.02052042
37	0x3e0727c0	0.13198757
38	0x3e17fb26	0.148419
39	0x3d876727	0.066114716
40	0x3dd2f833	0.103012465
41	0x3da775c5	0.0817676
42	0xbcd3015a	-0.02575748
43	0x3e3e80e5	0.18603857
44	0xbdb4f76a	-0.08836253
45	0x3d8c2b2f	0.06844174
46	0xbc927a48	-0.017880574
47	0x3d56b88c	0.05242209
48	0x3e13dfd2	0.1444085
49	0x3c41e332	0.011833953
50	0x3d14416d	0.036195207
51	0x3e38554e	0.18001291
52	0x3e2a787e	0.16647527
53	0x3dff917f	0.12478923
54	0x3e03bc91	0.12864901
55	0x3d894706	0.06703
56	0x3e2a5f2f	0.16637872
57	0xbd6d0d1c	-0.05787383
58	0xbdd2f443	-0.103004955
59	0x3d8f2c60	0.06990886
60	0x3da91217	0.082554035
61	0xbd2e1a22	-0.04250539
62	0xbca52fef	-0.020164458
63	0x3e04dd51	0.1297505

sage.layer2.fc_neigh.weight f4 [128, 64]
0	0x3cf50aa9	0.02991231
1	0xbf0e746c	-0.55646396
2	0x3eb3f8de	0.35150808
3	0xbe5c6057	-0.21521126
4	0xbe5b2c16	-0.21403536
5	0x3ebd0942	0.36921126
6	0x3dc77964	0.0973995
7	0xbe33db0c	-0.17564029
8	0xbdcf17ee	-0.10111986
9	0x3e16571a	0.14681664
10	0x3d8074ab	0.06272253
11	0xbcc1f9c3	-0.023678666
12	0x3e86d562	0.26334673
13	0x3c9b3d27	0.018950058
14	0x3eaee027	0.3415539
15	0xbc8509fb	-0.01624011
16	0x3f03d96b	0.5150363
17	0xbd18a9b8	-0.03727123
18	0xbecca4c8	-0.39969468
19	0x3ee52008	0.44751
20	0x3da7e88b	0.08198651
21	0x3e8ef51f	0.27921388
22	0xbe390c62	-0.1807113
23	0xbd325b5d	-0.043544162
24	0xbc9e57dd	-0.019329006
25	0x3e759b52	0.23985031
26	0xbd926a8f	-0.07149231
27	0xbe5ef240	-0.21772099
28	0x3eb57c18	0.3544624
29	0xbeb65c54	-0.35617316
30	0x3e5de2ab	0.21668498
31	0xbea217e8	-0.31658864
32	0xbeab604d	-0.3347191
33	0xbe915db4	-0.28391802
34	0xbe535d82	-0.20641139
35	0xbe410cec	-0.18852586
36	0xbe52a11e	-0.20569274
37	0x3e2f0504	0.17091757
38	0xbe54c9c1	-0.20780088
39	0xbe1e1f9f	-0.1544175
40	0xbe0414c1	-0.12898542
41	0x3cf50937	0.02991162
42	0x3d59ecba	0.053204276
43	0x3de48689	0.11158473
44	0xbe3b451a	-0.18288079
45	0xbe09abc0	-0.13444424
46	0xbe9e811f	-0.30957887
47	0xbe66c734	-0.22536927
48	0x3e786627	0.24257718
49	0xbe6740ce	-0.22583315
50	0x3d7c198a	0.061547793
51	0x3cc8b77f	0.02450156
52	0x3e7b13dd	0.24519296
53	0xbcdd7f5d	-0.02703827
54	0x3da26d5b	0.07931014
55	0x3e6a9d7c	0.22911638
56	0xbdcd8c9f	-0.10036587
57	0xbe591f05	-0.2120324
58	0xbdfc5a32	-0.12321891
59	0x3e50be06	0.20384988
60	0xbeae6a03	-0.34065256
61	0x3e2ba741	0.16763021
62	0xbe69605b	-0.22790663
63	0x3e8c1e32	0.27366787
64	0x3e88808a	0.26660568
65	0xbe28cf4e	-0.1648533
66	0xbe9a9583	-0.30192193
67	0x3e97160d	0.2950901
68	0x3dcacef2	0.09902753
69	0x3c0e0e62	0.008670421
70	0x3d649930	0.055810153
71	0x3e709f12	0.2349818
72	0xbe840620	-0.25785923
73	0x3e70a1c9	0.23499216
74	0x3df3da57	0.119068794
75	0xbd99a9b5	-0.07503072
76	0xbdfa6ebd	-0.12228153
77	0x3e230161	0.15918495
78	0x3e5f1d7c	0.21788591
79	0xbdd38d7f	-0.103297226
80	0xbee6b2d1	-0.450583
81	0x3da6a6ed	0.08137307
82	0xbde8b65a	-0.11362906
83	0x3d81e41a	0.06342335
84	0xbe0bfc65	-0.136705
85	0xbe81b20d	-0.25331154
86	0x3df9675f	0.121779196
87	0x3c2a3c3f	0.01039034
88	0x3e28a845	0.1647044
89	0xbe47916e	-0.19489071
90	0x3ce9edab	0.028555712
91	0x3dd85a6b	0.10564121
92	0x3e19d317	0.1502193
93	0x3d9bc0cb	0.07605132
94	0xbea9641b	-0.33084187
95	0xbe00aec3	-0.12566666
96	0x3ec35567	0.38151094
97	0xbce19457	-0.027536554
98	0x3d11bf1e	0.035582654
99	0xbe7b4584	-0.24538237
100	0xbe1411b4	-0.14459878
101	0x3da7756a	0.08176692
102	0xbe16f2ac	-0.1474101
103	0x3db055aa	0.08610089
104	0xbe410e11	-0.18853022
105	0x3e131997	0.1436523
106	0x3d40e4aa	0.04709307
107	0x3d857e1b	0.06518193
108	0xbd4bb2af	-0.049730953
109	0x3e05625e	0.13025805
110	0x3df3ef9f	0.119109385
111	0xbe98606a	-0.29761058
112	0x3d9de3ca	0.07709463
113	0x3e11ea6e	0.14249584
114	0x3ec882c3	0.39162263
115	0xbe3ac62d	-0.1823966
116	0xbdd6acaa	-0.10482152
117	0xbe98432d	-0.2973875
118	0x3e073b26	0.13206157
119	0x3b27d3f0	0.0025608502
120	0x3c72c51c	0.014817502
121	0x3d60b7a6	0.05486264
122	0xbdebcd59	-0.11513776
123	0xbc5104fa	-0.012757534
124	0xbf4b4244	-0.7939799
125	0x3e144226	0.14478359
126	0xbd17b507	-0.037037876
127	0x3e6ecd9b	0.2332062
128	0xbe14a3d3	-0.14515619
129	0x3daa3a9d	0.08311961
130	0xbcead131	-0.028664203
131	0xbc4fa035	-0.012672474
132	0x3ee34bef	0.4439387
133	0x3ea52fd8	0.32263064
134	0x3dc37d61	0.095453985
135	0xbe775f33	-0.2415741
136	0xbd0d7bea	-0.034542
137	0x3d35d2ef	0.044390615
138	0xbd928fea	-0.07156356
139	0xbda2d3f1	-0.07950581
140	0x3d920d03	0.07131388
141	0xbe2e2911	-0.17007853
142	0x3ee042c0	0.43800926
143	0xbe5c0006	-0.21484384
144	0x3e9e71af	0.3094611
145	0xbe7e4df0	-0.24834418
146	0xbe498856	-0.19680914
147	0x3cc453b2	0.02396569
148	0xbd2446c6	-0.040106557
149	0x3e732485	0.237444
150	0xbe0ecd81	-0.13945581
151	0xbb5e3812	-0.0033907932
152	0x3d957b45	0.072989024
153	0x3dfd8921	0.12379671
154	0xbde6dc43	-0.1127248
155	0x3e953be9	0.2914727
156	0xbca06dc1	-0.019583585
157	0x3def4054	0.116821915
158	0x3c307e6e	0.010772331
159	0xbe939e1d	-0.28831568
160	0x3e41090e	0.1885111
161	0xbe941768	-0.28924108
162	0xbe50d54c	-0.20393866
163	0x3e88e513	0.2673727
164	0xbe6518ea	-0.22372785
165	0xbcc796aa	-0.024363834
166	0x3ce9c98c	0.028538488
167	0xbe8d7239	-0.27626207
168	0x3e1c8d32	0.15288237
169	0xbe052653	-0.13002901
170	0x3cfbb123	0.030724114
171	0xbdd585b8	-0.104258955
172	0xbe865d5f	-0.26243111
173	0xbea388cf	-0.31940314
174	0x3d055c40	0.03255868
175	0x3e4348bf	0.19070719
176	0x3d84df1a	0.06487866
177	0x3d0e1746	0.034690164
178	0x3db6b9f5	0.08922187
179	0xbe415cc1	-0.18883039
180	0x3e360db0	0.17778659
181	0xbebccbc3	-0.36874208
182	0x3d7bbad7	0.06145748
183	0xbe63793b	-0.22214215
184	0x3e2a3e73	0.16625385
185	0x3e3e6440	0.1859293
186	0x3e49f860	0.19723654
187	0x3cb0b063	0.021568483
188	0x3ec45080	0.38342667
189	0x3d8f1f5d	0.06988404
190	0x3e00d074	0.12579519
191	0x3d82b7fa	0.06382747
192	0xbd5a4b1f	-0.053294297
193	0x3d55203d	0.052032698
194	0x3e597c9f	0.21238945
195	0xbe2a8acc	-0.1665451
196	0xbe818b5d	-0.25301638
197	0xbd970dc6	-0.07375674
198	0xbcf5af1e	-0.029990729
199	0xbe0497d8	-0.12948549
200	0x3e3bf091	0.18353488
201	0x3dea0fa2	0.11428763
202	0xbe1c6f8d	-0.15276928
203	0x3dffbafa	0.12486835
204	0xbe0d74c8	-0.1381408
205	0xbd0cd8c0	-0.034386396
206	0xbece7e78	-0.40330863
207	0x3e11afe7	0.14227258
208	0x3c28e050	0.0103073865
209	0xbd70313b	-0.0586407
210	0xbe7ba425	-0.24574335
211	0xbd3d281f	-0.04618084
212	0xbbb3a2fb	-0.0054820753
213	0x3deac3e2	0.11463143
214	0x3eab7d18	0.33493876
215	0xbe756005	-0.2396241
216	0xbcb1e08f	-0.021713523
217	0xbe5cc79f	-0.21560524
218	0x3e221c73	0.15831165
219	0xbeb5de81	-0.3552132
220	0x3dd6b752	0.10484184
221	0x3d8b3c2a	0.06798585
222	0x3c7ea473	0.015542137
223	0xbd8ab345	-0.06772474
224	0xbe15d30a	-0.14631286
225	0x3e88dde8	0.267318
226	0x3e700adf	0.23441647
227	0xbc7e2b3d	-0.0155132385
228	0x3e0cec0e	0.13761923
229	0xbe66ca66	-0.22538146
230	0x3e5a8c6c	0.21342629
231	0x3e96309b	0.29333958
232	0xbcc47431	-0.023981186
233	0x3de35962	0.11101033
234	0x3eaaeec6	0.33385295
235	0x3dc29a19	0.09502048
236	0x3e74db58	0.23911798
237	0x3e31564c	0.17318076
238	0xbe688d88	-0.2271024
239	0xbe5e4bb3	-0.21708564
240	0x3e2ef551	0.17085768
241	0x3e0596fe	0.1304588
242	0xbec923b1	-0.39285043
243	0xbe4bdc13	-0.1990817
244	0x3da0adf7	0.07845681
245	0x3f08a690	0.53379154
246	0x3e7e48ed	0.24832506
247	0xbdff03d6	-0.124519035
248	0xbed1643d	-0.40896788
249	0xbd74def6	-0.059782945
250	0xbe4e3dbc	-0.20140737
251	0xbea24ac6	-0.31697673
252	0xbe6d5eee	-0.23180744
253	0x3d6121eb	0.054963987
254	0x3ec16a2e	0.3777632
255	0x3ce24520	0.027620852

sage.layer2.fc_self.weight f4 [128, 64]
0	0xbe30c612	-0.17263058
1	0xbe8d1876	-0.27557725
2	0x3e6139a4	0.21994644
3	0x3f04b73c	0.51842093
4	0x3da289c7	0.07936435
5	0xbd99132e	-0.07474361
6	0xbef478c0	-0.47748375
7	0x3e237591	0.15962817
8	0xbeaf46c7	-0.34233686
9	0xbea8e266	-0.32985228
10	0x3d97f861	0.074204214
11	0x3ea8d0c3	0.32971773
12	0xbd2ff24e	-0.04295569
13	0x3e3bda39	0.18344964
14	0xbed620a1	-0.4182177
15	0x3e1e52f9	0.15461339
16	0xbe6253da	-0.221023
17	0x3df4ae0a	0.11947258
18	0xbe973ea3	-0.29539976
19	0xbd9e2bc4	-0.077231914
20	0xbebc5d2a	-0.3678983
21	0x3eba4c9b	0.3638657
22	0xbda77c72	-0.08178033
23	0x3dfb555b	0.1227214
24	0x3cee8fbf	0.029121278
25	0x3e754a70	0.23954177
26	0x3d7ec8f2	0.062203355
27	0x3db8bae6	0.09020023
28	0x3edfefc5	0.43737617
29	0xbe429d57	-0.19005333
30	0x3d9efccf	0.07763063
31	0xbcb8b6fa	-0.022548188
32	0xbd05e37b	-0.032687645
33	0x3d6c0f23	0.057631623
34	0x3cc4408b	0.023956558
35	0x3e1006e2	0.14065126
36	0xbbf77c7e	-0.0075526824
37	0xbdfadbab	-0.122489296
38	0x3be158a6	0.006877023
39	0xbe4b22ea	-0.19837537
40	0x3ece9c49	0.4035361
41	0xbe82c155	-0.25538126
42	0xbf13b157	-0.57692474
43	0xbebf8dc2	-0.3741284
44	0x3f09941f	0.5374164
45	0xbe10d0c2	-0.14142135
46	0xbf1c4966	-0.610495
47	0xbde04657	-0.10950916
48	0x3ef4945f	0.47769448
49	0x3d222d20	0.039593816
50	0x3da85b9e	0.082205996
51	0xbeda5a69	-0.42647102
52	0x3ea5b127	0.3236172
53	0x3e086342	0.13319114
54	0x3e40bf49	0.1882297
55	0x3dba0ce6	0.090844914
56	0xbcbf994d	-0.02338853
57	0xbca56e84	-0.0201943
58	0xbe09c8fc	-0.13455576
59	0x3e033351	0.12812544
60	0x3a71e830	0.0009228019
61	0x3eee9644	0.4659902
62	0xbe1d3af5	-0.15354522
63	0x3ea944b0	0.33060217
64	0x3e3f0a66	0.1865631
65	0x3ea73c08	0.32662988
66	0xbede3abb	-0.43404183
67	0xba23cc59	-0.0006248407
68	0x3dd083fb	0.10181423
69	0x3f059f82	0.52196515
70	0x3e6ee561	0.23329689
71	0x3d934aad	0.07191978
72	0xbc858953	-0.016300833
73	0xbe071bdb	-0.1319422
74	0xbe91ec74	-0.28500712
75	0x3c8fb8d1	0.017544182
76	0xbe92d21e	-0.28675932
77	0xbeea8fc4	-0.4581281
78	0xbe801603	-0.25016794
79	0xbe3f5ee3	-0.1868854
80	0x3eff9494	0.49918044
81	0xbdaded15	-0.084924854
82	0x3db5e64b	0.088818155
83	0xbb970e8b	-0.004609888
84	0x3ee64895	0.4497725
85	0xbe122004	-0.14270025
86	0xbd8fff44	-0.0703111
87	0x3d8fc780	0.070204735
88	0xbd8d33dd	-0.06894658
89	0xbe181a7f	-0.14853857
90	0x3c83301d	0.016014153
91	0x3e12c855	0.14334233
92	0xbe68407a	-0.22680846
93	0xbee627cb	-0.44952235
94	0x3ec4f5da	0.3846882
95	0xbe713144	-0.2355395
96	0xbe2c0bba	-0.16801348
97	0x3d31a01f	0.043365594
98	0x3d8e3945	0.06944517
99	0x3e1aa375	0.15101416
100	0xbd8bc02e	-0.06823765
101	0x3d391f07	0.045195606
102	0x3e416833	0.18887405
103	0xbcd65f13	-0.026168382
104	0xbc46f1ce	-0.012142612
105	0xbe9181ca	-0.28419334
106	0x3ec70d21	0.38877204
107	0x3ea336bb	0.31877694
108	0xbe8f1779	-0.27947596
109	0x3d40c331	0.04706115
110	0x3e93f639	0.2889879
111	0xbd61b0e7	-0.055100348
112	0x3dbbdc0f	0.09172832
113	0x3ec30055	0.3808619
114	0xbf12554d	-0.5716141
115	0x3f0a2ed4	0.53977704
116	0x3e17b8b7	0.14816557
117	0xbf16eedc	-0.5895822
118	0x3d11f8f7	0.035637822
119	0xbe477f16	-0.19482073
120	0x3dbdb590	0.09263146
121	0xbe6e919b	-0.23297732
122	0xbe627cce	-0.22117922
123	0x3bf6457c	0.0075156074
124	0xbd957c89	-0.07299144
125	0x3ebf6dd5	0.37388483
126	0xbe8fbccc	-0.28073728
127	0x3e915838	0.28387618
128	0xbd14600c	-0.03622441
129	0x3e0f3935	0.13986667
130	0x3e977e2e	0.29588455
131	0x3eb08b3e	0.34481233
132	0xbe323318	-0.17402303
133	0xbeadd399	-0.339505
134	0x3e009886	0.12558183
135	0x3f7fbed3	0.9990055
136	0xbf266eab	-0.65012616
137	0xbcdbb129	-0.026817875
138	0x3f78d9a2	0.9720708
139	0x3d979a8c	0.07402524
140	0xbe602b14	-0.21891433
141	0x3d190599	0.037358854
142	0x3e6c425f	0.23072194
143	0x3ecba909	0.397774
144	0x3e59052c	0.21193379
145	0x3d3f9be5	0.046779532
146	0x3b4d85cf	0.0031360274
147	0xbead6453	-0.33865604
148	0x3e80624d	0.25074998
149	0xbd40a886	-0.047035716
150	0x3e478017	0.19482456
151	0xbe26a16f	-0.1627252
152	0x3edb8747	0.42876646
153	0x3e4c07c5	0.19924839
154	0x3ed9d0c3	0.42542085
155	0x3d1b4e04	0.0379162
156	0xbdddaa90	-0.10823548
157	0x3e83244d	0.25613633
158	0xbf07e2d3	-0.5308048
159	0xbd4b802e	-0.04968279
160	0xbd85b60d	-0.06528864
161	0xbd130e90	-0.03590256
162	0x3cd1be40	0.025603414
163	0xbe171c4d	-0.1475689
164	0x3de11463	0.109902166
165	0xbd657d2c	-0.056027576
166	0x3e006674	0.12539083
167	0x3f93e5a0	1.1554451
168	0xbeb5d781	-0.3551598
169	0xbeb74e0f	-0.3580174
170	0xbe930573	-0.28715095
171	0xbc375160	-0.011188835
172	0x3ec18cad	0.3780264
173	0xbcbee04b	-0.02330031
174	0xbd8ad2d8	-0.067784965
175	0x3caf5433	0.021402454
176	0x3e42f8ce	0.19040224
177	0x3e2885a9	0.16457237
178	0x3e2666a1	0.16250087
179	0x3e8f0430	0.27932882
180	0xbd41228b	-0.047152083
181	0xbeef69a8	-0.46760297
182	0x3d739a13	0.05947311
183	0xbeec4c38	-0.461519
184	0xbe2ab764	-0.1667152
185	0xbeb4d734	-0.35320437
186	0xbe4fa6f8	-0.20278537
187	0xbbe9f169	-0.007139374
188	0x3dcaf15e	0.099093184
189	0x3b0b937b	0.0021297622
190	0xbd869aa5	-0.06572465
191	0xbd395c50	-0.04525405
192	0xbe674539	-0.22585
193	0x3e286c09	0.16447462
194	0xbf1baca3	-0.608103
195	0xbeca77aa	-0.3954442
196	0x3e96e66f	0.29472682
197	0x3e70a30d	0.23499699
198	0x3ea300b4	0.31836474
199	0xbeb6607f	-0.35620496
200	0x3eb0878d	0.34478417
201	0xbd868c36	-0.06569712
202	0x3efcc194	0.49366438
203	0xbe1a1894	-0.15048438
204	0x3def0823	0.11671474
205	0x3ee0cd73	0.43906745
206	0xbe88b819	-0.26702955
207	0xbecb6ae9	-0.39730003
208	0xbc6d23c7	-0.014473862
209	0xbefadeee	-0.48998207
210	0xbe979f75	-0.29613844
211	0x3e16d3d5	0.14729245
212	0xbdc98721	-0.09840227
213	0xbf4ac948	-0.7921338
214	0xbdd98977	-0.106219225
215	0xbe10cb91	-0.14140154
216	0xbee13f63	-0.43993673
217	0x3eb73066	0.35779113
218	0xbf3128f5	-0.6920312
219	0x3e1427bf	0.14468287
220	0x3e01e418	0.12684667
221	0x3e02d82c	0.12777776
222	0x3e327be0	0.17430067
223	0xbe6b69fb	-0.22989647
224	0x3e088936	0.13333592
225	0xbe812c25	-0.25228992
226	0xbc0beda5	-0.008540546
227	0xbe43b4d6	-0.19111952
228	0xbc860a42	-0.016362313
229	0xbe1f7c49	-0.15574755
230	0x3ea1c7aa	0.31597644
231	0x3ee52623	0.44755659
232	0xbef4aae4	-0.4778663
233	0x3ec2e334	0.38063967
234	0x3e8580f2	0.2607494
235	0x3ea58964	0.32331383
236	0xbf36c15f	-0.7138881
237	0xbe2fe9b2	-0.17178991
238	0xbe947cef	-0.29001567
239	0x3e93a6e6	0.2883827
240	0xbf0355f0	-0.51303005
241	0x3e9cdc9c	0.30637062
242	0xbdab624f	-0.0836836
243	0xbec1a397	-0.37820122
244	0x3e9099b9	0.2824228
245	0x3f17eb80	0.5934372
246	0x3ecad3ce	0.3961472
247	0x3ed7080e	0.41998333
248	0x3c2a89cb	0.010408829
249	0x3eb6c031	0.35693505
250	0x3e62fd47	0.2216693
251	0xbd2a705e	-0.041611068
252	0xbf056372	-0.52104867
253	0xbe051b2b	-0.12998645
254	0x3e4502ab	0.19239299
255	0xbe7268a7	-0.23672734

sage.layer2.fc_self.bias f4 [128]
0	0x3cbac657	0.022799654
1	0x3d937c82	0.07201482
2	0xba0364df	-0.00050122844
3	0x3cc8b285	0.024499187
4	0xbc16ecf7	-0.00921177
5	0x3d4d58cf	0.050133523
6	0x3ca6c059	0.02035539
7	0x3e07d333	0.1326416
8	0x3c6d6822	0.014490159
9	0xbc56e211	-0.013115422
10	0xbd0783c5	-0.03308465
11	0xbd72970a	-0.059226073
12	0xbdf27403	-0.11838534
13	0xbc21f3cc	-0.009884786
14	0xbb80c5da	-0.0039298357
15	0x3c1b8c15	0.009493847
16	0xbc266e8e	-0.010158194
17	0x3cf246fb	0.029574862
18	0xbd07e720	-0.033179402
19	0xbd3bb003	-0.045822155
20	0xbdf0870b	-0.117445074
21	0xbd9534ec	-0.07285485
22	0xbdcf6b49	-0.10127885
23	0xbe0c2a24	-0.1368795
24	0xbccc4d78	-0.024939284
25	0xbbecb1c3	-0.0072233393
26	0xbcdf9f84	-0.027297743
27	0xbcb260f8	-0.021774754
28	0xbe019e42	-0.12658027
29	0xbcb75bb3	-0.022382593
30	0x3d8fad6b	0.07015499
31	0x3d52d03b	0.051468115
32	0x3e2989fb	0.16556542
33	0xbdbd674d	-0.09248219
34	0x3d90e0d8	0.070741355
35	0xbe1f2bb2	-0.15544012
36	0x3cd5922e	0.02607068
37	0xbcea8685	-0.028628597
38	0xbd88e196	-0.06683652
39	0x3c15c1f7	0.009140483
40	0x3c4105cf	0.01178117
41	0xbc0a6b6f	-0.008448466
42	0x3d5ecfb7	0.05439731
43	0x3e005200	0.1253128
44	0xbcd4ad75	-0.025961617
45	0xbd6557ae	-0.05599182
46	0xbc8ba8fd	-0.017048353
47	0x3d27415a	0.04083381
48	0xbdf8e4db	-0.12153026
49	0x3d127f3d	0.035765875
50	0x3d59da2e	0.053186588
51	0x3da1b26f	0.07895362
52	0xbc4ae7a9	-0.012384334
53	0xbd790771	-0.060798112
54	0x3d7a0ba4	0.061046258
55	0x3ca2991d	0.0198484
56	0xbdaaf84f	-0.08348142
57	0x3dcd6dfa	0.10030742
58	0xbd16e8b0	-0.036843
59	0x3dd270de	0.10275434
60	0x3c8bd281	0.01706815
61	0xbc7634f1	-0.015027271
62	0xbcc68a77	-0.024235947
63	0xbd172793	-0.036902975
64	0xbdd59b65	-0.1043003
65	0x3e05ae63	0.13054805
66	0x3d38c60c	0.045110747
67	0x3d070a3e	0.032968752
68	0x3c01acc7	0.0079147285
69	0x3c132881	0.008981825
70	0xbceba77d	-0.028766388
71	0xbb0a00c8	-0.0021057595
72	0x3dc390c4	0.09549096
73	0xbbf88391	-0.0075840433
74	0x3d0b1bd1	0.033962075
75	0xbe5221ff	-0.20520781
76	0x3c874231	0.016511055
77	0xbbab212e	-0.005222461
78	0xbe171124	-0.14752632
79	0x3caf3707	0.021388544
80	0xbd9ce6ea	-0.07661231
81	0xbc393b33	-0.011305618
82	0x3d0e0cb5	0.034680087
83	0x3dcc265a	0.099682525
84	0xbd20014c	-0.039063737
85	0xbd82aa82	-0.06380178
86	0xbd8832e0	-0.06650329
87	0x3e0bbd77	0.13646494
88	0x3d9c6b8f	0.07637703
89	0xbc2b435f	-0.010453074
90	0x3e0ab520	0.13545656
91	0xbc7ccbd4	-0.015429456
92	0xbd123710	-0.035697043
93	0x3d99e6ad	0.07514701
94	0xbdac8483	-0.08423712
95	0x3e373cbd	0.17894264
96	0x3c88c211	0.0166941
97	0x3cb04bc5	0.021520505
98	0xbd3d0f19	-0.046156976
99	0x3dce0f02	0.10061456
100	0x3dc73c3f	0.09728288
101	0xbc41c946	-0.0118277725
102	0x3dbcb04d	0.09213314
103	0xbd02e8aa	-0.031960167
104	0x3d90c884	0.07069495
105	0x3e3c3d1f	0.18382691
106	0x3cdd0a89	0.026982563
107	0xbcaafee6	-0.020873498
108	0xbd3ef80b	-0.04662327
109	0x3def07e8	0.1167143
110	0xbc68adeb	-0.0142016215
111	0xbd80f5cf	-0.06296884
112	0xbdc8322f	-0.09775197
113	0xbdeaca47	-0.114643626
114	0x3d718407	0.0589638
115	0xbdad576e	-0.084639415
116	0xbcc18fbc	-0.023628108
117	0xbd12280d	-0.035682727
118	0xbd9cc8d4	-0.076554924
119	0xbd3d1029	-0.04615799
120	0xbd1e90b6	-0.038712226
121	0x3d8c32d0	0.06845629
122	0xbd0320f0	-0.032013834
123	0xbdf1975b	-0.11796447
124	0x3d348872	0.044075437
125	0xbd892a43	-0.06697514
126	0xbbb1d97d	-0.005427538
127	0xbd6a0582	-0.05713416
