Audit-log_Analysis/code/GNN/training/checkpoint_graphSAGE/best_model_GraphSAGE_transH_50.pt (torch, 294273 bytes, 12 tensors)

sage.layer1.fc_pool.weight f4 [50, 50]
000000 ac f8 13 3e f8 f9 b3 3d c8 d1 6b be ba 5e f1 3e
       0.1445033 0.08787912 -0.23029244 0.47142583
000010 20 d3 b6 3e c9 3b 27 be cc 37 15 3e fa a7 86 3e
       0.3570795 -0.163314 0.14572066 0.2630003
000020 c1 85 f9 be 34 bd 5b 3e 82 38 26 3f a9 ec 2d bc
       -0.4873486 0.21458894 0.64929974 -0.010615506
000030 44 1a 1f be aa 60 05 3f 54 8e af 3d 75 67 ae be
       -0.15537363 0.5210062 0.08572069 -0.34063306
000040 fa b1 bf be 09 e4 73 bf 39 42 d7 be ca b4 1a bf
       -0.37440473 -0.9526983 -0.4204271 -0.6043211
000050 75 43 ee bc 66 de 96 bf fe 98 cb be 2a 5c bc be
       -0.0290849 -1.1786621 -0.3976516 -0.36789066
000060 a8 73 c6 be e0 d3 8d be 19 9c b6 3e eb d7 a2 be
       -0.38760114 -0.2770071 0.35665968 -0.31805357
000070 47 f9 7f be 0d 3d a9 3e 52 70 b7 bd 69 52 23 bf
       -0.24997436 0.3305439 -0.0895697 -0.6379762
000080 a1 35 01 3e d8 02 89 bf 54 fb 8f bd b9 ce 40 bf
       0.12618114 -1.0703993 -0.07030359 -0.75315434
000090 d6 bd c0 bc 9e 5b b9 3d 2b 04 ad 3e 30 06 cf be
       -0.02352802 0.09050678 0.33792242 -0.40434408
0000a0 96 f9 82 3e b8 03 75 be b7 e6 9e be 01 3d 08 3f
       0.25581044 -0.239272 -0.31035396 0.53218085
0000b0 d2 b0 48 3f 9a ca e7 bc 31 75 67 3e f5 3e 5a be
       0.78394806 -0.02829485 0.22603299 -0.21313079
0000c0 ce fc 05 3f 78 14 98 bd 1e c0 e0 3e fe 98 90 3e
       0.52338874 -0.07425779 0.43896574 0.28241724
0000d0 e6 57 40 3e 94 e0 e5 3c 47 60 7e 3e bd ee c5 bd
       0.1878353 0.028061189 0.24841414 -0.09664676
0000e0 89 db 1f be fc 2d f6 3d 93 9c b8 3e f8 79 8f bd
       -0.1561109 0.120204896 0.36056957 -0.070056856
0000f0 f5 c5 0d 3e 70 7f 13 bf 8b de 2a bd 3f 17 16 3e
       0.13845046 -0.5761633 -0.04171614 0.14657305
000100 e3 13 3a be 19 fb 46 3d 4d 26 7d 3b 17 36 81 bc
       -0.18171649 0.04857931 0.0038627565 -0.015772862
000110 9b ac f9 bd d4 11 d5 3e d2 36 99 be 4c 38 de bd
       -0.12191125 0.41615164 -0.29924637 -0.108505815
000120 5f 8b f2 bc dc 87 0d bf ce c7 0a be 22 75 ac 3e
       -0.029607473 -0.5528543 -0.13552782 0.33683115
000130 d8 c8 c0 3e a8 18 20 3e 93 73 8e 3d 1a c4 85 be
       0.37653232 0.15634406 0.06955638 -0.26126176
000140 a6 01 12 3e 10 8c 6e 3e 74 25 d0 bd c0 d7 b5 3d
       0.14258441 0.23295617 -0.101633936 0.08879042
000150 8a 9f 94 3e dd cc 9c 3f ba 47 82 bf 7e 36 ab 3e
       0.2902797 1.2250019 -1.0178139 0.33440012
000160 27 aa 07 bf 1f 8d 78 bd fb 78 d6 3e 1f bf 3c 3e
       -0.52994007 -0.06068146 0.41889176 0.18432282
000170 63 12 10 be 58 f5 c9 3e 63 f0 4a bd 57 df 5f 3d
       -0.14069514 0.39444995 -0.049545657 0.054656353
000180 84 15 78 be 88 f5 cf be 45 59 4e be 65 63 dc bd
       -0.24226958 -0.40617013 -0.20151241 -0.107611455
000190 b6 06 69 3e dd 72 a8 be f4 3b 31 be 2d 01 60 3e
       0.22756466 -0.32900134 -0.17308027 0.21875449
0001a0 73 b3 5f bd 76 a6 b4 3e ba a3 21 3f b4 72 23 3e
       -0.054614495 0.3528325 0.6314045 0.15961725
0001b0 b5 b1 0c 3e 08 dd d0 bd cc 34 dd bd e6 d0 7f 3a
       0.13739665 -0.10198408 -0.10801086 0.00097586063
0001c0 d9 a4 59 3d 2b 83 5a 3f fe 71 fc 3e 7f 49 13 bf
       0.053135727 0.85356396 0.4930572 -0.5753402
0001d0 31 8d 12 3b cf 0d 7e be c7 95 12 bf a8 e0 9e be
       0.0022361989 -0.24809955 -0.5725979 -0.31030774
0001e0 cf 73 e6 be 6b c9 8c be 5d 36 4b bf f4 bf 0b bf
       -0.4501023 -0.2749742 -0.79379827 -0.5458977
0001f0 93 de 12 bf 11 43 fd bc c1 54 79 3e 72 6f a1 3e
       -0.5737087 -0.030915769 0.24348737 0.3153034
000200 92 7b 0f bf b1 f1 12 be d9 a0 ee bd 33 37 37 3f
       -0.5604793 -0.1435001 -0.11651773 0.715686
000210 21 57 9b 3d 13 5b e0 be ee 49 68 3e 23 29 53 3f
       0.07584978 -0.43819484 0.22684452 0.82484645
000220 8c ec cf 3d a8 7d 94 3e ca 9d e1 bd 64 8a 58 3e
       0.101525396 0.29002118 -0.11016424 0.21146542
000230 1d f1 fc 3e b1 4e a4 be 68 47 17 be fb e5 09 3f
       0.49402705 -0.32091287 -0.14773333 0.5386655
000240 78 4f 0f 3b 04 30 0e 3f 2e 73 2e be 18 9e 8e be
       0.0021867435 0.55542016 -0.17036125 -0.2785499
000250 90 e7 99 3d d9 e3 55 be 2a 2f 21 bd 93 53 ba 3d
       0.0751487 -0.20887698 -0.03935162 0.09097972
000260 24 25 03 3f 89 93 ae 3d bf 4a 29 3f 32 7c 00 be
       0.5122855 0.08524234 0.6612968 -0.12547377
000270 17 d4 51 be 2d fb 19 bf 12 8d bd be 34 97 89 3e
       -0.20491062 -0.6014889 -0.3702169 0.2687317
000280 fa 5c 08 bf b8 ce 4d 3e d8 33 87 be d2 1a f4 be
       -0.5326687 0.20098388 -0.2640674 -0.47676712
000290 9d 6c 0f 3f 2e d7 da bd c7 3d 95 3f c4 a4 a4 bd
       0.56025106 -0.106855735 1.1659478 -0.08039239
0002a0 6c 10 a8 3d 11 e9 c9 be 39 6d b5 bd ad ea d8 3d
       0.08206257 -0.39435628 -0.08858723 0.10591636
0002b0 78 1a 4f 3f 18 7e 09 bf a9 9a a5 3e cf 2f c7 bd
       0.80899763 -0.5370803 0.3234456 -0.09725916
0002c0 3c a0 77 bd 17 cd 9b be 63 40 92 be 22 a5 fa bd
       -0.060455546 -0.3042991 -0.28564748 -0.12238528
0002d0 00 4d 64 be c4 dd 89 be eb dc 01 bf 60 f1 da 3e
       -0.22294998 -0.26927006 -0.5072772 0.4276228
0002e0 fb 7c c7 bd a5 57 71 bf 7d 4d 91 3f 36 e0 cc be
       -0.09740635 -0.9427436 1.1351773 -0.4001481
0002f0 9d 7b 28 be d1 86 d5 bd 24 9f 88 be 39 aa 1b 3e
       -0.16453405 -0.10426105 -0.26683915 0.15201654
000300 c9 e0 37 bd 18 44 a8 3e b2 49 d8 3e e0 83 17 bf
       -0.044892106 0.3286445 0.42243725 -0.591856
000310 78 4a 66 3e 9b cc 33 3f f5 35 dc be f5 9e 35 3d
       0.22489345 0.7023408 -0.43009916 0.044341046
000320 0e b8 1e be 73 68 40 bf d6 98 c0 be 44 9b 8e be
       -0.15499899 -0.75159377 -0.37616605 -0.27852833
000330 19 ca 59 3e cb 35 71 3c c9 14 4f 3d e5 0b a0 3e
       0.212685 0.014722298 0.05055693 0.31259075
000340 6d 0b c3 3e 5f 12 cb be 37 cb 59 be 44 ee 71 3d
       0.38094655 -0.39662454 -0.21268927 0.05906512
000350 06 d2 bb 3e 90 85 0c 3e 29 4a 1e be 8e e7 4e be
       0.36683673 0.13722825 -0.15457977 -0.20205519
000360 d3 2e 9d 3e 42 f8 e0 be 17 ea e4 bc 2e 50 2b be
       0.30699787 -0.43939406 -0.027943654 -0.16729805
000370 0a 4d 09 bf 3e 78 5e bd 40 c6 18 be 62 e5 b7 3e
       -0.5363318 -0.05431389 -0.14919376 0.35917193
000380 86 de 1a be 6a 9b bb be a7 fe 90 bd 31 7c 34 bf
       -0.15123948 -0.3664201 -0.07079821 -0.70502
000390 52 aa 2d 3e df d9 8b be 0e 11 f9 be f4 c6 45 3e
       0.16959503 -0.2731466 -0.48645824 0.19314176
0003a0 f8 75 1c bb b9 d9 1f bf ed 57 69 3e 22 52 34 3f
       -0.0023874026 -0.62441593 0.22787447 0.70437825
0003b0 ec 7f 5b be ed 53 84 be db 4c a3 be 75 8b 07 bf
       -0.21435517 -0.2584528 -0.31894574 -0.5294717
0003c0 77 b0 79 3e a6 ae 80 3e dd 82 5f 3e c8 7b 10 bd
       0.24383722 0.25133246 0.21827264 -0.035274297
0003d0 29 4d 82 bd 5e 49 bd bd 4c e7 b4 bc 71 52 20 3e
       -0.063623734 -0.09242509 -0.022082947 0.15656449
0003e0 9c 54 01 bd 89 33 f4 bc 45 6c 15 3e 6d bd c9 3e
       -0.03157483 -0.02980973 0.14592083 0.39402333
0003f0 12 c1 0e be 7d f2 71 be 1c d7 fa bc 7f e1 84 be
       -0.13940838 -0.23627658 -0.03062015 -0.2595329

sage.layer1.fc_pool.bias f4 [50]
000000 c9 9a 25 3a 4c ab 49 3d bd a0 61 3d ea c5 3c bc
       0.0006317315 0.049235627 0.055084933 -0.011521796
000010 d2 fd cb 3c d9 8c 35 3b f3 f5 20 3d 18 43 ea 3d
       0.024901304 0.002770236 0.039297055 0.11438578
000020 4f 59 ce 3c d9 30 72 3c f9 ab 97 3b 6f be 10 bd
       0.02518907 0.014782154 0.004628655 -0.03533786
000030 e7 eb 50 bc 4a 94 d0 bc 5e 00 ca 3c e8 5a 6d 3d
       -0.012751556 -0.025461335 0.024658378 0.057948023
000040 1a a3 d4 3b 0d 53 d1 3c 0e 54 ca 3c b3 99 ea 3c
       0.00648917 0.025552297 0.024698284 0.028637743
000050 73 ed 74 bc 94 3f 96 3c b0 f3 69 3c d3 9d 89 bc
       -0.01494919 0.018340863 0.014279291 -0.01679889
000060 bb 07 0d 3d 7a 03 0b 3b 8c bd 91 bd 56 d9 56 3c
       0.0344312 0.002121179 -0.07116231 0.01311334
000070 59 bc f3 3c d0 ea d9 bb 35 ad ab 3d f9 87 eb bc
       0.029752897 -0.0066503063 0.08382646 -0.02875136
000080 fb 91 2f bc e4 b7 34 3d 8c d1 24 bc 9e c6 5e bd
       -0.010715957 0.044120684 -0.0100597255 -0.054388635
000090 1f 99 f2 bb a6 c6 a4 3c d3 47 05 bd 1e b7 30 bd
       -0.0074035074 0.020114254 -0.0325392 -0.043143384
0000a0 e1 50 37 bc aa 2f 04 3d ca 1b 80 bc fa df ce 3b
       -0.011188717 0.03227202 -0.01563825 0.006313321
0000b0 c1 63 0d 3c eb 9f 04 3d ba df 9c 3d 93 37 91 3d
       0.00862974 0.032379072 0.0765986 0.07090678
0000c0 68 b8 e6 bc f1 c9 04 3d
       -0.028164104 0.03241915

sage.layer1.fc_neigh.weight f4 [64, 50]
000000 7a 40 a9 bd f2 ca 9c be 4e 6b e5 be 61 b1 1f 3f
       -0.08264251 -0.30623585 -0.4480843 0.62380034
000010 77 d6 5d 3d 98 2f 52 bf 42 81 a4 3c 6d cc 68 be
       0.054159608 -0.8210387 0.020081166 -0.22734232
000020 14 1e 51 be 5c c6 a7 3e 7f bc 19 be 53 58 94 be
       -0.2042163 0.32768524 -0.15013312 -0.28973636
000030 63 e1 c1 bd 2d 7d b2 be d6 04 11 3e 89 fa 1e bd
       -0.09466817 -0.34861127 0.14162001 -0.038813148
000040 a9 9d 51 be 88 53 40 bf 5a d5 30 bf ff 76 ae bc
       -0.20470299 -0.7512746 -0.6907555 -0.021296976
000050 d5 3d 8e be cf b6 ba bf c3 7c 41 3e c2 17 14 be
       -0.2778155 -1.4587039 0.18895249 -0.14462188
000060 ce 1c 98 3e a9 ce 9e 3e da 64 11 3e 63 f7 15 3e
       0.29709476 0.31017044 0.14198628 0.14645152
000070 00 e7 84 3e e9 82 93 3e 8f e7 13 3e 3b f7 45 3d
       0.2595749 0.28810814 0.14443801 0.04833148
000080 77 e2 95 bd cd 74 d1 bd 85 3c 39 be 5a ad 1b 3d
       -0.07318585 -0.10227356 -0.18089493 0.038007118
000090 fd 4a a2 bf 11 2e a5 be 4f 49 0e 3e 64 3a 32 be
       -1.2679135 -0.32261708 0.13895153 -0.17405087
0000a0 2d c4 65 bf cb 11 0b be 5d 84 c8 bd 49 99 c6 3e
       -0.89752465 -0.13581006 -0.09790871 0.38788822
0000b0 64 e9 03 3e 51 e8 ed 3e 9b bb 8a bd 77 da 1f 3f
       0.12882 0.46466306 -0.06774064 0.62442726
0000c0 df fd ae 3e 71 44 12 bf b7 cf 68 3e 62 1d 10 bd
       0.34178063 -0.57135683 0.22735487 -0.03518427
0000d0 e8 01 ce 3e e9 5f 49 3e 2d 7a e0 3c 49 f9 b6 3c
       0.4023583 0.19665493 0.027402008 0.022335665
0000e0 cf f2 89 3e bf 62 b7 bd af 1e b3 bc 33 e4 02 be
       0.2694306 -0.08954381 -0.021865217 -0.12782364
0000f0 0a db 3a be cb 5c 1c be 7b 36 5f be 6d 9f 11 bf
       -0.1824762 -0.15269773 -0.21798126 -0.5688389
000100 79 b4 64 be d1 b7 f5 3e 6f 67 24 3c 48 fd c9 3e
       -0.2233447 0.47991803 0.010034426 0.3945105
000110 0e 6a 44 3d cf 8a 01 3c 87 02 0d be 39 85 af 3e
       0.047952704 0.00790663 -0.13770495 0.34281328
000120 94 c3 a3 3e fe fa a6 bd 5c c3 a3 be f1 0d 7a bd
       0.31985152 -0.08153342 -0.31984985 -0.06104845
000130 3a 30 94 bd 00 b2 ec 3c cf ac a2 be ed 46 68 3e
       -0.07235761 0.02889347 -0.31772467 0.22683306
000140 41 e1 09 3e ac ef 04 bf 9a cf ef be d1 fa 2d 3e
       0.13464834 -0.5192821 -0.46838075 0.1699021
000150 28 53 4f 3d b1 56 53 bd 7f 9f 75 3e a1 e6 f7 3e
       0.050616413 -0.051596347 0.23986624 0.48418143
000160 33 ed 9d be 58 ea a7 3e d1 90 6e 3e b4 e3 e3 3d
       -0.3084503 0.32795978 0.2329743 0.11127415
000170 11 64 5a 3e e0 79 31 bf f7 7e 1e 3e 31 35 98 bd
       0.21327235 -0.6932659 0.1547812 -0.074320205
000180 e8 e3 33 3e e2 d0 a1 be d2 31 06 3f 54 bf 3e 3e
       0.17567408 -0.31604677 0.5241977 0.18627673
000190 4a 57 0d 3f 17 6e 82 be c3 4d a0 3e 2d 0b 74 be
       0.5521132 -0.25474617 0.31309327 -0.23832388
0001a0 93 0a aa 3d dc 29 3a be 2d d4 0e 3e 8d 31 c4 3d
       0.08302798 -0.1818003 0.13948126 0.095797636
0001b0 48 44 04 bd bf 4c 1f be b7 17 b8 be 77 da 4c bf
       -0.03229168 -0.1555662 -0.35955593 -0.8002085
0001c0 87 5b bc be 24 18 ef be 25 51 bf 3d 39 93 87 bd
       -0.3678858 -0.46698105 0.09341649 -0.06619877
0001d0 08 12 70 be c6 f9 a6 be f9 b3 9b 3e 1e fb 2d 3c
       -0.23444378 -0.32612437 0.30410746 0.010618953
0001e0 cb 85 5d be 72 a3 a5 bb 67 fb ab bd ad d7 4f be
       -0.21633069 -0.0050548846 -0.083975606 -0.20297118
0001f0 d9 72 a4 3e 5c 01 d2 3e 50 be 89 ba 88 92 09 3e
       0.32118872 0.41016662 -0.0010508988 0.13434803
000200 22 e7 a7 bd 85 64 e9 3d 07 ca d4 3e 8b e2 41 be
       -0.08198382 0.11396126 0.41560385 -0.18934076
000210 57 6e 98 be 98 e9 50 3e 62 e7 98 3d ef b6 c0 be
       -0.29771683 0.20401609 0.07466008 -0.37639567
000220 e3 0e 36 be 3f 42 75 be 35 59 f5 bd 83 85 ce 3d
       -0.17779116 -0.23951052 -0.119799055 0.10084059
000230 be eb 17 bd c8 61 64 3e 1c 67 30 be 80 ed ce 3d
       -0.037090056 0.22302926 -0.17226833 0.10103893
000240 d6 0d d2 3c ca 74 a9 bc bb d1 b5 3d 75 81 dc 3e
       0.025641363 -0.020685572 0.088778935 0.43067518
000250 e3 e5 88 bd 3d ea 8d be 3d 45 b0 be b3 2e 8a bd
       -0.066844724 -0.27717772 -0.34427825 -0.067471884
000260 ab 33 9c 3e f8 0e 27 bf 66 8d 45 3d 86 7a 57 3e
       0.3050817 -0.65257215 0.04823055 0.21042833
000270 e5 03 42 3e 34 6f 36 3e 93 92 9f 3e 56 9e 28 be
       0.18946798 0.17815858 0.31166515 -0.1646665
000280 07 f4 9c be 9b 80 35 bf b2 fc 81 be ee 6c a5 be
       -0.30654928 -0.7089936 -0.25388104 -0.3230967
000290 45 fd 37 be 4a 95 f3 3e e7 4b 0f bf ab d7 cb bd
       -0.17967708 0.47574836 -0.5597519 -0.09953245
0002a0 4a a7 57 3e c3 4b bb 3e 34 e4 91 3e 5f a8 35 be
       0.2105991 0.3658124 0.28494418 -0.1774001
0002b0 cc 21 6a bc 83 26 c1 bd 5c da d8 3e b6 c0 d0 3e
       -0.014290284 -0.09431174 0.42354095 0.40772027
0002c0 70 64 3f bd e7 a2 cb 3c 2d 3e 4c 3d c8 70 50 bf
       -0.046726644 0.024857951 0.049863983 -0.8142209
0002d0 f0 a9 c7 3e a6 d1 e9 3d ac f5 37 bf 39 6a 35 3e
       0.3899684 0.114169404 -0.7185924 0.17716302
0002e0 8e 5e ef 3e 04 d2 0a bf 5d 9c 93 3e 3b 76 67 be
       0.46751827 -0.5422671 0.28830233 -0.22603695
0002f0 e9 17 17 3e a9 1f 8c bb 41 6b cc be 37 25 a3 3e
       0.14755215 -0.004276235 -0.39925578 0.3186433
000300 30 41 26 be cb 7a 01 bf a8 0e 54 3e 95 f0 68 be
       -0.16235805 -0.5057799 0.20708716 -0.22748025
000310 0c 77 3e 3e 71 9f 03 be cc ec 2b 3e 5b 6a 10 3f
       0.186001 -0.12853791 0.1678955 0.56412286
000320 e6 7d 46 3b f5 1b 3b 3d 1d 8f 42 be c2 64 20 3e
       0.0030287444 0.04568096 -0.18999906 0.15663436
000330 76 f9 c9 bd fb 22 81 3e 26 93 71 be cf 1e 54 be
       -0.09862034 0.25222 -0.23591289 -0.20714878
000340 d4 97 51 be 03 7c c1 bc 63 90 a0 3e bf e0 b2 3e
       -0.20468074 -0.023618704 0.31360158 0.34937093
000350 d6 71 df 3d 64 70 aa bd a1 84 69 be 71 62 31 be
       0.10910384 -0.08322218 -0.228045 -0.17322709
000360 68 87 d5 3d 6d eb 19 3d a7 25 1d 3e 48 b6 01 3d
       0.10426217 0.037578035 0.15346394 0.031667978
000370 e0 03 cc 3d f1 bf d0 3b d7 64 ee bd 91 96 3a 3e
       0.099616766 0.0063705374 -0.116403274 0.18221499
000380 13 39 95 be 93 01 d4 3d 64 9d e7 bd 5c 37 9b 3c
       -0.29145107 0.10351863 -0.11309317 0.018947296
000390 d0 cb 4d bd 1a 52 d7 bd 22 3c eb bc bb 2d 4a be
       -0.0502432 -0.105137065 -0.028715197 -0.19744007
0003a0 ae 42 d0 3d 4f a2 d3 bd 2c 1d 8a 3d 9f 59 ad 3e
       0.10168968 -0.10333692 0.06743845 0.33857438
0003b0 9c d2 bf 3e af 81 c1 3e 69 c0 66 3e 92 02 75 3e
       0.3746537 0.37794253 0.22534336 0.23926762
0003c0 d7 6d 9f 3e f1 cc c2 b8 ea 59 b0 3d 29 47 20 3d
       0.3113849 -9.288814e-05 0.086109 0.039130364
0003d0 7a 40 e0 bd 1b 41 a4 be 5e 51 72 3c ae 91 19 be
       -0.10949798 -0.32080922 0.014789907 -0.14996979
0003e0 bb 42 d3 3e 31 0f 15 3e c8 9c 7c bd ea 7f da 3e
       0.4126185 0.14556576 -0.061672956 0.42675716
0003f0 dc de 66 3e d3 21 98 be 3b 3f 61 3d e5 95 b0 3c
       0.22545952 -0.29713306 0.054991942 0.02155585

sage.layer1.fc_self.weight f4 [64, 50]
000000 de 2a 0b be f1 6b 4f 3e f6 c1 8a bf cb 83 4e bf
       -0.13590571 0.2025602 -1.0840442 -0.8066985
000010 29 fb 2d 3f 51 a7 c2 be ed 4e 3e 3e eb f5 9f be
       0.67961365 -0.38018277 0.18584795 -0.31242308
000020 fd b5 22 3e f9 93 b6 3f c2 a0 ae be db c8 c7 3e
       0.15889736 1.4263908 -0.34107023 0.39020428
000030 5a d8 d5 bd 74 0b 26 bf 72 40 17 3e 47 8a e3 3e
       -0.104416564 -0.64861226 0.14770678 0.44441435
000040 36 02 20 3f ef 63 9b be bf 8b ca 3e be a3 3e be
       0.62503374 -0.3034968 0.39559743 -0.1861715
000050 3c 6d 1a bf d7 93 fe be e4 5a 8d 3f 9a 1a 8f bf
       -0.6032293 -0.49722168 1.1043363 -1.1179993
000060 e9 30 06 bf 2a 61 7a be f7 d4 7c 3d 8b 42 08 3c
       -0.5241838 -0.24451128 0.061726537 0.008316646
000070 5d 71 d3 3f 43 3d 9e 3f 6f 9d 55 3e d8 00 e8 3e
       1.6518971 1.2362446 0.20860837 0.45313144
000080 91 5b db be 3f 6b af be 2d 05 9d bd a8 d2 9c 3f
       -0.42843297 -0.3426151 -0.07667003 1.2251787
000090 27 f0 1c bf 39 b5 1e be 8b 98 cf bd a3 5a 45 3f
       -0.61303943 -0.15498818 -0.10136517 0.77091426
0000a0 b9 45 98 bf c0 31 fb be 92 0c 54 3e 6b d6 13 3d
       -1.1896278 -0.49061394 0.2070792 0.036093157
0000b0 1a 0e 00 3f 4b 89 c6 bf a3 6c 35 be 2f bd da be
       0.5002152 -1.5510648 -0.17717223 -0.4272246
0000c0 eb c5 82 be 22 95 23 bf 04 1a a1 bd c0 b5 ab bd
       -0.25541624 -0.63899434 -0.0786629 -0.083842754
0000d0 34 9d 05 3e 9d fd 82 3e e3 4e 41 3f 22 54 90 3f
       0.1304825 0.25584117 0.75510997 1.1275675
0000e0 79 75 29 bf 54 20 ac 3e 4d d6 3d 3e 21 0a 85 bf
       -0.66194874 0.33618414 0.1853878 -1.0393716
0000f0 ed 73 85 bf db c7 e2 3e cc e5 01 bf 60 23 76 3e
       -1.0426003 0.44293103 -0.5074127 0.24036932
000100 a0 a2 eb be 39 2d 38 bf 6b ea 31 3f 36 a2 af 3c
       -0.4602251 -0.71944004 0.6949832 0.021439653
000110 4b c0 0c 3e e1 b5 4b bf f3 a9 e3 be a9 8b 1a 3f
       0.13745229 -0.795744 -0.44465598 0.60369354
000120 40 f3 9e 3e bf 44 8d be 75 17 8d bf 2f bb e2 be
       0.3104496 -0.27591512 -1.1022784 -0.44283435
000130 15 b9 94 3d 3e 15 41 3f 11 cb 51 bf ca 82 03 3e
       0.07261864 0.7542304 -0.8195048 0.12842861
000140 1d 19 23 bf 7c 4e 4a 3e c6 aa e1 3d 1c 0c 2d be
       -0.63710195 0.19756502 0.110189006 -0.1689915
000150 7d 24 12 3e ff 3e 07 3f e2 bd 0c 3f 55 ef b3 3d
       0.14271732 0.528305 0.5497724 0.08785883
000160 2b d1 03 3e 60 81 e8 3d 27 05 cd 3e 9c 7e 54 be
       0.1287276 0.11352801 0.40042993 -0.20751423
000170 53 c8 25 bf df 09 5d 3b a1 96 53 3f f5 d9 c1 3f
       -0.64758795 0.0033727807 0.82651716 1.514464
000180 1f 3f 3a bf 76 be a5 be 23 ab 16 3f d6 98 79 3e
       -0.72752565 -0.32371873 0.58854884 0.24374709
000190 df 33 30 bf 5e 57 12 bf 37 09 ff 3e 00 82 2b be
       -0.6882915 -0.5716456 0.49811718 -0.1674881
0001a0 a3 b3 99 3e 83 ba ea 3e 51 04 01 3f 7b 3c b8 3e
       0.30019864 0.45845422 0.5039721 0.35983643
0001b0 b2 ea 79 bf c6 55 bf be 7d 19 2a 3f 92 4d 7a be
       -0.9762374 -0.37370127 0.6644514 -0.24443653
0001c0 fa eb 82 3e 28 6b 67 bc a7 b5 32 3e 4f 2e a8 3e
       0.2557066 -0.014124669 0.17452107 0.3284783
0001d0 3a 52 a7 3e e8 31 e3 be 72 f4 d0 3e 3d a4 ec be
       0.3267992 -0.44374013 0.40811497 -0.46219054
0001e0 80 2c c5 3e 33 d1 1b bf 2b 4d cd bd 80 e8 96 be
       0.38510513 -0.6086609 -0.10024484 -0.29474258
0001f0 93 e8 5b bf 77 08 4f bf e6 85 94 be 85 95 87 be
       -0.85901755 -0.8087229 -0.29008406 -0.26481262
000200 09 cb 32 3f fd 4b 95 3f ef 26 49 be 47 29 e2 be
       0.6984106 1.1663815 -0.19643758 -0.44172117
000210 59 be a6 3e 16 4c fd be 3c ec 95 3d b6 7f d2 bf
       0.325671 -0.4947211 0.07320449 -1.6445224
000220 ca 68 6a 3e 9f 92 d8 bd a6 22 a8 3f 1d 8a e6 be
       0.22891536 -0.10574841 1.3135574 -0.45027247
000230 fb a5 18 be 12 f5 34 be f7 80 e8 3d 3a 0d cb 3d
       -0.14907067 -0.17671612 0.11352723 0.09914632
000240 87 23 9e 3e 14 43 c4 3e 89 f6 be 3e 2a 86 c1 bc
       0.3088648 0.38332427 0.37297466 -0.023623545
000250 2d 1b f2 3e aa 85 c3 3b d7 f6 ca be b1 2c 83 be
       0.47286358 0.0059668617 -0.3964145 -0.25620034
000260 82 c1 62 3e 61 b0 ae 3c e7 0a a8 be 42 fd c0 bd
       0.2214413 0.021324338 -0.32820818 -0.09423305
000270 9b 70 ad bc 09 51 23 bf 54 3f 99 3e 4a 80 f9 bd
       -0.021171859 -0.63795525 0.29931128 -0.12182672
000280 16 bd 16 3e 34 df 24 3f 4b 43 f4 bd 96 9c a2 be
       0.14720568 0.6440308 -0.119268976 -0.3176009
000290 9a 5f 24 3f eb 4b 9b be 6a 0c 54 be e4 e9 41 3a
       0.64208376 -0.30331358 -0.2070786 0.0007397218
0002a0 66 7d 76 3c 70 48 b9 be 5c 86 a5 3d 1c a2 14 3f
       0.015044546 -0.36188078 0.08082268 0.5805986
0002b0 1b a0 e7 3e 3b 31 0f bf b2 70 0b 3e 1c 56 b5 3d
       0.45239338 -0.55934495 0.13617209 0.08854315
0002c0 df 74 d7 be b0 b4 40 3f 90 78 fb bb b8 cf ff 3d
       -0.42081353 0.7527571 -0.0076742843 0.12490791
0002d0 e9 d5 55 3e 9a 96 8d 3e dd 23 c8 3e 03 76 ac be
       0.20882381 0.27653962 0.39089862 -0.33683786
0002e0 a5 ca f3 be 08 ad e1 be 4a 30 82 3f 93 dd 42 3f
       -0.47615543 -0.44077325 1.0170987 0.76119345
0002f0 f6 d5 4c bd 92 be 35 bf 43 97 93 be 3a 93 ab bf
       -0.050008737 -0.7099391 -0.2882634 -1.3404305
000300 07 80 8c 3f 6c 8e 1e bf b5 8e 36 3e 41 c7 b3 3d
       1.0976571 -0.6193607 0.17827876 0.08778239
000310 d4 45 3e 3f 98 ef cc be 3f 5a 5f 3e ee 08 3d bc
       0.743253 -0.40026546 0.2181177 -0.011537774
000320 f3 95 a1 be 6b 90 23 be f1 90 68 be 1c 31 c6 bd
       -0.31559715 -0.1597306 -0.22711541 -0.096773356
000330 f8 c8 27 bf 20 11 da 3e 08 2d 2b bf 01 70 10 3f
       -0.6554103 0.4259119 -0.6686559 0.56420904
000340 39 c9 4d 3f 10 ca 4a be 45 2e 71 bf 11 ee 14 3f
       0.80385166 -0.19803643 -0.94211227 0.5817576
000350 3e 59 0a bf 47 18 37 3f d6 71 a8 3e 4a 21 9a be
       -0.5404242 0.7152142 0.3289935 -0.30103523
000360 c1 70 29 bf 3d b0 24 3f e7 8f e7 3e 59 55 06 bf
       -0.66187674 0.6433142 0.45226976 -0.5247398
000370 4d 71 07 bf 30 8f 12 3f 3b 66 47 bf 44 4c 93 3e
       -0.5290726 0.57249737 -0.77890366 0.28769124
000380 8f 6e 27 3e 86 aa 81 be 23 bf 34 be 23 3f 50 3f
       0.16350769 -0.25325412 -0.17651038 0.8134634
000390 8b 96 27 bf e2 9f 71 bd c2 50 c0 3d 9c 7e 6e be
       -0.65464085 -0.058990367 0.09390403 -0.23290485
0003a0 4d ac 03 3f 67 70 37 bd 81 5d 52 3e 05 54 74 3d
       0.51434785 -0.04478493 0.20543481 0.05965044
0003b0 e7 90 01 bf bb 61 92 bd 9a da a9 be 02 99 9b 3c
       -0.5061173 -0.07147547 -0.33174592 0.018993858
0003c0 03 c4 2d 3f 39 eb 43 3e 18 3f bc 3c 8d 96 77 3e
       0.67877215 0.19132699 0.022979304 0.24178524
0003d0 d7 1e 1e bf b1 3a 9c 3f ff 1e ab bd 03 3d 12 bf
       -0.6176581 1.2205411 -0.083555214 -0.57124346
0003e0 1f 6d b8 be 2d 96 ea 3e dd 21 45 bf 5a 42 00 be
       -0.36020753 0.458177 -0.77004796 -0.12525311
0003f0 2a 80 84 3e 2e 90 58 3f 71 fb 07 bf 57 d3 16 bf
       0.2587903 0.84595 -0.53118044 -0.5891623

sage.layer1.fc_self.bias f4 [64]
000000 41 47 48 3b d7 4c f1 3c bf 43 2d bd 29 81 ef ba
       0.0030560049 0.029455585 -0.042300936 -0.0018272746
000010 4a 10 9a 3d 46 e0 1b 3b 0b db 93 bb 3d 55 26 3d
       0.07522638 0.00237848 -0.004512196 0.040608633
000020 ed fd a0 3c af ba 8b 3c 79 76 1d bd 1d 91 8f bc
       0.019652331 0.017056791 -0.038443062 -0.01752525
000030 7e 4a bd bc bb 55 40 bd 10 29 2d bc 64 42 b7 3d
       -0.02310681 -0.04695676 -0.010568872 0.0894821
000040 1f e8 5b bd 02 b7 96 3d b1 22 e9 bc c8 b8 b4 bc
       -0.053688165 0.07359125 -0.028458925 -0.022060767
000050 83 2c 23 3a 5e c6 2b bd da 24 58 3d ff c5 65 bd
       0.00062245893 -0.041937225 0.05276952 -0.056097027
000060 e1 c4 06 bd 37 54 06 bc 7b d0 08 bd 05 06 38 3b
       -0.032902602 -0.008198789 -0.033401947 0.002807976
000070 8e 07 de bc dd 39 26 bd ed 65 1d 3c f6 ae 49 3d
       -0.027103212 -0.040582526 0.0096068205 0.04923912
000080 4d 60 6c 3d 2d 47 96 bd bc cc 56 bd f6 1d 08 bd
       0.057709027 -0.073377945 -0.052441344 -0.033231698
000090 48 8d 28 bd a9 59 17 3c 69 8a 55 3d 77 86 86 bb
       -0.04115036 0.009237685 0.05213395 -0.004105385
0000a0 a2 0d 9c bd b2 07 38 bd 08 55 56 3d 8f 2d aa 3b
       -0.07619788 -0.044929214 0.052327186 0.0051934193
0000b0 ef 59 4a bd 03 05 88 3c 70 a9 4e bd 38 5e c3 bb
       -0.049402174 0.016603952 -0.050454557 -0.0059621595
0000c0 83 20 35 3d b5 b1 7b bc ba f1 5b bc ed e4 5d 3d
       0.04422046 -0.015362193 -0.013424331 0.0541734
0000d0 af 8a ac 3b 98 bd fa 3c 61 e2 29 bd aa 1c 87 3d
       0.005265556 0.030607983 -0.041475657 0.06597264
0000e0 86 99 6e 3d 59 b1 75 3c 1d d2 2e bd 8b 88 34 3d
       0.05825188 0.014995896 -0.04268085 0.04407553
0000f0 15 35 0f bc 1c fd 74 3d 06 2c f3 ba 19 18 b2 bb
       -0.008740683 0.059811696 -0.0018552549 -0.0054350016

sage.layer2.fc_pool.weight f4 [64, 64]
000000 1b 84 35 be 0d d6 76 3e b7 64 88 3e 4d 6a 90 bd
       -0.17726175 0.24105091 0.2663934 -0.07051525
000010 94 92 4d 3c 12 bc cb 3e e1 35 8c 3d 9a 8a 9a 39
       0.012547154 0.39791924 0.06846214 0.00029476435
000020 99 1d c8 3d 4c 05 09 3e e5 37 da 3d 7e 81 85 bd
       0.0977127 0.13380927 0.10655192 -0.06518839
000030 6d 90 74 3e db b9 b9 3e 3c d7 38 3d 3f f8 aa 3e
       0.23883219 0.3627461 0.04512714 0.33392522
000040 ab e9 3e 3e a6 83 4a 3d a6 a4 9e 3e 41 a6 3d 3e
       0.18643825 0.049441956 0.30984992 0.18520452
000050 f5 62 87 bd 5d 97 67 3e e8 36 82 bf b8 de 14 3f
       -0.066106714 0.22616334 -1.0173006 0.5815234
000060 60 68 fd 3d fa 65 9f be 62 7d 17 3b 7d 97 6c be
       0.123734236 -0.3113249 0.0023115505 -0.23104663
000070 9c 28 be 3e 7a 79 0c 3f 49 24 7f 3e 99 48 08 be
       0.37140357 0.5487286 0.24916185 -0.13308944
000080 b4 98 29 bf 38 53 c5 3e 88 a0 d2 3e 66 cb 2c 3d
       -0.6624863 0.38540053 0.411381 0.042186163
000090 bf 82 c1 3e f8 e6 78 be a2 0a 66 be ae 88 a6 3e
       0.37795064 -0.24306858 -0.22464994 0.32526153
0000a0 f6 58 38 3e 4a ea 74 3c 5c b4 ed be ff b8 2b be
       0.18002686 0.014948437 -0.46426666 -0.16769789
0000b0 9e 3b 32 3a a3 ba 4d 3e 11 b1 bb 3e 42 70 10 bd
       0.0006799045 0.20090728 0.36658528 -0.035263307
0000c0 08 0e a5 bf 68 8f b7 bd d2 fc 97 3e 6d 5a b8 be
       -1.2894907 -0.089628994 0.29685074 -0.3600649
0000d0 86 c0 72 3e c8 94 26 be 09 7a 5b 3e 7e dc da be
       0.23706254 -0.16267693 0.21433271 -0.42746347
0000e0 b4 2b 0a bf e2 9a 81 3e 66 c5 82 bd 1c 4b 6b be
       -0.53972936 0.2531348 -0.06385307 -0.2297787
0000f0 30 9e 43 3e 1c a6 6f be 58 77 5f be a8 53 eb 3c
       0.19103312 -0.2340321 -0.2182287 0.028726414
000100 cd 9c a1 be a4 3d 4f 3d c3 4c 88 be c4 0c 7b 3e
       -0.31564942 0.050595894 -0.26621065 0.24516588
000110 f2 7d 8e 3d b1 f3 40 be 9d a1 ad 3e 51 c4 1f be
       0.06957616 -0.18842961 0.33912364 -0.15602233
000120 6c a5 dc 3e 48 e1 aa 3e 84 7f 61 3b 2e f0 2f be
       0.43094957 0.33375 0.003440828 -0.17181465
000130 6c 17 67 3d c5 ab 45 3d b6 24 70 3e dc e1 19 3e
       0.05641882 0.048259515 0.23451504 0.15027565
000140 c9 4a 3f 3e 30 c9 0d 3d a0 c5 4c be b6 b0 7d 3e
       0.18680872 0.034615695 -0.19997263 0.24774441
000150 c5 b1 33 be 7f 13 85 be 77 2d 44 bd 1b 81 1e bf
       -0.17548282 -0.25991437 -0.04789492 -0.6191575
000160 d4 3c 07 bf 43 b6 27 3c 24 95 ae bd ad d1 ed bc
       -0.5282719 0.010236326 -0.0852454 -0.029030645
000170 55 57 9b bb 04 6b 09 3e 96 4a 03 3e e8 64 62 3e
       -0.0047406354 0.1341973 0.12821421 0.22108805
000180 67 02 15 3e 2c 3c 30 3d f8 2d f2 3d ed 0b 0a bd
       0.14551698 0.043026134 0.11825174 -0.03370278
000190 f9 96 30 be eb 75 07 be 33 15 ae bc 0d 0d 5f bd
       -0.17245091 -0.13228576 -0.021250343 -0.054455806
0001a0 4c b2 cb bd fa 1e 93 bd 7a b1 19 3e f9 79 ca 3e
       -0.09946117 -0.07183643 0.15009108 0.39546183
0001b0 05 0e 93 3c 84 b0 cf 3d c1 1e f9 3d 64 d2 56 3d
       0.017951021 0.101410896 0.12164069 0.052446738
0001c0 60 24 1f 3e 26 35 5f be 1e 1e 12 bd 18 0c 95 be
       0.1554122 -0.21797618 -0.035673253 -0.2911079
0001d0 d9 a6 b7 bd 07 36 20 3d d5 8e fc bc a6 66 96 bd
       -0.089673705 0.039114024 -0.030829826 -0.073437974
0001e0 b1 b5 c1 3e 44 ee c2 bd 86 f4 5b 3e 8a 50 f2 3a
       0.37833932 -0.09518102 0.21479997 0.0018487137
0001f0 3d f2 73 3e 91 52 3a 3e e4 96 83 3e 67 6f 98 3c
       0.23822875 0.18195559 0.25701058 0.018607808
000200 ca 94 3c 3d 25 f4 0b bf d5 cf fd be ab 4c 34 bd
       0.046040334 -0.5466941 -0.49572626 -0.04401843
000210 7b e4 83 ba cf da 7a 3e 22 88 2e 3e 8a ec e1 be
       -0.0010062599 0.24497531 0.17044118 -0.44125777
000220 4c 1d 1b 3e 21 7e 4b be 52 ed 20 bd 51 52 39 bf
       0.15147895 -0.19872333 -0.039288826 -0.7239123
000230 61 46 37 be 13 3b 15 bd db b0 94 bd a5 8b 9a be
       -0.17897941 -0.03643329 -0.07260295 -0.30184665
000240 e6 9f 22 bf e2 bb ad bd 19 9b 3d be 8e 49 df be
       -0.63525236 -0.084831014 -0.18516196 -0.43610805
000250 81 fa 37 be 1f 26 27 bf d2 b3 06 3e c5 42 c1 be
       -0.17966653 -0.65292543 0.13154534 -0.37746254
000260 f3 4f 2a be e4 88 0c bf c9 c4 a6 be 67 5b 36 3e
       -0.1663206 -0.5489638 -0.3257201 0.17808305
000270 3b 13 94 bc dd 95 50 be 43 bc 89 3e 42 58 27 3e
       -0.018075576 -0.20369668 0.26901445 0.16342261
000280 25 7e de 3d 9d 30 41 bf f8 c5 c1 be a8 c3 a5 bc
       0.10863904 -0.75464803 -0.3784635 -0.020234898
000290 a4 c7 25 bf be 8e 57 bf c4 38 f2 bc ec 5e 10 be
       -0.6475775 -0.8420218 -0.029568084 -0.1409871
0002a0 21 5e ec 3d 04 41 2d 3e b1 15 5b 3e 42 2e a8 bd
       0.11541391 0.16919333 0.21394993 -0.08211948
0002b0 f9 ee bc be 96 87 fa 3d 40 67 f0 be 47 81 83 3d
       -0.36901072 0.12232892 -0.46953773 0.06421142
0002c0 a4 77 d9 3e c3 da f5 3d c3 dc 12 bc 3a a5 58 3c
       0.4247409 0.12004616 -0.0089637665 0.013222987
0002d0 4e 87 12 be b6 24 99 3e 89 d1 09 3f ac 6d d5 3d
       -0.14309427 0.2991082 0.5383535 0.10421309
0002e0 e0 b8 0e 3e 99 34 97 be 95 be ca be d9 5a c6 bd
       0.13937712 -0.29532316 -0.39598528 -0.096852966
0002f0 18 f7 91 bb 7c 02 4b 3c 88 23 f5 3d d6 11 87 be
       -0.0044545047 0.012390729 0.11969668 -0.26380795
000300 6d 29 0e 3e 0f d0 47 be 72 be 60 be 4b 3d 95 3e
       0.1388299 -0.19512962 -0.21947649 0.29148325
000310 ce a6 ab be 0d 39 95 3e 7f 39 05 3e 4d 16 2d 3e
       -0.335257 0.2914509 0.13010214 0.16903038
000320 3a a1 62 be eb e9 0a 3d bd 65 71 3d 51 19 95 be
       -0.22131816 0.033914488 0.058934916 -0.29120877
000330 0b 82 9f bd dc de 91 3d 47 6c 72 be 35 65 5b bd
       -0.077884756 0.07122585 -0.23674117 -0.053563315
000340 75 09 b1 3d 3d 89 a7 be b3 8e 7a 3c 74 a8 cf 3d
       0.08644382 -0.32721892 0.015292811 0.10139552
000350 a8 bc 07 3e df 1d 8a 3e 69 90 92 be 76 dd 74 3d
       0.1325556 0.26975915 -0.286258 0.059781514
000360 b9 d8 3d 3f 53 88 27 bf 09 a6 a2 3d 8f 55 04 3f
       0.7415882 -0.6544239 0.07941825 0.5169305
000370 f6 7a fc 3e e8 df c9 3e 51 bb 00 3e 39 83 82 be
       0.49312562 0.3942864 0.12571456 -0.2549074
000380 7d 57 eb be db 06 b6 bd 53 aa cd bd 67 d6 0a 3f
       -0.45965186 -0.08888026 -0.100422524 0.542334
000390 b5 66 c3 3d f4 24 21 bf 10 2a 22 3e f7 79 d4 bd
       0.09541074 -0.6294701 0.15836358 -0.103748254
0003a0 42 bb c3 bd 8c 16 87 bd 2b 81 3a bd 9d 07 1d 3e
       -0.09557201 -0.06596097 -0.04553334 0.15334935
0003b0 02 35 04 be c9 b4 92 be 39 94 0e be d7 e8 61 be
       -0.12910846 -0.28653553 -0.1392373 -0.22061478
0003c0 aa 73 1b bf 82 7e 0c 3e af d5 fc 3d 02 be e3 3d
       -0.60723364 0.13720134 0.123454444 0.111202255
0003d0 49 80 bb be a2 42 20 3e 04 e5 54 3e 4c e8 e9 be
       -0.3662131 0.15650418 0.20790488 -0.4568504
0003e0 f8 01 f4 be 96 e6 33 3b ee 40 ca bd 75 7d 99 bd
       -0.47657752 0.0027450672 -0.098756656 -0.07494632
0003f0 21 cd ad 3d 35 07 4d bf 50 29 78 3e 22 9d b3 bd
       0.08486391 -0.8008912 0.2423451 -0.08770205

sage.layer2.fc_pool.bias f4 [64]
000000 38 e9 80 3d 8f ec 0b 3d 57 7e 4d 3e aa 23 a3 3d
       0.06294483 0.034161147 0.20067726 0.07965787
000010 f8 4f f5 3b e7 cb b5 bc 96 24 32 3e 65 ca a6 3e
       0.0074863397 -0.022191955 0.17396769 0.3257629
000020 d1 d0 00 bd 8a 37 91 3d 09 2f 16 3e 18 0a a8 3d
       -0.031449143 0.07090671 0.1466638 0.0820505
000030 93 cc a0 3d 76 f4 f1 3d 90 f1 2b 3e 30 a1 81 3d
       0.078515194 0.11814205 0.16791368 0.06329572
000040 c7 24 1c 3e a5 b6 9c 3c 0d b1 be 3d d3 28 09 3e
       0.15248404 0.01913006 0.093111135 0.1339448
000050 53 90 85 3d ea 1e 0b 3d 62 9e f6 3c e7 83 96 3d
       0.06521668 0.03396503 0.03010482 0.07349377
000060 2d d6 25 3d 38 6e 1b 3e d1 d9 31 bb b0 73 db 3d
       0.040487457 0.15178764 -0.0027137885 0.10715425
000070 2c c1 20 3e 98 bc 48 3d 07 46 5d 3d bd 1d 36 3c
       0.15698689 0.049007982 0.05402186 0.011115489
000080 a4 56 17 3e 4c 83 ee 3d 09 18 2f 3e 53 d6 a9 3a
       0.14779145 0.11646137 0.17099012 0.001295755
000090 77 dd d0 3d 27 dd 61 3e 34 5c 9f 3d cf 5a 06 3e
       0.10198491 0.22057019 0.07781258 0.13120578
0000a0 cd 42 27 3e b4 d0 08 3e f9 a0 da 3d 02 f6 b7 3d
       0.16334076 0.13360864 0.10675234 0.08982469
0000b0 c8 5b 45 bd a0 db d5 3d 97 97 a1 3d 78 25 4d 3e
       -0.048183233 0.10442281 0.078902416 0.20033824
0000c0 a8 c6 3f 3e 3c f4 14 3d 35 b1 e7 3d b2 b8 62 3e
       0.18728125 0.036365733 0.113130964 0.22140768
0000d0 04 23 bc 3d 43 04 ea 3d d2 10 03 3e df 48 01 3e
       0.09186366 0.11426594 0.12799385 0.12625454
0000e0 99 97 bc 3d 4e a2 f9 3c 23 1b ba 3d 7d 90 2b 3e
       0.092086025 0.0304729 0.09087207 0.16754337
0000f0 41 89 ba 3d b5 fb 03 3d f8 15 9e 3d 55 64 7d 3e
       0.0910821 0.03222247 0.07719034 0.24745305

sage.layer2.fc_neigh.weight f4 [128, 64]
000000 8f 6d 50 bd c9 10 70 be 4d 40 39 3e 57 bc 17 3e
       -0.050885733 -0.23443903 0.18090935 0.1481794
000010 83 77 85 3e 82 1d 06 3e 29 49 90 bd 4f f7 47 bd
       0.26067743 0.13097194 -0.07045204 -0.048819836
000020 72 25 83 be 54 b4 fd 3e c4 6c 3a 3e 54 42 2e 3e
       -0.25614506 0.49551642 0.18205553 0.1701749
000030 84 45 01 3f 06 2a b3 3e 1f c9 31 3f db bb af 3e
       0.504967 0.34993 0.6944751 0.3432301
000040 07 30 43 3d 10 4e 46 3e 74 77 ce 3d e0 28 2f 3e
       0.047653224 0.19365716 0.100813776 0.17105436
000050 46 f0 80 3d 64 62 1c be b7 57 74 be cf c9 f7 3c
       0.062958285 -0.15271908 -0.23861586 0.030247597
000060 d9 a7 82 3d 4d b6 a5 3e 98 8c 26 be 54 05 6e bc
       0.06379671 0.32365647 -0.1626457 -0.0145276375
000070 c7 5d 30 be b0 bc 96 3e ce af 7e 3e 52 b8 f3 be
       -0.17223273 0.29440832 0.24871752 -0.47601563
000080 b8 61 d9 3e 33 8d 7a be 61 63 a8 bc 5e 91 91 bd
       0.42457366 -0.24467926 -0.0205552 -0.07107805
000090 da d6 02 be 00 d6 e1 3e 1b f6 38 be 97 04 81 be
       -0.12777272 0.44108582 -0.18062632 -0.25198814
0000a0 a7 e6 ac bd c6 8f ee bd 01 e2 12 3e 0d 6d f6 3d
       -0.08442431 -0.11648516 0.14344026 0.120325185
0000b0 78 63 f9 be fa bf 80 3e db a1 00 3a fb 1f c1 bc
       -0.487087 0.25146466 0.0004906931 -0.02357482
0000c0 a3 53 22 3f ac 27 a2 bd 22 0b c3 3e d5 a1 c6 3d
       0.6340887 -0.07917723 0.3809443 0.09698836
0000d0 d4 41 f3 3e 01 ea 0f bd 07 72 a0 3e 59 e5 01 3f
       0.4751116 -0.035135273 0.31336996 0.5074058
0000e0 50 1e 00 bf f3 ce 96 bd 9b 9d 98 3e ce 91 21 be
       -0.50046253 -0.07363691 0.29807743 -0.15778276
0000f0 fc 1e 7a be b1 4a d1 3d 25 b9 91 3d 48 26 38 3f
       -0.24425882 0.102193244 0.07115392 0.7193341
000100 4d ed 89 3e d7 6c 05 3e 58 d2 64 bd 79 2f 53 bc
       0.2693886 0.130298 -0.055864662 -0.012889736
000110 1a eb df bb d3 19 d1 3d 34 67 4f 3e d0 3b 86 3e
       -0.006833446 0.10210004 0.20254213 0.26217508
000120 6b ec 81 3c 4f eb 17 3e 78 38 f1 3c 08 9e 89 bc
       0.015859803 0.14835857 0.029445872 -0.016798988
000130 43 28 73 3b 5b 70 04 3e 70 c1 0e bd 78 d0 51 be
       0.0037102855 0.12933485 -0.034852445 -0.20489681
000140 d9 42 fd bd b9 a0 f1 bd 22 3e 5c be ff ad 27 3f
       -0.12366266 -0.117982335 -0.21508077 0.6549987
000150 d1 39 e8 bc fc 2f ef bb 7c 50 d0 3d 2f 2c df 3d
       -0.028347882 -0.0072994214 0.10171601 0.10897099
000160 19 d5 f0 3d b4 c2 9f bd 2f 2f bc bc c0 41 c3 3e
       0.11759395 -0.078008085 -0.022971718 0.381361
000170 f9 71 12 3e 17 b7 bb bd 6c 58 0e bd 91 a6 9d be
       0.1430129 -0.09165781 -0.034752294 -0.30791143
000180 77 21 9c 3e 15 d7 71 be c6 7f 7b 3d 16 91 e0 be
       0.30494282 -0.23617204 0.06140115 -0.43860692
000190 6f 35 1d be c7 4c 00 3e ee 6b 64 be 02 b3 68 3d
       -0.15352415 0.12529288 -0.22306797 0.05681134
0001a0 38 cc 40 3e 95 ae 9f 3e 2e 04 cc 3d ad cc a3 3d
       0.18827903 0.31187883 0.09961735 0.07998023
0001b0 0f ed 19 3e 24 64 37 3e 89 14 c7 3d 34 21 69 3c
       0.15031837 0.17909294 0.09720714 0.014229108
0001c0 1d 46 92 3e 12 74 37 3e 99 43 df 3e 35 f3 0c bc
       0.28569117 0.17915371 0.4360626 -0.008602907
0001d0 1e 2d 44 3e 88 20 62 be bd e5 8e 3c 2e 71 10 bd
       0.19157836 -0.22082722 0.017443532 -0.035264187
0001e0 84 cd d8 bc fb ee 91 3d dc 88 ee bd 1c d4 9c be
       -0.026465185 0.0712566 -0.116471976 -0.30630577
0001f0 f8 10 c4 bd 30 19 09 3e d3 4a 12 bd 15 92 79 3e
       -0.09573549 0.13388515 -0.03571589 0.24372132
000200 52 88 bd bc 64 1f 06 be 90 a6 d2 be 50 0c aa 3b
       -0.023136292 -0.13097912 -0.41142702 0.005189456
000210 ba ab 1d 3e 17 43 7f 3e b5 cc 54 bd 79 a6 35 be
       0.1539754 0.24927936 -0.051953036 -0.17739286
000220 ce 75 4d 3d 7f f4 13 bd ad bc 63 be d1 03 e6 bd
       0.050161175 -0.03612184 -0.22239943 -0.11231197
000230 fd ff cc 3d 46 cc 5b be 95 31 55 3d 6b 92 b1 be
       0.100097634 -0.21464643 0.05204924 -0.3468202
000240 66 17 a3 3e 60 bf 4c 3d a1 4d ad be 47 f9 fc bd
       0.3185379 0.049987197 -0.3384829 -0.123522334
000250 3d be 7c bc ad 78 6d 3e 51 64 8c bd 75 9f 8c bd
       -0.015426216 0.23190565 -0.06855071 -0.068663515
000260 de 67 22 3e 1c 7b 38 3e 24 92 02 bd 96 79 a8 3c
       0.15859935 0.18015712 -0.03187765 0.02056579
000270 14 86 43 3d d3 13 c8 3e 73 17 2c be 53 e6 82 be
       0.04773529 0.39077625 -0.1680582 -0.25566348
000280 77 35 a2 be 92 8f 85 3c 38 4a 38 be 6f 74 ec 3d
       -0.31681415 0.016303811 -0.17997062 0.115456454
000290 07 db 8e be 2e 48 7e 3e 6a c3 95 3d 73 a7 a0 be
       -0.2790148 0.24832222 0.07312663 -0.31377754
0002a0 18 78 c7 be 3b 60 ad bd c3 10 28 be 06 07 ac bc
       -0.38958812 -0.0846562 -0.16412644 -0.020999443
0002b0 91 88 5d be 83 bb b9 be 1e 28 c8 bd 8c 71 65 bb
       -0.21634127 -0.36275873 -0.09773277 -0.0035010306
0002c0 74 8e 9b bc 18 0c ef 3c b7 58 80 bd 7a a8 fd be
       -0.018988825 0.029180571 -0.06266921 -0.495426
0002d0 3f 41 09 be 88 4d 85 be 29 05 62 be f1 c9 4b bc
       -0.13403796 -0.26035714 -0.22072281 -0.012438283
0002e0 a6 80 48 3e 05 1a a4 3d 0a 89 db 3e 89 bf bd 3d
       0.19580325 0.08012775 0.4287799 0.09265048
0002f0 be 6c 1f 3e a4 0a f2 3d ff 08 be 3e 67 5c 6e bd
       0.15568826 0.11818436 0.37116238 -0.05819359
000300 a6 9a 92 3d 1a c0 8c 3e f6 c6 03 3e de c6 a4 be
       0.07158403 0.27490312 0.12868866 -0.32182974
000310 c3 87 69 be d9 4f 9a bd d5 4e 9e bd 69 7d c4 be
       -0.22805695 -0.07534761 -0.0772988 -0.3837693
000320 8d bd 9d 3e 07 ba da bd b3 ce 82 be d1 4f 76 3e
       0.30808678 -0.10680013 -0.25548324 0.24053885
000330 1d 57 21 3d 99 22 12 be cc 55 ef be 9f 35 9b 3d
       0.03938972 -0.1427101 -0.46745145 0.07578587
000340 3d d3 9b bc ed 09 39 be 68 15 97 bd f9 c7 8e 3e
       -0.019021625 -0.18070193 -0.0737713 0.27886942
000350 81 97 b7 bd 04 a3 01 3f c8 8b 3c 3f ae 00 73 be
       -0.08964444 0.5063937 0.7365079 -0.23730728
000360 60 ed 93 3c 0a dc a0 be ed 4a cd bc bd 95 f8 3d
       0.018057525 -0.31417876 -0.025060141 0.12137935
000370 cb 65 3a 3e e0 29 e1 bd aa b8 4d be 5a 6f 92 3d
       0.18202893 -0.10994315 -0.20089975 0.07150145
000380 2c 4e 4c be e6 98 84 bd 3c ac 42 3e f4 ab 01 be
       -0.19951695 -0.064744756 0.19011015 -0.12663251
000390 49 b1 d9 3d 18 2f e1 be 2b 67 a3 3e 38 82 89 3e
       0.106295176 -0.43981242 0.31914648 0.26857162
0003a0 4f 7b 59 bb ca 8d 3b 3e ca 5c e7 3e b0 2d 0c 3e
       -0.003318507 0.18315807 0.4518798 0.13689303
0003b0 12 9a 05 3f 51 d9 ad 3d 99 14 7a be ee 0e 9f be
       0.5218822 0.084887154 -0.2442192 -0.31066078
0003c0 1d 87 92 3e da e0 db 3d 0d f5 d4 be 09 55 20 be
       0.28618708 0.107362464 -0.4159321 -0.15657438
0003d0 18 d3 f0 3e 3f ce f3 3e 71 e5 b0 3c 1a 67 0e bc
       0.47036052 0.4761829 0.021593781 -0.0086915735
0003e0 a5 39 64 be 7e d2 bb 3e f2 b3 3e 3c ba fc a2 be
       -0.22287615 0.3668403 0.011639582 -0.3183344
0003f0 62 f7 b1 3e ae ca fd 3d fb 59 d4 3e 10 99 bf be
       0.3475905 0.12392174 0.414749 -0.37421465

sage.layer2.fc_self.weight f4 [128, 64]
000000 a6 57 01 be 14 12 9b be ac 18 8f be 7c 49 1b bf
       -0.12631091 -0.3028723 -0.2794851 -0.60659003
000010 de 86 e0 3c a4 96 4f bf 41 68 2f bf 81 fc 14 3f
       0.02740806 -0.81089234 -0.68518454 0.5819779
000020 a1 dd 1b be 32 f8 84 be b5 09 82 3f f4 6a c3 3f
       -0.15221263 -0.25970608 1.0159212 1.5267015
000030 b8 ad 73 3e 03 03 18 3f 45 4a 8a be dd ac 72 be
       0.23796737 0.59379596 -0.27009788 -0.23698755
000040 d4 a6 1e bf 2f 5f e9 be 57 b5 22 bf 1e d1 93 3e
       -0.6197331 -0.45580432 -0.6355795 0.2887048
000050 f7 65 65 bf 27 84 9c 3e 5d 49 08 bf 82 ed 26 3f
       -0.8960871 0.30569574 -0.53236943 0.6520616
000060 1d 5c d6 be 9b d5 82 bd 45 a6 4d 3e 38 da bd 3b
       -0.41867152 -0.06388398 0.20082958 0.005793836
000070 48 9b b9 be 7a 33 48 bf 02 71 06 bf 6b 8f 23 3e
       -0.36251283 -0.78203547 -0.52516186 0.15972678
000080 d3 8a e3 be c3 38 c3 be 57 4c a4 3e 69 68 b6 be
       -0.44441852 -0.38129243 0.32089493 -0.35626534
000090 9e 27 03 3d f6 71 81 be 0f a5 da be 4b 80 e3 be
       0.032020204 -0.25282258 -0.42704055 -0.44433817
0000a0 24 6a 86 3f 0b 4c 34 bf 61 23 cd be 27 61 64 3d
       1.0501142 -0.7042853 -0.40066054 0.055756714
0000b0 b2 be 06 3f b7 91 bc bd f8 16 29 bf e0 d3 09 3e
       0.5263473 -0.092074804 -0.6605067 0.1345973
0000c0 3f 99 5e 3d 68 68 83 be 10 da c6 bc 07 51 42 3d
       0.054345366 -0.25665593 -0.024273902 0.047440555
0000d0 3d 8f ac ba f1 95 4e 3e 92 fb cd be 56 4e 3d be
       -0.0013165247 0.20174386 -0.40230995 -0.18486914
0000e0 ae 38 67 3e d8 3c ef be ff 27 2f bd 40 ef 34 3e
       0.22580215 -0.46726108 -0.042762753 0.17669392
0000f0 0f b7 0e bf fe 10 ab be 99 5b 5e bf 65 51 70 3f
       -0.55748075 -0.33411402 -0.86858517 0.938742
000100 4a c2 cf 3b 80 ed 2c 3f c0 70 64 3e da 6b 79 3e
       0.0063402997 0.67549896 0.22308636 0.24357548
000110 15 0d 24 be 99 66 17 3f 8c af eb 3e 7d b9 2e 3f
       -0.16020615 0.59140927 0.4603237 0.6825178
000120 87 da ff 3e 15 d7 0f bf cf c1 2f bf 5a 7e b0 be
       0.4997141 -0.56187564 -0.68655103 -0.344714
000130 fc d7 18 bf a2 5b ab be aa 3b 14 bf 4c 8e e4 be
       -0.59704566 -0.33468348 -0.5790354 -0.44639814
000140 56 e2 5d 3f 5e 25 49 be 99 93 26 3f ff b7 20 be
       0.86673486 -0.1964316 0.65068966 -0.15695189
000150 29 4a cc 3d e0 52 2b bf 3e 92 39 bf a2 62 15 3d
       0.099750824 -0.6692333 -0.7248877 0.036471017
000160 07 f0 3d bf 49 97 62 be 6f b6 f0 be 5c d5 f9 bd
       -0.7419438 -0.22128023 -0.47014186 -0.12198898
000170 2d e8 de 3e 08 25 4a bf 7a 73 dd 3d 4b 0f 25 3b
       0.4353651 -0.78962755 0.10813041 0.0025186117
000180 6b 91 e1 bc 6a 07 95 3d 7b 28 d0 be 8f ca 55 bd
       -0.027535161 0.07276805 -0.40655884 -0.052195128
000190 02 15 7a be 36 a3 78 be 91 7b 01 3f 40 f3 4c 3f
       -0.24422076 -0.2428101 0.5057917 0.8005867
0001a0 18 93 7e be dc db 81 3e 38 5f 7a be 40 9e 52 3f
       -0.248608 0.25363052 -0.24450386 0.8227272
0001b0 28 0d 27 3e fe d1 b9 be 95 66 fa be b0 f3 bb bc
       0.16313612 -0.36293024 -0.4890639 -0.022943348
0001c0 73 8b 77 bf 52 50 2f be 3f e6 44 3d 95 8e e2 be
       -0.9669716 -0.17120484 0.048071142 -0.44249406
0001d0 30 c5 3f 3f 4c 71 23 be 8a 6c 28 3f 73 40 9e be
       0.7491026 -0.15961188 0.6579062 -0.30908546
0001e0 89 dc 83 be fa e0 88 be 22 f1 90 be 23 26 0c be
       -0.25754192 -0.26734143 -0.2830897 -0.13686423
0001f0 b6 e1 14 3f 29 d3 31 3f 87 14 3d be 35 c6 19 bf
       0.5815691 0.6946283 -0.18464862 -0.60068065
000200 d9 68 bf be 67 13 4e 3f f5 66 6c 3e 8e 56 1b 3d
       -0.3738468 0.80498356 0.2308615 0.03792434
000210 80 81 19 3f 6f 54 01 3e 0e eb c7 3e 7c 7f 20 3f
       0.59963226 0.12629865 0.3904652 0.62694526
000220 32 35 e3 bd 4b 5c 4a 3e 32 23 1f be 34 2d 77 3e
       -0.110941306 0.1976177 -0.1554077 0.24138337
000230 10 5f 4a 3d 07 83 74 3e 03 2d 63 3d f2 3f 4e 3f
       0.049407065 0.23878108 0.05546285 0.8056632
000240 b9 8b d3 bd 3b 18 8c be 64 f2 00 3f fd 6d a6 be
       -0.10329384 -0.27362236 0.5036986 -0.3250579
000250 c8 fd 44 be 67 ab 82 be 7a 07 2b 3f 47 67 43 be
       -0.19237435 -0.25521395 0.66808283 -0.19082366
000260 b3 88 9e 3e 5f b0 18 3e 40 bd 64 3e 3d c8 3a 3e
       0.30963668 0.1491103 0.22337818 0.18240447
000270 0a ce 52 3c 77 f4 41 3e 57 68 bc bd 38 81 06 3f
       0.012866506 0.18940912 -0.09199589 0.5254092
000280 4f 7c a2 be e3 10 75 3e 5e 6b d0 3e 23 9d 87 bf
       -0.31735465 0.23932223 0.40706915 -1.0594829
000290 d4 60 18 3f 82 76 81 3e 83 26 9d 3e 52 6a d1 3e
       0.5952275 0.25285727 0.30693445 0.40901428
0002a0 a2 dd 89 be 02 d3 08 bf 75 bc c4 3d 08 60 85 3e
       -0.26926905 -0.5344697 0.09606258 0.2604983
0002b0 58 c4 a6 be 44 cd 3d be 6d 4a 53 3e 7b 42 b0 bd
       -0.32571673 -0.18535334 0.2063386 -0.0860643
0002c0 e8 82 ad 3d 9d 22 8d 3e 99 7a 60 3f 9d 6c be 3d
       0.08472234 0.2756547 0.8768707 0.0929806
0002d0 ab f2 a6 3e 09 35 a3 be 2b 68 96 3e 0a 0c bb 3e
       0.32607016 -0.318764 0.2937635 0.36532623
0002e0 f0 c3 5a 3e f6 11 f9 3d 4f 0f 22 bf e3 63 84 3e
       0.21363807 0.12161629 -0.6330461 0.25857458
0002f0 e5 82 50 be e9 9b 1c 3e 16 ed 30 bf 45 15 52 be
       -0.20362432 0.1529385 -0.69111764 -0.20515926
000300 9b 47 b1 bd b5 33 24 3f 27 3a de 3d d8 17 76 3f
       -0.08656236 0.641414 0.108509354 0.9613013
000310 4a 9b 12 3f f1 0a 9b 3d ba 77 0a bd 93 af 78 bc
       0.572682 0.07570446 -0.033805586 -0.015178579
000320 37 0d 89 3e c0 59 a5 be 2b f9 9b bf 13 e2 f7 be
       0.26767895 -0.32295036 -1.2185415 -0.48414668
000330 ff 17 1a 3e cd df e4 3e f2 f0 3a bd ee 84 1e be
       0.15048216 0.44701996 -0.04563994 -0.15480396
000340 60 00 17 3e 62 63 c5 3e 0e 8f de be bc f0 86 bd
       0.14746237 0.38552386 -0.43468517 -0.06588885
000350 af ea 95 3e 15 90 c4 bd 99 53 e8 3e 70 39 f2 be
       0.29280612 -0.09597794 0.4537628 -0.47309446
000360 87 50 74 bf 48 de b6 3e 57 ee 62 bf 88 23 af bd
       -0.95435375 0.35716462 -0.8864493 -0.08551699
000370 db c1 09 3f 42 ca a1 3e e6 23 78 3c c9 f4 68 be
       0.53811425 0.31599623 0.015145278 -0.22749628
000380 19 59 8b 3e 9b fc 27 bd a7 d1 9b bc 24 20 45 be
       0.27216414 -0.041012388 -0.019020868 -0.19250542
000390 52 69 0a be 07 67 36 3e 20 57 29 3f 8b c3 0a 3e
       -0.13516739 0.1781274 0.6614857 0.13551156
0003a0 11 08 26 bf 7f 15 17 3f 92 47 67 3e 8a ab 2d 3f
       -0.6485606 0.59017175 0.22585896 0.6783987
0003b0 93 b3 b7 bd bb b1 67 be 16 9e 14 3e 73 96 8a 3e
       -0.08969798 -0.22626393 0.1451343 0.2706791
0003c0 0f 90 85 3e 0d b1 19 3f 48 4a 24 bf cc cd f2 be
       0.2608647 0.60035783 -0.64175844 -0.47422636
0003d0 b3 cf fc 3d 95 17 1b 3f 0d 47 5f 3f 25 ea e7 3e
       0.12344303 0.6058286 0.8721779 0.45295826
0003e0 a2 34 33 3e 77 bc 84 3c f0 38 f6 3e 30 af 1f 3f
       0.17500547 0.016203148 0.48090315 0.6237669
0003f0 27 35 e8 bc ba 64 18 3f c5 81 89 3f 6d e7 48 bf
       -0.028345658 0.59528697 1.0742728 -0.7847813

sage.layer2.fc_self.bias f4 [128]
000000 b8 19 41 3e 39 94 4c 3d b0 6f 05 be 7d 34 b1 bd
       0.18857467 0.049946044 -0.13030887 -0.086525895
000010 20 57 ac 3d 35 c9 a6 bc 8b c9 c6 3b dd e8 a1 bd
       0.08415055 -0.020359615 0.0060665063 -0.07905743
000020 f3 20 1c 3d 7f a4 59 be f6 d8 c8 3d a2 7c dc bd
       0.03811736 -0.21254157 0.09807007 -0.10765959
000030 e0 3a 88 bd 70 56 7b bb 1f d5 ea bd f9 d7 10 bd
       -0.066518545 -0.0038351081 -0.11466431 -0.035362218
000040 0b c7 6b 3d 4b 42 83 3d df 58 39 bd b5 9a 04 3c
       0.05756287 0.06409129 -0.04525077 0.008093526
000050 45 5f 20 be 20 fd d7 bd 26 79 75 bd db 9b f5 bd
       -0.15661342 -0.10546327 -0.05992999 -0.11992618
000060 1a ee 77 3c 78 e2 75 3d ac 93 18 be 9d ec 3f 3d
       0.015132451 0.06003043 -0.14900082 0.04685651
000070 f1 9f 49 bd da b9 06 3e 9c 96 a4 3d 60 98 f9 3d
       -0.049224798 0.13156834 0.08036539 0.12187266
000080 78 4c fc 3d d4 80 3d bd 4f 97 db ba 5d 4c a5 bd
       0.12319273 -0.04626544 -0.0016753467 -0.08071206
000090 cb 53 5e bd de 5c 1b bc 35 52 b7 bc ed 13 53 3e
       -0.05427913 -0.0094825905 -0.022378067 0.2061307
0000a0 49 92 c8 3c e1 7a 94 3d 46 db 32 bd 5b ba 6e 3e
       0.024483817 0.0725 -0.043666147 0.23313276
0000b0 fc bf 88 bc 27 50 d3 39 b6 26 47 3e a3 4c af 3d
       -0.016693108 0.00040304774 0.19448361 0.08559539
0000c0 14 2b 39 3e e0 49 ce 3d 90 09 e0 3d 00 7d 5f 3d
       0.18082839 0.10072684 0.10939324 0.05456257
0000d0 1a 2e 85 3c 75 07 16 be bf 54 0f be 8d 87 57 3d
       0.016257335 -0.14651282 -0.13997172 0.052619506
0000e0 06 54 30 3e ae c8 8d 3d c1 a1 42 bd 61 00 56 3e
       0.17219552 0.06923042 -0.04751754 0.20898582
0000f0 db 13 16 3e 4c 4e 9c bb 0a ff 0c be 89 e8 82 bd
       0.14656012 -0.004770076 -0.13769165 -0.06392009
000100 43 ff f5 bd c3 ee d5 3c d1 78 a2 bd 6b 82 c7 3d
       -0.12011578 0.026114827 -0.079332 0.09741672
000110 50 02 13 3e 30 9d 1a bd 72 98 c8 3d 83 96 8f 3d
       0.14356351 -0.037747562 0.09794702 0.0701113
000120 10 00 68 3d c3 f8 e6 bd a3 97 b7 3a 22 53 4d be
       0.056640685 -0.11277916 0.0014006983 -0.20051244
000130 4b 42 02 be da 65 a7 bd 09 19 c5 bd 01 fe 18 bd
       -0.12720601 -0.081737235 -0.09623916 -0.037351612
000140 15 a9 80 3d fb a3 5d 3d d5 f1 c5 bb 45 29 80 3c
       0.0628225 0.054111462 -0.0060407915 0.015644679
000150 0a 7a 16 bd 65 35 3b 3d e2 c2 8c 3d 86 2d d2 3d
       -0.03673748 0.045705218 0.068731084 0.10262589
000160 44 88 12 bb 97 cb 63 bd a6 5f 03 bb 20 fc 46 3d
       -0.0022359053 -0.05561408 -0.0020046025 0.04858029
000170 69 9e bc bc 6e 4f 00 3e 8d 94 77 bd ed ab 81 3e
       -0.023024755 0.125303 -0.060444403 0.2532648
000180 35 38 5f 3c 90 b1 b3 bd 00 c4 85 3d dc 2c 4c b8
       0.013624241 -0.08774102 0.06531525 -4.867917e-05
000190 b5 c1 74 3d 12 5a bd bd 06 c7 2d 3e bf 13 d9 3d
       0.059755046 -0.09245695 0.16970453 0.105994694
0001a0 d5 3d ad bd 99 e2 32 3c cd 9c ce bc 42 39 c4 3b
       -0.08459059 0.010918283 -0.025221253 0.005988271
0001b0 f6 81 c8 bd cc 05 c0 3b 1f 2c 26 3e a6 c1 0b be
       -0.09790413 0.005860066 0.16227768 -0.1364809
0001c0 92 2d b0 bc 02 ac 6a be 9c d3 09 3e 8d fd 11 3d
       -0.021506105 -0.22917178 0.13459629 0.035642195
0001d0 dc a2 4c 3d 1f 2a 81 3d 59 fa 53 bc 95 3c 99 3b
       0.049960002 0.06306862 -0.0129381055 0.0046764114
0001e0 71 ff df 3c 5f 95 7a bd a2 53 7f 3d 41 24 fc bd
       0.027343484 -0.061177608 0.062335618 -0.123116024
0001f0 9f 48 91 3d d5 10 70 bb 14 5e 10 3d b2 6b 99 3c
       0.070939295 -0.0036631126 0.03524597 0.018728111
