Audit-log_Analysis/code/GNN/training/checkpoint_graphSAGE/best_model_GraphSAGE_transR_50-7.pt (torch, 236051 bytes, 7 tensors)

sage.layer1.fc_pool.weight f4 [50, 50]
0	0xbf87adf7	-1.0599965
1	0x3e1bf129	0.15228714
2	0x3f622491	0.88337046
3	0xbed1eef3	-0.41002616
4	0xbf3cb3f3	-0.7371208
5	0x3d8dd5b7	0.069255285
6	0x3d0d7546	0.03453567
7	0x3edc9fcd	0.43090668
8	0xbdb00940	-0.08595514
9	0x3d6ddfed	0.05807488
10	0xbd82d104	-0.06387523
11	0xbf31abc2	-0.69402707
12	0xbee00517	-0.43753883
13	0xbdabf590	-0.08396447
14	0xbe3abd45	-0.18236263
15	0xbf28b7c9	-0.65905434
16	0xbf91e0f0	-1.139677
17	0x3e96f58b	0.2948421
18	0xbd9aa86a	-0.07551654
19	0xbeb36356	-0.35036725
20	0x3f0e7ff8	0.55664015
21	0x3e737147	0.2377368
22	0xbf0f94e9	-0.56086594
23	0xbe2888e3	-0.16458468
24	0x3f8f4225	1.1192061
25	0xbd07a2a4	-0.03311409
26	0x3ed9452d	0.4243559
27	0xbe9546a1	-0.29155448
28	0x3ea33840	0.31878853
29	0x3da96fee	0.08273302
30	0xbf8cd449	-1.1002284
31	0xbe2970f4	-0.16546994
32	0xbf6e4214	-0.9306958
33	0xbdf54ee2	-0.11977936
34	0x3ee4665e	0.4460935
35	0xbe1a9e62	-0.15099481
36	0x3f29c40b	0.6631476
37	0xbfe01abb	-1.7508157
38	0x3f5340f2	0.82520974
39	0xbda2843b	-0.07935377
40	0x3e535fe0	0.20642042
41	0xbf59a8fa	-0.8502346
42	0x3d752947	0.05985382
43	0x3f4a5bf1	0.7904654
44	0x3ddb45b7	0.107066564
45	0xbf4ee4a3	-0.8081762
46	0xbddd95ad	-0.10819564
47	0x3e8205e2	0.25395113
48	0xbe14b12e	-0.14520714
49	0x3e3d10fc	0.1846351
50	0x3f80a22e	1.0049493
51	0xbeda5af7	-0.42647526
52	0x3f63d85e	0.89002025
53	0xbf83dd1f	-1.0301856
54	0xbf1e2a2b	-0.61783093
55	0x3f324bec	0.696471
56	0xbd41c5c9	-0.047307763
57	0x3f8082c8	1.0039911
58	0xbcf6ddd4	-0.030135073
59	0x3d79b313	0.060961794
60	0xbecc3b8f	-0.3988919
61	0xbece7f1f	-0.4033136
62	0xbf0810cd	-0.53150636
63	0xbf3bd82d	-0.73376733
64	0x3f280e3b	0.65646714
65	0x3e34f571	0.17671753
66	0xbe183e0f	-0.14867423
67	0x3ec2c7b3	0.38042983
68	0xbe5e7028	-0.21722472
69	0x3e697996	0.22800288
70	0x3f4e0948	0.8048291
71	0xbe2b36e6	-0.16720161
72	0xbedd15d4	-0.43180716
73	0xbee53229	-0.44764832
74	0xbf7d0a3d	-0.9884375
75	0x3fec6fc2	1.8471606
76	0xbef16906	-0.4715044
77	0x3e0a1894	0.13485938
78	0xbd9d7e5d	-0.076901175
79	0x3f9f5e49	1.2450649
80	0x3ea70ec1	0.32628444
81	0xbea3224d	-0.31862107
82	0xbd89030f	-0.066900365
83	0x3e3f6bac	0.18693417
84	0x3fac2c98	1.3451109
85	0x3f61278e	0.8795098
86	0x3da86054	0.08221498
87	0xbfc57bb4	-1.5428376
88	0x3dca3784	0.0987387
89	0xbeef2113	-0.4670492
90	0x3d81a5fa	0.06330486
91	0xbead9785	-0.33904663
92	0xbe5fffa8	-0.21874869
93	0x3e7abc39	0.24485864
94	0x3e8c6130	0.27417898
95	0x3e000234	0.1250084
96	0xbf5a2698	-0.8521514
97	0x3e4fb1d6	0.20282683
98	0xbf0a5793	-0.5403988
99	0xbe255067	-0.16143952
100	0xbdc82d3f	-0.09774255
101	0xbeba9ea2	-0.36449152
102	0x3faccddc	1.3500323
103	0xbe24b0a9	-0.16083016
104	0x3f10d2cf	0.5657167
105	0x3f52d03e	0.82349
106	0xbeb5750b	-0.3544086
107	0x3f6882c6	0.90824544
108	0x3e0b479e	0.13601539
109	0xbf86864e	-1.0509737
110	0xbf89c751	-1.0763952
111	0xbeae8669	-0.34086922
112	0xbce53020	-0.02797705
113	0x3e494dbb	0.19658558
114	0x3f502644	0.8130839
115	0xbedf04f1	-0.43558457
116	0xbf1c5ad3	-0.61076087
117	0x3f214d13	0.6300823
118	0xbe02cb1c	-0.12772793
119	0x3ec08541	0.37601665
120	0x3f3ad96c	0.7298801
121	0xbe34cca6	-0.17656192
122	0x3dca17c3	0.098678134
123	0xbf0ca10c	-0.5493324
124	0x3f63beb3	0.8896286
125	0x3dbc0331	0.09180296
126	0x3ea51e2e	0.32249588
127	0xbd211340	-0.039325
128	0xbf9b2562	-1.2120783
129	0x3f034283	0.51273364
130	0xbebee4b7	-0.3728387
131	0xbd93ae22	-0.072109476
132	0xbf5ca950	-0.8619585
133	0xbf027256	-0.5095571
134	0x3f2c023f	0.6719093
135	0xbd6ac624	-0.057317868
136	0x3f1a5b7f	0.6029586
137	0xc00aef28	-2.170847
138	0x3f9059eb	1.1277441
139	0xbf88d61b	-1.069034
140	0x3f1c8117	0.61134475
141	0xbf686713	-0.9078228
142	0x3f9d80ec	1.2304969
143	0x3f61b90f	0.88173
144	0x3d52371a	0.05132208
145	0xbd9ae465	-0.07563094
146	0x3e8709ee	0.26374763
147	0x3f6337aa	0.8875681
148	0xbdf3a08d	-0.11895857
149	0x3e662ac2	0.22477248
150	0x3e8dc9bf	0.27692983
151	0xbe9f1d58	-0.31077075
152	0xbe7e2690	-0.24819398
153	0x3f29de03	0.6635439
154	0xbf19ec2d	-0.60126
155	0x3de8273e	0.1133561
156	0x3edf4af0	0.4361186
157	0xbe6a9c69	-0.22911228
158	0xbe91538f	-0.28384063
159	0x3f1c3c73	0.6102974
160	0xbf19fd44	-0.6015208
161	0x3ee01cfd	0.43772116
162	0x3e5e41d7	0.21704803
163	0xbf503113	-0.8132488
164	0x3de44417	0.111457996
165	0x3e6c4dec	0.230766
166	0x3f9a8702	1.2072451
167	0xbeca827b	-0.39552674
168	0x3f50ca04	0.8155825
169	0xbcb18688	-0.021670595
170	0xbd785060	-0.060623527
171	0xbec5313b	-0.38514122
172	0xbe8b11d6	-0.27162045
173	0xbf73d2fe	-0.95243824
174	0xbf1142f8	-0.5674281
175	0xbf906d1f	-1.1283301
176	0xbec82a31	-0.3909469
177	0x3ea9976b	0.33123335
178	0xbed6b4ab	-0.41934714
179	0xbea93f6d	-0.33056203
180	0x3f795c88	0.97406816
181	0x3d00a502	0.031407364
182	0x3f253d72	0.64546883
183	0x3e7993f9	0.24372853
184	0xbf37c8e6	-0.7179092
185	0x3ec111b5	0.37708822
186	0x3eafe472	0.34353977
187	0x3fe6baf6	1.8025806
188	0xbde97d3e	-0.11400841
189	0xbe296142	-0.16541007
190	0xbdd6e673	-0.104931735
191	0x3f8a3282	1.0796664
192	0xbf699b5b	-0.9125268
193	0xbf2fcaa1	-0.6866856
194	0xbdadc7e9	-0.084853955
195	0x3f1a83be	0.6035727
196	0x3fc57e89	1.542924
197	0xbe9bfaa4	-0.3046466
198	0xbee46ef9	-0.44615915
199	0xbf1be95d	-0.6090296
200	0xbdeb8630	-0.115002036
201	0xbf566b4e	-0.83757484
202	0xbf8d252a	-1.1026967
203	0x3f0c72ad	0.5486248
204	0x3c75e659	0.015008532
205	0x3fb7efec	1.4370093
206	0xbebcb992	-0.3686033
207	0xbdeb127f	-0.11478137
208	0xbe8c08d8	-0.27350497
209	0x3f7eb90c	0.9950111
210	0xbe2aad25	-0.16667612
211	0x3edfe730	0.4373107
212	0xbe7858b2	-0.24252585
213	0x3f814f5b	1.0102342
214	0xbf44b7fa	-0.76843226
215	0x3d73e9d1	0.059549157
216	0x3f9a1f4e	1.2040803
217	0xbf5ec9ef	-0.87026876
218	0xbdd760bc	-0.105164975
219	0x3ea37fa0	0.31933308
220	0x3edbc6e0	0.42925167
221	0xbf4e80c6	-0.8066524
222	0xbe80a53e	-0.2512607
223	0xbf4120b6	-0.7544054
224	0xbf87ef3b	-1.0619882
225	0xbf5f66fc	-0.87266517
226	0xbf917e4c	-1.1366668
227	0x3e406f24	0.18792397
228	0xbfec29ce	-1.8450258
229	0x3f59cd60	0.85079
230	0x3f5f35e0	0.8719158
231	0xbe1d78a1	-0.15378048
232	0x3d9fb07f	0.07797336
233	0x3e1df534	0.15425569
234	0xbed3546f	-0.41275355
235	0x3f5e4188	0.8681874
236	0x3e97ccee	0.29648536
237	0x3f6029f6	0.8756403
238	0xbfa30d05	-1.2738348
239	0x3f481c1c	0.7816789
240	0x3f0d888e	0.5528649
241	0x3e8412a9	0.25795487
242	0x3eedddb5	0.46458212
243	0xbe6ee644	-0.23330027
244	0x3f45a7c2	0.77209103
245	0x3f015e38	0.5053439
246	0xbe0f90c8	-0.14020073
247	0xbf0333af	-0.5125074
248	0xbd22fe7d	-0.03979348
249	0xbe4e349f	-0.20137261
250	0xbef26cc1	-0.47348598
251	0xbd7f8611	-0.062383715
252	0x3f815c5b	1.010631
253	0x3e86e2cf	0.26344916
254	0xbf34811a	-0.70509493
255	0x3ea80154	0.32813513

sage.layer1.fc_pool.bias f4 [50]
0	0x3de6e0e4	0.11273363
1	0x3d7ca761	0.061683062
2	0x3e014ed2	0.12627724
3	0x3d42a794	0.047523096
4	0x3d94ae11	0.07259763
5	0x3dfb81c3	0.122806095
6	0x3df8a390	0.12140572
7	0x3d9b414d	0.075808145
8	0x3decd0e5	0.11563281
9	0x3d583d86	0.05279305
10	0x3dfa1aea	0.12212165
11	0x3dc256e8	0.09489232
12	0xbd17bfa4	-0.037047997
13	0x3d4a6173	0.04940934
14	0xbd63a9f9	-0.05558202
15	0x3c886300	0.01664877
16	0xbd00591a	-0.031334974
17	0x3dfd2b08	0.12361723
18	0x3dfe440d	0.124153234
19	0x3d9e4fcc	0.07730064
20	0xbdee4a7d	-0.11635301
21	0xbbaf667b	-0.005352793
22	0x3d4e7152	0.05040104
23	0x3dabc323	0.08386829
24	0x3d32b542	0.043629892
25	0x3cc9185f	0.024547754
26	0xbd8d7965	-0.0690792
27	0x3dba7a1d	0.091053225
28	0x3ca2f7b5	0.019893507
29	0xbc46114d	-0.012089086
30	0x3dbc32e5	0.09189395
31	0x3caddfa4	0.021224804
32	0x3bc85cea	0.006114592
33	0x3e018ba7	0.1265093
34	0x3de39eaf	0.11114251
35	0xbc9ee1a7	-0.019394709
36	0x3c605e9b	0.013694431
37	0x3da815fe	0.0820732
38	0xbd3de4c8	-0.04636076
39	0x3db07282	0.08615591
40	0x3dafaf2c	0.08578333
41	0x3df65ae2	0.12029053
42	0x3df2e5a4	0.11860207
43	0x3e055835	0.1302193
44	0x3dcd939f	0.10037922
45	0x3dae83c6	0.085212275
46	0x3dbdd0aa	0.09268315
47	0x3b21b3ca	0.0024673813
48	0x3df2dc7c	0.1185846
49	0x3de9d130	0.114168525

sage.layer1.fc_neigh.weight f4 [128, 50]
0	0xbf058f41	-0.52171713
1	0xbe682ce6	-0.22673377
2	0xbe304808	-0.17214978
3	0x3ee720ba	0.45142156
4	0x3e4ee780	0.20205498
5	0xbf05f834	-0.5233185
6	0xbe8759dc	-0.26435745
7	0xbc6f3f64	-0.014602516
8	0xbee9789a	-0.45599824
9	0x3ed5c88f	0.41754577
10	0xbce20d6c	-0.02759429
11	0x3de46a27	0.111530595
12	0xbf19ad8a	-0.60030425
13	0x3db85e96	0.09002416
14	0xbdb06fd3	-0.08615079
15	0x3f5a1edf	0.85203356
16	0x3f184a78	0.5948863
17	0x3dc506b2	0.09620418
18	0xbe955963	-0.2916976
19	0x3db738d4	0.08946386
20	0x3e7fb65e	0.24971911
21	0x3ea373f0	0.3192439
22	0x3eeaae34	0.4583603
23	0xbe44f587	-0.19234286
24	0x3ede3b7b	0.43404755
25	0xbdc9047b	-0.09815308
26	0x3dd7764d	0.10520611
27	0x3e494d56	0.19658408
28	0x3e2d2d89	0.16911902
29	0xbea866a9	-0.32890823
30	0x3e8460a4	0.2585498
31	0x3f17b7c1	0.5926476
32	0x3eb972c2	0.36220366
33	0x3e80b98d	0.25141564
34	0xbf5d377f	-0.86412805
35	0x3eea06d0	0.45708323
36	0xbe71e85a	-0.23623791
37	0xbe5c9e0d	-0.21544667
38	0x3d39fb5d	0.045405734
39	0xbf3465e9	-0.70468
40	0x3e2ecad8	0.17069566
41	0x3e6eb3ef	0.23310827
42	0x3d50e8d6	0.0510033
43	0xbe887a3d	-0.2665576
44	0x3e117f65	0.14208753
45	0x3f11d1c4	0.569607
46	0x3d5c8890	0.053841174
47	0x3d214f93	0.03938253
48	0xbf2a6d1c	-0.6657274
49	0xbee9905f	-0.4561796
50	0x3edb1a8c	0.4279369
51	0x3ea4129f	0.32045457
52	0x3eff6e0a	0.4988864
53	0x3df96508	0.12177473
54	0xbe3128c5	-0.17300709
55	0x3e2405eb	0.16017883
56	0x3f166400	0.5874634
57	0x3c3eb918	0.0116408095
58	0x3ebd9a05	0.3703157
59	0x3d93c234	0.07214776
60	0x3d28000d	0.041015673
61	0xbd989623	-0.07450511
62	0xbf443378	-0.76641035
63	0xbf03ece4	-0.5153334
64	0x3df574e5	0.119851865
65	0xbef3ee4f	-0.47642753
66	0xbf12fc9e	-0.57416713
67	0x3eb21200	0.34779358
68	0x3dfc3e24	0.1231654
69	0x3d4c84eb	0.049931448
70	0x3bcac824	0.0061884094
71	0x3b2c305e	0.0026273946
72	0xbe026dd5	-0.1273721
73	0x3eb4073f	0.35161778
74	0xbdf70322	-0.120611444
75	0x3ec50571	0.38480714
76	0x3ddacfd4	0.10684171
77	0xbe8f4cd8	-0.27988315
78	0x3cf190a2	0.029487912
79	0xbea80a24	-0.32820237
80	0xbcaa414b	-0.020783087
81	0x3dce70f3	0.10080137
82	0xbeb5c559	-0.35502127
83	0x3d747daf	0.059690174
84	0x3f09737f	0.5369186
85	0xbeb24119	-0.3481529
86	0x3e0419b4	0.1290043
87	0x3e0817d4	0.1329034
88	0x3de786d7	0.113050155
89	0xbe455c5c	-0.19273514
90	0x3e94dfe2	0.2907706
91	0x3f4edd09	0.8080602
92	0x3f39a487	0.72516674
93	0x3eaf3f5f	0.34228036
94	0x3daa53b2	0.08316745
95	0x3e2b040d	0.16700764
96	0x3e140eef	0.14458822
97	0x3d9fcf1b	0.07803174
98	0x3ea49d3e	0.32151216
99	0x3e08dd5d	0.13365693
100	0xbee75cdd	-0.45188037
101	0xbd6055cb	-0.05476932
102	0xbf23307f	-0.63745874
103	0x3e37928a	0.17926994
104	0xbdc09821	-0.09404016
105	0xbed0ac77	-0.4075658
106	0xbce064da	-0.02739184
107	0x3e297610	0.16548944
108	0x3b6b156e	0.0035870927
109	0x3e5fdef6	0.21862397
110	0xbf2978ae	-0.6619977
111	0xbf566f9d	-0.8376406
112	0x3f08fe30	0.5351286
113	0x3e687f66	0.22704849
114	0xbd0743b1	-0.03302354
115	0x3e0520de	0.13000819
116	0x3f09af53	0.5378315
117	0xbe8774a2	-0.2645617
118	0x3cbf7fda	0.023376394
119	0xbd5b574b	-0.053550046
120	0x3da7f007	0.082000785
121	0x3e9c9141	0.3057957
122	0x3ea35666	0.31901854
123	0x3c4719a9	0.012152114
124	0x3e53772f	0.20650934
125	0x3e3f8390	0.18702531
126	0x3ba734b6	0.005102719
127	0x3e75317d	0.2394466
128	0x3ec8252c	0.3909086
129	0x3ec23e7e	0.37938303
130	0xbc59333f	-0.013256847
131	0xbee9fd60	-0.45701122
132	0x3eb02408	0.3440249
133	0xbcffbcbf	-0.03121793
134	0xbd9ab31d	-0.075536944
135	0x3fac1614	1.3444238
136	0x3e63266c	0.22182626
137	0x3e88f48d	0.26749077
138	0xbbbc6caa	-0.0057502585
139	0xbea8cc36	-0.329683
140	0x3e037e3c	0.12841123
141	0x3d65a432	0.056064792
142	0xbe304ba4	-0.17216355
143	0x3e8b1843	0.27166948
144	0xbf1ee710	-0.62071323
145	0x3e232a9c	0.15934223
146	0xbef50a25	-0.47859302
147	0x3eadd937	0.33954784
148	0xbe079f5b	-0.13244383
149	0x3dc6ea78	0.0971269
150	0x3fbca95e	1.4739187
151	0x3dc5b555	0.09653727
152	0x3f1502ce	0.58207405
153	0xbd9e9b04	-0.07744411
154	0xbe62d5ac	-0.22151822
155	0x3f7d0777	0.98839515
156	0x3f793aca	0.9735533
157	0xbe152342	-0.14564231
158	0x3f21deff	0.6323089
159	0xbeccdeb1	-0.4001365
160	0x3f0e1c51	0.5551196
161	0x3e50ad31	0.20378567
162	0x3d19c969	0.037545595
163	0xbc5ac1fc	-0.013351914
164	0x3d0947a0	0.033515573
165	0xbef20716	-0.4727103
166	0xbf6498a1	-0.89295393
167	0x3e6b9ae4	0.23008305
168	0x3f923a46	1.1424034
169	0x3ddb2af4	0.10701552
170	0xbce05436	-0.027383905
171	0xbef6b224	-0.48182786
172	0xbef45e9e	-0.47728437
173	0x3eb9d671	0.36296418
174	0xbce8f7e3	-0.028438514
175	0x3bec84fe	0.0072180023
176	0xbd4dcd4e	-0.050244622
177	0xbe846320	-0.25856876
178	0xbf22f5f7	-0.6365656
179	0xbf0112b6	-0.50419176
180	0x3da4b8d6	0.08043067
181	0xbf2e8a0b	-0.68179387
182	0xbf2d64ca	-0.67731917
183	0x3ee56aab	0.44807944
184	0x3f7e630e	0.99369895
185	0xbef5df9f	-0.48022172
186	0xbf12c38f	-0.5732965
187	0x3e569dbb	0.20958607
188	0x3d2edef4	0.042693093
189	0x3f05b7c9	0.5223356
190	0x3f2225cf	0.6333894
191	0x3e91d445	0.2848226
192	0x3f603d3b	0.8759343
193	0x3f6f9037	0.9357943
194	0xbcfa4ed2	-0.030555163
195	0x3e1836d9	0.14864673
196	0x3e361735	0.1778229
197	0xbe4b33ee	-0.19844028
198	0x3fae2d3a	1.3607552
199	0x3f93d8ae	1.15505
200	0xbe972f29	-0.29528168
201	0x3eaf7086	0.34265536
202	0xbe709485	-0.23494156
203	0xbcd02666	-0.025408935
204	0x3ec95dd4	0.39329398
205	0x3df9a123	0.121889375
206	0xbdc41384	-0.09574035
207	0x3e9bab76	0.30404252
208	0x3d0225c2	0.03177429
209	0xbe33c3d5	-0.17555173
210	0xbf02e414	-0.5112927
211	0xbe900146	-0.28125972
212	0x3e62139f	0.22077797
213	0xbd84c815	-0.06483475
214	0xbdce6c1b	-0.10079213
215	0xbedb46c0	-0.42827415
216	0x3e8fae11	0.2806249
217	0x3e37f604	0.17964941
218	0x3e44d449	0.19221605
219	0x3e915ce2	0.28391176
220	0x3cd0994b	0.02546372
221	0x3e92f2cc	0.28700864
222	0x3d8749f5	0.06605903
223	0xbe933c9a	-0.28757173
224	0xbe854b65	-0.26034084
225	0x3e857e93	0.2607313
226	0x3de3adb8	0.111171186
227	0x3e0bc37d	0.13648792
228	0x3eeb1e2d	0.4592146
229	0xbc827dcf	-0.01592913
230	0xbdf8f22c	-0.121555656
231	0x3c558dce	0.013034297
232	0xbe7470d4	-0.23871166
233	0x3d2d5f4a	0.042327203
234	0x3dac2940	0.08406305
235	0x3ef37c9e	0.47556013
236	0xbd434566	-0.047673605
237	0x3e847356	0.25869244
238	0xbde1e6e1	-0.11030365
239	0x3e18ce26	0.1492239
240	0xbee7c699	-0.45268705
241	0xbe091e2b	-0.13390414
242	0x3ea5f801	0.32415774
243	0x3d608abf	0.05481982
244	0xbe25946f	-0.16169904
245	0xbe958b25	-0.2920772
246	0xbe2913d2	-0.16511467
247	0xbeb0c7e6	-0.3452751
248	0x3e54b8ee	0.2077367
249	0x3d989d34	0.07451859
250	0x3edf6146	0.436289
251	0x3e333832	0.17501906
252	0x3e9f2806	0.31085223
253	0xbd6c4ef4	-0.057692483
254	0x3e59b5d5	0.2126077
255	0xbeb13afc	-0.34615314

sage.layer1.fc_self.weight f4 [128, 50]
0	0xbf05f516	-0.52327096
1	0xbff96cac	-1.9486289
2	0xbfcdb764	-1.6071591
3	0x3df375e0	0.11887717
4	0x3e9ea8da	0.309882
5	0xc01b24b1	-2.4241145
6	0xc011805f	-2.2734601
7	0xc00b843e	-2.1799464
8	0x3f7ec838	0.9952426
9	0x3f67a3e6	0.90484464
10	0x3c86f1ce	0.016472723
11	0x3f2d98fe	0.6781157
12	0x400ce781	2.2016299
13	0xbef991c7	-0.48744032
14	0x401e306a	2.471705
15	0xbf59cf12	-0.8508159
16	0xbf9c1063	-1.2192501
17	0xbfdd8612	-1.730654
18	0x3f16a485	0.58844787
19	0x3f8e08b7	1.109641
20	0x3e6918ea	0.2276341
21	0xbe91fc0b	-0.28512606
22	0xbeccf264	-0.4002868
23	0xbcaa9afe	-0.02082586
24	0x3e3d4ad7	0.1848558
25	0xbf40e03f	-0.7534217
26	0x3f51b13b	0.8191106
27	0x3f074d62	0.5285245
28	0x3f873868	1.0564089
29	0xbfe02771	-1.7512037
30	0xbfb41fc8	-1.4072199
31	0xbf0fd668	-0.5618653
32	0xbdc42d83	-0.09578993
33	0xbfaec2e6	-1.3653228
34	0xbf559d73	-0.83443373
35	0xbf1c14dc	-0.6096933
36	0x3f7f07ce	0.99621284
37	0xbd42378e	-0.047416262
38	0x3fb7860e	1.4337785
39	0xbf473bbb	-0.77825516
40	0xbe6e4ad7	-0.23270737
41	0x3ebd70e7	0.370002
42	0x3fc93048	1.5717859
43	0xbf284f36	-0.65745866
44	0xbf2ef54d	-0.6834305
45	0xbf8077c1	-1.0036546
46	0x3fc002ed	1.5000893
47	0xbfaeff9b	-1.3671755
48	0x3f5d52e8	0.8645463
49	0x3fcad01e	1.5844762
50	0x3f294f88	0.6613698
51	0xbf4e3089	-0.8054281
52	0xbf88b88b	-1.0681318
53	0xbee1b951	-0.44086698
54	0x3f24cba0	0.6437321
55	0x3f582707	0.8443455
56	0x3f8b8f4a	1.0903103
57	0xbfa60a8a	-1.2971966
58	0xbe9d5a6e	-0.30733055
59	0x3e501ecf	0.20324253
60	0xbfb68f23	-1.4262432
61	0x3f3afafe	0.73039234
62	0x3f259dc8	0.6469388
63	0xbfcd947c	-1.6060939
64	0xbeb5f90f	-0.3554158
65	0x3f819ba1	1.0125619
66	0x3f486182	0.78273785
67	0xbfedf33d	-1.8589855
68	0xbe762fe8	-0.24041712
69	0xbeff94f3	-0.49918327
70	0xbfb1ddb3	-1.3895782
71	0xbf084d81	-0.5324326
72	0x3f44d89f	0.7689304
73	0x3f31abad	0.6940258
74	0xbfb1f3e4	-1.3902555
75	0xbfd5564a	-1.6666958
76	0x3fe9da2e	1.8269708
77	0x3edc7d17	0.43064186
78	0xbfa92f17	-1.3217496
79	0xbfc1e498	-1.5147886
80	0x3fb2909f	1.3950385
81	0xbda85cc6	-0.0822082
82	0xbf1008b3	-0.56263274
83	0x3fc090d3	1.5044197
84	0xc0092efe	-2.1434932
85	0x3d4fa472	0.050693937
86	0xbe5979b3	-0.21237831
87	0x3e8d89d0	0.27644205
88	0xbfbe5915	-1.4870936
89	0xbe56d580	-0.20979881
90	0xc01bd4da	-2.4348664
91	0x3eec8f1c	0.46202934
92	0xc0018f31	-2.0243647
93	0xbf861c5e	-1.0477407
94	0xbf315795	-0.69274265
95	0x3f9a67ad	1.2062889
96	0x3faa5254	1.3306375
97	0xbf8eb8da	-1.1150162
98	0x3ca2dca8	0.019880608
99	0xbea4fa3a	-0.32222158
100	0xbfd6f869	-1.6794559
101	0x400c4794	2.1918688
102	0x3fda9505	1.7076727
103	0xbfd81bdf	-1.6883506
104	0x3f805fb4	1.0029206
105	0x3ed02da1	0.40659812
106	0xbdf376bc	-0.11887881
107	0x3fb3ec75	1.4056536
108	0xbfb5aeb0	-1.4193935
109	0x3e6db77c	0.23214525
110	0x3f58db1b	0.8470933
111	0x3eaedfc3	0.34155092
112	0xbf00192b	-0.50038403
113	0x3e8ed62d	0.27897778
114	0x3f06ae5a	0.5260979
115	0xbf67f5f7	-0.9060969
116	0xc0539889	-3.306185
117	0x3fde55e5	1.7369963
118	0x3dd62779	0.104567476
119	0x3f295132	0.6613952
120	0xbf071306	-0.527634
121	0x3ee27988	0.44233346
122	0xbf9adc73	-1.2098526
123	0x401a2bb0	2.4089165
124	0x40009afb	2.0094593
125	0x400ce639	2.2015517
126	0x3fcda30c	1.6065383
127	0xbe02734a	-0.12739292
128	0x3fbac043	1.4589924
129	0xbdb59559	-0.088663764
130	0xbfa9bc66	-1.326062
131	0xbf9499fc	-1.1609492
132	0x3fcc1b1b	1.5945772
133	0xbfeaef5d	-1.8354298
134	0x3fd0bde3	1.6307949
135	0xbfc9e348	-1.5772486
136	0x3f211bde	0.62933147
137	0xc0837aa7	-4.108722
138	0x3f904417	1.1270779
139	0xbf8279b1	-1.0193387
140	0x3f388b0c	0.7208717
141	0xbe20cc69	-0.15702976
142	0x3f909bec	1.1297584
143	0xbe8d752a	-0.27628452
144	0x3ef3b4f3	0.4759899
145	0x3f72576d	0.9466465
146	0xbfb9f5bb	-1.4528116
147	0x3e9f43d1	0.31106427
148	0x3f125a2f	0.5716886
149	0x3fa93a72	1.3220961
150	0xbf707c01	-0.93939215
151	0x3d65e76f	0.056128915
152	0xbf3505c9	-0.7071195
153	0xbfb77821	-1.4333535
154	0xc04af005	-3.1708996
155	0xbf18fb06	-0.5975803
156	0xbf079c7c	-0.5297315
157	0x3ee33bf7	0.44381687
158	0x3e84847d	0.2588233
159	0xbed860e7	-0.4226143
160	0xbe59d5a1	-0.21272899
161	0x3f108d01	0.56465155
162	0xbf3c6dea	-0.73605216
163	0x3fb3703d	1.4018627
164	0x3ed3c7cf	0.4136338
165	0xbe04de7e	-0.12975499
166	0x3ea657b4	0.32488787
167	0xbeeb0a97	-0.45906517
168	0xbf48dc41	-0.7846108
169	0xbfa93823	-1.3220257
170	0x3f9eda1b	1.241031
171	0xbf15c5e7	-0.585051
172	0xbc04e043	-0.008110109
173	0xbfdf7c39	-1.7459785
174	0x3f124675	0.5713876
175	0x3e7746d3	0.24148111
176	0xbfd751cb	-1.6821836
177	0xbdda6b3e	-0.10664986
178	0x3e906720	0.28203678
179	0x3fbb01ff	1.4609984
180	0x3f28ad53	0.6588947
181	0x402175ac	2.5228071
182	0x3fc22da6	1.5170181
183	0xc0062ca0	-2.0964737
184	0xbf81c868	-1.0139284
185	0xbfabb7c8	-1.341546
186	0x3f473236	0.7781099
187	0x3eeaa2f8	0.4582746
188	0x3ec85348	0.3912604
189	0x3f79b44a	0.97540724
190	0xbfaa5c74	-1.3309464
191	0x3fdc2f7d	1.7201992
192	0xbfc7d590	-1.5612049
193	0x3f9ef088	1.2417154
194	0x3ca90e87	0.02063681
195	0x3d5c183d	0.053734053
196	0x40581f67	3.3769166
197	0x3f2553f7	0.64581245
198	0xbf0eb83c	-0.5574987
199	0xbfa30293	-1.273516
200	0x3eddb1b5	0.43299642
201	0x3f18b6a6	0.596537
202	0xbfb1c757	-1.3888959
203	0xbf8f54bf	-1.1197737
204	0x3f1aa711	0.60411173
205	0x3fdfff47	1.749978
206	0x3f2962c4	0.6616633
207	0xc00aaf2a	-2.1669412
208	0x3f467552	0.77522767
209	0x3f5b52f4	0.8567345
210	0xbe2020bd	-0.15637489
211	0xbd1b2035	-0.037872512
212	0x3f16142f	0.5862455
213	0xbf01b5ec	-0.50668216
214	0x3e9851de	0.2974996
215	0xbe562f19	-0.20916404
216	0x401f7042	2.4912267
217	0xbfce0f2c	-1.609838
218	0xbf2b1223	-0.6682455
219	0x3d148980	0.036263943
220	0xbf3d3d42	-0.73921597
221	0x3f8e6b7d	1.1126553
222	0xbe644e66	-0.22295532
223	0x3faa5a2e	1.3308771
224	0xbf985533	-1.1901001
225	0x3f4eaa53	0.80728644
226	0xbf19ec51	-0.60126215
227	0x3fb34805	1.4006354
228	0x3f796672	0.97421944
229	0x3e1a3ec7	0.1506301
230	0xbdfcd64c	-0.123455614
231	0xbf81f9fb	-1.0154413
232	0x3e8249a2	0.25446802
233	0x3f86f26f	1.0542735
234	0x3cc280e4	0.0237431
235	0x3e9d3c31	0.30709985
236	0x3da42246	0.0801435
237	0xbf967b85	-1.1756445
238	0xc000e155	-2.0137532
239	0xbe28f921	-0.16501285
240	0xbd9273f7	-0.07151025
241	0xbecb90c4	-0.39758885
242	0xbe84641b	-0.25857624
243	0xbe23323d	-0.15937133
244	0x3f23b602	0.63949597
245	0x3e87eeba	0.2654932
246	0xbfc6bd04	-1.5526433
247	0x3f55a07f	0.8344802
248	0x3f80275f	1.0012015
249	0xbeb4a908	-0.3528521
250	0x3e280509	0.16408171
251	0xbfc52dba	-1.540458
252	0xbf9a2335	-1.2041994
253	0x3fba87a5	1.4572645
254	0xbf9c2af3	-1.2200607
255	0xbfbd91c6	-1.4810112

sage.layer1.fc_self.bias f4 [128]
0	0x3db9909b	0.090607844
1	0xbd9a857e	-0.07544993
2	0x3e71e3e3	0.23622088
3	0x3cce0663	0.02514953
4	0x3c3307d9	0.010927164
5	0xbc81aa61	-0.015828313
6	0xbdb7c9bc	-0.08974025
7	0xbd903f00	-0.07043266
8	0xbcd6da40	-0.026227117
9	0x3e6ddad7	0.23228012
10	0xbd482aea	-0.04886905
11	0x3e81463f	0.25248906
12	0x3c32093c	0.010866459
13	0xbd6c5ee9	-0.0577077
14	0xbe50ea65	-0.20401914
15	0x3e2491f5	0.16071303
16	0x3e6c8252	0.23096588
17	0xbd3d033d	-0.046145666
18	0x3e2bc80d	0.16775532
19	0x3b612662	0.0034355153
20	0xbcdfba9b	-0.02731066
21	0x3d701364	0.058612242
22	0x3e2facd1	0.17155768
23	0xbd465d22	-0.048428662
24	0xbd0b98b6	-0.034081183
25	0xbda1a3b1	-0.0789255
26	0x3daf79e4	0.08568171
27	0xbe1e94bc	-0.15486425
28	0x3d6deb76	0.05808588
29	0x3cee4cb6	0.029089313
30	0xbdacefef	-0.08444201
31	0x3d8f7d36	0.07006304
32	0x3d9055e9	0.07047636
33	0x3d5e3aa9	0.05425516
34	0xbda528c3	-0.08064415
35	0xbc9de0f9	-0.019272314
36	0x3e8b56e2	0.27214724
37	0xbd2b33fe	-0.04179763
38	0xbe13bbd5	-0.14427121
39	0x3d4f1b9d	0.050563443
40	0xbdca5ff3	-0.09881582
41	0x3e148138	0.14502418
42	0xbc9f21a3	-0.019425219
43	0x3d05c0c2	0.03265453
44	0xbdf709c2	-0.12062408
45	0xbd939110	-0.07205403
46	0xbd84a1da	-0.06476183
47	0x3daa8718	0.08326548
48	0x3e20f289	0.1571752
49	0x3d24e29a	0.040255167
50	0x3e57ef5f	0.21087407
51	0x3c919dd4	0.017775454
52	0x3e42d530	0.19026637
53	0x3c8ee3e4	0.017442651
54	0xbd8f4724	-0.06995991
55	0xbdaef3ca	-0.08542593
56	0x3e40d71e	0.1883206
57	0xbd13efe8	-0.036117464
58	0x3d0005cb	0.031255525
59	0xbd79f5d9	-0.061025474
60	0x3cc6de07	0.024275793
61	0xbd1e14da	-0.038594104
62	0xbd18ed4a	-0.03733567
63	0xbdd929fa	-0.106037095
64	0x3c237811	0.0099773565
65	0x3d8c678f	0.0685569
66	0xbdd4c470	-0.1038903
67	0xbde52cd4	-0.11190191
68	0xbdd230ab	-0.10263189
69	0xbc6d4df8	-0.014483921
70	0xbe06bac5	-0.13157184
71	0xbd47791e	-0.04869949
72	0x3da658c2	0.08122398
73	0xbd8e212d	-0.069399215
74	0x3e5ee886	0.21768388
75	0xbe0ee97f	-0.13956259
76	0xbcf570e7	-0.029961063
77	0x3e2083b7	0.15675245
78	0xbd38e9b2	-0.045144744
79	0xbc69ad6c	-0.014262538
80	0x3dccc3b5	0.09998266
81	0xbd70dc6f	-0.05880397
82	0x3e111445	0.14167888
83	0x3e2ed77f	0.17074393
84	0x3d803456	0.06259982
85	0xbdcebd46	-0.10094695
86	0xbb623f18	-0.003452247
87	0x3e717e8b	0.23583429
88	0xbe03d1a4	-0.1287294
89	0x3e8311e7	0.25599596
90	0xbc9fbb1d	-0.019498402
91	0x3dbeb90f	0.09312641
92	0x3e9a18e2	0.3009711
93	0xbd1d2c36	-0.03837224
94	0x3cae7cd9	0.021299766
95	0x3cc3e08c	0.023910783
96	0xbd924858	-0.07142705
97	0x3d91a044	0.07110646
98	0x3decff49	0.11572129
99	0xbcfce4db	-0.030870846
100	0x3d4ca226	0.049959324
101	0x3e1c90ad	0.15289564
102	0x3e057c60	0.13035727
103	0x3e06e7c4	0.13174349
104	0x3e45284e	0.19253656
105	0xbc749ab3	-0.014929461
106	0xbd2f4fd9	-0.042800758
107	0x3da192d4	0.07889333
108	0xbda74c99	-0.08168907
109	0xbdeaf36d	-0.11472211
110	0xbd5043a2	-0.05084575
111	0xbc161ad2	-0.009161668
112	0x3bc04675	0.005867774
113	0x3d1bdb37	0.038050856
114	0xbd082bc4	-0.033244863
115	0xbd92502a	-0.07144196
116	0x3caef398	0.021356389
117	0x3e52f30c	0.20600528
118	0x3b365ad3	0.0027825132
119	0xbd93af16	-0.07211129
120	0xbd50e8b2	-0.051003166
121	0x3d7cb640	0.061697245
122	0xbdd812af	-0.105504386
123	0x3e523a1e	0.20529982
124	0xbda6d45d	-0.08145974
125	0xbb9a55d0	-0.0047099367
126	0xbe022792	-0.12710407
127	0x3e85e08e	0.26147884

pred.W.weight f4 [167, 256]
0	0x3fa2d9e0	1.272274
1	0xbe4ecf2c	-0.20196217
2	0xbeee3629	-0.46525696
3	0x3dc8dcd2	0.09807743
4	0xbf87eedf	-1.0619773
5	0xbe0f83ae	-0.14015076
6	0xbf1b5050	-0.6066942
7	0xbe8c0c88	-0.2735331
8	0x3f0325a4	0.5122931
9	0x3d9b4dd2	0.075832024
10	0xbe96e1e4	-0.29469216
11	0xbf06394e	-0.5243119
12	0x3f95e27c	1.1709743
13	0x3f44c726	0.76866376
14	0xbf1ad494	-0.6048062
15	0x3ef587b4	0.47955096
16	0x3fa65cf5	1.2997118
17	0x3e83b96c	0.25727403
18	0xbfcccc20	-1.5999794
19	0x3f7168e8	0.943007
20	0xbf33d321	-0.7024403
21	0xbbc81576	-0.006106074
22	0x3e444e7f	0.19170569
23	0xbe7e1ab7	-0.24814878
24	0x3f6fe5fb	0.937103
25	0xbfcf366c	-1.6188483
26	0x3f6bb5d8	0.92074347
27	0x3ed6db87	0.4196436
28	0xbefe3209	-0.4964755
29	0xbf29e05b	-0.66357964
30	0xbfc00c2a	-1.5003712
31	0x3f0f0c80	0.5587845
32	0x3e7d1b64	0.2471748
33	0x3f0828dd	0.5318735
34	0xbf09421d	-0.53616506
35	0x3f8ada50	1.0847874
36	0x3f63024d	0.88675386
37	0xbf3ed3db	-0.74542016
38	0x3eceabc7	0.4036543
39	0x3fd627cc	1.6730895
40	0x3ec07e24	0.37596238
41	0xc045ecf7	-3.0925882
42	0xc0a04a7b	-5.009092
43	0xc007cc05	-2.1218274
44	0x3efdba1e	0.4955606
45	0x3f0f79db	0.5604531
46	0xc092fc50	-4.5933
47	0x3e9eb959	0.31000784
48	0x3fcb19cf	1.5867251
49	0x3eb7d1b1	0.3590217
50	0xbf87c9c6	-1.0608451
51	0xc0c61aa4	-6.190752
52	0x3fbf8dd0	1.4965153
53	0x3e2f5368	0.1712166
54	0x3f3845f7	0.7198176
55	0x3d34b3b6	0.0441167
56	0xbf3a6479	-0.7280956
57	0xc015eb16	-2.3424735
58	0x3e5578b3	0.20846824
59	0x3e3e0e70	0.18560195
60	0xbf517a8d	-0.8182762
61	0x3f555091	0.8332606
62	0xbf0f46b9	-0.5596729
63	0xbe31dace	-0.17368624
64	0x3e327276	0.17426476
65	0x3f96788b	1.1755537
66	0x3e306987	0.17227755
67	0xbe9fbf8a	-0.3120082
68	0xc0624f62	-3.5360951
69	0xbf12ff7f	-0.57421106
70	0xbf72af20	-0.9479847
71	0xbf93a250	-1.1533909
72	0xbc4bd407	-0.012440688
73	0x3d82c11f	0.06384491
74	0xc00a63a9	-2.1623328
75	0xbe100d9a	-0.14067689
76	0xbf083fe2	-0.5322248
77	0xc0afe856	-5.4971113
78	0x3f1d3cf9	0.6142116
79	0x3f5ef326	0.87089765
80	0x3f50c110	0.8154459
81	0xbfcb1e62	-1.5868647
82	0xc08f48b2	-4.477624
83	0xbf6145ac	-0.87996936
84	0x3f4f780e	0.81042564
85	0x3f20ddaf	0.6283826
86	0x3f3085ba	0.6895405
87	0x3f8db429	1.1070606
88	0xbdb07063	-0.08615186
89	0x3f0c6f97	0.5485777
90	0xbeb3466c	-0.35014665
91	0xbfb7d76c	-1.4362617
92	0xc0da2b42	-6.8177805
93	0x3d9d57a0	0.07682729
94	0xbf937426	-1.1519821
95	0x3fcac032	1.5839903
96	0x3b8ef654	0.0043628607
97	0x3ffa85a4	1.9572034
98	0x3ebdcd77	0.3707082
99	0x3e737c37	0.23777853
100	0x3ea43d46	0.32077998
101	0x3f9979e2	1.1990321
102	0x3f100ac2	0.56266415
103	0xbc3f4fd5	-0.011676748
104	0xc09f41f8	-4.976803
105	0xbed6477b	-0.4185141
106	0xc01402e6	-2.312677
107	0xbfadc09d	-1.3574406
108	0xbf8b6294	-1.0889459
109	0xbeadd384	-0.33950436
110	0xbfae5e61	-1.3622552
111	0xbf82ab5f	-1.0208548
112	0x3de8693c	0.11348197
113	0x3f47f748	0.78111696
114	0xbf9447a2	-1.1584361
115	0x3c6bc22a	0.014389554
116	0xbfaba96a	-1.3411076
117	0x3f85d7fe	1.045654
118	0x3e3b4fad	0.18292113
119	0x3e946935	0.28986517
120	0x3f00a939	0.50258213
121	0x3f0d077c	0.55089545
122	0x3e241a98	0.1602577
123	0xbf3d7652	-0.7400867
124	0xbd4f58eb	-0.05062191
125	0xc0863cbc	-4.194914
126	0x3f450fbf	0.7697715
127	0x3e0cdacc	0.1375534
128	0x3f362a1f	0.7115802
129	0x3e47cd1a	0.19511834
130	0x3e734674	0.23757344
131	0x3f1204c8	0.57038546
132	0xbff4b9e7	-1.9119233
133	0x3e0a360a	0.13497177
134	0xc0994e63	-4.7908187
135	0xbf5b9864	-0.85779405
136	0x3e07fee8	0.13280833
137	0x3fa08ef4	1.2543626
138	0xbf2c362e	-0.6727017
139	0x3e4d2ae6	0.20035896
140	0x3eba54de	0.36392874
141	0x3f958e78	1.1684103
142	0xc01e0986	-2.4693313
143	0x3dfafa5a	0.12254782
144	0x3f808556	1.0040691
145	0x3da45fe0	0.08026099
146	0xbbb7b64a	-0.0056064473
147	0x3f1e10ea	0.6174456
148	0xbebea2fc	-0.37233722
149	0x3f9d91ec	1.2310157
150	0x3fdd4b16	1.728854
151	0xbf8b158a	-1.0865948
152	0x3ef27596	0.47355336
153	0xc04a67f7	-3.1625955
154	0x3f18f271	0.59744936
155	0xbea5bc48	-0.3237021
156	0xbdfbd915	-0.122972645
157	0xbebbf99c	-0.36713874
158	0xc0d9e64e	-6.8093634
159	0x3ddea74a	0.108717516
160	0x3df551ec	0.11978516
161	0x3e862ab6	0.2620446
162	0xc029a1ef	-2.6505086
163	0x3e160b74	0.14652807
164	0x3f2aa95e	0.66664684
165	0xc0964480	-4.695862
166	0xbd882f55	-0.06649653
167	0x3f057b7b	0.5214154
168	0xbf5a7d89	-0.853478
169	0xbcd36c86	-0.025808584
170	0xc0ea38aa	-7.319417
171	0xc0059bdc	-2.087638
172	0xc0645aa4	-3.5680323
173	0xc01df982	-2.4683537
174	0xc0431b8d	-3.0485566
175	0xbd863210	-0.065525174
176	0x3ee1acc3	0.4407712
177	0x3f808f93	1.0043815
178	0xbea2ebce	-0.3182053
179	0xc08f0219	-4.469006
180	0x3f7b2627	0.9810509
181	0x3e6aafbd	0.22918601
182	0x3f9e5616	1.2370021
183	0xbdd5a60e	-0.10432063
184	0xbdb845fc	-0.089977235
185	0xbeb840f4	-0.35987055
186	0x3deeb15e	0.11654924
187	0x3ec289b8	0.37995696
188	0xbfa6c288	-1.3028116
189	0x3ef9be19	0.48777846
190	0x3eb2bee4	0.34911263
191	0x3e71af82	0.23602107
192	0x3ee80dca	0.4532302
193	0x40067eea	2.1014962
194	0xbec2a1b9	-0.3801401
195	0xbe4aa5bd	-0.19789787
196	0xc09a72bd	-4.826506
197	0x3ddafd96	0.10692899
198	0xc01ecbb3	-2.4811828
199	0xc0927a36	-4.5774183
200	0x3ed32118	0.41236186
201	0xbfd737ac	-1.6813865
202	0xbf569eea	-0.83836234
203	0xbea97101	-0.33094028
204	0xbf909b36	-1.1297367
205	0xbfb2d2e7	-1.3970612
206	0x3edeb8ad	0.4350027
207	0x3f5fb6d7	0.87388366
208	0x3eca1711	0.39470723
209	0xc092ca68	-4.587208
210	0xbff6bfa2	-1.9277232
211	0xbedaac7b	-0.42709717
212	0x3f90415b	1.1269945
213	0x3f2d5ac1	0.67716604
214	0x3dc8601d	0.09783957
215	0x3f60119a	0.8752686
216	0xbef12bc9	-0.47103718
217	0x3f4e590d	0.8060463
218	0xbf83a5d8	-1.0284986
219	0xbff4078d	-1.9064804
220	0xbfc0fde0	-1.5077477
221	0xc058eaf9	-3.3893416
222	0xbf10d68b	-0.56577367
223	0x3e3c2d96	0.18376765
224	0xbc077101	-0.008266688
225	0x3f7813e1	0.9690533
226	0x3f0a4b58	0.54021215
227	0x3e54722e	0.20746681
228	0x3c28e0e6	0.010307526
229	0x3e81b226	0.2533123
230	0xbf07fd4c	-0.53120875
231	0xbd7b7e71	-0.06139988
232	0xbfaf7cb0	-1.3709927
233	0x3ea78036	0.32715005
234	0xbfbc2a33	-1.4700378
235	0xbeac16ca	-0.33611137
236	0xbfd49386	-1.660752
237	0xc0a0c6be	-5.0242605
238	0xc0802111	-4.0040364
239	0xbf3dfc12	-0.74212754
240	0x3eabba88	0.3354075
241	0xbe686a65	-0.22696836
242	0xc0efa372	-7.488702
243	0xbeef2a06	-0.4671175
244	0xbf7ac7b0	-0.9796095
245	0x3f7b4abd	0.98160917
246	0xbe7e7fa9	-0.24853386
247	0x3f182b77	0.5944132
248	0x3ec3f6a7	0.38274118
249	0x3e0eab6b	0.13932578
250	0xbf54aa20	-0.8307209
251	0xbf0375b9	-0.51351506
252	0xbe3a430f	-0.18189643
253	0xc0c7af4d	-6.240149
254	0x3e84cd09	0.2593768
255	0xbe24657c	-0.16054338

pred.W.bias f4 [167]
0	0x3d771dbd	0.060331095
1	0xbd8e7b65	-0.069571294
2	0xbcec2b6c	-0.028829299
3	0x3c4cdeed	0.0125043215
4	0xbd5e6480	-0.054295063
5	0x3d22d706	0.039755844
6	0x3e6e2e71	0.23259903
7	0xbe3be9fd	-0.18350978
8	0x3c43cfcf	0.011951401
9	0xbd98b43e	-0.074562535
10	0xbf7a5117	-0.97779983
11	0xbd91da38	-0.071217
12	0xbd8d8d02	-0.06911661
13	0x3e4ba4cf	0.19887088
14	0xbd146cf9	-0.036236737
15	0x3e00cda9	0.12578453
16	0xbe81b287	-0.25331518
17	0xbed71dcd	-0.42014924
18	0xbd8d12c1	-0.06888343
19	0xbfc99384	-1.5748143
20	0xbf4f46d1	-0.8096743
21	0xbc095035	-0.008380939
22	0xbfb759c5	-1.432427
23	0x3e335209	0.17511763
24	0xbcd818b8	-0.026378974
25	0xbf1fb4cf	-0.62385267
26	0xbf8a6889	-1.0813152
27	0x3e207a3f	0.15671633
28	0xbf625313	-0.8840801
29	0xbf14899a	-0.58022463
30	0xbd63d759	-0.055625293
31	0xbd3fd65d	-0.046835292
32	0xbefe3eb4	-0.49657214
33	0xbd8692fd	-0.065710045
34	0xbd2f8658	-0.04285273
35	0xbf0da16e	-0.5532445
36	0xbdaa66d4	-0.08320394
37	0xbba7137f	-0.0050987597
38	0xbd4ba293	-0.04971559
39	0x3e5d9a3d	0.21640868
40	0xbe434f66	-0.19073257
41	0xbed16d02	-0.4090348
42	0xbd9368f2	-0.07197751
43	0xbf6fd291	-0.93680674
44	0xbd016c44	-0.03159739
45	0xbc9f2336	-0.01942597
46	0xbf9dfa2f	-1.2341975
47	0xbcc5f569	-0.024164872
48	0xbd98907e	-0.07449435
49	0xbd688205	-0.05676462
50	0x3eb816a4	0.35954773
51	0xbf6c2624	-0.922457
52	0xbfa68700	-1.3009949
53	0xbcf9b5e4	-0.03048224
54	0xbd1285ed	-0.035772253
55	0xbcc3fd03	-0.023924356
56	0x3c39ec6d	0.011347872
57	0xbdbe1389	-0.0928107
58	0x3dc26bed	0.094932415
59	0x3d9409d7	0.07228439
60	0xbd1b6eac	-0.03794734
61	0x3deba6b3	0.11506405
62	0x3e2ccc79	0.16874875
63	0xbf2ccbbc	-0.67498374
64	0x3be64533	0.007027292
65	0xbef8d4a3	-0.4859973
66	0xbe901f79	-0.28149012
67	0x3d4de509	0.050267253
68	0x3c04f877	0.008115879
69	0x3d616d9c	0.055036172
70	0xbed45ef4	-0.41478693
71	0xbf3f344a	-0.7468916
72	0x3e338d69	0.17534412
73	0x3d9c50d4	0.07632604
74	0xbda4bf1a	-0.08044262
75	0xbd22930e	-0.039691024
76	0xbd194763	-0.037421595
77	0xbecb4996	-0.3970458
78	0x3cd3affc	0.025840752
79	0xbe847fa5	-0.25878635
80	0xbd131601	-0.035909656
81	0xbd96b9c5	-0.073596515
82	0x3ea04f78	0.3131063
83	0xbda2767c	-0.07932755
84	0xbdaf2072	-0.0855111
85	0xbeba2808	-0.36358666
86	0xbfb42fe5	-1.4077116
87	0xbd3d20f6	-0.046174012
88	0xbca98d73	-0.020697331
89	0x3e5c2777	0.2149943
90	0x3b8725a2	0.004124359
91	0x3d4c6379	0.049899552
92	0xbd9c947d	-0.076455094
93	0x3aa989ce	0.0012934746
94	0xbe2171db	-0.15766089
95	0x3baf82ce	0.0053561693
96	0x3da00c85	0.07814888
97	0xbcea3247	-0.028588427
98	0xbe120f6a	-0.14263692
99	0xbeebaecc	-0.46031797
100	0xbdbb1c78	-0.09136289
101	0xbf19b319	-0.60038906
102	0xbfb0ba44	-1.3806844
103	0x3bd807fb	0.006592748
104	0xbd0f02aa	-0.03491465
105	0x3e0f2aa5	0.13981111
106	0x3d639659	0.055563305
107	0xbf569cc9	-0.83832985
108	0x3d30df01	0.043181423
109	0xbc8c8c68	-0.017156795
110	0x3c0b4285	0.008499746
111	0xbcdf7a5b	-0.027280023
112	0xbd2c7e1c	-0.042112455
113	0xbb8a8ef1	-0.0042284657
114	0xbb4c0938	-0.0031133424
115	0xbeafb63d	-0.34318724
116	0xbd20f96d	-0.03930037
117	0x3dc2ae70	0.095059276
118	0xbce12ed6	-0.027488153
119	0xbd814393	-0.06311717
120	0xbe2754dd	-0.16340967
121	0xbd88cd90	-0.06679833
122	0x3d5ed8cd	0.054405976
123	0xbef769d5	-0.4832293
124	0xbc916fd3	-0.017753517
125	0xbd6e1cc5	-0.058132906
126	0x3cef03ac	0.029176556
127	0xbf198a27	-0.5997643
128	0xbe953732	-0.29143673
129	0x3da037b8	0.078231275
130	0x3e7edc0c	0.24888629
131	0xb94da001	-0.0001960993
132	0xbf3b0db3	-0.7306778
133	0xbefb9dd0	-0.4914384
134	0xbf9f0587	-1.2423562
135	0xbe185ffb	-0.14880364
136	0xbddf9650	-0.10917342
137	0xbf7d0307	-0.98832744
138	0xbe8cd9f3	-0.27510032
139	0xbf37821a	-0.71682894
140	0xbe8bcfd9	-0.27307013
141	0xbea913c2	-0.33022887
142	0xbd8306f1	-0.06397808
143	0xbcc4b106	-0.024010193
144	0xbd9bac65	-0.07601241
145	0x3d7cbf75	0.061706025
146	0xbe29169d	-0.16512533
147	0x3b5450bb	0.0032396752
148	0xbef1b2a0	-0.47206593
149	0xbfb58721	-1.4181863
150	0xbcfb9286	-0.030709516
151	0xbd71758c	-0.058949992
152	0xbd1c3f78	-0.038146466
153	0xbf70a6ac	-0.9400432
154	0xbf0d8815	-0.5528577
155	0xbecd09f0	-0.40046644
156	0xbedd5e87	-0.4323618
157	0xbdaa98aa	-0.083298996
158	0xbcfc9d30	-0.030836672
159	0xbe968517	-0.29398414
160	0xbee2138a	-0.44155532
161	0xbf9863e4	-1.1905484
162	0xbda025ae	-0.07819687
163	0xbd6be9cf	-0.057596024
164	0xbd45c995	-0.048287947
165	0xbf2651ce	-0.64968574
166	0xbd6efbd9	-0.05834565
