Audit-log_Analysis/code/GNN/training/checkpoint_graphSAGE/best_model_GraphSAGE_transR_50-8.pt (torch, 235987 bytes, 7 tensors)

sage.layer1.fc_pool.weight f4 [50, 50]
000000 d5 9c 4f bf 9c 45 28 be 30 b3 8a 3e e3 81 21 be
       -0.8109868 -0.16432804 0.27089834 -0.15772204
000010 af 41 28 bf c7 ff 62 bc 9f 07 53 3f 1b 17 62 3e
       -0.65725225 -0.013854927 0.82433504 0.22079127
000020 3e b8 32 bf 3b f3 39 3f 5a e3 7d 3e 6d a5 e1 be
       -0.6981238 0.72636765 0.24793759 -0.44071522
000030 20 b3 9a 3d e5 ec d2 be 6d 4c 07 bf b1 f9 3b 3d
       0.07553697 -0.4119636 -0.5285099 0.04589242
000040 90 ae 20 be ad b2 f8 be 15 5c aa be 40 60 f9 be
       -0.1569159 -0.4857382 -0.33273378 -0.48706245
000050 1e fe 18 3f 5b d6 f8 3d a8 18 21 bf 2b 2a f7 3e
       0.5976275 0.1215026 -0.6292825 0.4827436
000060 76 2c 20 be 19 51 bc bd fd 92 c6 3e 74 2a 0d be
       -0.1564196 -0.09195156 0.38784018 -0.13785726
000070 20 24 09 3f a7 18 a4 bd fc 08 02 3b 1f 33 d4 3e
       0.5357075 -0.080125146 0.001984178 0.41445252
000080 3c 28 38 be 7d 68 d4 3e 71 e1 ce 3e 07 8f b4 3e
       -0.17984098 0.41485968 0.40406373 0.3526537
000090 18 22 5b 3e 75 49 02 be 53 1b 9f bd 64 a2 8a be
       0.21399724 -0.12723334 -0.077688836 -0.2707702
0000a0 a2 df de 3e 20 28 8a be 58 b1 25 bf 8d 36 96 3e
       0.43529993 -0.26983738 -0.6472373 0.29338494
0000b0 11 2a a7 be 7d 91 c0 bd bb 08 60 be 73 24 bc 3d
       -0.32649282 -0.0940275 -0.2187833 0.0918664
0000c0 e2 85 6e be 01 ad e3 be f0 06 bf 3e 7c df db be
       -0.2329326 -0.4446793 0.3730998 -0.42943943
0000d0 5c c4 ca 3d d4 8e d4 3e 48 3b eb 3e 23 52 a9 be
       0.09900734 0.4151522 0.45943666 -0.33070478
0000e0 69 54 9f 3e cc 74 41 3e 61 16 31 bf 7e 09 1f 3f
       0.31119087 0.1889221 -0.6917477 0.6212386
0000f0 52 2f 65 bf a2 f8 6e 3e 1f e7 93 3e 5b c0 a7 be
       -0.8952533 0.23337033 0.2888727 -0.32763943
000100 58 10 0d 3f a8 3b e4 3e 6b 0c a1 3c 8e 61 74 3d
       0.55103064 0.44576764 0.019659242 0.059663348
000110 d5 61 4b 3f c5 5c e1 bd 41 6b ff bd 7e 3b 53 be
       0.79446155 -0.110040225 -0.12471629 -0.20628163
000120 77 f5 d2 be e3 ec 15 be 77 16 58 bd 96 2c c5 3f
       -0.412029 -0.14641146 -0.0527558 1.5404232
000130 36 32 54 bf a9 17 73 be 0e ec 0c 3f 3b d8 87 3e
       -0.82889116 -0.23739494 0.5504769 0.26532158
000140 43 48 fc bd 7f 2c 90 3e be 6b 63 bf 46 d9 9a bc
       -0.1231847 0.28158948 -0.88836277 -0.018902432
000150 51 ee 00 be 1f ce 66 be a1 c8 39 bf 0b c0 d1 bd
       -0.1259091 -0.22539566 -0.7257176 -0.102417074
000160 a9 fc 0a 3e 2d 1a ed 3e c5 de 76 3e 50 a7 aa 3d
       0.13572945 0.46309033 0.24108417 0.083326936
000170 85 11 22 bf 11 10 64 bf 56 7d 1f bd c9 30 1f 3d
       -0.6330798 -0.89087015 -0.03893789 0.038864885
000180 d6 c3 2e 3d 06 2f 09 3f c3 0a 20 bb 4e fd 19 be
       0.042667232 0.5358738 -0.0024420477 -0.15038034
000190 c0 2d 00 3c 4c be b6 3e c3 61 08 3f 52 0d eb be
       0.007823408 0.3569206 0.5327417 -0.459086
0001a0 44 23 06 3e 2c 26 ba 3e 30 58 36 be 44 8e d3 bc
       0.1309939 0.36357248 -0.17807078 -0.025824673
0001b0 25 9e 30 3d 0b 6a 5b be be fb ae be 5a 74 1d 3e
       0.04311957 -0.21427171 -0.3417644 0.15376416
0001c0 c3 f3 5b 3c 44 51 02 bf 1b 3f 72 3e 96 61 83 be
       0.013424817 -0.5090525 0.23656885 -0.2566039
0001d0 d3 be 74 bc 38 f9 9d 3e f7 56 10 3e 6c 94 df 3e
       -0.014938074 0.308542 0.14095674 0.43667924
0001e0 7b d0 29 3e ad bf 15 3c 55 cd 58 3e 61 d2 7d be
       0.16583435 0.009139937 0.21172078 -0.24787284
0001f0 49 17 02 3e d5 38 75 be b4 a7 6f 3e 21 00 32 3d
       0.12704195 -0.23947461 0.23403817 0.043457154
000200 80 93 0b bf 57 13 ed 3d 3a 07 71 be 6d 3e 51 be
       -0.5452194 0.115759544 -0.23537913 -0.2043397
000210 a5 25 db bd 85 56 a7 3d 88 60 28 3e 81 a3 9d 3c
       -0.107005395 0.08170799 0.16443074 0.019243004
000220 6a a9 32 3e 05 3f 0a bf 58 b1 b9 3d b8 c0 df be
       0.17447439 -0.5400241 0.09067029 -0.4370172
000230 cd 23 49 3e d9 a5 e0 be d2 85 c4 3e bf 19 ad 3e
       0.19642563 -0.43876532 0.38383347 0.33808705
000240 04 e0 67 bc 80 ec f9 3b 3a 7f f6 3e 26 f7 09 bd
       -0.014152531 0.00762707 0.4814394 -0.033682965
000250 d5 12 14 bd f9 a2 b0 bd b3 ed f5 be af b9 55 3e
       -0.036150772 -0.086248346 -0.48032913 0.20871614
000260 8e 5f b8 bd 81 da b8 3e a2 6e 09 bf a4 71 6f 3e
       -0.090026006 0.36104205 -0.5368444 0.23383194
000270 7a 59 5d 3e 0c 31 92 bd 2e 4d b1 3d 0f 84 a5 3e
       0.21616164 -0.07138261 0.08657299 0.32327315
000280 fe d7 1c be b6 73 2d 3e 88 18 72 bc 79 1e 30 3f
       -0.1531677 0.16938671 -0.0147763565 0.687965
000290 d3 37 e0 3e f3 bd 94 be 3f 7c 9e 3f bb 8f 6c be
       0.4379259 -0.2905117 1.2381667 -0.23101704
0002a0 60 fd a8 3f fa b5 97 be 60 fb 03 be 92 35 c2 bc
       1.3202324 -0.29631025 -0.1288886 -0.023707185
0002b0 6d a3 5e 3e 3f 82 c4 be 33 e4 9d 3b 0d 4d 30 be
       0.2174203 -0.3838062 0.004818463 -0.17216893
0002c0 65 12 92 3e d6 4f 14 3e 9b 25 0f 3f e0 50 bd bd
       0.2852966 0.1448358 0.55916756 -0.09243941
0002d0 41 7a bc 3d 82 b0 5c be 52 cc f5 be 2c ef 29 3f
       0.092030056 -0.21551707 -0.48007447 0.6638057
0002e0 d8 d2 22 bc 6b c6 5b bc ec 73 c1 3f 46 96 50 3f
       -0.009937964 -0.013414006 1.5113502 0.814793
0002f0 d8 07 95 3e ec 54 cb 3d b2 5c 0a be e9 7a 62 3e
       0.29107547 0.09928307 -0.13511923 0.22117199
000300 71 4a 16 be e8 80 10 bf 65 84 08 bf ea 7c aa 3e
       -0.14676835 -0.56446695 -0.5332702 0.33298427
000310 22 c1 dd bd 0c c8 ce 3e a5 2f de bd c5 3e 11 bf
       -0.10827853 0.40387 -0.10848931 -0.56736404
000320 05 3a e4 be bd 9a 0c bf cc 6a a5 bd e8 2b d1 3e
       -0.44575515 -0.5492361 -0.080770105 0.4085381
000330 6c 97 3b bf 4a 2c 21 be d4 57 24 be a9 fd 4a be
       -0.73277926 -0.15739551 -0.16049129 -0.19823326
000340 40 c2 30 bd b5 8d 55 3f c1 2f 15 bf a5 8b 1d 3e
       -0.043154 0.8341935 -0.5827599 0.15385301
000350 03 eb 83 bf 9c 00 ff 3d f8 07 35 bc 7e fd ea be
       -1.0306095 0.12451288 -0.011049263 -0.45896524
000360 54 41 1b 3e 1d 52 0a bf 7e c3 c3 bd 8f 15 d2 3e
       0.1516164 -0.54031545 -0.095587716 0.41032073
000370 98 20 7b be 82 2d 65 be d3 78 41 3e 76 d2 0c bf
       -0.24524152 -0.22380641 0.18893747 -0.5500864
000380 27 2f 07 be 5b f9 1d 3f 4c 24 de 3d e3 8c d9 3d
       -0.13201581 0.6170861 0.10846767 0.10622575
000390 66 2b 99 be 75 6c 67 3e 2c 50 18 3e 12 44 54 3e
       -0.29915923 0.22599967 0.14874333 0.20729092
0003a0 e4 2d 60 3f 63 46 8d 3e 04 6c 2b 3d 9a b5 81 3d
       0.87570024 0.27592763 0.04185106 0.06333466
0003b0 20 24 cd 3e 81 f5 6b bd 5b 27 20 be 33 5e 16 bd
       0.40066624 -0.057607178 -0.15640013 -0.03671093
0003c0 f2 23 6d 3e a9 11 e9 bd c2 82 21 3e 2c 15 b5 bd
       0.23158243 -0.113803215 0.15772536 -0.08841929
0003d0 b1 56 4d 3e 30 0e ab be b7 af 28 bd 8c 0b 94 3e
       0.20052601 -0.33409262 -0.0411832 0.2891506
0003e0 ab fc 59 bd 6a 5f 76 3f 65 da 46 3f b5 4b 3c bf
       -0.05321948 0.9623934 0.77676994 -0.7355302
0003f0 0c 8e 00 bf b8 08 c3 be 73 4d 79 bd be 5d ee 3e
       -0.50216746 -0.3809259 -0.060864877 0.46555895

sage.layer1.fc_pool.bias f4 [50]
000000 87 dc 4c 3d 1c 4a 19 3c 40 1b 5d 3d 4a b3 18 3d
       0.050015 0.009356048 0.053981066 0.03728036
000010 38 72 11 3d 1f 45 0f 3d 7d 25 94 3c ea 68 06 3d
       0.035509318 0.03497803 0.018084282 0.032814898
000020 c2 3e f6 3c 71 a3 24 3d 92 74 0f 3d 5e 30 6c 3c
       0.030059222 0.040194932 0.03502328 0.0144158285
000030 03 7b eb 3c c4 32 55 3d 59 7c 45 3d 48 46 16 3d
       0.02874518 0.052050367 0.04821429 0.03668812
000040 71 e5 93 3c 9b 94 92 3c 5f c0 f4 3c 79 ef 28 3c
       0.018053742 0.017893126 0.029876886 0.010311001
000050 67 20 72 3b 21 12 a1 3c 82 51 22 3c c2 2d 12 3d
       0.0036945583 0.019661965 0.009907128 0.03568817
000060 35 35 38 3d 3a c2 23 3d 01 10 df 3c a9 fd a0 3c
       0.044972617 0.03998015 0.027229311 0.019652205
000070 84 31 fd 3c a6 4f 11 3d ea 36 52 3d 08 f2 06 3d
       0.0309074 0.03547635 0.0513219 0.032945663
000080 6b 55 92 3d 4b 35 2f 3d 60 a4 4e 3d 8c 79 62 3d
       0.071451984 0.042775434 0.05044973 0.055291697
000090 2d c4 38 3d e9 65 57 3d 8e 3e bc b4 cd 39 ad 3b
       0.045108963 0.052587423 -3.5063243e-07 0.0052864314
0000a0 d0 05 60 3d 5e fd 48 3d e6 fb 6b 3d 79 72 8c 3b
       0.054693043 0.049069755 0.057613276 0.004286107
0000b0 f2 65 6b 3d e1 db 3c 3d ad 17 0f 3d 83 a8 e3 3c
       0.05747027 0.04610813 0.03493469 0.027790314
0000c0 2f 62 a3 3b e3 f6 98 3c
       0.0049860696 0.018672412

sage.layer1.fc_neigh.weight f4 [128, 50]
000000 23 17 b4 be 48 63 36 3d 6f db 78 3d 31 0a eb 3d
       -0.35173902 0.044528276 0.060756143 0.11476553
000010 6b 10 73 3d 95 b0 4b 3d 0d 05 6e be 09 75 6b 3d
       0.05934183 0.04972895 -0.23244114 0.05748466
000020 1e 78 95 3d 92 12 0e bf f7 68 83 3e c2 91 de be
       0.07298301 -0.55497086 0.2566602 -0.4347058
000030 6b c5 04 3e 16 2e a7 be 3c 16 c9 bc ce 5a 85 be
       0.12965934 -0.32652348 -0.024546735 -0.2604584
000040 53 ba 09 be 49 0d 57 3e 82 80 cd 3d 38 e2 0b 3e
       -0.13449983 0.21001162 0.100342765 0.13660514
000050 0a 6b 27 3b e3 e9 8a 3e a5 a2 94 3e a9 7f 88 3c
       0.0025545978 0.27131566 0.29030338 0.016662436
000060 a2 30 b4 3e 04 80 88 be c4 1a 40 3d 8b f9 dd 3d
       0.35193354 -0.26660168 0.046900526 0.10838612
000070 44 8f 23 3e 9b ec d9 3e 50 53 48 bc b7 cf 79 3e
       0.1597262 0.42563328 -0.0122268945 0.24395643
000080 12 ee a3 3e 8c a5 b5 3e 33 c3 e5 3d d0 64 cb 3d
       0.3201757 0.35477865 0.11218872 0.09931338
000090 2f ec a8 be e0 6c 91 3e 51 75 97 34 73 98 17 be
       -0.32992694 0.28403378 2.82113e-07 -0.14804249
0000a0 10 57 da bd db f7 10 be ea e5 2d be d9 bc fd be
       -0.10661137 -0.1415705 -0.16982237 -0.49558142
0000b0 a3 68 50 3d fe 1d 63 3e 8a ba 21 3e 67 3a 86 3d
       0.05088104 0.2217941 0.15793815 0.06554108
0000c0 9d 7e 52 be 40 ed 39 3c da 18 63 3d 93 69 8c be
       -0.20556112 0.011348069 0.055443622 -0.27424297
0000d0 bb 5a 21 bd 45 11 ba be 9e 90 67 be c6 aa 57 3e
       -0.039393168 -0.363413 -0.22613761 0.21061239
0000e0 db f1 68 bc 95 e3 cb 3d ff 03 93 3e af 46 00 3d
       -0.014217819 0.09955517 0.28713986 0.03131741
0000f0 65 f4 75 be 33 db 46 3e f7 df fc bc 6d b3 b6 3a
       -0.2401901 0.19419555 -0.030868514 0.0013938971
000100 2d b8 c4 3e c3 c4 91 be b8 89 af 3e 65 a9 71 be
       0.38421765 -0.2847043 0.3428476 -0.23599775
000110 57 d9 89 3e e6 d7 59 be a9 c9 f2 bd c2 42 1e be
       0.2692363 -0.21273765 -0.1185487 -0.15455154
000120 a0 a3 8f 3d 5c cd 9a be 7f 2c 91 3a f0 d7 7e 3d
       0.07013631 -0.30234802 0.0011075883 0.062217653
000130 c9 e0 6d 3e 7b c7 5b bd 12 0a e3 3d 46 3a 73 be
       0.2323028 -0.053657036 0.11085905 -0.23752698
000140 9d 7f 36 bb ec e0 bd 3d 0a 94 d6 bc ec 5e da be
       -0.002784706 0.09271416 -0.026193637 -0.42650545
000150 a5 85 a3 3e 75 a7 a7 3e e9 a4 31 3e c3 3a f0 bd
       0.319379 0.32744947 0.17348064 -0.11729958
000160 d6 dc 33 35 6f 00 00 3e 85 af 23 3e 4f c1 08 be
       6.7004055e-07 0.12500165 0.15984924 -0.13354991
000170 ff 3a a2 3d f5 f2 8e 3c 42 ef e8 bd a5 22 48 be
       0.07921409 0.017449835 -0.1137376 -0.19544466
000180 5a e9 a6 3e e6 60 aa 3e 3b d2 93 3e b0 f5 84 3d
       0.32599908 0.33277053 0.2887133 0.06492174
000190 36 39 1a be 76 3f da 3d b9 b9 af bc b4 ca 4d be
       -0.15060887 0.106566355 -0.021450864 -0.20096856
0001a0 5f 60 6e be 6c f3 1b 3b 85 57 6d 3e 05 8d e2 bd
       -0.2327895 0.0023796214 0.23177917 -0.110620536
0001b0 7a 26 6d 3e a4 92 88 3d 87 e5 5b be 01 6b 1d be
       0.23159209 0.066685945 -0.21474276 -0.1537285
0001c0 37 6f 2f be 91 a3 31 3d 4b 35 61 3e 05 7f ef 3e
       -0.17132269 0.04336888 0.21992986 0.46776596
0001d0 79 7a 9a 3d d2 97 a4 bd 95 b1 9e be 6d 4d 2c be
       0.07542891 -0.0803677 -0.3099486 -0.1682641
0001e0 6f b8 74 3c 4e c2 2c be 50 ee b7 bd ac 8f ff bd
       0.0149365505 -0.16870996 -0.089810014 -0.12478575
0001f0 b3 d5 d7 bd 8d b5 bd 3e ef 62 f9 3c cb 80 f8 bd
       -0.10538807 0.37052575 0.030442683 -0.1213394
000200 3f 16 98 3d 96 0a 3e be 3a 76 53 3e 9d 66 8f be
       0.07426118 -0.18558726 0.20650569 -0.28007975
000210 39 86 47 3d e5 15 ff 3d d1 21 15 3f 31 03 57 3d
       0.04871199 0.12455348 0.58254725 0.052493278
000220 40 8b 20 3e 97 53 bc 3e cb 1a 13 b3 65 67 4e be
       0.1567812 0.36782524 -3.4250473e-08 -0.2015663
000230 28 05 a7 bd 10 1e 35 be da 84 ef be c7 42 42 be
       -0.0815528 -0.17687249 -0.46781045 -0.18970786
000240 dd ce 20 bd 28 30 81 3e d0 a7 b1 be e2 ef ff 3d
       -0.03925978 0.25232053 -0.34698343 0.12496926
000250 b8 8c 5f bd 10 66 d0 3d de 03 54 3d 39 89 6b be
       -0.05457756 0.10175717 0.0517615 -0.23001565
000260 e4 88 53 3e 83 0e 61 3d 17 d2 c3 bc ce 40 70 3e
       0.20657688 0.05494548 -0.02390389 0.23462221
000270 14 a6 3f 3e f2 d7 dc 3e f2 0f 13 3e 48 97 0f 3d
       0.18715698 0.43133503 0.14361551 0.035056382
000280 89 e7 f6 be 83 2f 79 be 7e b7 a0 bd a2 b5 24 3e
       -0.48223522 -0.2433453 -0.07847498 0.16084912
000290 57 c5 80 3c b9 f8 84 be ba cf 12 3e c0 fe 40 be
       0.015719099 -0.2597101 0.14337054 -0.1884718
0002a0 0a ea a9 3e db fe ed bb a1 97 ae bd fe ab b6 3c
       0.3318637 -0.007263047 -0.08525015 0.02229881
0002b0 32 86 83 bd 13 f1 9e 3d 1c 52 bc 3e 45 3d 9d bd
       -0.0642208 0.07760825 0.36781394 -0.07677702
0002c0 73 20 95 bd c3 9a 87 bd ca a8 a1 bd 53 c1 33 be
       -0.0728158 -0.06621315 -0.07893522 -0.17554216
0002d0 01 e3 bd 3b 91 5c 19 be 56 2f 13 be d3 3f 8f 3d
       0.0057948832 -0.14976718 -0.14373526 0.069945954
0002e0 2b 6b 41 3d d3 65 58 3e 4b 95 be bd 43 66 0f 3d
       0.047221344 0.21132593 -0.09305819 0.035009634
0002f0 e7 fe 8f 34 8d 4a ff 3d 78 a0 85 3e a7 b7 63 3e
       2.6821291e-07 0.12465391 0.2609899 0.22238027
000300 5a f5 49 3e 40 51 05 bc 22 87 0a bf 17 5c 0b 3e
       0.197225 -0.008137047 -0.54112446 0.13609348
000310 0a 8d ba 3d f1 cd 8d b9 21 77 ad bd 98 38 9a be
       0.09108932 -0.00027047054 -0.08469988 -0.30121303
000320 ac bb df 3e c6 b8 28 3f 9e b1 c7 3e 90 21 23 3d
       0.4369787 0.6590694 0.390027 0.03982693
000330 60 e5 d6 3e 6e 37 3b 3f 1d 8e a8 3e dc 53 f9 3e
       0.41971874 0.73131454 0.32920924 0.48696792
000340 26 d6 0c 3c 56 4f 32 3f 39 d6 b5 bd f6 14 41 3f
       0.008595979 0.6965231 -0.0887875 0.7542261
000350 f8 58 0f 3e e9 99 a1 3d b9 3f 26 bd 54 23 ad bd
       0.13998783 0.07890684 -0.040588114 -0.08454004
000360 ca 8e 79 bf b3 45 29 3f 4f b5 45 bd 68 15 79 3e
       -0.97483504 0.6612198 -0.048268612 0.24324572
000370 be 86 84 bf 0e 5b 13 3f 2b 99 d0 3e e6 d8 eb 3e
       -1.035362 0.57560813 0.40741858 0.46063918
000380 9e f3 09 be 31 0b 10 3e 8e 0d 11 3f 21 1a 55 3f
       -0.13471839 0.14066769 0.5666131 0.83242995
000390 ae 5e 87 3d 87 20 30 be 80 00 b2 3e 23 00 a8 3e
       0.066098556 -0.17199908 0.34766006 0.32812604
0003a0 1d 74 1b be 31 f2 52 3e 60 55 37 be 6c 0d 06 3f
       -0.15181012 0.20600201 -0.17903662 0.5236423
0003b0 e0 ba a4 3e f8 7b da 3e 70 db 3f b5 2b d4 2b bf
       0.32173824 0.42672706 -7.147237e-07 -0.6712062
0003c0 ad bf 03 bf 6a 25 fe 3e 03 16 7d be b0 6b 13 3d
       -0.5146435 0.4963792 -0.24715428 0.03599137
0003d0 7e 74 f8 3e 4f 04 10 3e 7c c0 5c 3e 7c c5 e8 be
       0.48526376 0.14064144 0.21557802 -0.4546317
0003e0 19 db 63 bf 37 3f 67 be 04 2c 7b 3e 9f 6f 26 be
       -0.8900619 -0.22582708 0.2452851 -0.16253518
0003f0 2a b4 f4 bd 93 59 59 3e a2 9d 9c 3e a5 ee 9c be
       -0.11948426 0.21225576 0.30589014 -0.3065082

sage.layer1.fc_self.weight f4 [128, 50]
000000 6e 68 11 3e 12 fc f2 be d8 25 df be 7a 78 54 3d
       0.14199993 -0.4745794 -0.4358356 0.051872708
000010 bd 89 61 bf 5f 52 e7 be 8d d9 b1 bf 5b 5c 59 bf
       -0.88100797 -0.45180032 -1.3894516 -0.8490655
000020 67 7b a3 3f f1 fa de be 00 7b 02 bf d7 b6 09 3d
       1.2772034 -0.43550828 -0.50968933 0.033621635
000030 c1 ea ca bd 40 7a bf 3c cf b8 a8 3f 09 de 3d be
       -0.09908057 0.023373723 1.3181399 -0.18541731
000040 e5 5d ab bf f8 72 7d 3e 17 9f 46 bf 35 d7 f2 3e
       -1.3388029 0.24750888 -0.775865 0.47429815
000050 d8 3a 27 3f 15 02 a5 bf fe 90 e1 be eb 93 f7 be
       0.65324163 -1.289126 -0.44055933 -0.4835504
000060 08 c8 90 bd 06 de 99 3e 41 ed 94 be b9 89 6c 3f
       -0.07069403 0.30052203 -0.2908726 0.9239765
000070 6d c2 a1 3f 79 91 e6 3e 80 47 60 be bb 64 13 3f
       1.2637459 0.45032862 -0.21902275 0.5757558
000080 58 76 1a 3f 32 27 d0 bf b6 7a f4 be b4 63 19 3f
       0.6033683 -1.6261961 -0.4774987 0.5991776
000090 6a f0 21 3f 1a fe 12 3e 76 0a cd 3f 61 33 42 3f
       0.6325747 0.14354745 1.6018817 0.7585965
0000a0 c9 65 6b 3e 8a 74 0c bd 90 8e 91 3e dc 1b 5e bf
       0.22988047 -0.034290828 0.2842908 -0.8676126
0000b0 a7 7b 66 bf bd ed 1c 3e 95 27 a5 3f c6 fd 03 bf
       -0.9003243 0.15325065 1.2902704 -0.515591
0000c0 be c3 d8 3e 39 c5 61 3e 7c 9f 24 3f 24 8a 13 bf
       0.4233684 0.2204789 0.64305854 -0.5763266
0000d0 bb d2 a7 3e 3c 5c 90 be 81 98 c7 be 4c f6 2a 3e
       0.32777962 -0.2819537 -0.3898354 0.16695517
0000e0 0e 64 14 bf c3 20 32 3f 62 ef 0c bf d7 70 a1 3d
       -0.5796517 0.6958124 -0.5505277 0.078828506
0000f0 5f 0e 88 be d4 43 cb bd cb 45 8a 3f 66 e8 10 3f
       -0.26573464 -0.099250466 1.0802549 0.5660461
000100 9c 54 07 bf cf 89 14 bf 10 48 e4 be 23 42 81 3e
       -0.5286348 -0.5802278 -0.4458623 0.2524577
000110 03 b7 ae bf ea db dc be d6 68 88 bf 14 bf 91 3d
       -1.3649601 -0.4313653 -1.0656993 0.071165234
000120 8d e3 a7 be 1b af 90 3f b2 8e 14 3f 52 14 2d bf
       -0.32790795 1.1303438 0.58030236 -0.6760913
000130 11 36 82 bd 5f c0 a7 3f 6c a6 35 bf 39 38 97 bf
       -0.063579686 1.3105582 -0.70957065 -1.1814033
000140 c2 bb 7d be 61 86 ca 3e 6f 66 3e bf 7e 4d 58 3f
       -0.24778655 0.39555648 -0.7437505 0.84493244
000150 22 90 08 bf bb e2 13 3f af ca 3f bf 23 f3 9b be
       -0.5334493 0.5776784 -0.74918646 -0.30458936
000160 f7 f4 54 bf 1f 41 8c be c1 bb a5 be 5b de f5 3e
       -0.83186287 -0.27393433 -0.32369807 0.48021206
000170 6f da 9d be 81 2d 93 3f 14 1b 12 3e c8 b9 f0 bd
       -0.30830714 1.1498262 0.14268142 -0.11754185
000180 55 ef c3 3e aa 39 9d 3e 3b 52 cf be fa 11 d5 3e
       0.38268533 0.30708057 -0.40492424 0.41615278
000190 cd 08 09 3f 3a 11 19 3e cf ce 89 bd 7b b1 6b be
       0.53529054 0.14947978 -0.06728899 -0.23016922
0001a0 25 2e 88 3f e5 b2 27 3f c5 2d 57 3e ab 70 32 3f
       1.0639082 0.65507346 0.21013553 0.6970317
0001b0 79 d7 16 3f ce ee 9a bf 6d 84 73 bf c7 e9 cb 3f
       0.58922535 -1.2104127 -0.9512394 1.5930718
0001c0 42 62 40 3e db 1f 0d 3e d7 32 8b bf ac 02 b7 3f
       0.18787482 0.13781683 -1.087489 1.429769
0001d0 99 7b f6 bd 32 39 f7 3d 30 87 e1 3d 3a 06 13 3f
       -0.12035293 0.12071456 0.11012113 0.57431376
0001e0 4d 59 18 3e f8 b8 51 3e 8c 05 c6 be af 19 8c 3f
       0.14877816 0.20480716 -0.38676107 1.0945338
0001f0 b5 c5 7a 3f ff 91 6b 3d 2b 2d 89 3b 93 e1 e7 3e
       0.97957927 0.05751228 0.0041862926 0.45289287
000200 eb f2 b3 3f 89 35 21 bf 8d 5b 08 bc d8 41 1c bf
       1.4058508 -0.62972313 -0.008322609 -0.6103797
000210 95 0e 96 be 70 1c b1 3e ec 61 df bd b9 05 13 bf
       -0.29308 0.3459201 -0.10907349 -0.5743061
000220 1c 18 4b bf 36 8c 4e bf ab 14 e2 3c 25 07 e2 3e
       -0.79333663 -0.80682695 0.027597746 0.44146076
000230 53 32 df 3e 1c 1d 0e be 47 8e 85 be 1e 6f a1 be
       0.43593082 -0.13878292 -0.26085111 -0.31530088
000240 fe 4d bc 3f ff 20 7e 3e bd 5d 69 bf a3 ce 0c bf
       1.4711301 0.24817275 -0.9115866 -0.550028
000250 3a 81 03 bf cd 97 28 3f 42 f0 98 bd c9 34 a9 be
       -0.5136906 0.6585663 -0.074677005 -0.33048084
000260 45 d9 08 3f 52 eb 08 c0 87 0c 5b bf 90 9f 36 3f
       0.53456527 -2.1393628 -0.8556599 0.71337223
000270 a2 63 64 bf 4c 5c f5 3e fe f9 97 3e df b8 8f bd
       -0.8921453 0.4792198 0.29682916 -0.07017683
000280 20 20 a3 3e 0e 6b bb 3c 65 6f 57 3f 11 3d ea be
       0.31860447 0.022878196 0.8415435 -0.45749715
000290 eb db 7f be 5e 18 80 bf e3 98 ee 3e 66 0c 2a bf
       -0.24986236 -1.0007436 0.46601018 -0.6642517
0002a0 c7 29 2d bf 8e 88 82 bc 37 f5 3d bf 01 01 18 3c
       -0.6764187 -0.015934255 -0.74202293 0.009277583
0002b0 3a f7 8b 3d 79 00 b2 3e 17 8a a3 bd e0 86 54 3f
       0.06834264 0.34765986 -0.07985323 0.830183
0002c0 0c c7 30 be 5e 2a 4b 3f 2e a7 67 bf 34 07 a3 bf
       -0.1726343 0.7936152 -0.9048947 -1.2736573
0002d0 02 b7 8f 3e c8 ae c7 be 35 a2 25 3f a5 a7 ae 3d
       0.2806931 -0.39000535 0.64700633 0.085280694
0002e0 ac 4d 00 be 24 4e 74 bf 03 7a 11 3f c2 46 f8 be
       -0.1252963 -0.95431733 0.568268 -0.48491484
0002f0 e6 37 24 be 20 9e 31 3e c9 a2 72 3d 20 68 22 be
       -0.16036949 0.17345476 0.059237275 -0.15860033
000300 84 c9 0e bf 78 28 02 3f 96 83 6e bf 8d 51 d5 3e
       -0.5577624 0.50843 -0.93169534 0.4166378
000310 3e 61 0d 3f 43 5c d0 3e ae 50 77 3e 9b 29 44 be
       0.55226505 0.4069539 0.2415187 -0.19156496
000320 5d 7b 44 3d 62 c8 a3 3f f3 26 1c bf fd 9b 9f bf
       0.04796921 1.2795527 -0.6099693 -1.2469479
000330 de d6 af be da 38 f9 3e df 0e 34 3e d2 2f 22 bf
       -0.34343618 0.48676187 0.17583798 -0.6335422
000340 a4 d8 1f 3f 5b b3 ab 3e fa 00 02 bf 1a cc 3a be
       0.6243994 0.33535275 -0.5078274 -0.18241921
000350 c8 0a 88 3e 30 8e fc bc 9c d7 0d 3f 62 72 1a bf
       0.26570725 -0.030829519 0.5540712 -0.60330784
000360 8c 97 ef 3d db 17 6e 3f 0e 1c 62 bf c1 35 00 bf
       0.11698827 0.9300515 -0.8832406 -0.5008202
000370 ae 2e 2f 3d 32 b0 ad 3d c1 2e 0c 3e cd 6d 76 3f
       0.042769127 0.08480872 0.1368971 0.9626129
000380 ba e6 6e 3c de 0b dc bc 27 4f fd 3d 16 48 86 bf
       0.014581377 -0.026861127 0.12368613 -1.0490749
000390 cd 1c 24 3f 5f 16 e3 3e 31 89 9f be 6a f7 5e 3e
       0.64106447 0.44353005 -0.31159356 0.21774068
0003a0 5f fc f2 3c 0f 70 2e bf 95 3e d2 3e 7e c7 40 3e
       0.029661356 -0.6813974 0.4106337 0.188261
0003b0 b1 a9 09 bf bd 58 ae bf 85 fc 8e 3d cb 38 0e be
       -0.53774554 -1.3620831 0.06981758 -0.13888852
0003c0 fd 44 28 3f 6d af da be 7b 82 6e bd 4c ec b4 be
       0.6573027 -0.42711964 -0.058229905 -0.3533653
0003d0 19 e7 99 bd 8b 47 ba 3e f1 46 2a be 36 bf 43 be
       -0.075147815 0.36382708 -0.16628624 -0.1911591
0003e0 dd 8c 3b 3f 3c 23 71 3f e5 bd b0 bf 42 e8 5d bf
       0.73261815 0.9419439 -1.3807951 -0.8668252
0003f0 61 9a 50 3f ad aa ab be f8 a9 c3 bf de df 5f bf
       0.81485564 -0.33528653 -1.5286245 -0.8745097

sage.layer1.fc_self.bias f4 [128]
000000 7e 36 0a 3c 13 fd 86 bc a3 57 92 3c c9 74 71 bc
       0.0084358435 -0.016478097 0.017864054 -0.014737316
000010 53 23 11 3d 7d 03 61 bc 84 2b bc bc b5 c3 73 3d
       0.03543408 -0.013733742 -0.022969969 0.059512813
000020 e8 ab 91 bb 07 64 2c bc 51 aa 00 bd bf ea 08 3c
       -0.0044455417 -0.010521895 -0.031412426 0.008356749
000030 6f 2d d1 3b 62 8c d2 3c 88 f4 93 bc 15 8d 4a 3b
       0.00638359 0.025701705 -0.018060938 0.0030906845
000040 09 e1 40 bd cc da 8d bb 2f dd 15 bd 5f f8 86 3c
       -0.04708961 -0.004329061 -0.03658789 0.016475854
000050 a3 69 ae 3c 1c af 24 bc 36 5c d7 bd 98 d6 f7 bb
       0.021290606 -0.010051515 -0.10515635 -0.0075634234
000060 9e 7b 00 bd 61 45 2a 3d 12 7f cf 39 fc 92 22 3e
       -0.03136789 0.04157007 0.00039576791 0.15876383
000070 a9 c3 a9 3a 16 3e ba bc fc d3 2c bd e8 e6 e2 3b
       0.0012951988 -0.022734683 -0.04219435 0.006924499
000080 f0 51 8b bb fe 0d 8b 3d 1a 8c 6b ba 5d da a3 bc
       -0.004251711 0.06789778 -0.00089854153 -0.020001585
000090 2f e0 17 bc 79 db a0 bc 18 77 01 bc 70 82 66 bc
       -0.009269758 -0.019635903 -0.007901929 -0.014069185
0000a0 85 12 8e 3c 8b 39 17 3e 80 ca 93 3b 44 d2 9f bc
       0.017342815 0.14768045 0.004510224 -0.019509442
0000b0 97 c5 56 bc 4b d4 48 bd c8 5c 83 bc c6 59 37 bc
       -0.0131086325 -0.049030583 -0.016035452 -0.011190837
0000c0 b4 83 ad 3b dc b2 f2 3a 5b d6 ef bb 6f 7d 0a bc
       0.0052952413 0.0018516439 -0.0073192543 -0.008452757
0000d0 9f e7 b3 bb 24 9b 31 3c 22 80 6d bc 16 5b 3e 3a
       -0.005490258 0.010840211 -0.014495881 0.00072614977
0000e0 c9 b2 0b 3c 24 65 19 3e f1 31 56 b9 2f 81 62 3d
       0.008526512 0.14979988 -0.00020427235 0.05529898
0000f0 6a de ee ba 99 39 3b bc 65 e9 68 bc 75 94 63 3c
       -0.0018224244 -0.011427307 -0.014215802 0.013890375
000100 54 9a a1 bc e4 39 b6 3d a3 1b 87 bc cd ae d3 3b
       -0.01972691 0.088977605 -0.01649267 0.006460047
000110 67 8e 2f bc c1 72 30 3e 31 2f 01 bc 8f 1d a2 bb
       -0.010715104 0.17231275 -0.007884786 -0.0049473713
000120 36 37 11 3d b1 01 04 3a 8c 08 10 3c 07 f8 14 bd
       0.035453044 0.00050356524 0.0087911 -0.03636935
000130 be ea 93 bb 0d c2 6e bb b9 df 1a 3c 36 fb b1 3c
       -0.0045140674 -0.0036431581 0.009452754 0.021726232
000140 92 63 5f 3c 3e 82 66 bc 57 c5 fe bc a9 12 c8 3b
       0.013634579 -0.014069138 -0.031099958 0.00610574
000150 09 40 f3 bc a6 39 fd bc 81 52 4e 3b ec 96 bc 3b
       -0.02969362 -0.030911278 0.0031482282 0.005755296
000160 93 80 9c bb 98 65 fc bb 1b 71 9f bc 7c bc 16 bd
       -0.0047760694 -0.0077025406 -0.019463113 -0.036800846
000170 89 99 df bb 7f 00 61 bc 66 e7 1b bc b9 33 56 3b
       -0.0068237227 -0.013733028 -0.009515619 0.0032684638
000180 88 49 d3 bd 19 6f f1 3b 62 02 85 3c b6 58 88 bc
       -0.10316759 0.00736798 0.016236488 -0.016643863
000190 54 3a c3 ba 70 12 6b 3d 92 c5 14 3c 8f 79 18 b9
       -0.0014894702 0.05739063 0.009080308 -0.00014541134
0001a0 4f 4a 37 3d 5a 6b 28 3b d2 c5 22 3e 60 8b 44 bc
       0.0447486 0.0025698752 0.15895775 -0.01199612
0001b0 0d 7b ca bc 09 b6 65 3c 9c 75 6d bc 46 f0 99 bb
       -0.024716878 0.014020451 -0.014493372 -0.0046978323
0001c0 c0 06 8e bc 7a 2d e2 bb 21 0f 13 bc c7 aa 9f bc
       -0.017337203 -0.006902394 -0.008975775 -0.019490613
0001d0 8c 3a 86 3d fb 9f 3c bc f1 b7 bf bb 79 49 6b ba
       0.06554136 -0.011512752 -0.005850785 -0.0008975487
0001e0 b2 8c 62 bc f0 11 1a 3d d1 7b 04 3b b3 a0 1f 3c
       -0.01382749 0.037614763 0.0020215402 0.0097429035
0001f0 5c 26 33 bd e5 2a 29 bc b1 94 6b bc a4 fe 28 3c
       -0.043737754 -0.010325168 -0.0143787125 0.010314617

pred.W.weight f4 [167, 256]
000000 57 22 60 3e aa 6b 1a bf eb 9b 33 bf cd 68 c8 bf
       0.218881 -0.6032053 -0.70159787 -1.5656983
000010 a5 50 34 bf 43 5d 1a c0 c9 7a 54 c0 9d 49 f9 bf
       -0.70435554 -2.4119422 -3.3199942 -1.947559
000020 a0 a7 65 3d 1f 45 88 be 23 c7 7d bf 10 74 03 bf
       0.056068063 -0.26615235 -0.99131984 -0.5134897
000030 03 c3 25 3e b4 ed 91 3f 81 f7 e1 bf 08 4b ce bf
       0.16187672 1.1400666 -1.7653657 -1.6116648
000040 65 0c b4 bd c5 21 bc bf 53 dd 13 3f 7e a4 98 bf
       -0.087914266 -1.4697806 0.5775959 -1.1925199
000050 92 a9 f2 bf 22 86 12 c0 14 f8 16 3f b7 3a 59 c0
       -1.8957999 -2.2894368 0.5897229 -3.3942087
000060 3e 60 b5 bf 63 94 e3 bf 3b c6 86 c0 9e ed 10 bf
       -1.4169996 -1.7779659 -4.211698 -0.56612575
000070 b6 a1 05 bf b1 03 2f c0 fa f6 bb c0 02 4c 0a c0
       -0.52199876 -2.7346003 -5.8738985 -2.1608891
000080 7a b4 37 c0 6b bf a2 bf f4 e1 ed bf 5f f5 e5 3d
       -2.8703904 -1.2714666 -1.858458 0.112284414
000090 f7 9b 08 bf 2a 7e 06 bd eb 3a 68 c0 27 c0 f5 be
       -0.53362983 -0.032835163 -3.628596 -0.47998163
0000a0 6c 5d 35 c0 96 c9 e6 be bd ab 8e bf 0d e0 6e c0
       -2.833827 -0.45075673 -1.114616 -3.732425
0000b0 4d 18 c0 bf 0c 2c 91 bf 70 4a e0 bf d6 3d 2b c0
       -1.5007416 -1.1341567 -1.7522717 -2.6756492
0000c0 17 11 5d bd c3 d3 2c c0 ed 08 80 bf 15 c9 a5 bf
       -0.053971376 -2.700425 -1.0002724 -1.295199
0000d0 32 ef 4a be f5 42 34 3f d6 40 cb 3e a7 2b fd 3d
       -0.19817808 0.7041467 0.39697903 0.12361842
0000e0 f8 bd ae bf bc 17 d3 3d fa 6f 2b c0 6c 06 96 3e
       -1.3651724 0.10307261 -2.6787095 0.29301775
0000f0 5f 6e 1b c0 ea e7 25 be ed 6f 03 c0 fd 7c 42 c0
       -2.4286115 -0.1620175 -2.0537064 -3.0388787
000100 75 c0 8d bf 37 81 1d bd dd 29 15 c0 58 80 0a be
       -1.1074358 -0.038453307 -2.3306801 -0.13525522
000110 5c be fa bf ec 7f 77 3d 56 38 15 c0 c7 be 3e 3d
       -1.9589343 0.06042473 -2.3315635 0.04656866
000120 a0 1c 40 bf c0 8b 40 c0 aa ff e8 bf bc ae 57 bf
       -0.7504368 -3.0085297 -1.8203022 -0.84251
000130 f4 b7 d9 bf a6 ab d7 bf 19 33 15 bf 3b a5 63 bf
       -1.7009263 -1.6849258 -0.58281094 -0.88923997
000140 77 73 8d bf a0 e7 da bf f2 13 0b c0 d6 d3 44 bf
       -1.1050862 -1.7101936 -2.1730924 -0.76885736
000150 20 52 ff bf 81 fa 18 3f 48 f6 82 bf 7b 88 82 be
       -1.9946938 0.5975724 -1.0231409 -0.2549475
000160 ed a5 9d bd 50 8b 40 bf c6 9e 1e c0 da 3f e9 bf
       -0.076976635 -0.75212574 -2.4784408 -1.8222611
000170 0c ba 32 c0 20 08 16 c0 0b ef e0 bf 50 d8 47 bf
       -2.7926054 -2.344246 -1.757295 -0.7806444
000180 ff 94 00 c0 1c 32 24 bf b8 c2 a5 bf 2c 9e 22 bf
       -2.009094 -0.6413896 -1.2950048 -0.635226
000190 7e 4f 93 bf a0 83 c3 bf e3 a6 ad bf 57 87 a6 b4
       -1.1508634 -1.5274544 -1.3566555 -3.1018382e-07
0001a0 51 fa ae bf 5e f8 11 be 38 0c 2e bf 80 e8 7c c0
       -1.367014 -0.14254901 -0.67987394 -3.9516907
0001b0 71 68 66 c0 28 74 a6 bf 42 28 f9 bf 04 d7 a9 c0
       -3.6001246 -1.3004198 -1.9465411 -5.307497
0001c0 c2 66 17 bf 62 a5 81 bf 28 b4 61 c0 0a ed 96 bf
       -0.5914117 -1.0128596 -3.5266209 -1.1791089
0001d0 14 04 a9 3e 06 ab 36 3f d5 35 c3 be 99 99 60 be
       0.33010924 0.7135471 -0.38127008 -0.21933593
0001e0 31 11 08 c0 cb 10 65 3e ea 3c 62 c0 10 44 32 c0
       -2.1260493 0.22369687 -3.534968 -2.7854042
0001f0 4f 4a 84 bf 7f 2c 56 c0 5f 98 28 c0 15 bb b8 bf
       -1.0335177 -3.3464658 -2.6343 -1.4432093
000200 2e 52 ad 3f 1d b3 aa 3f d7 65 37 c0 d5 73 bc bb
       1.3540704 1.3335911 -2.8655908 -0.005751113
000210 3a e6 9b bc 16 d4 17 c0 d5 d2 ac c0 36 3a f0 bf
       -0.019030679 -2.3723197 -5.4007363 -1.8767765
000220 65 e0 2c 3f da 36 88 3f 13 60 10 c0 a8 3e 18 3f
       0.675299 1.0641739 -2.255864 0.59470606
000230 48 a8 47 3f 9b f9 bb 3f bb a9 66 bd 02 48 9a bf
       0.7799115 1.4685549 -0.05631421 -1.2053225
000240 42 cc 9d 3f 0b 45 89 bf f8 c7 82 3f 62 38 a0 3e
       1.232796 -1.0724195 1.0217276 0.31293017
000250 26 a4 7a c0 f7 a1 d4 be a9 76 33 3f dc 96 c2 c0
       -3.9162688 -0.4152982 0.70102936 -6.0809155
000260 b9 ab a4 be de 09 6d c0 79 11 81 c0 c2 ae ed 3e
       -0.32162264 -3.7037272 -4.033383 0.46422392
000270 9c ca 7c 3c a5 ba 9c c0 4c 2a 19 c1 1c ee 51 c0
       0.015429165 -4.8977838 -9.572826 -3.280158
000280 fd 7b 90 c0 cd a4 a6 c0 ba 0e 0b c0 3e 3e 6d 3e
       -4.5151353 -5.2076173 -2.1727738 0.23168275
000290 82 f0 a1 bf 8c 6d 92 3f 61 65 ef c0 3f 35 0b 3f
       -1.2651522 1.1439681 -7.4811254 0.5437812
0002a0 eb 32 83 c0 05 78 f8 3d a1 c3 86 bf db 78 52 c0
       -4.0999656 0.12132267 -1.0528451 -3.2886264
0002b0 f5 b7 59 c0 96 f0 bc c0 5f 48 fc be 44 71 9c c0
       -3.4018528 -5.9043684 -0.49273965 -4.8888264
0002c0 72 36 9f 3f 20 4b 07 c0 9b a5 5c 3e 27 a5 06 be
       1.243849 -2.1139603 0.21547548 -0.13148938
0002d0 0c cf 8f 3f 4d 75 a4 3f 66 ef a1 3f 05 91 90 3f
       1.1235061 1.2848297 1.2651184 1.1294256
0002e0 b8 d3 22 c0 f0 4f 27 3e dc 0a 8f c0 a5 34 86 3f
       -2.5441723 0.16339087 -4.4700756 1.0484816
0002f0 83 a2 c2 bf 90 43 76 3e 10 b7 29 3c db d1 74 c0
       -1.5205845 0.2404921 0.010358587 -3.8253086
000300 3b ff de bd 31 69 25 3f a5 d5 0f c0 72 99 8a 3f
       -0.10888525 0.64613634 -2.2474148 1.0828078
000310 11 3f a9 c0 e9 af 32 3e d7 2e fa bf c1 78 07 3f
       -5.2889485 0.17449917 -1.9545544 0.5291863
000320 2b 73 d5 bf c3 a3 e2 c0 8e b8 26 c1 b3 d9 62 3e
       -1.6675771 -7.0824904 -10.420057 0.22153358
000330 df 38 b6 be df 4c 72 bf bf 5b e2 3e d2 f9 8d 3f
       -0.35590264 -0.94648546 0.44210622 1.1091864
000340 a4 b9 87 c0 01 64 55 c0 98 e1 93 c0 77 09 ba bf
       -4.241411 -3.3342288 -4.6212883 -1.4534138
000350 6f 1d 50 bf 02 af 67 3f cb e0 1b 3f 5a dd 15 3f
       -0.8129491 0.90501416 0.6088988 0.5854088
000360 5c 1e bf 3f 0c c6 aa 3e b8 b0 7e c0 26 fc 94 bf
       1.493114 0.33354223 -3.979536 -1.163945
000370 1d 81 81 c0 1b 3d aa c0 94 18 1c c0 57 76 c9 bf
       -4.047011 -5.319959 -2.4390001 -1.573924
000380 2b 24 69 c0 23 5c 35 3f 59 48 9f bf 7f af 1a 3f
       -3.6428325 0.70843714 -1.2443954 0.60424036
000390 98 e4 80 3e d0 a6 91 bf 59 17 e8 bf 83 d2 aa b4
       0.25174403 -1.1379032 -1.8132125 -3.1818135e-07
0003a0 9c 95 9a c0 e6 25 95 3f ae c2 58 3f e1 54 b6 c0
       -4.830763 1.1652191 0.8467206 -5.697861
0003b0 6d ca 55 c0 74 48 03 c0 68 21 9b bf 6c e0 2e c1
       -3.34048 -2.0512972 -1.211957 -10.9297905
0003c0 61 5f 5c 3f 89 1d 9c bf 05 2f 19 c1 b1 e1 82 bf
       0.86083037 -1.2196513 -9.573979 -1.0225126
0003d0 3c 70 d9 3e 79 fb c7 3f 63 d6 34 3f 11 4b b1 3f
       0.4246844 1.5623618 0.7063963 1.3851033
0003e0 03 b8 80 bf df b4 91 3f b9 6e 03 c0 ec ac 4d c0
       -1.0056156 1.1383322 -2.053633 -3.2136793
0003f0 a8 8f a4 bf f6 a3 9f c0 a9 98 48 c0 33 c8 8c bf
       -1.285634 -4.988765 -3.1343176 -1.0998596

pred.W.bias f4 [167]
000000 b6 82 72 3e ef f7 90 bd 38 6e 37 bd cf 96 58 3b
       0.23682675 -0.070785396 -0.044782847 0.0033048873
000010 30 13 87 bd 31 b7 3c 3e f1 bc 13 3e 4c 70 cb bd
       -0.065954566 0.18429257 0.14427544 -0.09933528
000020 e3 59 01 be e3 7c 91 bd 08 32 d1 bc c2 bd e5 bc
       -0.12631945 -0.071038984 -0.025536552 -0.028044585
000030 f7 c5 27 bd 88 30 47 3e 4c 61 cf bd bb f6 f8 3d
       -0.04096028 0.19452107 -0.1012598 0.12156435
000040 98 45 ed 3c c4 42 c8 be a0 c8 d3 bd ca a2 c9 be
       0.028963849 -0.39113438 -0.103410006 -0.3938201
000050 de b4 95 bc 5b be bf 3d da 70 1e c0 00 95 ea 3d
       -0.01827472 0.09362479 -2.475638 0.11454201
000060 9b 44 0d be 70 5d ca bd 71 cb 5c bf 40 71 3b 3e
       -0.13795702 -0.09881103 -0.86247927 0.1830492
000070 09 b2 70 be f9 f1 58 be 52 09 f7 bc ef 52 9a bd
       -0.23505415 -0.21186055 -0.030155811 -0.075353496
000080 41 a9 ba 3d 6a a2 67 bd c6 30 41 bd 2d ce 27 bd
       0.09114314 -0.056551374 -0.047165655 -0.04096811
000090 cd 0a 85 bd 07 13 e3 bc df 24 f0 bd b3 83 1b 3e
       -0.06496201 -0.027719034 -0.117257826 0.15186958
0000a0 a1 6c f6 3d f6 5f 60 bf 7f 2b 92 bd ca fb c2 bd
       0.12032438 -0.87646425 -0.071372025 -0.09520681
0000b0 aa 31 79 bd fd 1e cd 3d 72 1f 47 bf ef 9e 34 bd
       -0.06083838 0.10015676 -0.77782357 -0.044096883
0000c0 9b 61 25 bd 84 07 bc bd 3c 3a 41 3e cb e6 09 3d
       -0.040376287 -0.09181121 0.18869871 0.033667367
0000d0 c3 85 4d bd 17 9f 39 bd 4c 4a 21 bd 7c 9f 0d bd
       -0.050176393 -0.045317736 -0.039377496 -0.034575924
0000e0 d5 16 2b 3e c2 96 d4 bd f9 0e 22 3d 6e e0 a4 bd
       0.16707928 -0.10380317 0.03956506 -0.08050619
0000f0 85 17 b0 bd f1 74 b3 3d 1b 45 23 3e 30 32 39 bf
       -0.08598236 0.08762539 0.1594433 -0.72342205
000100 5f 19 98 bd c2 29 04 bf 08 6a 3c 3d 40 86 a0 3d
       -0.07426714 -0.5162622 0.045999557 0.07838106
000110 ea 14 d2 bd c6 37 ae bd 11 42 81 bd 16 12 1e bf
       -0.10257895 -0.08506732 -0.06311429 -0.61746347
000120 ca 86 e7 be a0 3b 0e 3e 1b 3b ee bd 1c b9 a0 bc
       -0.45220023 0.13889933 -0.11632367 -0.019619517
000130 04 12 52 bd ba 91 d5 bc 8b 34 c4 3d 08 6d b1 be
       -0.051286712 -0.026070464 0.09580334 -0.34653497
000140 b3 f9 2b 3e 40 a6 b5 bd d4 f1 ba 3e 5a e1 de bc
       0.16794471 -0.088696 0.36512625 -0.027207065
000150 e5 b0 08 bd 53 e9 ca bd 3c 23 0b bf 8d cd 3b bd
       -0.033371825 -0.09907784 -0.5435064 -0.045850325
000160 9f 4d 90 bd 8e b4 2c 3e 8f 4f 04 be 6d d8 09 be
       -0.07046055 0.16865751 -0.12920974 -0.13461466
000170 bd b4 16 bd 49 53 b5 bd 6c 8f e7 bc 8c 7b cb 3d
       -0.03679346 -0.08853776 -0.028266631 0.09935674
000180 87 c6 19 3e 3c 76 86 bc ee f5 ba 3e a0 2c 74 3d
       0.15017138 -0.0164138 0.36515754 0.05961287
000190 03 27 a7 3d 23 0d 54 be 0f 04 3f 3e d9 b9 7c bd
       0.08161738 -0.20708136 0.18653892 -0.061700676
0001a0 d6 ef ad bd af 8c 55 bd 86 5b 9a bd ed e3 43 bd
       -0.08493011 -0.05213612 -0.07536988 -0.04782479
0001b0 90 a9 12 be 3c 57 0c bd b8 f1 e1 bd 10 49 88 bd
       -0.14322495 -0.03426288 -0.11032432 -0.066545606
0001c0 65 ec 20 bd 24 74 aa bd 2a 3e bc bd 9c 86 a7 3d
       -0.039287943 -0.08322933 -0.09191544 0.081799716
0001d0 b3 2f 39 bd 6c c9 25 3e c1 54 82 bd 83 39 d3 bc
       -0.045211505 0.16190118 -0.06363822 -0.02578426
0001e0 84 81 e4 3d 4a a0 da bd 6a 06 8b 3b 36 57 51 bd
       0.11157516 -0.10675104 0.004242708 -0.05110856
0001f0 f2 21 8e bd 05 e3 98 bd 35 b9 5d 3e f7 90 86 3c
       -0.06940068 -0.074651755 0.21652682 0.016426546
000200 ab e6 29 bd e6 8d 8e 3d 52 79 46 3e 56 e1 ff bd
       -0.041479748 0.06960659 0.19382218 -0.12494151
000210 7e 75 4d bd 2b e5 6f 3e c7 6c 73 be 12 93 88 be
       -0.050160877 0.23427264 -0.23771964 -0.26674706
000220 d6 4e 37 3e cf 51 4b bf 03 7f ee 3d f0 11 44 bf
       0.17901167 -0.79421705 0.11645319 -0.7658987
000230 ef ec ca 3d 70 fa a5 3e 16 50 81 bd d0 24 dc bc
       0.09908473 0.3241763 -0.06314103 -0.026873022
000240 ee 96 29 bd 29 5c c3 3d 66 1a 29 be 96 5f cf 3d
       -0.041403703 0.095390625 -0.16513976 0.101256534
000250 00 8c 4b 3e f2 23 5a be d5 a8 75 bd 62 55 b5 bd
       0.19877625 -0.21302775 -0.059975464 -0.08854176
000260 56 c3 71 bd ea 9e 18 bf 83 6b ee 3d f9 f2 1b bd
       -0.059024177 -0.59617484 0.116416 -0.038073514
000270 27 32 b2 bc 3b 73 49 bd 1f ab ba bc 4a 40 14 be
       -0.02175243 -0.049182158 -0.022786675 -0.1447765
000280 a7 14 35 3d c5 11 03 3d 3b ec 07 be 11 93 3c bd
       0.04420915 0.03199937 -0.13273709 -0.04603869
000290 c4 b3 a0 bd 28 7b 98 bd 7b 36 72 ba
       -0.078467876 -0.07445365 -0.00092396856
