Audit-log_Analysis/code/GNN/training/checkpoint_graphSAGE/best_model_GraphSAGE_transR_50.pt (torch, 30615 bytes, 6 tensors)

layer1.fc_neigh.weight f4 [16, 50]
00000000: b9e7 4c40 f946 5dc0 ae95 43c0 33dc 84c0
00000010: f98c 6740 2ba2 12c0 c11e 483e 03f6 08c0
00000020: 1e20 e7bf 86ed 4fc0 22d5 84c0 6069 4e40
00000030: 3fd5 a840 b112 8ec0 75be ba40 555e 4040
00000040: 1e81 eebf c90b 85c0 f8fc debe 019c 513e
00000050: 5180 93c0 8a12 c2bc 1e50 993f 9511 5fc0
00000060: e188 9fc0 5e4d 4f40 b305 52c0 409f 8240
00000070: c7b5 60c0 d83a 6540 6858 c03f ec44 78bd
00000080: da38 9540 19c2 a23f 3331 683f 5c5a d8be
00000090: 8e9e 1740 966f d6c0 b368 d0be 28c7 09be
000000a0: 2c41 46c0 1250 0740 ff5c 83bf bbdd 81c0
000000b0: 0e05 61c0 5c8f 9c3f ddf5 5140 caa3 813d
000000c0: 33a6 5e40 385a 9a3e bb71 af3e 4dd3 10c0
000000d0: c67b 8d40 5e77 c440 49a0 dbc0 92d1 4840
000000e0: b0b8 99c0 405b 39c0 bdf6 a0c0 8982 69bc
000000f0: e1cb 9740 2e2d 4cbe 73b0 71c0 b7ae db3f
00000100: 731b f13f fd83 8cc0 c106 10c1 baa5 ab40
00000110: 698b 11be 3c84 11bf 4314 1f40 6d22 ba40
00000120: 716b 2240 542c 3740 74d2 e540 e915 4240
00000130: 47c1 0641 bc64 26c0 f022 fc3f 2f7d bebe
00000140: cba3 bfc0 7985 adc0 ae47 ea3e 9e62 f4bf
00000150: 8d31 9440 7874 2cc0 f754 c340 2a18 1abf
00000160: 9bc8 a140 89ca d23d b9e1 9540 24fa b3c0
00000170: 248c fc3f cdcd be40 0fd5 b23f 625c cdc0
00000180: 60e9 85c0 b5c7 05c0 96f4 c03f 69c9 a140
00000190: 322f 82c0 0de8 2c40 47ed 76c0 6530 bc3f
000001a0: ffea ccc0 abb2 8540 818b a9be 3639 4dbf
000001b0: 50f2 0440 d6ef f03f ccae a83f e67c 44c0
000001c0: 8991 29bf efba ec3f e690 b640 8e88 dbc0
000001d0: bcd0 2340 a758 41c0 8239 3d3f 72e8 103f
000001e0: ad6e 073f b08c 8dc0 f314 d7bf 7f44 6ec0
000001f0: 907d 783f 53a4 e53e aa44 99c0 bc6f b940
00000200: 9dba 9040 dac3 6940 333f c9be 4903 e43f
00000210: 7da9 56c0 d6ad 7ec0 ee5a adbf 2e4f 2b40
00000220: 7ab0 0b40 3357 803f 5252 6ebd 440c 2e40
00000230: 71b4 01bf c2c3 853f d598 c63f ce12 acbf
00000240: 0d96 fd3f 4bbb 2dc0 d20d 0840 11c3 4ec0
00000250: a0d6 6140 1857 4ec0 7c96 84c0 88cf ff40
00000260: 6bfe 0c41 6d2e e9bd b8b4 63c0 3711 5c3f
00000270: 3aea 3140 523b cdbf 7d9c 67c0 6eea b4c0
00000280: 9c63 80c0 137b b5c0 6e7f 403f a207 a93f
00000290: 91c0 2a41 3f08 0ac1 7cdd 7dc0 f41a 25c0
000002a0: bbad c1bf 9715 29c0 96d8 6ec0 91b5 ba40
000002b0: 7781 5140 9545 7c40 540e ca40 03a0 1041
000002c0: 66a0 d240 3c99 ac3f 7d0b afbf 3341 62bf
000002d0: e924 4bc0 a513 2340 0d19 d9bf eeae acc0
000002e0: 6713 2740 3bc5 14c1 aabc 5140 a8fa 9e3f
000002f0: a195 a240 6e88 38c1 3367 e340 0d50 8ec0
00000300: 0df7 54bf 696e bb40 0c67 49bf dfa9 81c0
00000310: f7c9 bebf da78 6f40 e20f 9940 71f1 ad40
00000320: 084a acc0 12d8 a840 e9b4 4f40 b0a2 75c0
00000330: 197b 7340 47a5 ea3f 9b55 87c0 e31f 6640
00000340: 9e0a a4bf fc90 59c0 1b88 0040 1eef 00c0
00000350: 360d 63c0 8776 8fbf 8aaa b43f 3cd0 82c0
00000360: 270f 40be 2710 0041 8e8b 1d40 8b8c 743e
00000370: fa9e a940 c56b b3be 4fcf c4bc efbc 8640
00000380: cb4a e640 13e0 203e adfb 4740 e8e8 293f
00000390: 60bd 3040 e540 9ac0 e61a a9c0 1716 bcc0
000003a0: 6f6b 64c0 5576 a1c0 5638 b340 01de 6b3f
000003b0: b8e4 8d40 7e0b 99c0 a9b9 f440 d6e2 6ec0
000003c0: 47f1 4c40 5f69 b8c0 a410 0241 1d31 8f40
000003d0: 3e70 b8bf 4522 5cbf f85d c9c0 d842 79bf
000003e0: 16f6 f840 b02c b640 1800 db40 1dcf a83f
000003f0: 6bdb 43be dba7 c1c0 0dd6 48bd 639c bec0
3.2016432 -3.4574568 -3.0560107 -4.15188 3.6179793 -2.291148 0.19542982 -2.1400154
-1.8056676 -3.2488723 -4.151017 3.2251816 5.276031 -4.4397817 5.835749 3.0057576
-1.8633153 -4.1576886 -0.43552375 0.20469667 -4.6094136 -0.02369048 1.1977575 -3.4854481
-4.985459 3.239097 -3.2815979 4.0819397 -3.5110948 3.5817165 1.502698 -0.060612604
4.66319 1.2715484 0.9070007 -0.4225644 2.3690524 -6.7011213 -0.4070488 -0.13454878
-3.0977278 2.114262 -1.0262755 -4.0583167 -3.5159335 1.223125 3.2806313 0.063300684
3.478894 0.30146956 0.34266457 -2.2628968 4.421359 6.139571 -6.863316 3.1377912
-4.803795 -2.8961945 -5.0301194 -0.014252313 4.7436376 -0.1993911 -3.7763946 1.7162694
1.8836502 -4.391112 -9.001649 5.3639803 -0.14213337 -0.568424 2.4856117 5.8167024
2.5378077 2.8620806 7.18194 3.0325873 8.422187 -2.5998983 1.9698162 -0.37204883
-5.9887443 -5.422543 0.45757812 -1.9092596 4.6310487 -2.6946087 6.1041217 -0.6019312
5.055738 0.10292537 4.683804 -5.6242847 1.9730268 5.962622 1.397127 -6.417527
-4.184738 -2.0903141 1.5074642 5.055836 -4.068261 2.7016633 -3.8582323 1.4702269
-6.403686 4.17806 -0.33114246 -0.8016542 2.0772896 1.8823192 1.3178344 -3.0701232
-0.66237694 1.8494548 5.705188 -6.8604193 2.5596151 -3.021036 0.73915875 0.56604683
0.5290325 -4.423424 -1.6803268 -3.7229307 0.97066593 0.44851932 -4.789632 5.7948895
4.52278 3.6525788 -0.3930603 1.7813503 -3.3540947 -3.97936 -1.3543375 2.6767077
2.1826463 1.0026611 -0.058183976 2.7194986 -0.50665957 1.0450366 1.5515391 -1.3443239
1.9811417 -2.7145565 2.1258435 -3.230656 3.5287247 -3.2240658 -4.1433697 7.9940834
8.812114 -0.11385808 -3.5579052 0.8596377 2.779921 -1.6033728 -3.6189263 -5.653617
-4.0121593 -5.6712737 0.7519444 1.3205454 10.672013 -8.627013 -3.9666433 -2.57977
-1.5131143 -2.6419427 -3.7319694 5.834664 3.273527 3.941747 6.314249 9.039065
6.58208 1.3484263 -1.3675381 -0.88380736 -3.1741278 2.548074 -1.696077 -5.3963537
2.6105592 -9.298152 3.2771401 1.2420244 5.0807652 -11.533308 7.1063476 -4.447272
-0.8318947 5.857228 -0.7867286 -4.051986 -1.4905385 3.7417512 4.783189 5.435723
-5.384037 5.276376 3.2454169 -3.8380547 3.8043883 1.8331689 -4.2292 3.5956962
-1.281574 -3.3994741 2.0083072 -2.0145946 -3.5476813 -1.1208047 1.4114544 -4.087919
-0.1875578 8.003943 2.4616427 0.23881738 5.3006563 -0.3504316 -0.024024634 4.210563
7.19663 0.15710478 3.124736 0.6637101 2.7615585 -4.8204217 -5.2845335 -5.8776965
-3.5690572 -5.045695 5.600627 0.92135626 4.43417 -4.782653 7.6476636 -3.732595
3.2022264 -5.7628627 8.129063 4.4747453 -1.4409254 -0.8598979 -6.292721 -0.9736762
7.78004 5.692955 6.8437614 1.3188206 -0.1912667 -6.05174 -0.04903226 -5.95659

layer1.fc_self.weight f4 [16, 50]
00000000: 111c 6b40 03f7 afc0 5b4f 1bc1 bfc6 bebf
00000010: fd5b af40 acd3 85c0 2c40 4040 ed74 d7be
00000020: b4b2 d2bf f64c 88c0 b5b2 65c0 0aa7 ad40
00000030: 268e c040 6f76 94c0 1904 a440 0e26 5840
00000040: 01f2 243f 3dc4 f8c0 96e9 e73e b584 3cc0
00000050: ec1f 90c0 18be 5bc0 161c 2440 3f2f 37c0
00000060: f6da bbc0 3bc9 ab40 7fa3 2cc0 e402 d43f
00000070: ffd7 89c0 1d48 603f dea7 cd40 9a11 403f
00000080: f249 b840 f1df c440 9cfd 87c0 7459 1a40
00000090: dcc8 823f 52cb 923f 2201 94c0 5060 3f40
000000a0: 63d1 f6c0 ed65 d240 38ea 25c0 1fea 1cc1
000000b0: 6d9e 7cc0 0845 2c40 92dc bd40 d6b8 a2be
000000c0: 22b5 6c40 ecb7 e3bf 9300 ef40 4e8d 0ac1
000000d0: 6160 bb3f ce78 f940 884e c3c0 340c 8440
000000e0: 0ba0 a1bf 8a2b b5c0 ec56 0dbf e6af 8e40
000000f0: a0fd f5bf 68be f8bf 0c2f 42c0 5540 1240
00000100: 7769 93bd d41a a13e 136d b5bf c0ba 1740
00000110: 9e26 0640 88b0 763f 0b3b 3640 1929 e93f
00000120: 3133 31c0 e099 a4c0 da78 0cc0 4f1e 9bbc
00000130: 1370 5e40 4d78 67c0 d011 b33f e6ca 9c3f
00000140: 682a 8f3f 58c9 9c3f 7ac9 b1be f08b 9a40
00000150: 560f b9bf 0beb 06bf 6308 073f 1915 e840
00000160: a2be e1bf d559 f240 277f 253f d246 783f
00000170: 29b8 79c0 65a3 423f 3a5a 51bf f01f 2cc0
00000180: 797d 60bf e5ac 06bf 4ae2 a9c0 cb06 4d3f
00000190: 7c6a 2340 2095 d0bf edec 3ac0 1dba b2bf
000001a0: df12 8bc0 f5da 24bf 4960 bdc0 efef 3d40
000001b0: a4bc 4340 b858 2c40 0b8d 52c0 c696 91c0
000001c0: d5e7 b6c0 75c1 4540 ce0a c140 e581 33c0
000001d0: 41dd a040 ffa0 8cbf 583c eb3d a3b4 dc40
000001e0: 6f2c d940 4799 96c0 68c8 c1c0 55c3 d2c0
000001f0: 1dd9 92c0 db27 9bbf 2dbb 19c1 c90c 1541
00000200: 9558 6b40 7fb4 cc40 4ecb 4abf 6438 8b40
00000210: 0192 f3bf ac78 cebf 19ad c73f 31c2 0841
00000220: 3c72 bd40 60ec 57bf 468b d1c0 4bd4 0b41
00000230: 1081 20bf e976 b33f b852 6d40 b63b 2640
00000240: 2ed7 23c0 5416 db3f f02e 46bd e004 9abe
00000250: 1198 57be c601 f3c0 c982 3741 4375 77c0
00000260: 743b eb40 5e00 26bf e9bd f740 9f6e 49c0
00000270: 95e3 1440 275c 9640 66af eabf bd62 f23f
00000280: bb40 30c1 0878 7bc0 116c 91c0 995d 1a3f
00000290: f46f b140 663a f63f 8bc6 4341 2cc9 b2c0
000002a0: 47dd 953e f67e e640 42ec 9e40 2380 1d3f
000002b0: c40e 9dc0 445c aac0 f971 ecc0 b044 2f40
000002c0: 981e 87c0 18be 8f40 94fe 11c0 0e9d a840
000002d0: 34e3 cd3f 0478 f240 4981 bf3f 7c67 5c3e
000002e0: 74f0 0ec0 118d 3dbe 9e73 9540 397a 24be
000002f0: 1a1f d2c0 7ffe 6b3f 3b43 8840 53c0 933f
00000300: d298 b6bf 74e6 c040 9624 0fc1 0d06 7d40
00000310: ff3f c040 fc5b a540 2a88 cbc0 56fa b7c0
00000320: 00a1 d03f d01a e53f 8a0e e2be 2f6e 87c0
00000330: 1fc9 0041 c38e b740 d44e 63c0 23a3 2c3f
00000340: e6cb f440 7d38 24c0 7344 6ac0 252e e2bf
00000350: b226 b5c0 d056 8ac0 969c aa40 32f7 7540
00000360: 2717 f340 e67e 6940 d76e a63d c95a 2f40
00000370: 0f17 e240 2621 dcc0 7555 8cc0 cdf8 4cbf
00000380: ceb6 82c0 70eb 9240 3891 a2c0 845c 3640
00000390: 4e5e 18c0 2d11 88c0 8f90 8740 11de 0340
000003a0: a093 95c0 1b9a 523f 577d 3d40 63a6 c840
000003b0: 69f8 dfbf 369b 113f 3ae3 a23f 7013 37bf
000003c0: 3194 a0c0 1d34 a7bf 9237 4d40 ea99 143f
000003d0: f90c 63bf ff14 a740 d878 e5c0 27c1 273f
000003e0: 5858 e63f eb73 80bf 5dba a640 fa06 1640
000003f0: bdb6 07c1 d013 b7c0 3c82 6dbf b735 e0c0
3.673588 -5.498903 -9.706874 -1.4904402 5.479979 -4.182089 3.0039167 -0.42081395
-1.6460786 -4.2593946 -3.5890324 5.4266405 6.017352 -4.639457 5.1255 3.3773227
0.6443177 -7.773955 0.452954 -2.9455998 -4.5038967 -3.4334774 2.5642142 -2.8622587
-5.8704786 5.3683143 -2.697479 1.6563382 -4.3076167 0.87610036 6.4267416 0.7502686
5.7590265 6.1523366 -4.249708 2.4117098 1.0217547 1.1468298 -4.6251383 2.9902534
-7.71306 6.574942 -2.5924206 -9.807158 -3.9471695 2.6917133 5.933175 -0.31781644
3.6985555 -1.7790504 7.46882 -8.659498 1.4638788 7.7959967 -6.1033363 4.1264896
-1.2626966 -5.661565 -0.5521076 4.458972 -1.9218025 -1.9433107 -3.0341215 2.2851765
-0.0719785 0.3146578 -1.4173912 2.3707733 2.096107 0.96363115 2.8473537 1.8215667
-2.7687495 -5.1437836 -2.1948762 -0.01893535 3.4755905 -3.6167176 1.3989811 1.224942
1.1184816 1.2248945 -0.34724027 4.829582 -1.4457805 -0.527024 0.5274717 7.2525754
-1.7636302 7.573466 0.64647144 0.96983063 -3.9018652 0.7603057 -0.817783 -2.6894493
-0.87691456 -0.52607566 -5.308873 0.8008849 2.5533743 -1.6295509 -2.9207108 -1.3963047
-4.3460536 -0.643966 -5.9180036 2.9677694 3.0583887 2.692915 -3.2898586 -4.549655
-5.7158 3.0899327 6.032569 -2.8048031 5.0270085 -1.0986632 0.11486119 6.8970504
6.786674 -4.7062106 -6.0557137 -6.5863442 -4.589003 -1.2121538 -9.608197 9.315621
3.6772816 6.397033 -0.7921647 4.3506336 -1.9028932 -1.6130576 1.55997 8.54741
5.9201946 -0.84345055 -6.548251 8.739329 -0.62696934 1.4020663 3.7081738 2.5973945
-2.5600085 1.7116189 -0.048384607 -0.30081844 -0.21054102 -7.5939665 11.46943 -3.866532
7.3510075 -0.6484431 7.7419324 -3.1473768 2.3263905 4.698749 -1.8334777 1.8936383
-11.015803 -3.9292011 -4.5444417 0.6029907 5.544916 1.9236572 12.235972 -5.587057
0.29270384 7.202998 4.96634 0.61523646 -4.9080524 -5.323763 -7.3889127 2.7385674
-4.2224846 4.491955 -2.2811632 5.2691717 1.6084962 7.5771503 1.496133 0.21523851
-2.233426 -0.18510844 4.6703634 -0.16062249 -6.5662966 0.92185205 4.258207 1.1543068
-1.4265387 6.0281315 -8.946432 3.9534943 6.007812 5.1674786 -6.3603716 -5.7493086
1.6299133 1.7898808 -0.44151717 -4.2322 8.049102 5.736177 -3.5516863 0.67436427
7.64989 -2.5659478 -3.6604278 -1.7670332 -5.6609735 -4.323097 5.3316145 3.8432126
7.596576 3.6483703 0.0812661 2.739916 7.065315 -6.8790464 -4.385432 -0.8006714
-4.084815 4.59124 -5.080227 2.8493967 -2.380756 -4.2520967 4.2363963 2.0604289
-4.6742706 0.82266396 2.9607751 6.270311 -1.7497684 0.5687746 1.2725594 -0.71514034
-5.01809 -1.3062779 3.2065167 0.58047354 -0.8869167 5.221313 -7.1710014 0.655291
1.799571 -1.0035375 5.2102494 2.3441758 -8.482114 -5.7211685 -0.92776847 -7.006557

layer1.fc_self.bias f4 [16]
00000000: 5035 8140 0a79 4440 cdfa 933f 2585 e73f
00000010: 6306 2440 65f3 7b40 da3a 0240 ac88 913f
00000020: ca25 4740 97ed 5640 1051 d7bd db98 2040
00000030: 04eb 7540 f1f6 4e40 1c85 1d40 b281 1a40
4.037758 3.0698876 1.1560913 1.8087507 2.5628898 3.9367306 2.034842 1.1369834
3.1116815 3.3582513 -0.10513508 2.5093296 3.8424692 3.233822 2.4612494 2.414166

layer2.fc_neigh.weight f4 [167, 16]
00000000: 5cba 823f 5d6b ddbe 619b 0a40 a88d c6bf
00000010: 658a 8a3f 940d 813f f5d7 75be 2dfe 01c0
00000020: d64c 963c e4c8 6f3f fba6 40bd d872 d2bf
00000030: ba52 3abc 2689 26bf 2b69 a1bd feed 893f
00000040: 9982 85be caaf 91be 29ba 86be 37ef f3be
00000050: 8607 11be d4c8 d5be f0e2 4fbd 1cc7 e0be
00000060: a65f 83be 5ed3 1ebe 3410 2e3e d179 dbbe
00000070: 5806 c7be 7b94 3cbe a96c d6be 31de b4be
00000080: fe14 adbe 2b72 5abe 2744 1fbf a3a3 d5be
00000090: cec0 1ebe 920e 4dbe a087 47bd bcb7 10bf
000000a0: 6f16 7dbe e07b 7cbe 081f bf3d bdda 88be
000000b0: 5556 adbe 28ca cabe 404c 6abe 8b6c 2cbf
000000c0: a605 4e3f b9a9 843f 9332 1c3f e108 77bf
000000d0: 7bd0 05c0 2f6a 993f 1201 03c0 1565 113f
000000e0: 9d13 edbe 7746 e13f 45a5 28bd e941 78bf
000000f0: 6fb8 b43e a444 433f 0f7e bc3d bfaa c83f
00000100: 6c4c fcbe 754f a4be 036a 04bf 95b3 d8be
00000110: b9e1 bfbe f41a bcbe b1b5 54be 6303 3fbf
00000120: ae38 c2bd 2c8e 13be e758 04be 0cb5 16be
00000130: 4515 82be f739 6fbe b2fb 03be 591c c1be
00000140: 6ef0 563d 6f6b 583c 0539 aa3f c867 ce3e
00000150: fb54 86bd 664b 83bf 71a7 0040 b500 0f3f
00000160: e4af 5f3d 18af f9bd f769 0b3e 2f87 84bf
00000170: 7143 b73d f9a2 c3be 066c d2bd 842c 88bf
00000180: 1283 d43d b6bb 7d3d 9c6b a23f 3df6 4b3f
00000190: 7dc7 813f 5496 123f bf0a b0c0 ed7b 1dc0
000001a0: 2344 133e 1f03 4abf 85b4 11be d419 a43d
000001b0: 7f69 a93d bbcc a93e 10c9 673f 3135 a4be
000001c0: 4a82 fe3f bb47 d6be fe86 df3f 008f bbbe
000001d0: 7c4e b2bf 28b0 523f 25ea d6c0 1173 7e3f
000001e0: 17a5 923f c332 9a3f ce02 c63d 827d 2b40
000001f0: 64f2 e33f 58b7 c23f 9fd4 93c0 5890 7e3f
00000200: 2a86 853e 013e bb3e af56 e33e f370 a83d
00000210: 8b3c 853e af82 f73e 5e8d eb3e 792c 98be
00000220: d791 ee3e ee6e a23e cdb1 9c3d 97f9 013f
00000230: 8328 e63e c6b0 a83d ce3d a63e 3296 0a3e
00000240: fdcc 8abe f519 13be 7055 91be 78b6 08bf
00000250: 82d8 c5be baad c7be 4bc4 02bd 8a2e f8be
00000260: c267 3bbe ad07 55be 64bf 33bd 00e6 6dbe
00000270: eb7e dfbe 72f3 87be f562 9ebe 3fb3 b4be
00000280: 4ce3 b7bf 1831 77bf 21e4 42bf 227e 42c0
00000290: 9257 18c0 9369 d8bf 4668 6abf 7b67 f0bd
000002a0: 6255 30bf 655e 35bf 15c9 033e e3e0 c4bf
000002b0: 96aa bbbf e1ce 2bbf cc76 e33d 7ec6 d3bf
000002c0: dd2c efbe 23d8 d5bd 84af dbbe 9c11 dbbe
000002d0: 23bd 77be 7a25 f9bd 109b 4bbe c641 41bf
000002e0: acad 9cbe 915c 76be 4914 aa3d 7205 64be
000002f0: 0250 8cbe 7946 0fbf 4665 46be 7e39 c8be
00000300: d447 9ebe a860 9abe 6ca5 0cbe 1171 debe
00000310: e4d4 8bbc e503 a6be c8e4 6cbe 46f3 04bf
00000320: 7443 1fbe 116a 6fbe 3d05 473d aa9d 94be
00000330: 9e9e d4be db8b c0be f7c1 70be 962a 11bf
00000340: 1d51 023f 06aa 833d cd58 29bf 953b 86c0
00000350: 4556 15c0 fe3e 283e d643 073f 3196 eb3f
00000360: fc67 f73e c7b4 0cbe 87b6 33be 8748 1c3f
00000370: 67c5 4bbe 37df 06bf 4eee 103f 814f 6abf
00000380: 5894 dcbe a446 34be 6562 adbe 1ba1 c1be
00000390: a5bb a8be f210 94be f309 acbc 02d4 08bf
000003a0: 1096 3bbe 2ccc b6bd 41d2 d2bd 911a 88be
000003b0: 68b2 cebe fdc4 ffbe ab2f b7be a73f f3be
000003c0: 0226 1a3f 7eba a5be 148a 213f 181b 833f
000003d0: 6195 f4be 4f54 0e3f acac 7ac0 5927 be3f
000003e0: 5adf a8bf 8121 2ebe 7750 1ebe a7b9 43c0
000003f0: 28ee b43e f6e2 4a3f a6e9 0fbf 9cfe dabe
1.0213122 -0.43245974 2.1657336 -1.551198 1.0823485 1.0082269 -0.24008162 -2.0311387
0.018347185 0.9366591 -0.047034245 -1.6441298 -0.011372263 -0.6505302 -0.07881387 1.0775754
-0.260762 -0.2845443 -0.26313904 -0.47643444 -0.14163026 -0.41754782 -0.050753534 -0.43901908
-0.2565891 -0.15510318 0.16998369 -0.42866376 -0.38872027 -0.18416016 -0.41879776 -0.3532577
-0.33805078 -0.21332614 -0.6221337 -0.41726407 -0.15503237 -0.2002509 -0.048713326 -0.56530356
-0.24715589 -0.2465663 0.093320906 -0.26729384 -0.3385493 -0.39607358 -0.2288065 -0.67353123
0.8047737 1.0364295 0.6101467 -0.96497923 -2.0908496 1.198553 -2.0469403 0.56794864
-0.46304026 1.7599629 -0.04117324 -0.9697557 0.35296962 0.7627661 0.09203731 1.5677108
-0.49277055 -0.3209187 -0.5172426 -0.4232451 -0.374769 -0.36739314 -0.20772435 -0.7461454
-0.09483467 -0.14409703 -0.12924539 -0.14717501 -0.25406852 -0.23361956 -0.12888983 -0.3771694
0.052475385 0.013209208 1.3298651 0.40313554 -0.065591775 -1.0257385 2.0102198 0.55860454
0.0546111 -0.121915996 0.13614641 -1.0353755 0.0894841 -0.38210276 -0.1027451 -1.0638585
0.10376562 0.061946593 1.268909 0.79672605 1.0139004 0.5726063 -5.501312 -2.4606888
0.14381461 -0.7891101 -0.14229019 0.08012739 0.08272075 0.3316401 0.9054117 -0.32071832
1.9883511 -0.418516 1.7463071 -0.36632538 -1.3930202 0.82300043 -6.716082 0.9939433
1.1456631 1.2046741 0.09668504 2.6795354 1.7808347 1.5212202 -4.6197047 0.99439
0.26078922 0.36570743 0.44402072 0.08224668 0.26022753 0.4834189 0.46006292 -0.2972143
0.46595642 0.31725258 0.076511 0.5077147 0.44952783 0.08236842 0.32469028 0.13533857
-0.2710952 -0.1436537 -0.28385496 -0.53403425 -0.38641745 -0.3899973 -0.03192548 -0.48473006
-0.18301299 -0.2080371 -0.043883696 -0.2323227 -0.43651518 -0.26552922 -0.30934873 -0.35293004
-1.436624 -0.96559286 -0.7612935 -3.0389485 -2.3803449 -1.6907219 -0.9156536 -0.11738487
-0.68880284 -0.7084716 0.12869675 -1.538113 -1.4661434 -0.6711255 0.11106643 -1.654495
-0.46713915 -0.104416154 -0.42907345 -0.42786872 -0.24193244 -0.12165351 -0.1988337 -0.7549099
-0.3060125 -0.24058749 0.0830465 -0.22267702 -0.2740479 -0.5596691 -0.1937457 -0.39106363
-0.30914176 -0.30151868 -0.13734978 -0.43445638 -0.017069288 -0.32424846 -0.23134148 -0.51933706
-0.15553075 -0.23380305 0.04858898 -0.29026538 -0.41527265 -0.376067 -0.23511492 -0.56705606
0.5090502 0.06428914 -0.66151124 -4.194773 -2.3333905 0.1643028 0.52837884 1.840521
0.4832152 -0.13740836 -0.17550097 0.6104817 -0.19899522 -0.5268435 0.56613624 -0.91527563
-0.43081927 -0.17605072 -0.33864132 -0.37818226 -0.3295566 -0.28919178 -0.021000838 -0.534485
-0.18318963 -0.089256614 -0.10294009 -0.2658277 -0.40370488 -0.49954978 -0.35778555 -0.475095
0.60214245 -0.32368845 0.63101315 1.0242643 -0.47770217 0.55597395 -3.916789 1.4855758
-1.3193161 -0.17004968 -0.15460382 -3.0582063 0.3533795 0.79252565 -0.56215894 -0.42772377

layer2.fc_self.weight f4 [167, 16]
00000000: 54c1 e33e c882 f6bd 7b87 d23f 8b8b 9cbd
00000010: f570 5a3f f17b 963f d6e5 c53d c0b7 0fc1
00000020: 7b80 f13d 5041 223f 4118 6bbc e881 65bf
00000030: 2792 07c0 9d7b 46c0 046d bbbf 5b8f e23e
00000040: 1975 8b3d 9d34 a73d b398 64bf bd6e c2bf
00000050: c847 37be 1298 c23e 4cfa 0dbf 2b94 0dbf
00000060: 901a a7bd 8af3 503e c71b 10be d174 e6be
00000070: d431 d83d 07cd 143d 62ae 04be 385e 87be
00000080: 6691 733e acd1 173d 1e14 7fbf 89d7 afbf
00000090: 7d46 9dbe ddc9 9d3e 49cc 1ebf f1e3 e4be
000000a0: a828 42be b8d0 f03d ad41 d83d eb73 e1be
000000b0: 5932 583e cbcf 033e 671c 4bbc 14db b8be
000000c0: 5f33 27be 2a89 823f 7fd3 db3e dd1b 8f3d
000000d0: cdfb 99c0 a5ab 823f 2ac7 e7be a15d 93c0
000000e0: d65e 20bf d232 9e3f b7b9 17be f58b 9dbd
000000f0: fae8 18c0 a4e8 e2be 0904 0bc0 d6c0 7ebc
00000100: d813 873e 068f 0d3e a0d0 56bf ec35 a0bf
00000110: f521 32be 7e5d 663e ca59 41bf 3b69 f7be
00000120: 9b37 a9be 15a9 7e3e 9cbf 39bd bccb 05bf
00000130: 98b7 843e 79c0 093d e7ab 11be 7657 cbbe
00000140: dbbe 7abd e2ea 803f 9f6c 7b3f 7924 afba
00000150: c9c3 043f 4eae 16c0 a6c8 f43f 2375 fb3d
00000160: 296b a03e 17fe 16bf 3378 0ebc fb75 02c0
00000170: c217 ab3d cfcc 4abf 3287 f5bd 6d2b 6fc0
00000180: c4f5 4fc0 98b8 993f c0f1 1240 4b16 2a40
00000190: 66e8 52bf 9af7 a83d b720 a0c0 4720 63c0
000001a0: 3f1b 36be 55f7 06c0 e809 213e 2a00 f23f
000001b0: 012c 79c0 a135 0b3f 2b14 8dbc 378c b83f
000001c0: 9309 023d 836d 4bc0 e30f 753f 2acd 85be
000001d0: 355b f3be 22d9 ddbf 943d bdbf bdd4 943e
000001e0: 6a82 fa3e 4588 8bbf 850e debc 8662 cb3f
000001f0: ad0a 313e 53bd 09be 0dc1 dac0 4c9c 7bbf
00000200: f484 5bbe 3c66 e5be 6298 93bf d815 e9bf
00000210: 851b 46bf 3ae0 4abc 7acb 8bbf 4a6e ffbe
00000220: da7b 24bf 23d4 40be 74cf acbd c9ed 8fbf
00000230: 7db7 b13b a645 4cbe 343a dbbe 4966 07bf
00000240: 730a 663e 8387 373d b233 7fbf ce8c c3bf
00000250: 636d 54be ab2c 183e 4272 f1be c3bd 19bf
00000260: 2c81 36be 79ab f93d cc01 2bbd 63ac 10bf
00000270: f7f0 053e 04e6 783e ce16 3dbe d849 fcbd
00000280: d006 593e 4260 103f d891 ba3f 51a6 bebf
00000290: b2d6 a4be db84 0ec0 f416 a33f 1d25 1240
000002a0: 43c8 803f 1e08 ab3e 03f6 d93d 0e1f 4bbf
000002b0: bb52 1fbf e1fc b53f d306 0c40 99b2 42bf
000002c0: 7110 2b3e 6a94 85bd 6731 5abf ccfb aabf
000002d0: c57d 46be 250d 8a3e c24b fcbe 9f43 06bf
000002e0: 59ef e8bd c9ca d43d 1bd5 d83d 2445 17bf
000002f0: 385d 983e d5ea 93bd a295 89be 1f3f d1bd
00000300: b14b f23d 124a 9a3d f96e 6ebf 2cc9 a2bf
00000310: 9da1 52be abc0 763e b13c 07bf cae5 fbbe
00000320: c714 44be 2a0b 153e 63ed e6bd 74b9 10bf
00000330: d147 a23e 2cd4 993d c71e 52be 8200 70be
00000340: 454c 353f 2c43 bc3e 6f8e 023d b3c9 59bf
00000350: 96a1 d4c0 dd1c 2fbe 7ba6 3c3f 038a f83f
00000360: 362b 953f 9311 e5be cf7b 8ebd 34f2 d33f
00000370: 2bec 93bf 7621 c4bf aa48 973e aba6 aebf
00000380: 97a5 763e ffca 163d 8c8a 64bf ca3a 9ebf
00000390: 2fb3 3ebe 5ba1 4e3e 011b 2cbf 2f24 e0be
000003a0: c4c1 2bbd d52c 663d 1b71 b3bd e86d 1bbf
000003b0: dc45 b93d 598e a1bc 3803 ecbd 61ce 1fbe
000003c0: 3bc6 183f 6799 ce3e e66d b53f 56d8 a83f
000003d0: 8f91 3f3f 3386 603e a268 aebf 1a1c ba3f
000003e0: 6402 cbbf eb50 f2bf d462 e83d fd14 68c0
000003f0: 243a 803e 49e8 223f a73d 93be 2594 1ac0
0.44483435 -0.12036663 1.6447595 -0.07643803 0.8532861 1.1756574 0.09662978 -8.982361
0.11792084 0.6338091 -0.014349044 -0.89651346 -2.1182954 -3.1012948 -1.4642644 0.44249997
0.06809444 0.08164332 -0.892955 -1.5190045 -0.17898476 0.38006645 -0.5546005 -0.5530421
-0.08159363 0.20405403 -0.14073096 -0.45011 0.10556379 0.03632834 -0.12957147 -0.2643907
0.23785934 0.037065193 -0.9964007 -1.3737651 -0.3071784 0.30818072 -0.62030464 -0.44705155
-0.18960822 0.1175856 0.10559402 -0.4403375 0.21112956 0.12872235 -0.012396908 -0.36104643
-0.1632819 1.0198109 0.42934796 0.069877364 -4.8119874 1.0208632 -0.45269138 -4.6051793
-0.6264471 1.2359259 -0.14816938 -0.0769271 -2.3892198 -0.44318116 -2.1721213 -0.015548905
0.26382327 0.1382409 -0.83912086 -1.2516456 -0.17395766 0.22496602 -0.7552763 -0.48322472
-0.33050236 0.24869187 -0.04534875 -0.52264 0.2592132 0.03363082 -0.14225732 -0.39715165
-0.06121717 1.007168 0.9821262 -0.001336231 0.51861244 -2.3543887 1.9123733 0.122782014
0.31331757 -0.5898146 -0.00869565 -2.038451 0.08354141 -0.79218763 -0.11988677 -3.7370255
-3.2493753 1.2009459 2.2960052 2.6576107 -0.8238586 0.08250351 -5.0039935 -3.548845
-0.17783831 -2.108846 0.15726435 1.89063 -3.8933108 0.54378706 -0.01722153 1.441779
0.031747412 -3.178559 0.95727366 -0.2613309 -0.47530523 -1.7331889 -1.4784417 0.29068556
0.48927623 -1.0900961 -0.027106533 1.5889442 0.17289229 -0.13451128 -6.836066 -0.98285365
-0.21437436 -0.4480456 -1.1530879 -1.8209791 -0.7738574 -0.012382561 -1.0921471 -0.4988883
-0.6425148 -0.18830924 -0.08438006 -1.1244441 0.005423485 -0.19948444 -0.42817843 -0.5289045
0.22464924 0.04480697 -0.99688256 -1.5277345 -0.20744853 0.1486079 -0.47157484 -0.6005518
-0.17822713 0.12190909 -0.04174976 -0.5651304 0.13080202 0.24306494 -0.1846573 -0.12318772
0.21194005 0.5639688 1.4575758 -1.4894506 -0.3219505 -2.2268589 1.274138 2.2835152
1.0061115 0.3340463 0.10642626 -0.7934426 -0.6223561 1.4217798 2.1879165 -0.7605377
0.1670549 -0.06522448 -0.8523163 -1.3358092 -0.19383915 0.26963153 -0.4927655 -0.5244693
-0.11373777 0.10390241 0.10587522 -0.59089875 0.2975862 -0.07222525 -0.26871973 -0.102171175
0.11830843 0.07533659 -0.9313808 -1.2717643 -0.20569463 0.24096934 -0.5282698 -0.49198753
-0.19148551 0.1455504 -0.11275747 -0.5653298 0.31695417 0.07511172 -0.20519553 -0.23437694
0.70819503 0.36769998 0.031874117 -0.85073394 -6.644725 -0.17100854 0.7369153 1.9417118
1.1653812 -0.4473997 -0.06957208 1.655829 -1.1556448 -1.5322711 0.29547626 -1.3644613
0.24086605 0.036814686 -0.89273906 -1.2361691 -0.1862304 0.2017874 -0.67228705 -0.43777606
-0.041932836 0.0561951 -0.087618075 -0.6071458 0.09046528 -0.019721197 -0.115240514 -0.15606071
0.59677476 0.40351412 1.4174163 1.319102 0.7483148 0.21926193 -1.3625681 1.4539826
-1.5860105 -1.8930944 0.11346975 -3.626281 0.25044358 0.6363569 -0.28757975 -2.415292

layer2.fc_self.bias f4 [167]
00000000: b25a 993e f9c1 0c3e 92cc 023e 06c2 c9be
00000010: 2b83 363e 4a74 6dbd 1c00 a93c cb73 cbbe
00000020: 140a 9fbe 0898 f03d 4211 bbbc 49a8 bb3e
00000030: d1f8 643e e55f a5bd 13cf bb3e 3358 3a3e
00000040: 458b 78bf 95c0 53bf d8d5 103d d974 423e
00000050: 8c5a b53e 0e7d 92bd 3eaa 60be ff97 ccbe
00000060: 0f2b 913e f803 39bf 0579 1c3f bd27 5b3e
00000070: 108e aebe 117f 92bf 2a70 453e 68ad f23d
00000080: 458e 35bf e2e0 873e 62f3 d23d 1693 dbbe
00000090: 4ddb 103e 6a5e 54bf 356b c73d 37e6 56be
000000a0: 7310 84be 6955 4d3f ebf4 bc3e f9d3 853e
000000b0: 5130 f03d 9927 e1be 16ce 10bd 33e8 6c3e
000000c0: 5297 8a3e 2daf c03d 2e42 3c3d 28f9 42bf
000000d0: ace2 7ebf 187e 4d3e a7bb 443e 0508 883e
000000e0: d718 b93e 9798 233c b440 c13e fffc 19be
000000f0: 1d62 7b3e 5ae2 f2bc 6784 babd cd52 523e
00000100: db1a 44bd 2e95 e6be 7944 083f c579 05be
00000110: c2ed 2fbe 905a ecbe c1ec 73bf de9a 343f
00000120: 003b 143d debc 133d db8d 8d3e 689f b13d
00000130: 26c5 933e 9ee8 2ebf e55b 9abc 3bf1 8abe
00000140: 6c02 e2be e1b5 b93c f667 c2be 8d30 7c3e
00000150: 4024 18bf 2d67 5c3c 6e07 063f f2a7 413d
00000160: 2392 91bb 72dd 86be fb57 97bd 9a4b 6fbe
00000170: 317f 9c3e 50d0 85be abc1 15bf 2ef0 cdbc
00000180: 91fd a3be c81c 4f3e 0a45 e03e 1514 433e
00000190: 6a32 c7be dff4 f0bb 60b6 d7be 9281 90be
000001a0: 3900 863e b07c 24bf e934 5bbe 056d 993c
000001b0: 19c0 c9be 6591 403d 493e edbc 67a0 3e3e
000001c0: c9cc 763e fb1a 08bd 8673 dabd e853 38bf
000001d0: 644a 953e 08c2 7eb9 dfb3 7abd 0457 753e
000001e0: f35d c0bd d41e d23d 37b2 4fbf 7d1d a4bc
000001f0: 3ec1 943e 86b0 1a3d 544f dd3c d7f0 10bf
00000200: 0091 46bf 97ff 0b3e 7ebe efbc f4b0 00bf
00000210: f7cc b2be 8a66 3c3e b30f 69be 6534 ef3d
00000220: 5f4f 72be 91bc 483f fbf7 703d 1a29 003e
00000230: 0382 27bc 4df9 e13d 450c a63e d4e7 063e
00000240: 54ca 233e 6252 a3be b129 7bbf 3fbb 8b3d
00000250: a0b5 c8bc 4025 62bf 61b4 b63d 354c 113c
00000260: 924d 9f3e b14c 243f 1b62 b5bf 0fe1 41be
00000270: 3a1f 6bbf def0 3f3e a0c3 b93e 9bb5 4cbf
00000280: ce90 5fbe 6c0c bfbe a165 493e 4361 3b3d
00000290: 652c 163e b430 d9be 95cf d2be
0.29952008 0.1374587 0.1277335 -0.3940584 0.17823474 -0.05797223 0.020629935 -0.3973678
-0.31062376 0.11747748 -0.022835378 0.3665183 0.22360541 -0.08074931 0.36681423 0.18197708
-0.9708751 -0.8271573 0.035360187 0.18989886 0.35420644 -0.071527585 -0.21939942 -0.39959714
0.28353164 -0.7227168 0.6112216 0.21401878 -0.3409276 -1.1445028 0.19281068 0.11849481
-0.7092021 0.2653876 0.10300328 -0.42885655 0.14146157 -0.82956564 0.09737245 -0.20986257
-0.257938 0.8020845 0.36905608 0.26138285 0.117279656 -0.43975523 -0.03535279 0.23135452
0.27068573 0.09408412 0.04596155 -0.7616143 -0.99564624 0.20067632 0.19212209 0.26568618
0.36151764 0.009985111 0.37744677 -0.15037917 0.24549146 -0.029648948 -0.09107285 0.20539398
-0.047877174 -0.4503569 0.5322948 -0.13034733 -0.17180541 -0.46162844 -0.9528313 0.7054881
0.03618908 0.03606879 0.2764729 0.086729825 0.2886135 -0.68323696 -0.018842647 -0.2713717
-0.44142473 0.022669734 -0.3796994 0.24627896 -0.59430313 0.013452333 0.52355087 0.047279306
-0.0044424697 -0.26340824 -0.07389828 -0.23368683 0.3056579 -0.26135492 -0.5849864 -0.02513894
-0.32029393 0.20225823 0.43802673 0.1905063 -0.3890565 -0.0073534097 -0.4213133 -0.28223854
0.26172045 -0.6425276 -0.21406902 0.018728742 -0.3940437 0.04701366 -0.028960364 0.18615876
0.24101557 -0.033228856 -0.106665656 -0.7200303 0.29158318 -0.0002429561 -0.061206695 0.23958975
-0.093929194 0.10259786 -0.8113131 -0.020033592 0.29053682 0.037766002 0.027015366 -0.5661749
-0.77565 0.13671719 -0.029265638 -0.5027001 -0.34922 0.1839849 -0.22759895 0.11679915
-0.2366309 0.7841273 0.058830243 0.12515679 -0.010223868 0.110338785 0.32431236 0.13174373
0.15995151 -0.3189879 -0.9811049 0.06822824 -0.024500668 -0.8833809 0.08921123 0.008868267
0.3111387 0.6417952 -1.4170564 -0.1893351 -0.9184452 0.18744227 0.36282063 -0.7996461
-0.21832582 -0.37314165 0.19667675 0.045747053 0.14665373 -0.4241997 -0.41173998
