Audit-log_Analysis/code/GNN/training/checkpoint_graphSAGE/best_model_GraphSAGE_secureBERT_100.pt (torch, 350017 bytes, 12 tensors)

sage.layer1.fc_pool.weight f4 [100, 100]
00000000: da35 9e3b d23b 0dbe f82e f6bd 74f3 a13c
00000010: 854f 86bd 4c9f 5e3c 4248 13bd 19d4 cabd
00000020: 8032 b1bb 5eb6 bc3b e7e0 303b 1f76 6a3d
00000030: 081b 8cbd 8224 3e3d 86a6 153c b2f2 39bd
00000040: 2707 df3d 8d89 273d a3be b43d e454 483c
00000050: 20c9 ba3d e7ea 64bd ef8d 223d 2bf5 19bd
00000060: 44ee 35bd b306 d6bd ca62 fdbd 473b 0bbd
00000070: 167a a43d e729 9d3d b22d 293d f16f 213d
00000080: e451 b3bd 391a 143d cefd 7d3c 0e47 0cbd
00000090: 5ba0 c43d f237 413d 54a3 343d 500a 0a3c
000000a0: dd77 40bc 1be5 3bbd 0f99 8b3d 270e 493d
000000b0: 34de b9bc 5d87 6b3d 2799 29bd 2b4a 363c
000000c0: 12f4 d53b 29b5 58bd f106 a03d 07ae 843d
000000d0: 4596 193d 57be 883c 128a 28bd 87f5 b7bd
000000e0: 8f0a f73c 8d58 82bc 4db0 a5bc 21f4 dcbc
000000f0: 40a5 e23c 95b7 f33d 524f a6bd 5db7 853d
00000100: 107f bcbc aadf 4c3d cbc7 a6bd dccf b23d
00000110: 0bbb d63c 104c f63c 8146 a23c 3536 323c
00000120: 8a52 993d 5f79 e13d 9b65 1c3e 9bf5 523b
00000130: 03b7 3d3d dde0 8fbd fffe 503d 5628 c53d
00000140: 4d46 09bc 14cc 453d fecb 733d 2761 20bd
00000150: 5983 d5bd 086b a5bb 22d2 cabb dcce e93d
00000160: 2502 c3bb b522 f6bc 8181 1abd 550e 373e
00000170: 2ef7 933b 4981 233c 744d a13c dccd 11be
00000180: 8888 b0bc b0e3 e6bc 872d b13c fd7b 02ba
00000190: 4b6e a83d 822c b03d 7aef 2f3b dc6c 9ebd
000001a0: 9ec6 ae3c 1e7b 29bc d8dc 9e3a 9c7c 823d
000001b0: 73a8 d9bc e2ba 8fbc d236 8a3d f4f9 1d3c
000001c0: 6b2d 59bd ee5d 4f3d 542a 5b3b 926b 22bd
000001d0: 6ec9 9c3d e369 543d 4935 3dbc 2271 a03d
000001e0: 896c e63c 500a 22bd a4f5 5b3d 0695 89bc
000001f0: 4e0c c4bc aa0e 623d 8bf5 5f3d 7543 febd
00000200: fd00 653d d9f8 f1bc 2258 523d fdaf bebd
00000210: 4bca 9b3d fa2e 3f3c 4125 843b 23e0 0dbe
00000220: 4215 ce3d c282 f6bd 844c 623c 0177 70bd
00000230: c00c e73c 084d 00bd d715 1fbb 97b6 d63c
00000240: c2a1 073b 148e a13d 8909 aa3d e107 67bc
00000250: 9824 7e3c aa7d 823c 1128 7f3c e01c 1e38
00000260: 69e3 d73d 3959 efbd 8b20 f53c 4d4d d3bc
00000270: fcc3 c1bc 7c5b 37bc 000f 4d3c dcc7 41bd
00000280: 6d96 c43d fb41 39b9 3d6a 5dbd d9ba 50bd
00000290: 8d6d 10bd 0635 1dbe f987 f7bc 45f0 d5bd
000002a0: ef02 333c c128 bc3c 677b 5a3b 5251 073e
000002b0: bd6d 8fbd be68 293e 677a d4bd e2ad 7abd
000002c0: ebb1 f9bc a695 d8bc eb25 c8bd 5e3c a63c
000002d0: b1ee 99bd 3e8f 58bd 79ce b8bd 3518 753d
000002e0: 9b38 f73d b53d 063d 0c23 663d c5bf 183d
000002f0: d9d2 7f3c 5ae1 743d a0c2 043e 90ee 1fbe
00000300: bcda 693c e3df 2ebd 7783 bdbc fa68 2cbd
00000310: b296 26be da39 573d 66a1 333c f869 ac3d
00000320: 5ffa 1f3e 5a18 d93c 256e bfbc b574 adbd
00000330: fbcc 2cbd bd23 69bc f92a 82be 45f6 06be
00000340: 516b 1ebe 224c e1bd fbbc 98bc 9179 923d
00000350: 3b79 383c 7c94 e2bd 4eee bdbd 3120 af3d
00000360: d587 26bc 416c 143c 392e f43d f8ce 103e
00000370: 3d0c f2bd 2746 4ebe 9535 383d 5df3 ed3d
00000380: 1c92 b23d 66da b53c 9c7a e8bc e637 973c
00000390: 88d2 d9bc de4b a03d 66ba 8e3c 97d2 bcbc
000003a0: e910 c8bc 9870 78bd aeb9 183e 2cc9 debd
000003b0: cf07 06bd 0195 233e 2cf0 cebd 7a47 7ebd
000003c0: b2a2 873d e044 c0bd 2b56 e4bd 70a4 773d
000003d0: 5bf6 eebd 903a 0dbe c11f 6abd 861c f63d
000003e0: 22e6 183d d17f 0abe 21e1 f83d a15d e13d
000003f0: 7ca9 c8bc e94a ce3d e425 6bbd f40a d6bc
0.004828197 -0.13792351 -0.12020677 0.019769408 -0.06558136 0.013587784 -0.035957582 -0.09903736
-0.0054076314 0.0057590446 0.002698952 0.057241555 -0.06841093 0.046421535 0.009133941 -0.045397468
0.10890036 0.040902663 0.088254236 0.012227271 0.09120393 -0.055888083 0.03968614 -0.037587326
-0.04441668 -0.104504965 -0.12372358 -0.03399208 0.080310985 0.07674008 0.041303344 0.039413396
-0.08755854 0.03615782 0.015502406 -0.03424745 0.09600898 0.047172494 0.044101074 0.00842531
-0.011747328 -0.04587279 0.06816303 0.049085762 -0.022688963 0.05750214 -0.041405823 0.011126081
0.0065293396 -0.052907143 0.07813824 0.064785056 0.037496824 0.016692324 -0.0411473 -0.089823775
0.030156402 -0.015911365 -0.020225668 -0.026971878 0.027666688 0.1190025 -0.08120598 0.065291144
-0.023009807 0.05001799 -0.08143576 0.08731052 0.026212236 0.030065566 0.01980901 0.010877182
0.07486446 0.11009478 0.15273134 0.003218985 0.04631711 -0.07025311 0.051024433 0.09626834
-0.008378577 0.048290327 0.059520714 -0.03915515 -0.10425443 -0.0050481595 -0.0061896006 0.114164084
-0.0059511834 -0.030045846 -0.03772116 0.17876561 0.00451555 0.009979554 0.019690253 -0.14238685
-0.021549478 -0.028184742 0.021628154 -0.0004977582 0.08224162 0.08602239 0.002684562 -0.07735607
0.021334942 -0.010344295 0.001212026 0.063714236 -0.02656958 -0.017545167 0.067487374 0.009642113
-0.05302183 0.050626688 0.0033441978 -0.03965337 0.07655607 0.051858794 -0.011548349 0.07834078
0.028127925 -0.039560616 0.053701058 -0.016794693 -0.023931649 0.055189766 0.054677527 -0.1241521
0.055909146 -0.029537605 0.05135358 -0.09310911 0.07606944 0.011668915 0.0040327613 -0.13855033
0.10062648 -0.12036659 0.013812188 -0.05870724 0.028204322 -0.031323463 -0.0024274492 0.026210112
0.002069578 0.078884274 0.083026 -0.014101 0.015511654 0.015929062 0.015573517 3.7697027e-05
0.10541422 -0.1168694 0.029922744 -0.025793696 -0.023653023 -0.011191245 0.012515783 -0.04730974
0.09599004 -0.00017667554 -0.054056395 -0.05095944 -0.035260726 -0.15352258 -0.030216204 -0.104462184
0.010925992 0.022968652 0.0033337714 0.13214615 -0.07003353 0.16543862 -0.10374909 -0.061200984
-0.030480346 -0.026438545 -0.09772857 0.020292457 -0.0751623 -0.05287098 -0.090237565 0.05983754
0.120713435 0.032773692 0.056185767 0.03729226 0.015614235 0.059785224 0.12964869 -0.15618348
0.014273342 -0.042693984 -0.023133976 -0.0420923 -0.16268423 0.052545406 0.010963773 0.084186494
0.15622853 0.02650087 -0.02336795 -0.08469526 -0.042187672 -0.014229712 -0.2542341 -0.13179882
-0.15470625 -0.11000849 -0.0186448 0.07152093 0.011259372 -0.110634774 -0.09273969 0.08551062
-0.010164221 0.009059013 0.11922879 0.14141452 -0.118187405 -0.20143948 0.044972975 0.116186835
0.087192744 0.022198867 -0.028378777 0.018459272 -0.026589647 0.078269705 0.017422866 -0.023049636
-0.024422126 -0.060654253 0.14914581 -0.10878214 -0.03272229 0.15974809 -0.10104403 -0.062079884
0.066228285 -0.09388137 -0.11149248 0.060459554 -0.11668082 -0.13791871 -0.05715919 0.12017159
0.037328847 -0.1352532 0.12152315 0.110041864 -0.024494879 0.10072882 -0.057409182 -0.02612827

sage.layer1.fc_pool.bias f4 [100]
00000000: ed9c 1abd 1e84 d1bd 3ecd 1abf 3132 1bbf
00000010: 4e84 0abf 0acd 11bf bc95 85be 726b c4be
00000020: 1b37 7dbe 8097 a3be cb97 9abe 41f6 c5be
00000030: d798 ccbd a80a d3be f184 94be 156e fdbe
00000040: 283a 12bf 22fc d2be 3dc5 98be e94c e6be
00000050: 3a96 b0be 47c3 443d 3467 2fbf c62f fbbe
00000060: 09dd f4be 97e1 e3be a0ef 40bf b99a 0bbf
00000070: a131 22bf f2db aebd 342e 06bf 7b87 dcbe
00000080: 0748 6cbe d697 13bf f740 d9be 92b5 31bf
00000090: 8293 36bf 9e3d d4be a4d7 0ebf 976b b2be
000000a0: 425c 03bf e767 97be c951 8abe 2dce 05bf
000000b0: d615 eabe 7037 81be 07ab 11bf 142c 29bf
000000c0: cd78 5bbe 6cde c6bc 7ccc 5abe de41 12bf
000000d0: 3883 23bf 518a eebe df7f 9ebe c9e3 acbe
000000e0: 8c98 753e 1fae 6dbe bb9a 09bf 45b5 cfbd
000000f0: e772 c7be 85a9 39bf bbdc f6be a38e 6bbe
00000100: 922e 77be 0f66 00bf 1d93 a7be 79b1 033d
00000110: ac88 f2be 8393 40bf 1065 4ebf c4e3 e7be
00000120: 784d e9be 1873 02bf 745a 3e3d 1f3d f3be
00000130: bc1c 1cbf 0741 a2be 99f6 ccbe 9497 3cbf
00000140: e017 29bf 6d16 1e3f 3d5d f7be 647e 37bf
00000150: 3c56 05bf 953d 123f 7b7c 07bf c1ae 0fbf
00000160: bcb1 eabe b879 c3be e95b f4be 9d40 e2be
00000170: 96ca e5be c3fe 15be 06bf d4be 38e7 08bf
00000180: 2501 37bf 67dd 1ebf cd0a 62bf f318 3cbe
-0.037747312 -0.102302775 -0.60469425 -0.6062346 -0.5410813 -0.5695349 -0.260908 -0.38363224
-0.24728052 -0.31951523 -0.30193934 -0.3866444 -0.099900894 -0.41219068 -0.29007676 -0.49498048
-0.5711999 -0.41207987 -0.2983798 -0.44980553 -0.34489614 0.048037793 -0.6851685 -0.49059886
-0.47824886 -0.4450805 -0.7536564 -0.54532963 -0.6335698 -0.08538045 -0.5241425 -0.43072113
-0.23074351 -0.5765356 -0.42432377 -0.6941768 -0.7131883 -0.4145326 -0.5579779 -0.3484771
-0.5131265 -0.2957146 -0.27015522 -0.52267724 -0.45719784 -0.25237608 -0.5690159 -0.6608288
-0.214328 -0.02427598 -0.21367067 -0.57131755 -0.638721 -0.46589902 -0.30956933 -0.33767536
0.23983973 -0.23210953 -0.53751725 -0.10141996 -0.3895485 -0.7252429 -0.4821528 -0.2300363
-0.24138859 -0.5015573 -0.32729426 0.032151673 -0.47369897 -0.75225085 -0.8062296 -0.4529096
-0.45566916 -0.5095687 0.04647298 -0.4750757 -0.60981345 -0.31690237 -0.4003189 -0.7366879
-0.66052055 0.6175297 -0.48313323 -0.7167723 -0.5208471 0.57125217 -0.5292432 -0.5612603
-0.45838726 -0.38178802 -0.47726372 -0.4418992 -0.44881123 -0.14647965 -0.4155199 -0.5347781
-0.7148612 -0.62056583 -0.8829773 -0.18368892

sage.layer1.fc_neigh.weight f4 [64, 100]
00000000: 6a3d 313d 5c24 a8bc 7f6f d6bd ed52 e53c
00000010: 53e3 25bd db96 fcbd bb40 953c 1d69 abba
00000020: a9b0 97bc 1610 9f3c 2818 b2bd 5d57 a4ba
00000030: cc09 8c3d a2cb 43bc b606 6a3d 58e5 9d3d
00000040: 544f 43be e005 db3d 26e8 0b3d e0ee 14bd
00000050: 5386 ff3b 0aa8 8f3d 3a04 dcbd bb63 af3d
00000060: 2d36 02bd 8cc2 213d 8c3e c3bd 3189 8d3d
00000070: 076d 9fbc e1db 983c 84c9 bf3b 31d8 14be
00000080: 2c72 32bd b62f 1abe dacd 35bb e511 78bc
00000090: 94c7 c4bd bc51 c13c e484 c7bd e0b1 403d
000000a0: c08a 88bd 9950 933b ad0b 933c f32a 35bd
000000b0: 6b8c 913d c99f d0bb 57de fabd 7818 10bd
000000c0: ee50 173d c589 523d 61d7 623d ca29 e23d
000000d0: 1dae 8dbd 0b88 01bd 7b45 babc 4c8f 1c3d
000000e0: 02e5 823c d4a0 fabb d024 7abd 2d81 423d
000000f0: b1b6 aabd 9577 adbd af8c b63d e8f3 ae3c
00000100: ecc3 ea3c f372 01bd 13e8 8c3c 9fb0 873c
00000110: 0b2d ff3d 6f98 e9bc dd28 353d f7cb b2bd
00000120: ef9c fb3b c1fb deba 1ffc 323d a5f8 2dbe
00000130: a0de 893d f453 073d 2dc7 10bc 3d93 26bd
00000140: 0067 a5bd df46 95bd aa25 b03c bc5d 39bd
00000150: 40f1 153e 7e20 29bd 5cbd dfbd b72a 703c
00000160: 4368 e93d 4f5b 54bd fc6f e7bc 7e99 f1bd
00000170: 7320 12be b02c 953d 97d4 8b3c 4642 e33b
00000180: ce01 a2bd ae66 27bd f57a 2fbe 1874 2dbc
00000190: 0674 673d 3a85 11bc dd43 67bd dc46 92bd
000001a0: ec93 2fbd 0fff 9cbd ddd8 51bc 7f48 933c
000001b0: c94d d33c 0c47 073d 579d 1e3c 23c0 063d
000001c0: f597 7d3d c897 b6bc 3b01 3a3c 461b 1e3d
000001d0: 2f15 8ebd 44b8 16bd ab65 06bb 2261 543d
000001e0: c07b cbbc 26ca 723d 337b 9cbd 4107 1cbb
000001f0: 9daf 9abc 5cd5 fb3c 2a61 08bd a6de 7ebc
00000200: 4079 8f3a 49cc 193d 50a6 2ebd 4fdb 2ebd
00000210: 8a0b db3c f76b 16bd 0605 ebbc 8897 33bd
00000220: 33b6 5c3d 901b b53c b124 3bbd 3a70 4d3d
00000230: c5f4 29bd 278a c93c 30f1 0d3d 62c8 f73d
00000240: a6a9 d93c b7e4 3d3c e1e5 d7bd 7342 923d
00000250: 3b9e 143d d0da 623d 3d36 073c 62dc e53d
00000260: e1dc 73bd b9c6 5b3d 7103 f6bc e2cf e63c
00000270: 7deb 8c3d 5ca3 333b 950e d8bc 3d6d 393d
00000280: eaa4 593c 99c4 a93a a378 183c 3102 b43c
00000290: 7529 9a3c f116 043d c4fe 15bb 08d0 153d
000002a0: b5f3 edbd 53d1 753d cda2 1c3e 04e1 05bd
000002b0: ad51 5dbd bff1 0dbd 90d8 0f3d e467 d6bd
000002c0: 3040 3dbd 2866 bbbb f75a 1d3d 7b1b 02bd
000002d0: 42a4 f4bd c9c7 a4bc 3af0 82b9 2947 fabc
000002e0: 15a4 43b9 e8b9 703d 770b 08be 40d6 1abc
000002f0: cc30 643d 3077 1ebd 4304 fabc f57b 6fbd
00000300: 1aaa 3d3d 5f13 423d 3132 213d bfc2 92bc
00000310: 3705 7dbd c8ed c3bd 605e 053e 0154 173d
00000320: 4b95 4abd a54d 65bb d109 d5bc 13e3 423e
00000330: 48fc 5abc 83d1 1fbe 1453 f3bc 1a45 b3bb
00000340: af5c 2fbc 1558 933b 3c21 69bd d5e8 033d
00000350: 1f9c 7fbd 8d49 7abc 4b59 62bd 1b8b 063e
00000360: 2e61 33be 4ed8 803d db0c 03bd 9f3b 1cbd
00000370: 5a3d f1bb 961b 25bd 3880 5cbd 0232 6cbd
00000380: 77a6 e9bc dacd a63d 51c1 aa3d 2b07 013d
00000390: 6777 15bd 7a58 adbc 87d6 dfbc a469 8abd
000003a0: aac5 9cbc 3e45 d9bd b588 143d 2b34 c1bd
000003b0: 46da ad3d 6594 84bc 140d 7c3d 0950 0b3d
000003c0: d77b 1d3d c89a 37bd 3705 1cbc 4813 f1bd
000003d0: fdf7 ec3a 78c1 72bc 6a1e f9bd 62f1 093d
000003e0: 125f 7e3d 4bc0 58bd 66c8 a2bc 1d6b a0bd
000003f0: f1f4 b53c e90c 10be 68e5 20bd 0ac2 f73a
0.04327146 -0.02052515 -0.10470485 0.027993644 -0.040499996 -0.12333461 0.018219342 -0.0013077591
-0.018516855 0.01941685 -0.08696014 -0.0012538243 0.06837806 -0.011950405 0.057135306 0.077097595
-0.1907323 0.1069448 0.03415694 -0.03636062 0.007797995 0.07014473 -0.10742994 0.08563944
-0.031789947 0.039492175 -0.09533414 0.06910933 -0.019461168 0.018659534 0.00585288 -0.14535595
-0.043565914 -0.15057263 -0.0027741105 -0.015140985 -0.09608379 0.023598544 -0.09742144 0.047044635
-0.066670895 0.004495692 0.017949903 -0.044230413 0.07106861 -0.006366704 -0.12249439 -0.035179585
0.036942415 0.05140092 0.055381183 0.11043127 -0.06917975 -0.03162388 -0.022738209 0.038222596
0.01597834 -0.0076485667 -0.061070263 0.047486473 -0.08335627 -0.08470074 0.08913552 0.021356538
0.028657876 -0.031603765 0.017200505 0.016563712 0.12459763 -0.028515069 0.044228423 -0.087303095
0.00767862 -0.0017012284 0.043697473 -0.16989382 0.067319155 0.03303905 -0.00883655 -0.04066776
-0.08076286 -0.07288908 0.021502335 -0.045255408 0.14642811 -0.041290753 -0.10924789 0.0146586215
0.113968395 -0.05184489 -0.02825164 -0.117968544 -0.14270191 0.07283914 0.017069144 0.0069353906
-0.079105005 -0.040869407 -0.17136748 -0.010586761 0.056507133 -0.008881861 -0.056461204 -0.071424216
-0.04286568 -0.07665836 -0.012808052 0.017978905 0.025793927 0.03302674 0.009681067 0.03289808
0.061912496 -0.022289172 0.011352832 0.03860023 -0.06937634 -0.036796823 -0.0020507376 0.051850446
-0.024839282 0.059274815 -0.07640686 -0.0023808035 -0.018882567 0.030741386 -0.033295788 -0.015556013
0.001094617 0.037548337 -0.042639077 -0.042689618 0.0267389 -0.036724057 -0.028688919 -0.043845683
0.053884696 0.02210787 -0.04568929 0.050155856 -0.041493196 0.024602009 0.034653842 0.12098767
0.026570152 0.011590174 -0.10541893 0.071415804 0.036283713 0.055384457 0.0082526775 0.11223675
-0.05953682 0.053656314 -0.030030938 0.028175298 0.06880853 0.0027410602 -0.02637414 0.045270193
0.0132839475 0.0012952267 0.009306106 0.021973701 0.018818596 0.03224844 -0.0022887448 0.036575347
-0.11618749 0.06001408 0.15296479 -0.032685295 -0.05403297 -0.034654375 0.03511864 -0.10469034
-0.046203792 -0.005718965 0.03841683 -0.03176449 -0.11945392 -0.020114796 -0.00024974515 -0.03055151
-0.00018657774 0.058771044 -0.13285623 -0.009450495 0.0557106 -0.038687885 -0.03051961 -0.058467824
0.0463048 0.047381755 0.039354507 -0.017915128 -0.06177255 -0.095668375 0.13024282 0.036945347
-0.049458783 -0.0034988907 -0.026005657 0.19031934 -0.013365813 -0.15607266 -0.0297027 -0.005470884
-0.01070325 0.004496584 -0.05691646 0.032204468 -0.062404748 -0.015276325 -0.055260938 0.13139002
-0.1751754 0.06291257 -0.03199468 -0.038142797 -0.00736205 -0.04030951 -0.053833216 -0.05766488
-0.02852176 0.08144732 0.083376534 0.031500977 -0.036490824 -0.021160353 -0.027323974 -0.067584306
-0.019137222 -0.1060891 0.036263186 -0.094337784 0.08488898 -0.016184041 0.06153591 0.034011874
0.03844818 -0.044825345 -0.009522728 -0.11771256 0.0018079277 -0.014816634 -0.12164004 0.033677466
0.062102385 -0.05291776 -0.019870948 -0.0783293 0.022211524 -0.14067425 -0.03928128 0.0018902433

sage.layer1.fc_self.weight f4 [64, 100]
00000000: 6983 de3c 9681 db3b 583a b3bd 1c70 d0bd
00000010: ed8a a83d 6b5b 143e 6c26 84bc b7bd cdbd
00000020: 543b 553c 4d95 4c3d dfcd 8b3e 02cb 26be
00000030: 8e4c 3e3b ffce df3d 2034 9e3b 2d0e b03e
00000040: 3f29 b1be 018d 093d 23db 08bd 3db3 12bd
00000050: 92bc 2bbe 447e 57be c1f7 19be 89ba a8be
00000060: e859 aebd a487 f8bd 73e5 aebd 882c 983d
00000070: 0e22 513d 971b 6dbe 07b6 35bd b471 523c
00000080: 240a 133c a5db cfbd 554f 29bc b0be b7bb
00000090: 3c05 b8be 73a6 abbe d41c fabd 2246 75bc
000000a0: 1385 703d 0d5d 9bbe 34dc 5b3e 7321 fc3c
000000b0: ddf1 86be 158c 22be 3faf 93be 6e1e 9dbb
000000c0: 6627 8abe cfaa 47be 2d9e 2fbe df98 66bd
000000d0: 68a1 a63e d34f 603e 527b 843e fbdc 64bb
000000e0: a904 593d b743 0bbe 5d0e 04be 077d 07be
000000f0: fb60 c83e 07ec 8f3e abfa 3fbc eaec 28be
00000100: b7a6 b0be 372d b93e de30 02bf 7a35 09be
00000110: a904 90bb 1a9d 9b3d 33f1 86bd edb4 0f3e
00000120: f0ab 8f3d 5376 263e ac7e 103e b0dd 75bd
00000130: 6391 40be 4886 653d 915d 6ebd 5583 21bd
00000140: 44cf 45be 4522 6c3d 91ae 5f3e d123 3b3e
00000150: 2f82 53be 7d82 c2bd 6db7 483e 0ceb 0a3f
00000160: 4c51 c6bd 3b15 ac3e e36c 95be b9bb a8bd
00000170: 7c34 33be 6981 bcbe 58e5 fc3e 8563 df3e
00000180: 4511 cf3d 3a8c f7bd aa8a a03d 81b0 3e3e
00000190: fb84 1c3c 07c5 363d c8ec 1cbd 8ddc a43c
000001a0: 50f3 21bd 1537 88bb 1977 afbc cb54 f13d
000001b0: 504b fe3c 75e4 5bbd 7bce 08bd ad8e 813d
000001c0: 86a2 013e 7847 7fbc 8c06 83be 66be 94bd
000001d0: 988d 143d 2fbc 5d3d 958e 18bb fdf4 ec3d
000001e0: 50b4 26be 45be 25be 02c0 d9bc 71fa d5bd
000001f0: c179 9bbd 3c1c 423d 9b21 2b3d 4bd6 143e
00000200: 76ea 193e 3f02 70bd b60c 073d 1696 003e
00000210: abf2 41bd 074f 963d 074e 33bd 9e11 edbb
00000220: 3249 0d3e 8f95 8b3e 7d7b 0abe 3018 393d
00000230: 5b26 acbd 87f9 d4bd dc14 0c3e 93d1 58ba
00000240: 1f7e 5b3d baeb 403d 16ad f93d bb8b 45be
00000250: b726 0d3e f0b1 813c 3528 24be ae6e 263e
00000260: cd0a 40be b589 83be a3f9 b73e 53c2 bcbd
00000270: 3557 9e3e f6f0 963e e3cd b33c 43fd 1b3c
00000280: f70e b2be e4b6 99bd 847e 753e 2e29 0dbf
00000290: 095b f43d 7218 b0bd c1f8 cfbc f577 6bba
000002a0: e1fb 4dbe d050 d4be 6409 043e de26 0ebf
000002b0: 2c86 f0be 93c0 95bc e70e bc3e 47b3 433d
000002c0: 922f 8d3e 9920 533e a365 32be d5ee 593d
000002d0: d4a9 a13d 367d 99be fbff 1cbf 3b36 18bf
000002e0: bdc6 523e e28b 20bf d190 0e3f 3184 9e3d
000002f0: 141f b6bc 9dd9 953e c4ac 063f a1d2 8c3e
00000300: 6558 1b3e 0e23 da3d 36df 603e 1fd4 643e
00000310: f25c f23e 2f67 c73c a182 8dbe bab1 8dbe
00000320: 2029 0c3d 3c95 35bd d8d0 d2bd 6bb4 b83b
00000330: 98d0 f4bc d91a e03d 3031 f4bc 854e 44bd
00000340: 210b 6ebe b486 28be 482a a7bd ab3e 2cbd
00000350: c13e 20bc a4c9 b93d f900 d0bd d3f4 09bd
00000360: cf50 48be cdbc f3bd 7035 febd 1398 41be
00000370: 78b1 babb 27fd 30bd c270 5d3c dbe3 243e
00000380: cd85 b3be 4154 263d db87 e7bd a9ca 96be
00000390: 99df d0bd d5e7 893d 23b1 a23e ce11 04be
000003a0: 5d0b 78bd 6213 4cbd 91cb 54bd d40d 56be
000003b0: b8db 8c3e 8ac3 4abe f55e 423e a666 1ebd
000003c0: ffcc 40be 2921 ed3d f3a7 75be d11e 183e
000003d0: 7206 b4be 56a5 babd 9dde d53e bbe9 c73d
000003e0: d47e b53e ef17 6ebd 00c9 fe3d 73e0 3c3c
000003f0: 455a efbd c166 b93d b136 433e 98d7 1abe
0.02716227 0.0066987975 -0.087513626 -0.10177633 0.08229623 0.14487998 -0.016131602 -0.10045951
0.013014633 0.04994707 0.27305505 -0.16288379 0.002903733 0.10928153 0.004827991 0.34385815
-0.3460178 0.033581737 -0.03341211 -0.035815466 -0.16771153 -0.2104426 -0.15035917 -0.32954815
-0.08513242 -0.121352464 -0.08539858 0.07430369 0.051057868 -0.23155056 -0.044363048 0.012844492
0.008974586 -0.10149316 -0.010333856 -0.0056074485 -0.35941494 -0.33525428 -0.1221253 -0.014970334
0.05872066 -0.3034443 0.2147072 0.030777669 -0.26356402 -0.1587375 -0.2884464 -0.0047948873
-0.26983184 -0.19498752 -0.17150183 -0.056298133 0.32545018 0.2190545 0.25875336 -0.0034921754
0.05298296 -0.1360005 -0.12896104 -0.13231288 0.3913649 0.28109762 -0.011717479 -0.16496626
-0.34502193 0.3616731 -0.50855815 -0.13399306 -0.004395087 0.07598324 -0.06588974 0.14033861
0.07015216 0.16256075 0.14110821 -0.06002587 -0.1880546 0.056036264 -0.0581947 -0.03943189
-0.19317347 0.05764987 0.21843936 0.18275382 -0.2065513 -0.09497545 0.19601221 0.54264903
-0.09683475 0.33609948 -0.29184636 -0.0823893 -0.1750049 -0.36817482 0.49393725 0.43630615
0.10110716 -0.12087293 0.07838948 0.18622018 0.009553189 0.044621494 -0.03831175 0.020124698
-0.03953868 -0.004156957 -0.021419095 0.11783751 0.031041771 -0.05368467 -0.03340004 0.06326041
0.12659654 -0.015581004 -0.25590932 -0.07262878 0.036267847 0.054134544 -0.0023278345 0.11570165
-0.16279721 -0.16185863 -0.026580814 -0.104481585 -0.07591582 0.047390208 0.041780096 0.14534871
0.15030846 -0.058595892 0.032971106 0.12557253 -0.047350567 0.07339292 -0.043775585 -0.007234766
0.13797453 0.27262542 -0.1352367 0.045189083 -0.08405753 -0.10399156 0.13679832 -0.0008270975
0.053587075 0.047099806 0.12191217 -0.19291584 0.137843 0.015831918 -0.16030963 0.16253158
-0.1875412 -0.25691 0.35932645 -0.09216752 0.3092591 0.29480714 0.02194876 0.0095208315
-0.34777042 -0.07505587 0.23974043 -0.5514096 0.11931426 -0.085984126 -0.02538717 -0.00089824136
-0.20115615 -0.41467905 0.12894207 -0.55528057 -0.46977365 -0.018280303 0.3673012 0.047778394
0.27575356 0.20617904 -0.17421584 0.053206284 0.0789372 -0.2997834 -0.61328095 -0.5945775
0.20583625 -0.62713444 0.5568972 0.07740057 -0.022231616 0.29267588 0.5260737 0.27504447
0.15170439 0.106512174 0.21960148 0.22346543 0.47336537 0.024341194 -0.27638724 -0.27674657
0.034218907 -0.044331774 -0.1029374 0.005636742 -0.029884622 0.10942621 -0.02980861 -0.047926445
-0.23246433 -0.16457635 -0.081623614 -0.042051952 -0.009780587 0.09071663 -0.101564355 -0.03368075
-0.19562076 -0.11901245 -0.12412536 -0.18905668 -0.0056974255 -0.043210175 0.013515653 0.16102545
-0.3506302 0.040607695 -0.11305209 -0.29451492 -0.10198898 0.067336716 0.3177577 -0.12897417
-0.060557712 -0.049823172 -0.05195195 -0.20903713 0.27511382 -0.19801155 0.18981536 -0.038672112
-0.188282 0.115785904 -0.23989849 0.14855506 -0.35161167 -0.091135666 0.41771403 0.097613774
0.35448325 -0.058128294 0.124406815 0.011528122 -0.116871394 0.09052802 0.19063832 -0.15121305

sage.layer1.fc_self.bias f4 [64]
00000000: f4a5 8fbf da92 71bf cb6f 26bf bad9 bcbe
00000010: 2cc8 7bbf 0105 2dbf 05ca 61bf 0525 3fbf
00000020: 15c5 67bf 3f03 58bf 47ac 3fbf fa81 14bf
00000030: 43b7 6fbe 36d8 1fbe 5849 80bf 9cf1 2bbf
00000040: d300 2fbf 9cf7 7fbf 7176 70bf 3bae 67bf
00000050: 133c 6dbf 1560 64bf 3d17 b5bd be16 f0be
00000060: 0895 33bf 8f91 81be bbfe 0fbf f2b4 e2be
00000070: 4157 7abf ef24 52bf 2bbe abbe ccdb 79bf
00000080: 00fb bcbe 783f 4ebf a72b 04bf e4b5 44bf
00000090: 6c54 0abf 452b f7be b59d fabe 682a 13bf
000000a0: 57c8 59bf 2385 14bf f574 5cbf 4c80 61bf
000000b0: ecb3 1fbf a3eb 47bf 4842 503e 90d0 91be
000000c0: 95ce 64bf 311c 933e 0890 44bf c0f0 15bf
000000d0: fab0 30bf 3023 30bf 25c1 57bf 8bcb 993e
000000e0: c627 88bf 6096 61bf 8715 57bf 4878 4dbf
000000f0: 99a1 33bf f7e4 4cbf 6107 70bd 8f26 68bf
-1.122252 -0.943647 -0.6501433 -0.36884862 -0.98352313 -0.6758576 -0.8819888 -0.7466586
-0.905351 -0.84379953 -0.7487225 -0.5801083 -0.23409753 -0.15609822 -1.0022383 -0.6716554
-0.6836063 -0.99987197 -0.9393073 -0.9050023 -0.9266979 -0.8920911 -0.08842323 -0.4689235
-0.7014928 -0.25306365 -0.5624806 -0.44278675 -0.9778939 -0.82087606 -0.33543524 -0.9760101
-0.36910248 -0.80565596 -0.5162911 -0.76840043 -0.5403507 -0.482752 -0.48948446 -0.5748658
-0.8507132 -0.5801565 -0.8611596 -0.8808639 -0.62383914 -0.7809393 0.20337784 -0.28479433
-0.8937772 0.28732446 -0.76782274 -0.5857048 -0.69020045 -0.6880369 -0.8427909 0.30038103
-1.0637138 -0.8812008 -0.84017223 -0.8026166 -0.70168453 -0.8003687 -0.058600787 -0.90683836

sage.layer2.fc_pool.weight f4 [64, 64]
00000000: d64e d63c 4bef a2bd 4172 1a3e bcfd 023e
00000010: c25a 883d dfa6 5b3c ff68 5cbe ca4b 07bf
00000020: 1975 aabd e56c 39be 77f5 f6bd a973 833d
00000030: 86e0 6e3c 28c7 083c a834 533c 9af2 573c
00000040: 34bb 7c3d 9fa5 813d 7d2f 583d 5396 fd3d
00000050: 8142 56be 2f80 dabd e933 1e3d 0506 303e
00000060: e01f bebd 3adf dfbc 4fc4 72be ca08 3fbd
00000070: 24b8 1ebe 32b9 0f3e 4f6b a43d 7f2f 34be
00000080: 66e6 4f3d 6e3d a93b 937a c0bc dfc7 9f3d
00000090: 1274 aabd 36cc 4abd b7c8 273b 22f3 13be
000000a0: 8152 95bd 71ae 71bc 2d87 acbd 2e36 54be
000000b0: 3ada f8bd 952b bebc 3d60 8bbe 06ea 883d
000000c0: dd7c 9abe 788b c0bc 66ac 9bbb 6aa5 903d
000000d0: b03c 553e 3709 b3bd c533 43be 4c7e 03bd
000000e0: d07a 42bd ff89 70be 9a66 34be b8f3 b0bd
000000f0: 9caa cfbd bf77 bf3d 42e7 803d c2de 34ba
00000100: 8939 3f3d 4570 60be 7d51 29be 664d e2bd
00000110: cb98 a23d 0bc2 6b3d 4506 943d 5d38 103d
00000120: c147 3e3e b42a a5bd 4342 6c3c 7e2c 54bc
00000130: f095 623b 8dea afb9 ddcd 6cbe 8a82 903d
00000140: 9ca1 d63d 1170 15be 8a6f 333e 9229 0e3e
00000150: 6287 5d3e 7b22 85be d857 d6bc f5de c2bd
00000160: 2009 00bd 3d16 c0bb cac2 75be 2184 303d
00000170: 2546 6d3d 2edf b63d 700f 63bd 796c 71be
00000180: 2bd8 46bd 86be 243d 543c cdbd 4ef7 f7bd
00000190: 0a73 033c 611f 743d 8c26 74bd 05d7 543d
000001a0: 1670 23be 28ee e0bd 985a 91bd 1d6b c13c
000001b0: 4609 9c3d 66a7 18be 1bf5 373d 0708 833d
000001c0: 6de5 aebd e93e 06be 36a6 07be e9dd ebbc
000001d0: fdb1 b23c f4ec 15be cb71 a53c 565c 61bc
000001e0: 491b 553d 68d9 5fbd b684 bfbb 883b e73d
000001f0: 1942 14be a4ea 42be 2b54 79bd 080a 20bd
00000200: 779b 9f3c 84f8 96bd 3efc 65bd e52b 18be
00000210: 18d4 8ebe 6cc7 7abe 38c5 cd3c 016b 783d
00000220: 389a bfbd 3284 1d3e 13c2 18be 52f3 03be
00000230: c1d8 99bd 2ede 203c 64b5 603c d080 1f3e
00000240: c249 42be d8f0 dd3c d955 bd3d 1c82 85bd
00000250: e321 b33d 3e7f 093e 3ee3 aebc 7969 acbd
00000260: 9142 a33e 54a5 7dbe 742b 9abe a924 5fbd
00000270: f381 c13d 13a0 b53d 5f0a 92bd daa6 563e
00000280: 4114 ad3a d2ff 42be 7007 543d 49e0 12be
00000290: 124b 98bd 985c 9cbd c125 2cbe 9cdc 673d
000002a0: bfc8 cbbd 3985 18bc 3b09 3c3d 5c2a d63c
000002b0: 4177 b93d 865a 67bd 50cc 30be 51aa 39be
000002c0: 8b68 04be c182 83be 6835 4dbd 6656 823d
000002d0: 2f6a 89bd ff28 653d e51c 48bd bfe0 7dbe
000002e0: 747d cabd 8d14 b33d 9f9a 31bc 491e 20be
000002f0: b6f1 813b 0aa4 753d 6fe6 c5bb 4c58 15bc
00000300: 0b58 b5bd cc74 3fbe 6b98 6e3d 9fcd b9bc
00000310: c4d7 ddbb 8e72 9bbd d270 3d3e 3d44 ccbd
00000320: 51f5 8fbd d90b 9dbd e12c 25bd 67fa 473d
00000330: 1edd 9f3d 4994 0a3d ba2e a73c 9df7 543d
00000340: d98e 8f3d a3b6 0abc ff14 d73d fc2f 42be
00000350: d5d7 e7bc 82c9 2dbd 5102 80bd 635c 88bd
00000360: 8a46 6abe 47bd 1b3d 6b7e 81be a833 8abd
00000370: f4b5 c3bc a814 2c3d 675f f13d d67c 803c
00000380: 5ef6 67bc 1a44 f23d 9a71 bc3d 5d49 84bd
00000390: 9ea0 cbbd 1e3a 4e3d 042a 84bd 5d10 cdbb
000003a0: 8b13 d33d 400f b2bd 0a4f 99bc d00e 083e
000003b0: cb89 32bd b361 953c 9eab 28bd 2377 52bd
000003c0: ab8a fabc a697 ae3c e0c4 99bd d876 90bd
000003d0: 1720 f1bc f474 a8bc b16b f0bc e5cd d13c
000003e0: 2983 8fbc 5a41 3fbd e14c febc 7902 babd
000003f0: d0b3 adbd 355c dcba 1758 8dbb 43df 90bd
0.026160639 -0.07955798 0.15082647 0.12792104 0.06657936 0.013406484 -0.21524428 -0.5285002
-0.08323116 -0.18107946 -0.120585375 0.06418545 0.014579898 0.008348264 0.012890972 0.013180399
0.06170197 0.06330418 0.052779663 0.12382188 -0.20923807 -0.1066898 0.038623724 0.17189796
-0.092834234 -0.027328122 -0.23707698 -0.04663924 -0.15499932 0.1403549 0.0802828 -0.17596243
0.050756834 0.0051647937 -0.023495948 0.07801794 -0.0832292 -0.049511157 0.0025601813 -0.14448217
-0.07291127 -0.014751063 -0.0842422 -0.20723793 -0.121509984 -0.02321414 -0.2722186 0.066852614
-0.30173388 -0.023504004 -0.004750776 0.070628 0.20823932 -0.08741992 -0.19062717 -0.032102868
-0.047480404 -0.23490141 -0.17617264 -0.08640236 -0.10139963 0.09349012 0.06294109 -0.00068996486
0.04668573 -0.21917827 -0.16534992 -0.11049919 0.07939299 0.0575581 0.07227758 0.035210002
0.1858206 -0.080647856 0.014420095 -0.012950061 0.0034574233 -0.00033553355 -0.23125406 0.07056148
0.10480043 -0.14593531 0.17523018 0.13883045 0.21633676 -0.2600287 -0.026164934 -0.09515182
-0.031258702 -0.005862026 -0.24000087 0.043094758 0.057928223 0.08929287 -0.055434644 -0.23576535
-0.048545998 0.04022076 -0.10021272 -0.121077165 0.008023033 0.059600238 -0.059607074 0.05196287
-0.15960726 -0.10982925 -0.070973575 0.023610646 0.07618956 -0.14907607 0.044911485 0.063980155
-0.08539853 -0.13109936 -0.13246998 -0.028792338 0.021813387 -0.14641172 0.020195862 -0.013754925
0.052027974 -0.054650694 -0.005844678 0.112906516 -0.14478339 -0.19034821 -0.060871284 -0.039072067
0.019483311 -0.07371619 -0.05614876 -0.14860494 -0.2789619 -0.24490136 0.025118455 0.060648922
-0.09355587 0.1538246 -0.14917783 -0.12885788 -0.07512046 0.009818597 0.013715122 0.15576482
-0.18973449 0.027092382 0.0924489 -0.06518957 0.08746698 0.13427445 -0.021348592 -0.08418555
0.31886724 -0.24770099 -0.30111277 -0.05447832 0.09448614 0.08868422 -0.071308844 0.20962086
0.0013204889 -0.190429 0.051764905 -0.1434337 -0.074361935 -0.07634848 -0.16811277 0.056606874
-0.09950399 -0.0093091065 0.04590724 0.026143245 0.09055949 -0.056482814 -0.17265439 -0.18131377
-0.12930505 -0.25685695 -0.05009976 0.063641354 -0.06709706 0.0559473 -0.04885568 -0.24792765
-0.098872095 0.08744154 -0.010840087 -0.15636553 0.003965582 0.059970893 -0.0060394327 -0.00911529
-0.088546835 -0.18696898 0.058250826 -0.022681056 -0.006770106 -0.07590209 0.18500069 -0.09973953
-0.07029212 -0.076682754 -0.040326003 0.048822787 0.07805847 0.033832822 0.020408023 0.051993955
0.07009668 -0.008466396 0.105020516 -0.18963617 -0.028301159 -0.0424285 -0.06250442 -0.06658246
-0.22878471 0.038022306 -0.25291762 -0.06748134 -0.023890473 0.042011887 0.11785775 0.015684526
-0.01415786 0.118293956 0.09201355 -0.064593054 -0.09942745 0.050348394 -0.06453326 -0.006258054
0.10306462 -0.08694315 -0.018714447 0.132869 -0.04358844 0.018235063 -0.041179292 -0.05138315
-0.0305837 0.021312546 -0.07508254 -0.07053918 -0.029434247 -0.02056358 -0.029348226 0.025610873
-0.017518597 -0.046693183 -0.031042518 -0.09082503 -0.08481562 -0.0016812148 -0.0043134796 -0.07073834

sage.layer2.fc_pool.bias f4 [64]
00000000: 5d75 36be 76fa 7d3e 14c3 523c b153 a63e
00000010: f643 a23d ff63 023e 8022 833e e9b3 453f
00000020: 4566 7dbe a3b0 92be 16e8 893e 8965 b6be
00000030: 321e 9fbe 053d 843b 792a 0a3e cd96 813d
00000040: 35fc bc3d c79c c5be fbcb cbbe 5ed7 2ebe
00000050: 5ef9 733e 4b7e d43d 1230 aabe dbf6 413e
00000060: 5856 f6be ac11 1c3d 8f33 eabe 772d 4f3e
00000070: 403e 053e 4335 c6be 05c9 223f b08e 423e
00000080: 53e1 da3e b62c 763d 3b16 7d3d e548 d7be
00000090: 9602 36be 15c7 863b bb75 4e3e 7514 563f
000000a0: 6622 bbbe 91a8 d73d ca70 f93d 04ce 44be
000000b0: 72cd 92be 790b c73d 1459 513e ed15 b73d
000000c0: 792e 18be 91e4 70be 2710 3bbe b047 2dbd
000000d0: da4a 073f 9379 493f e117 693e 4208 b33e
000000e0: 809f 62be d628 5c3e 4274 c1bd dcbf 8ebd
000000f0: cd6b dfbe 36ea 33be a6e4 78be 4406 21be
-0.17818208 0.24802575 0.012863893 0.32485726 0.07923119 0.12733458 0.2561226 0.77227646
-0.24746044 -0.28650388 0.2693488 -0.3562434 -0.31077725 0.0040355944 0.13492765 0.06327591
0.09227792 -0.38596174 -0.39804062 -0.17074344 0.23825595 0.10375651 -0.332398 0.18941824
-0.4811275 0.03810279 -0.4574246 0.20232187 0.13012028 -0.3871251 0.6358798 0.18999743
0.42750034 0.060101233 0.06178878 -0.42047802 -0.17774424 0.004113088 0.20162098 0.83624965
-0.3654968 0.10530198 0.12179716 -0.19219214 -0.28672367 0.09718985 0.20444137 0.08939729
-0.14861478 -0.23524691 -0.1826788 -0.042304695 0.5284859 0.7870113 0.22763015 0.34967238
-0.22131157 0.21499953 -0.094460025 -0.06970188 -0.43636933 -0.17569813 -0.24305972 -0.15725046

sage.layer2.fc_neigh.weight f4 [128, 64]
00000000: 452d 2e3e 4dc8 bfbc 9b06 a6bc 88ce f53d
00000010: b9cb 47bb 08fc bebb 4eb4 b63c c85f a9be
00000020: 6b78 9abc 4d49 563d 80c5 ab3d 2a7d 06be
00000030: be31 e83d 9edc 973d a149 68bc 979a 183e
00000040: 0447 f03d efda dfbd 5739 d3bd 411c eb3d
00000050: a8c6 b6bd 6539 a0bc 5d66 7cbd b809 e1bd
00000060: bac9 14be 7dc0 263e c6db 6cbc cbb0 ef3b
00000070: d58f 043d 8c6b 14bd a04f 9cbd 8e3c 083d
00000080: 305c 8c3d 1ecb 203c f0ad 85be acbe a2bd
00000090: ffcb 41be 2f93 bfbd 4fd9 003e cfcb 9ebe
000000a0: 7591 12be 89b1 253e 7098 7e3b 6ddb 16be
000000b0: 4d9c 203e 6ccd 823d c7b1 ce3d 4d20 223e
000000c0: ab57 143e 5a8a d5bc cefd 273e f9c2 fcbc
000000d0: 9558 983d 6f7b 96be fc82 f9bd 394d 24be
000000e0: 93d3 78bb b6ea c73c a0b8 4e3e 96bb b3bd
000000f0: dbd2 94bc 4cb8 c03c 6ce2 3b3e a124 663e
00000100: 209c 2e3e 26b7 cebd 0ff9 8dbd db4a 69bd
00000110: 7aa2 e9bd ce1f 15bc 1d88 51be 8443 893e
00000120: fab0 b2bd 355b 873d 2799 2fbe 36d1 8fbd
00000130: 90a6 f13d 33ae 243d 8153 3b3e bbe6 b9bc
00000140: 8cf8 dbbd 69ec 063e d6a1 eabd 5d8c 1fbe
00000150: f978 a4be 42d6 593e 10e1 88bd a6ae a43d
00000160: 1b40 e7bd 1b6a 44be b70a b4bd efa8 f8bd
00000170: cfb4 6ebe 7aae 11bd 821c 37be 883c 86bc
00000180: 41a4 aebd 83bb d5bd b071 ca3d a375 84bd
00000190: 9198 d83d 3d25 c53e 6ec8 2cbd e898 6e3e
000001a0: 46df 113e f995 7c3a 751c 21bd 7401 56be
000001b0: 75b4 eebd 32a1 543c ca12 9bbd b35d 6d3e
000001c0: 5533 4f3e daae 0dbd bf9e 6a3e de1b 1bbc
000001d0: 8f31 86be 88c4 a23e 9af8 623d 3fda 75bd
000001e0: f7f1 1f3e aba9 2fbd 5ca6 0d3f 0e07 95bd
000001f0: cf4a 5fbd ff7c 02bd e0cb 5cbd d1e6 1cbe
00000200: 701d 5abe 7650 efbd c782 a43d f78e a3bd
00000210: c73a 293e 6196 d93d d484 f93d 53ee 083e
00000220: 57f7 b2bd 1a7e 28be b2e3 dd3d 0849 a6bd
00000230: b691 77bd 9fc2 2a3d cfa0 f5bd 4211 4f3e
00000240: f316 3d3d bf5b a4ba f688 653e 22dc 8e3c
00000250: 007f e33c 472e 45be 2ded 4abd ee66 6c3e
00000260: a280 ad3d 51cd 863d d509 993d 430c ad3d
00000270: b093 033e ab9f 483d 3694 b33b 30b4 f0bc
00000280: 755c 703e 459e 473e de25 a2bd b73f 8e3d
00000290: cf93 88bd 4edd 3cbd e155 2f3e c19e 4abd
000002a0: 477d 1abe d296 0a3e e377 483e 2d8c d83d
000002b0: 62ad 343e 97fd 99bd fe3c 8e3d 9d58 3abd
000002c0: 3482 f0bd b47a 59be c303 61be 1eb3 9a3d
000002d0: 9995 debd c960 4d3e 2ac3 ea3d 2a98 8abd
000002e0: f175 86bc 8cda 72bd 49ba 60bd 0047 11bd
000002f0: fd76 163c 54a1 633d de6e 0ebe 2ce0 e93c
00000300: 7fce 11bb d70c 78bd 349e ca3c 0bae 5bbd
00000310: 57ea e13c 4e4a 3ebe ffd7 5e3d 348b 073e
00000320: 300c 6fbc 11b4 053d 0453 d13d fdc1 8b3d
00000330: bcf1 c83c d6ce 483d bc3f 6c3e eee4 44bc
00000340: f458 c53a 60d2 fabd 168d ef3d 4039 b5bd
00000350: 9c8f a03c e75a e03d 5e5f 77be d781 b73d
00000360: df9a 393d d7bb ecbd 3e51 93bd 66bb abbd
00000370: 55e3 c3bb 49d8 1a3e f644 9a3d 3a87 923b
00000380: 888a a43c 90fe 9dbd 0ec2 1fbe 4d80 3bbc
00000390: de08 55be f6d2 e7bd ea0d 7c3d ac26 203d
000003a0: 4029 26bd 5456 243d b661 003e b2a0 2e3e
000003b0: 0694 433d 42ad dcbd 48d0 aa3d 6c92 20bd
000003c0: 2f83 e0bd b5ce f23d 97c7 223d b3f0 a7bd
000003d0: d6c6 d3bd c537 a33d d9f8 99bd b0a2 86bd
000003e0: 5a14 aebd 8b19 6cbd 7a7b 7bbe 157a cabb
000003f0: fa10 9dbd c594 dc3d f6d2 393e ca62 ab3d
0.17009456 -0.02341094 -0.020266822 0.12002283 -0.0030486418 -0.0058283843 0.022302773 -0.33080888
-0.018856248 0.052316 0.083872795 -0.13133684 0.113376126 0.07415126 -0.014177711 0.14902721
0.11732295 -0.1093043 -0.10313671 0.114799984 -0.089246094 -0.019558618 -0.06162106 -0.10988182
-0.14530078 0.16284366 -0.014456695 0.0073147765 0.03236373 -0.036235377 -0.07632375 0.033260874
0.06853521 0.009814052 -0.26109266 -0.07946524 -0.18925475 -0.09354245 0.12582897 -0.3101487
-0.143133 0.16181006 0.0038848184 -0.14732142 0.15684624 0.06386837 0.10092502 0.15832634
0.14486568 -0.026066948 0.16405413 -0.030854689 0.07438771 -0.29391047 -0.121831864 -0.16045083
-0.0037967905 0.024403911 0.20187616 -0.087760136 -0.01816695 0.02352538 0.18348092 0.2247491
0.17051744 -0.100935265 -0.0693227 -0.056956153 -0.11407943 -0.009101821 -0.2046208 0.26809323
-0.08725162 0.06609193 -0.17148267 -0.07022326 0.117993474 0.04020519 0.18293573 -0.022693029
-0.10740766 0.13176121 -0.11456649 -0.15580888 -0.32123545 0.21273139 -0.06683552 0.08041124
-0.11291524 -0.19181101 -0.08791106 -0.121415965 -0.2331116 -0.035566784 -0.17881969 -0.016386285
-0.08527423 -0.10436156 0.098849654 -0.0646775 0.10575975 0.38504973 -0.042183332 0.23300517
0.14245328 0.0009635385 -0.03933378 -0.20898992 -0.11655513 0.012977885 -0.07571943 0.23180275
0.20234425 -0.03459058 0.2291212 -0.009467093 -0.26209685 0.31790566 0.055412866 -0.06002259
0.15619646 -0.042886417 0.5533197 -0.07276736 -0.054514702 -0.031857487 -0.053905368 -0.15322424
-0.21300292 -0.116852686 0.08032756 -0.07986253 0.16526328 0.106243856 0.12183538 0.13372163
-0.087385826 -0.16454354 0.10834445 -0.08119398 -0.060441695 0.04168951 -0.119935624 0.20221427
0.046164464 -0.001253955 0.22415528 0.017438952 0.02777052 -0.19255935 -0.049542595 0.2308614
0.084718004 0.0658213 0.074725784 0.08449604 0.12849307 0.048980396 0.0054803146 -0.029382795
0.2347277 0.19493969 -0.07917379 0.069457464 -0.06668817 -0.04610949 0.17122604 -0.049467806
-0.15086852 0.13534096 0.19576983 0.105736114 0.17644265 -0.075190715 0.06945227 -0.045494664
-0.11743584 -0.21238214 -0.21974091 0.07553695 -0.10868377 0.20056452 0.11463006 -0.06767304
-0.01641366 -0.059290454 -0.054865155 -0.0354681 0.009183642 0.055573776 -0.1390948 0.028549276
-0.0022248325 -0.06055912 0.02473364 -0.053632777 0.027577562 -0.18583032 0.05440521 0.13236696
-0.014590308 0.032642428 0.10220912 0.0682411 0.02452933 0.04902538 0.23071188 -0.012017472
0.0015056417 -0.12247157 0.11696832 -0.0884881 0.019599728 0.10954838 -0.24157473 0.08960312
0.045313712 -0.11559265 -0.0719323 -0.08385353 -0.005978028 0.15121569 0.075326845 0.0044716867
0.020085588 -0.077145696 -0.1560137 -0.0114441635 -0.20804164 -0.113195345 0.061536707 0.03909938
-0.040566683 0.04012139 0.12537274 0.17053488 0.047748588 -0.10775234 0.08340508 -0.03920214
-0.10962521 0.118558325 0.039741125 -0.082002066 -0.10340659 0.079696216 -0.07518167 -0.06573999
-0.084999755 -0.057641547 -0.24558821 -0.006179104 -0.07669254 0.10770563 0.18146881 0.08368452

sage.layer2.fc_self.weight f4 [128, 64]
00000000: bbd0 93bd 6410 afbd e6c1 deba 1157 11be
00000010: 79ed 22bd f50b ad3e e7c3 133e 524b 58be
00000020: 1e9e 80bd 22d3 233c d207 3c3e ab66 343e
00000030: a80d 8b3d 3f0d 9abd 6455 82be b538 2e3e
00000040: e60f 25bd 9258 6e3e 334b 1e3e 3375 1d3e
00000050: b631 08be bdcc 6a3d d658 303b a77a 39bd
00000060: 3cea cdbc ec0a a1be 09b3 eebe 3f89 26bd
00000070: 4a48 063e 141d 8e3e 4766 1e3e e827 253e
00000080: cac3 0c3e 5df5 cf3d 14a8 0ebe b590 1bbe
00000090: b5ab 1b3d e7bd 213e 4376 c43d ec6a acbd
000000a0: 348d 20bd c5f0 cabe 1a7e f03d f284 42bd
000000b0: 9f8a 44be 0cf8 cdbc ab65 f7bd 8ad8 4a3e
000000c0: 2fad 863e a14d ed3d 119d d0bd 5d20 803d
000000d0: b7de 55bd 8bd0 9bbd 3961 2e3d 1eee 72bd
000000e0: 127e 483e b6cf d43d 5517 0e3e e926 e5bc
000000f0: 9142 b0be d03e a0be dfea 48be 2a28 46be
00000100: e8bf 6e3c 8ebb 7dbd 622d a6bd c0c4 7abe
00000110: 9963 613e e231 083d 88ae 96bd 9d7a 3f3e
00000120: ac98 a1bc 7881 93bd 3a18 403e 6c63 c23d
00000130: 4daf cb3d d524 db3b ddb4 2fbd b9da 64bd
00000140: b6a5 b0bd 6df6 293d 477f 483d 106f aebd
00000150: 9dad 05be 8096 5fbd b99f 423d 0483 e3bd
00000160: 778d 5bbc 8a7a 1bbe d62b 81be 9371 c7be
00000170: 21c0 42bc 6a0b 7dbc b838 d6bd 2911 983c
00000180: 8f43 813e ae1f 9a3d 36aa 803e c38f 153e
00000190: 1964 a83d 1f78 1fbe 9d42 5ebe fd40 95be
000001a0: 7dbe 9b3d 68ca e83d 6d9f db3c dfe2 5abd
000001b0: 0c9a ed3d 2395 b73d 58dc 693e c8af 173c
000001c0: 402d dc3d 2a5b 43bd 59af 7ebe 90de a1bc
000001d0: 6dcf f23e 0638 193e ad3b 8c3d eb65 a43c
000001e0: 96d0 8fbe 21f6 c53d c873 63be 8707 553b
000001f0: 7797 12be 6d0d 3c3e ba29 103d 1a07 a03d
00000200: 41d6 5cbd 4f40 e1bd 1df1 0bbe 5fa5 44be
00000210: 8de2 14be b93a 993e 7643 033e 13c7 1b3d
00000220: 80b0 133e 1646 8fbe 40b2 ca3d 7308 0b3e
00000230: 8d6f 9fbd d0b0 d53d ed4a 27be f21a eabc
00000240: bba0 6ebe 9302 39be f9ba f7bd 695b 02be
00000250: b8ca 153d 3047 8f3e b80d 1abe e2f7 833e
00000260: b418 0dbe a2ea aebe 2873 1abe 76af 863d
00000270: fc47 13be 828c 21be eb80 9d3c 6d56 ca3d
00000280: 4932 d9bc ab7b d73d 278d db3a 7120 a63e
00000290: a018 163e c3c3 b5bc b936 abbd f764 b5bd
000002a0: e281 6bbd 31d5 ad3d 7fc4 653e 371d 29bc
000002b0: 0818 6abd 0d5a 063d 42b8 cbbd 3db3 c33d
000002c0: 154d 70be 6281 ebbd 06b2 31be 7653 f23c
000002d0: cab2 133e ae2f 42bd 4bc5 aabd 83e5 203e
000002e0: d08d 763d fd16 3b3e 19a3 16be a345 113e
000002f0: 8945 13be 367b 863e 66b5 6dbd 27f8 17be
00000300: 22c5 90be ea59 143e 92fd 863e 7295 3a3e
00000310: 03d7 fb3d 5165 22be 7c9e 1b3e 34e6 36be
00000320: b742 38be 9f8c 1bbc 1623 463b d9e6 613e
00000330: 7112 babb e9b3 e1bc 6f84 5b3d f409 bd3c
00000340: 8ce3 2c3e e4ef ba3d d883 cdbb d598 2d3b
00000350: 8ae7 b2bc 32b8 20be b7b7 1e3d c84a 45be
00000360: 48ce d43d 992e 27be 7993 153d 8d96 3d3e
00000370: e850 823e 5301 f23d 4591 2d3e 4b5e febb
00000380: abb7 0a3d 65c7 7dbe 507e 893d 417e 4bbe
00000390: b827 363e 42e3 a23d 4a7a 163c 0248 65bd
000003a0: c629 9f3c e01f 14be 1b2c 9fbc 7985 2b3e
000003b0: d6ce f5bd 256c 143c 506a b2bd e129 ab3b
000003c0: 5d20 80be e24c 68bd ad94 1b3d 2fc8 babd
000003d0: 9d02 5dbd 893f b4ba d12b 133e 20bf 2ebd
000003e0: 8eb1 45bc 7727 1ebd 9fdb 60be 7e59 08be
000003f0: ed5e d03d 45da 78bd b97c 693d afef f0bd
-0.072175466 -0.08548048 -0.0016995042 -0.1419337 -0.039777253 0.33798185 0.144302 -0.21122482
-0.062801585 0.009999068 0.18362358 0.1761729 0.06789714 -0.07522058 -0.25455773 0.1701382
-0.040298365 0.23275974 0.15458374 0.15376739 -0.13300213 0.05732416 0.002690842 -0.045282986
-0.025136106 -0.31453645 -0.46620968 -0.04065823 0.13113514 0.2775656 0.15468703 0.16128504
0.13746563 0.10154221 -0.13931304 -0.1519192 0.03800555 0.15795098 0.09592869 -0.08418831
-0.03919716 -0.39636818 0.11742802 -0.047490068 -0.19193505 -0.025142692 -0.120799385 0.19809166
0.26304004 0.11587072 -0.10186208 0.06256173 -0.05221435 -0.07608136 0.042573188 -0.059309117
0.19579342 0.1039118 0.13876088 -0.027972655 -0.34425786 -0.31297922 -0.19620846 -0.19351259
0.014572121 -0.061946444 -0.08114125 -0.24489117 0.2201065 0.033250697 -0.07357508 0.18699117
-0.01972612 -0.072024286 0.18759242 0.094916195 0.09945545 0.0066877403 -0.042897094 -0.055872653
-0.08625357 0.041494776 0.048949506 -0.08517277 -0.1305451 -0.054586887 0.047515605 -0.111089736
-0.013400427 -0.15183464 -0.25228757 -0.38953838 -0.011886627 -0.015444616 -0.10460037 0.01856287
0.25246856 0.07525574 0.2512986 0.14605622 0.08222217 -0.15573166 -0.21705098 -0.29151145
0.07604692 0.11366731 0.026809419 -0.053439017 0.11601648 0.089639924 0.2283796 0.009258218
0.10750818 -0.047694363 -0.24871577 -0.019759446 0.47423878 0.14962777 0.0684732 0.02006813
-0.28088826 0.09666086 -0.22212136 0.0032505707 -0.14315592 0.18364497 0.035196044 0.078138545
-0.053915266 -0.10998594 -0.13666196 -0.19203709 -0.14539547 0.29927614 0.12818703 0.03803165
0.14422798 -0.2798316 0.0989728 0.13577442 -0.077849485 0.10434115 -0.16337176 -0.028577302
-0.23303501 -0.18067388 -0.12096209 -0.12730183 0.03657028 0.27984 -0.15044296 0.25775057
-0.13778955 -0.34163386 -0.15082991 0.06576435 -0.14382929 -0.15776256 0.019226512 0.09879766
-0.026513236 0.10521635 0.0016750441 0.32446626 0.14657831 -0.022188073 -0.08360047 -0.08857148
-0.057496913 0.08487929 0.22438239 -0.010321907 -0.057151824 0.032800723 -0.09947254 0.09555671
-0.23466904 -0.11499287 -0.17353067 0.029580813 0.14423671 -0.047408752 -0.08338412 0.15712552
0.060193837 0.18270488 -0.14710654 0.1418672 -0.14381994 0.26265877 -0.058034323 -0.14840756
-0.282754 0.14487424 0.26365334 0.18221071 0.122968696 -0.15858962 0.15197176 -0.17861253
-0.179942 -0.009493976 0.0030233315 0.22060718 -0.005678468 -0.027551608 0.053593095 0.023076035
0.16883677 0.09127787 -0.0062718205 0.00264888 -0.021838922 -0.15695265 0.038749423 -0.19266808
0.103909075 -0.1632637 0.036517594 0.18514462 0.25452352 0.11816659 0.16949947 -0.0077627054
0.033866566 -0.24783094 0.06713545 -0.19872381 0.17788589 0.07953502 0.009184429 -0.055976875
0.019429099 -0.14465284 -0.01943021 0.16750135 -0.120023414 0.009058987 -0.08711684 0.005223498
-0.2502469 -0.056713946 0.037983585 -0.09120213 -0.05395757 -0.0013751845 0.14372183 -0.04266274
-0.012066258 -0.038611855 -0.21958779 -0.13315389 0.10174356 -0.060755033 0.05700371 -0.11764466

sage.layer2.fc_self.bias f4 [128]
00000000: d845 533e 2491 6ebe c8e1 d23d 343d 43bc
00000010: e514 593e ac1b 94bc 6b99 1cbd 9fbd 44bd
00000020: 4abe cbbe af72 09be c282 29be 2a52 a53e
00000030: d4e1 c8be a46f d3bd e3af f6bd 84b6 a33e
00000040: 73bb 403e 163a 5cbe d053 cb3d cc4f 343e
00000050: ce5c ea3e b4e3 933d ada2 783e cc4a 9f3d
00000060: 4785 003f 4e04 ca3d 1664 833d df6d c0be
00000070: b05e bdbe 804e bcbd 17cb c2be 2fe8 963e
00000080: 1599 1bbe 0f18 d0be 5a73 133e bbde 6dbe
00000090: 95f8 21bd ffad d53e eba2 c0bd 2d0a 0e3f
000000a0: 547d da3d c965 493d e86e 5f3e 13a6 843e
000000b0: 1fbd 593d 7462 2f3e 3655 14be a36f 9b3e
000000c0: b3f7 843e 4a4a d0bd 1b79 a43d b654 813e
000000d0: 9c51 3cbe 3815 da3c 48e2 99be 7b56 23bd
000000e0: f4fa 943d 5032 163d 651e bebe 331d 14be
000000f0: bc18 343d 26a8 533e 84ab d8bd 6622 d2bc
00000100: c34b 623e fcee acbe dcdd 8a3e 3697 f9bd
00000110: 467b c03e a8aa 7abd 4588 80be 544e 76bd
00000120: 6573 b3bd d6e2 2e3e 083a 6fbe b3aa 9c3e
00000130: b285 fdbd 77cd 1e3e fbd6 1e3e 86fd 553e
00000140: 810d 0c3d 61cf f6bd 8266 8bbd 4393 273e
00000150: cb73 16be b62a 003e e42c 85bd 8b6f b3be
00000160: bb01 5abc f186 043e 66ec 35be 5350 cc3c
00000170: 1e07 333e b033 8a3b c871 96be bd3d 1e3e
00000180: 8e8f 33be 34ea c6be 31c2 943c 562b e9bd
00000190: 9df2 b83e 48f1 4a3d a446 71bd 3635 9bbd
000001a0: 59ff 343e da89 afbd 7770 543e 849a 2b3d
000001b0: 94d5 193d 270e aa3d 8a78 b93d 2515 ffbd
000001c0: 94b8 c43d ae80 c23e eb35 3ebd 62af 823d
000001d0: 4674 20be 8509 813e 2f15 7ebe e885 a9be
000001e0: c17b e93e 787e c7bd bf20 d13e 9d9d 023d
000001f0: 0c15 303e 6532 e8bd b4bb 3f3e 06ef 493e
0.20632112 -0.23297554 0.102969706 -0.011916447 0.21199377 -0.018079601 -0.03823225 -0.0480324
-0.39793617 -0.13422655 -0.16553786 0.3228925 -0.39234793 -0.10324028 -0.120452665 0.31975186
0.18821506 -0.21506533 0.09928095 0.17608565 0.4577393 0.07221165 0.24280806 0.07777938
0.50203365 0.09864102 0.06415574 -0.37583825 -0.36986303 -0.0919466 -0.3804557 0.29474017
-0.15195115 -0.40643355 0.14399472 -0.23229496 -0.039543707 0.4173431 -0.09406074 0.55484277
0.10668436 0.049169336 0.21819651 0.25907955 0.053158876 0.171274 -0.1448563 0.3035861
0.2597023 -0.101704195 0.080309115 0.25259942 -0.18390507 0.026621446 -0.3005545 -0.039877396
0.07274428 0.036669075 -0.37132564 -0.14464264 0.0439689 0.20669612 -0.10579589 -0.025651168
0.22099213 -0.3377608 0.2712239 -0.12187044 0.3759405 -0.061197907 -0.25103965 -0.060133293
-0.08762244 0.17078719 -0.23361981 0.30598983 -0.12379016 0.15508066 0.15511696 0.20897493
0.034192566 -0.12051273 -0.06806661 0.1636477 -0.14692609 0.12516293 -0.06502703 -0.35046038
-0.013306077 0.12942101 -0.1776596 0.024940645 0.17483184 0.0042175874 -0.29383683 0.15453239
-0.1753523 -0.38850558 0.018159004 -0.11385219 0.361226 0.04954651 -0.05890526 -0.075785086
0.17675532 -0.08571215 0.20746027 0.041895404 0.0375572 0.083034806 0.09056194 -0.12455205
0.09605518 0.379888 -0.04643814 0.06381108 -0.15669355 0.25202575 -0.24812768 -0.33109975
0.4560223 -0.09740919 0.40845296 0.031888593 0.17195529 -0.11337737 0.18723947 0.19720086
