Audit-log_Analysis/code/GNN/training/checkpoint_graphSAGE/best_model_GraphSAGE_secureBERT_250.pt (torch, 637441 bytes, 12 tensors)

sage.layer1.fc_pool.weight f4 [250, 250]
0.068310566 0.010343754 -0.06341641 -0.058510955 -0.060603593 -0.0073666424 -0.11511881 -0.08046141
-0.09045246 -0.1106058 -0.0439876 -0.026942067 0.024331823 -0.037556734 -0.062512144 -0.08604179
-0.14147507 -0.0072942255 -0.053967975 -0.0714372 -0.013793909 -0.02044388 0.0036403437 -0.06296865
0.059839576 0.035625327 -0.040183358 0.04350776 -0.046900988 -0.04077318 0.013715963 0.11749166
0.009307255 -0.08338762 0.019911544 -0.010684937 -0.0017659729 -0.10428856 -0.049154997 -0.12577942
0.11920235 -0.07587763 -0.036050968 0.0280483 0.011861717 -0.14917393 0.0108612245 0.07003647
-0.055137552 0.037817303 0.07411606 0.047919214 0.050054237 -0.055997934 0.086808674 0.039981756
-0.032804742 -0.028105736 -0.04255993 -0.034091745 0.034337964 0.06804442 0.024433488 -0.028338838
0.056054916 -0.1773225 -0.021788035 0.017017568 0.1115939 0.03200035 -0.052657615 0.08306296
0.012426605 -0.052964088 -0.01084633 0.029357629 -0.1059229 0.057661433 -0.0199068 0.12774831
0.15555161 0.114599444 0.18185997 0.16683233 -0.10896175 -0.0893753 0.10653113 0.09164159
0.029313602 -0.19031793 0.1971587 0.09577957 0.050217733 -0.0066768057 -0.04870456 -0.08965453
0.040298928 0.0748052 0.050711654 -0.023691276 -0.035662748 -0.1316356 -0.023054201 -0.027152885
0.025572246 -0.12941901 0.04279985 -0.012962321 0.20143884 0.06254107 -0.026080372 -0.028232465
0.21289574 0.08129303 0.06459022 -0.007313315 0.07736848 0.103167795 -0.06272057 -0.12443706
0.0047223927 0.048598398 0.029638736 -0.085295625 0.045627035 -0.0082647 -0.03433903 0.020043306
-0.035040233 -0.009235483 0.041218717 0.04956821 -0.04270163 0.085105605 0.16787328 0.14829129
0.06342891 0.15435009 0.12884296 0.011001549 -0.18173698 0.04609428 -0.07482531 -0.12513413
0.015376109 0.052935027 -0.06759365 0.049215004 0.047571115 -0.17438471 -0.086053595 -0.046030477
-0.11330128 -0.091679394 -0.03494986 0.11277912 -0.0016316621 0.037844595 -0.18577173 -0.057998575
0.01696211 0.059811395 -0.09389779 -0.0793017 0.029532542 -0.07356801 0.09966397 0.058987156
-0.025254307 -0.010039284 0.0579306 -0.098398104 0.014474915 -0.054790888 -0.024174025 -0.019168856
-0.025686746 -0.1593857 0.13024974 0.080434546 -0.11214789 -0.05155292 0.19773416 0.23231626
0.055389434 -0.09738847 0.0622492 -0.067419074 0.13337532 -0.02312832 0.12571943 0.13538638
0.035916127 -0.037879333 -0.017655246 0.0014642476 -0.1172792 -0.21108307 0.030226108 0.058456976
-0.03986284 -0.0063630277 0.05838698 -0.12635428 -0.03439985 -0.04845378 -0.055049032 0.09994312
0.09014116 0.11816173 -0.0237688 -0.07533142 0.025940506 0.032179337 0.15852493 -0.0029743204
-0.088638805 -0.029223269 -0.021782039 0.064895086 0.011656776 -0.021785136 0.028399505 0.100680195
-0.09838993 -0.023598276 -0.101227954 -0.037816312 0.08200127 -0.028800849 -0.058566034 0.05240129
0.06158668 -0.082217045 0.06012781 -0.031736627 -0.108821996 0.0077583166 0.2180407 0.048791647
-0.0636971 0.16275932 -0.06246184 -0.1262809 0.057550307 0.07982338 -0.10348247 -0.053641133
0.17134777 -0.054254893 0.039665278 0.010440151 -0.000434261 0.069520295 0.013597064 0.024005273
00000000: 69e6 8b3d d978 293c 76e0 81bd 2fa9 6fbd
00000010: 793b 78bd e063 f1bb 69c3 ebbd f4c8 a4bd
00000020: 243f b9bd 4b85 e2bd 572c 34bd 9cb5 dcbc
00000030: 8853 c73c 17d5 19bd 5e06 80bd ae36 b0bd
00000040: d7de 10be 6604 efbb 860d 5dbd ab4d 92bd
00000050: d9ff 61bc ed79 a7bc d592 6e3b b5f5 80bd
00000060: 581a 753d ddeb 113d 4e97 24bd 3135 323d
00000070: 401b 40bd c701 27bd ebb8 603c 789f f03d
00000080: 757d 183c 21c7 aabd 891d a33c e00f 2fbc
00000090: 3878 e7ba 3e95 d5bd c056 49bd 52cc 00be
000000a0: 5d20 f43d bb65 9bbd 2eaa 13bd 8cc5 e53c
000000b0: a657 423c 0dc1 18be 47f3 313c 486f 8f3d
000000c0: ead7 61bd 51e6 1a3d 29ca 973d f046 443d
000000d0: ac05 4d3d 175e 65bd bfc8 b13d e9c3 233d
000000e0: 445e 06bd 003e e6bc 5253 2ebd c9a3 0bbd
000000f0: f7a5 0c3d df5a 8b3d bd28 c83c da26 e8bc
00000100: d799 653d 0894 35be d27c b2bc 6d68 8b3c
00000110: 588b e43d cd12 033d 83af 57bd ea1c aa3d
00000120: f698 4b3c dff0 58bd ceb4 31bc 697f f03c
00000130: 1bee d8bd 652e 6c3d 9613 a3bc 74d0 023e
00000140: ec48 1f3e 1db3 ea3d 8039 3a3e 18d6 2a3e
00000150: 5727 dfbd 660a b7bd fe2c da3d 96ae bb3d
00000160: 1423 f03c b4e2 42be f8e3 493e 1428 c43d
00000170: 1cb1 4d3d 1bc9 dabb 6f7e 47bd cb9c b7bd
00000180: 7d10 253d 7833 993d 06b7 4f3d 3514 c2bc
00000190: 1a13 12bd 7ccb 06be 2adc bcbc ba6f debc
000001a0: e37c d13c 6b86 04be e54e 2f3d ea5f 54bc
000001b0: fc45 4e3e 8815 803d 81a6 d5bc c547 e7bc
000001c0: 5701 5a3e f67c a63d e147 843d 88a4 efbb
000001d0: 5e73 9e3d a349 d33d a473 80bd dbd8 febd
000001e0: 4dbe 9a3b 1d0f 473d efcc f23c 79af aebd
000001f0: 6ae3 3a3d aa68 07bc 15a7 0cbd dc31 a43c
00000200: 5986 0fbd 6c50 17bc f5d4 283d 0908 4b3d
00000210: e8e7 2ebd d94b ae3d f9e6 2b3e acd9 173e
00000220: 04e7 813d f30d 1e3e 69ef 033e d73f 343c
00000230: 4219 3abe 5bcd 3c3d 033e 99bd 2923 00be
00000240: 13ec 7b3c 66d2 583d 8a6e 8abd ac95 493d
00000250: eed9 423d e891 32be de3c b0bd 748a 3cbd
00000260: 800a e8bd 68c2 bbbd 9627 0fbd bdf8 e63d
00000270: 7fdd d5ba ef02 1b3d f23a 3ebe ea8f 6dbd
00000280: 1ff4 8a3c cbfc 743d 7c4d c0bd ee68 a2bd
00000290: 3bee f13c d3aa 96bd a01c cc3d 849c 713d
000002a0: 1fe2 cebc cf7b 24bc a348 6d3d f284 c9bd
000002b0: 3228 6d3c 696c 60bd 9b08 c6bc 0108 9dbc
000002c0: 036d d2bc 0136 23be 3060 053e deba a43d
000002d0: cbad e5bd 2829 53bd d37a 4a3e 50e4 6d3e
000002e0: 08e0 623d 9b73 c7bd 04f9 7e3d 0313 8abd
000002f0: 8a93 083e 9a77 bdbc 98bc 003e baa2 0a3e
00000300: ca1c 133d 5c27 1bbd bca1 90bc ffeb bf3a
00000310: 1430 f0bd 2926 58be be9c f73c 9570 6f3d
00000320: 3847 23bd f280 d0bb 3027 6f3d 0463 01be
00000330: dbe6 0cbd 7977 46bd 187b 61bd faae cc3d
00000340: ee9b b83d c7fe f13d c9b6 c2bc 5c47 9abd
00000350: 2f81 d43c 7bce 033d 5c54 223e d1ec 42bb
00000360: 4388 b5bd a365 efbc 3f70 b2bc b7e7 843d
00000370: 10fc 3e3c be76 b2bc 14a6 e83c 6b31 ce3d
00000380: a980 c9bd 2c51 c1bc 9a50 cfbd 47e5 1abd
00000390: 48f0 a73d c2ef ebbc f0e2 6fbd bca2 563d
000003a0: 5142 7c3d 6961 a8bd 9448 763d 44fe 01bd
000003b0: 11de debd 7a39 fe3b 1046 5f3e c0d9 473d
000003c0: a073 82bd 61aa 263e fdd7 7fbd c84f 01be
000003d0: dfb9 6b3d 717a a33d 9eee d3bd ceb6 5bbd
000003e0: ca75 2f3e 613a 5ebd 0f78 223d 2b0d 2b3c
000003f0: 86ad e3b9 a860 8e3d 38c6 5e3c b5a6 c43c

sage.layer1.fc_pool.bias f4 [250]
-0.45660987 -0.10424144 -0.4188399 -0.26535675 -0.17582099 -0.3366913 -0.34123528 -0.08490207
-0.20297642 -0.24569263 -0.22984143 -0.27610663 -0.247852 -0.3021872 -0.43384507 -0.2837384
-0.31818467 -0.38776186 -0.3754297 -0.16749851 -0.50245076 -0.29181978 -0.265425 -0.34273455
-0.3405393 -0.29640046 -0.34605747 -0.3704984 -0.3296527 -0.3525487 -0.2763141 -0.145121
-0.2492285 -0.41394708 -0.4236457 -0.27176043 -0.3149278 -0.42429042 -0.21330422 -0.38361844
-0.2899872 -0.34959593 -0.23869687 -0.32384595 -0.2732842 -0.117999636 -0.24637243 -0.39354518
-0.21955186 -0.36227185 0.11806633 -0.38478184 -0.33667654 -0.38855425 -0.23958954 -0.40235877
-0.36844382 -0.3730542 -0.24165115 -0.2598657 -0.45639986 -0.36806774 -0.32615125 -0.34364507
-0.39404967 -0.4122807 -0.3065195 -0.4062667 -0.38891268 -0.32080218 -0.34008914 -0.38993976
-0.36165187 -0.392811 -0.4471768 -0.31645054 -0.30506384 -0.37939623 -0.35740197 -0.3884716
-0.35783663 -0.27606222 -0.45149487 -0.40073648 -0.34277678 -0.35294655 -0.08772605 -0.3627501
-0.2394046 -0.3606443 -0.13815588 -0.31871423 -0.086950056 -0.23294938 -0.33380464 -0.30506727
-0.059277076 -0.35959655 -0.30922285 -0.38765135 -0.3440147 -0.2893229 -0.43756604 -0.2849716
-0.39848685 -0.23049301 -0.32463092 -0.22359814 -0.31264475 -0.36263335 -0.34708822 -0.1384637
0.043540575 -0.11159489 -0.14749461 -0.18532908 -0.2864623 -0.31493473 -0.43549395 -0.3551973
0.39788446 -0.28343534 -0.28508878 -0.21371786 -0.38538533 -0.31054708 -0.41076985 -0.270405
-0.2753416 -0.26873052 -0.4267944 -0.39412716 -0.31226307 -0.2771853 -0.2316313 -0.24070798
-0.28403765 -0.25878522 -0.29201692 -0.292535 -0.4116306 -0.343195 -0.3043876 -0.32494488
-0.4442167 -0.3314786 -0.38420418 -0.29898226 -0.3813057 -0.37606874 -0.42359537 -0.22837023
-0.38032582 -0.38099635 -0.2886637 -0.30984524 -0.33874512 -0.34804246 -0.2763871 -0.33536908
-0.43012166 -0.2961315 -0.4324755 -0.34224662 -0.35761833 -0.4064831 -0.22694257 0.109475344
-0.2299776 -0.34500825 -0.34902367 -0.4369479 -0.26037636 -0.27605286 -0.35071963 -0.4108875
-0.3262373 -0.3066236 -0.3034641 -0.19252121 0.121398725 -0.280775 -0.24974132 -0.33290935
-0.41858414 -0.3111673 -0.28597102 -0.22446677 -0.4461127 -0.13678832 -0.31693462 -0.30159932
-0.46656454 -0.022516819 -0.39387575 -0.32200304 -0.22293043 -0.08767283 -0.41585088 -0.4096757
-0.22835305 -0.29089794 -0.3991586 -0.31709898 -0.4396253 -0.10077628 -0.42169014 -0.2816909
-0.3138648 -0.34184992 -0.3691521 -0.36239222 -0.37462142 -0.23466176 -0.46160743 -0.28352764
-0.33828717 -0.27855647 -0.23564333 -0.4331786 -0.23297891 -0.22059938 -0.40784082 -0.3742968
-0.345342 -0.29249334 -0.2916756 -0.14702012 -0.4142837 -0.35494736 -0.27413723 -0.3423354
-0.36994237 -0.35953736 -0.23080033 -0.14669073 -0.3841194 -0.42623618 -0.27634272 -0.19373256
-0.32965726 -0.27592072 -0.48986903 -0.17433617 -0.38416782 -0.3012539 -0.40529823 -0.374604
-0.37846467 -0.39149955
00000000: c5c8 e9be 897c d5bd 2f72 d6be d7dc 87be
00000010: 6b0a 34be cd62 acbe 64b6 aebe 23e1 adbd
00000020: 0dd9 4fbe d996 7bbe 8d5b 6bbe d95d 8dbe
00000030: eacc 7dbe 48b8 9abe f120 debe 2946 91be
00000040: 1ae9 a2be b988 c6be 5238 c0be bb84 2bbe
00000050: 9da0 00bf 6769 95be c9e5 87be e77a afbe
00000060: 2b5b aebe cdc1 97be 722e b1be f7b1 bdbe
00000070: 3dc8 a8be 4381 b4be 0b79 8dbe 999a 14be
00000080: c235 7fbe dff0 d3be 17e8 d8be 2f24 8bbe
00000090: 373e a1be 983c d9be 6c6c 5abe a369 c4be
000000a0: 3479 94be 3dfe b2be f46c 74be 23cf a5be
000000b0: e8eb 8bbe cba9 f1bd 0e49 7cbe c17e c9be
000000c0: 34d2 60be b27b b9be c3cc f13d 2002 c5be
000000d0: de60 acbe 95f0 c6be f656 75be f801 cebe
000000e0: aba4 bcbe f600 bfbe 6673 77be 1e0d 85be
000000f0: 3ead e9be 6073 bcbe 4cfd a6be 3ff2 afbe
00000100: e1c0 c9be 7516 d3be 20f0 9cbe 3002 d0be
00000110: 901f c7be 2f40 a4be 2a20 aebe 2fa6 c7be
00000120: 6f2a b9be 861e c9be 5cf4 e4be ce05 a2be
00000130: 5431 9cbe 3940 c2be 64fd b6be c0e5 c6be
00000140: 5d36 b7be 0758 8dbe 562a e7be 552d cdbe
00000150: 7080 afbe 69b5 b4be b7a9 b3bd 62ba b9be
00000160: 7b26 75be 5fa6 b8be bc78 0dbe 832e a3be
00000170: df12 b2bd 488a 6ebe 71e8 aabe c731 9cbe
00000180: 85cc 72bd 0a1d b8be 7552 9ebe 3d7a c6be
00000190: b222 b0be 2222 94be a808 e0be cce7 91be
000001a0: 7806 ccbe 5c06 6cbe 0636 a6be e9f6 64be
000001b0: f912 a0be 14ab b9be 8cb5 b1be 6ec9 0dbe
000001c0: 9a57 323d dd8b e4bd d408 17be e8c6 3dbe
000001d0: 30ab 92be 203f a1be 10f9 debe 6cdc b5be
000001e0: 83b7 cb3e 701e 91be 28f7 91be dbd8 5abe
000001f0: 3a51 c5be 0700 9fbe 6d50 d2be 8672 8abe
00000200: 93f9 8cbe 0c97 89be cc84 dabe 09cb c9be
00000210: f2e0 9fbe 3beb 8dbe c130 6dbe 277c 76be
00000220: 626d 91be 7f7f 84be 3e83 95be 26c7 95be
00000230: 3fc1 d2be 41b7 afbe b1d8 9bbe 2d5f a6be
00000240: 5f70 e3be 90b7 a9be 69b6 c4be 3414 99be
00000250: 803a c3be 158c c0be 7ee1 d8be e3d9 69be
00000260: 11ba c2be f411 c3be bacb 93be 09a4 9ebe
00000270: 0070 adbe 9f32 b2be 9c82 8dbe 7fb5 abbe
00000280: e838 dcbe 8c9e 97be 6e6d ddbe f33a afbe
00000290: c019 b7be 8e1e d0be a263 68be 9c34 e03d
000002a0: 3f7f 6bbe eca4 b0be 3bb3 b2be a3b7 dfbe
000002b0: 0d50 85be cd56 8dbe 8691 b3be d95f d2be
000002c0: 9308 a7be c5fd 9cbe a65f 9bbe 4824 45be
000002d0: e59f f83d bec1 8fbe 30bc 7fbe 1873 aabe
000002e0: a950 d6be 5251 9fbe cb6a 92be 9eda 65be
000002f0: e268 e4be 3d12 0cbe 4145 a2be 3a6b 9abe
00000300: 8ce1 eebe 3175 b8bc 15aa c9be 95dd a4be
00000310: e047 64be d08d b3bd 68ea d4be 03c1 d1be
00000320: 62d5 69be 93f0 94be 845e ccbe cc5a a2be
00000330: 9116 e1be cb63 cebd c5e7 d7be ca39 90be
00000340: e3b2 a0be f406 afbe 8101 bdbe 798b b9be
00000350: 61ce bfbe 2c4b 70be cf57 ecbe 892a 91be
00000360: fa33 adbe f49e 8ebe 7c4c 71be 96c9 ddbe
00000370: 0692 6ebe cee4 61be 83d0 d0be d5a3 bfbe
00000380: abd0 b0be b0c1 95be 8156 95be 718c 16be
00000390: fe1c d4be a9bb b5be b75b 8cbe 9646 afbe
000003a0: 1669 bdbe 4815 b8be ec56 6cbe 1836 16be
000003b0: 4cab c4be a13b dabe cb7c 8dbe d461 46be
000003c0: d6c8 a8be 7b45 8dbe 1dd0 fabe 2e85 32be
000003d0: a5b1 c4be f43d 9abe 4083 cfbe 18cc bfbe
000003e0: 1fc6 c1be a172 c8be

sage.layer1.fc_neigh.weight f4 [64, 250]
-0.012741753 0.03639027 -0.09107154 -0.03556927 -0.052380588 0.01870357 -0.057516385 -0.10620507
-0.05821241 -0.0076699336 0.0036121106 0.09992147 -0.06580679 -0.07189897 -0.06546898 0.066094056
-0.11677326 -0.014508904 -0.0026717687 -0.09605247 0.011526869 0.018586721 0.00034542 0.047806565
-0.057809476 -0.026833009 0.12599526 0.00058999023 -0.02119186 0.11515567 0.12850584 -0.06102515
-0.045396134 -0.07232336 -0.06021265 -0.047610752 -0.040725533 0.05880582 -0.0019561872 0.11383087
-0.13059162 -0.10818733 -0.061150715 -0.070428945 -0.007909919 -0.054867312 -0.0825255 -0.13258533
-0.052653242 -0.0056519266 -0.21392483 -0.062892824 -0.07711633 -0.10466937 -0.104971305 -0.03075526
-0.008495929 0.084125616 -0.028495822 -0.07498541 0.016095014 -0.03084771 -0.016222717 0.053585712
0.050329678 -0.022057964 -0.081238374 -0.08280253 0.14734995 -0.10303266 -0.07589036 0.15378198
-0.06700043 0.09770562 0.007854573 0.107351094 -0.04887542 0.028334765 -0.019731168 -0.06857441
-0.014383809 -0.11692439 -0.05587977 0.0016625297 -0.0030678494 0.046519272 -0.09378943 -0.048509944
0.012179821 0.12298884 -0.08290531 0.010968322 -0.056359828 0.022164043 -0.060509052 -0.11551121
-0.13581528 0.06515621 -0.04334885 -0.057254754 0.14512269 0.027205257 0.049070384 0.054710224
-0.120806605 -0.053597964 0.06251009 -0.115334794 -0.0031129778 0.013159146 -0.09882702 -0.10538974
-0.18811336 -0.061452646 0.02528649 -0.12107125 0.12633538 -0.10893513 0.05882924 0.09598302
-0.1853492 -0.041515578 0.01736467 -0.023914255 -0.06173082 -0.027893161 0.024674429 0.0064105457
-0.08517425 -0.013788529 0.008233834 0.08655411 -0.03425966 -0.051188327 -0.009617345 -0.06931886
-0.010640835 -0.0591879 -0.049997117 0.013747434 -0.039733246 -4.641035e-05 -0.06379865 0.21867079
0.010995483 0.06460021 -0.023901438 0.087445654 -0.13245626 -0.027107758 0.01860242 -0.021523451
0.19018584 0.120124824 -0.100657195 -0.11604197 -0.043678947 -0.13364111 -0.08795793 0.042351943
0.04073886 -0.07588467 0.012129323 -0.035930563 0.01698519 0.06804817 -0.08783927 -0.16506532
0.00090422045 -0.10975288 -0.020018717 0.097221576 0.29359397 0.12779607 0.0037544153 0.059050057
0.023078281 0.01720796 -0.067768306 0.0019187408 -0.12397118 -0.076225966 0.046415046 -0.13782522
0.13358153 -0.007969257 -0.0060548936 -0.021968544 -0.018706108 -0.02204532 0.11377092 -0.0591352
-0.03827967 -0.068674386 0.10463395 -0.08590075 -0.088424064 -0.13377503 -0.0027762167 -0.094142824
-0.040388457 -0.042813856 -0.019200675 -0.14988086 -0.054369375 -0.07218663 -0.012348994 -0.08718668
-0.06803013 -0.016597932 0.15887797 0.20862071 0.007006509 -0.07201822 -0.00038177968 -0.13373098
-0.05428393 -0.059526246 -0.1466051 0.052810572 0.049926568 0.01836129 0.009087269 -0.014413488
-0.11104851 -0.15161914 0.038329463 -0.121988155 -0.041303836 -0.020719001 -0.0062300544 -0.1702773
0.080161385 0.15824911 -0.114890635 -0.02807107 0.035392575 -0.10395599 -0.169589 -0.009151271
-0.051426787 -0.09095903 0.016495237 -0.14309762 -0.020165285 0.08990317 -0.10900987 0.042817093
-0.033725034 -0.06582645 -0.093174286 0.044007 -0.112295784 0.04349131 -0.022349153 -0.042115074
00000000: c9c2 50bc f70d 153d b783 babd 15b1 11bd
00000010: 078d 56bd 3b38 993c 4d96 6bbd 0b82 d9bd
00000020: 2370 6ebd 1154 fbbb 29b9 6c3b a1a3 cc3d
00000030: b6c5 86bd c43f 93bd 9a14 86bd 525c 873d
00000040: d226 efbd c1b6 6dbc d718 2fbb 28b7 c4bd
00000050: 31db 3c3c 2e43 983c 7d19 b539 d1d0 433d
00000060: a1c9 6cbd e6d0 dbbc e704 013e 93a9 1a3a
00000070: 8d9a adbc bcd6 eb3d 0997 033e 82f5 79bd
00000080: 4cf1 39bd 451e 94bd 8aa1 76bd 7e03 43bd
00000090: d1cf 26bd 5fde 703d 6033 00bb 2920 e93d
000000a0: cfb9 05be 5291 ddbd 2c79 7abd 0d3d 90bd
000000b0: 9b98 01bc 8cbc 60bd 2103 a9bd 73c4 07be
000000c0: edaa 57bd cc33 b9bb 1c0f 5bbe f4cd 80bd
000000d0: 2bef 9dbd e55c d6bd 32fb d6bd 74f2 fbbc
000000e0: 8232 0bbc 0d4a ac3d 1270 e9bc f391 99bd
000000f0: b1d9 833c 56b4 fcbc 81e5 84bc b17c 5b3d
00000100: 7e26 4e3d e7b2 b4bc 4e60 a6bd 5f94 a9bd
00000110: e8e2 163e ca02 d3bd 686c 9bbd 0679 1d3e
00000120: 8537 89bd e219 c83d 78b0 003c e4da db3d
00000130: 9831 48bd 4f1e e83c 42a3 a1bc be70 8cbd
00000140: 11aa 6bbc 0e76 efbd 30e2 64bd 3de9 d93a
00000150: f90d 49bb fe8a 3e3d ac14 c0bd 5db2 46bd
00000160: df8d 473c 93e1 fb3d 42ca a9bd 7ab4 333c
00000170: 90d9 66bd 5e91 b53c 57d8 77bd 2491 ecbd
00000180: 2913 0bbe 9e70 853d 908e 31bd f683 6abd
00000190: 0b9b 143e 8fdd de3c 07fe 483d d417 603d
000001a0: 7469 f7bd 8a89 5bbd 4a05 803d a634 ecbd
000001b0: 1a03 4cbb 7599 573c d265 cabd 93d6 d7bd
000001c0: caa0 40be c5b5 7bbd 9d25 cf3c 34f4 f7bd
000001d0: 105e 013e 6219 dfbd eef6 703d bf92 c43d
000001e0: 2ecc 3dbe 3d0c 2abd 5a40 8e3c d4e7 c3bc
000001f0: 75d9 7cbd 3380 e4bc 0722 ca3c 8e0f d23b
00000200: d66f aebd 48e9 61bc 34e7 063c 4843 b13d
00000210: db53 0cbd daaa 51bd 1292 1dbc 0cf7 8dbd
00000220: e656 2ebc 036f 72bd c7c9 4cbd eb3c 613c
00000230: 54bf 22bd bca8 42b8 dea8 82bd 3ceb 5f3e
00000240: 6626 343c 1d4d 843d f3cc c3bc b516 b33d
00000250: 9da2 07be 1711 debc 1a64 983c f351 b0bc
00000260: 14c0 423e 0104 f63d 5c25 cebd 6aa7 edbd
00000270: b2e8 32bd 37d9 08be 4a23 b4bd 3b79 2d3d
00000280: cadd 263d 6c69 9bbd 11ba 463c ed2b 13bd
00000290: 8624 8b3c d75c 8b3d 13e5 b3bd e206 29be
000002a0: 3509 6d3a 1ec6 e0bd 4bfe a3bc 1b1c c73d
000002b0: f351 963e f9dc 023e a30c 763b 79de 713d
000002c0: aa0e bd3c b5f7 8c3c 1cca 8abd 427e fb3a
000002d0: 9ae4 fdbd 5c1c 9cbd b41d 3e3d 0e22 0dbe
000002e0: 99c9 083e 7d91 02bc 2168 c6bb 60f7 b3bc
000002f0: 8d3d 99bc 6398 b4bc ba00 e93d c037 72bd
00000300: 25cb 1cbd 28a5 8cbd 534a d63d bbec afbd
00000310: ad17 b5bd 52fc 08be 30f1 35bb f4cd c0bd
00000320: 5e6e 25bd 955d 2fbd bc4a 9dbc 5e7a 19be
00000330: 6cb2 5ebd 95d6 93bd 6f53 4abc ee8e b2bd
00000340: 6153 8bbd 63f8 87bc e8b0 223e aba0 553e
00000350: dc96 e53b 4a7e 93bd 9a29 c8b9 c6f0 08be
00000360: d458 5ebd cbd1 73bd a61f 16be e64f 583d
00000370: cd7f 4c3d 6b6a 963c c5e2 143c 8d26 6cbc
00000380: 676d e3bd 0c42 1bbe 5bff 1c3d edd4 f9bd
00000390: 362e 29bd e5ba a9bc 7c25 ccbb 2c5d 2ebe
000003a0: a72b a43d 0e0c 223e c84b ebbd 4df5 e5bc
000003b0: cef7 103d e1e6 d4bd bda8 2dbe 36ef 15bc
000003c0: e5a4 52bd ba48 babd 0521 873c 2f88 12be
000003d0: ab31 a5bc 271f b83d 9140 dfbd fa60 2f3d
000003e0: 4323 0abd 05d0 86bd 29d2 bebd af40 343d
000003f0: 55fb e5bd f223 323d 9215 b7bc db80 2cbd

sage.layer1.fc_self.weight f4 [64, 250]
0.11123766 -0.033408914 0.036654733 -0.04599866 0.07444739 -0.10384735 0.0005800985 0.06827846
-0.12286598 -0.15568596 -0.08432055 -0.099965185 -0.009748943 -0.13775955 -0.1155119 0.06520744
0.09949607 -0.02058161 -0.05539889 0.11376026 -0.1517805 -0.2575403 0.13667779 0.08042491
0.0064911195 0.17277333 -0.093725175 0.096929476 -0.10832822 -0.13031524 0.17547624 -0.005836274
0.014329768 0.06829207 0.012219063 -0.007859357 0.13137977 0.051645674 0.10852927 -0.23998967
0.29224265 0.018535959 -0.29112774 0.118063115 0.11280176 -0.15073529 0.079586186 -0.1187453
-0.027110282 -0.07443138 -0.00049498497 -0.038682446 0.014591626 -0.11105342 -0.08874613 -0.010644223
-0.031669147 0.003944598 -0.06764096 -0.041076418 -0.14609177 -0.16429095 0.2023647 -0.04854308
-0.011358016 -0.13463658 0.08531591 0.1238361 0.09230191 0.12100835 0.0038959803 0.06696719
0.113741204 -0.3223106 -0.057344794 -0.08790038 -0.12828614 -0.09677871 -0.10304037 -0.08082335
-0.43780613 -0.045299064 0.024165154 -0.068707734 -0.046729404 -0.1114357 0.1539203 0.32260498
0.29638538 -0.13140228 -0.29652315 0.21086495 0.11695172 0.0023136945 -0.2565614 0.19696392
-0.35675064 -0.3886264 -0.06538606 -0.14435986 -0.03587707 -0.0513632 0.23816945 0.07032963
-0.039861623 -0.15381715 -0.18209198 -0.21025045 -0.11399565 0.14702345 0.09141306 0.057380587
0.0063042585 -0.10494653 -0.15989347 0.41346258 -0.21353427 0.25978452 0.37785828 -0.18996349
0.07033581 0.32251263 0.23901716 -0.15559126 0.4343609 0.22193995 -0.24693437 0.040456526
0.1379314 0.28367236 0.119169265 0.0125967255 -0.104255155 -0.056170914 -0.12739214 -0.042426214
0.20369624 -0.26450762 -0.05639701 0.015457971 -0.103395425 0.04978759 0.23261644 -0.13139237
-0.12839618 0.130249 -0.41346523 -0.12762739 0.29212075 -0.007248322 -0.009006402 0.42265525
0.38683477 0.26781142 -0.49704573 0.010423956 0.10492983 -0.12018994 -0.05585538 -0.21899925
-0.10168396 0.14160043 -0.07371555 -0.0926297 -0.026249347 -0.29521278 -0.052970383 0.049809616
-0.35543865 -0.33221036 0.26780355 0.10707511 -0.30530933 -0.113727 0.107432775 -0.08035803
0.12686044 -0.110378295 -0.046764188 0.35377216 0.10852337 0.032908756 0.20985241 0.113249086
-0.003546516 -0.1518947 0.08413267 0.046179503 0.047757875 -0.16924228 0.03301149 -0.2038089
-0.12398921 -0.045401957 0.2504266 0.1144945 -0.34937683 -0.09763193 -0.14295834 0.30731577
-0.100466914 0.026632207 -0.091832556 -0.11887797 0.03611369 -0.106477775 -0.12572044 0.32040113
-0.2756991 0.05127596 -0.12060559 -0.028403457 0.11390545 0.38237658 -0.50447017 0.7510625
0.086941965 -0.10225614 0.06114256 0.12606119 -0.22223409 0.0012406523 -0.18715124 -0.2480716
0.031221008 0.53209794 -0.29727656 0.22990201 -0.14055122 0.11738817 -0.13898939 0.479197
-0.16099341 -0.18348637 0.17863582 -0.17727487 0.19611576 0.33044153 -0.31251338 -0.029754588
-0.15392691 -0.0647071 -0.31878057 0.32399812 0.10113589 -0.15931816 0.08754709 -0.21467419
-0.3054591 -0.5399977 0.06783333 0.007149422 -0.10633582 -0.04212813 -0.07577215 -0.13537166
00000000: 92d0 e33d c9d7 08bd 4623 163d 1769 3cbd
00000010: e077 983d ebad d4bd c011 183a 94d5 8b3d
00000020: 29a1 fbbd 246c 1fbe 41b0 acbd 8cba ccbd
00000030: 08ba 1fbc d710 0dbe 8191 ecbd 7a8b 853d
00000040: 98c4 cb3d c49a a8bc f2e9 62bd 24fb e83d
00000050: 596c 1bbe 52dc 83be 43f5 0b3e d1b5 a43d
00000060: 75b3 d43b 7eeb 303e fcf2 bfbd f682 c63d
00000070: 30db ddbd 5c71 05be 0bb0 333e 373e bfbb
00000080: 67c7 6a3c b6dc 8b3d 7732 483c 88c4 00bc
00000090: 6b88 063e 6a8a 533d 9844 de3d dabf 75be
000000a0: d4a0 953e b9d8 973c b20e 95be 13cb f13d
000000b0: 9c04 e73d 5a5a 1abe 15fe a23d bc30 f3bd
000000c0: 6216 debc 7b6f 98bd e1c1 01ba 7c71 1ebd
000000d0: b711 6f3c fa6f e3bd 88c0 b5bd 1b65 2ebc
000000e0: 82b7 01bd b041 813b 5887 8abd bf3f 28bd
000000f0: 1599 15be e33b 28be b138 4f3e 1cd5 46bd
00000100: f916 3abc 2cde 09be 1cba ae3d c89d fd3d
00000110: c908 bd3d 3ad3 f73d b453 7f3b 1826 893d
00000120: 26f1 e83d e505 a5be 60e2 6abd 1d05 b4bd
00000130: 715d 03be eb33 c6bd d406 d3bd b686 a5bd
00000140: 2028 e0be 838b 39bd 00f6 c53c a4b6 8cbd
00000150: 5567 3fbd 6638 e4bd 489d 1d3e 7b2c a53e
00000160: d3bf 973e 528e 06be e2d1 97be fbec 573e
00000170: 6284 ef3d 5aa1 173b 045c 83be e9b0 493e
00000180: 05a8 b6be 0afa c6be 20e9 85bd 12d3 13be
00000190: d6f3 12bd 3862 52bd b1e2 733e fb08 903d
000001a0: f145 23bd 3e82 1dbe 5276 3abe e54b 57be
000001b0: 8d76 e9bd 518d 163e c536 bb3d e807 6b3d
000001c0: f493 ce3b 35ee d6bd 1dbb 23be 5eb1 d33e
000001d0: baa8 5abe 7a02 853e a476 c13e ca85 42be
000001e0: 390c 903d 6020 a53e eac0 743e 5153 1fbe
000001f0: 8d64 de3e 3a44 633e 5ddc 7cbe beb5 253d
00000200: e43d 0d3e 813d 913e 040f f43d 7f62 4e3c
00000210: ba83 d5bd 7913 66bd 1673 02be 1cc7 2dbd
00000220: bf95 503e 8b6d 87be 8d00 67bd 6e43 7d3c
00000230: fbc0 d3bd 12ee 4b3d 0133 6e3e b98b 06be
00000240: 4a7a 03be fe5f 053e b7b1 d3be c1b0 02be
00000250: da90 953e 5583 edbb 978f 13bc 4566 d83e
00000260: 350f c63e 941e 893e c77c febe 3ec9 2a3c
00000270: 73e5 d63d 2526 f6bd 9cc8 64bd 5741 60be
00000280: ae3f d0bd b4ff 103e 2ef8 96bd a4b4 bdbd
00000290: df08 d7bc 2126 97be 79f7 58bd 2b05 4c3d
000002a0: 0efc b5be 7a17 aabe 8c1d 893e 324a db3d
000002b0: 8151 9cbe b4e9 e8bd b705 dc3d c092 a4bd
000002c0: b4e7 013e 040e e2bd ce8b 3fbd a021 b53e
000002d0: 8041 de3d 55cb 063d 8de3 563e 23ef e73d
000002e0: aa6c 68bb 498a 1bbe c04d ac3d b826 3d3d
000002f0: c39d 433d d94d 2dbe 0e37 073d 48b3 50be
00000300: 0eee fdbd 67f7 39bd ea37 803e 187c ea3d
00000310: 85e1 b2be 40f3 c7bd ac63 12be 7e58 9d3e
00000320: 99c1 cdbd c92b da3c b512 bcbd 4b76 f3bd
00000330: f3eb 133d 0511 dabd dcbc 00be 9e0b a43e
00000340: 6f28 8dbe be06 523d 1000 f7bd 5eae e8bc
00000350: 4347 e93d ddc6 c33e f524 01bf a245 403f
00000360: a10e b23d ab6b d1bd 9f70 7a3d 2f16 013e
00000370: 5591 63be 629d a23a 93a4 3fbe 7b06 7ebe
00000380: 33c3 ff3c 9237 083f a234 98be 6f6b 6b3e
00000390: a9ec 0fbe 3569 f03d 3c53 0ebe 4f59 f53e
000003a0: 75db 24be dae3 3bbe 4fec 363e 8b87 35be
000003b0: 92d2 483e a22f a93e c101 a0be e5bf f3bc
000003c0: 049f 1dbe 2885 84bd 3537 a3be 15e3 a53e
000003d0: 5520 cf3d 4d24 23be e44b b33d 8dd3 5bbe
000003e0: 2365 9cbe 4a3d 0abf 33ec 8a3d b345 ea3b
000003f0: 98c6 d9bd 8c8e 2cbd 6e2e 9bbd de9e 0abe

sage.layer1.fc_self.bias f4 [64]
-0.29775882 -0.5801882 -0.49066678 -0.46830243 -0.20407237 -0.40991348 -0.28299767 -0.1845904
-0.42969972 -0.17687427 -0.026835885 -0.63573366 -0.71100694 -0.5843108 -0.532777 -0.61099654
-0.6287422 -0.13771181 -0.6430263 -0.69852054 -0.5583395 -0.56081253 -0.5233939 -0.49605075
-0.5652501 -0.5587536 -0.22471352 -0.66426605 -0.6841352 -0.25602752 -0.5396512 -0.5217576
-0.5099937 -0.35759237 -0.5491276 -0.50609744 -0.44950283 -0.5361177 -0.38059682 -0.46404663
0.02153179 -0.7316891 0.1865816 -0.549818 -0.60370713 -0.6449875 -0.60663307 -0.57900417
-0.33331177 -0.57170504 -0.40116474 0.1158684 -0.32146454 -0.2781441 0.008366491 -0.6076361
-0.74245054 -0.2025765 -0.4677935 -0.21551774 0.13856146 -0.38889852 -0.52478147 -0.48025468
00000000: d873 98be 3787 14bf ad38 fbbe 56c5 efbe
00000010: 59f8 50be 2ee0 d1be 12e5 90be 4405 3dbe
00000020: 9a01 dcbe 871e 35be eed6 dbbc 71bf 22bf
00000030: 8d04 36bf 6595 15bf 1364 08bf 456a 1cbf
00000040: 40f5 20bf 5304 0dbe 5f9d 24bf 3ed2 32bf
00000050: 56ef 0ebf 6991 0fbf 25fd 05bf 5dfa fdbe
00000060: 3bb4 10bf 7a0a 0fbf 4d1b 66be 570d 2abf
00000070: 7c23 2fbf 0a16 83be 9526 0abf e891 05bf
00000080: f28e 02bf 5916 b7be a093 0cbf 9a8f 01bf
00000090: 3c25 e6be 023f 09bf 96dd c2be 8597 edbe
000000a0: 7063 b03c fa4f 3bbf 3f0f 3f3e dfc0 0cbf
000000b0: 8d8c 1abf e71d 25bf 4e4c 1bbf 9e39 14bf
000000c0: d7a7 aabe 435b 12bf 7765 cdbe 694c ed3d
000000d0: 0097 a4be e768 8ebe 9b13 093c 0a8e 1bbf
000000e0: 3d11 3ebf 3770 4fbe a182 efbe afb0 5cbe
000000f0: 0ee3 0d3e b51d c7be 1458 06bf f1e3 f5be

sage.layer2.fc_pool.weight f4 [64, 64]
-0.35352913 -0.037866257 0.022529764 0.013981784 -0.2061524 -0.0102986805 -0.14168258 -0.18547258
0.0010508905 -0.11134332 -0.5278176 -0.4521441 0.042686995 -0.0036027029 -0.05157441 0.030247942
0.071159914 -0.21069734 -0.014735758 0.0118037965 -0.16840428 0.08764791 0.063439354 0.0608909
-0.25310335 0.051659983 -0.42421263 -0.3506956 -0.10091555 -0.06369926 0.09215236 -0.01338998
0.09775005 -0.0323335 -0.048894916 -0.005380692 0.02133358 0.05680932 -0.07650498 -0.091074854
-0.26885903 0.101643935 -0.77370346 0.050278053 0.015891198 -0.010851025 0.015209157 0.018206112
-0.032977503 0.0994422 -0.22310159 -0.7333376 -0.095615804 -0.23641735 -0.5381099 0.004734863
-0.05369681 -0.19981398 0.028360963 0.0017086965 -0.5130099 -0.16504401 -0.0054768925 -0.020392504
-0.17496571 -0.12446457 -0.06943389 -0.014607146 -0.02636095 -0.14597672 0.11651372 -0.26483437
-0.01626605 0.042519026 -0.11714256 0.112584375 -0.17285119 -0.18704689 -0.3587181 -0.024182875
0.02484918 -0.14406611 -0.34824985 -0.28682873 -0.017137503 -0.315679 0.10312081 -0.11203559
0.16928637 -0.22993825 -0.19385643 0.2801032 -0.21439868 -0.010427875 -0.39426234 -0.32872888
-0.21412997 0.030005382 0.04960363 -0.11720116 -0.3185097 -0.11061488 -0.03518047 0.060028408
-0.16697553 0.07638721 -0.27506825 -0.38769686 -0.2451561 -0.23967673 -0.3354483 -0.3165046
0.0164692 -0.19448447 0.042013463 -0.21150596 -0.09409467 -0.15839536 -0.42182803 -0.016331127
-0.15118346 -0.38465464 0.21916881 -0.05638793 -0.087896116 0.015311593 -0.22260909 -0.17426047
-0.050396554 0.020191895 -0.2989256 -0.07926548 -0.07588169 -0.06818901 0.07365424 0.014577585
0.014007096 -0.08185216 0.21911712 0.11691599 -0.19525251 -0.04848277 -0.10490229 -0.10558905
0.05029004 -0.23198795 -0.132232 -0.17110944 -0.010917 -0.05851685 0.08880727 -0.23566353
-0.14311947 0.20034288 0.12078661 0.11950709 0.10799482 -0.2908497 0.0038961614 -0.23306881
-0.10168295 0.068512045 -0.022345733 -0.1215359 -0.12830934 0.068846405 -0.2883436 -0.1917425
-0.22787681 0.16109894 0.053642154 0.06845646 -0.061945442 -0.042725723 -0.24881153 -0.13197176
0.14202105 -0.054446053 -0.3356915 -0.120954216 -0.17461652 -0.17915128 -0.10826175 0.10217614
0.107132435 -0.3964683 -0.14986157 -0.021382825 -0.014607618 0.043650012 -0.06417059 -0.10396693
0.1264426 0.0023433552 -0.046127815 -0.035972618 -0.004042411 -0.2853986 0.054278657 0.16400713
-0.18077882 0.10528186 0.00095100317 -0.11611906 -0.28352633 -0.19149712 0.07397704 0.027006261
-0.29282054 -0.10508299 0.0015274704 0.0092441905 -0.2688315 -0.20981053 0.08417571 -0.2125096
-0.090389095 -0.13025516 -0.21327662 -0.421636 0.10183628 0.1282034 -0.15066972 -0.1791284
-0.08065626 -0.007244483 -0.29831374 -0.06973306 -0.22038999 -0.29531586 0.08146813 -0.17251068
0.19532141 0.12434083 -0.025729118 -0.06543578 0.024076635 -0.19860245 -0.26630262 -0.024859227
0.011626576 -0.2330331 0.20719416 -0.10470963 0.1667404 -0.0066637285 -0.32481328 -0.14619389
-0.38135812 -0.09342959 -0.4780696 -0.301052 0.06811116 0.07276164 -0.47660407 0.03695767
00000000: c501 b5be a619 1bbd 5790 b83c da13 653c
00000010: 9d19 53be ccbb 28bc 3d15 11be 86ec 3dbe
00000020: 09be 893a f707 e4bd 0e1f 07bf 6e7f e7be
00000030: 8fd8 2e3d 531b 6cbb b03f 53bd 88ca f73c
00000040: 4abc 913d 0bc1 57be 406e 71bc b664 413c
00000050: 2c72 2cbe bf80 b33d 7eec 813d bd68 793d
00000060: c396 81be 6b99 533d 6632 d9be 608e b3be
00000070: d0ac cebd c274 82bd 60ba bc3d a661 5bbc
00000080: 2e31 c83d 2270 04bd 0946 48bd 8450 b0bb
00000090: c3c3 ae3c e4b0 683d a5ae 9cbd 7485 babd
000000a0: e4a7 89be b22a d03d 6e11 46bf 5cf0 4d3d
000000b0: 422e 823c 7fc8 31bc d42f 793c fc24 953c
000000c0: 6b13 07bd 5aa8 cb3d be74 64be 03bc 3bbf
000000d0: 38d2 c3bd 6417 72be 92c1 09bf e926 9b3b
000000e0: 30f1 5bbd 099c 4cbe 4055 e83c 57f6 df3a
000000f0: 9e54 03bf 4c01 29be 8177 b3bb 2e0e a7bc
00000100: 362a 33be 48e7 febd 5b33 8ebd d052 6fbc
00000110: ebf2 d7bc ec7a 15be bf9e ee3d 5f98 87be
00000120: 6140 85bc 6e28 2e3d 70e8 efbd a392 e63d
00000130: e7ff 30be 3889 3fbe e6a9 b7be 2a1b c6bc
00000140: 8290 cb3c 1186 13be ce4d b2be 37db 92be
00000150: f363 8cbc aea0 a1be 0131 d33d ea72 e5bd
00000160: 6859 2d3e ef74 6bbe 4d82 46be b069 8f3e
00000170: 548b 5bbe aed9 2abc c1dc c9be 274f a8be
00000180: e344 5bbe d9cd f53c 2d2d 4b3d 2907 f0bd
00000190: b413 a3be 0e8a e2bd 6619 10bd 59e0 753d
000001a0: a2fb 2abe e670 9c3d bfd5 8cbe 3480 c6be
000001b0: 330a 7bbe d16d 75be e1bf abbe e40c a2be
000001c0: 6aea 863c f026 47be 4f16 2c3d 0595 58be
000001d0: b5b4 c0bd 6532 22be d8f9 d7be dbc8 85bc
000001e0: d6cf 1abe 74f1 c4be ca6d 603e 08f7 66bd
000001f0: e102 b4bd 7add 7a3c a3f3 63be 5671 32be
00000200: 9e6c 4ebd 7969 a53c c70c 99be f155 a2bd
00000210: dc67 9bbd aea6 8bbd 09d8 963d d3d6 6e3c
00000220: 057e 653c 1ba2 a7bd 3d60 603e a771 ef3d
00000230: 46f0 47be de95 46bd 03d7 d6bd 123f d8bd
00000240: eefc 4d3d 408e 6dbe d367 07be 5037 2fbe
00000250: 37dd 32bc 5daf 6fbd 96e0 b53d c851 71be
00000260: e98d 12be af26 4d3e f85e f73d 22c0 f43d
00000270: 632c dd3d 40ea 94be be56 7f3b 97a9 6ebe
00000280: 273f d0bd 0b50 8c3d 660e b7bc d0e7 f8bd
00000290: 8663 03be 58ff 8c3d c6a1 93be 2558 44be
000002a0: 8a58 69be 1ff7 243e e0b7 5b3d e732 8c3d
000002b0: 81ba 7dbd 2b01 2fbd 73c8 7ebe 9b23 07be
000002c0: f76d 113e d302 5fbd c2df abbe d8b6 f7bd
000002d0: acce 32be 6f73 37be 56b8 ddbd b941 d13d
000002e0: 4068 db3d e5fd cabe 5075 19be 092b afbc
000002f0: ca54 6fbc 5bca 323d df6b 83bd 9dec d4bd
00000300: 2b7a 013e fa92 193b 85f0 3cbd 0658 13bd
00000310: 3476 84bb c41f 92be 4c53 5e3d 7cf1 273e
00000320: 151e 39be 049e d73d be4c 793a d4cf edbd
00000330: 5d2a 91be d217 44be 4681 973d 3c3c dd3c
00000340: 93ec 95be c035 d7bd 6735 c83a f274 173c
00000350: 48a4 89be 92d8 56be 5164 ac3d 1e9c 59be
00000360: eb1d b9bd 9c61 05be 3065 5abe ace0 d7be
00000370: 8a8f d03d c147 033e 2a49 1abe 6f6d 37be
00000380: 1c2f a5bd 2163 edbb 94bc 98be 35d0 8ebd
00000390: eaad 61be a433 97be c3d8 a63d a4a6 30be
000003a0: 5602 483e 68a6 fe3d dfc5 d2bc 3203 86bd
000003b0: 5d3c c53c 715e 4bbe d158 88be 94a5 cbbc
000003c0: 657d 3e3c 3ba0 6ebe b52a 543e 0172 d6bd
000003d0: ffbd 2a3e 685b dabb ed4d a6be dab3 15be
000003e0: 5f41 c3be 0358 bfbd 8ac5 f4be 7d23 9abe
000003f0: dd7d 8b3d 0e04 953d 7305 f4be ed60 173d

sage.layer2.fc_pool.bias f4 [64]
0.8903961 -0.116975114 -0.16770607 -0.045494925 -0.18167873 0.22358057 -0.13407081 -0.0024615242
0.0870156 0.20938301 1.0726898 0.23319542 -0.1859347 0.18357275 -0.2753405 0.16892163
-0.12638617 0.08177903 -0.1694228 0.15853965 0.104659885 -0.12977678 0.28606796 0.2551182
-0.038530797 -0.08036257 -0.07907058 0.11375689 0.31631935 0.38046148 0.021988915 -0.2926567
0.10374128 0.2916701 0.12792116 0.53306127 0.47852072 0.16663314 -0.0502663 -0.045603786
0.18360755 -0.16048937 -0.15608528 0.046691444 -0.16969135 0.4395474 -0.1550446 0.72781765
0.41941944 -0.20866083 -0.33057615 0.09573706 0.094370015 -0.12686391 0.05532169 -0.023303732
0.27284443 -0.19393528 -0.3643106 -0.22145344 -0.1657372 0.21141571 0.32900915 0.15070397
00000000: 00f1 633f a690 efbd 24bb 2bbe e358 3abd
00000010: fd09 3abe 4ef2 643e dc49 09be 8651 21bb
00000020: 3c35 b23d 8068 563e e64d 893f c8ca 6e3e
00000030: aa65 3ebe 7ffa 3b3e 6ef9 8cbe cbf9 2c3e
00000040: 606b 01be c47b a73d 2c7d 2dbe 3858 223e
00000050: ec57 d63d 34e4 04be 8077 923e da9e 823e
00000060: 78d2 1dbd 2295 a4bd c2ef a1bd 5ff9 e83d
00000070: 9cf4 a13e d9cb c23e 1922 b43c 19d7 95be
00000080: 4f76 d43d c955 953e c4fd 023e b476 083f
00000090: ab00 f53e e1a1 2a3e 09e4 4dbd 09cb 3abd
000000a0: 9e03 3c3e 5357 24be d2d4 1fbe 873f 3f3d
000000b0: 92c3 2dbe 5b0c e13e 03c4 1ebe 4252 3a3f
000000c0: 25be d63e 2fab 55be 4741 a9be cb11 c43d
000000d0: 1145 c13d 9de8 01be ff98 623d 78e7 bebc
000000e0: 44b2 8b3e f896 46be eb86 babe b1c4 62be
000000f0: 03b7 29be 5c7d 583e e373 a83e 2452 1a3e

sage.layer2.fc_neigh.weight f4 [128, 64]
0.27837604 0.058474 -0.04203685 -0.105752915 -0.035024364 -0.020374736 -0.1111916 -0.015694173
0.2040283 0.10806607 0.18479033 0.08158778 -0.20777862 0.06656412 0.00030728945 -0.019011226
0.03530874 0.13722956 -0.080955885 0.10327093 0.09886123 0.064133994 0.052388333 0.10087788
0.0412824 -0.091728315 0.12717953 0.036013994 0.12423144 -0.029439978 -0.02729037 -0.014257696
-0.17219019 0.25286368 -0.05710762 -0.022600591 0.011643822 0.04191226 0.11528109 0.17621952
0.10531538 -0.0026313472 -0.11871879 0.10483377 -0.06712577 -0.07220375 0.09104925 0.13452695
0.08865544 -0.19435933 -0.04648348 0.0057457867 0.18949325 -0.07466952 0.122294396 0.05770025
0.3055355 0.02826815 0.13424827 -0.028388765 -0.08839176 0.07780548 0.052011885 -0.014046659
0.24641903 0.14780569 -0.03133093 -0.06534897 0.19719402 -0.15157472 0.0014440375 -0.12184541
-0.17972232 -0.024687117 0.11032814 0.010823817 -0.262297 -0.062871404 -0.098125085 0.013533049
0.25719225 0.053457275 0.22567908 0.014819597 0.08805858 -0.08994669 0.007943276 -0.19122508
0.13771899 -0.0021760617 0.06433326 -0.12654434 -0.17441873 -0.05120203 0.0638004 0.09408741
-0.011828449 -0.11789994 0.17773336 -0.1464155 0.1346191 0.086657695 0.11647549 0.13162626
0.047644455 0.053516272 0.17277396 0.03164981 -0.03348545 0.10749144 -0.05580363 -0.019057142
-0.020637807 0.06929875 0.13317376 0.022212813 0.04731818 0.051387575 0.08077045 0.010496894
-0.0045768255 0.02037583 0.05865398 0.21691592 0.16612874 0.039902203 -0.14795041 0.0069476683
-0.11759552 -0.16648519 -0.23162863 -0.17317021 -0.11026874 -0.048940387 -0.072140805 -0.077159144
-0.2338934 -0.10831363 -0.115320385 -0.025578927 -0.13262188 -0.17989841 -0.22690438 -0.07032928
0.0671264 -0.21356496 -0.27918026 -0.14501375 -0.06010207 0.12864801 -0.030570935 0.046324305
-0.16397442 -0.047267575 -0.07562542 -0.2716042 -0.1640159 -0.16818099 -0.14442882 -0.13775387
-0.09970725 -0.13669056 -0.21889041 -0.15757187 -0.09281505 -0.21278098 -0.21558021 -0.075626865
-0.032523904 -0.30723408 0.01993436 -0.25238103 -0.22737749 -0.21724428 -0.17608137 -0.14082518
-0.040122587 -0.14500956 -0.13895227 -0.06862361 0.012421615 0.04115482 -0.067839965 -0.10205581
-0.16890982 0.06872919 -0.21325327 -0.12374975 -0.18306504 -0.023797387 0.018906396 0.03707801
0.044501092 0.018248923 -0.061448846 -0.0031432835 -0.16223632 -0.117944695 -0.03479067 0.049796745
-0.012822309 -0.115735084 -0.015014998 0.004317173 -0.011629369 0.060921077 0.17085612 -0.14091377
-0.06536934 0.023849595 -0.05339954 -0.017411586 -0.043236937 -0.019900054 -0.12492865 -0.23159982
0.12151216 0.045035206 0.06385157 -0.16812843 0.041857712 0.11199724 -0.16861558 0.14521885
0.04153703 -0.24569967 -0.18254982 -0.12706439 -0.035874594 -0.15648317 -0.0046397788 0.08201285
0.07229129 0.026266327 0.05167621 0.11270115 -0.122895904 -0.20279568 -0.04072853 -0.05610922
-0.32397556 -0.1676929 0.050099846 0.08958007 -0.044962365 -0.095103554 -0.2054044 -0.03891085
-0.2304608 0.013295276 0.012288576 -0.022662945 -0.076311514 0.054482386 -0.07536887 -0.06647467
00000000: 4e87 8e3e 6f82 6f3d d52e 2cbd fc94 d8bd
00000010: b575 0fbd ebe8 a6bc 6cb8 e3bd 1191 80bc
00000020: cbec 503e be51 dd3d ad39 3d3e 7e17 a73d
00000030: ebc3 54be c552 883d b11b a139 6ebd 9bbc
00000040: e69f 103d e885 0c3e 33cc a5bd b67f d33d
00000050: c277 ca3d af58 833d 2695 563d 1099 ce3d
00000060: bc17 293d 0edc bbbd 5a3b 023e 6983 133d
00000070: 0e6d fe3d 1c2c f1bc 0e90 dfbc 1d99 69bc
00000080: a052 30be 5977 813e aee9 69bd e024 b9bc
00000090: bbc5 3e3c 31ac 2b3d 7e18 ec3d e472 343e
000000a0: 97af d73d ae72 2cbb d622 f3bd 16b3 d63d
000000b0: 3c79 89bd 8fdf 93bd 0778 ba3d 6fc1 093e
000000c0: fc90 b53d 2206 47be 7665 3ebd 2747 bc3b
000000d0: 850a 423e 55ec 98bd 7c75 fa3d 1957 6c3d
000000e0: 266f 9c3e 9b92 e73c 6178 093e 8e8f e8bc
000000f0: bd06 b5bd 7b58 9f3d 6a0a 553d f523 66bc
00000100: 4555 7c3e 605a 173e dc54 00bd aed5 85bd
00000110: 3bed 493e 6736 1bbe dc45 bd3a 168a f9bd
00000120: 2109 38be a33c cabc b8f3 e13d 6156 313c
00000130: cb4b 86be b9c2 80bd cef5 c8bd b9b9 5d3c
00000140: b4ae 833e 04f6 5a3d 6b18 673e e5cd 723c
00000150: 0f58 b43d f835 b8bd 8424 023c 82d0 43be
00000160: 3506 0d3e 429c 0ebb 28c1 833d d794 01be
00000170: d39a 32be 38b9 51bd c9a9 823d e6b0 c03d
00000180: 1ccc 41bc 8675 f1bd bcff 353e f2ed 15be
00000190: 97d9 093e 9779 b13d b48a ee3d 09c9 063e
000001a0: d526 433d e133 5b3d a8eb 303e 3ba3 013d
000001b0: 0a28 09bd 7924 dc3d 5992 64bd b91d 9cbc
000001c0: 9e10 a9bc 81ec 8d3d b45e 083e a5f7 b53c
000001d0: b5d0 413d c77b 523d fa6a a53d 2afb 2b3c
000001e0: 32f9 95bb 36eb a63c 283f 703d 351f 5e3e
000001f0: a71d 2a3e 7e70 233d 5080 17be 44a9 e33b
00000200: ecd5 f0bd 187b 2abe 0e30 6dbe 8853 31be
00000210: 94d4 e1bd b775 48bd 8fbe 93bd 9d05 9ebd
00000220: c081 6fbe 89d3 ddbd 182d ecbd e68a d1bc
00000230: 08ce 07be 4a37 38be 9f59 68be cc08 90bd
00000240: 9179 893d c6b0 5abe b7f0 8ebe 7c7e 14be
00000250: 972d 76bd 4ebc 033e e66f fabc 8ebe 3d3d
00000260: e9e8 27be a59b 41bd 80e1 9abd b50f 8bbe
00000270: c9f3 27be a337 2cbe 26e5 13be 5a0f 0dbe
00000280: 5133 ccbd 9cf8 0bbe cf24 60be 855a 21be
00000290: d115 bebd 42e3 59be 0fc1 5cbe 42e2 9abd
000002a0: c937 05bd c94d 9dbe 624d a33c 1638 81be
000002b0: a5d5 68be 4975 5ebe ad4e 34be 7a34 10be
000002c0: 9557 24bd 637d 14be 8149 0ebe 898a 8cbd
000002d0: 0884 4b3c f591 283d aeef 8abd a302 d1bd
000002e0: b2f6 2cbe e4c1 8c3d 115f 5abe 8270 fdbd
000002f0: 6775 3bbe bdf2 c2bc 96e1 9a3c 1ddf 173d
00000300: c746 363d c47e 953c c9b1 7bbd 8cff 4dbb
00000310: 4721 26be fd8c f1bd a980 0ebd acf7 4b3d
00000320: a914 52bc 8406 edbd 7701 76bc 1277 8d3b
00000330: 1c89 3ebc 6188 793d e8f4 2e3e b34b 10be
00000340: 5ce0 85bd 3a60 c33c 7ab9 5abd bea2 8ebc
00000350: 3719 31bd 7005 a3bc 98da ffbd 8128 6dbe
00000360: 5edb f83d d676 383d 9dc4 823d dc29 2cbe
00000370: fe72 2b3d cf5e e53d 90a9 2cbe 40b4 143e
00000380: bc22 2a3d b298 7bbe 57ee 3abe 2b1d 02be
00000390: 3df1 12bd 203d 20be 4909 98bb 5af6 a73d
000003a0: 750d 943d 7b2c d73c 6faa 533d dccf e63d
000003b0: d9b0 fbbd aca9 4fbe f6d2 26bd c8d2 65bd
000003c0: 20e0 a5be b0b7 2bbe 7f35 4d3d c175 b73d
000003d0: 752a 38bd a7c5 c2bd 8855 52be fc60 1fbd
000003e0: eafd 6bbe 6ed4 593c 0656 493c a4a7 b9bc
000003f0: 3649 9cbd ec28 5f3d fe5a 9abd df23 88bd

sage.layer2.fc_self.weight f4 [128, 64]
-0.16817185 -0.0046755313 -0.03908277 0.0756284 -0.22311874 -0.32861337 -0.24769671 -0.106228456
0.24455573 -0.15985878 -0.32397673 -0.1200376 0.1926769 0.0270476 -0.10491655 0.124305725
-0.11698489 0.15578783 -0.32201368 -0.15366536 0.12969403 0.03602179 0.12571009 -0.31204543
0.25046647 0.30345365 0.20773657 0.11581926 -0.09587665 -0.27858382 0.08082188 0.25933102
0.18221283 0.08570667 -0.14222223 -0.029125847 0.11133124 0.022597061 -0.17175713 -0.24264602
-0.14072575 -0.018047735 0.0639257 -0.24200654 0.112793475 -0.030506914 -0.041533552 0.06036375
0.21122058 -0.12372635 -0.21746781 -0.07082888 -0.11384593 -0.14081083 0.12833594 0.0023494144
-0.032312673 0.20381938 0.049203686 0.100721054 -0.06436328 0.11795717 0.36550406 -0.15068479
-0.43121508 0.07899337 -0.023810506 -0.050183184 0.09120309 0.18741964 0.21934201 0.13184917
-0.1457619 0.24259289 0.017914964 -0.33839625 -0.22879902 0.2668816 0.17706747 -0.27930665
0.17460279 0.06415536 0.196376 0.01915655 0.035594456 -0.021942923 -0.28741997 0.030264074
-0.09196827 0.040246002 0.08978045 0.050345637 0.20721373 -0.12559089 -0.1414086 -0.19403636
-0.123491555 0.053801622 0.046775017 -0.24047214 0.09150363 -0.08956399 0.13466479 -0.15646692
-0.14114703 0.08743465 -0.014260701 -0.08801201 -0.24358067 -0.12789889 0.09877559 0.1567948
-0.0554946 -0.0256473 -0.14062792 -0.0006788472 -0.11588001 -0.05801188 0.028559152 0.03643959
-0.21781705 -0.045728035 0.062101472 -0.18902054 0.020749519 -0.18264988 -0.18231234 0.01713828
-0.14827193 0.22317544 -0.1477878 0.072712936 0.017080612 -0.061813947 0.23137219 -0.18684995
-0.030674977 -0.03639127 -0.06161921 0.101757 0.17468789 -0.025001626 -0.14973138 0.26482865
-0.048643682 -0.16557571 -0.016568253 -0.07487678 -0.06521876 0.22734123 0.19786263 0.10142567
0.12941818 -0.14831997 -0.2801172 0.06349052 0.020806506 0.2535816 -0.02333565 0.24700734
0.006157672 -0.17319666 -0.02466511 0.2598935 -0.13232303 0.0938237 0.24040297 -0.054758705
0.053230427 -0.17819573 0.0818784 0.19638349 0.058653366 -0.19573444 -0.11748009 0.13766938
-0.009694852 0.046846427 0.39098996 0.023478586 0.1437238 -0.1143257 -0.116164334 -0.19164684
0.12839419 -0.25499764 0.09678015 0.09753262 -0.08379838 0.020632535 -0.2688 -0.26804793
-0.2625898 0.10732782 0.0475449 -0.22856458 0.06976356 -0.26246 -0.10995907 0.16796334
-0.10344069 -0.16421628 -0.1597282 -0.0010398902 0.3415182 0.0659437 -0.017363783 0.108140014
0.21538165 0.18932131 0.116603 -0.17592514 -0.42944014 0.05327652 -0.07882522 0.10599624
0.017200172 0.030364279 -0.16042149 -0.071377166 0.1855224 -0.17745945 0.2210379 -0.20081818
0.24807979 -0.08973537 -0.0068730027 0.1362217 0.15466857 0.22499979 0.005883677 -0.24480702
0.07762053 0.017281542 0.05817432 0.05798584 -0.041654572 0.24348195 0.14465609 -0.0046718204
0.10168796 0.20431554 -0.27624753 -0.040598936 -0.21511178 -0.066178516 -0.01994758 -0.12408544
0.36413974 0.042351432 -0.06105932 -0.09469783 -0.08379159 0.1704666 0.036945954 -0.13796411
00000000: 3e35 2cbe 3335 99bb 4115 20bd 10e3 9a3d
00000010: 3d79 64be 0340 a8be 35a4 7dbe 4e8e d9bd
00000020: d16c 7a3e 05b2 23be 47e0 a5be 46d6 f5bd
00000030: 184d 453e ee92 dd3c 7dde d6bd 0094 fe3d
00000040: c695 efbd d886 1f3e fade a4be 745a 1dbe
00000050: 83ce 043e 968b 133d 25ba 003e 6bc4 9fbe
00000060: 243d 803e 475e 9b3e e5b8 543e a632 ed3d
00000070: fa5a c4bd 8aa2 8ebe f185 a53d 09c7 843e
00000080: 0096 3a3e fb86 af3d b4a2 11be 5499 eebc
00000090: a201 e43d 791d b93c 1ae1 2fbe 3378 78be
000000a0: 691a 10be d8d8 93bc 7aeb 823d 90d0 77be
000000b0: 4400 e73d a3e9 f9bc 161f 2abd fb3f 773d
000000c0: 354a 583e 3e64 fdbd e2af 5ebe bb0e 91bd
000000d0: 0e28 e9bd b730 10be 7f6a 033e a2f8 193b
000000e0: 4b5a 04bd 07b6 503e ce89 493d d746 ce3d
000000f0: e5d0 83bd 8793 f13d 5923 bb3e 1d4d 1abe
00000100: 39c8 dcbe 47c7 a13d 400e c3bc e28c 4dbd
00000110: b0c8 ba3d efea 3f3e 319b 603e 7803 073e
00000120: 9c42 15be 456a 783e 67c2 923c 4642 adbe
00000130: 4a4a 6abe b4a4 883e 2d51 353e 4801 8fbe
00000140: 13cb 323e e363 833d ca16 493e 32ee 9c3c
00000150: 7ecb 113d a5c1 b3bc b628 93be 5dec f73c
00000160: dc59 bcbd fed8 243d d0de b73d 3a37 4e3d
00000170: d62f 543e e69a 00be 6bcd 10be 78b1 46be
00000180: 24e9 fcbd 175f 5c3d 2997 3f3d 543e 76be
00000190: 4166 bb3d 536d b7bd 91e5 093e dd38 20be
000001a0: d988 10be f010 b33d b7a5 69bc a43f b4bd
000001b0: 366d 79be edf7 02be db4a ca3d d18e 203e
000001c0: 4e4e 63bd 491a d2bc c400 10be aaf4 31ba
000001d0: 8052 edbd dd9d 6dbd e2f4 e93c ae41 153d
000001e0: 6f0b 5fbe 524d 3bbd 1d5e 7e3d 9a8e 41be
000001f0: e5fa a93c 9208 3bbe 16b0 3abe 9465 8c3c
00000200: 99d4 17be 1a88 643e af55 17be 85ea 943d
00000210: a4ec 8b3c 9f30 7dbd d5ec 6c3e 9855 3fbe
00000220: 174a fbbc 030f 15bd 6d64 7cbd f965 d03d
00000230: 62e1 323e 36d0 ccbc 2f53 19be 9f97 873e
00000240: 993e 47bd ae8c 29be 25ba 87bc ff58 99bd
00000250: 6a91 85bd 24cc 683e 809c 4a3e 43b8 cf3d
00000260: 3386 043e 31e1 17be 866b 8fbe 5107 823d
00000270: 6872 aa3c 73d5 813e 682a bfbc 7eef 7c3e
00000280: 4cc6 c93b 775a 31be 7c0e cabc c310 853e
00000290: b07f 07be a426 c03d 322c 763e aa4a 60bd
000002a0: 2608 5a3d f178 36be ddaf a73d c118 493e
000002b0: 833e 703d 9c6e 48be 6799 f0bd 34f9 0c3e
000002c0: 28d7 1ebc 0ae2 3f3d d62f c83e 2a56 c03c
000002d0: 552c 133e 9823 eabd 91e7 edbd 123f 44be
000002e0: c479 033e 0d8f 82be ac34 c63d 2fbf c73d
000002f0: 7c9e abbd 9005 a93c 27a0 89be 943d 89be
00000300: 2c72 86be b0ce db3d 71be 423d d50c 6abe
00000310: 33e0 8e3d 2861 86be 3932 e1bd 95fe 2b3e
00000320: b6d8 d3bd 5028 28be ca8f 23be ed4c 88ba
00000330: 79db ae3e 7e0d 873d 7e3e 8ebc 8378 dd3d
00000340: 028d 5c3e 72dd 413e 8ecd ee3d b825 34be
00000350: 94df dbbe 7b38 5a3d 1e6f a1bd 8f14 d93d
00000360: 60e7 8c3c 82be f83c 8845 24be 312e 92bd
00000370: 96f9 3d3e eeb7 35be c257 623e 48a3 4dbe
00000380: a108 7e3e 2dc7 b7bd ed36 e1bb b47d 0b3e
00000390: 7061 1e3e 5866 663e dccb c03b b1ae 7abe
000003a0: 83f7 9e3d 0592 8d3c 3248 6e3d 8f82 6d3d
000003b0: fc9d 2abd 5553 793e ba20 143e 1216 99bb
000003c0: c741 d03d 1838 513e 5170 8dbe 124b 26bd
000003d0: 4346 5cbe 9a88 87bd 1b69 a3bc 8220 febd
000003e0: 8670 ba3e b278 2d3d 5619 7abd f0f0 c1bd
000003f0: ed9a abbd cc8e 2e3e a454 173d 7746 0dbe

sage.layer2.fc_self.bias f4 [128]
-0.047042202 -0.044258103 0.0099124 0.0036137397 0.043210816 0.07535662 -0.048002403 0.110787526
0.30266178 -0.08346942 -0.08136049 0.10712316 -0.1028692 -0.06773373 0.114441685 0.036289297
0.12923455 -0.03008229 -0.07029328 -0.028005902 0.17187835 0.08553234 -0.27672315 -0.16598761
-0.13190222 -0.14313848 0.26045024 -0.020736808 0.30421796 0.12900466 0.31142426 0.04245338
-0.059208307 -0.13085546 -0.087322325 -0.2089354 0.0035296462 0.15854406 0.105015285 0.08099889
0.046852846 -0.0879417 -0.07330631 0.29007366 0.14833605 0.28791112 0.01636825 -0.01541926
-0.006682129 0.106911376 -0.16937353 -0.23305723 -0.021246267 0.041153796 0.050067786 -0.06346738
-0.066721484 0.20861076 0.17782977 0.07862891 -0.10529108 -0.15053639 0.106486835 -0.1454666
0.2165449 0.10296103 -0.034541097 0.12081099 0.033669423 -0.017784152 -0.2798339 0.15754578
0.17307916 0.22663903 0.028491734 -0.081759684 -0.041885678 -0.21577442 0.20117636 -0.25999805
0.14331736 0.4312569 0.0076577757 0.09407584 0.12412857 -0.007771273 -0.29891735 0.16058724
0.15127034 0.16386811 -0.01736953 0.13008024 0.011085957 -0.044557054 -0.111447744 -0.04789985
0.037755363 0.16800629 0.13575384 0.018792612 -0.04871855 -0.07764793 0.16040295 0.008247236
-0.00019895376 -0.23109303 -0.06270138 0.1256102 -0.29862264 -0.13560769 0.18827765 -0.044907022
-0.023368647 -0.28342733 -0.045905557 -0.007072336 0.01987869 -0.15567037 0.44951883 0.072108045
0.1791789 -0.07272472 0.0028420445 -0.13905717 0.055223215 0.060858086 0.09023802 0.0004435554
00000000: 53af 40bd fc47 35bd 9e67 223c 7ed4 6c3b
00000010: d3fd 303d 9254 9a3d 2b9e 44bd 92e4 e23d
00000020: 7cf6 9a3e 04f2 aabd 54a0 a6bd 6363 db3d
00000030: 16ad d2bd fbb7 8abd 6760 ea3d 16a4 143d
00000040: 1056 043e 226f f6bc ecf5 8fbd a26c e5bc
00000050: e100 303e 942b af3d a8ae 8dbe a8f8 29be
00000060: 6011 07be e592 12be bc59 853e 3de0 a9bc
00000070: 75c2 9b3e cc19 043e 0073 9f3e 98e3 2d3d
00000080: 6984 72bd f9fe 05be 0cd6 b2bd 29f3 55be
00000090: a351 673b 6059 223e 4112 d73d bfe2 a53d
000000a0: c5e8 3f3d c71a b4bd 9e21 96bd 8984 943e
000000b0: 68e5 173e 1669 933e b516 863c 10a1 7cbc
000000c0: c3f5 dabb 5af4 da3d 4170 2dbe 8ea6 6ebe
000000d0: a70c aebc e290 283d e113 4d3d 30fb 81bd
000000e0: 46a5 88bd 0f9e 553e 0219 363e 3208 a13d
000000f0: daa2 d7bd 3626 1abe c515 da3d 32f5 14be
00000100: f2bd 5d3e 3cdd d23d f77a 0dbd c16b f73d
00000110: f3e8 093d 12b0 91bc 6446 8fbe ae53 213e
00000120: aa3b 313e 1014 683e 7f67 e93c 9f71 a7bd
00000130: 5190 2bbd f8f3 5cbe 2d01 4e3e 771e 85be
00000140: c9c1 123e b4cd dc3e 14ee fa3b d6aa c03d
00000150: 1f37 fe3d 2aa6 febb b20b 99be fb70 243e
00000160: 9de6 1a3e 0bcd 273e 8b4a 8ebc c133 053e
00000170: e0a1 353c 7581 36bd b73e e4bd a232 44bd
00000180: 5ea5 1a3d d709 2c3e 0e03 0b3e f7f2 993c
00000190: 1a8d 47bd e105 9fbd ac40 243e 6a1f 073c
000001a0: 3e9e 50b9 a7a3 6cbe 9569 80bd f69f 003e
000001b0: 11e5 98be bedc 0abe dbcb 403e 6df0 37bd
000001c0: 9b6f bfbc 631d 91be 7707 3cbd 0ebf e7bb
000001d0: a2d8 a23c 0e68 1fbe 5527 e63e 62ad 933d
000001e0: ac7a 373e b3f0 94bd 9841 3a3b 0165 0ebe
000001f0: bd31 623d 5446 793d b6ce b83d ff8c e839
