Audit-log_Analysis/code/GNN/training/checkpoint_graphSAGE/best_model_GraphSAGE_transE_150.pt (torch, 425857 bytes, 12 tensors)

sage.layer1.fc_pool.weight f4 [150, 150]
00000000: d7a1 20be d67e 9b3e 44c4 573e ec53 c63d
00000010: 7262 f53d 3b6d 263d 462c cbbe aa55 87bd
00000020: 8477 abbc 624c 84be 048b b9bb 4488 ef3d
00000030: ef23 90bd 6f17 abbe 21fa 42bd 3567 143d
00000040: 18ff 42be 1492 c9bb 18de 89bd e2ad 31be
00000050: bc8e 893e f42f b9be 9054 34bc 8958 b53d
00000060: 0d95 bdbe 114f 0b3e b5b0 943e c5f1 88bd
00000070: bf15 d0bd 6fb1 0d3d acd0 b7bd 968e 2a3e
00000080: ecf5 f3be f782 9e3d 562a 613d 336d 703b
00000090: 3b20 103e ba50 07be e99a 3b3e 90d1 0cbd
000000a0: e893 6b3a 593c 5b3e 8319 9d3d 3a51 8a3e
000000b0: b8a1 e73e d6af 7bbd e162 fabd 7bb1 dc3d
000000c0: e431 b5be 6a07 dabd 8d7f d03d 9d44 2a3e
000000d0: c8b8 bcbe 927c 523e ddd6 8e3e 77c1 873b
000000e0: 5720 7c3e 76d4 f23c 1009 393e e487 a3be
000000f0: 3238 8b3e 8dfa 783e 4328 513e 9d72 5b3e
00000100: 5320 2dbe 1d70 e53d 6162 f13c 49f8 4abe
00000110: 45f6 da3e e625 013f a088 b5bd 423f 79be
00000120: 6026 0fbb 9814 cabc d8e5 4e3e 90e3 883e
00000130: f2e0 43be 528b 4ebe ad47 033e 0040 b6bd
00000140: 79e2 15bd f2de a0bd c6b0 3e3e 73a5 12bd
00000150: 49b0 ca3e 608f ec3d 288c ea3e 83dd 7e3e
00000160: 1e5a c53e e0f0 8cbe 9be3 17bd a429 253e
00000170: b744 b1be b654 8f3e 9bf6 143d ff05 9f3e
00000180: e0ab 4abe 0962 6bbd 8b37 36bd 529f 58be
00000190: 1004 1cbe b355 a3be 767a 843d 8745 453d
000001a0: 0821 433d fb00 cdbd 03ee 0cbd eb01 953e
000001b0: cf46 2cbe de79 793d 4283 c13e 1bb8 d3bd
000001c0: de43 223c 723a 9a3e b8bf 7a3e b186 163e
000001d0: f056 893d bd31 96be b4c1 08bd 6917 88be
000001e0: eb29 a93e 8b89 883d a022 c73d f6d3 c4bb
000001f0: c46d 7bbe d88c 28be c2e1 cb3d 79a6 06bd
00000200: 3852 b13e ef5d e6bd 46ac 6f3e 4a9c 97be
00000210: a174 593d d43b cbbd 76b0 8bbd c1f7 afbd
00000220: ecd2 593e c986 1a3e 8c1e 083e a04d 393d
00000230: 4efe 803e ef54 47be dab5 243d 1aa1 93be
00000240: cd67 8abe 59a3 be3d 3478 d6bc dc7f abbe
00000250: 7457 2bbe b5cc f33c 4ab6 923d 3858 2a3e
00000260: e95d b43e caf7 1bbf 621f 06be 3346 a53e
00000270: 1259 e53e af64 843e e48e 263f 82cf 13be
00000280: baa5 013e 906a 993d 9205 8fbe dc71 c63e
00000290: 3322 2a3d 59c1 573d a7f1 ea3e 128e 81be
000002a0: ae37 313a ee31 9ebe b534 5c3e 2022 61be
000002b0: d9f3 b83c edaa c2be 550d 7e3e ad41 20be
000002c0: a011 38be a924 103e 5086 e9bd f23c 44be
000002d0: 7cde 263e 31e2 15be 9b7d c23e 6647 73bd
000002e0: 2145 9dbe 83d2 8bbe 5806 973d b520 a9bd
000002f0: 32e2 65bd 627d b43b 6b2e 0d3f 6c4f dbbe
00000300: 050b 933c 82bb eabd 0cd8 533f d090 903e
00000310: 3a93 603e c48d d9be e487 28bf e6c8 75be
00000320: f6b1 a9be 390b 70be 5da9 aa3e fe0d 8fbe
00000330: 42da 9dbd 12de d23e 2973 b83c 7093 63be
00000340: ab20 19bf 1db9 7c3e 82c5 2bbe 6429 d3bd
00000350: 23cd 7e3e deff cfbe 8340 d23b 8a62 5f3e
00000360: 588a c4bd fbb0 893e 42e3 bcbe 3892 68bc
00000370: f265 583e 28dc bfbe 0e63 ba3e 1fc4 86be
00000380: 398d 033e 1b9f 683d 5f65 b93e 1d05 9cbe
00000390: cb3b 61be b831 b93e 6972 123e b580 3c3d
000003a0: 0af8 2e3e 5280 b93e 5b20 943b cb41 cb3e
000003b0: a4f4 5ebe fa0f 0cb8 26e7 b8be 2363 9b3e
000003c0: d535 50bd f1ec adbe 90b5 2dbe 328d dbbe
000003d0: 91a7 1d3e 4305 6fbf ecef a4be aa9e 9c3e
000003e0: 2d1c 573d 9a85 533e 01d4 963d 4a18 47bf
000003f0: c033 673d 64dd bbbd 3948 5a3d ecd1 113f
-0.15686737 0.30370206 0.21070963 0.096839756 0.119816676 0.040631514 -0.39682215 -0.06608136
-0.020931013 -0.25839525 -0.005662324 0.116959125 -0.07038104 -0.33416316 -0.047601823 0.03623124
-0.19042623 -0.006151447 -0.06731814 -0.17351487 0.2686671 -0.36169398 -0.011006489 0.08854777
-0.3702778 0.1360438 0.29041067 -0.06686739 -0.10160398 0.034593042 -0.08975348 0.16655955
-0.4764856 0.07739823 0.054972015 0.0036686182 0.14074795 -0.13214388 0.18320812 -0.034379542
0.00089865783 0.2140974 0.076708816 0.27015096 0.4524057 -0.061446987 -0.12225891 0.10776039
-0.35389626 -0.10645945 0.101805784 0.16627736 -0.36859727 0.20555332 0.27898303 0.004142936
0.24621712 0.029642325 0.18069863 -0.31939614 0.2719131 0.24314328 0.20425515 0.2143044
-0.16906862 0.112030245 0.029465856 -0.19821276 0.42766014 0.50448453 -0.0886395 -0.24340537
-0.0021842942 -0.024668023 0.20204866 0.26736116 -0.19128779 -0.20170334 0.12820311 -0.08898926
-0.036592934 -0.078550234 0.18622121 -0.035802316 0.3958762 0.11550784 0.45810056 0.24889188
0.38545316 -0.27527523 -0.037082296 0.16129166 -0.34622738 0.27994317 0.036367994 0.31059262
-0.19792128 -0.05746654 -0.044486564 -0.21154526 -0.15235925 -0.3190132 0.0646867 0.04816201
0.047638923 -0.10009953 -0.034406673 0.29103026 -0.16823886 0.060907237 0.37795454 -0.1033785
0.009903876 0.30122715 0.24487197 0.14699818 0.06706035 -0.29334822 -0.033387855 -0.2658036
0.33039793 0.06666859 0.09723401 -0.006006713 -0.24553591 -0.16459978 0.09955169 -0.032873604
0.3463304 -0.11248385 0.23405561 -0.29611427 0.05308974 -0.09923521 -0.06820767 -0.08592177
0.21271867 0.15090479 0.13292903 0.045240045 0.2519402 -0.19465993 0.04021249 -0.28833848
-0.2703232 0.093085 -0.026180364 -0.33495986 -0.1673258 0.029760698 0.07163675 0.16635215
0.35227898 -0.6092497 -0.13097909 0.3228012 0.44794518 0.25858065 0.65061784 -0.14434627
0.12660876 0.07491028 -0.27933937 0.38758743 0.04153652 0.052674625 0.4588749 -0.25303704
0.0006760311 -0.30897468 0.21504481 -0.21985674 0.022577213 -0.3802103 0.24809773 -0.15650053
-0.17975473 0.14076485 -0.11402571 -0.19163874 0.16295809 -0.14637066 0.37986454 -0.059394263
-0.30716804 -0.27309045 0.07374257 -0.082581915 -0.05612392 0.005508111 0.55148953 -0.42834032
0.01794959 -0.114615455 0.82751536 0.28235483 0.21931162 -0.4249097 -0.6583235 -0.24002418
-0.33143586 -0.23441781 0.3333234 -0.27940363 -0.07707645 0.4118505 0.02251585 -0.22224212
-0.5981547 0.2467999 -0.16774562 -0.10310629 0.24882941 -0.406249 0.006416382 0.21814933
-0.095966995 0.26892838 -0.36892134 -0.0141950175 0.21132639 -0.37472653 0.36403698 -0.26321504
0.12846841 0.05679236 0.36210153 -0.3047265 -0.21995465 0.36170745 0.14301457 0.046021182
0.17086807 0.36230713 0.0045204586 0.39698634 -0.2177301 -3.339348e-05 -0.36113852 0.30349073
-0.05083259 -0.33969834 -0.16963792 -0.4288116 0.15395953 -0.93367404 -0.32214296 0.305898
0.052517105 0.20656434 0.07364655 -0.7777144 0.056445837 -0.09173086 0.053291533 0.5696094

sage.layer1.fc_pool.bias f4 [150]
00000000: b172 023c d20c 39bd f949 11bd 073d 013a
00000010: c8c5 ce3c 452d 9dbc e8c8 35bd 45f3 28bd
00000020: 83f2 e5ba 1dab 19bd 26e2 c63c e1a7 08bd
00000030: 5143 ebbc 9e23 fabb cd20 a53c 2873 a9bc
00000040: 0df0 c8bc 8afe e83c 3ac5 8abc a81f 523b
00000050: 56a2 0dbc 89d8 25bc 8543 4cbc ffb8 bdbc
00000060: b6ac 3bbb 9682 c5bc 5525 cbbc cb61 73bc
00000070: 3f12 4a3b 829d 2c3d e4f9 d7bb 1d4f 4cbc
00000080: 9263 08bc cac5 0b3c 7799 dcbc 4138 3b3d
00000090: aa75 3fbd e7b9 aa3d 45ab 92bb 6b0f 07bd
000000a0: 2215 8fbb d78c cd3c 9a17 0e3e 5f73 f3bc
000000b0: 5bbd 1cbd 986e 113c 76de b53c 605e 09bc
000000c0: 4436 e83d 5c98 d53b f9bd 33bc 2ea5 b23b
000000d0: e4eb 4a3c 6aae a1bb b8e4 90bc d1ce 40bc
000000e0: 741c 8dbc 0178 b3bc e6e5 8d3d 7653 96bc
000000f0: e296 7ebc e9d0 aa3d bab5 a2bd d2da efbc
00000100: f028 04bd cc31 0e3c 583c 01bd 72e4 28bc
00000110: a20e 0a3b 9248 87bd 22a1 343b e41e 06bd
00000120: b93b 153d 69ec 0cbd 6ff0 82bc f145 c43d
00000130: 417a 0cbd 4cd4 1d3d 7cc2 63bc eea4 4e3d
00000140: 12fe 2b3d 7635 4ebd a555 7dbc afe9 98bc
00000150: 6af6 1dba 994f dbbb e586 b9bb ee94 babc
00000160: 1542 d9bc b27c 893c f89e c1bc 22a7 32ba
00000170: d2a8 fbbb 400b 84bc 3f9d 973b 4200 8e3c
00000180: 72df 9a3d f67a 24bd 3524 19bd 85be 09bd
00000190: 831e c2bc 4c04 9b3b c9a3 003c 2a13 043d
000001a0: f627 1fbd 2896 02bd 3f63 c53b 64a4 06bd
000001b0: b30f b23b 1c08 28bd b06a 223d a9fe 29bc
000001c0: cbba 003e 1c8e 13bd 1e8c 8fbc 00a5 f5bc
000001d0: 4302 343c e54e fe3b 1322 00bd af00 cb3b
000001e0: 8595 a1bc d676 98bb 282e 53bb 4f47 273a
000001f0: 54ed 893c 29d5 0abd 807e 7abc ea38 f8bc
00000200: b3c2 22bc 8541 67bc 1c45 acbc 90e6 04bd
00000210: a5af 253d 7f9a b03b 3353 42bd 4501 c4bc
00000220: fd26 30bc 06c1 393c 83f6 b0bb 4f66 29bc
00000230: c3db b13c 8d52 993d 0422 1ebd b253 46bd
00000240: 7c57 9d3b 10b2 443c 2ee8 babb 8f28 96bc
00000250: 2429 2c3d a682 fabc
0.007961915 -0.045178242 -0.035470936 0.0004930053 0.025240794 -0.019186625 -0.044381052 -0.041247625
-0.0017543588 -0.037516702 0.024277758 -0.033363227 -0.028718622 -0.0076336404 0.020157242 -0.020684794
-0.024528528 0.028441686 -0.016939748 0.0032062326 -0.008644661 -0.010122427 -0.01246727 -0.023159502
-0.002863688 -0.02411012 -0.024798075 -0.014854859 0.003083363 0.0421424 -0.0065910686 -0.012470034
-0.008324521 0.008531043 -0.026928646 0.045707945 -0.046743073 0.08336239 -0.0044759833 -0.032973688
-0.004366533 0.025091572 0.13876191 -0.0297181 -0.03826652 0.008876465 0.022200804 -0.008384317
0.11338475 0.006518407 -0.010970586 0.00545182 0.012385342 -0.004934122 -0.017687187 -0.011768059
-0.017225482 -0.021907808 0.06928615 -0.018350344 -0.015538903 0.08340628 -0.07944818 -0.029279146
-0.032265604 0.008678865 -0.03155169 -0.010308372 0.002106585 -0.066056386 0.0027561863 -0.032744303
0.03643391 -0.034405146 -0.015983788 0.09583653 -0.034296278 0.03853254 -0.013901349 0.050450258
0.041990347 -0.050343953 -0.015462314 -0.018666117 -0.0006025793 -0.0066928384 -0.0056618326 -0.022776093
-0.026520768 0.016783092 -0.023635373 -0.0006815066 -0.007680037 -0.016118646 0.0046268995 0.017334107
0.0756215 -0.040156327 -0.037388045 -0.03362896 -0.02369619 0.004730737 0.007851549 0.03224484
-0.03885647 -0.03188148 0.006023794 -0.03287162 0.0054340004 -0.04102336 0.039652526 -0.010375657
0.12571256 -0.036024198 -0.017522868 -0.029985905 0.010986867 0.00776087 -0.031282496 0.00619515
-0.019724617 -0.004652838 -0.0032223556 0.000638117 0.0168368 -0.03389469 -0.015288949 -0.030300576
-0.009934115 -0.014114742 -0.021029048 -0.032446444 0.04045071 0.005389511 -0.047442626 -0.023926387
-0.010751483 0.011337524 -0.0054004802 -0.010339334 0.021711236 0.074864484 -0.03860666 -0.04841966
0.0048016887 0.012005344 -0.0057039475 -0.018329887 0.042031422 -0.030579876

sage.layer1.fc_neigh.weight f4 [64, 150]
00000000: ff88 17be 9884 723e 9d65 b13c ea14 f83d
00000010: 04b4 8ebe ced4 e4be b24c 8fbd 51e3 83bd
00000020: 6a84 363e 06c3 e03e acbf d13e f2f1 87be
00000030: 91ee 103f 3f30 623e 4bf4 f93b accb b53c
00000040: 91c0 ecbd 9adf 133e 8996 3fbf 2601 0dbf
00000050: 758f 4d3e 310d 88be 2c11 bf3e 4084 7e3e
00000060: 3b7c 8c3e e544 85be b75e c8bc 7b6d 99be
00000070: 9674 b33e 8c24 183e 8425 cbbe fee8 bfbd
00000080: 4897 d9bd 26d9 e1be 5a99 2cbf 7260 0e3e
00000090: 8c78 593d 4c9c 003d 639f 513e 672c 123d
000000a0: 7b2e 1fbf 72ef 48be 4f5f 743e 7e14 3ebe
000000b0: 58dc 8cbe 965a be3d 7c18 773e d74c 9b3e
000000c0: 0c2c b5bd 75f7 cdbd 30fd aa3e 5917 a63e
000000d0: 10d8 093d a1bd 343f e4eb bb3d 27e7 f4be
000000e0: 83e2 5bbe 7db6 1abe 57d1 0cbc fba3 4b3d
000000f0: 9fd7 b43e 1477 e33d 257d 0ebd 342e 933d
00000100: 5a9a cfbe d3fc 9bbe 8ce7 0c3e 3b15 4e3c
00000110: 55cd a73d 7f79 ce3d f596 8dbe 94d2 963f
00000120: cb73 67be c646 f2be c110 e53d 1e28 fe3d
00000130: 902f 8ebd f84e 983d a491 a7be 5236 f33d
00000140: 638e b8bd 2d37 44be e9c2 5c3f a61c 52be
00000150: dfe8 c0be ca89 82bd 6c24 2abe 7f88 153d
00000160: 09cd 3d3c 6bee 38bd bdb5 49be 5cff b1bd
00000170: 0b1d 9cbe 05af e1bd 42e1 5ebe d5d6 8bbe
00000180: 959b e3bd e343 113f 2aeb b6bd f8dc 113f
00000190: 6972 563f fd56 bd3d 2f8f 4e3e c22e 1c3d
000001a0: d0a3 0dbe 3d40 92bd 65e9 23be 1155 e1bc
000001b0: ef2d da3c 1276 f6bd 692f 35bd 9a88 66be
000001c0: cb1d 5f3e fe6a 353d 9550 0cbf 7d65 7b3f
000001d0: 9809 9f3e 5ca3 0abf 1a5c a83e 6d16 35be
000001e0: da57 80be 01ce 6a3f 74e3 0dbe fff0 91be
000001f0: 4fad 4bbe d253 e5bd 99da 3ebf 22a7 933d
00000200: 17a5 75bc d536 4fbe 5a1d dbbc e3aa 9a3c
00000210: 992e 46be cd71 ef3d 6769 413f 57c8 d13e
00000220: 47f4 f3be 0cd6 903e 8804 6d3e 52c2 253e
00000230: 5f79 97be 977c bfbc edc1 c53e 830e f93e
00000240: 6844 f43e aebf 1c3e b159 e3bd b849 c8bd
00000250: e3df 9dbd ed81 8f3e 0f7e 33bd da6d 09bf
00000260: 7c64 c1bd 5b30 6ebe 4676 993d 82da 0fbe
00000270: 2bff c93d 9294 8b3d 4799 9bbc 378f 6b3c
00000280: fe49 36bf 14da 433b de59 d4bc 6367 58be
00000290: c4e2 5fbe 2132 4fbe 08a7 69bd f603 903d
000002a0: 1a3a 703e becb 843e b1a0 f3bd 5077 69bd
000002b0: b0ea 8cbc d316 73bc e23d ebbe 23d2 80bd
000002c0: 1b34 06bc a30b 543e dedd da3d 108d e0bd
000002d0: c922 363d 0c95 d7be 8cb0 22be d4fb 5ebd
000002e0: fd91 443d 98e6 c7bc 9420 173e 97ec a0bd
000002f0: 9385 903d acc9 0fbd 9ddf 033d fc6f a5be
00000300: 3d77 35be 0809 68be da16 e03d 166e d03c
00000310: d514 d63d b2c3 193c 4427 dbbd 3cbe 51be
00000320: 6d50 5ebc db11 9abe d6e4 72bd 6548 9fbd
00000330: 704e b1bd 83cc fd3d fb5c 713d 4a78 57bb
00000340: 379b a8bd 5a20 103e a521 76bf 7ea1 29bd
00000350: cbca 793d ff0e da3d b06d 10be 1285 adbc
00000360: 7096 90be 1a42 433d 44d3 47be 2f63 9bbf
00000370: c3ad 2fbe 819b 863f 7532 79be 8d65 543e
00000380: 5ffe 07bb 2b73 20be 93cf 26be eeb2 94bd
00000390: 60f1 38be 24fc bdbe f71f a83b 16a2 2abf
000003a0: 1930 1dbf 0ffd 873c 64b7 4abe 76f6 41bd
000003b0: 9d1d 963d c37f fb3d 9fc6 dfbd 979f 213d
000003c0: fb08 e7bc 83cb d8bd f6d9 8c3d 87d3 cd3c
000003d0: 09b0 27bf 2a1b 40be a717 91be 8f75 a3be
000003e0: 3135 64be 037c 26be cc01 943e ede3 e63c
000003f0: 7e19 a8be 924a 6cbd 501d 6dbe bf55 cebd
-0.14798354 0.23683393 0.021654898 0.12113364 -0.27871716 -0.44693607 -0.0699705 -0.064398415
0.1782395 0.4389879 0.40966547 -0.26551777 0.56614023 0.22088717 0.007627999 0.022191845
-0.115601666 0.14440766 -0.74839073 -0.5507988 0.20074256 -0.26572564 0.3731779 0.24855137
0.2743853 -0.26029125 -0.024459226 -0.2996634 0.35049886 0.14857692 -0.3967706 -0.093706116
-0.10624558 -0.44110984 -0.67421496 0.13903978 0.053093478 0.031399056 0.20470957 0.035686877
-0.621803 -0.19622591 0.23864482 -0.18562505 -0.2751186 0.09294622 0.24130434 0.30332062
-0.08846292 -0.10056964 0.33396292 0.32439688 0.03365332 0.7060185 0.09175852 -0.47832605
-0.21473126 -0.15108676 -0.008594832 0.04971693 0.35320756 0.11106697 -0.034787316 0.07186547
-0.40547448 -0.30466327 0.13760203 0.012578304 0.08193461 0.10081767 -0.27654234 1.1783013
-0.22602765 -0.4731962 0.11184836 0.124099955 -0.069426656 0.07436937 -0.32728302 0.11875595
-0.09011533 -0.19161673 0.8623491 -0.20518741 -0.37677667 -0.063739374 -0.16615456 0.036507126
0.011584529 -0.045149248 -0.19698234 -0.08691284 -0.30490908 -0.110197105 -0.21765617 -0.2731234
-0.11113659 0.5674421 -0.08931573 0.56977797 0.83768326 0.09245107 0.20171808 0.03813053
-0.13832021 -0.07141159 -0.16007002 -0.027506383 0.026633231 -0.12034239 -0.044234667 -0.22513047
0.21788709 0.04429149 -0.5481046 0.98201734 0.31062007 -0.54155517 0.32882768 -0.17684336
-0.25067025 0.91720587 -0.13856298 -0.28504178 -0.1989033 -0.11197628 -0.74552304 0.072096124
-0.014992974 -0.2023576 -0.026747394 0.018880313 -0.19353713 0.11691628 0.75551456 0.4097316
-0.47647306 0.28288305 0.2314626 0.16187409 -0.29584786 -0.023374839 0.38624516 0.48643884
0.4770844 0.15307495 -0.11101092 -0.09779686 -0.07708719 0.28028813 -0.04382139 -0.53683245
-0.09442994 -0.23260634 0.07493262 -0.14048198 0.098631226 0.06815447 -0.018993987 0.014377407
-0.71206653 0.0029884623 -0.025921758 -0.21133189 -0.21863848 -0.20233966 -0.05704406 0.070320055
0.23459664 0.25936693 -0.11895884 -0.05699855 -0.017201751 -0.014836985 -0.4594565 -0.062900804
-0.008191134 0.20707564 0.10686849 -0.109644055 0.044466767 -0.421059 -0.1588766 -0.05443938
0.047990788 -0.024401948 0.14758521 -0.07857626 0.07056727 -0.03510444 0.032195676 -0.32312
-0.17721267 -0.22659695 0.109418586 0.025443118 0.10453192 0.009385036 -0.10700849 -0.20482725
-0.01356898 -0.30091748 -0.059300266 -0.0777748 -0.08657539 0.12392523 0.058926564 -0.0032878094
-0.0823273 0.14074841 -0.9614509 -0.041413777 0.060984414 0.106473915 -0.14104342 -0.021181617
-0.28239775 0.04767046 -0.19514185 -1.2139643 -0.17156129 1.0516206 -0.24335654 0.20741864
-0.0020750982 -0.15668933 -0.16290121 -0.07260691 -0.18060827 -0.3710643 0.0051307636 -0.66653574
-0.61401516 0.01660016 -0.1979652 -0.047354184 0.07329867 0.12280228 -0.10926556 0.039458837
-0.028202524 -0.10585692 0.0687751 0.025125278 -0.65502983 -0.18760362 -0.28338358 -0.31925628
-0.22285916 -0.16258244 0.2890762 0.028184855 -0.3283195 -0.057688303 -0.23155713 -0.100749485

sage.layer1.fc_self.weight f4 [64, 150]
00000000: c595 7b3f 11b7 b3be 9cb0 0a3f 628a 08bf
00000010: 6ab8 4bbe 9e25 113f 0c26 3e3e 31c6 8abe
00000020: fd41 123f 0f32 a93e f49d 89be 7b2c d2be
00000030: d54c 41bf 2483 aabb c84d 6c3b f132 f03e
00000040: 7a19 6b3f 8d9b e4bd f47a 983b bf02 17bf
00000050: 4077 0dbd ec84 ccbd 2718 0abf b17c 82be
00000060: 696b 85be 2b60 3a3e 4b8e 2abe 915c 6b3e
00000070: 0dae f5bd f616 13bd d568 513d 617d 633f
00000080: d944 073f cbae fdbe 0b21 1fbf b500 403b
00000090: 7c27 29bf 3efb 803e b39b 2d3f 4d1e f8be
000000a0: 1f5b dabe c812 83be ff64 ae3e bc76 223f
000000b0: 78ab 563e 1189 82bf 82b7 023f f5bf ccbd
000000c0: 70f0 06bc c4f2 823f 773e aebf 59ef f83e
000000d0: 93a0 c03e 8736 18bf 70ab acbe efe5 09bf
000000e0: d991 b53f f58d 06bf 5dec 183e bce9 8e3e
000000f0: 4771 e2be 999b e9bd 6876 96be 3a49 af3b
00000100: 90a4 753e 80d2 443f beb9 1b3f 618a 18be
00000110: 2064 12bf 1eda f3bb b366 5abe 347b b23e
00000120: 3302 63be 0c4e 7b3c 01c5 e63e 8113 51bf
00000130: b2bf cd3e 2a23 1c3e 4784 55bf 8bf6 263f
00000140: a2f3 e5bc 23f6 703f 9d84 483f 6e2b 0ebe
00000150: 8917 de3e 7abd bcbf 4d94 46bd a433 a53e
00000160: 8d9f 49be 4cdf 933e 146c 8cbe 7a12 a1be
00000170: ef33 6f3f 5855 30bf 83b7 1d3f b298 773d
00000180: 1d6e 343e 40ad a83e 563c 6abe 61a1 6abe
00000190: 3d7b 04be 4469 103f 1049 14bf 0fad 29bd
000001a0: cd00 833c 85b2 bdbe 24bc 6a3f fc74 b63e
000001b0: a1a0 19bc 7d79 96be 9527 cdbe ee65 1e3e
000001c0: 43b2 1fbe 2950 84bf 3809 523e 4586 47be
000001d0: 065c 0a3f 4b82 d0bd 5d03 83be e819 eabe
000001e0: e1bf 4fbf 66ec 173f ec86 80be a589 9cbe
000001f0: 2044 dfbd 4064 26bf 4c73 d8be 2812 753e
00000200: 8586 87ba 28fe c43e 7cc2 26bc 835f 30be
00000210: 5c50 44be 0666 71be dcdf 003e 62d2 853e
00000220: cb54 e3be 28de 0abf d9dc 5bbe 3706 b8be
00000230: d1b3 b73e 29cd 23be 4fa9 47bf be06 16bf
00000240: 9d68 f4be 0443 92bd 62d3 d5be 690d 253f
00000250: 02df 6dbf 6e17 e83c db38 e2bd 00f7 9b3e
00000260: 0621 bb3e b2af 693d 0f86 9abe 3dcd 56be
00000270: 5ff4 1ebe 3620 17bf f98b ebbd cde6 023e
00000280: 2d8e 1e3e cb17 223f 8b5e 7b3d 1ba6 b0be
00000290: 576a d13e 86d9 f9bd b96f a0be b4c7 4bbe
000002a0: 840a 553f 3e18 3cbe 6d39 5cbe 4728 253d
000002b0: 8fa1 0b3f 6a88 3b3e af6d 24bf e121 0b3f
000002c0: 8feb 983e ac17 90be c868 6fbe 7b14 583d
000002d0: 1376 0cbf 9a2b ec3e 013d f8be c950 bb3e
000002e0: 7fc7 6bbe 2f50 f2ba d819 693c c9a8 6d3e
000002f0: 3f28 463f 65cd dd3c b824 73bd c6ea f93e
00000300: 0fb9 80bd ea1c 58be b9c2 ff3e 8aa5 47bf
00000310: 2ad1 0abf 2f52 83bd cd04 4d3d f209 abbe
00000320: 265d 603e 3912 f03e ba0b afbe e8d9 1f3e
00000330: 896b a93c 6f37 373f 02c1 00bf 95bc 6fbe
00000340: f3e8 133f 1ea7 9cbe 53ea d83d 4d2c 8c3e
00000350: 939d 293e 1056 5f3e 38e1 223e 1f5f 963e
00000360: 97b4 ba3e 303d 2e3e 46c2 cc3e cf10 363f
00000370: 9125 f9be 5e97 e9be f813 4e3c 1b47 953e
00000380: 8acd 7b3e ae0b ca3e 30e8 7bbc 1e9e debc
00000390: 5431 c43e 6f48 ed3e 636a 50bd dd5b f5be
000003a0: d366 5e3e 8aa9 e2be cb54 d43e 5f19 693e
000003b0: b724 823e 40ce 8e3e b090 c13e 5afa d7be
000003c0: 6cdf 013e 58b9 a63e dff9 d1be bd78 9a3e
000003d0: edeb be3c 6eb8 bdbe 0b70 f6be 67e1 3fbe
000003e0: f08b 003e 63e3 edbc 0b99 91be 5674 9fbe
000003f0: e058 c3bb 2c7b 17be 11ae 4d3f 385c acbe
0.98275405 -0.35100606 0.54175735 -0.53336155 -0.19894567 0.56698024 0.18569201 -0.27104333
0.5713194 0.33046004 -0.2687832 -0.4104956 -0.7550786 -0.0052036215 0.0036057103 0.46913865
0.9183575 -0.111624815 0.004653329 -0.58988565 -0.034537554 -0.0998629 -0.53943104 -0.25485757
-0.2605851 0.18200748 -0.16655843 0.2298453 -0.11996088 -0.03591057 0.051125366 0.8886319
0.5283943 -0.4954742 -0.62159795 0.0029297296 -0.66075873 0.25191683 0.67815703 -0.48460618
-0.42647645 -0.25600266 0.3406143 0.63462424 0.20963848 -1.0198079 0.5106126 -0.099975504
-0.008236036 1.0230336 -1.3612813 0.48620108 0.37622508 -0.594582 -0.33724546 -0.53866476
1.4185134 -0.5256036 0.14933915 0.279127 -0.4422705 -0.11406631 -0.29387212 0.0053493055
0.23988557 0.768837 0.60830295 -0.14896537 -0.5718403 -0.007441773 -0.21328239 0.34859622
-0.22168808 0.015338432 0.45072177 -0.81670386 0.40185314 0.15247789 -0.83404964 0.65219945
-0.028070275 0.94125575 0.7832735 -0.13883755 0.4337733 -1.4745324 -0.048481274 0.3226596
-0.1968977 0.288813 -0.27426207 -0.3145941 0.9343862 -0.68880224 0.6160814 0.060448356
0.1762013 0.3294468 -0.22874579 -0.22913124 -0.12937637 0.5641062 -0.57923985 -0.041424807
0.015991593 -0.37050262 0.9169333 0.35636127 -0.009376676 -0.29389563 -0.4006926 0.1546857
-0.15595345 -1.0336963 0.20511329 -0.19484814 0.54046667 -0.101811014 -0.25588503 -0.4572289
-0.8115216 0.5934509 -0.25102937 -0.30573764 -0.10901666 -0.6499672 -0.42275465 0.23932707
-0.0010339773 0.38475156 -0.010178205 -0.17223935 -0.1917128 -0.23574075 0.12585396 0.26137072
-0.4440063 -0.54245234 -0.21470965 -0.35942242 0.35879377 -0.15996231 -0.7799272 -0.5860404
-0.47736064 -0.071416885 -0.41762835 0.6447359 -0.9291841 0.028331485 -0.110460006 0.30461884
0.36548632 0.05705232 -0.30180404 -0.2097673 -0.15522908 -0.59033525 -0.11501307 0.12783356
0.15483923 0.63317555 0.06136946 -0.34501728 0.40901443 -0.121996924 -0.31335238 -0.199004
0.8321917 -0.18368623 -0.21506281 0.040321615 0.54543394 0.18313757 -0.64229864 0.5434857
0.29867217 -0.2814306 -0.23379815 0.052753907 -0.54867667 0.46127015 -0.48484042 0.36585072
-0.2302532 -0.0018487031 0.014227353 0.23208918 0.7740516 0.027075479 -0.05936119 0.4881193
-0.06285297 -0.2110478 0.4995325 -0.7798697 -0.5422541 -0.0641216 0.050053407 -0.33406025
0.21910533 0.46888903 -0.34188634 0.15610468 0.02068116 0.7156896 -0.50294507 -0.23411782
0.5777733 -0.3059625 0.10591569 0.2737755 0.16564016 0.21810174 0.15906227 0.29369447
0.36465904 0.17015529 0.3999197 0.711194 -0.48661473 -0.45623296 0.012578003 0.29155812
0.24590126 0.39462036 -0.015375182 -0.027175006 0.38318884 0.46344325 -0.05088271 -0.4792165
0.21718912 -0.44269973 0.41470942 0.22763585 0.25418636 0.2789173 0.378057 -0.4218319
0.12682885 0.3256328 -0.4101095 0.3017024 0.023305858 -0.3705477 -0.48132357 -0.18738328
0.12553382 -0.02903909 -0.28437075 -0.31143445 -0.0059615225 -0.1479308 0.8034373 -0.33664107

sage.layer1.fc_self.bias f4 [64]
00000000: be3c 93bb 9b0e c83d c027 3ebd ab3c d2bc
00000010: 3724 6abd af55 843d 8054 5c3c e242 22bc
00000020: ce54 cdbc 38dc dcbc 900a 8d3d 3f37 0a3c
00000030: f43f aebd 1a02 a8bc c39c 023d 691e 71bd
00000040: 99a7 22bd a782 b5bc 84fb b03b fc80 d3bc
00000050: 3104 873c f07a 3dbc 8944 2dbd 25e2 913d
00000060: f01a 313d 8d72 893d cdbc 483b e127 ddbc
00000070: 48c6 a83d 7137 153d 7d22 393d e217 80bb
00000080: dfa8 09bd 29f4 88bd 9438 92bc 6013 2abd
00000090: 510a e7bc 478f 09bc eec7 3fbd 509d 08bd
000000a0: a114 053d e5cc 5cbd c3f8 5abd f662 b83c
000000b0: 3e60 e6bc 6124 323d 86b0 993d b34f 93bc
000000c0: 2805 e9bb 7733 a9bc 18c4 d8bb 15e4 12bd
000000d0: 2f01 06bd 4e64 8f3b b632 bfbc 48dd 93bc
000000e0: 9943 c4bc 391e 973d 1ea3 b0bc c8d4 3cbd
000000f0: c91c 1bbd 0d40 0b3c a302 d2bc 6241 963d
-0.004493325 0.09768411 -0.046424627 -0.025663694 -0.057163443 0.06461655 0.013447881 -0.009903641
-0.025064852 -0.026960477 0.0688678 0.008436023 -0.08508292 -0.020508815 0.03188778 -0.058866892
-0.039710615 -0.022157026 0.0054010767 -0.02581834 0.01648149 -0.011564955 -0.04230169 0.07123212
0.04323858 0.06711302 0.0030630112 -0.026996555 0.08240944 0.036429826 0.045198906 -0.003909097
-0.033608314 -0.06687195 -0.017849244 -0.041522384 -0.028203161 -0.008395976 -0.046821527 -0.03335315
0.032490376 -0.05390634 -0.053459894 0.022508126 -0.028122064 0.043491725 0.07504372 -0.01798234
-0.0071112104 -0.020654423 -0.006615173 -0.035862047 -0.032715973 0.004375971 -0.02333961 -0.018049851
-0.023958014 0.073788114 -0.021562155 -0.04610136 -0.03786925 0.008499158 -0.025636023 0.073366895

sage.layer2.fc_pool.weight f4 [64, 64]
00000000: fc37 60bc fc37 1bbe ac92 3f3e c549 993e
00000010: 944e f73e 31b1 f2bc 3164 3f3e 079f 4d3d
00000020: 7024 2c3e 1fdb 073f 89dd 9fbe ff23 c1bb
00000030: 19c0 343f 85a5 923e 5c26 4cbe 425f d43e
00000040: 864c 773d 88dc bdbb cbdc b73d c2da 403e
00000050: 4364 093e 3f56 ebbd b0ed b93e 2c4b 59be
00000060: f875 10bf 6c46 c2bc 3beb 1c3e 6b5b 6c3e
00000070: b647 b4bd 0453 723e 3ceb ccbe 1f54 9c3c
00000080: 877c b13e 626f 153f 3205 d93d d31b 9f3e
00000090: 9de9 723e 1d2d 843e e827 9a3e adff d53e
000000a0: 2ed8 523c 3f6c 963e 7623 be3e 24f7 613d
000000b0: ae8f f23d 6e49 abbe dc14 ccbe 49bb 953c
000000c0: 0161 573d e2e6 253e 79ab 403e 773b ce3e
000000d0: b190 753e db1e 68bd f70b 933e a201 a93c
000000e0: b4b0 573e a399 32bf a5b8 913e 2896 253e
000000f0: a468 0d3e c350 da3d 8542 693e e6da 30bd
00000100: 86f0 3d3e 16de 8abf dd6e 1cbb aa7e 503d
00000110: eb16 e03d 569a 98bf 9fcb 793d b26e 21be
00000120: d02b bb3d e3a7 4cbe a609 99bf 1810 57be
00000130: c864 fb3d 12b4 61be d6a3 0ebd a2c5 0ebd
00000140: 2fff 173e 6005 b83c e04a 233e a817 56be
00000150: a96f d9be ef76 6b3e b089 da3d 3206 a6bf
00000160: e612 02bf ebd4 afbe fa98 bf3d 827e 5abe
00000170: 8b1a 05bf b7f9 eebd d2b3 8cbe f53a c43c
00000180: a488 043e 06a0 693e d2ea 033b 0f52 803a
00000190: cb2c 053e 913f 5fbd c517 28be d0b8 47be
000001a0: 3794 8bbe c25f c33c 61d0 97be 4150 80bf
000001b0: 9f12 4d3e 365f 313e ad02 34bf 7579 f03d
000001c0: 45f5 123e 6d78 4cbd 9135 dcbd b916 30be
000001d0: 20b0 303d f81d b13d 1aed afbe 5519 cfbc
000001e0: 7814 62bd 8f5f 95bf 22a9 1ebe 62a8 633e
000001f0: cff2 d63c 9e25 9ebc 643d 423d c708 bcbf
00000200: ae28 a03d 63cb 8c3d 9999 6d3d 521f 633d
00000210: 7510 f8bc 6c61 23ba cf6d 6bbe 5eb3 18be
00000220: ca42 bebd 2f53 11be e1d3 943d 6334 533e
00000230: e1eb 91be 4a46 643d 5432 3cbe 8b60 67bd
00000240: c63f 383e 2fd0 76be f4d8 56bd 321f f4bd
00000250: 3ed2 7ebe 7202 e6bc 2044 66bd a60c f93d
00000260: c5d5 423d 1206 9b3d 4673 18be 6a0f 723b
00000270: 54f2 cfbd 5b94 27bd 3669 cb3d 160d 9bbd
00000280: 39db c93c 7ad3 653e 01b5 043e 0dc5 2bbe
00000290: 295e aa3e ebb7 c3bd 2923 ccbd d265 ae3e
000002a0: ef95 a13d 021f a1bd 3caf ac3e 57d5 c4bd
000002b0: 8f19 9b3e ee97 afbd 2e62 8f3c d44c 9b3e
000002c0: 5c0f b8bc e38d 42be b8b1 053b 08fe c4bd
000002d0: 8e49 323d 8e54 06be 1203 903e 762c b2bd
000002e0: 11eb 00be a61d 2c3d d26b 803e d18d 3dbe
000002f0: fd92 ca3d 3354 803e e808 a43e ac73 02bd
00000300: af3d 77bc 75aa 953e da0a babe 204c e5be
00000310: 07f5 a5be bf52 8e3e cd62 513e 49c4 a3bd
00000320: 9f90 113d b762 37be e818 b73e 3fb1 eabd
00000330: dfe1 5abf ac5f 57be f18c 323c 6557 f8be
00000340: 7ccc 16be 99bf 57be 02f3 2abe c8a2 cdbe
00000350: ab54 383e ebea 0d3e 95da b8be eb20 b03e
00000360: 4a90 6fbc 2001 d2bc 825d 533e 6cce 40bc
00000370: 264e bf3e d997 8e3d c8eb 8ebc 0fb8 1e3d
00000380: d0be 7fbe 287d e8be d3ef 7d3d 6aa2 b7be
00000390: db55 c6be 7486 35be 7b37 e6be 7bbe eebe
000003a0: 6fc4 0b3e 9906 61be c6b1 88be 6d71 133e
000003b0: 19ed 20be 2563 8e3d 8d0c a4bd fb20 18be
000003c0: ca4d 7fbd c337 76be 53bf af3a 1ec7 cbbd
000003d0: 67ae 14bf 3c9e 7e3d 93b3 aebe 2cd0 11bd
000003e0: 17e1 a3be a16c d83e 412e 903d ce8f 10bf
000003f0: 23b5 1f3d 5fea 8d3e 7fcc 30bc 96ce 873e
-0.013685223 -0.15158075 0.18708295 0.29939094 0.48302138 -0.029625507 0.18690564 0.05020049
0.16810775 0.5306873 -0.31223705 -0.0058941836 0.7060562 0.28641906 -0.19936508 0.41478926
0.060375713 -0.0057941116 0.0897766 0.1883345 0.13417153 -0.114910595 0.36314154 -0.21220082
-0.56430006 -0.02371522 0.15324108 0.23081748 -0.0880274 0.2366448 -0.4002322 0.01908308
0.3466532 0.5837308 0.10596694 0.31075916 0.23721929 0.2581567 0.3010857 0.41796628
0.012868924 0.2937946 0.3713643 0.055167332 0.11843811 -0.3345446 -0.39859664 0.018277781
0.052582745 0.16201356 0.18815412 0.40279743 0.23980977 -0.05667005 0.28720066 0.020630661
0.210635 -0.6976568 0.28461185 0.16170561 0.13809448 0.10659935 0.22779281 -0.043177508
0.18548784 -1.0849025 -0.002386979 0.050902046 0.10941871 -1.19221 0.060985204 -0.15764883
0.09139216 -0.19985919 -1.195607 -0.21002233 0.12275082 -0.22041348 -0.034824215 -0.034856446
0.14843439 0.0224635 0.15946531 -0.20907462 -0.42468002 0.22994588 0.10670793 -1.2970641
-0.50810087 -0.3434213 0.0935535 -0.21337321 -0.51993626 -0.11668723 -0.27480942 0.023953894
0.1294275 0.2281495 0.0020128977 0.000979008 0.13005368 -0.05450398 -0.16415317 -0.19504094
-0.27261516 0.023849372 -0.29651168 -1.0024492 0.20026635 0.17321476 -0.7031658 0.11741916
0.14351375 -0.049919534 -0.107524045 -0.17196168 0.043136716 0.08648294 -0.34360582 -0.025280634
-0.0551953 -1.1669787 -0.15494207 0.22232202 0.026238827 -0.019305047 0.047421828 -1.4690179
0.07820259 0.068747304 0.05800781 0.05544979 -0.030281285 -0.00062324735 -0.22991107 -0.14912173
-0.09290083 -0.14191888 0.07266975 0.20625453 -0.28500274 0.055731095 -0.18378574 -0.056488555
0.17993078 -0.24102853 -0.052452996 -0.119200125 -0.24884889 -0.028077338 -0.056217313 0.121606156
0.047567148 0.07569517 -0.14887723 0.0036935457 -0.10153642 -0.040912967 0.09932177 -0.07570855
0.024640666 0.22443953 0.12959673 -0.16774388 0.33274963 -0.09556564 -0.09967644 0.34062058
0.07889926 -0.078672424 0.33727443 -0.09611004 0.30292937 -0.085739 0.01750287 0.30332053
-0.022468261 -0.18999438 0.0020400118 -0.09618765 0.04352718 -0.13118193 0.28127342 -0.086998865
-0.1258967 0.042020462 0.2508226 -0.1851113 0.09891317 0.2506424 0.32038045 -0.031848595
-0.01509039 0.2923161 -0.36336404 -0.4478464 -0.32413504 0.27797505 0.20447846 -0.07996423
0.035538312 -0.1790875 0.3576119 -0.11459588 -0.855009 -0.2103259 0.010897861 -0.48504177
-0.14726442 -0.21069182 -0.16694263 -0.40163255 0.18001048 0.13859145 -0.36104265 0.34400114
-0.014621804 -0.025635302 0.20641139 -0.011767965 0.3736431 0.069625564 -0.017446414 0.03874975
-0.24975133 -0.45407987 0.061996292 -0.358661 -0.38737378 -0.17727071 -0.44964203 -0.466297
0.13649152 -0.21975173 -0.2669813 0.14398737 -0.15715446 0.06952504 -0.08010206 -0.14856331
-0.062330045 -0.24044709 0.001340846 -0.09950088 -0.58078617 0.062162623 -0.3412138 -0.03559892
-0.32007667 0.42270377 0.07040072 -0.5646943 0.038991105 0.27717873 -0.010790943 0.265248

sage.layer2.fc_pool.bias f4 [64]
00000000: 0cd9 36be 3aa6 053e 1dec 833c cb4b f13d
00000010: 00fa c3bc da92 fd3d 2cf8 cf3d 4e2c 843d
00000020: 4896 27bd 1309 ae3c db06 fdbc 7965 4d3d
00000030: 5996 253e 223f 0d3d c128 523e a656 c23d
00000040: 4e84 b33b 07a5 893d 813d ef3d 4437 e43d
00000050: 17e9 a43b 908e d03c 0df9 5dbd ebcb 363c
00000060: e204 293d f788 9f3d cf88 4f3e 2db5 1f3e
00000070: 573e 3d3c 425b 08be 154a 893c 3320 153e
00000080: 2f24 d33d b52f 103e c608 8f3d c121 023d
00000090: ae10 433d c1dd 893d e937 e83d c8b8 cf3d
000000a0: 67b0 993d 6a65 113d 9206 703e f273 62bb
000000b0: b458 013e d7c7 d73d 9c99 e93b 9fb5 643d
000000c0: c8dc df3d 15d2 403c 84c5 4a3d 696d 6b3e
000000d0: 66fd 2d3e c549 c53d f943 3b3d 750f 413d
000000e0: f295 cb3d f66d 933d 0822 393c 6632 003e
000000f0: 89f5 383c 30d3 f0bd 4434 723c f9f5 113d
-0.17856234 0.13051692 0.016103799 0.117820345 -0.02392292 0.12381525 0.10154757 0.06453763
-0.040914804 0.021244561 -0.030887058 0.0501456 0.16170634 0.034484036 0.20523359 0.09489183
0.0054784184 0.067209296 0.11681653 0.111433536 0.0050326693 0.025458604 -0.05419259 0.011157016
0.041264422 0.07789796 0.20267032 0.15596457 0.0115505075 -0.13316062 0.016758958 0.14563064
0.10309636 0.14080699 0.06984095 0.03177047 0.04762333 0.06731749 0.11338789 0.10142666
0.07504349 0.035497107 0.23440006 -0.0034553972 0.12631494 0.10536163 0.0071289074 0.05583727
0.109307826 0.011768837 0.04950477 0.22990955 0.16991195 0.09633211 0.04571912 0.04713388
0.09940709 0.07198708 0.011299618 0.12519225 0.011289009 -0.11759031 0.014782969 0.03563497

sage.layer2.fc_neigh.weight f4 [128, 64]
00000000: e659 343d 868b 90bb 63a5 2a3e 20e1 54be
00000010: 6004 ac3d b175 b7bd 3451 0d3e 26bd 78be
00000020: 7bc8 4f3d 415d b33d 8eea 003e ff7b c7bc
00000030: c732 923e 8b29 da3d 8dcf 0e3e 19b5 a0bd
00000040: f2d4 ed3d 46f1 33be a324 b33d 30bb b03d
00000050: d4cd 4bbe e2aa 663e 8148 1f3e dde8 7d3d
00000060: 1bd0 153e 6938 a53e ad5c bebe cf9f 96be
00000070: 7584 b9bd 555e 8b3d fa5a 4f3e e9e6 cbbe
00000080: c7e3 293e 2158 b0bd b7e9 51bd c8f8 9b3e
00000090: a066 e13e 1417 b63e 09d3 f2bc 2865 20bc
000000a0: 325e 18bf 8fcf e63c 94fa cb3d ad68 b5bd
000000b0: 457e 4cbe 3a98 103e de41 b33d 85cf 8abe
000000c0: 811e ca3c 6258 953c 4476 d63d 0428 133d
000000d0: 692c e43d 7109 b13d d50c a4bd a1d3 00be
000000e0: 2310 933e 4fba 6b3e 7984 653e 6ce9 efbd
000000f0: 7926 ed3c ad24 c13d 1ea7 813d 56ec 10bd
00000100: 5f75 583e f9b8 b4be 1d67 a03d 4da1 3cbe
00000110: 3ba6 c93d d1d3 023d 4a72 263e b383 f7bd
00000120: 7633 b3bd 32eb 02be e8c3 b53c 3cfc 293e
00000130: d69b 2a3c eed5 563e 3d46 cb3c 14db 193e
00000140: 2aff 7d3e a6f9 2abe adaa 6a3e 81c9 63be
00000150: 8ce0 0a3e 00c2 103d 6e6f 52bc 833f a13d
00000160: cec9 1b3e 006c be3e a746 3cbe d4e9 d9bd
00000170: b12b 00bd 2354 383d 9eeb a6bb cc99 9d3c
00000180: 841f 96bc ee15 593d 8f3d 6bbe 0320 073c
00000190: fd94 673c aea3 733e 10e5 6fbd d524 de3e
000001a0: 2580 2abe 6b13 d5be 8adc fcbd 7bc3 903e
000001b0: 222f a6bd 89ff babe 1d3f fa3d 58ee 593e
000001c0: 0c7a 133e 7895 a0bd 0cad 933d 815f 8a3e
000001d0: bec8 ac3d a896 4abe f9cc 63bb 02bc b33d
000001e0: 759a b2bc faea 9dbe 09e1 603d f4cc 3dbe
000001f0: afdf 173e 6335 313e 815e b2bb ccf6 8b3d
00000200: ce78 213e 3ca6 90be 56b7 1fbe 1cca 453e
00000210: df12 10be 1912 87be 3cd0 0fbe 40a7 c3bd
00000220: e4b1 84be e190 f4bd 9fff 4bbe c580 3bbe
00000230: 79fa bcbd 9024 b7be 5c6f 27be 8758 023d
00000240: 7802 9d3d 660b a43e d226 e73d 9b93 77be
00000250: 11e4 0cbf 5033 a73d 3184 3cbe 25b2 03be
00000260: d207 a33d 82be be3d 261c 6a3e 014b 8f3e
00000270: c15d bebb a0ad 97bd 2dd1 ad3d 0797 653e
00000280: ed1e 48be 12b4 0d3d ed04 dabe 44b1 94bd
00000290: f17b f2bd 8839 f23d 192e 0ebe eb75 2f3e
000002a0: f808 1a3e bf63 69be 7d83 a4be d060 0e3e
000002b0: 449d d4bd 7157 9abe 9660 29be 5638 94bc
000002c0: 2b97 023d 0364 2d3d 0f85 d9bd c729 eebd
000002d0: 5e48 6abd c464 9cbe 2f48 82bd 9287 433e
000002e0: 3ff3 ab3d 53d9 0a3d 5440 843c 2268 79be
000002f0: ffa8 69bd 3a25 663e 2e7e 6fbd 9908 94be
00000300: 4d02 093d 4913 253e a2c6 94bd 6d2c 93bd
00000310: e3ab adbc cf24 1abd f77d 493d b18c 9fbd
00000320: e255 12be c5e9 c3be 8fba 57be 5095 dabc
00000330: 87fb ddbd 043b 5fbe 29ea 35be e62e 983d
00000340: cfbb 493d 8ea3 ad3d 765f 3bbe cecb e4bd
00000350: f62a 043e a3fb 5a3e c129 5fbd ba4c eebe
00000360: 9240 50be 6964 f4bd 8b4c 8c3e 2e58 843c
00000370: e7f1 ccbc f2ca 663e 7321 4abe f55c ee3c
00000380: 4a96 b3bd 1103 6bbe 58b5 5e3e 3ca6 c03d
00000390: 4689 8fbd dc61 323d 2593 a33d 01bb 59be
000003a0: c7b9 923d da9e 013e 0a2e f3bd 3a3d 8abe
000003b0: 683d 733e bbbe 0f3e 7195 45bd 9a9f 01be
000003c0: f68d 9fbe 0b99 5abe d348 12bc f697 523d
000003d0: a45f 043e 259b 6dbd 9e4a 28bd 7056 7f3e
000003e0: 7ed4 3dbd 9d9b 58be 5f00 15bc 5797 1abe
000003f0: d180 663e 9e26 483d c82e d63d 70c9 01bc
0.044031046 -0.0044111637 0.16664653 -0.20789003 0.08399272 -0.08957995 0.13800508 -0.24290904
0.050728302 0.08758021 0.12589476 -0.024351118 0.28554365 0.10652455 0.13946362 -0.07847042
0.11612882 -0.17572507 0.08747222 0.08629453 -0.19902736 0.22526124 0.15555002 0.061989654
0.14630167 0.322696 -0.3718008 -0.294188 -0.09058467 0.06805102 0.20249549 -0.39824608
0.16590796 -0.08610559 -0.05124828 0.30463243 0.4402361 0.35564482 -0.029641645 -0.0097897425
-0.5951873 0.028175144 0.09959903 -0.08857856 -0.19970043 0.1412057 0.087527975 -0.2711145
0.024672749 0.01823062 0.10471776 0.035926834 0.11141283 0.08644379 -0.0801026 -0.1258073
0.2872325 0.2302029 0.22413816 -0.117144436 0.02894901 0.094308235 0.06330703 -0.035381638
0.21138524 -0.35297373 0.07832167 -0.18420906 0.09846159 0.031940285 0.16254535 -0.120856665
-0.0875005 -0.12785032 0.022188142 0.16600126 0.010413131 0.20980045 0.024813766 0.15024978
0.24804369 -0.16696796 0.2291667 -0.22244836 0.1356222 0.035341263 -0.01284395 0.07873442
0.15213701 0.37191772 -0.18386327 -0.10640302 -0.031291667 0.045002114 -0.0050940057 0.019238375
-0.018325575 0.05299943 -0.22972701 0.008247378 0.014134643 0.23792908 -0.05856806 0.43387476
-0.16650446 -0.41616377 -0.12346752 0.2827414 -0.081144586 -0.36523083 0.12219069 0.21282327
0.14402026 -0.07841009 0.072107404 0.2702599 0.08436726 -0.19784033 -0.0034759624 0.08776094
-0.021802166 -0.30843335 0.05490211 -0.18535215 0.14831422 0.17305522 -0.0054433946 0.06834182
0.1576874 -0.28251827 -0.15597281 0.1931538 -0.14069699 -0.26380995 -0.14044279 -0.09553385
-0.2591697 -0.11941696 -0.1992173 -0.1831084 -0.09227461 -0.35770082 -0.16351074 0.031822708
0.076664865 0.32039946 0.11286701 -0.24177401 -0.550355 0.08164084 -0.18409802 -0.12860925
0.07960476 0.0931368 0.228623 0.2798691 -0.005809516 -0.07406163 0.08487163 0.22420894
-0.19543047 0.034595557 -0.42581883 -0.07260373 -0.11840046 0.118273795 -0.13884772 0.17134826
0.15042484 -0.22791956 -0.32131568 0.13904119 -0.103815585 -0.30144837 -0.16540751 -0.01809327
0.031882446 0.042331707 -0.10621082 -0.11629062 -0.05719792 -0.30545628 -0.06361424 0.19094685
0.08396005 0.033898663 0.016143955 -0.2435613 -0.057045933 0.22475138 -0.058469944 -0.2891281
0.03344946 0.16120638 -0.07264449 -0.07186208 -0.021200126 -0.03763276 0.049192395 -0.07790507
-0.14290574 -0.3826429 -0.2106726 -0.026682526 -0.10838991 -0.21799856 -0.17765106 0.0743082
0.049251374 0.08478461 -0.18298134 -0.11171685 0.12907013 0.21385054 -0.05448318 -0.46542913
-0.20337132 -0.11933214 0.27402148 0.016155329 -0.025017692 0.22538355 -0.19739322 0.02909706
-0.087689 -0.22950388 0.21748865 0.09406707 -0.07008605 0.043550357 0.0798705 -0.21262743
0.071643405 0.12658253 -0.11874016 -0.26999837 0.23753893 0.14037602 -0.04823822 -0.1265854
-0.31162995 -0.21347444 -0.008928495 0.051414452 0.12927109 -0.058009285 -0.041086785 0.24935317
-0.046345226 -0.21153112 -0.009094327 -0.15096794 0.22510077 0.048864953 0.104581416 -0.007921562

sage.layer2.fc_self.weight f4 [128, 64]
00000000: ef75 f03d fad0 cdbd a278 64bf 497f 97be
00000010: b479 073e c43f 3ebe 6959 313e dd94 33bf
00000020: 0945 27bf ca8b cabe ce9e 29bf f1ef 843e
00000030: fc5e 36be 8d3c dfbe 42b1 dbbe ba6f 38be
00000040: b07d 8cbf 1dbc 593e 33d2 c73e 3033 07be
00000050: 49dd eb3e 6af9 ef3e d7ca d73c 0426 ecbe
00000060: 00ac 52bf 8ed0 0cbf 93bf 65be 067d debd
00000070: fd0f dcbe 609f 54bf e240 ad3e ee00 1d3f
00000080: 406a 56bf 4bae 29bf 4df7 e4be b252 72bf
00000090: 68fd 5e3e 4815 2ebf bfe5 1bbf 70bc 01bf
000000a0: 89fa b0bf b8fa 1bbf a504 833e 5d82 933e
000000b0: 5b0f e13e 4efc 50bf a603 2bbf 433d 673e
000000c0: c0e5 963e c1c9 6fbd c5fb 933e 08b9 093f
000000d0: 6ac3 8fbd 4e6b 243f 4023 033e 7c01 763f
000000e0: b36c ec3e 97ae 47bd 8e67 c63e 1150 a63d
000000f0: 148d 7dbf b288 dd3e 703e a4bd a981 1cbf
00000100: bc30 183f 70a0 143f ae82 f53e e4bb 49bf
00000110: 5ace 353e 74f2 0d3f d4d0 bbbf dd08 44bf
00000120: f4a0 50bf 1d5c 273e 8e9e 183f 1585 c4be
00000130: da99 62bf 56c2 43bf 7f9b 18bf a0af 0e3e
00000140: bc66 d83e ef38 8abf 4e9b ed3e 1f50 653e
00000150: 56c5 4bbf 3a6e 24bf 2460 503e fccf 3e3f
00000160: ee09 bf3e bbbd 1c3f c170 963e a0e9 423f
00000170: d801 8b3f 69a8 80be 4a4a dcbd 9203 6bbe
00000180: d06c 093f 2c04 2bbf c018 79bb a420 0abf
00000190: 600a c6be 1d55 a8bc cde0 dfbe 44cf 93be
000001a0: 6318 493e e18f 9bbf bc05 94bf 9a0b 0fbe
000001b0: 9002 de3e e977 d53e 50ad 563f 2b9a 5abe
000001c0: e800 3dbf 4323 9fbc d28d 5e3d 6222 5dbf
000001d0: 5011 273f 5ee5 3ebf bfad 243f d497 70bf
000001e0: 6b7c 03bf b09a 063f 18ce 3fbf 5dc1 aa3e
000001f0: 8dbd cc3e a886 9cbf 96a6 a6bf b373 643f
00000200: 9542 02bf 9d58 043d 3c98 163e dd1e 28bf
00000210: 312f 21be f71f a4bb 0175 ec3e ae05 05bf
00000220: c30b 183f bbaf e2bd 10be 323c 36fd c0be
00000230: 4b8e 1a3f ef57 2e3f d8eb d7bd bafe c4bd
00000240: 4357 f9bd 0d88 eb3f a80e 2a3d c9e5 243f
00000250: 0752 e53e b54f 56be 402c 063e b6c8 b4be
00000260: 6d34 773f 6dd4 c5be 395a 55bf 7955 dc3c
00000270: 0035 a2be aeab 45bf dddb b13f f28e 9fbf
00000280: 3310 3f3f af6b 983e c6e5 683f ea6c 0c3f
00000290: cc7f 4b3f 6a84 b33e e1aa dabc a55e 0e3f
000002a0: 4d43 8d3e 7e8d a03e c3c9 eb3e b4a3 9b3f
000002b0: 410d 7ebf 2d37 72bf c368 e8bd da3b 83be
000002c0: f5d6 04bf ab7b a23f f584 2bbe c91f 2ebf
000002d0: abe6 443e 9a71 d53e d43a 283d 04d5 9a3f
000002e0: 17fb d7bd e4da 693f 65c7 10bf 248c 263f
000002f0: 75e5 a1bd 73b5 d93e 2f96 a1bf 944c 5bbe
00000300: f6e6 53bf 46c2 7cbf 1054 1e3e 0ce3 963f
00000310: d738 113e 4b43 43bf 55ac a83d 463d 703f
00000320: fb63 bb3f d750 c1be dd9f f1be 4890 bbbe
00000330: 0200 0d3f dacb d93f 0f37 73bf 0e8f e23d
00000340: 31bc 053f fe78 543f 90ec 1ebf ed1e c1be
00000350: 0346 083e a7bc 9a3f 0f6f 0fbf 897c 18bf
00000360: d57c 43bf e1d8 66bf 804c 09be e027 38be
00000370: 61b9 b5bf 60b8 b6be 4daf 563e 0796 2a3f
00000380: 08ac 2e3f 47af 963e 2f53 41be b5e4 003e
00000390: 1e09 90be f45e 183f c49c a73f f073 023e
000003a0: 1a9d 7dbf c478 d83f a013 8f3f 4ee1 84bf
000003b0: b8a1 5a3f ed85 01bf 810c e1be e6b7 8e3d
000003c0: ba7f 84bf 5723 bcbd 9f1d 17be ef69 2fbe
000003d0: 43db 863e 9640 8fbf 7a32 8cbd 0bc1 acbe
000003e0: 0592 7d3f e278 eebf a7df 11bf 1460 513c
000003f0: ccd2 9b3d d576 9a3d c651 7dba 019c c7be
0.11741244 -0.10049625 -0.8924657 -0.29589298 0.1323002 -0.18579012 0.17319264 -0.7014902
-0.65339714 -0.39559776 -0.6625794 0.2596431 -0.17809671 -0.43600884 -0.42908674 -0.1801137
-1.0975857 0.21263166 0.39027557 -0.1320312 0.46067265 0.46869975 0.026341839 -0.46122754
-0.822937 -0.5500573 -0.22436361 -0.1086369 -0.42980948 -0.83055687 0.33838564 0.61329544
-0.83755875 -0.66281575 -0.44719926 -0.94657433 0.21776354 -0.6800122 -0.6089744 -0.5067816
-1.3826457 -0.6092944 0.2558948 0.28810397 0.43957028 -0.81634986 -0.6680244 0.22581963
0.2947216 -0.058542017 0.28903022 0.5379796 -0.07019694 0.64226234 0.12806416 0.96096015
0.4617668 -0.048750486 0.3875088 0.0812074 -0.99043393 0.43268353 -0.080197215 -0.61135346
0.5944936 0.5805731 0.47951263 -0.78802323 0.17754498 0.5544808 -1.4673104 -0.76576024
-0.81495595 0.16343732 0.59616935 -0.38382784 -0.8851601 -0.7646841 -0.5961227 0.13934183
0.4226588 -1.0798625 0.4640755 0.22393845 -0.79597986 -0.6423069 0.20349175 0.7453611
0.37312263 0.61227006 0.293829 0.76137733 1.0859938 -0.25128487 -0.10756357 -0.2295058
0.5368166 -0.6680324 -0.0038009137 -0.53956056 -0.3867979 -0.020548398 -0.43726197 -0.2886907
0.19638209 -1.2153283 -1.156425 -0.1396927 0.4336133 0.41693047 0.83858204 -0.21347873
-0.7382951 -0.019425994 0.05433447 -0.8638059 0.6526079 -0.74568737 0.64327615 -0.9398167
-0.5136172 0.52579784 -0.7492385 0.3335065 0.39988366 -1.2228594 -1.3019588 0.89239043
-0.50882846 0.03231107 0.1470651 -0.65672094 -0.15740658 -0.0050086933 0.46183017 -0.5196179
0.59392947 -0.11068674 0.010909572 -0.37693185 0.6037337 0.68102926 -0.105430305 -0.09618898
-0.12174847 1.8400894 0.041517884 0.64413124 0.44789144 -0.20928843 0.13102818 -0.3530938
0.9656437 -0.3863863 -0.83340794 0.026896225 -0.3168106 -0.7721509 1.3895222 -1.2465498
0.74634093 0.29769656 0.90975606 0.5485369 0.7949188 0.3506196 -0.02669281 0.55613166
0.2759041 0.3135795 0.4605237 1.2159333 -0.99238974 -0.9461544 -0.11348107 -0.256316
-0.518905 1.269399 -0.16749938 -0.6801725 0.19228618 0.41688234 0.041071728 1.2096257
-0.105459385 0.91349626 -0.5655425 0.6505759 -0.079050936 0.42521247 -1.2623957 -0.21415931
-0.82774293 -0.9873394 0.15461755 1.1788039 0.14181839 -0.76274556 0.08235995 0.93843496
1.4639887 -0.37756988 -0.47192279 -0.36633515 0.55078137 1.7015336 -0.9500589 0.11062442
0.5224028 0.8299712 -0.62079716 -0.37718907 0.13307957 1.2088822 -0.56028837 -0.59565026
-0.76362354 -0.9017468 -0.13408089 -0.17983961 -1.4197198 -0.35687542 0.2096531 0.66635174
0.6823125 0.294306 -0.18879388 0.12587245 -0.28131956 0.59519887 1.3094716 0.12739539
-0.9906784 1.6911855 1.1177864 -1.0381258 0.85403013 -0.5059498 -0.43954852 0.069686696
-1.0351479 -0.09186428 -0.14757393 -0.17130254 0.26339158 -1.1191585 -0.06845565 -0.3374103
0.99050933 -1.863064 -0.5698189 0.0127792545 0.07608566 0.07542197 -0.0009663369 -0.3898621

sage.layer2.fc_self.bias f4 [128]
00000000: 53a0 193e e16c 60bd d752 acbc 43b8 f03d
00000010: b40b ddbd 4ba9 9abc 1512 653d 5a47 a63b
00000020: 4e12 c63d 49b6 ca3d 3295 a6bc 3c69 c03c
00000030: 2143 40bd 0ef4 97bc 09de 353e 4f13 69bd
00000040: 5929 21bd 1385 e93d 845e 5f3d 545c 23bc
00000050: 9d65 953d 86c0 e739 7165 31bd 5fb2 90bc
00000060: 1b7d c43c c2de 72bd e23b e23c 6b12 11be
00000070: 9197 88be 9bab bd3d a4dc 933c e048 043e
00000080: 666a 20be c641 483e 5b40 84bd 0af0 e43b
00000090: 41f8 50bd d62e f2bc b4ad 85bc 1411 a03d
000000a0: 87ec 573c 126c d03b 482a a8bd 53db afbd
000000b0: 92be 23be 2de6 c7bd d7eb 5abb b641 8e3d
000000c0: 5542 f7bc f6e8 93bd 2a66 b93d 50ca 29bd
000000d0: 1778 acbc 901a 90bc 94b1 72be 7208 febd
000000e0: e50c 813c 314b 9d39 9469 afbc 7d9d 1d3e
000000f0: 0396 02bd d86e 2c3e 995e 0ebe dbb3 4b3d
00000100: 81bf b3bd 5d0d 92bd ed25 4e3d c405 0c3d
00000110: 09fb eb3d 01fd e63d 52ff d9bd 15d3 1cbd
00000120: 8495 bd3d 889c 643d dd8d b43d 7485 763d
00000130: 3c67 cf3c 16f6 74ba a7c3 613c ea8f 55bd
00000140: 06d5 3abd 9820 643d 153f 4e3c ed2a 83bd
00000150: 03e7 6fbd 611e acbd 06c5 2dbe d716 9339
00000160: 5b14 1d3d fb25 903d 14f0 c4bc 7368 d5bc
00000170: ecfd ebbd ade2 7bbc d2e7 7ebd b6f5 dc3b
00000180: f14a f7bd 0a37 07be 5623 323e 4437 1e3e
00000190: d0fc d2bc e32b 59be 74c1 c7bb 9996 af3c
000001a0: e8ca 2cbd f49b 88bc 5bbd a33d c968 6cbc
000001b0: 77fb 5e3d 317f 323d 08f1 39bc a32a c5bd
000001c0: 5ff8 44be 9c4d 8bbe a4c1 8bbc 79cd 8b3d
000001d0: 7544 3abc dd84 05bd 7617 a03c 8950 9d3d
000001e0: b99b 11be d03f fbbc b5a5 be3d e5f9 8a3a
000001f0: d34e 80bc 4c5c dfbd d763 a9bd 3574 09bc
0.15002565 -0.054791335 -0.021035595 0.11753895 -0.10793248 -0.018879553 0.055925447 0.0050744237
0.0967146 0.098980494 -0.020334814 0.02348768 -0.04693902 -0.018548992 0.17760481 -0.05690318
-0.039346073 0.11402335 0.054533496 -0.009970743 0.07294772 0.00044203195 -0.043309633 -0.017663179
0.023985436 -0.05929447 0.027616445 -0.14167182 -0.26678136 0.09261247 0.018049546 0.12918425
-0.15665588 0.1955634 -0.06457587 0.0069866227 -0.051018003 -0.029563349 -0.01631818 0.078157574
0.013178951 0.0063605392 -0.082111895 -0.08586755 -0.15990666 -0.097606994 -0.0033404732 0.06946127
-0.030182997 -0.07222168 0.090526894 -0.041452706 -0.021053357 -0.017590791 -0.23700553 -0.124039546
0.015753219 0.00030001395 -0.021412648 0.15392108 -0.031881344 0.16839159 -0.13903274 0.04973207
-0.08776761 -0.07131455 0.050329138 0.034185186 0.115224905 0.112787254 -0.106444016 -0.03828724
0.092570335 0.055813342 0.08816121 0.060185865 0.02531778 -0.0009344531 0.013779557 -0.0521392
-0.04561331 0.055695146 0.012588282 -0.06404672 -0.05856992 -0.08404232 -0.1696969 0.00028055042
0.03834949 0.07038494 -0.02404026 -0.026050782 -0.11523041 -0.015373868 -0.0622328 0.006743158
-0.12074841 -0.1320459 0.17396292 0.1545077 -0.025755316 -0.21208148 -0.0060960595 0.021434115
-0.042185694 -0.016675927 0.07995101 -0.01442928 0.054439034 0.04357833 -0.01134897 -0.09627273
-0.19235371 -0.2720765 -0.017060108 0.068263 -0.0113688605 -0.03259741 0.019542437 0.076813765
-0.1421956 -0.030670077 0.0930895 0.0010603039 -0.015662586 -0.10906276 -0.08270996 -0.008389522
