Audit-log_Analysis/code/GNN/training/checkpoint_graphSAGE/best_model_GraphSAGE_transR_50-3.pt (torch, 361144 bytes, 15 tensors)

layer1.fc_pool.weight f4 [50, 50]
00000000: 55db 293f 3f5d f73d ccf4 e2be 851a e1be
00000010: aed6 753f 02aa 4a3e 6144 09be f156 afbd
00000020: 5894 083e afb7 543e 534c 2bbe e08a be3e
00000030: 7c7a 1ebe 5777 bebe 9df5 af3e 0a9d 6c3e
00000040: 4dfe a03e 5bad a03c cf6e c6be 8e11 0a3f
00000050: e430 a23e f5f6 383e 07d1 5bbf 836f 3fbe
00000060: b848 ccbe 95f2 453f c64f 9dbd b773 ba3d
00000070: 6014 35be 160a 3ebe 65c9 ab3e 3886 15be
00000080: fba9 c6be e7ce 823f 50f4 84bd 983a 903e
00000090: 03d1 07be 169a 80bd 6e43 47bf c2a1 233f
000000a0: 7ea7 33bf 4afd a63e e135 acbd 9fd0 6cbe
000000b0: 0847 0d3f cf62 583e 749b 94be 0fc7 ccbe
000000c0: 39df 5bbe eda8 4dbe e4c9 763f 9d79 2ebe
000000d0: ffc0 febe 6b2b abbe 413c ba3e 3c67 50be
000000e0: d6f8 2bbe 311c d3be f22e 213f 826c cf3d
000000f0: 139f 5a3f 4832 313d ba2c 88bd c1c5 40bf
00000100: c318 223e 0ac8 c03e e7f8 b83e fe4e 163f
00000110: 13ba 39bd 5e10 273e edd2 80bc 8782 4d3e
00000120: 5a32 76be f72c d4bd 4cfd 5cbf 8077 933f
00000130: a0bd ffbe 05bc 873e b94e d23e 304d 16ba
00000140: 921d 8c3e 9d2e 963d 1bd8 3f3c c6be 823f
00000150: 814d 89be bd37 1b3e d878 17bd f2bd 643e
00000160: ff01 8bbf d9cb 5b3f fbe7 94bf 1a31 e73e
00000170: b431 f6be c542 84be 2987 ff3c 0939 8cbe
00000180: a0ab a2be e483 083e 8c7c 83be 9f40 8fbe
00000190: d3c2 3abc 6745 c6bd 3aa5 5f3e b6a3 00be
000001a0: 372e eb3d 8166 483e 2ff4 083e 67c6 f4bd
000001b0: eefe 5cbe 5ae7 ac3b 02a9 133d 9442 acbd
000001c0: 6e0e 353e 2263 18be a1be 143d 2d4b 483e
000001d0: c7b5 38be f107 283e df0a 323e 5aee 473d
000001e0: 582b 143e e4ef 4d3e 6a9f 2bbe e7a1 2f3e
000001f0: 23f5 9cbd 8c5b 3d3e 5b68 b8bc df0a b7bc
00000200: 23cb 1f3e d1c5 053e 4174 59be b7bc 583e
00000210: 86e3 0f3e 9260 083d 2569 a3bd c35a 24be
00000220: 9661 2b3e f52a 36bd ac85 3fbe da57 4c3e
00000230: 5599 d8bd 06aa d2bb 4602 f3bd f079 5abd
00000240: c0ea 2cbd 4f2a b93d 5921 48be 582e 1a3e
00000250: d8ac 22be 3dca 083e 1cb3 843c 7bfe 1b3f
00000260: bd35 65be dede 12be 1c96 ca3e d334 033f
00000270: ff8c ebbd f574 183c ed5f 84be 4a06 d2be
00000280: 5918 0dbe a102 053f 9470 03bf bda9 3fbe
00000290: 04d6 bcbd c3b4 0bbf 114f bd3e aed6 53bd
000002a0: 7a26 5fbe 11b2 063f 3249 ce3e 823f c1bd
000002b0: 7f5d 9fbe 503d 4c3d 9914 0fbf 3168 003c
000002c0: 3dd5 e8bd 98c9 5f3f 860d c3be 140d 6dbe
000002d0: 25d7 ecbc c108 80be 9258 a33e 90c4 0fbf
000002e0: 8399 ddbe 8d4e b63d 231f 80be 585e 123f
000002f0: ba50 033f 070c bfbc 7573 5cbd f3ff 243e
00000300: fc99 163d bc36 d2bc e0fd 2abb 49f9 4fbd
00000310: e471 023e bc8d 043f 888b 303e fa78 ffbe
00000320: 00bb 643e 182c 02be b012 bf3b 437d 6b3b
00000330: d754 23be 6c4c c83c 9fa2 313e 821b 123e
00000340: 5a95 d73d 18ee 75bc 33a5 31be ff6c 873d
00000350: c2d1 703d 0b50 f7bd 0428 0dbe f244 4fbe
00000360: c43b c6ba 649d dabd 4f4e 643c b7e6 10bd
00000370: 7ffb 8cbd ef23 883c 74af 79be 2c96 003e
00000380: 3973 e63c 36c5 303d c849 153b 6c25 f03c
00000390: 6cf9 b9bd f51c 053e 46c3 f63d 481c 16bd
000003a0: 3712 2a3e 959c 5939 9be5 813e 8609 e4bd
000003b0: 750c 113e 853b 723e d8a2 d9bd 59ca c03d
000003c0: 1948 ecbd d15b 9bbd 385d edbd cac1 91bc
000003d0: b066 bfbd 04d0 4dbe 4394 cd3d 0f63 e23d
000003e0: 0db0 58be 1664 813e fa6b 243e e689 10be
000003f0: ee02 5bbe 3e8e fbbc 684a e43d 5380 45be
0.663503 0.12078332 -0.4432739 -0.43965545 0.960307 0.19791415 -0.1340499 -0.08561505
0.13337839 0.20773195 -0.16728334 0.37215328 -0.15476412 -0.37200424 0.34367076 0.2310678
0.31444016 0.019613912 -0.38756415 0.53933036 0.31677926 0.18062957 -0.85865825 -0.18694882
-0.3989923 0.77323276 -0.07681231 0.09104102 -0.17683554 -0.18558535 0.3355209 -0.14601982
-0.3880156 1.0219392 -0.064919114 0.28169703 -0.13263325 -0.062793896 -0.77837265 0.639187
-0.7017745 0.3261512 -0.08408714 -0.23126458 0.5518651 0.21131442 -0.2902485 -0.3999562
-0.21471871 -0.20083971 0.9640181 -0.1703858 -0.4975662 -0.33431563 0.36374095 -0.20351881
-0.16794142 -0.41232446 0.6296226 0.10128118 0.8539898 0.043260843 -0.06649156 -0.7530175
0.15829758 0.37652618 0.36127397 0.5871428 -0.04534347 0.16314837 -0.015725577 0.20069323
-0.24042645 -0.10360139 -0.86324 1.1520844 -0.4994936 0.26510635 0.41075686 -0.0005733548
0.2736631 0.073331095 0.011709238 1.021447 -0.26816943 0.15157981 -0.03698048 0.22338083
-1.0859984 0.8585792 -1.1633295 0.4515465 -0.48084795 -0.2583219 0.03119238 -0.27387264
-0.31771564 0.13331562 -0.2568096 -0.2797899 -0.011398989 -0.09681206 0.21840373 -0.12562451
0.11483424 0.19570352 0.13374399 -0.11951905 -0.21581623 0.0052766027 0.03604985 -0.08411136
0.17681286 -0.14881566 0.03631461 0.19559927 -0.18038093 0.1640928 0.1738696 0.048811294
0.1446966 0.20111042 -0.1676003 0.17151605 -0.076639436 0.18491954 -0.022510698 -0.02234405
0.15604834 0.13063742 -0.21235754 0.21165739 0.14051637 0.03329522 -0.07979039 -0.16050248
0.16736445 -0.04447456 -0.18703336 0.19955388 -0.10576121 -0.00642896 -0.11865668 -0.053338945
-0.042216063 0.09041273 -0.19543971 0.15056741 -0.15886247 0.13358398 0.016198687 0.6093518
-0.22383781 -0.1434283 0.3956765 0.5125248 -0.11501502 0.0093052285 -0.25854436 -0.41020423
-0.13778819 0.51957136 -0.51343656 -0.18717094 -0.09220508 -0.54572695 0.36974385 -0.051718406
-0.21792021 0.5261546 0.4029022 -0.09435941 -0.3112602 0.04986316 -0.55890805 0.007837341
-0.11368797 0.8741698 -0.38096255 -0.2314952 -0.028911183 -0.2500668 0.3190351 -0.56159306
-0.43281183 0.08901701 -0.25023755 0.5717521 0.51295054 -0.023321165 -0.053821046 0.16113262
0.036767945 -0.025660865 -0.0026091263 -0.050774846 0.12738758 0.5177877 0.17240727 -0.49896985
0.2233696 -0.12712133 0.005831085 0.0035932816 -0.15950333 0.024450503 0.17347191 0.14268306
0.105265334 -0.015010379 -0.17348175 0.06612586 0.05879379 -0.12075814 -0.13784796 -0.20241144
-0.0015124013 -0.10674551 0.013934686 -0.035376277 -0.068839066 0.016618697 -0.24383336 0.12557286
0.028131114 0.043156825 0.0022779573 0.02931472 -0.090807766 0.12999327 0.12048964 -0.036648065
0.16608511 0.00020753064 0.25370488 -0.11134629 0.14164908 0.23655517 -0.10626763 0.09413595
-0.11537189 -0.07585872 -0.11590046 -0.017792601 -0.09345758 -0.20098883 0.10038044 0.1105405
-0.21160908 0.25271672 0.16056815 -0.14115104 -0.21387836 -0.030707475 0.11147004 -0.19287233

layer1.fc_pool.bias f4 [50]
00000000: cbe2 a33c 5f12 9f3c e230 45bd 016b 9a3b
00000010: a6ac 3abc bf7d 423c c1ce 90bc 5e47 ff3c
00000020: 65a6 7cbd 66d2 a93d fc83 963d 8cac 323d
00000030: 32d4 eb3c 1996 003d cef4 943d 0cb8 553d
00000040: 9140 423d c6c5 593d b3e3 163d 9188 403d
00000050: 3142 b43d bbda de3c a60e b03a 4d00 f33b
00000060: e863 ecbc 83ec 88bc f91f 263d 9a9f 183d
00000070: a8d0 2cbb 3235 a6bc da8d 6f3d 3e80 713d
00000080: 0386 0a3d e5fe 743b 3fe5 753d e866 b3bd
00000090: d078 9b3b ba97 5d3c c062 913d 1544 733b
000000a0: 11c0 ba3c 49ec 993b 9a4a b1bc dd52 663c
000000b0: b019 82bd 260f 3c3c 1244 883c 86ba 0f3d
000000c0: 5790 283d 2096 273c
0.020005604 0.01941794 -0.04814232 0.004712463 -0.011393702 0.0118708005 -0.017676713 0.03116196
-0.061682124 0.082920834 0.07349393 0.043621585 0.028787706 0.031393144 0.07273255 0.052177474
0.047424857 0.053167127 0.036838245 0.04700524 0.088016875 0.027203908 0.00134321 0.0074158073
-0.028856233 -0.01671434 0.040557835 0.037261583 -0.0026369486 -0.020289037 0.05848489 0.058960192
0.03381921 0.0037383374 0.06003308 -0.08759862 0.0047446266 0.013524944 0.07098913 0.0037119437
0.022796663 0.004697357 -0.021642018 0.014057842 -0.06352556 0.011478221 0.016634021 0.035089992
0.04115328 0.010228664

layer1.fc_neigh.weight f4 [64, 50]
00000000: f402 8d3e 3719 a53e b717 1c3e 93a7 d83e
00000010: 7152 2f3d 49fb 0e3c c4f3 23be 2540 183e
00000020: fa61 913d 9f0e 793e ee28 52be 84ef 593e
00000030: bb49 003f aaec 793d c581 2abd d566 fd3d
00000040: 4f6f b7bc d4ba 00be ccc3 f83d def2 03bd
00000050: 30cb 843e db5c 683c 8f35 01be 3c5d 913d
00000060: f7bd 483c ae08 89bd 1973 51bd d267 253e
00000070: b9ed 6a3e 5aa8 0cbd 8193 9d3d d817 d23e
00000080: b0dc 8abc a856 a93c c717 4bbe c23d 04bd
00000090: 00be 053d cf12 023e 85d6 11be c864 f1bd
000000a0: 05e1 d03d 7490 a1bc 837e 7ebe d7db 9e3e
000000b0: e6fa b43d fe5b 36be c003 953e 63e8 473e
000000c0: 541b 88be 9376 c9bd 6454 4a3e 4086 c83c
000000d0: 9283 573d d03e 013f 655b 47be 2cca a43d
000000e0: c564 773d 5407 e43d 9da8 11be d996 103e
000000f0: 6d39 3dbf b22d 1abd 7954 86be 6a83 d13e
00000100: 4f9b 1e3e b95f 6bbe 1d99 0bbd 004e cbbe
00000110: a98e 8ebd d1bb 593a cf58 fbbd 9597 d73d
00000120: 083c f63e ed58 b23e 0c2a 603e 61de adbd
00000130: 1f74 9e3d 5121 ac3b 0342 6e3e d137 983d
00000140: 17b3 fcbd f692 233e a4ff 8ebd 639f 7e3d
00000150: 1355 04bf edad 0cbe e699 8a3e 29ba 0dbc
00000160: 1938 463e 38a0 5a3e ac98 6cbe 02e0 823e
00000170: 4d12 f4bc e5e6 933d a755 9fba d837 f5bc
00000180: 7fae 88bc db81 673d 08a9 14bf 8573 86bd
00000190: 208f 7bbe ac74 9abd 0747 423e 411d a7bd
000001a0: 78bf 61be 07aa 143e 8a57 8bbb caf7 babc
000001b0: b5d3 4bbe 93a2 90bd 034d 253f 5153 0e3d
000001c0: 75ac 623e 736b 343d 6f9c d53d d2a3 80be
000001d0: 3b4d c43d 8196 d03e 1fed 403f 0930 7fbc
000001e0: 35bb f7bd 216b 283e b335 c23e 6cc4 4e3e
000001f0: e31a f93d 80ca 3fbd 6f05 11be 51cf e73d
00000200: 9651 cb3e b588 b4bc edfb a33c 96ce 853d
00000210: cf7f 20be a688 a83d 384d 283f 8425 18bc
00000220: da36 e93d ae72 05be 91a2 1d3d 50f5 343e
00000230: a900 4a3f 403f bebd 6244 813d 6e10 debb
00000240: 11e5 7b3d a1a0 7fbe 8583 97be 7a0d 17be
00000250: dc91 4a3e 44b4 56bd 3386 fa3d 0ee4 c83c
00000260: 97fa 27be 6ad7 13bd bb81 1cbe ded4 bd3e
00000270: 037d 2a3e 4416 1bbf bdef eebd 8c06 8e3b
00000280: 8b49 48be bc48 1dbe 7db6 993d 9600 0bbe
00000290: cf30 5fbe bed0 4ebe 16f6 1e3e 6dff c6be
000002a0: 93f6 acbe c829 4c3e c4e5 003e 960f 863e
000002b0: 1402 203f 48d7 1bbd 2ac3 143d df2a ed3d
000002c0: d8c7 373e 3a62 14bd 2359 7d3e 04a0 e5bd
000002d0: 55ec 863d 22e0 553e 6ec5 bcbe 1140 5a3d
000002e0: e84e d53e 8ecd 503d 799b 0e3e 784c f73e
000002f0: 67d6 41be e3b1 6a3e 0042 963e af21 963e
00000300: 30d3 bbbd 77e8 cd3d 0887 00be 9da4 333e
00000310: 727b afbe 3860 ae3e fd8b b3bd 7a59 a5bd
00000320: edd5 4b3c bfdb d73e 5cf8 0cbd 09d0 063d
00000330: 852d 93bd 748e c73b ffa9 453d ad0c fa3d
00000340: 8ab8 253e 326d f63d 5962 6f3e 1dab 023e
00000350: 450d 713d 34ec 5cbe 96ea acbd 3c3a 883d
00000360: 982d 143e 8490 a63e b4aa e23e a1e8 cc3d
00000370: 8672 2e3e 5342 c0be 1de2 9d3e 41f4 3b3a
00000380: d788 103d 0c37 4cbe 9007 743e 5ed6 af3d
00000390: b46f 583e 43b0 3b3d cea8 77be 02a3 533e
000003a0: e5f2 c3be 8df1 043d 3444 123e 6933 bc3d
000003b0: 0b08 71be 1bb1 3a3e 96be 4d3e 28b9 963e
000003c0: ae4b bb3d 399a d1bd b3d8 50bd 0afa 8ebe
000003d0: 854c 853d 40e6 3c3d c2ac 2f3e 6780 a0be
000003e0: 55ed e3bd 4182 8cbc 3b88 8dbe d9d3 d0be
000003f0: 9e63 5bbd 6a8c babe 3e24 d6bc a015 27be
0.27541316 0.322458 0.15243421 0.4231535 0.04280323 0.008726903 -0.16010958 0.14868219
0.07098766 0.24321984 -0.20523426 0.21282774 0.50112504 0.061016716 -0.041627664 0.12373129
-0.022391943 -0.1257127 0.1214672 -0.032214038 0.2593627 0.014182295 -0.12618087 0.07097861
0.012252322 -0.06691109 -0.051135156 0.16152886 0.22942246 -0.03434024 0.0769415 0.41033816
-0.016950935 0.020671204 -0.19833289 -0.03228546 0.0326519 0.12702487 -0.14241989 -0.117868006
0.10199169 -0.0197222 -0.24852948 0.310271 0.088369176 -0.1780853 0.29104424 0.19522242
-0.2658335 -0.09837069 0.19758755 0.024478078 0.05261571 0.5048647 -0.19468458 0.08046374
0.060398836 0.1113421 -0.14224477 0.14120044 -0.7391575 -0.037641235 -0.26236323 0.40920573
0.15488933 -0.22985734 -0.034081567 -0.39707947 -0.06960804 0.000830588 -0.12272798 0.10526959
0.48092675 0.3483347 0.2189104 -0.08489681 0.07736992 0.005252995 0.23267369 0.07432521
-0.12338846 0.1597403 -0.06982353 0.06216372 -0.5169231 -0.13738222 0.2707054 -0.008650341
0.19357337 0.21350181 -0.23105115 0.2556153 -0.029793883 0.07221774 -0.0012156264 -0.029933855
-0.016684769 0.056520324 -0.5807042 -0.06565002 -0.24566317 -0.07541785 0.18972407 -0.081598766
-0.22045696 0.14517985 -0.004252379 -0.022823233 -0.19904979 -0.070622586 0.64570636 0.034747425
0.221361 0.044047784 0.10430228 -0.25124985 0.09585043 0.40739825 0.7536182 -0.015575417
-0.12096254 0.16447116 0.37931594 0.20192116 0.12163331 -0.04682398 -0.14162229 0.11318839
0.39710683 -0.022037843 0.020017589 0.06533544 -0.15673755 0.082291886 0.65742826 -0.009286288
0.11387415 -0.13032028 0.038485114 0.17671704 0.7890726 -0.09289408 0.06311871 -0.006776861
0.06149775 -0.24963619 -0.2959253 -0.14751235 0.19782203 -0.05241801 0.12232628 0.024522807
-0.16404186 -0.036094107 -0.15283863 0.37076467 0.1664925 -0.6058085 -0.1166682 0.0043342765
-0.19559304 -0.15359777 0.0750551 -0.13574442 -0.21795963 -0.20196816 0.15523562 -0.3886675
-0.3378187 0.19937813 0.12587649 0.26183766 0.6250317 -0.038047105 0.036318935 0.11580443
0.17947328 -0.03622649 0.24741034 -0.11212161 0.065880455 0.20886281 -0.36869377 0.053283755
0.41661763 0.050977282 0.13926496 0.4830053 -0.18929444 0.22919421 0.2934723 0.29322574
-0.0917114 0.10054105 -0.1255151 0.17543264 -0.3427387 0.34057784 -0.08766935 -0.08073707
0.012441141 0.4215984 -0.03441654 0.03291324 -0.071864165 0.00608998 0.048257824 0.12209449
0.16183677 0.12032546 0.2337736 0.12760587 0.058850545 -0.2157448 -0.08443181 0.06651732
0.14470518 0.32532132 0.4427086 0.10005308 0.17035875 -0.375506 0.30836573 0.00071698806
0.03528675 -0.19942874 0.2383101 0.08585809 0.21136361 0.045822393 -0.24185488 0.20667651
-0.3827125 0.032456923 0.1428383 0.09189493 -0.23538224 0.18231623 0.20092234 0.29438138
0.09145294 -0.10234494 -0.05098791 -0.2792514 0.065087356 0.04611802 0.17155746 -0.31347963
-0.11129252 -0.017151954 -0.27642998 -0.40786627 -0.0535618 -0.36435252 -0.026140328 -0.16316843

layer1.fc_self.weight f4 [64, 50]
00000000: 16fe 883e 57ec 743f e7aa 20be 9cc5 3abf
00000010: 238a f83f e11c de3e 2843 93be ba1b 403f
00000020: 28c0 e93e 57b2 70bf 9375 c1bc b3b1 a2be
00000030: c650 babe dfce 203f 0a16 1fbf 306c 493e
00000040: 1ad0 753f dd0e 3a3f 2766 b63e 1cbf 773f
00000050: 10e5 d03e bcc7 823e 01c1 39be 1264 ff3d
00000060: 6b06 96bf 4faa 633e c8be 67bd 8dcf 653f
00000070: dc37 8abe 1e75 fdbd 77b6 26be 2239 02bf
00000080: e9f8 88bf 781a a0be a86d 3d3f 52f4 e33c
00000090: 35a9 21be 495c 263f 5a60 a53e 7324 cdbd
000000a0: d659 153f 26ac 43bf a338 2dbf 359e 7d3e
000000b0: 6e2e d03e 608c 023f 4bc5 87bf 7f5d b53f
000000c0: 8bbf 743d 565b a3be 2653 40bf bec5 60be
000000d0: 620c 52bd a2e8 ed3d afae 86bd bd5c 333f
000000e0: cbe3 dfbe 4f8a c2bd 6510 73bf 9ea2 40bf
000000f0: 85eb 33bf 601b c13e 3176 e6bd 79b0 94be
00000100: 4c65 703f 6720 87bf 5403 37bf f9c6 adbe
00000110: 0902 9ebe 5e1b 01be 10cf 9abe 793b dfb9
00000120: 6792 583f c34d fa3e 034b de3e b280 443e
00000130: 0950 093f 82e1 ca3e 5326 e7be 9c86 bcbe
00000140: 25a3 a7be 02ae a0bd 9c4a 01bf 39b8 f3bd
00000150: 01df c53e 711d 81bf 6e14 a9be 38be bdbe
00000160: 477c 2a3f 0d6b d2bf 59f3 e9be 3ce8 a9be
00000170: e3c7 6b3f 35f3 febd 6a93 f33e ac36 03bf
00000180: 41b1 ab3e 6184 0cbd f511 f53e 5e9b b43e
00000190: 9992 9f3f f18c bfbf efdc 9d3d d439 1d3f
000001a0: 97a7 ae3e 629e 053f 28a2 7bbf 1418 763f
000001b0: a990 aabf 2232 e33e ce1c 573e 09e8 7bbd
000001c0: 7d95 6bbf dbb6 13bc 5806 623f d9d8 9fbe
000001d0: 9706 9b3e 71d7 0f3f 665a cf3e 1f76 493f
000001e0: 1634 c73f 8c6b 16bf 9d07 213f 98dc 01bf
000001f0: 4aef a7bf 68c6 50bf bc7f 0ebf 8b83 723f
00000200: 0b79 2d3e 5e2c 463f eb55 d8be 93ea 1f3f
00000210: d559 4d3f fe23 c0be 154c 6c3d 6d83 813f
00000220: dbc8 533f 1795 33bf 70d1 5dbf 47d2 94bc
00000230: 2813 683d 4c14 9d3d 4576 1fbd c8dc 723f
00000240: f5ed e5bf be35 873f ee0c a63d 6f98 303f
00000250: 8837 91be 398a b5be 728d a7bf ce15 6f3f
00000260: 4196 1b3f 9bde 4abe 7dd3 083e 72c8 683f
00000270: 20b7 fe3d 4365 4f3d c310 cdbe bdb9 32bf
00000280: bb94 663c 985d 0f3e af56 a1be a55a 8d3f
00000290: e7a4 ae3b 3c09 dabe 30cf d7be 7e1a 623f
000002a0: 2f69 3cbe 8033 19bf b3af 83be 12f8 843b
000002b0: 8374 b03e 1a72 ee3e 2a04 273f 4df6 4cbf
000002c0: edb2 613d 7cb5 02be 66cd ee3e 2f06 d6be
000002d0: 5162 4cbf 0048 babe ceaa 1ebf 9228 c43e
000002e0: 328c da3e 4d73 6abf 5bf1 66bd 0df3 46bf
000002f0: 4703 193f c421 60bf 1298 cdbe 6278 93be
00000300: 6937 283f 28c9 a23d f299 4e3f ef22 21bf
00000310: e888 7dbf 8649 fc3d c7f6 0a3e aec8 a43e
00000320: c5fd 5d3d 9cbb 0abf aa51 133f ace4 68bd
00000330: 43f0 643f d1fb 333f 1e34 383e 9240 d73e
00000340: 5786 493e e8c4 25bf 5b21 453f ac52 3fbf
00000350: 17e4 c1be ac96 e03e 3b4c 223e 33ec 153f
00000360: 54c6 923f da7c f43f 792a 8a3f f50b 913e
00000370: 883d a73e c568 05bf 452e 943e 9153 14bf
00000380: 721b 06bf 3e8c 443f ea62 aabe 8101 4a3f
00000390: aadc 123f ed27 89be 7791 03bf bbfc 07be
000003a0: de98 debe 06eb a8be 7fff 2f3f bf74 be3e
000003b0: dd9f 28bd 409f 743e 38c2 523e 30d1 833e
000003c0: 4f33 16bf 04ba d7be efb1 e5be 9272 e73e
000003d0: bc52 73bf a19f 8e3e f1a2 8abd 26db 973f
000003e0: a034 7bbd 61a1 fc3d 86b5 92be 6656 7a3d
000003f0: ff81 abbf 461b 203f ff82 b23f 6930 77bf
0.26756352 0.95673126 -0.15690194 -0.7295778 1.9417156 0.43381408 -0.28762174 0.7504231
0.45654416 -0.94022125 -0.023615634 -0.317762 -0.3638975 0.6281566 -0.62143004 0.19670177
0.9602066 0.7267893 0.3562481 0.96775985 0.4079976 0.2554301 -0.18140031 0.12470259
-1.1720709 0.22232936 -0.056578428 0.8976982 -0.26995742 -0.12375854 -0.16280542 -0.5086843
-1.0700961 -0.31270194 0.7399545 0.027826462 -0.15787204 0.64984566 0.32300073 -0.10016718
0.58340204 -0.7643455 -0.67664546 0.24767382 0.40660423 0.50995445 -1.0607084 1.4169158
0.059752982 -0.3190562 -0.75126874 -0.21950433 -0.05128134 0.11616637 -0.06576287 0.7006338
-0.4372848 -0.094990365 -0.9494689 -0.75248134 -0.7028125 0.37716198 -0.11253012 -0.29040888
0.93904567 -1.0556763 -0.71489453 -0.33940867 -0.30860928 -0.12608096 -0.302361 -0.00042578185
0.8459839 0.48887452 0.43416604 0.19189718 0.5363775 0.39625174 -0.45146427 -0.3682145
-0.32741657 -0.07845689 -0.5050447 -0.11900372 0.386467 -1.008711 -0.330234 -0.37059188
0.6659588 -1.6438919 -0.45693472 -0.33184993 0.9210188 -0.12448732 0.47573406 -0.512553
0.33533671 -0.034305934 0.47865263 0.35274786 1.2466613 -1.4964887 0.07708155 0.61416364
0.34112236 0.521948 -0.98294306 0.9613049 -1.3325397 0.44374186 0.21007082 -0.061500583
-0.92024976 -0.009015764 0.8829093 -0.3122013 0.30278465 0.5618811 0.40498656 0.78695863
1.556277 -0.58757854 0.6290224 -0.50727224 -1.31199 -0.81552744 -0.5566366 0.9473197
0.16940705 0.7741145 -0.4225305 0.62467307 0.802152 -0.3752746 0.057689745 1.0118233
0.82728356 -0.7014937 -0.866477 -0.018166674 0.056658894 0.07669887 -0.03893115 0.94868135
-1.7963244 1.0563276 0.08107935 0.68982595 -0.2836268 -0.35457018 -1.3090041 0.93392646
0.60776144 -0.1981148 0.13361926 0.90930855 0.12437272 0.05063368 -0.4005185 -0.69814664
0.014073546 0.14000547 -0.31511447 1.1043288 0.0053297165 -0.4258517 -0.4215026 0.88321674
-0.183995 -0.5984421 -0.25719985 0.0040578926 0.3446389 0.46571428 0.6524073 -0.80063325
0.055102278 -0.12764543 0.46641082 -0.41801593 -0.7983752 -0.36383057 -0.6197938 0.38312203
0.42685086 -0.91582185 -0.05638252 -0.77714616 0.59770626 -0.8755152 -0.40155083 -0.28802782
0.6570955 0.07948524 0.8070365 -0.6294393 -0.9903703 0.12318711 0.135707 0.32184356
0.05419709 -0.5419252 0.57546484 -0.056858703 0.8942911 0.70306116 0.17988631 0.4204145
0.19680153 -0.6475358 0.7700402 -0.7473552 -0.3786933 0.43864954 0.15849392 0.58563536
1.1466775 1.9100602 1.0794212 0.28329435 0.32664132 -0.5211299 0.2894155 -0.5794001
-0.5238563 0.7677649 -0.3327859 0.78908545 0.57367957 -0.26788273 -0.51393837 -0.13280003
-0.43476003 -0.3299181 0.6874923 0.37198445 -0.041168083 0.23888874 0.20581901 0.25745535
-0.5867204 -0.42134106 -0.44862315 0.45204598 -0.9504812 0.27856162 -0.0676936 1.1863754
-0.061329484 0.12335468 -0.28654116 0.061117552 -1.3399047 0.62541616 1.3946227 -0.96558243

layer1.fc_self.bias f4 [64]
00000000: 6b26 aabd e6fe 4d3e 3e39 26bd 6bb9 ef3d
00000010: 3cdf a8bd 9ea6 bf3e b946 ad3d 0c94 c03e
00000020: d882 da3d 7a51 153f 9159 3b3d 80d3 a83d
00000030: 5443 d53e 0381 023f 7f59 623d 6c82 84bb
00000040: 6bab 0a3f 7eee a03d a0c0 f8bc 5dfc cabc
00000050: 944f eb3e 13ce e43d a9c4 e83e c795 c33e
00000060: 57a0 e03e 5752 8b3d dec7 7c3c bf8c 8bbc
00000070: 248a dbbb d673 d93e 369b 063f ea46 bf3d
00000080: 950b d23d 6a06 b73d 818f af3d ed74 eabc
00000090: a57a 1f3f b9ba 2c3d 92d7 383f a47b b23e
000000a0: fc10 0b3e d16a c33d c860 203e 2bbc bd3d
000000b0: 91ec 143f 8b14 c13e 9207 163f a3ef 013e
000000c0: 4590 c13d 1d43 103f 28f3 8a3d 4bf6 14bd
000000d0: 3425 cd3e d2d1 183f bdcd c13d 24b3 0ebd
000000e0: f7ba 853b d581 b63a 98be 0d3f 4f63 7ebd
000000f0: aac9 013f e44c ac3d f1c5 fd3d 4671 e9bc
-0.08308109 0.20116767 -0.040581934 0.117052875 -0.082457036 0.37431806 0.08460755 0.3761295
0.10669488 0.5832745 0.045739714 0.082434654 0.4165293 0.50978106 0.05526113 -0.004043868
0.54167813 0.07857989 -0.030365288 -0.02477854 0.4595915 0.11172118 0.4546254 0.3820021
0.4387233 0.068028145 0.015428511 -0.017034886 -0.0066998173 0.42471188 0.52580583 0.09339698
0.10256115 0.0893677 0.08572293 -0.028620208 0.62296516 0.04217026 0.72203934 0.34859955
0.13580698 0.09541858 0.15661919 0.09264406 0.5817347 0.37710986 0.586053 0.1268907
0.09451345 0.56352407 0.067846596 -0.036367696 0.40067446 0.5969516 0.094630696 -0.03483881
0.004081126 0.0013924191 0.5536895 -0.062106427 0.5069834 0.08413103 0.1239127 -0.028496396

layer2.fc_pool.weight f4 [64, 64]
00000000: 7668 b6be 05ce 37be 1848 0e3f 5b1a e4bd
00000010: 3465 9bbd 0fd7 3e3d bac6 5f3e a996 8a3e
00000020: fdcd d8be 0753 d43d dcb8 4d3e 18f6 a0be
00000030: 7d63 a93c b77f 4d3e f6bd 053e 30fb d13c
00000040: e69c a23d 92be b0be dbfa 603e dcf5 bb3d
00000050: 4758 3b3e 85a5 c63d bbf8 033e 8a67 23be
00000060: d2db e53d f832 5ebd 57c4 5e3e 7e79 e53e
00000070: f28c 0c3e a069 4d3e 8db5 f13d 0139 cfbe
00000080: df3b 403e e969 19be b13a 98be 9f0d 9f3d
00000090: e9a6 293e c784 803e 5f52 b63d dc6a 5f3e
000000a0: aecb d5be d7d3 8dbe 4cd7 7ebd 501b 17be
000000b0: 8c70 48be 8631 0b3c baf6 aa3d 3a4e babe
000000c0: a229 08be b5f3 e2bd 6341 c93e d888 9a3e
000000d0: 0de3 e83c 3116 b13d b0e1 f3be d11d 2fbe
000000e0: 86da db3c ce67 8d3e 7c20 173e 1849 5e3e
000000f0: 7224 1abe 46e8 cdbe d27f 92be c81a 3abb
00000100: 0278 5d3e 1027 763e 8179 013e 1f35 523e
00000110: 4ede e2bd 569c e03c f2db 0c3e 29a8 913e
00000120: 659d 083e 5de2 1f3e 87f9 b9bd ea82 313e
00000130: 3c96 bd3d 291e 823d 6b36 783e aa91 4b3c
00000140: 867e e5bd 61c1 03be 7cf5 863d 2cd0 693e
00000150: fc0d 903e d5e2 f93d 3649 1f3e de90 e33c
00000160: ceb1 1a3d c9f5 ae3e 4171 e03e 5de8 923b
00000170: d50d d83e 5bd9 d63d 1af6 26be b722 af3d
00000180: ec61 10bd 3662 9dbe 3241 a4bb 77da 223e
00000190: c752 f1bd cff5 133d f62c 25be d130 2bbe
000001a0: a4e4 863c b295 0ebd 7572 aebd 186b e3bc
000001b0: 4203 35bd c077 cbbd 10bb 2ebe a3e9 96be
000001c0: d00f 353e b8e4 003e c203 a13e 1e55 083f
000001d0: 5628 d9bc c87f 2dbe e3ac 92bd 241b 413e
000001e0: 916a 1bbe 78a2 763e 952e 2a3e 32ac 363d
000001f0: a6be 0bbe 6429 483d b232 c4bd 7801 253d
00000200: af51 463e 591c c7bd 7bd6 193f 279b 5cbe
00000210: 0aae b83f 0d3d 233e 93e0 7f3e ebd9 303e
00000220: dba5 e0bd ed4d 86be 1aac 833e 92d0 e0be
00000230: 6a66 15be c2b6 dabc 46e4 6dbe 6d07 693e
00000240: bc14 95bc 4203 ff3d 62d5 b83e 894f 9e3e
00000250: c014 88bd 13ff 0c3e 600f 90be 07f7 a33d
00000260: 0ea5 8e3c 8046 903e d279 b33e 30d1 c43e
00000270: 32fd bd3e f908 b83d d249 b9bd dfe1 91be
00000280: b2ba e4bc 74f4 6e3e 4992 393e 7d5e 353d
00000290: 385c 9f3d 6daa 1d3f b17c 42bd 004e 90bd
000002a0: 678e acbd fb56 6c3c 35af d6be 56b3 3ebe
000002b0: 2a8a 06be 6ad5 92be db14 293e 7123 afbe
000002c0: 297f e2bd 5f04 ba3d a9dc afbd 0938 b23f
000002d0: 350d 6f3d 586a 273c 98d4 493e b243 393e
000002e0: 9097 af3e 63b1 743e 6c49 1d3e d8fd b73e
000002f0: 2798 1a3d 8827 5bbe 8ee1 ee3e c896 203e
00000300: c45d 543d 4ffe 4fbe 4bcb e13e 5977 6fbe
00000310: 1b0f 0dbe b682 d33d 04b7 a0be 96d6 cf3d
00000320: 96f6 ac3e e0c4 423d dea8 06bd 1ded 0f3f
00000330: f268 0fbe 0831 7ebd 5617 cb3e 9890 c4bc
00000340: f74d 31bc 3788 b1be 22d7 193e a8d0 dc3e
00000350: 6917 e13d 63f5 54be c73e fb3d a7d9 b93d
00000360: 7668 723c fb1d c63e e699 003f d854 c53e
00000370: 763f 2a3c 377b 4c3e 6123 0c3e 5fba c6be
00000380: 5264 963e 866a 18bf 2eab edbd 2cd4 0a3e
00000390: efde 1f3e 2e61 99be f4da bf3d 39a3 69be
000003a0: d646 59be 19b3 60be 3cae 4fbe 689c 88be
000003b0: 0fb8 51be b1a8 40bc cb3f 40be 6d8f 04bc
000003c0: 6bcb 82be 808d 2b3d e429 d93e e299 afbe
000003d0: ef14 41bd 3ee3 773d 81d9 dfbe b44a 94bd
000003e0: e685 1e3f 6957 323f a2c8 633d eb34 a7bd
000003f0: 897e e8bd 5ff0 f03e a65d 9bbd 3c00 15be
-0.35626572 -0.17949684 0.55578756 -0.111378394 -0.07587662 0.046591815 0.21853152 0.2706807
-0.42344657 0.10367399 0.2009005 -0.31437755 0.020677323 0.2006825 0.13060746 0.02563247
0.07940082 -0.34520394 0.21970694 0.09177753 0.18295394 0.09699539 0.12887852 -0.15957466
0.11223568 -0.054247826 0.21754585 0.44819254 0.13725641 0.20059824 0.11802206 -0.40473178
0.18772839 -0.14981808 -0.29732278 0.0776627 0.16567577 0.251013 0.0890243 0.21818107
-0.41756958 -0.27700683 -0.06221704 -0.14756513 -0.19574183 0.008495694 0.083478406 -0.36387807
-0.13297132 -0.1108164 0.393077 0.30182528 0.028428579 0.08646811 -0.47633123 -0.17101218
0.026837599 0.2761826 0.14758486 0.2170757 -0.15052965 -0.40216273 -0.28613144 -0.002839731
0.2162781 0.24038339 0.12644006 0.20528077 -0.110775575 0.027418297 0.13755777 0.2844861
0.13341291 0.15613694 -0.09080797 0.17335096 0.092571706 0.06353409 0.24239509 0.012424866
-0.11205773 -0.12866737 0.06589791 0.22833318 0.2813567 0.12201468 0.15555272 0.027779039
0.037767224 0.34171894 0.43836406 0.0044832663 0.42198053 0.10490676 -0.16304818 0.08551543
-0.035249636 -0.30738991 -0.0050126547 0.1590365 -0.11783367 0.036123093 -0.16130432 -0.1671784
0.016466446 -0.03481073 -0.08517925 -0.027761027 -0.04419256 -0.0993495 -0.17063546 -0.29475126
0.17681813 0.1258725 0.3144818 0.5325488 -0.026508491 -0.16943276 -0.07161882 0.1885801
-0.1517737 0.24085414 0.16619332 0.044597812 -0.13646945 0.0488676 -0.09579982 0.040284604
0.19367097 -0.09722204 0.60092896 -0.21543561 1.4428113 0.15941258 0.24988012 0.17270629
-0.109691344 -0.26231328 0.2571724 -0.43909127 -0.14589849 -0.026698474 -0.2323161 0.22756739
-0.018198363 0.12451793 0.36100298 0.30920056 -0.06644583 0.13769178 -0.2813673 0.08006101
0.017412689 0.28178787 0.3505388 0.38440847 0.37107235 0.089860864 -0.09047283 -0.28492638
-0.027921055 0.23335439 0.1812221 0.044279564 0.07781261 0.61588174 -0.047482196 -0.07046127
-0.084255986 0.014425035 -0.41930547 -0.18623099 -0.13138643 -0.28678447 0.16511862 -0.34206727
-0.1105941 0.09082865 -0.085870095 1.392335 0.058362205 0.010218225 0.19710004 0.1809223
0.3429532 0.23895793 0.1536004 0.35935855 0.03774276 -0.21401799 0.4665646 0.15682518
0.051847234 -0.20311855 0.44100413 -0.23385371 -0.13775294 0.103276655 -0.3138963 0.10148351
0.3378188 0.047551036 -0.032875888 0.5622118 -0.14004877 -0.06205848 0.3966624 -0.023994729
-0.010821811 -0.34674236 0.15023473 0.43127942 0.10990793 -0.20796733 0.12267833 0.09074717
0.014795413 0.38694748 0.5023483 0.38541293 0.010391107 0.19968878 0.13685371 -0.38814065
0.29373413 -0.5953754 -0.116049156 0.135575 0.15612386 -0.29956955 0.09367934 -0.22816171
-0.21218428 -0.2194332 -0.20281309 -0.26681828 -0.20480369 -0.011758969 -0.18774335 -0.008090836
-0.2554582 0.04188299 0.42414773 -0.3429709 -0.047139104 0.06051945 -0.4372063 -0.07240811
0.6192306 0.6966463 0.05561126 -0.0816439 -0.1135226 0.4705839 -0.075862214 -0.1455087

layer2.fc_pool.bias f4 [64]
00000000: 8c6f c63c ce49 58bd 23bb 9cbd 31ad a9bd
00000010: f26f 2d3c a259 643d d88e 86bc 8b77 c4bd
00000020: 79d1 8ebd 4906 b1bd 2a0f c7bd fee4 25bd
00000030: 9faa edbd b84e e7bc 7c4e 93bc 3df9 4f3c
00000040: afea 55bd 5508 f23c 315f 403c 3318 8a3d
00000050: f99c e4bc 43e6 74bd d87b de3c 422f 93bc
00000060: e4cf 86bd 9269 bfbd fad4 0dbb 6182 263d
00000070: b596 b8bd 962f 99bd f8f3 e9bc e757 4b3d
00000080: 76bc 92bd 4240 4e3d fcb4 713c f376 303c
00000090: 1f13 cd3c 3e6b c9bd 5e47 48bd 911b 9ebd
000000a0: 404d bd3b 1deb d7bc 233c 8abd 8ccb 09bd
000000b0: caa5 8fbc b4a1 783b cb95 afbc c001 2f3c
000000c0: 3797 ffbc 1c81 64bd 7a0c 22bd 1da3 c7bc
000000d0: 1b39 e5bd c91e 853b 7caf 91bd 7794 ef3d
000000e0: 6006 88bd fc6f 3bbd 5dc6 b2bc 41fd b2bc
000000f0: 3ebe 3abd f2c3 5bbd c3de bd3d eebe 983c
0.024223112 -0.05280476 -0.07652881 -0.08284987 0.010585772 0.055749543 -0.016425535 -0.095931135
-0.069735475 -0.08643777 -0.09719689 -0.040501587 -0.11604809 -0.028235778 -0.01798176 0.0126937
-0.052225765 0.029544989 0.011741445 0.06742897 -0.027906882 -0.059789907 0.027158663 -0.01796687
-0.06582621 -0.09346308 -0.0021641837 0.040651683 -0.0901312 -0.074797794 -0.028558716 0.049644377
-0.07164852 0.05035425 0.014752623 0.010770547 0.025033532 -0.09834908 -0.048896186 -0.077201016
0.005777031 -0.026357228 -0.067497514 -0.033641383 -0.01753511 0.003793818 -0.021433732 0.01068157
-0.031200035 -0.05578719 -0.03956268 -0.02436977 -0.11192533 0.004062508 -0.07113549 0.11698239
-0.06641841 -0.045761093 -0.021823103 -0.021849276 -0.045591585 -0.053653665 0.09271004 0.01864573

layer2.fc_neigh.weight f4 [128, 64]
00000000: a811 e23d 4b5a 443c 0898 063e eb50 833d
00000010: 5711 d33d 9081 fa3d edc6 34bc 0803 a2bd
00000020: de85 be3d 6b30 b23d 5668 bb3d cecf 0f3e
00000030: a9f5 b53c 99a7 16be 86ed 453d a2e4 0abd
00000040: 8d43 d63d a524 bd3c 537f a9bd d2a0 463e
00000050: f52e 063e 7cca 2dbd 14a8 553e 9d8f 4abc
00000060: 7ab1 17be 66c9 843d 3d38 303e 9267 8a3d
00000070: 0862 00be 815e 893e 5021 6abd 8217 ab3d
00000080: 0675 bd3c a6de 973e e4c5 dd3d 6454 89bd
00000090: ae65 b73d eefb 29bd 6321 343d 8ea6 cc3d
000000a0: 1d5f 1f3e 2c03 873e 17b7 003f 0384 8e3d
000000b0: 51c4 833d 0889 9b3d a302 2d3e 5e54 d43c
000000c0: 22f1 f33d 41b4 bf3d 2e51 513d fc6c d13d
000000d0: 644c 343e 7452 473d d9ea 383e 808d 3c3e
000000e0: 94b8 783e 92fc 3b3e bc8a b8bd 8eba ce3d
000000f0: 30bf 69bc a7ad a13d da95 9bbd 866f 4ebd
00000100: 0021 e23d 8f3f 823c 7698 343d 01df 0fbe
00000110: 7505 e43d 65b0 12bd 65ff 0b3c b8e3 6e3e
00000120: 1688 4cbd e5ef fd3d fa24 80bd c9d3 aabe
00000130: d0ee 3f3e e7b4 45bd f739 e73c 5e59 88be
00000140: b9e4 843d 5dcb 9ebd 18b8 08bf 3f48 02bf
00000150: 3736 d23d 3474 a5bc 0c58 833e b9bb 4fbd
00000160: a676 9ebd 7480 3cbd 1196 273e 3648 9cbd
00000170: dc65 3e3d a8e2 863d 9b79 31be 023e 18be
00000180: 4177 b0bd 8986 febc 67f2 fdbc ce52 683d
00000190: d62d 5dbd 129e 81bc ec5d 963b 38ca 0ebe
000001a0: 5dbc 793e c8bb e63d 8a30 d43c 000d 853e
000001b0: 040f 98bc 6524 773e ab6d 6d3e 1786 de3d
000001c0: 9bf8 dcb9 db9f 63bc 7570 d2bc 54cf c63d
000001d0: 0322 4d3e f56d a53c 2725 77bd c3df f2be
000001e0: 28ea f9bd c48c e63d 9dfe 1fbe 8f84 4cbd
000001f0: 2ca7 153e 6aa1 ffbd 4541 00bf ac55 e0be
00000200: 8223 35be 1f5b 3ebe 153b 633d 6c9c c9be
00000210: 17af c4bd 72c0 22be 1188 7a3d bb9d bc3b
00000220: c037 443d b4bc a4be 5a9e fbbc f2aa be3d
00000230: 88f3 b4bd 5417 b7bd dcce a1be a924 883e
00000240: 2ef7 f43d 299e b1be 2e31 a53c 642e edbd
00000250: cda4 db3d d157 1d3e 3780 a3be c0bc 003e
00000260: 9563 0cbd 5034 3ebe fc4f 1ebe 0c50 793d
00000270: e47a 063e 8490 2cbd a0dc 873d 6e59 8b3d
00000280: f32c 08be e921 68be 69e6 03bd 5337 113c
00000290: ebe4 92bd ed7d e9bc 2d8f 4d3d 69d3 e6bd
000002a0: ab99 96bc 6509 3abd 1872 263c 1f0f ccbe
000002b0: 61b1 0cbe 5c14 143e 6dc1 9bbe 725a 4abd
000002c0: 4769 16be bc86 bdbe bbb6 d6bd 3c2e 343d
000002d0: 153f 42bc d682 f7bc c8ea 35be 8151 50be
000002e0: 15ba e63d 0b12 1d3e b4e6 95bd 5992 c7bc
000002f0: 9298 35be 60ea fe3b 6d77 a2bd 74e1 8dbd
00000300: 25fd a83c eaeb e0bb 741b 8f3e c5e2 0f3c
00000310: 38fa edbb de92 3a3d 9bd9 753d c46c f2bd
00000320: a727 003e 82cb 063e 3f55 7a3d b7e5 223e
00000330: 415e 0a3e 93a7 943d 1bea 893d 3c2e 70bd
00000340: 80c0 e83c fa89 7a3e 5e43 4a3e db6d 193e
00000350: e963 c9bd 0f13 453d 59fa 773d db75 0dbe
00000360: ba7e 7cbd efe9 3c3e 127c a43e ffaa 5d3e
00000370: 4942 c6bd 4946 edbd 1372 943e eadd d73d
00000380: fe87 163e 366e 1a3e d582 a63d e3ff 283e
00000390: 680c f4bd 6965 703d a14d 11be 2e63 a238
000003a0: 0cc2 8f3d e98f 343d 4758 e53d 69c5 2f3d
000003b0: e6a8 98bc 787d 803d 4dbd fc3d 8732 973e
000003c0: e788 563d c959 0f3e d9bf 99bd da40 1f3e
000003d0: b798 833e ddde 7738 4c7d c13e 960b d43d
000003e0: 349e 583d 0db0 503e 9795 953e 4604 873d
000003f0: 56dc 27be 327f 1b3e 57a5 353e 4166 cc3d
0.11038524 0.011984418 0.13143933 0.06411918 0.10306042 0.12231743 -0.011033756 -0.079107344
0.09302877 0.08700641 0.0915076 0.14044115 0.022211866 -0.14712371 0.048322223 -0.033909447
0.10462103 0.023088763 -0.08276238 0.19397286 0.1310385 -0.042429432 0.20864898 -0.012363342
-0.14813796 0.06483726 0.17208953 0.06758036 -0.12537396 0.26829913 -0.057160676 0.08354093
0.02312709 0.29662055 0.1082876 -0.06705549 0.08954941 -0.041500024 0.043977153 0.09992705
0.15563627 0.26369607 0.5027937 0.06958773 0.06433929 0.07594496 0.16895537 0.025919136
0.11911227 0.093605526 0.05110281 0.10225865 0.17607266 0.048662618 0.18058337 0.18413353
0.24289161 0.18358067 -0.090108365 0.10094176 -0.014266774 0.0789445 -0.07596941 -0.050399326
0.110414505 0.015899448 0.04409071 -0.14049913 0.11133853 -0.035812754 0.0085447775 0.23329055
-0.04993447 0.12399272 -0.06257053 -0.33364704 0.18743443 -0.048268225 0.028225882 -0.26630682
0.06488938 -0.07753632 -0.53405905 -0.5089149 0.10264247 -0.020197012 0.25653112 -0.050716136
-0.07737474 -0.04602094 0.1636584 -0.07630961 0.04648386 0.065862 -0.17331545 -0.14867404
-0.08616496 -0.03107001 -0.030999376 0.056719594 -0.05399879 -0.015822444 0.004588833 -0.13944328
0.24388261 0.11266285 0.025902051 0.2598648 -0.018561848 0.24134977 0.23186366 0.10865419
-0.00042146895 -0.013893093 -0.02568839 0.097075135 0.20032506 0.020194033 -0.060338166 -0.47436342
-0.12202865 0.11257318 -0.15624471 -0.049931105 0.14614552 -0.12481959 -0.50099593 -0.43815362
-0.17689326 -0.18589447 0.055476267 -0.39377153 -0.09603708 -0.15893725 0.06116492 0.0057561076
0.04790473 -0.3217522 -0.030715156 0.09309949 -0.088355124 -0.08939996 -0.31603134 0.2659047
0.11961208 -0.3469098 0.020165052 -0.11581114 0.10724793 0.1536553 -0.31933758 0.12572002
-0.034274656 -0.18574643 -0.15460199 0.060867354 0.13132817 -0.04213001 0.06633878 0.06804167
-0.13298397 -0.22669186 -0.032202158 0.008863288 -0.07172569 -0.028502429 0.05018537 -0.11270792
-0.018383821 -0.045419116 0.010159038 -0.39855286 -0.1373954 0.14460891 -0.3042101 -0.04940266
-0.14688598 -0.37016857 -0.10484072 0.043989405 -0.01185586 -0.030213755 -0.17765343 -0.20343591
0.11265961 0.15338914 -0.07319394 -0.024361776 -0.17733982 0.0077794045 -0.07932935 -0.069277674
0.020628521 -0.0068640606 0.27950633 0.008782093 -0.0072624944 0.04555022 0.060021978 -0.11837152
0.12515126 0.1316357 0.061116453 0.15907942 0.13512518 0.07258525 0.06734105 -0.058637843
0.028412104 0.24466696 0.19752261 0.14983313 -0.098335095 0.04811388 0.060541485 -0.1381449
-0.061644293 0.18448614 0.32125908 0.21647261 -0.09680612 -0.115856715 0.28993282 0.105403736
0.14700314 0.15081105 0.08130423 0.16503863 -0.11916429 0.058690462 -0.1418977 7.7432356e-05
0.070194334 0.044082556 0.11198478 0.042912874 -0.018635225 0.06273931 0.12340794 0.29530737
0.052376654 0.13999094 -0.07507295 0.15552083 0.2570245 5.9096947e-05 0.37790906 0.10353772
0.05288525 0.20379658 0.2921569 0.06592612 -0.16392645 0.1518524 0.17738853 0.09980441

layer2.fc_self.weight f4 [128, 64]
00000000: e527 0d3e e9b2 1ebd a83e 033e 0b44 893d
00000010: c333 a8bd da55 d9bd 3172 a03e 09bb 05bf
00000020: 880a 2f3e b714 b7bd 9f90 89be 7b56 003d
00000030: abc2 a33e ff37 e63d aff2 2d3e 2d57 b03d
00000040: 78d5 92be e62a 97bd d8fd 41be 9968 d3bd
00000050: 6e32 eabe 8e31 083e 54b2 443d 3f58 edbe
00000060: af90 27bf 79d2 b63e f208 6f3e 2617 ec3d
00000070: df15 04bf cbbc 12be 0e69 903e 0090 b13d
00000080: 7ca2 393d f478 4e3d 9f39 383e 11f8 463e
00000090: 06b3 68be 681b fcbc b7ce d23d 589b 5dbd
000000a0: ba49 d63d 3d93 e6bd 106b c93c e674 aabd
000000b0: 6d0b afbd 3f14 0b3f 20fd 97be f082 2e3d
000000c0: 9587 6f3d ee8e 4dbe 5d27 313e 16e6 e4be
000000d0: 6e36 7c3e e612 95bd 97df 69bd 0285 4e3e
000000e0: a40c 3fbe f6a0 ad3d d16d 1abe d7a0 533e
000000f0: 64ef 57be 825e 05be 28fc 143e 8343 903e
00000100: 97e9 5a3d 17b9 23be 1e8d 52be 7275 57be
00000110: f3f5 2c3e 8b43 f2bd e908 1d3e 534a 023e
00000120: d176 12be a244 90bd 88d4 c13e 4ac0 ba3d
00000130: b951 a13e c2ac a03e ba57 8ebe 51ee 63be
00000140: a792 bd3e efb8 8dbc 96f4 1ebd 04e6 abbd
00000150: cbf6 8f3d 7dba 86be 7b11 25bd 7da5 bfbd
00000160: ba10 24be 8b18 c63e 728c 743d 8427 b53e
00000170: eae9 733d 2b82 ea3d c5a3 0e3e 168d 65bb
00000180: 7e06 dd3d 1b75 68be d00b ee3d 46f2 e83d
00000190: bc10 06be 4728 883e 73d0 2b3e 7016 803e
000001a0: e272 823e 8ded 68bd 2df1 6a3e c478 00be
000001b0: 28ca 9bbd a431 bb3d 1ae2 1d3e ab3d a33d
000001c0: 1175 9a3d 6eb5 843e 0ab9 b13e 2ab1 ad3d
000001d0: 7713 403e 0440 f93d acd2 22bd 72f2 853e
000001e0: ed67 7bbe 69b9 833d d969 923e 21d8 4f3c
000001f0: 49a3 933e 3fcc c8be c362 a83c 54c6 c23d
00000200: b13a 95be c00f 023e 566f 943d 37d0 043e
00000210: 3631 a2be d417 2f3f 203b bd3e 911d bb3e
00000220: a31e 98be 19e4 073f 8f0e 303e 66fa 4e3e
00000230: c806 4b3e 61e1 b83e 108a 0abe 1aba b7bc
00000240: 1a1a b13e 275c 8abd 23fb 8c3e e0d5 243b
00000250: 3724 723e 5d00 66bd c2a1 103f 4837 f23e
00000260: a338 123f dc97 46be 256e d23a 44c5 873e
00000270: 202a 073f 298e bd3e d0de eb3e 77a2 673c
00000280: ccf8 263e e5b4 843e 68ff b03b a6c8 42be
00000290: ee11 fa3e efe6 343e 75b7 a43e f026 193f
000002a0: 5cd2 6cbe 8101 56bc 9628 9f3e 4f97 adbd
000002b0: a9ac cd3e 0625 7b3e 574c 253f 4bdf 803d
000002c0: 4a1c 443e 71f6 bf3e 64a4 cf3e dba4 e63d
000002d0: b809 a83e 08f9 b93e bf85 ec3b b9d3 19bb
000002e0: 2f9d 083e 4653 473e 4621 693e 5e9b 67be
000002f0: c8d7 003f 7819 273e 28a3 273d a441 8ebe
00000300: 91cb 583d 8f24 9f3e 493d 40bd a5da 8b3e
00000310: 2ec4 0e3e 553c e0be 0762 22be 8835 e0be
00000320: 0367 a63e 685b 8bbe ea09 bbbe caf9 97bc
00000330: 2689 46be cb77 11bf 78ae 5d3d 3c4a 443d
00000340: 9f89 7fbe d7d5 8b3e 1d6e 83bb fda6 9ebe
00000350: aefe f9be 9b92 843e d74b 263e b547 8abe
00000360: 5710 6fbe ca3e d4be c40b 6fbe 6ca5 41bd
00000370: f174 1dbe 5ea8 9fbe 635f 22be aa90 833e
00000380: 4aec 7dbe 8a45 3f3e 22d8 5f3e 6a14 323e
00000390: bb12 5b3e 0866 193d 9262 ab3d 63f1 ddbc
000003a0: 1750 383e 5c8b 0d3e c7eb 953e cfce 8a3e
000003b0: eb23 503e 3685 2e3d f111 943d 7bb7 6a3e
000003c0: 65e7 643c 63a4 f8bd f702 36bf 1478 b83d
000003d0: ca89 dabd 37dd 39be dad5 d23e f38c f9bd
000003e0: e0a3 87bd e9cc fdbd b5d5 11bf e588 ab3e
000003f0: 2bcb 36be e55e 3d3e 7af4 b53e 73e9 d73e
0.1378475 -0.03874484 0.1281687 0.06702431 -0.08212998 -0.10612078 0.3133712 -0.5223852
0.17093861 -0.08939498 -0.2686815 0.031332474 0.31984457 0.11241149 0.16987108 0.086103775
-0.2867849 -0.07381229 -0.1894449 -0.10322685 -0.457416 0.13300154 0.04802163 -0.4635639
-0.65455145 0.35707453 0.23343256 0.11527853 -0.5159587 -0.14329831 0.2820515 0.08670044
0.045320973 0.05040832 0.1799073 0.19430567 -0.22724542 -0.030774787 0.10293334 -0.054103225
0.10463281 -0.11258552 0.024587184 -0.08323078 -0.08547101 0.5432777 -0.29685307 0.04260534
0.05847891 -0.20074055 0.17300172 -0.44706792 0.24630138 -0.07278995 -0.057097998 0.20167926
-0.18657166 0.084779665 -0.15080954 0.20666824 -0.21087414 -0.13024333 0.14549315 0.28176507
0.053445425 -0.15988575 -0.20561644 -0.21040896 0.16890697 -0.11829289 0.1533543 0.12723665
-0.14303137 -0.07044341 0.3785746 0.091187075 0.31507662 0.31381804 -0.27801305 -0.22258879
0.3702595 -0.017300097 -0.038807474 -0.083934814 0.07029494 -0.26314154 -0.040299874 -0.09357736
-0.16022006 0.386906 0.05970425 0.3538171 0.05954925 0.11450609 0.1392966 -0.003502672
0.10792254 -0.22700922 0.11623347 0.11374335 -0.13092321 0.2659323 0.16778736 0.25017118
0.25478274 -0.05686717 0.22943564 -0.12546068 -0.076069176 0.091403276 0.15418282 0.079707466
0.0754186 0.2591967 0.34711486 0.08481057 0.18757425 0.12170413 -0.039751694 0.26161534
-0.24551363 0.064318486 0.2859638 0.0126858065 0.28835514 -0.39218327 0.020554906 0.09510484
-0.2914634 0.1270132 0.07247798 0.12970053 -0.3167817 0.68395734 0.3695917 0.36545995
-0.29710874 0.53082424 0.17193054 0.20212707 0.19826806 0.3610945 -0.13529229 -0.022427607
0.34590226 -0.06755858 0.27535352 0.0025151893 0.23646627 -0.05615269 0.5649682 0.473078
0.5711767 -0.19393867 0.0016054554 0.2651769 0.5279865 0.37022522 0.4606843 0.014137856
0.16305846 0.25919262 0.0054015405 -0.19021854 0.48841804 0.17666219 0.32171217 0.5982504
-0.2312712 -0.013061882 0.31085652 -0.084761254 0.40170792 0.24525842 0.6456961 0.0629259
0.19151416 0.37492707 0.40555108 0.112619124 0.32819915 0.36322808 0.007218092 -0.0023472144
0.13341211 0.1946536 0.22766599 -0.22617862 0.50329256 0.1631831 0.040927082 -0.27784455
0.05292851 0.3108258 -0.046933446 0.2731525 0.13942024 -0.4379603 -0.15857707 -0.4379084
0.32500467 -0.27218175 -0.36531 -0.018551726 -0.19388255 -0.56823415 0.054121464 0.047922358
-0.24954842 0.27311584 -0.0040109293 -0.30986777 -0.48827118 0.258931 0.16239868 -0.27007833
-0.23346077 -0.41454154 -0.23344332 -0.0472769 -0.15376641 -0.3118314 -0.158567 0.25696307
-0.24797168 0.18678871 0.21859792 0.173906 0.21393864 0.03745082 0.0836841 -0.027092641
0.17999302 0.13822693 0.29281446 0.27110907 0.20326202 0.04260751 0.072299846 0.22921555
0.013971184 -0.12140729 -0.71098274 0.09007278 -0.106708124 -0.18150793 0.4117878 -0.12185087
-0.066230536 -0.12392599 -0.56966716 0.3350288 -0.1785094 0.1849323 0.35538083 0.42170295

layer2.fc_self.bias f4 [128]
00000000: c746 f23c db88 843d 174a 953e 6441 103e
00000010: 7a46 a43d 0640 af3c 4983 6a3d cf0a 7abd
00000020: 4eb1 823d 3668 8bbd ac7a cb3a 18d6 63bd
00000030: 5065 34bd 7249 d7bc cd2f f7bc 9858 883e
00000040: 1c73 af3e 27d8 a8bd 21ab 05bd ac73 a5bd
00000050: ea7a 9dbd fc07 95bc f65b d83d 1e78 dcbd
00000060: cb3e 833e 1c77 1fbd e455 44bd 11f8 993b
00000070: f51f 9f3c 7b59 87bd 3b0f 9a3d 7c90 57bd
00000080: 3ad0 5b3e 553a 41bc 865f 24bd c4a3 95bd
00000090: 1f0c a1bd 8464 613e 2893 e43e c779 25bd
000000a0: 342a adbd 693c e9bd cb5a dc3d 5435 a73c
000000b0: f436 123d 0d1e a93d 8bd1 0ebc bd20 d1bc
000000c0: 0f6b c73d 7008 d43e d709 043d 9c3b 00bd
000000d0: 07aa d4bd da88 983c 2b65 afbd 45cb 51bd
000000e0: b3db c03d 91f2 35bd b9eb ac3b 2287 c23c
000000f0: c08c e5bc 17cc cfbc b8e6 9abd 4269 cebc
00000100: 9fc7 c83e 94ab 83bd 182d bd3d 9ae4 81bd
00000110: a224 9e3d 1979 c6bd 38d8 b33d e9ee aebd
00000120: 5190 88bd 533a 29bd f6a5 7a3c 7b0a 333e
00000130: 0f7e b9bd da4e 84bd 04b1 523d 6932 14be
00000140: 18c0 5d3d a4fb ad3e 4e16 6aba b3e3 5cbd
00000150: d4d4 04bd 1d1b b5bc 1650 5e3a 4152 b93e
00000160: d49b 383c c8de 513e af6b 0a3e a5f4 ab3e
00000170: d381 703e 5db0 293d 99f6 d43d 8e4a 843c
00000180: d277 34bd 04ca e13c 583c c0ba 5949 f1bd
00000190: 213c cdbd 8a0a c3bc 56e1 2c3d b442 0cbd
000001a0: ca24 aa3e 1992 8bbd 1e61 78bd e2b2 bbbd
000001b0: 9975 ed3e ea2a 933c 3d45 ccbd ec2a 1abe
000001c0: 3cec a1bc 7cb7 12bc 62b8 eeba 972e d8bb
000001d0: 93b5 933e 61c7 323d 04c2 463e 1084 03be
000001e0: 50e0 59bd 06a5 9ebc 17fb bcbd 000a 733d
000001f0: aa9b 78bc a8ad c33e ba49 3d3e 31ae 273d
0.029574765 0.064714156 0.2915809 0.14087445 0.08021255 0.021392833 0.05725411 -0.061045464
0.063814744 -0.06806986 0.001552423 -0.055624098 -0.04404193 -0.026280139 -0.03017416 0.26630092
0.3426751 -0.08244353 -0.032633904 -0.08078703 -0.076894596 -0.018192284 0.10564415 -0.10765098
0.25633845 -0.03893195 -0.047933474 0.0046987613 0.019424418 -0.06608864 0.07522436 -0.052628025
0.21466151 -0.011793693 -0.04013016 -0.073066264 -0.0786364 0.22011 0.4464352 -0.04039934
-0.08455315 -0.113884754 0.10759505 0.020411171 0.03569694 0.08257685 -0.008716951 -0.025528306
0.09737217 0.41412687 0.032235947 -0.031306848 -0.10383993 0.018619943 -0.08564218 -0.051219244
0.09416904 -0.044420782 0.005277124 0.023746077 -0.028021216 -0.025365872 -0.07563537 -0.025196675
0.392148 -0.0642921 0.092371166 -0.063424304 0.07721831 -0.09691066 0.08781475 -0.08541662
-0.06668151 -0.041315388 0.015298357 0.17484467 -0.09057247 -0.06460352 0.051438347 -0.14472355
0.054138273 0.3398105 -0.0008929715 -0.05392809 -0.03242953 -0.022107655 0.00084805617 0.36195567
0.011267621 0.2049514 0.1351764 0.33585086 0.23487024 0.04142796 0.10398597 0.016148832
-0.044059582 0.027562149 -0.0014666421 -0.11781568 -0.10021234 -0.023808736 0.042207085 -0.0342433
0.33231193 -0.06814975 -0.060639493 -0.091649786 0.46378782 0.017964799 -0.09974144 -0.15055436
-0.019765966 -0.008954879 -0.0018212909 -0.006597351 0.28849468 0.043647174 0.19409949 -0.12843347
-0.053192437 -0.019365799 -0.09227579 0.05933571 -0.015173832 0.38218427 0.18485156 0.040937606
