Audit-log_Analysis/code/GNN/training/checkpoint_graphSAGE/best_model_GraphSAGE_transE_50.pt (torch, 294273 bytes, 12 tensors)

sage.layer1.fc_pool.weight f4 [50, 50]
0.097024076 0.045396384 -0.04827627 -0.07502069 -0.042225737 -0.008858978 -0.09396231 -0.108137585
-0.15694478 -0.10100377 -0.2222466 -0.028421128 -0.034344286 0.04907159 -0.064297065 -0.038128484
-0.026298223 0.11969325 0.078078195 0.15939167 -0.14277236 -0.28457457 -0.05657231 -0.10671821
-0.06469322 0.004490091 -0.10042472 -0.044018403 -0.10208247 0.007981893 0.12427932 0.026436953
0.056171175 -0.11557282 0.0199527 -0.16863985 -0.024288695 -0.20402536 -0.13639902 0.09147241
0.1192894 -0.099698454 -0.046204798 0.14827165 0.12201284 0.03474957 -0.015846979 -0.052489255
-0.055324413 0.06807655 0.18194352 0.03761244 -0.04371489 -0.12695578 -0.21911712 0.14244044
-0.16865714 -0.0074550947 -0.11634333 -0.12961222 -0.06593474 0.08310476 -0.06289682 -0.051753554
-0.06320117 0.17741656 0.05103538 -0.06847417 -0.028856175 -0.0603476 -0.12343743 -0.2362696
0.023371909 -0.03340197 -0.14823417 -0.08612257 0.045887552 -0.035900053 0.022642262 -0.101470135
0.123856336 0.18076383 0.03956209 -0.043196503 0.2120455 0.025756482 -0.14031078 0.05485004
-0.24720408 0.0074945157 0.08024915 -0.14688542 0.11456084 0.08043251 0.14218804 0.011149384
-0.16367662 -0.00740995 -0.14363705 -0.06692504 0.12207912 0.023103695 -0.05045065 -0.08723757
-0.035286825 0.024182448 -0.13723576 -0.0048034107 -0.15735956 -0.098047756 -0.13006908 -0.04008607
0.018311923 0.025943588 0.06642341 0.11531171 0.039747953 -0.04132279 0.047568645 0.113348246
-0.15257081 -0.17398393 -0.03408466 -0.06483059 -0.15665756 0.050918795 -0.16101137 0.0912333
0.084486164 -0.048625518 0.059155047 0.147369 -0.05000471 -0.09853126 -0.03134211 -0.026237924
-0.053062703 -0.011154021 -0.021654323 0.043821543 0.052517872 -0.10606045 -0.010245943 0.07704584
0.12076995 0.015383482 0.035951104 0.007985464 -0.14026351 -0.07349018 -0.051375367 0.08758085
-0.02764463 0.073350534 -0.07251271 0.055964265 -0.02379175 -0.024712455 -0.04203495 -0.019401565
0.022291169 0.103883624 -0.005134248 -0.02407473 0.11618471 -0.012302346 0.04572488 0.01358394
0.00042274484 0.04150801 -0.004368769 0.053332224 0.09052331 -0.04129209 -0.02280958 -0.049071904
0.08923875 0.027910082 -0.048188 -0.022326857 0.018475601 0.0691811 0.0481792 0.04174371
0.055352017 0.086989254 0.015672581 -0.04312984 -0.07372069 0.07873648 0.03485481 -0.039573874
0.069079325 0.043054197 0.05103437 0.03744935 0.020366691 -0.044353276 0.014744675 0.034451284
0.15857737 0.07318333 -0.063838616 -0.19388933 -0.35323417 -0.012088724 -0.11773734 -0.096725054
-0.106576584 -0.1710804 -0.1306414 -0.16517566 0.006435022 0.12615032 0.07510474 0.064147964
-0.035748705 0.015924504 0.070030816 0.13817732 -0.29796147 -0.286992 0.12700872 -0.03374697
0.010897337 -0.088306226 0.021165403 -0.20806538 -0.021301806 -0.17927186 0.19502155 0.102630995
0.017712345 -0.14729387 0.009513805 0.10134858 -0.2577616 -0.021913504 0.103413984 -0.1427683
0.025649013 -0.059345942 0.22220446 0.010861501 -0.1188327 -0.047233056 -0.16394651 -0.081192985
0.00019489763 0.08893246 0.09978958 0.16975667 -0.0003304418 -0.11620824 -0.13550977 0.05806859
00000000: 8fb4 c63d 8ff1 393d 57bd 45bd 73a4 99bd
00000010: e5f4 2cbd 3f25 11bc 506f c0bd 3d77 ddbd
00000020: 22b6 20be 11db cebd 9d94 63be 6dd3 e8bc
00000030: 98ac 0cbd 4bff 483d 2eae 83bd 9d2c 1cbd
00000040: 5f6f d7bc bc21 f53d 76e7 9f3d 9237 233e
00000050: eb32 12be c2b3 91be 5eb8 67bd 148f dabd
00000060: e17d 84bd 9d21 933b 7aab cdbd a44c 34bd
00000070: 9d10 d1bd 7cc6 023c 2886 fe3d 4f92 d83c
00000080: bf13 663d 71b1 ecbd d873 a33c edaf 2cbe
00000090: 16f9 c6bc 06ec 50be 2fac 0bbe e355 bb3d
000000a0: 004e f43d b42e ccbd 3e41 3dbd 86d4 173e
000000b0: dee1 f93d 9155 0e3d 86d1 81bc f9fe 56bd
000000c0: da9b 62bd b86b 8b3d 674f 3a3e 800f 1a3d
000000d0: 620e 33bd b200 02be 3d60 60be e8db 113e
000000e0: 75b4 2cbe de49 f4bb 6945 eebd 11b9 04be
000000f0: cb08 87bd d432 aa3d 0cd0 80bd 89fb 53bd
00000100: 9d6f 81bd b0ac 353e 7a0a 513d 303c 8cbd
00000110: c963 ecbc 0c2f 77bd c3cc fcbd a8f0 71be
00000120: 7276 bf3c 81d0 08bd b3ca 17be 0861 b0bd
00000130: 96f4 3b3d ef0b 13bd 447c b93c 93cf cfbd
00000140: 64a8 fd3d 271a 393e dc0b 223d d1ee 30bd
00000150: 7522 593e 42ff d23c a1ad 0fbe 6faa 603d
00000160: 1123 7dbe 8e94 f53b ab59 a43d 2269 16be
00000170: e09e ea3d cdb9 a43d be99 113e e8ab 363c
00000180: d89a 27be 2acf f2bb 9715 13be ff0f 89bd
00000190: 9e04 fa3d f643 bd3c 57a5 4ebd 9ca9 b2bd
000001a0: eb88 10bd 451a c63c 8887 0cbe ee65 9dbb
000001b0: dd22 21be 43cd c8bd d430 05be 4a31 24bd
000001c0: e302 963c a687 d43c ff08 883d 8c28 ec3d
000001d0: c0ce 223d 1642 29bd 57d7 423d 2023 e83d
000001e0: 863b 1cbe d828 32be 5b9c 0bbd e6c5 84bd
000001f0: d76a 20be 3a90 503d 2ae0 24be 86d8 ba3d
00000200: 1507 ad3d 8d2b 47bd 904c 723d e6e7 163e
00000210: bdd1 4cbd c2ca c9bd 9660 00bd eaf0 d6bc
00000220: 4758 59bd 5bbf 36bc 6864 b1bc 387e 333d
00000230: fb1c 573d 3936 d9bd 9ade 27bc 36ca 9d3d
00000240: 3c56 f73d 000b 7c3c 7741 133d 77d5 023c
00000250: 3da1 0fbe 0582 96bd fa6e 52bd 975d b33d
00000260: fe76 e2bc ce38 963d 8b81 94bd c93a 653d
00000270: ebe6 c2bc c671 cabc d72c 2cbd 08f0 9ebc
00000280: f89b b63c f0c0 d43d 323d a8bb 5e38 c5bc
00000290: 40f2 ed3d c78f 49bc 034a 3b3d 2d8f 5e3c
000002a0: daa3 dd39 4e04 2a3d e427 8fbb e472 5a3d
000002b0: 4964 b93d e521 29bd 28db babc 9fff 48bd
000002c0: cec2 b63d afa3 e43c c860 45bd d0e6 b6bc
000002d0: 255a 973c d2ae 8d3d 8e57 453d 74fb 2a3d
000002e0: ccb8 623d 6c27 b23d c963 803c eaa8 30bd
000002f0: e0fa 96bd 9740 a13d ebc3 0e3d 3718 22bd
00000300: 7679 8d3d 9959 303d 6a09 513d 7d64 193d
00000310: 0cd8 a63c c8ab 35bd a693 713c ca1c 0d3d
00000320: 1b62 223e 24e1 953d d2bd 82bd ed8a 46be
00000330: 1cdb b4be c90f 46bc 4620 f1bd c917 c6bd
00000340: d344 dabd b32f 2fbe dcc6 05be cf23 29be
00000350: e1dc d23b 8d2d 013e 84d0 993d 0260 833d
00000360: 3c6d 12bd 1b74 823c 516c 8f3d 5b7e 0d3e
00000370: 688e 98be 9ef0 92be 930e 023e 433a 0abd
00000380: bf8a 323c e5d9 b4bd 1163 ad3c 170f 55be
00000390: 2081 aebc 0b93 37be bbb3 473e 3330 d23d
000003a0: 7b19 913c 34d4 16be cadf 1b3c d88f cf3d
000003b0: 54f9 83be f383 b3bc b6ca d33d da31 12be
000003c0: e11d d23c bb14 73bd 9189 633e 70f4 313c
000003d0: 8f5e f3bd 7377 41bd 98e1 27be 8248 a6bd
000003e0: 6f5d 4c39 3922 b63d 7b5e cc3d b1d4 2d3e
000003f0: 263f adb9 96fe edbd 13c3 0abe 54d9 6d3d

sage.layer1.fc_pool.bias f4 [50]
-0.6309296 -0.38460568 -0.5282353 0.01772313 -0.48164338 -0.10880303 0.049704038 -0.21706255
0.102927394 -0.10886286 -0.28889537 -0.6243916 -0.016381973 0.03179432 -0.25450072 -0.1479562
0.20480433 0.91494805 -0.54186577 -0.52257353 -0.47175768 0.1760515 -0.18475246 -0.3542135
0.12702689 -0.040056236 -0.51944625 -0.04935932 -0.07092632 -0.1425585 -0.4793481 -0.528805
-0.43062955 -0.032343395 -0.43713802 -0.50293326 -0.5913659 -0.15401503 -0.7583848 -0.6251264
-0.6253783 0.044074666 0.58993596 -0.59106314 0.014689406 -0.017896205 -0.5007535 -0.66190934
-0.46796453 -0.08250136
00000000: 9a84 21bf 09eb c4be 6e3a 07bf 1930 913c
00000010: f699 f6be 1fd4 debd 7696 4b3d a545 5ebe
00000020: 99cb d23d 7ef3 debd 18ea 93be 21d8 1fbf
00000030: 7d33 86bc c33a 023d eb4d 82be d581 17be
00000040: 3ab8 513e 093a 6a3f b7b7 0abf 61c7 05bf
00000050: 398a f1be d846 343e c02f 3dbe 795b b5be
00000060: 5613 023e 0212 24bd 6efa 04bf 002d 4abd
00000070: d241 91bd dbfa 11be 1d6d f5be c45f 07bf
00000080: 7a7b dcbe 827a 04bd 8ed0 dfbe 3cc0 00bf
00000090: c163 17bf 1eb6 1dbe 8225 42bf 4908 20bf
000000a0: cb18 20bf a387 343d 0b06 173f ea4f 17bf
000000b0: d6ab 703c 109b 92bc 6231 00bf e472 29bf
000000c0: 0c99 efbe 79f6 a8bd

sage.layer1.fc_neigh.weight f4 [64, 50]
0.29731524 -0.02988201 -0.042634036 0.064954005 -0.10549291 -0.10521082 0.067130364 -0.047767136
0.08281824 -0.011175692 -0.1333626 -0.07104287 -0.038328752 0.031826075 0.027089924 -0.03108968
-0.020033158 -0.10951583 -0.07456638 -0.0013605594 0.010170453 0.04079841 0.011438903 0.116720825
0.06032474 -0.033196356 0.060253885 0.022220341 0.065555245 0.07283745 -0.11831689 0.20658575
-0.087688625 0.084740885 0.16578026 -0.11529159 -0.006355107 -0.039149076 -0.14588223 -0.0931403
0.03149421 -0.019452304 -0.10226701 -0.039944608 0.081768386 0.074322976 -0.082765535 0.09678593
-0.031526294 0.04874012 0.066055715 -0.038428146 0.1265154 -0.0845433 -0.026124535 -0.080690295
-0.06890935 -0.045423344 -0.08956381 -0.044125278 -0.06467939 0.057683825 -0.03333223 -0.073510915
-0.0073147654 -0.037498422 -0.029173626 -0.020204553 0.026196163 -0.119598575 0.027337478 -0.07933881
-0.033300735 0.09433374 -0.084254436 -0.039289147 0.031986248 -0.055282023 -0.09334463 -0.07350805
-0.069455214 0.08997666 -0.05906877 -0.07563342 0.009312054 0.025093935 -0.008550721 -0.033327088
-0.006486742 -0.027484339 0.025021823 -0.04703318 -0.056996025 -0.0016974931 -0.05462277 -0.10483015
0.072386704 0.10144324 -0.065317035 -0.03822076 0.044259205 -0.008097767 0.063896336 -0.06431033
0.027586455 -0.03780997 -0.050441716 -0.03445343 -0.09015291 -0.101238035 0.022648258 -0.12706138
-0.06340989 -0.044103958 -0.048210215 -0.04283571 -0.039879 -0.18589103 0.015934616 -0.06066207
-0.09797008 -0.0976371 -0.02859203 -0.0710294 -0.0764193 -0.016281052 0.038983077 -0.054496054
-0.06637173 -0.041148063 0.067911915 0.09546443 -0.01555607 -0.055757076 0.13934511 -0.05299137
-0.02624521 -0.08578833 -0.037969537 -0.020205999 0.17923649 -0.045392748 -0.06334479 0.03642201
-0.04102958 -0.08867329 -0.044493377 0.05391121 -0.04663832 -0.067083575 -0.25802568 -0.24177156
-0.02617247 -0.29613823 0.014225119 -0.23524284 -0.12023706 -0.07533094 -0.18878417 -0.12111426
-0.09369523 -0.17891464 -0.22064978 -0.2446714 -0.17943022 -0.13329573 -0.29053977 -0.3524406
-0.011765761 -0.017503068 -0.08524143 -0.2690821 -0.09417576 -0.21163799 -0.1667733 -0.13929322
-0.15356609 -0.16132039 -0.23599412 -0.13226905 0.15918843 -0.038699627 -0.02041102 -0.116259865
-0.0368132 -0.14443348 0.03116587 -0.21231557 -0.08112676 -0.03623091 -0.18737684 -0.20477667
-0.34620824 -0.19234356 -0.10973602 -0.22951305 -0.16806507 -0.029455196 -0.045223393 -0.07166415
-0.1434683 0.103873074 -0.13951668 -0.14042386 0.055492513 -0.040106993 -0.15431465 -0.12953106
-0.21373293 -0.043193806 -0.030035615 -0.15754835 -0.153568 -0.16530748 -0.038703594 -0.08334009
-0.16798943 -0.28699642 0.06970961 0.098706365 -0.16700955 -0.19219568 -0.0013921635 -0.22042502
-0.1646709 -0.09868033 -0.09539739 -0.1124936 -0.17372334 -0.097294934 0.09871523 -0.040254865
0.044326156 -0.13858368 0.040905785 -0.024567598 -0.0007514089 -0.1889788 -0.059234634 -0.028912527
-0.029602898 -0.08536246 -0.16765618 -0.09535821 -0.116007775 -0.20864816 -0.1979659 -0.0376807
-0.009153296 -0.11746992 0.011505683 0.1431483 -0.042380344 -0.032118943 0.030341355 0.05048041
00000000: b439 983e 1ecb f4bc 07a1 2ebd 9b06 853d
00000010: ab0c d8bd c578 d7bd a57b 893d 79a7 43bd
00000020: 9c9c a93d 401a 37bc 3590 08be ed7e 91bd
00000030: 9cfe 1cbd 0f5c 023d b0eb dd3c c9af febc
00000040: 941c a4bc d649 e0bd 42b6 98bd cc54 b2ba
00000050: f9a1 263c 3c1c 273d 3d6a 3b3c 540b ef3d
00000060: 1317 773d e7f8 07bd c7cc 763d 6f07 b63c
00000070: d441 863d cd2b 953d 2050 f2bd 378b 533e
00000080: 1896 b3bd a18c ad3d 4dc2 293e ff1d ecbd
00000090: 803e d0bb c85a 20bd 2762 15be 57c0 bebd
000000a0: 1300 013d 705a 9fbc 5e71 d1bd f59c 23bd
000000b0: 2f76 a73d a536 983d fa80 a9bd b437 c63d
000000c0: b721 01bd b8a3 473d 3848 873d d566 1dbd
000000d0: 418d 013e 0a25 adbd 1f03 d6bc f440 a5bd
000000e0: 5820 8dbd d40d 3abd 3b6d b7bd b5bc 34bd
000000f0: a176 84bd e045 6c3d 6087 08bd e48c 96bd
00000100: b3b0 efbb f297 19bd 87fd eebc 0584 a5bc
00000110: 5699 d63c 19f0 f4bd d9f2 df3c 637c a2bd
00000120: 5a66 08bd 0c32 c13d 978d acbd a8ed 20bd
00000130: 0304 033d 676f 62bd 782b bfbd 638b 96bd
00000140: 893e 8ebd af45 b83d 18f2 71bd b2e5 9abd
00000150: 9691 183c cc91 cd3c 5318 0cbc fc81 08bd
00000160: bc8e d4bb d626 e1bc 91fa cc3c dda5 40bd
00000170: aa74 69bd 6b7e deba 20bc 5fbd 31b1 d6bd
00000180: 7b3f 943d 79c1 cf3d f0c4 85bd 5f8d 1cbd
00000190: 2449 353d 7fac 04bc 15dc 823d 22b5 83bd
000001a0: fdfc e13c a1de 1abd f99b 4ebd 0a1f 0dbd
000001b0: 17a2 b8bd e355 cfbd d788 b93c 611c 02be
000001c0: 0bdd 81bd 5aa6 34bd 1378 45bd 7f74 2fbd
000001d0: 2a58 23bd 385a 3ebe 5089 823c ca78 78bd
000001e0: 8aa4 c8bd f6f5 c7bd d539 eabc dd77 91bd
000001f0: b981 9cbd d75f 85bc b8ac 1f3d 4137 5fbd
00000200: e7ed 87bd df8a 28bd 6715 8b3d db82 c33d
00000210: e3de 7ebc 8861 64bd 7cb0 0e3e 7b0d 59bd
00000220: 3200 d7bc cbb1 afbd f285 1bbd 0d87 a5bc
00000230: c589 373e bfed 39bd eaba 81bd 3f2f 153d
00000240: a20e 28bd 589a b5bd b03e 36bd 00d2 5c3d
00000250: d307 3fbd 1d63 89bd f11b 84be f792 77be
00000260: a667 d6bc 6e9f 97be 7910 693c 80e3 70be
00000270: d93e f6bd 1c47 9abd a350 41be c10a f8bd
00000280: 49e3 bfbd 6635 37be 04f2 61be 248b 7abe
00000290: 8ebc 37be ad7e 08be a1c1 94be 1873 b4be
000002a0: 2ec5 40bc 9862 8fbc 0f93 aebd 21c5 89be
000002b0: 39df c0bd a1b7 58be 9fc6 2abe e2a2 0ebe
000002c0: 6e40 1dbe 2c31 25be 71a8 71be 8a71 07be
000002d0: 4b02 233e 8083 1ebd 0335 a7bc a719 eebd
000002e0: 70c9 16bd 5fe6 13be 914f ff3c 4169 59be
000002f0: c925 a6bd dd66 14bd b7df 3fbe fab0 51be
00000300: 3542 b1be b6f5 44be 47bd e0bd 7805 6bbe
00000310: 4019 2cbe 064c f1bc 2a3c 39bd a7c4 92bd
00000320: 5be9 12be 68bb d43d 76dd 0ebe 46cb 0fbe
00000330: 1e4c 633d 3b47 24bd a904 1ebe caa3 04be
00000340: cedc 5abe fdeb 30bd 400d f6bc 5b54 21be
00000350: ee40 1dbe 5d46 29be a987 1ebd 36ae aabd
00000360: 6c05 2cbe 32f1 92be e9c3 8e3d 9026 ca3d
00000370: 8d04 2bbe f2ce 44be 4179 b6ba 19b7 61be
00000380: 7d9f 28be ea18 cabd b55f c3bd 0b63 e6bd
00000390: 88e4 31be 9142 c7bd 362b ca3d 49e2 24bd
000003a0: 588f 353d e1e8 0dbe d38c 273d fd41 c9bc
000003b0: 33fa 44ba a983 41be 04a0 72bd f7d9 ecbc
000003c0: c781 f2bc 83d2 aebd 10ae 2bbe 2a4b c3bd
000003d0: 7c95 edbd dda7 55be 93b7 4abe 1457 1abd
000003e0: b5f7 15bc 1294 f0bd 5582 3c3c 7895 123e
000003f0: 0397 2dbd 278f 03bd 6f8e f83c 8cc4 4e3d

sage.layer1.fc_self.weight f4 [64, 50]
0.02982579 0.011339962 -0.27468324 -0.22004342 -0.06884802 -0.37437627 -0.15739046 0.5671415
0.18681909 -0.015067614 0.026381625 -0.10643288 0.27196956 -0.09705334 -0.36570626 0.071128294
-0.021557821 0.06241942 0.13682398 -0.09402717 0.17823537 -0.011876722 0.12958515 -0.14330235
0.08517534 -0.06247719 -0.006296657 -0.22108063 0.33234566 0.5824731 0.21431491 -0.1091696
0.2849757 -0.10882453 0.17688516 0.22125211 0.18870571 0.0963584 0.6968011 0.08288614
0.105023675 -0.36630994 -0.05574596 -0.03254087 -0.11546493 -0.08781601 -0.10659159 -0.010396826
0.2655244 -0.33299327 -0.049805015 0.063874364 -0.20607506 -0.2810982 -0.24577196 0.10733279
-0.12422445 -0.38798574 -0.35173598 -0.16908312 0.14864479 0.0108134365 -0.11944913 -0.024353871
-0.46788415 -0.28307587 0.18946053 -0.0975436 0.14109005 -0.0016720832 -0.11213595 -0.043133743
0.05244117 -0.04481335 -0.23916562 0.05161191 0.04849655 0.26643577 -0.230246 -0.21769544
-0.05230846 0.005875985 -0.63336575 -0.2820875 -0.025325889 -0.028607372 -0.09580564 -0.22829428
-0.051219147 -0.10236974 -0.1694876 0.21544816 -0.32296306 -0.33142623 0.36833373 -0.18243857
0.02783279 -0.05894868 0.04539054 0.1928183 -0.12037938 -0.16213992 -0.10923254 -0.16252215
-0.088156745 -0.08786255 -0.1767069 -0.09257583 -0.2135411 -0.12810312 -0.11103692 0.049648006
0.090895325 -0.22159514 0.010989265 0.2625435 0.042846464 0.02083323 -0.058225304 -0.006879052
-0.07546882 -0.3837342 -0.3598331 -0.32562116 -0.5713252 -0.33841395 -0.0805178 0.0754892
-0.08231581 0.103725985 0.13436063 0.25406447 0.21810922 -0.25478154 -0.048030056 -0.6036352
0.024315357 -0.21211128 0.012823496 0.16153184 0.052355237 0.20777012 -0.34704337 -0.19405541
0.05252286 -0.2521476 0.09880453 0.01686141 -0.26818338 -0.31265503 -0.24963915 -0.00015808696
-0.027336672 0.047367156 0.086065084 0.036147658 -0.019600492 -0.047747556 -0.002623765 0.019798229
0.1859218 0.045541447 -0.054587163 -0.113465585 -0.05019311 -0.06956176 -0.030916125 0.04706641
0.10769825 -0.006876381 0.0012938791 0.16085215 -0.06898216 -0.03282936 0.12260993 0.18607187
-0.06348985 -0.20809753 0.009327487 0.12122122 -0.009650398 -0.09635841 0.0069830385 0.18021639
-0.10534382 0.08468709 0.07056046 -0.012612098 0.10380503 -0.07472404 -0.20897518 0.1133618
-0.07189039 0.022971634 -0.056551084 -0.08776847 0.06497451 -0.015854849 0.16114363 -0.05367243
-0.10762237 0.15738519 -0.016795335 -0.09227864 -0.3539248 0.24773456 -0.051777955 -0.024257908
-0.17829509 -0.08260308 0.19714843 0.043537658 -0.0034455566 0.22055732 0.11837146 -0.0051595015
-0.22000916 -0.098845445 0.28038818 -0.13602489 0.21845716 0.066277936 -0.06545171 -0.060597986
0.2755399 -0.13995038 0.020217132 -0.042064466 -0.05484109 -0.0044469126 -0.075514995 0.030593157
-0.0034610562 -0.2990972 0.15254644 -0.066352196 0.05625622 0.05690611 -0.069409385 0.060151923
0.5294718 -0.25692508 -0.00180646 -0.40287152 -0.48608205 0.054054186 0.28321415 -0.10854197
-0.3263638 -0.34160903 -0.006053317 0.026251707 0.097160175 0.003538457 0.058650434 0.048856355
00000000: 3755 f43c 3fcb 393c 48a3 8cbe 1053 61be
00000010: 3100 8dbd 3fae bfbe f72a 21be 2f30 113f
00000020: 814d 3f3e 27de 76bc 471e d83c 7bf9 d9bd
00000030: 983f 8b3e e7c3 c6bd da3d bbbe b6ab 913d
00000040: 079a b0bc 81ab 7f3d 961b 0c3e 5191 c0bd
00000050: 5583 363e 9596 42bc f8b1 043e dabd 12be
00000060: 6970 ae3d 15e8 7fbd 3054 cebb f662 62be
00000070: 3629 aa3e f51c 153f 5e75 5b3e 5094 dfbd
00000080: 56e8 913e 65df debd 6221 353e ea8f 623e
00000090: 123c 413e 8e57 c53d 8f61 323f 35c0 a93d
000000a0: a716 d73d fa8c bbbe e055 64bd 9349 05bd
000000b0: e178 ecbd e1d8 b3bd b14c dabd 7357 2abc
000000c0: d0f2 873e 187e aabe 5800 4cbd 90d0 823d
000000d0: 5705 53be 1aec 8fbe a5ab 7bbe 4bd1 db3d
000000e0: 6369 febd 11a6 c6be bd16 b4be 2024 2dbe
000000f0: 5736 183e d72a 313c bfa1 f4bd c581 c7bc
00000100: 838e efbe 52ef 90be f101 423e f0c4 c7bd
00000110: e979 103e cd29 dbba 88a7 e5bd 02ad 30bd
00000120: 8dcc 563d 348e 37bd d5e7 74be 0367 533d
00000130: 52a4 463d 456a 883e 9cc5 6bbe 8eeb 5ebe
00000140: 6541 56bd 568b c03b 4224 22bf c66d 90be
00000150: 3d78 cfbc 025a eabc bf35 c4bd fac5 69be
00000160: 2bcb 51bd 3aa7 d1bd 288e 2dbe 719e 5c3e
00000170: 6a5b a5be b3b0 a9be 3d96 bc3e 2dd1 3abe
00000180: 9701 e43c 2c74 71bd 6eeb 393d 2972 453e
00000190: 7789 f6bd 0208 26be 4fb5 dfbd 356c 26be
000001a0: 868b b4bd 48f1 b3bd a7f2 34be 6698 bdbd
000001b0: 85aa 5abe 772d 03be 5367 e3bd b55b 4b3d
000001c0: 5427 ba3d d6e9 62be 510c 343c 1a6c 863e
000001d0: c67f 2f3d 73aa aa3c a87d 6ebd ac69 e1bb
000001e0: 668f 9abd cf78 c4be 0b3c b8be d1b7 a6be
000001f0: 5e42 12bf 9844 adbe 84e6 a4bd 159a 9a3d
00000200: 3195 a8bd 4a6e d43d d595 093e bd14 823e
00000210: 0658 5f3e ba72 82be 2abb 44bd d687 1abf
00000220: 0031 c73c b333 59be a419 523c 9a68 253e
00000230: 7272 563d b1c1 543e abaf b1be 76b6 46be
00000240: 3622 573d 7d19 81be 085a ca3d f120 8a3c
00000250: 554f 89be 5214 a0be 68a1 7fbe 25c4 25b9
00000260: 28f1 dfbc 1004 423d e442 b03d 910f 143d
00000270: 3691 a0bc f192 43bd 79f3 2bbb e52f a23c
00000280: 4962 3e3e ab89 3a3d ca96 5fbd a560 e8bd
00000290: 4a97 4dbd 6576 8ebd d043 fdbc b5c8 403d
000002a0: e690 dc3d 4453 e1bb 6197 a93a 6db6 243e
000002b0: 8546 8dbd 1478 06bd ea1a fb3d a089 3e3e
000002c0: f706 82bd 8517 55be 51d2 183c d542 f83d
000002d0: b41c 1ebc 8f57 c5bd f9d1 e43b a58a 383e
000002e0: 80be d7bd 6d70 ad3d 0182 903d f9a2 4ebc
000002f0: bb97 d43d eb08 99bd 97fd 55be 3b2a e83d
00000300: 453b 93bd 022f bc3c 1ca2 67bd f5bf b3bd
00000310: 5b11 853d 07e2 81bc d602 253e 9fd7 5bbd
00000320: 1e69 dcbd 9529 213e 5f96 89bc 95fc bcbd
00000330: a235 b5be 21ae 7d3e 1f15 54bd 85b8 c6bc
00000340: fd92 36be ce2b a9bd 47e1 493e 8b54 323d
00000350: d9ce 61bb c7d9 613e bc6c f23d 0911 a9bb
00000360: 154a 61be 7b6f cabd 0a8f 8f3e 1c4a 0bbe
00000370: 3cb3 5f3e babc 873d 8c0b 86bd 9835 78bd
00000380: 9113 8d3e 274f 0fbe 669e a53c ca4b 2cbd
00000390: 0da1 60bd 68b7 91bb 9ba7 9abd 809e fa3c
000003a0: e3d2 62bb 4523 99be 2235 1c3e a9e3 87bd
000003b0: ec6c 663d 6216 693d 8226 8ebd dd61 763d
000003c0: 778b 073f af8b 83be bdc6 ecba 2d45 cebe
000003d0: bfdf f8be ec67 5d3d 7201 913e 414b debd
000003e0: 2819 a7be 61e7 aebe e75a c6bb d20d d73c
000003f0: eafb c63d 75e5 673b 703b 703d 9a1d 483d

sage.layer1.fc_self.bias f4 [64]
-0.7490833 -0.6086772 -0.56930053 0.21437275 0.16196969 -0.7017051 -0.55404496 -0.6545136
-0.42849478 -0.76217526 -0.6819276 -0.6513532 -1.224812 -0.8834164 -0.7482479 -0.760514
-0.8469492 0.020937296 -0.8279744 -0.75151914 -0.87422734 -0.86208713 -0.7661396 -0.8086748
-0.91643506 -1.0288138 -0.5908174 -0.625833 -0.4488263 -0.70331997 -0.12816188 -0.71111935
-0.6142156 -0.822312 -0.8842255 -0.500247 -0.6093622 -0.6795654 -0.5252725 -0.29643822
-0.7323242 -0.9995796 0.17565034 -0.1914517 -0.8906102 -0.65335673 -0.20160359 -0.72662264
-0.8377085 -0.48897275 0.14543068 -0.5679639 -0.7651069 -0.62219507 -0.9353462 -0.626459
-0.8138898 -0.14778015 -0.78342205 -0.44386044 -0.8262203 -0.638683 -0.8539617 -0.6973436
00000000: ecc3 3fbf 45d2 1bbf aebd 11bf 8884 5b3e
00000010: 62db 253e f2a2 33bf e4d5 0dbf 348e 27bf
00000020: ab63 dbbe eb1d 43bf cf92 2ebf 15bf 26bf
00000030: a4c6 9cbf 9427 62bf 2d8d 3fbf 0cb1 42bf
00000040: aad1 58bf b184 ab3c 21f6 53bf 8f63 40bf
00000050: 5dcd 5fbf beb1 5cbf ba21 44bf 5005 4fbf
00000060: 7d9b 6abf 2cb0 83bf cf3f 17bf 9736 20bf
00000070: 90cc e5be c70c 34bf de3c 03be eb0b 36bf
00000080: 3c3d 1dbf 0a83 52bf 9a5c 62bf 3010 00bf
00000090: 29ff 1bbf 00f8 2dbf 4278 06bf c0c6 97be
000000a0: 9979 3bbf 73e4 7fbf afdd 333e ea0b 44be
000000b0: 08ff 63bf 6342 27bf 2c71 4ebe f103 3abf
000000c0: 1074 56bf a35a fabe c8eb 143e 1566 11bf
000000d0: 0cde 43bf 2d48 1fbf d972 6fbf 9e5f 20bf
000000e0: 155b 50bf ae53 17be 598e 48bf ad41 e3be
000000f0: 2c83 53bf bb80 23bf 3c9d 5abf 1c85 32bf

sage.layer2.fc_pool.weight f4 [64, 64]
-0.0031884634 -0.049721655 0.05862182 -0.41446862 -0.06409642 0.20591877 -0.060121097 -0.33591574
0.14939786 -0.32946232 -0.056539994 -0.0791053 0.1682978 0.061303414 0.060270824 -0.044330087
-0.16280799 -0.24519846 0.03264158 0.049808588 -0.14996596 -0.27084982 -0.04788443 -0.020080645
-0.12410768 -0.13232376 -0.08947774 -0.16372563 0.13053723 0.18658347 -0.27920368 -0.05174228
-0.07405945 0.04876526 0.06628384 0.021744661 0.02420194 -0.18412301 -0.14099014 0.05355955
-0.013063371 0.090930425 -0.56657046 -0.16923384 -0.11416959 0.114362925 -0.09027506 -0.081273705
-0.39167142 0.09568304 -0.32170445 -0.10096028 0.06723972 -0.24757783 -0.041231774 0.07856548
0.14431053 0.06765586 0.008900461 -0.23933478 0.123131074 0.119736776 -0.18640354 0.03938951
-0.29204383 -0.0943997 -0.1339958 0.08258617 0.006781974 0.019271052 0.050094817 -0.19379501
-0.14955184 0.14771917 0.052949797 -0.11597521 -0.059169818 -0.38670257 -0.06487091 -0.1530203
0.043592826 -0.050195932 0.008463893 -0.030235635 -0.00021991895 -0.26039222 -0.11777815 -0.17029145
-0.18538615 -0.14267687 -0.14102566 -0.055827767 -0.22796917 0.12504447 0.013591184 -0.07900044
-0.28167638 -0.05864283 -0.07861711 -0.32890132 -0.13838208 -0.24969052 -0.24605581 -0.2585833
-0.2521032 -0.14780226 -0.17644183 0.033017583 -0.00024162355 -0.21149549 -0.061254773 -0.37990868
-0.24619031 -0.03254957 0.043277804 -0.30130646 -0.2529931 -0.3992756 -0.2732273 0.00461509
0.011114601 -0.34671953 0.10858854 -0.1038635 -0.007438397 0.22389655 -0.14800332 0.015112717
-0.4337949 -0.4339824 -0.29911187 -0.041036274 -0.20242257 0.023782752 -0.059984602 -0.056835398
-0.13113369 -0.40432304 -0.4470907 -0.33964297 -0.21750164 -0.23711069 0.24367517 -0.39321092
0.3473089 -0.2533571 -0.17984849 -0.3314794 -0.21748003 -0.251031 -0.26566935 -0.4002306
-0.4182152 -0.42249104 -0.2378016 -0.34737915 -0.23364705 0.21671727 0.12747586 -0.067724474
-0.22761866 -0.4506095 -0.23982061 0.05552919 -0.41525224 -0.1580265 -0.35488287 -0.42697823
-0.10518826 -0.38972297 -0.02529601 -0.2528727 -0.3023954 -0.019645419 -0.15359555 -0.53565824
0.19308473 0.120886505 0.047319952 -0.19978787 -0.56964797 -0.36681533 -0.17326348 -0.1503668
-0.22513151 -0.49278536 -0.31543815 -0.41680866 -0.12524405 -0.3547492 -0.3100924 -0.16129248
0.049676254 -0.047959786 -0.08136885 -0.39408445 -0.17819905 0.022421388 -0.0038246796 -0.0072649615
-0.08817048 -0.6337484 0.013598382 0.017541489 -0.0016257743 0.09849621 0.03977395 -0.012642615
0.0052529504 -0.29875615 0.012894499 0.006071328 0.06263973 -0.39155015 0.07012716 0.051361915
0.046702214 0.08150796 -0.07852487 0.07646135 -0.10146398 0.053080127 -0.22647372 -0.00621261
0.013770228 0.031897612 0.04940333 0.0590478 0.032723922 -0.3706761 0.03993975 -0.20977257
0.03481999 0.09621003 -0.7513555 -0.02034087 0.04841635 -0.015848028 -0.47526765 0.03664546
-0.072583236 0.020654902 -0.3987697 -0.034300435 -0.015124341 0.015419881 0.073054336 -0.037243642
0.016724922 -0.1757079 0.0135143595 -0.061092436 0.05575245 -0.024821082 0.039203603 0.020919818
00000000: 8af5 50bb efa8 4bbd 6f1d 703d 3b35 d4be
00000010: fc44 83bd 5fdc 523e 8a41 76bd 26fd abbe
00000020: c1fb 183e 49af a8be 7b96 67bd f601 a2bd
00000030: 4256 2c3e 4a19 7b3d 8ade 763d 7793 35bd
00000040: 23b7 26be 4e15 7bbe 2db3 053d 1704 4c3d
00000050: ad90 19be d4ac 8abe 7722 44bd 2a80 a4bc
00000060: 2b2c febd e17f 07be 1b40 b7bd b1a7 27be
00000070: 8dab 053e bd0f 3f3e c9f3 8ebe b7ef 53bd
00000080: 7bac 97bd 15be 473d d2bf 873d dc21 b23c
00000090: 2643 c63c be8a 3cbe b85f 10be 4261 5b3d
000000a0: c007 56bc bb39 ba3d c30a 11bf a34b 2dbe
000000b0: bfd1 e9bd 1c37 ea3d 21e2 b8bd d472 a6bd
000000c0: 2889 c8be 78f5 c33d 72b6 a4be 43c4 cebd
000000d0: fab4 893d 0b85 7dbe a6e2 28bd f0e6 a03d
000000e0: 24c6 133e 288f 8a3d 3dd3 113c 2d14 75be
000000f0: 252c fc3d 8e38 f53d 92e0 3ebe e556 213d
00000100: c586 95be a154 c1bd 3236 09be f022 a93d
00000110: 523b de3b 53de 9d3c 3930 4d3d 3372 46be
00000120: 1e24 19be b243 173e e3e1 583d 6984 edbd
00000130: 0d5c 72bd e1fd c5be 0adb 84bd 5bb1 1cbe
00000140: 648e 323d 409a 4dbd 24ac 0a3c b9b0 f7bc
00000150: 0b9a 66b9 2152 85be ac35 f1bd e260 2ebe
00000160: ded5 3dbe e319 12be 0869 10be a8ab 64bd
00000170: c070 69be a80b 003e 8fad 5e3c fcca a1bd
00000180: e337 90be 7733 70bd 0202 a1bd c165 a8be
00000190: 08b4 0dbe dfae 7fbe 0ef6 7bbe 0865 84be
000001a0: ac13 81be 7a59 17be 2bad 34be 723d 073d
000001b0: 545c 7db9 4692 58be 49e6 7abd 6483 c2be
000001c0: 5019 7cbe b352 05bd 1144 313d d744 9abe
000001d0: 5088 81be da6d ccbe 73e4 8bbe 2e3a 973b
000001e0: 041a 363c 3985 b1be ab63 de3d 63b6 d4bd
000001f0: ccbd f3bb 2345 653e 2f8e 17be 549b 773c
00000200: 5d1a debe f132 debe 3125 99be a715 28bd
00000210: dd47 4fbe 0cd4 c23c 6ab2 75bd 3ccc 68bd
00000220: e947 06be 6e03 cfbe 12e9 e4be afe5 adbe
00000230: c0b8 5ebe 25cd 72be fc85 793e f152 c9be
00000240: 79d2 b13e 06b8 81be 342a 38be abb7 a9be
00000250: 16b3 5ebe 2387 80be d005 88be 06eb ccbe
00000260: 4d20 d6be bf50 d8be 4382 73be aedb b1be
00000270: 2c41 6fbe 22eb 5d3e 0889 023e 21b3 8abd
00000280: de14 69be 4ab6 e6be 8993 75be 9372 633d
00000290: f19b d4be b3d1 21be 35b3 b5be e49c dabe
000002a0: f16c d7bd c589 c7be 9439 cfbc 8878 81be
000002b0: 92d3 9abe 6eef a0bc 2748 1dbe e620 09bf
000002c0: 01b8 453e 5893 f73d 91d2 413d 3195 4cbe
000002d0: 73d4 11bf 38cf bbbe fb6b 31be c1f9 19be
000002e0: e088 66be 5d4e fcbe 1c81 a1be f267 d5be
000002f0: fa3f 00be b0a1 b5be 6ec4 9ebe db29 25be
00000300: 5479 4b3d 7b71 44bd b6a4 a6bd 70c5 c9be
00000310: d079 36be 0fad b73c 7aa7 7abb ea0e eebb
00000320: ba92 b4bd 563d 22bf bfcb 5e3c 2bb3 8f3c
00000330: ef17 d5ba 62b8 c93d 02ea 223d f822 4fbc
00000340: f120 ac3b 91f6 98be 7343 533c fef1 c63b
00000350: 4249 803d 4379 c8be d49e 8f3d df60 523d
00000360: d24a 3f3d a5ed a63d a6d1 a0bd c597 9c3d
00000370: 59cc cfbd 8c6a 593d bae8 67be 2693 cbbb
00000380: 869c 613c 12a7 023d 255b 4a3d 1bdc 713d
00000390: 8509 063d 42c9 bdbe dd97 233d 9fce 56be
000003a0: 689f 0e3d c409 c53d d658 40bf e5a1 a6bc
000003b0: 3950 463d b9d3 81bc 4856 f3be 8d19 163d
000003c0: 85a6 94bd 7834 a93c 8b2b ccbe 9d7e 0cbd
000003d0: 15cc 77bc aba3 7c3c 839d 953d ca8c 18bd
000003e0: b402 893c c6ec 33be 556b 5d3c 103c 7abd
000003f0: ae5c 643d 9555 cbbc f593 203d 0a60 ab3c

sage.layer2.fc_pool.bias f4 [64]
0.064373694 -0.12803547 -0.11655414 1.1171474 0.104850404 -0.13667347 -0.03366708 0.020519838
0.08647116 0.28795692 -0.34826866 -0.115859665 -0.039258506 -0.18640387 -0.20388411 0.95442224
-0.31708243 -0.08081781 0.19808225 0.23999837 0.28897765 -0.060319394 0.02617639 -0.44154343
-0.24623331 0.082510136 -0.21770526 0.32704076 -0.35311022 0.19768763 -0.13184063 0.44288495
0.22019106 0.048343405 0.25327486 -0.16091335 -0.25792778 -0.2352655 0.20531824 0.2454955
0.22472505 0.33937863 -0.555925 0.3527299 -0.014814675 -0.22298469 0.20585853 -0.062546924
-0.25807577 0.19699322 0.29342008 -0.10636914 0.34340316 0.1709492 0.36051404 -0.34273046
0.25955108 0.24541722 -0.31233594 0.34899092 -0.48379487 0.1571637 0.31740224 1.0445299
00000000: 5bd6 833d bb1b 03be f0b3 eebd b0fe 8e3f
00000010: cfbb d63d 21f4 0bbe 7ee6 09bd 3819 a83c
00000020: cb17 b13d 176f 933e 4550 b2be d547 edbd
00000030: 87cd 20bd a8e0 3ebe ffc6 50be 0455 743f
00000040: a158 a2be cf83 a5bd 13d6 4a3e 22c2 753e
00000050: e1f4 933e 7811 77bd de6f d63c fb11 e2be
00000060: 9624 7cbe 13fb a83d 21ee 5ebe e371 a73e
00000070: ddca b4be a06e 4a3e 3b01 07be d1c1 e23e
00000080: c479 613e bc03 463d 3ead 813e 78c6 24be
00000090: 1c0f 84be 70e9 70be f23e 523e 2c63 7b3e
000000a0: 531e 663e 09c3 ad3e 1a51 0ebf 0399 b43e
000000b0: 40b9 72bc 1956 64be 94cc 523e 9a18 80bd
000000c0: 8222 84be 97b8 493e 283b 963e 10d8 d9bd
000000d0: 8ad2 af3e 4f0d 2f3e 4c95 b83e 5e7a afbe
000000e0: e1e3 843e a74e 7b3e 7fea 9fbe f0ae b23e
000000f0: f6b3 f7be 85ef 203e 8c82 a23e 28b3 853f

sage.layer2.fc_neigh.weight f4 [128, 64]
-0.045147903 -0.0039677345 -0.30301684 0.05414541 -0.14956652 0.071517445 0.1916388 0.010902896
-0.11902562 -0.01119149 0.14369386 0.08015492 0.07487821 0.0176454 0.111778595 0.15226246
0.13561687 0.014567377 -0.113700904 -0.08429324 -0.06675519 0.05089209 -0.06680272 -0.17402126
-0.05122736 0.23227867 0.05136925 -0.21090643 0.12085997 -0.13686611 0.1778631 -0.1603644
-0.22456717 -0.20822906 -0.010565532 -0.14097564 -0.033571806 0.06839579 -0.16493241 -0.0576453
-0.17104556 -0.12744342 0.110680215 -0.17076036 -0.11134384 -0.1592845 -0.03983805 -0.20693201
0.1214842 -0.17917067 -0.09489442 -0.019779742 -0.013055703 -0.0810121 0.0059822765 0.0012175803
-0.1984901 -0.061385 0.087432005 -0.018067526 -0.044586208 -0.031938504 -0.19339055 0.1587978
0.108340696 0.10210966 -0.26546583 0.16828187 -0.043250505 0.10996783 -0.09412451 -0.291016
-0.067239314 -0.22408372 0.05548318 -0.09133671 -0.069931544 0.33277044 -0.1433255 -0.021565149
-0.12866467 0.087397344 -0.13315803 0.09567096 -0.012465691 -0.005522654 0.069490604 -0.010547635
0.0059500723 -0.16272292 0.056813568 -0.02662111 0.062004305 -0.01197878 -0.099133804 -0.1902604
0.039738126 -0.020861754 -0.01959739 -0.10445571 -0.07834878 0.07916162 -0.081869304 0.011560759
0.00016379662 0.118058205 -0.062786475 0.009817382 0.03671115 0.03795187 0.12193829 -0.10956845
0.041253652 0.098556384 0.14291506 -0.18726486 0.021559825 -0.16060106 0.050011557 0.14800969
0.07709399 -0.009853518 -0.02672374 -0.094311886 -0.11933388 -0.0011473848 -0.092199616 0.15718582
0.09749926 -0.021656195 -0.2253964 -0.14299828 0.19985454 0.13089772 0.070207275 -0.10376627
-0.10641849 -0.026902601 -0.007417662 0.03020706 0.14940293 0.07789952 0.13763659 -0.1898535
0.09952028 -0.17871448 -0.014707423 0.052815575 0.15804338 -0.03376776 0.045606 -0.17753062
-0.06751301 -0.0048871553 -0.17077954 0.17689796 -0.04681811 0.2332587 -0.19037195 0.00717548
0.14662573 0.04196128 0.0076415082 0.122915804 -0.036204427 0.035266094 0.14999941 0.04626449
0.1907437 -0.16575803 0.03918069 -0.14710695 -0.037826423 -0.12072522 -0.08945052 0.059699208
0.10424437 0.08407368 -0.08670452 -0.118695535 0.080232844 -0.12500514 0.15332782 -0.019175904
0.16918488 0.06377529 0.12761422 0.07644292 0.005262972 -0.11376927 0.19269751 -0.09716299
0.009247718 -0.110988624 0.38241085 -0.10477298 -0.08026919 0.05743011 0.18238477 -0.21344782
0.09097911 0.10816406 0.0074888193 0.06605979 0.04493644 -0.03314487 -0.028027052 0.06992944
0.08796162 0.082450666 -0.034726456 -0.031927686 -0.005393861 0.015272174 0.051823042 -0.07331891
0.11403671 0.0030919428 0.11802684 0.0775055 0.3009364 -0.059850544 -0.09389731 -0.018825367
-0.070832 0.049628682 0.15819527 0.00537544 -0.02363163 -0.1100056 0.10895312 0.033387683
-0.040937357 0.022435658 0.044649877 0.10172972 0.12390006 0.017289773 0.04468805 -0.12271554
0.06879789 0.04202069 0.013126193 -0.17281646 0.12184289 0.26508754 0.12239464 0.06783179
0.066502415 -0.038859814 -0.038303476 -0.051767744 -0.13712369 0.03808535 0.0972023 -0.007136919
00000000: 02ed 38bd c503 82bb 0625 9bbe 94c7 5d3d
00000010: f727 19be bd77 923d f63c 443e 0fa2 323c
00000020: b4c3 f3bd 835c 37bc 7c24 133e 4328 a43d
00000030: bf59 993d 168d 903c 2dec e43d b1ea 1b3e
00000040: 26df 0a3e 02ac 6e3c 05dc e8bd efa1 acbd
00000050: f2b6 88bd 3974 503d ddcf 88bd a132 32be
00000060: c8d3 51bd 76da 6d3e 9068 523d dbf7 57be
00000070: 6f85 f73d a126 0cbe bf21 363e 9136 24be
00000080: f0f4 65be 003a 55be 0e1b 2dbc eb5b 10be
00000090: 9782 09bd 1813 8c3d 0be4 28be 7a1d 6cbd
000000a0: 9126 2fbe 8780 02be 4fac e23d cedb 2ebe
000000b0: 3d08 e4bd 7a1b 23be 392d 23bd fce5 53be
000000c0: b5cc f83d 8478 37be 0158 c2bd 2009 a2bc
000000d0: 96e7 55bc ace9 a5bd f906 c43b 3797 9f3a
000000e0: fd40 4bbe d66e 7bbd 8d0f b33d 5902 94bc
000000f0: 07a0 36bd f3d1 02bd 2c08 46be e49b 223e
00000100: bae1 dd3d df1e d13d 23eb 87be 1552 2c3e
00000110: 7127 31bd d036 e13d 5ac4 c0bd 0d00 95be
00000120: c4b4 89bd 3476 65be 5542 633d be0e bbbd
00000130: 4538 8fbd e360 aa3e ebc3 12be 65a9 b0bc
00000140: acc0 03be 61fd b23d 945a 08be 23ef c33d
00000150: e63c 4cbc 61f7 b4bb 1751 8e3d fdcf 2cbc
00000160: d3f8 c23b d6a0 26be 58b5 683d 8414 dabc
00000170: 3af8 7d3d a542 44bc aa06 cbbd 9fd3 42be
00000180: 72c4 223d 45e6 aabc b58a a0bc e0ec d5bd
00000190: 5375 a0bd 7d1f a23d 18ab a7bd 5669 3d3c
000001a0: d2c0 2b39 80c8 f13d 3296 80bd 16d9 203c
000001b0: 6e5e 163d 6c73 1b3d c8ba f93d 6c65 e0bd
000001c0: 97f9 283d eed7 c93d 5358 123e 5cc2 3fbe
000001d0: 3b9e b03c 9b74 24be ebd8 4c3d da8f 173e
000001e0: 74e3 9d3d a670 21bc bfeb dabc 9726 c1bd
000001f0: 5265 f4bd d863 96ba 27d3 bcbd 52f5 203e
00000200: b1ad c73d 5568 b1bc 50ce 66be 246e 12be
00000210: aba6 4c3e 0d0a 063e d5c8 8f3d 6983 d4bd
00000220: f0f1 d9bd d862 dcbc dc0f f3bb cc74 f73c
00000230: 15fd 183e c989 9f3d 9bf0 0c3e f568 42be
00000240: 4ad1 cb3d ee00 37be 67f7 70bc 2555 583d
00000250: 20d6 213e 1050 0abd 5bcd 3a3d 96ca 35be
00000260: 4344 8abd 6e24 a0bb d5e0 2ebe bd24 353e
00000270: 59c4 3fbd 5edb 6e3e ddf0 42be 4a20 eb3b
00000280: 0e25 163e 97df 2b3d 9e65 fa3b 48bb fb3d
00000290: 184b 14bd 2e73 103d 7299 193e d57f 3d3d
000002a0: 5152 433e 79bc 29be ee7b 203d 34a3 16be
000002b0: e1ef 1abd c93e f7bd d631 b7bd 2887 743d
000002c0: 127e d53d d22e ac3d 2492 b1bd a516 f3bd
000002d0: 1e51 a43d 5901 00be f801 1d3e c916 9dbc
000002e0: cd3e 2d3e 9f9c 823d 4dad 023e 1b8e 9c3d
000002f0: 0275 ac3b ddff e8bd 7f52 453e 64fd c6bd
00000300: be83 173c 014e e3bd 5bcb c33e 3793 d6bd
00000310: 2c64 a4bd d63b 6b3d 13c3 3a3e 1192 5abe
00000320: 4153 ba3d 1e85 dd3d c564 f53b 5b4a 873d
00000330: 460f 383d eac2 07bd fd98 e5bc 2b37 8f3d
00000340: 3925 b43d e5db a83d 543d 0ebd 9bc6 02bd
00000350: fcbe b0bb 2438 7a3c 6644 543d 3a28 96bd
00000360: 148c e93d 31a2 4a3b 0eb8 f13d 34bb 9e3d
00000370: 5614 9a3e d825 75bd 3c4d c0bd a837 9abc
00000380: 5e10 91bd 7247 4b3d f1fd 213e 7624 b03b
00000390: 1f97 c1bc 9e4a e1bd d022 df3d 86c1 083d
000003a0: eead 27bd fcca b73c cae2 363d ac57 d03d
000003b0: 51bf fd3d 48a3 8d3c d10a 373d 4952 fbbd
000003c0: e8e5 8c3d e31d 2c3d 3e0f 573c ccf6 30be
000003d0: c488 f93d 8eb9 873e 0baa fa3d 65eb 8a3d
000003e0: 6b32 883d 782b 1fbd 1be4 1cbd 6a0a 54bd
000003f0: 276a 0cbe 62ff 1b3d 0012 c73d d1dc e9bb

sage.layer2.fc_self.weight f4 [128, 64]
-0.15819065 0.030348444 0.27393338 0.04894127 -0.085556254 -0.21233702 -0.021273796 0.03556004
-0.13074587 0.04078877 -0.017241474 0.06561421 -0.21385108 0.17021139 -0.058106363 -0.075733066
-0.18048786 0.09106888 -0.1249867 -0.044335987 0.05795318 0.68124 -0.04039768 0.13918574
-0.018847294 0.0062356684 0.2636845 0.038190093 0.33424407 0.021025328 -0.22534524 -0.2673969
0.09648927 0.032586455 0.20030002 0.120079875 -0.06764195 -0.0073873983 0.053033695 -0.06801043
0.02547159 -0.15873815 -0.22201987 -0.13104077 0.1604386 -0.23832685 -0.10497593 0.009199552
0.08644879 0.18392903 0.064103015 -0.21127355 0.15768002 -0.03662524 0.09020736 0.007003005
0.2137414 -0.30854434 -0.061738804 0.25698578 0.035964206 -0.044696674 0.12755437 0.39100027
-0.25056478 -0.096933395 -0.0028045473 0.030831886 -0.013725306 0.10538495 0.1652392 -0.038810823
-0.18908125 -0.069672726 -0.098803736 -0.27304885 -0.30338985 -0.079229735 -0.20337684 -0.0061049554
0.4232909 -0.017744107 0.22270502 -0.13482495 0.08602273 -0.3480016 0.06362522 -0.003232561
-0.15399341 -0.07074764 0.07928299 0.10257813 -0.031874504 -0.18686949 0.31594256 -0.093706325
-0.10079185 0.005558715 0.23555443 0.04859976 -0.23458758 0.21505839 0.06237062 0.15422632
-0.09543373 -0.031582136 -0.048293818 0.008146663 0.014539868 -0.12564549 0.031401135 -0.13193847
0.13243143 0.23769008 -0.1967587 -0.0459822 0.26913103 -0.2617864 0.14606991 0.080483675
-0.34026912 -0.19041812 0.0012547433 0.19870698 -0.23237246 0.09523111 0.04919412 0.17496723
-0.24645837 0.27815378 -0.14031853 -0.10423774 -0.16239917 -0.26577014 0.20884837 0.14510117
-0.36087826 0.39974707 -0.021903506 0.1133591 -0.123127066 0.18749325 0.15158382 0.042730164
0.14441288 -0.11609814 0.047141206 -0.17263356 0.22278939 -0.6357724 0.17054507 -0.04369973
0.16908076 0.025599949 -0.082119934 0.12572004 -0.0018246417 0.05600797 0.064859964 0.016013918
0.07394369 0.1830301 -0.12720367 0.07527982 -0.059950806 -0.5978125 0.0030784176 0.21584798
-0.21430114 -0.09953929 -0.083500855 -0.10826499 -0.037845913 -0.10299989 -0.053530395 0.3559837
-0.2965514 0.19443397 0.14362901 0.13389762 0.21113811 -0.20773925 0.10547517 -0.4208451
-0.20228656 -0.5713495 -0.13934605 0.30655882 0.1386278 -0.30575338 -0.089613505 0.24898134
-0.36771825 0.43938372 -0.19444628 -0.050672002 0.19286889 0.104144774 -0.048972245 -0.029998643
-0.027623808 0.2482264 0.09851479 -0.20064445 -0.006476793 0.25073388 -0.090648085 -0.19286834
-0.02183744 -0.19451569 -0.12861015 0.003758949 -0.026453044 -0.3470682 -0.013581146 -0.36698186
-0.12681231 0.0034898669 -0.33830312 -0.077518284 0.12891315 0.15418941 0.14333667 -0.2580789
-0.041860733 -0.14399855 0.005818042 -0.22536503 -0.024674969 -0.16359396 -0.06570716 0.11558021
-0.10815521 -0.008356698 0.050932407 -0.042601116 -0.08418997 -0.19451201 0.07283679 0.1434065
0.008673991 0.2845082 0.11932138 -0.113580234 0.12810908 0.2186635 0.27338582 0.035807293
0.1078126 0.37145448 0.099588625 0.023733752 -0.30524924 -0.15470959 -0.026459008 -0.0950303
00000000: bbfc 21be 4d9d f83c ff40 8c3e a476 483d
00000010: 1e38 afbd e06e 59be 6246 aebc 68a7 113d
00000020: 3fe2 05be 2012 273d fe3d 8dbc be60 863d
00000030: c7fb 5abe e54b 2e3e f000 6ebd f019 9bbd
00000040: cfd1 38be 5282 ba3d 07f9 ffbd a799 35bd
00000050: 5060 6d3d bf65 2e3f 0a78 25bd b586 0e3e
00000060: a465 9abc 9454 cc3b a801 873e 376d 1c3d
00000070: 0a22 ab3e 4f3d ac3c e7c0 66be 3fe8 88be
00000080: 2b9c c53d 6079 053d 731b 4d3e 70ec f53d
00000090: dd87 8abd fd11 f2bb dc39 593d 0d49 8bbd
000000a0: cca9 d03c 418c 22be 2d59 63be 8d2f 06be
000000b0: 044a 243e f40b 74be 9ffd d6bd b8b9 163c
000000c0: 100c b13d e457 3c3e 7148 833d 1858 58be
000000d0: df76 213e 5904 16bd a3be b83d 7779 e53b
000000e0: 07df 5a3e 86f9 9dbe d4e1 7cbd a493 833e
000000f0: 344f 133d dc13 37bd 9d9d 023e 3031 c83e
00000100: 074a 80be 0485 c6bd 7fcc 37bb 2793 fc3c
00000110: 1be0 60bc 11d4 d73d 7734 293e 19f8 1ebd
00000120: 849e 41be 93b0 8ebd 9d59 cabd 0fcd 8bbe
00000130: ea55 9bbe 3343 a2bd 0542 50be 140c c8bb
00000140: 96b9 d83e 175c 91bc c90c 643e 8d0f 0abe
00000150: af2c b03d 442d b2be f04d 823d 60d9 53bb
00000160: 73b0 1dbe 24e4 90bd 1f5f a23d 7c14 d23d
00000170: d78e 02bd b75a 3fbe 39c3 a13e 1ae9 bfbd
00000180: f56b cebd e225 b63b 2e35 713e 8b10 473d
00000190: ba37 70be 4438 5c3e 5678 7f3d 81ed 1d3e
000001a0: c272 c3bd 455c 01bd bdcf 45bd 9579 053c
000001b0: a038 6e3c 36a9 00be 7a9e 003d e11a 07be
000001c0: 1b9c 073e 0765 733e 1d7b 49be d557 3cbd
000001d0: 8bcb 893e de08 86be 5a93 153e a0d4 a43d
000001e0: c137 aebe f8fc 42be 3376 a43a d879 4b3e
000001f0: 0cf3 6dbe 8708 c33d c67f 493d 9c2a 333e
00000200: 955f 7cbe 2c6a 8e3e a9af 0fbe 997a d5bd
00000210: f84b 26be 0613 88be 59dc 553e 6795 143e
00000220: 09c5 b8be a6ab cc3e fb6e b3bc d128 e83d
00000230: 0b2a fcbd 3bfe 3f3e ca38 1b3e d305 2f3d
00000240: f8e0 133e ddc4 edbd 2317 413d dac6 30be
00000250: e722 643e fbc1 22bf 5ea3 2e3e 7dfe 32bd
00000260: 8223 2d3e fcb6 d13c 7f2e a8bd c1bc 003e
00000270: d128 efba 9d68 653d 4dd5 843d 9f2f 833c
00000280: ca6f 973d 3e6c 3b3e ae41 02be 4e2c 9a3d
00000290: fa8e 75bd 3d0a 19bf 47bf 493b 4107 5d3e
000002a0: c271 5bbe 41db cbbd 7f02 abbd 09ba ddbd
000002b0: 5104 1bbd 9bf1 d2bd b042 5bbd 7f43 b63e
000002c0: 96d5 97be b319 473e 7c13 133e 751c 093e
000002d0: 9734 583e 99b9 54be 5e03 d83d 0279 d7be
000002e0: 3524 4fbe f643 12bf bbb0 0ebe 47f5 9c3e
000002f0: 72f4 0d3e b58b 9cbe 4987 b7bd f7f4 7e3e
00000300: 9145 bcbe e7f6 e03e ed1c 47be 728d 4fbd
00000310: 6c7f 453e db49 d53d 1f97 48bd b7bf f5bc
00000320: 534b e2bc 102f 7e3e 1fc2 c93d bd75 4dbe
00000330: 473b d4bb 3160 803e b4a5 b9bd 477f 45be
00000340: 6ee4 b2bc 1f2f 47be 61b2 03be b358 763b
00000350: 0eb4 d8bc ecb2 b1be 7483 5ebc 0ce5 bbbe
00000360: 16db 01be 40b6 643b 1136 adbe e8c1 9ebd
00000370: cf01 043e d4e3 1d3e d9c6 123e eb22 84be
00000380: 2976 2bbd 5b74 13be 46a5 be3b 17c6 66be
00000390: 2923 cabc 2d85 27be 7a91 86bd 51b5 ec3d
000003a0: 7b80 ddbd 88ea 08bc 809e 503d 827e 2ebd
000003b0: ca6b acbd 282e 47be 742b 953d 27d9 123e
000003c0: 5b1d 0e3c 0fab 913e c55e f43d c19c e8bd
000003d0: 072f 033e 53e9 5f3e 3af9 8b3e abaa 123d
000003e0: dacc dc3d 482f be3e 1ff5 cb3d 496d c23c
000003f0: a149 9cbe 316c 1ebe 90c0 d8bc 3f9f c2bd

sage.layer2.fc_self.bias f4 [128]
0.06380967 0.21435504 0.25213277 -0.023285637 -0.28428838 -0.08830958 -0.10594532 0.5624379
0.09491932 0.10749154 -0.2877415 0.32937557 0.004460339 0.13426265 0.2533351 -0.1840803
0.09119107 -0.41568768 -0.009614158 0.012339483 0.32390445 0.05881549 -0.083638005 0.014860871
0.06711107 -0.22810401 0.030478526 0.09249246 -0.1618949 -0.57178867 0.1896138 -0.079891086
0.2674889 -0.104056574 0.020108458 -0.17306666 -0.12507504 -0.36872816 0.05005966 0.24609055
-0.0164364 -0.28977734 0.09827384 0.07196981 0.21988373 -0.38984597 0.1597466 0.11510253
-0.64675826 -0.22030456 0.16551162 0.3428544 -0.16101255 0.004956067 0.22872293 -0.16812772
-0.1969066 0.3682187 -0.09387844 0.12899785 -0.6031628 -0.07434942 -0.1538032 -0.39685947
0.2107205 -0.045221116 0.17258322 0.30437914 -0.07164617 0.20149523 -0.4391905 0.05771812
0.11492391 -0.033860404 0.047695268 -0.04134334 0.33973515 0.3285349 0.11500307 -0.0645298
-0.44824216 -0.28839847 0.0774907 0.04581931 -0.28802904 -0.06395086 -0.12896818 -0.16633442
-0.46768036 -0.20820183 0.1616483 -0.14733323 0.07688162 0.23621142 0.02175499 0.27431992
0.17224704 -0.01668367 -0.06988194 -0.009962206 0.002725227 -0.04521718 0.03351089 -0.04123325
0.12399873 0.115312286 0.103095986 0.100177124 0.5695173 0.03728671 0.2900523 0.22282723
0.22955935 -0.23342776 0.30440024 0.008867585 -0.14140925 0.12525044 -0.19517909 -0.054877944
-0.08389171 0.33377838 -0.27527133 -0.17205083 0.022311423 0.011495569 0.042281736 -0.24179612
00000000: a5ae 823d e37f 5b3e 8c17 813e 85c1 bebc
00000010: 3f8e 91be a7db b4bd dcf9 d8bd eefb 0f3f
00000020: 0f65 c23d 8624 dc3d db52 93be eaa3 a83e
00000030: 0928 923b 267c 093e 23b5 813e 8c7f 3cbe
00000040: 62c2 ba3d 04d5 d4be b484 1dbc 8b2b 4a3c
00000050: ced6 a53e 83e8 703d 674a abbd 037b 733c
00000060: 8771 893d 1994 69be 1aae f93c b06c bd3d
00000070: c7c7 25be be60 12bf 1f2a 423e f09d a3bd
00000080: 4ef4 883e 9d1b d5bd 7eba a43c 6338 31be
00000090: ac13 00be f0c9 bcbe 5c0b 4d3d 29ff 7b3e
000000a0: a1a5 86bc b25d 94be cc43 c93d e864 933d
000000b0: 3329 613e e499 c7be 9d94 233e e0ba eb3d
000000c0: f391 25bf 8597 61be e17b 293e 9d8a af3e
000000d0: 79e0 24be 8166 a23b 5836 6a3e ac29 2cbe
000000e0: e2a1 49be 2987 bc3e 5743 c0bd 0318 043e
000000f0: e168 1abf 8244 98bd 967e 1dbe 2a31 cbbe
00000100: 1dc7 573e c739 39bd a8b9 303e 95d7 9b3e
00000110: 3abb 92bd c454 4e3e 94dd e0be d669 6c3d
00000120: 3a5d eb3d 35b1 0abd 1d5c 433d a257 29bd
00000130: c4f1 ad3e ba35 a83e bb86 eb3d 3328 84bd
00000140: ff7f e5be f7a8 93be 72b3 9e3d 07ad 3b3d
00000150: 8b78 93be abf8 82bd 3c10 04be 9253 2abe
00000160: cd73 efbe dc32 55be 2287 253e 86de 16be
00000170: 1c74 9d3d 68e1 713e 8537 b23c a973 8c3e
00000180: 8761 303e 31ac 88bc 431e 8fbd 8538 23bc
00000190: b999 323b a635 39bd b742 093d 32e4 28bd
000001a0: 0cf3 fd3d d928 ec3d fd23 d33d aa29 cd3d
000001b0: e3cb 113f f3b9 183d bc81 943e d22c 643e
000001c0: 9b11 6b3e b007 6fbe 59da 9b3e 5949 113c
000001d0: 96cd 10be a741 003e 07dd 47be b2c7 60bd
000001e0: 6bcf abbd 00e5 aa3e 5df0 8cbe 182e 30be
000001f0: 72c6 b63c e957 3c3c 9d2f 2d3d 6799 77be
