Audit-log_Analysis/code/GNN/training/checkpoint_graphSAGE/best_model_GraphSAGE_transH_100.pt (torch, 350017 bytes, 12 tensors)

sage.layer1.fc_pool.weight f4 [100, 100]
0	0x3e7330d7	0.237491
1	0x3df5f1db	0.12009021
2	0x3d2696c7	0.040671136
3	0xbd91687b	-0.07100006
4	0x3e257227	0.16156827
5	0x3d5ed8dd	0.054406036
6	0xbd6a88ee	-0.057259493
7	0x3ec2fd38	0.38083816
8	0x3d51f2da	0.051256992
9	0x3e669d0f	0.2252085
10	0xbe7a52da	-0.24445668
11	0xbe026da3	-0.12737136
12	0x3dfbf01b	0.12301656
13	0xbcf7b5c6	-0.030238044
14	0xbdb77340	-0.08957529
15	0x3e40f2b0	0.18842578
16	0x3e08f187	0.13373385
17	0xbb87e4dd	-0.0041471557
18	0x3e89bacd	0.2690033
19	0x3dcbd240	0.099522114
20	0xbd018939	-0.031625006
21	0xbe478ae4	-0.19486576
22	0x3e36eaf4	0.17863065
23	0x3e177177	0.14789377
24	0xbdba9f4b	-0.09112414
25	0xbef4a40c	-0.47781408
26	0xbe4dc103	-0.2009316
27	0x3e9158be	0.28388017
28	0xbdbe0360	-0.092779875
29	0x3e383220	0.17987871
30	0xbe9dbf92	-0.3081022
31	0xbc39c5bf	-0.01133865
32	0xbe452493	-0.19252233
33	0x3ed45d05	0.41477218
34	0xbea70c8e	-0.32626766
35	0xbe85e8d6	-0.26154202
36	0x3dfbc978	0.122942865
37	0x3dc24eb6	0.09487669
38	0xbe4afa12	-0.19821957
39	0xbe8b0a22	-0.27156168
40	0x3e9bd729	0.30437592
41	0x3e15fed6	0.14647993
42	0x3e0b84a1	0.13624813
43	0xbe811b52	-0.25216156
44	0xbd0afe86	-0.03393414
45	0xbda2c3bd	-0.0794749
46	0x3a966197	0.0011473176
47	0x3e50ee80	0.2040348
48	0xbe0840b5	-0.13305934
49	0xbd9ee512	-0.077585354
50	0xbe10967b	-0.14119904
51	0xbe1b2ba3	-0.15153365
52	0x3e5184f1	0.2046087
53	0xbe362019	-0.17785682
54	0xbd6aaea0	-0.05729544
55	0x3e4fb453	0.20283632
56	0x3e1e59ba	0.15463915
57	0x3e80f1e2	0.25184542
58	0xbe211c6c	-0.15733498
59	0x3d3581d8	0.04431328
60	0xbdff6035	-0.12469522
61	0xbe3fdce3	-0.18736605
62	0xbe338eb7	-0.1753491
63	0x3ed44c7c	0.41464603
64	0xbe0a1b85	-0.1348706
65	0x3e8abba2	0.27096277
66	0x3d5580a8	0.05212465
67	0x3dbf9894	0.09355274
68	0x3e505b0d	0.20347233
69	0xbe3f4469	-0.1867844
70	0xbeb605e6	-0.35551375
71	0xbde9e0be	-0.11419819
72	0xbe3568d8	-0.17715776
73	0x3eb271b6	0.3485238
74	0xbe1e9fda	-0.15490666
75	0x3eb97e4f	0.36229178
76	0x3dab85b4	0.08375111
77	0xbe4b4a2d	-0.19852515
78	0xbdacf73e	-0.08445595
79	0xbed965f8	-0.42460608
80	0x3d87ac57	0.06624668
81	0x3d3934ca	0.04521636
82	0x3e7bed14	0.24602157
83	0xbeec73d0	-0.46182108
84	0x3f0a2caa	0.539744
85	0x3e62aca1	0.22136165
86	0xbc551bdf	-0.013007133
87	0xbebb6f42	-0.3660832
88	0xbe3efcf6	-0.18651184
89	0xbe00165c	-0.1250853
90	0xbcc9cb90	-0.024633199
91	0x3d467ab8	0.048456877
92	0x3d946e6c	0.07247624
93	0xbe865207	-0.26234457
94	0x3e3b22c5	0.18274982
95	0xbe4cd9dc	-0.20004982
96	0x3cc043ab	0.023469767
97	0xbeb17130	-0.34656668
98	0xbdad3d80	-0.08458996
99	0x3cb1e56e	0.021715846
100	0x3d0e1fd4	0.034698322
101	0x3c7f055c	0.015565243
102	0x3eecf0e7	0.46277544
103	0x3e9ec6d6	0.31011075
104	0x3f001724	0.5003531
105	0xbee8a381	-0.45437244
106	0xbe36be19	-0.17845954
107	0x3db6cc28	0.089256585
108	0x3de2bbf6	0.11071007
109	0xbee78fa3	-0.45226774
110	0x3e090a06	0.1338273
111	0xbd4a8b50	-0.049449265
112	0x3eda836e	0.42678398
113	0x3e9d5356	0.30727643
114	0x3f293384	0.6609423
115	0x3de50da0	0.111842394
116	0x3ebf5aac	0.37373865
117	0xbe624aba	-0.22098818
118	0xbdebe9cb	-0.11519202
119	0x3dad55cf	0.08463632
120	0xbf72a9cf	-0.9479036
121	0x3efbc70b	0.49175295
122	0xbd20f28d	-0.039293814
123	0x3e757cd3	0.23973398
124	0xbe80effa	-0.25183088
125	0x3e9c67c4	0.30547917
126	0x3d919d46	0.07110076
127	0xbe4e6c77	-0.20158564
128	0x3c4b9952	0.012426691
129	0x3e4d1350	0.20026898
130	0xbdea063d	-0.11426971
131	0x3d1ac618	0.037786573
132	0xbcdcc61e	-0.026949938
133	0xbe6773a8	-0.22602713
134	0xbf4908a3	-0.78528804
135	0xbe81587a	-0.25262815
136	0x3e9402ba	0.2890833
137	0x3ebd265f	0.36943337
138	0xbd3cd3be	-0.04610037
139	0x3d91def4	0.07122603
140	0x3e530d7f	0.20610617
141	0x3e4a019c	0.19727176
142	0xbeaad6f6	-0.33367127
143	0x3e9e6828	0.3093884
144	0x3daf0633	0.08546104
145	0xbea648da	-0.32477456
146	0x3e9092f1	0.28237107
147	0xbeef34a8	-0.4671986
148	0x3e405ae0	0.18784666
149	0xbd0f298f	-0.034951743
150	0x3dad6368	0.08466226
151	0xbe8bc7b2	-0.27300793
152	0xbf38d60c	-0.7220161
153	0xbdc723a9	-0.097235985
154	0x3e32ef68	0.17474139
155	0xbf4b0a32	-0.7931243
156	0xbe9257d0	-0.2858262
157	0xbf078de8	-0.52950907
158	0x3eb1818e	0.34669155
159	0xbcd380c6	-0.02581824
160	0x3e0dbfc0	0.13842678
161	0x3c84d8c8	0.01621665
162	0xbeffcb48	-0.4995978
163	0x3e53d71c	0.20687526
164	0x3e3c3e19	0.18383063
165	0x3e9b7f7a	0.30370694
166	0xbe08bc7b	-0.1335315
167	0x3e197d0e	0.14989111
168	0x3f0e1120	0.5549488
169	0xbccbc285	-0.024873028
170	0x3dcb6b99	0.09932632
171	0x3e7b02f4	0.24512845
172	0x3de10642	0.10987522
173	0x3cfcbd5f	0.030852018
174	0xbdb3a3e7	-0.08771496
175	0xbe8b438c	-0.27199972
176	0xbd8461da	-0.06463976
177	0xbdfc2b47	-0.12312942
178	0x3e865136	0.26233834
179	0xbe2a7718	-0.16646993
180	0x3de684b6	0.11255781
181	0xbe22a3f2	-0.15882853
182	0xbb501736	-0.0031752116
183	0x3d826390	0.06366646
184	0xbe9f31c2	-0.3109265
185	0xbe941323	-0.2892085
186	0xbdc95410	-0.09830487
187	0x3e4c6bc5	0.19962986
188	0x3e607c16	0.21922335
189	0x3de35874	0.111008555
190	0xbe608c36	-0.21928486
191	0x3e3bcf46	0.18340787
192	0xbe4efaf1	-0.20212914
193	0x3cd9a957	0.026570005
194	0xbe912a73	-0.283527
195	0xbe2ea0b0	-0.17053485
196	0xbed6cc8d	-0.41952935
197	0x3e3d0b6a	0.18461385
198	0x3e8ba524	0.2727443
199	0xbe3e1392	-0.18562153
200	0x3dbcb0d3	0.09213414
201	0xbe88f04b	-0.2674583
202	0x3dfe27da	0.12409945
203	0xbddc7970	-0.1076535
204	0xbc7fb7d4	-0.015607793
205	0xbdf46ee5	-0.11935214
206	0x3bb48a52	0.005509653
207	0x3d0ae04c	0.033905312
208	0x3dc6e22d	0.09711108
209	0x3d4f1f58	0.050567
210	0xbcdbda4a	-0.026837487
211	0x3dc73ced	0.097284175
212	0xbe6c180d	-0.2305605
213	0x3deeaf00	0.11654472
214	0xbe8c4a46	-0.27400416
215	0x3dbf9b4c	0.093557924
216	0xbd6d6fe2	-0.057968028
217	0xbe89db14	-0.26924956
218	0xbd41c550	-0.047307312
219	0xbc2eec90	-0.010676518
220	0x3da0fcd8	0.07860726
221	0x3ee9c864	0.45660698
222	0x3da4739c	0.08029863
223	0x3eceffb7	0.4042947
224	0x3dbfbd06	0.09362225
225	0x3d155e33	0.03646679
226	0x3d92f95b	0.07176467
227	0x3db25857	0.08708256
228	0xbdb65b66	-0.089041516
229	0xbe0523ce	-0.1300194
230	0xbdf3a17b	-0.11896034
231	0xbe1fa7a7	-0.15591298
232	0xbd0d2d69	-0.034467135
233	0x3ef2584e	0.47332996
234	0xbc6f80ea	-0.014618138
235	0x3bc7e02a	0.0060997205
236	0x3e2d5490	0.1692679
237	0x3de34e44	0.11098912
238	0x3e8bab77	0.27279255
239	0x3e65165d	0.22371812
240	0xbd50339e	-0.050830476
241	0x3c15e560	0.009148926
242	0xbddcc261	-0.10779262
243	0x3e62ac77	0.22136103
244	0x3e661809	0.22470106
245	0xbd9b7098	-0.07589835
246	0x3dccb48e	0.099953756
247	0x3e76026f	0.24024366
248	0x3d1b543c	0.03792213
249	0x3d1e25ac	0.038610145
250	0x3c85e479	0.016344296
251	0x3df136b1	0.1177801
252	0xbe1138cc	-0.14181823
253	0xbe1aac38	-0.15104759
254	0x3d4495cb	0.047994416
255	0x3d7d3375	0.06181665

sage.layer1.fc_pool.bias f4 [100]
0	0x3d045c7f	0.032314774
1	0xbcd6261d	-0.02614122
2	0xbca8e9cf	-0.020619301
3	0x3ccf3301	0.025292875
4	0x3c1bb82c	0.009504359
5	0x3e08da5f	0.13364552
6	0x3ca25687	0.01981665
7	0xbc1ce96c	-0.0095771365
8	0x3d25fd75	0.04052492
9	0xbbbaa8a2	-0.005696372
10	0xbd3b576b	-0.045737665
11	0xbc53b0fa	-0.0129206125
12	0xbcc2b517	-0.023767991
13	0xbc8d83a8	-0.017274693
14	0x3c14d614	0.009084243
15	0xbc0eafc0	-0.008708894
16	0xbb94f64f	-0.004545964
17	0xbcfccc95	-0.030859271
18	0xbd33285d	-0.043739665
19	0xbcc84406	-0.024446499
20	0x3bd6aa1c	0.0065510403
21	0xbc7e1cb8	-0.015509777
22	0xbc5fb68e	-0.013654364
23	0x3da33687	0.07969385
24	0xbba1edf8	-0.004941698
25	0xbc599e7f	-0.013282417
26	0xbcb17f5f	-0.02166718
27	0xbc3ee27e	-0.01165068
28	0xbcce9f5b	-0.025222471
29	0xbca0b949	-0.0196196
30	0x3b688f0d	0.0035485656
31	0xbc735517	-0.01485183
32	0xbbcc758b	-0.006239598
33	0xbbe69920	-0.007037297
34	0xbbc05ddf	-0.0058705653
35	0x3cf22e2b	0.02956303
36	0xbc64f74b	-0.013974975
37	0x3abb5328	0.001429175
38	0xbc4c2d10	-0.012461916
39	0xbcdb6ba7	-0.026784731
40	0xbc09ec1c	-0.008418109
41	0xbc784c7e	-0.015154956
42	0xbb69e0f7	-0.0035687068
43	0xbcfde14f	-0.030991225
44	0xbcf2dee1	-0.029647293
45	0x3c9c0c77	0.019048912
46	0xbc5f93c3	-0.013646069
47	0xbd1be1f0	-0.038057268
48	0xbc0be592	-0.008538621
49	0xbc3ed7da	-0.011648143
50	0x3daf9731	0.08573759
51	0x3d1b4bb1	0.03791398
52	0x3d09a918	0.033608526
53	0x3bc30ee7	0.005952704
54	0xbcc4c7e1	-0.024021091
55	0xbc6b3865	-0.014356707
56	0xbd186bbb	-0.037212115
57	0x3d32cee5	0.04365434
58	0x3c9d0080	0.019165277
59	0x3d479d5c	0.048734054
60	0x3d29b3e1	0.04143131
61	0xbcc7301d	-0.024314934
62	0xb9e7a9d4	-0.00044186285
63	0x3bdd81e8	0.006759871
64	0x3cc7784e	0.024349358
65	0x3cc3ac58	0.02388589
66	0xbc8102ab	-0.015748342
67	0xbd0b0d94	-0.033948496
68	0x3dff943f	0.124794476
69	0xbcdb57f8	-0.026775345
70	0xbccd9640	-0.025096059
71	0x3d5f7525	0.054555077
72	0x3c19d302	0.009388687
73	0xbc9d48b2	-0.019199703
74	0xbce93035	-0.02846537
75	0xbd5bb3fc	-0.053638443
76	0x3de73f2a	0.112913445
77	0xbccda08a	-0.025100965
78	0x3c0f4b6d	0.00874601
79	0xbcbb9d10	-0.022902042
80	0x3c236afc	0.0099742375
81	0xbd270e14	-0.04078491
82	0xbc0a810c	-0.008453619
83	0xbbebc0c5	-0.007194611
84	0x3d4cc785	0.049994964
85	0x3ce9be62	0.028533164
86	0xbc014cc8	-0.007891841
87	0xbc323c58	-0.010878645
88	0xbc1876bc	-0.009305652
89	0xbb76cc0b	-0.003765824
90	0x3d14cc1f	0.036327478
91	0xbc01c030	-0.007919356
92	0xbbdacb9e	-0.006677105
93	0xbcb9bdc3	-0.022673493
94	0xbc037a9f	-0.008024841
95	0x3d4ab918	0.049492925
96	0x3c75688e	0.014978541
97	0xbbd3f4aa	-0.006468375
98	0xbc26d689	-0.010182985
99	0x3d3f3483	0.04668094

sage.layer1.fc_neigh.weight f4 [64, 100]
0	0xbc725e9c	-0.014793064
1	0xbe831631	-0.25602868
2	0x3dfa01b7	0.12207358
3	0x3e635e91	0.22204043
4	0xbcaa2d78	-0.020773634
5	0x3e17b778	0.14816082
6	0x3c5fc27d	0.013657209
7	0xbebcc763	-0.3687087
8	0x3b5310c6	0.0032206043
9	0x3f244869	0.6417299
10	0xbf1e4449	-0.61822945
11	0x3c8c0133	0.017090416
12	0xbe463124	-0.19354683
13	0x3ec71bd0	0.38888407
14	0x3e1c9365	0.15290602
15	0xbe2dae7e	-0.16961095
16	0xbdec613a	-0.11541982
17	0xbdc591cd	-0.0964695
18	0x3dd538ad	0.10411201
19	0xbf850183	-1.0391086
20	0xbeec3832	-0.46136624
21	0x3d399248	0.04530552
22	0xbe7ee206	-0.24890909
23	0x3e8f8f17	0.28038856
24	0x3cc28733	0.023746109
25	0xbdcffbde	-0.10155462
26	0xbf1c0aec	-0.60954165
27	0x3de3936d	0.111121036
28	0xbe3b07b2	-0.18264654
29	0xbeb5f9a8	-0.35542035
30	0xbdcab483	-0.09897711
31	0x3cde280c	0.027118705
32	0x3e0418d4	0.12900096
33	0xbefac855	-0.48980966
34	0xbd845b4c	-0.06462726
35	0xbd116e8e	-0.035505824
36	0xbdd77b21	-0.10521532
37	0x3e339036	0.17535481
38	0x3d987bfb	0.074455224
39	0xbe7e877a	-0.24856368
40	0x3b80101b	0.00390817
41	0x39d672bf	0.00040902753
42	0xbec26a53	-0.37971744
43	0xbeaf3d21	-0.34226325
44	0xbe7eb6f0	-0.24874473
45	0xbce02407	-0.02736093
46	0xbebd092c	-0.3692106
47	0x3dade7ce	0.08491479
48	0x3d0ce528	0.034398228
49	0xbed68ec5	-0.419058
50	0x3e501a64	0.20322567
51	0x3c6cabaa	0.014445225
52	0xbe2e06a3	-0.16994719
53	0xbd19c56b	-0.037541788
54	0xbe1aaddf	-0.15105389
55	0xbcf0c277	-0.029389603
56	0xbd631098	-0.055435747
57	0x3dc375cb	0.095439516
58	0xbdda7669	-0.10667116
59	0x3cd6d85f	0.02622622
60	0xbdfbf0ab	-0.12301763
61	0xbf1b0d32	-0.6056701
62	0xbdddab3c	-0.10823676
63	0x3cfb9484	0.030710466
64	0xbfcbf6ed	-1.5934731
65	0x3e2e74d9	0.17036761
66	0x3d9325db	0.07184955
67	0x3e34d8fa	0.17660895
68	0x3e1df894	0.15426856
69	0x3f001c61	0.500433
70	0xbe8d0f02	-0.27550513
71	0x3e00a8fa	0.1256446
72	0x3c81801a	0.015808154
73	0xbe69bea4	-0.2282663
74	0x3da8490d	0.08217058
75	0x3e4e2120	0.20129824
76	0x3e00fb76	0.12595925
77	0xbe1300a4	-0.14355713
78	0xbd3d1484	-0.046162143
79	0x3c8eb39f	0.017419634
80	0x3df07d12	0.11742605
81	0x3fbd678f	1.4797229
82	0xbefb5bbe	-0.4909343
83	0xbed94c99	-0.42441252
84	0x3e388114	0.1801799
85	0xbe5eae9a	-0.21746293
86	0xbe86f81c	-0.26361167
87	0xbc9506a2	-0.01819164
88	0xbeade7ee	-0.3396601
89	0x3d9e9545	0.07743315
90	0x3e3aed85	0.18254669
91	0x3d746d7b	0.05967472
92	0xbed1adf9	-0.40953043
93	0x3ed2371f	0.4105768
94	0x3d3855da	0.04500375
95	0x3e32d8e3	0.17465548
96	0xbd88a2f6	-0.06671707
97	0xbee5675f	-0.44805428
98	0xbe841fb6	-0.25805444
99	0x3e25a2aa	0.16175333
100	0xbe8b9100	-0.27259064
101	0xbe952c94	-0.29135573
102	0xbc83d42f	-0.016092388
103	0xbd959ab6	-0.073048994
104	0xbe873114	-0.2640463
105	0xbf0a871b	-0.54112405
106	0xbe9e698a	-0.30939895
107	0xbf04cdc6	-0.51876485
108	0xbf068c0c	-0.52557445
109	0xbd26a6e4	-0.040686503
110	0xbd5fd447	-0.054645803
111	0xbe52af30	-0.20574641
112	0xbd1a0448	-0.03760174
113	0x3dbc7fb0	0.09204042
114	0xbeb89fc9	-0.36059406
115	0x3c9eef92	0.019401345
116	0xbb8f2260	-0.0043681115
117	0xbe218f14	-0.15777236
118	0xbebc5537	-0.36783764
119	0xbe82aa88	-0.2552073
120	0xbea2dd3f	-0.31809422
121	0xbeefa32b	-0.46804175
122	0xbe526bff	-0.2054901
123	0xbed0333d	-0.40664092
124	0x3d4fa7cb	0.05069713
125	0xbea486b6	-0.32134026
126	0xbea11717	-0.3146293
127	0xbea8d9f5	-0.32978788
128	0xbe2efc04	-0.17088324
129	0xbe10f86b	-0.14157264
130	0xbe98e9d6	-0.29865903
131	0xbe9a26c3	-0.30107698
132	0xbe95ac11	-0.2923284
133	0xbf06480f	-0.524537
134	0xbed7f6e5	-0.42180553
135	0xbea323f8	-0.3186338
136	0xbde1bccc	-0.11022338
137	0x3d89e6c2	0.06733467
138	0x3a65eb30	0.00087707024
139	0xbea588b8	-0.3233087
140	0xbea728fe	-0.32648462
141	0x3d153b94	0.03643377
142	0xbe6c41e1	-0.23072006
143	0xbe4e2d9d	-0.20134588
144	0xbeb08a4c	-0.34480512
145	0xbeea8bdc	-0.4580983
146	0xbee4202c	-0.44555795
147	0xbdb28536	-0.08716814
148	0xbeadd12d	-0.3394865
149	0xbe97786b	-0.2958406
150	0xbed47f24	-0.4150325
151	0xbeaca91c	-0.3372277
152	0xbed1993d	-0.40937224
153	0xbec1f605	-0.3788301
154	0xbdea2ad4	-0.1143395
155	0xbefb0dc9	-0.49033955
156	0xbdccd088	-0.10000712
157	0xbec75a9f	-0.38936326
158	0xbede74ec	-0.4344858
159	0xbf098af6	-0.5372766
160	0xbeb3982d	-0.35077038
161	0xbc6acc24	-0.0143308975
162	0xbe924624	-0.28569138
163	0xbf0015a5	-0.50033027
164	0xbebb1eae	-0.36546844
165	0xbeeea4ea	-0.46610194
166	0xbe7527c0	-0.23940945
167	0xbe17f367	-0.14838944
168	0xbf0aae96	-0.54172647
169	0x3d9fd390	0.07804024
170	0x3d980f15	0.07424752
171	0xbec728a9	-0.3889821
172	0xbeedab00	-0.46419525
173	0xbe9ea5fc	-0.3098601
174	0x3b1fbd9e	0.0024374495
175	0xbc8d657b	-0.017260304
176	0xbf0fb445	-0.56134444
177	0xbe436012	-0.19079617
178	0xbea8e733	-0.3298889
179	0xbe3d3a9b	-0.18479387
180	0xbf0762b9	-0.52885014
181	0xbe1cb13e	-0.15301988
182	0xbd78c4b4	-0.060734466
183	0xbeb58cf3	-0.35459098
184	0xbef2c8a0	-0.4741869
185	0xbe7adbdf	-0.24497937
186	0xbe746bdd	-0.23869272
187	0x3dc5661a	0.09638615
188	0xbd91450c	-0.07093248
189	0xbe86bc76	-0.2631566
190	0xbeb1a0b3	-0.34692916
191	0x3db8f4ac	0.090310425
192	0xbeb1338a	-0.34609634
193	0xbdc17d2c	-0.09447703
194	0x3db23e7a	0.08703323
195	0xbed5d86b	-0.41766676
196	0xbebecaf3	-0.37264213
197	0xbe849f53	-0.25902805
198	0xbe6d2779	-0.23159589
199	0xbf0e26b1	-0.5552779
200	0xbd14b736	-0.036307536
201	0xbebf55a0	-0.37370014
202	0xbd9e3a5c	-0.07725975
203	0x3e08e71e	0.13369414
204	0x3e075204	0.1321488
205	0xbc159073	-0.009128678
206	0x3d94055e	0.07227586
207	0x3db9110b	0.09036454
208	0xbe1dee26	-0.15422878
209	0x3d0ead60	0.034833312
210	0x3db148fc	0.08656499
211	0x3dc9a50f	0.098459356
212	0x3c0381fd	0.008026597
213	0x3de997fb	0.11405941
214	0xbd94543f	-0.07242631
215	0xbc7fc151	-0.015610055
216	0x3eb38e19	0.3506935
217	0x3e77c399	0.24195708
218	0x3e4b75d7	0.19869171
219	0x3dffd4a7	0.12491732
220	0xbda7e072	-0.081971064
221	0x3c9a8c3e	0.0188657
222	0xbde10927	-0.10988074
223	0x3dd59e3e	0.10430573
224	0xbd3ae542	-0.045628794
225	0xbdd38b68	-0.10329324
226	0xbebd7aae	-0.3700766
227	0x3debe317	0.11517923
228	0x3e0723c1	0.13197233
229	0xbe601468	-0.21882784
230	0xbda0631a	-0.07831402
231	0xbe0e518d	-0.13898297
232	0x3e21ebfb	0.15812676
233	0xbe8a1a8a	-0.26973373
234	0x3f0e1935	0.5550721
235	0xbe8a3afb	-0.26998124
236	0x3ddd57ed	0.10807786
237	0xbe0db7ce	-0.13839647
238	0x3e2f5619	0.17122687
239	0x3ea6c6fd	0.3257369
240	0xbdd9953f	-0.106241696
241	0x3c0a0608	0.0084242895
242	0x3db9a9e0	0.09065604
243	0xbf1e0f45	-0.6174205
244	0x3d2d6a50	0.042337716
245	0x3d4c81fc	0.04992865
246	0xbe653396	-0.2238296
247	0x3defd2c5	0.11710123
248	0x3d8ceedf	0.068814985
249	0xbe41fad3	-0.18943338
250	0x3dd24085	0.102662124
251	0xbd9592c7	-0.07303386
252	0xbe1d8ca9	-0.15385689
253	0x3c24a277	0.0100485
254	0x3dc7c7e6	0.097549245
255	0xbedb42e3	-0.42824468

sage.layer1.fc_self.weight f4 [64, 100]
0	0xbf0915ed	-0.5354908
1	0xbe2e6c0a	-0.17033401
2	0xbf143c41	-0.5790444
3	0x3ef325c4	0.4748975
4	0x3ecd76dd	0.40129748
5	0xbf072bee	-0.52801406
6	0xbe110dc0	-0.14165401
7	0x3d745a67	0.059656527
8	0xbf306e19	-0.68917996
9	0xbe9e2e65	-0.3089477
10	0x3f34be92	0.7060329
11	0x3f86e0b1	1.053732
12	0x3df9448e	0.12171279
13	0xbe065939	-0.13119973
14	0x3f096def	0.5368337
15	0x3c939654	0.018016018
16	0x3e477926	0.19479808
17	0x3f2a524d	0.6653183
18	0xbf42abb2	-0.76043236
19	0xba747252	-0.00093248964
20	0x3f2f49ff	0.68472284
21	0x3e605a6a	0.2190949
22	0xbf1ae8d2	-0.60511506
23	0x3e2be4f5	0.16786559
24	0xbda555b1	-0.08072985
25	0x3ef7325c	0.4828061
26	0xbefa97ae	-0.48943847
27	0xbea50912	-0.32233483
28	0x3e634d78	0.2219752
29	0x3da47b9d	0.0803139
30	0xbdd2f260	-0.103001356
31	0xbecb71b9	-0.397352
32	0x3f39ed4f	0.7262773
33	0xbeae8615	-0.3408667
34	0x3ee7c35e	0.4526624
35	0x3ec41ff9	0.38305643
36	0xbf12df3c	-0.5737188
37	0xbec17218	-0.3778236
38	0xbe1eaed1	-0.15496375
39	0x3e554bee	0.20829746
40	0x3d610ce7	0.054943945
41	0xbefbfc11	-0.4921575
42	0x3ed9caf2	0.42537647
43	0x3f365299	0.71219784
44	0xbed8b721	-0.42327216
45	0x3f53983d	0.8265417
46	0xbe9c069c	-0.30473793
47	0xbe495abb	-0.19663517
48	0xbed563dd	-0.41677752
49	0x3e3a6a49	0.18204607
50	0x3e6ce0d0	0.23132634
51	0xbf7cfb83	-0.98821276
52	0xbdceb292	-0.10092653
53	0x3f51276a	0.81700766
54	0x3e22f39c	0.15913242
55	0xbebc16fa	-0.3673628
56	0xbe203002	-0.15643314
57	0xbf8dedf9	-1.1088248
58	0xbd95f181	-0.07321454
59	0x3efad07a	0.4898718
60	0x3eaa7064	0.33288872
61	0x3ee8f8e9	0.45502403
62	0x3e9b27b0	0.30303717
63	0xbeff2649	-0.49833897
64	0xbc460379	-0.012085789
65	0xbe804ad2	-0.25057083
66	0xbdae8bc0	-0.08522749
67	0x3e83b3d9	0.2572315
68	0xbf1aa010	-0.60400486
69	0x3f2825b1	0.6568251
70	0x3d8ba43b	0.06818434
71	0x3f7a282c	0.9771755
72	0x3f1bf945	0.6092723
73	0xbf2b5c01	-0.6693726
74	0x3f1d7c56	0.61517847
75	0xbf9cf21a	-1.2261384
76	0x3dcf3b67	0.10118752
77	0x3e9eecc3	0.3104001
78	0xbe971e28	-0.29515195
79	0x3dcd9e70	0.10039985
80	0x3f294b2a	0.66130316
81	0xbdcfcf3a	-0.10146947
82	0xbf9bff9a	-1.2187378
83	0x3e1c63b6	0.15272412
84	0xbf2b21c2	-0.66848385
85	0xbf4460ef	-0.7671041
86	0xbd8de6b8	-0.06928772
87	0xbd694734	-0.05695267
88	0xbe48873e	-0.19582841
89	0xbe93f74f	-0.2889962
90	0x3e913cce	0.28366703
91	0x3dfcedff	0.12350082
92	0xbeffd5f3	-0.49967918
93	0xbec7e3cd	-0.39040986
94	0xbe6f0171	-0.23340394
95	0x3e851b21	0.2599726
96	0xbf1d1aa1	-0.6136876
97	0x3e6c0e72	0.23052385
98	0xbeecbfff	-0.4624023
99	0x3f529938	0.82265043
100	0x3eb3e7b2	0.35137707
101	0x3f139a54	0.5765736
102	0x3dcf3cdf	0.10119032
103	0xbe4e17b5	-0.20126231
104	0xbe03b462	-0.1286178
105	0x3d831358	0.06400174
106	0x3e162de6	0.14665946
107	0x3eb06258	0.3445003
108	0x3da29b2c	0.07939753
109	0x3efbff9e	0.49218458
110	0xbe962bca	-0.29330283
111	0xbe2bbff4	-0.16772443
112	0xbe2ec788	-0.17068303
113	0x3d8a7e15	0.067623295
114	0xbe62390d	-0.22092076
115	0x3c8ed58d	0.017435813
116	0xbea4df6b	-0.32201704
117	0x3d2633e6	0.040576838
118	0x3e4882f1	0.195812
119	0xbcb9a64c	-0.022662304
120	0x3dd619fd	0.104541756
121	0x3df99c51	0.12188018
122	0xbd90f678	-0.0707826
123	0x3e65b9b1	0.22434117
124	0x3c26b1cf	0.010174229
125	0xbe8f9efb	-0.2805098
126	0x3e02bfed	0.12768526
127	0x3e4ef732	0.20211485
128	0x3cd763f3	0.026292777
129	0x3e0d38a3	0.13791136
130	0xbefd4102	-0.4946366
131	0xbe7245fc	-0.2365951
132	0xbf19b21e	-0.6003741
133	0x3dfadc77	0.122490816
134	0xbe95093c	-0.29108608
135	0xbe4e26ea	-0.20132032
136	0x3e8b12b4	0.27162707
137	0xbc5497da	-0.012975657
138	0xbe910bc7	-0.28329298
139	0xbefb2e59	-0.49058798
140	0x3bd4fb88	0.0064997114
141	0x3e3f7aaf	0.18699144
142	0xbc48ad38	-0.01224833
143	0xbda38190	-0.079836965
144	0x3e01737f	0.12641715
145	0xbdf891ac	-0.1213716
146	0x3f422f5a	0.758535
147	0x3de222b9	0.11041779
148	0xbe8c1968	-0.27363133
149	0xbe0d3cb8	-0.13792694
150	0xbee0169f	-0.4376726
151	0x3ef57922	0.4794398
152	0x3d9d70e2	0.07687546
153	0xbf14e43d	-0.58160764
154	0x3e8debcd	0.27718964
155	0x3ea1032c	0.31447732
156	0x3cd6b4f5	0.026209334
157	0x3dcaa0f3	0.0989398
158	0xbd50c191	-0.05096585
159	0x3ed1f96e	0.41010612
160	0xbeaadf9b	-0.33373722
161	0xbe9b0ab9	-0.30281618
162	0xbe491479	-0.19636716
163	0x3e867b40	0.26265907
164	0xbe63f206	-0.22260293
165	0x3cc3c163	0.023895925
166	0x3dc676be	0.09690617
167	0xbe476eb0	-0.19475818
168	0x3db2658c	0.08710775
169	0xbd722f44	-0.059127107
170	0xbe25e3fd	-0.16200252
171	0x3dc845fa	0.09778972
172	0xbe871365	-0.26381984
173	0x3e0f4c79	0.13994016
174	0xbd697df9	-0.057004903
175	0x3e73da83	0.23813824
176	0xbf0fae68	-0.561255
177	0xbe9f7b9a	-0.31148988
178	0x3e0f253b	0.13979046
179	0xbec8550e	-0.39127392
180	0xbe83a312	-0.2571035
181	0xbe8f541e	-0.27993864
182	0x3e7658cc	0.24057311
183	0xbd72dd12	-0.05929286
184	0x3f509694	0.81479764
185	0x3e5e7a78	0.21726406
186	0xbe974af3	-0.2954937
187	0xbf138f75	-0.57640773
188	0xbedc231b	-0.42995533
189	0xbd8a3960	-0.06749225
190	0x3dbe29cd	0.092853166
191	0x3dae27c9	0.08503682
192	0xbeaaa564	-0.33329308
193	0xbe2b62ff	-0.16736983
194	0x3e6b9505	0.23006065
195	0xbdf4b052	-0.11947693
196	0xbd8b0736	-0.06788485
197	0xbecde2e1	-0.40212157
198	0xbe3cb0d2	-0.18426827
199	0x3d5988b4	0.053108886
200	0xbee10ad3	-0.4395357
201	0x3f2b15c0	0.6683006
202	0xbe0e74c5	-0.13911732
203	0xbf1339b3	-0.5750992
204	0x3c6a1bc0	0.014288843
205	0xbda7e8cf	-0.081987016
206	0x3ef36050	0.47534418
207	0xbf3b1294	-0.7307522
208	0x3eed3ee6	0.4633705
209	0xbfa41c7c	-1.2821193
210	0xbf111664	-0.5667479
211	0xbfc128c2	-1.5090563
212	0x3f2598b9	0.6468616
213	0x3f352a6d	0.7076786
214	0x3ecc77dd	0.39935198
215	0xbe8b248f	-0.2717633
216	0x3ea9dde9	0.33177117
217	0xbea18acc	-0.31551206
218	0xbe13e979	-0.14444532
219	0xbeff2fa8	-0.49841046
220	0x3ee3dd53	0.44504794
221	0xbf1cb1ff	-0.612091
222	0xbe953b2a	-0.291467
223	0x3e9ede91	0.3102918
224	0x3ef51172	0.47864872
225	0x3e7601cd	0.24024124
226	0xbe2da518	-0.1695751
227	0xbe97a6ef	-0.29619548
228	0xbf8244db	-1.0177263
229	0xbe3f8ef8	-0.18706882
230	0xbf15ac23	-0.58465785
231	0xbe1d0cd1	-0.1533692
232	0xbf6c36c5	-0.9227107
233	0x3f4941e1	0.7861615
234	0x3ccb1d2c	0.024794184
235	0xbd742c47	-0.05961254
236	0x3ef33f4f	0.47509238
237	0xbf6c3bc4	-0.92278695
238	0xbe70f0a8	-0.23529303
239	0x3da5bf79	0.08093161
240	0x3f2be340	0.6714363
241	0xbd9b9118	-0.07596034
242	0xbe496f40	-0.19671345
243	0x3f293687	0.6609883
244	0x3e7b7e6e	0.24559948
245	0x3dcace6a	0.099026516
246	0x3f3b0b21	0.73063856
247	0xbfaf227f	-1.3682402
248	0x3eb5e0bf	0.3552303
249	0x3e4ab3b4	0.19795114
250	0x3e5878a0	0.21139765
251	0x3f56794a	0.8377882
252	0xbefe48bf	-0.49664876
253	0xbec6fb5e	-0.38863653
254	0x3f3c913b	0.73659104
255	0xbe2c2a1e	-0.16812941

sage.layer1.fc_self.bias f4 [64]
0	0xbd59f2d0	-0.05321008
1	0x3d710be7	0.05884924
2	0x3ca5ffe4	0.02026362
3	0x3cd8d270	0.026467532
4	0x3d295c31	0.041347686
5	0x3be38a60	0.006943986
6	0xbc8b120d	-0.01697638
7	0x3c97ed54	0.018545784
8	0x3be4d619	0.0069835302
9	0xbce709a8	-0.028202847
10	0xb7feee10	-3.0390016e-05
11	0xbceb27a8	-0.028705433
12	0xbd282213	-0.04104812
13	0x3d7e3a9f	0.062067624
14	0xbd707ed7	-0.058714714
15	0xbd305fe9	-0.043060217
16	0xbccb794a	-0.024838109
17	0xbc163d3b	-0.009169872
18	0x3d92e7e7	0.07173138
19	0xbd1ed4dc	-0.038777217
20	0xbcc9cea0	-0.02463466
21	0xbcbfa221	-0.023392739
22	0xbc7d056c	-0.015443187
23	0x3d2a74c8	0.041615278
24	0xbd869a1a	-0.06572361
25	0xbc3438ae	-0.010999842
26	0xbd0f5ecc	-0.035002515
27	0xbbf38704	-0.0074318666
28	0xbd19425e	-0.03741681
29	0xbd5c12de	-0.05372893
30	0x3be27165	0.0069104903
31	0xbceebbeb	-0.02914234
32	0x3dac2203	0.08404925
33	0xbd7c494f	-0.06159335
34	0x3d544880	0.051826954
35	0xbd0e4dd5	-0.034742195
36	0x3b8a6738	0.0042237304
37	0x3d71b89e	0.059013955
38	0x3d750b41	0.059825186
39	0xbd67e90b	-0.05661873
40	0xbd74d7a7	-0.059775975
41	0x3bcaf2dd	0.0061935023
42	0xbca91a78	-0.020642504
43	0x3cb7e70c	0.022449039
44	0xbd4bd27e	-0.049761288
45	0x39a3e1ce	0.0003125802
46	0x3d94d7d9	0.07267732
47	0xbc4f6fd9	-0.012660944
48	0xbcb91c57	-0.022596521
49	0xbc931c47	-0.01795782
50	0x3c772809	0.015085229
51	0x3aac381a	0.0013139278
52	0x3d9d52a1	0.07681776
53	0x3cbde581	0.023180725
54	0xbd016add	-0.031596053
55	0xbb9cf004	-0.0047893543
56	0xbd6f0c40	-0.058361292
57	0x3c44b04b	0.012004922
58	0xbd92f1b0	-0.071750045
59	0xbd11f686	-0.035635494
60	0xbc7a5fce	-0.015281631
61	0x3d90a1e5	0.07062129
62	0xbd618387	-0.055057075
63	0xbc52390d	-0.012830985

sage.layer2.fc_pool.weight f4 [64, 64]
0	0xbe83be8b	-0.2573131
1	0xbed6b51a	-0.41935045
2	0x3eb675fa	0.35636884
3	0x3edecfe5	0.43517986
4	0xbdfa11c8	-0.12210423
5	0x3c2e705c	0.010646906
6	0xbe4a9503	-0.19783406
7	0xbd68ad6b	-0.05680601
8	0xbdeeb52e	-0.11655651
9	0x3ddc2172	0.10748567
10	0x3da3d982	0.08000471
11	0xbe40d2aa	-0.18830362
12	0xbe4e25c3	-0.20131592
13	0x3c80e1a2	0.01573259
14	0xbe8d8fc6	-0.27648753
15	0x3e453c39	0.19261254
16	0x3df03893	0.11729541
17	0x3d45c2ac	0.048281357
18	0xbe297430	-0.16548228
19	0x3d3e12eb	0.04640476
20	0x3d72b170	0.05925125
21	0x3e2ad7d4	0.16683894
22	0x3d87fc11	0.06639875
23	0x3d603b44	0.05474402
24	0x3cf4fe09	0.02990629
25	0x3e44adcb	0.19206922
26	0x3ed25722	0.41082102
27	0xbb2db63a	-0.002650632
28	0xbed18b7b	-0.40926728
29	0xbda096f4	-0.07841292
30	0x3e728ac6	0.2368575
31	0xbc08da2a	-0.008352796
32	0xbd61e7d7	-0.05515274
33	0x3dff03e0	0.12451911
34	0xbe275e06	-0.16344461
35	0xbd23a618	-0.03995332
36	0xbdb2ae15	-0.0872461
37	0xbed46ed4	-0.41490805
38	0xbedf143f	-0.43570134
39	0xbd499edf	-0.049223777
40	0x3ea438af	0.32074496
41	0x3dc165f2	0.09443273
42	0x3d908bcd	0.07057915
43	0x3e9dfd3a	0.3085726
44	0x3d54356f	0.05180877
45	0x3dd3ac73	0.103356265
46	0xbdb4417f	-0.08801555
47	0x3e44fc79	0.19236936
48	0xbc76708c	-0.015041482
49	0xbeed16c8	-0.46306443
50	0xbe1c11a7	-0.15241109
51	0x3e8c9511	0.2745748
52	0xbd983d97	-0.07433622
53	0xbe6ea0c9	-0.23303522
54	0x3e08ec5d	0.13371415
55	0xbde6e386	-0.112738654
56	0x3e32780a	0.17428604
57	0xbcd40300	-0.025880337
58	0xbba3e9fd	-0.005002259
59	0xbe2a1d1f	-0.16612671
60	0x3e16b58d	0.14717694
61	0x3e14e2ce	0.14539644
62	0xbdca126b	-0.09866794
63	0x3d940e77	0.072293214
64	0xbf49d74d	-0.7884415
65	0x3e3206d0	0.17385411
66	0x3cde59c3	0.027142411
67	0x3dfba366	0.12287025
68	0x3eddd512	0.43326622
69	0x3ee8269d	0.4534196
70	0xbe79e8fc	-0.24405283
71	0x3d9d2bc4	0.07674363
72	0x3d557b0e	0.052119307
73	0xbe0077e3	-0.12545733
74	0xbd930605	-0.071788825
75	0xbea2be17	-0.31785652
76	0xbf075ebd	-0.52878934
77	0x3ec02999	0.37531736
78	0xbf1cd349	-0.61259896
79	0xbe89e750	-0.2693429
80	0xbdf5ee70	-0.12008369
81	0xbdace6e2	-0.08442475
82	0x3e375b51	0.17905928
83	0xbe7790e2	-0.24176362
84	0xbe634e3c	-0.22197813
85	0xbddbc715	-0.10731331
86	0xbd0a05e8	-0.03369704
87	0x3ebb4924	0.3657924
88	0xbfbc9c57	-1.4735211
89	0xbe857544	-0.2606603
90	0xbf5180fe	-0.8183745
91	0x3e030225	0.12793787
92	0xbe2fd131	-0.17169644
93	0xbfd36b26	-1.6517074
94	0xbdd85374	-0.105627924
95	0xbebad436	-0.3649003
96	0x3d8256bb	0.06364199
97	0xbf854793	-1.0412468
98	0x3e0b2d20	0.13591433
99	0xbd926b74	-0.07149401
100	0xbe012f62	-0.12615731
101	0x3e13c2d1	0.14429785
102	0x3e91fb41	0.28512004
103	0xbf2d4bde	-0.6769389
104	0xbf467cc8	-0.7753415
105	0xbe27d519	-0.16389884
106	0xbec9ed08	-0.39438653
107	0x3e5559d8	0.20835054
108	0xbf8a22d9	-1.0791885
109	0x3dace251	0.08441604
110	0x3eb94f52	0.3619333
111	0x3d915b85	0.07097534
112	0xbdc032d2	-0.09384693
113	0xbe783296	-0.24238047
114	0xbd178d06	-0.036999725
115	0xbe77ea6f	-0.24210523
116	0x3e46e819	0.19424476
117	0x3d3bad20	0.0458194
118	0xbe388a8e	-0.18021604
119	0xbe325309	-0.17414488
120	0xbf9866fa	-1.1906426
121	0xbdf410f0	-0.11917293
122	0xbf2f83db	-0.6856057
123	0xbe9ae1e8	-0.30250478
124	0x3da42c49	0.08016259
125	0x3e43b825	0.19113214
126	0xbf3a7b56	-0.72844446
127	0xbe8ba98f	-0.272778
128	0x3ccf6de5	0.025320956
129	0xbf1e81fa	-0.6191708
130	0xbddda434	-0.10822335
131	0xbe094c7c	-0.13408083
132	0xbe76ee8d	-0.24114437
133	0xbe97b478	-0.29629874
134	0x3d28046f	0.041019853
135	0xbe7a54e7	-0.2444645
136	0x3b5f02d5	0.0034028788
137	0xbd896c47	-0.067101054
138	0xbde17b15	-0.11009804
139	0x3e1e7ec9	0.15478052
140	0x3e0d0b7d	0.13773914
141	0x3dccbf0a	0.09997375
142	0x3d683bff	0.05669784
143	0x3eceaa83	0.40364465
144	0xbeaefd4d	-0.34177628
145	0x3ea61173	0.32435188
146	0x3dd9d540	0.10636377
147	0x3ef664c7	0.48123762
148	0x3d93f4f3	0.07224455
149	0x3f38449c	0.7197969
150	0xbe3fafb8	-0.18719375
151	0x3dfb537b	0.12271782
152	0x3e4196a5	0.18905123
153	0x3ec0ff61	0.3769484
154	0x3db4756a	0.088114575
155	0xbdc87f35	-0.09789888
156	0x3efa975a	0.48943597
157	0xbe5a563a	-0.21321955
158	0xbec6432b	-0.3872312
159	0x3e0a99d8	0.13535249
160	0xbe1b983e	-0.15194795
161	0xbf1e78fa	-0.61903346
162	0x3e223810	0.15841699
163	0xbe85e9b8	-0.26154876
164	0x3e1d13d0	0.15339589
165	0xbef1f9aa	-0.4726079
166	0xbeb21ab0	-0.34785986
167	0x3e969529	0.29410675
168	0xbd49f2c2	-0.049303778
169	0x3e5e9ae1	0.21738769
170	0xbe1766ab	-0.14785258
171	0x3c3bb025	0.01145557
172	0xbe8f54fa	-0.2799452
173	0xbd4048c1	-0.046944384
174	0xbd5f6417	-0.054538812
175	0x3d09318d	0.03349452
176	0x3eca8769	0.39556435
177	0x3e1d0c5a	0.15336743
178	0x3a8d3b03	0.0010775033
179	0xbde57c63	-0.112053655
180	0x3d6e31cd	0.058152962
181	0xbd04876c	-0.03235571
182	0x3d8e3527	0.06943732
183	0x3e0cccac	0.13749951
184	0x3e443ee1	0.19164611
185	0xbdd668f9	-0.10469241
186	0x3db258c0	0.08708334
187	0x3e8461d8	0.258559
188	0x3deb7c7c	0.11498353
189	0xbddc106a	-0.10745318
190	0xbed81ccd	-0.42209473
191	0x3de5bc9b	0.11217614
192	0x3e523d99	0.2053131
193	0xbeb7cb96	-0.3589751
194	0xbda27276	-0.07931988
195	0x3e505943	0.2034655
196	0xbe81e4f3	-0.25369987
197	0x3ed89566	0.42301482
198	0x3e66ef2d	0.22552176
199	0xbe0cbb93	-0.13743429
200	0xbe2b542e	-0.16731331
201	0xbd2010e1	-0.039078597
202	0xbe43a4cb	-0.19105832
203	0x3daccc9a	0.08437462
204	0x3ebc9a6a	0.3683656
205	0x3eb01b82	0.34395987
206	0x3f22efe8	0.6364732
207	0xbe0cf9ef	-0.13767217
208	0x3dd452ea	0.10367377
209	0x3eb06648	0.34453034
210	0xbe56182c	-0.20907658
211	0x3e0f4b00	0.13993454
212	0xbe24d838	-0.16098106
213	0x3eefefd2	0.46862656
214	0xbdce49dc	-0.10072681
215	0xbe8dc42d	-0.27688733
216	0xbeb3db78	-0.3512838
217	0xbe59450e	-0.21217749
218	0xbe96d373	-0.29458198
219	0xbeb2d4e7	-0.34928057
220	0x3e0c2583	0.13686185
221	0x3e9decb7	0.30844662
222	0x3ead284c	0.33819807
223	0x3eedbf1f	0.46434876
224	0xbe51dc7a	-0.20494261
225	0x3e8ee6cb	0.27910456
226	0x3dd15b2a	0.10222466
227	0xbe203cf9	-0.15648259
228	0xbdfac69a	-0.122449115
229	0xbe6b53b5	-0.2298115
230	0xbe119c02	-0.14219669
231	0xbdef111b	-0.116731845
232	0xbe9cdc11	-0.30636647
233	0x3e188657	0.14894997
234	0xbe09cf48	-0.13457978
235	0x3b96134e	0.004579938
236	0xbe20c6f0	-0.15700889
237	0xbd9aeebd	-0.07565067
238	0x3e15583c	0.1458444
239	0xbe471d39	-0.19444741
240	0x3e3f7d84	0.18700224
241	0x3ee99edf	0.45629022
242	0x3d9dde51	0.07708419
243	0xbad867de	-0.0016510447
244	0xbdc9c2a1	-0.09851576
245	0x3e3f71fb	0.18695824
246	0xbe041b7d	-0.12901111
247	0x3e9acc39	0.30233935
248	0x3f13fae4	0.57804704
249	0x3d7fe898	0.062477678
250	0x3d62d016	0.055374227
251	0xbdc884b7	-0.09790938
252	0x3daf508e	0.085602865
253	0xbe219388	-0.15778935
254	0x3f354bae	0.70818603
255	0x3e3a096c	0.18167657

sage.layer2.fc_pool.bias f4 [64]
0	0x3e570a61	0.21000053
1	0x3da63d25	0.08117131
2	0x3d3c12e6	0.04591646
3	0x3c21810f	0.00985743
4	0x3de21942	0.11039974
5	0x3d929db9	0.071589895
6	0x3e2d3578	0.16914928
7	0x3c4b0fea	0.012393931
8	0x3d187e64	0.03722991
9	0xbbcdc2aa	-0.0062793093
10	0x3e55fc65	0.20897062
11	0xbad6d0c8	-0.0016389126
12	0x3da334a4	0.07969025
13	0x3cd5cf4f	0.026099829
14	0x3d1d7d81	0.038449768
15	0x3d06bc7f	0.032894608
16	0x3e1b5645	0.15169628
17	0x3d9569b5	0.07295553
18	0x3df75ee6	0.12078647
19	0x3da10bcd	0.07863579
20	0x3d446c16	0.04795464
21	0x3dfaa788	0.12238985
22	0x3dcf8108	0.10132033
23	0x3de6e444	0.11274007
24	0x3d94c0e1	0.07263351
25	0xbccc3522	-0.02492768
26	0x3cbafd5e	0.022825893
27	0x3d27571c	0.04085456
28	0x3dca9137	0.09890979
29	0x3d9e7ebc	0.077390164
30	0x3e259d0b	0.16173188
31	0xbd858f0d	-0.065214254
32	0x3ddf0bf0	0.10890949
33	0x3da8b57e	0.08237742
34	0x3dd50435	0.10401193
35	0x3d19c679	0.037542794
36	0x3d6cb801	0.057792667
37	0xbdb8df1b	-0.09026929
38	0x3da70689	0.08155543
39	0x3d6b1e54	0.05740197
40	0x3d98e1ce	0.07464944
41	0x3e03b3d3	0.12861566
42	0x3ded71df	0.11593985
43	0x3dd623a3	0.10456016
44	0xbc107757	-0.008817515
45	0x3e2da633	0.16957931
46	0x3d4fe076	0.050751172
47	0x3d01998a	0.031640567
48	0x3d80104e	0.0625311
49	0x3d208b81	0.03919554
50	0x3d419b10	0.04726702
51	0x3e289574	0.16463262
52	0x3c9ef632	0.019404504
53	0x3dc793ef	0.09745013
54	0x3d7b59c0	0.06136489
55	0x3cf233d1	0.029565724
56	0x3d3e7301	0.046496395
57	0x3e1389a4	0.14407974
58	0x3def25ef	0.11677157
59	0x3d9339c4	0.07188752
60	0x3de812b5	0.11331693
61	0xbb40b418	-0.002940422
62	0x3e8103af	0.25198123
63	0x3be3b355	0.0069488683

sage.layer2.fc_neigh.weight f4 [128, 64]
0	0xbf2826ca	-0.6568419
1	0x3f0a6910	0.5406656
2	0xbf0a607d	-0.5405348
3	0x3e3e7576	0.18599495
4	0xbee0631c	-0.43825614
5	0xbe882cd0	-0.2659669
6	0xbd8531bb	-0.06503626
7	0xbe80c1af	-0.2514777
8	0xbe265de2	-0.16246751
9	0x3ea356ec	0.31902254
10	0xbf16a130	-0.588397
11	0x3c5931ac	0.013256472
12	0xbea37f8a	-0.31933242
13	0xbe1ef500	-0.15523148
14	0xbe3aa796	-0.18227991
15	0x3d2cc42d	0.042179275
16	0x3e4df97a	0.20114699
17	0xbe9b541f	-0.30337617
18	0xbf3a9ebe	-0.7289847
19	0x3ce058a5	0.027386019
20	0xbf42eeb7	-0.761455
21	0x3e31bd68	0.17357409
22	0xbef8a8b8	-0.48566222
23	0xbf76b6a3	-0.9637243
24	0xbda954c5	-0.08268122
25	0xbe026a11	-0.12735774
26	0xbe42eaaa	-0.1903483
27	0xbd91fbdd	-0.07128117
28	0xbed72c65	-0.42026058
29	0xbf2a66d5	-0.6656316
30	0xbd5b0ea0	-0.053480744
31	0x3ec5dd4c	0.386454
32	0xbf5f9047	-0.87329525
33	0xbe8b35eb	-0.27189574
34	0x3e7e288f	0.2482016
35	0x3d04408b	0.032288115
36	0xbe1b7c37	-0.15184103
37	0xbc45c0fd	-0.012069938
38	0xbebb3434	-0.36563265
39	0xbf0514d8	-0.5198493
40	0xbee7f2c0	-0.4530239
41	0xbf310890	-0.6915369
42	0xbf29d765	-0.6634429
43	0xbf80bf63	-1.0058407
44	0x3f077218	0.5290847
45	0x3e9b4783	0.30327997
46	0xbdd4f465	-0.10398177
47	0x3f235a16	0.63809335
48	0xbe3b9d21	-0.18321659
49	0xbd42d897	-0.047569837
50	0xbdb42a8a	-0.08797176
51	0xbd402b98	-0.046916574
52	0xbbb8831b	-0.0056308634
53	0xbe2cbf01	-0.16869737
54	0xbebc7cb0	-0.3681388
55	0x3cfa1a8b	0.030530235
56	0x3ebd4cd8	0.3697269
57	0xbf42baae	-0.760661
58	0xbda25dd8	-0.079280555
59	0xbeacac15	-0.33725038
60	0xbd792f0a	-0.060835876
61	0xbd66ab1c	-0.056315526
62	0xbeb44a00	-0.35212708
63	0x3eeef6bb	0.46672615
64	0x3e149871	0.14511277
65	0xbe85311c	-0.2601403
66	0x3dbcb93b	0.092150174
67	0xbdfcacee	-0.12337671
68	0x3d2af403	0.041736614
69	0x3e4f0e39	0.2022027
70	0xbe55e3c1	-0.20887662
71	0xbe4f9dcd	-0.2027504
72	0x3e6942dc	0.22779411
73	0x3e915a73	0.2838932
74	0xbd0cc0ce	-0.03436356
75	0xbd983f8e	-0.07433997
76	0x3e17e222	0.14832357
77	0xbd9eda8d	-0.07756529
78	0x3e6dff94	0.23242027
79	0x3e0a63b2	0.13514593
80	0xbde35f59	-0.111021705
81	0x3e800cbb	0.25009713
82	0x3da1049d	0.07862208
83	0x3d5727d5	0.05252822
84	0xbdd92c20	-0.10604119
85	0x3e163071	0.14666916
86	0x3e482365	0.19544752
87	0x3e9dad5b	0.30796322
88	0x3e8db25a	0.27675134
89	0xbe10b292	-0.14130619
90	0x3e277cd3	0.1635621
91	0x3bae5a62	0.005320833
92	0xbd6bb4fe	-0.057545654
93	0xbd871e31	-0.065975554
94	0xbe8869fd	-0.26643363
95	0xbe1b63f9	-0.15174855
96	0x3dcb8eef	0.09939372
97	0x3d508377	0.050906625
98	0xbe83591e	-0.2565393
99	0x3c0d836f	0.008637293
100	0x3e18bb92	0.14915302
101	0xbeb15d5f	-0.3464155
102	0x3e2d9ad7	0.16953598
103	0x3ef068d1	0.4695497
104	0x3e36b21e	0.17841384
105	0x3e11f513	0.14253645
106	0x3e736fce	0.23773119
107	0x3da43d4a	0.080195025
108	0xbebed7d3	-0.37274036
109	0xbe392e1c	-0.18083996
110	0x3ba61b17	0.0050691473
111	0x3e529718	0.2056545
112	0x3e095f89	0.1341535
113	0x3e1bca24	0.1521383
114	0x3dda30bd	0.10653827
115	0x3d24e2f8	0.040255517
116	0xbdac8742	-0.08424236
117	0x3e7fe132	0.24988249
118	0x3e58d2d3	0.21174173
119	0x3df14d4c	0.11782321
120	0x3d1b7e77	0.037962403
121	0x3e8c0ec6	0.2735502
122	0x3e9468c6	0.28986186
123	0xbde78595	-0.113047756
124	0xbe497431	-0.1967323
125	0x3e77bd65	0.24193342
126	0xbcf2714a	-0.029595036
127	0xbde09f53	-0.10967889
128	0xbd8dac35	-0.069176115
129	0xbd583fa5	-0.05279507
130	0x3dffbdab	0.12487348
131	0x3caa8f81	0.020820381
132	0x3f1992ba	0.5998951
133	0xbd4ccaae	-0.049997978
134	0x3e10dfac	0.14147824
135	0x3d76dec7	0.06027105
136	0xbdf66f50	-0.1203295
137	0x3dcc928a	0.099888876
138	0xbdfe3110	-0.12411702
139	0x3da41cc0	0.08013296
140	0x3def4bca	0.116843775
141	0x3d33adb6	0.043866836
142	0xbe275705	-0.16341789
143	0x3e84bfba	0.25927526
144	0xbecaac21	-0.3958445
145	0x3e99f5d7	0.30070373
146	0xbd074e88	-0.033033878
147	0xbe0066fd	-0.12539287
148	0x3dcd77ea	0.100326374
149	0xbcc48dd4	-0.02399341
150	0x3ecc687c	0.39923465
151	0x3ef96639	0.48710802
152	0x3da639cc	0.08116493
153	0xbe0e301e	-0.13885543
154	0x3e11df13	0.14245252
155	0x3ccf037c	0.025270216
156	0x3e1f880b	0.1557924
157	0x3eaaf4b7	0.33389828
158	0xbc10ab28	-0.008829869
159	0xbdb08d09	-0.0862065
160	0x3c6c7efd	0.014434573
161	0xbdb80ef4	-0.08987227
162	0x3dda6353	0.10663476
163	0x3e95fd13	0.29294643
164	0x3e7d204b	0.2471935
165	0xbd245c5c	-0.040127143
166	0xbdf64ada	-0.120259956
167	0x3ecf7602	0.4051972
168	0x3d8a6e68	0.067593396
169	0x3e9812d6	0.2970187
170	0xbdf4a1b0	-0.11944902
171	0xbe444555	-0.19167073
172	0x3ebf2b5d	0.3733777
173	0xbe650142	-0.22363761
174	0xbd754f90	-0.05989033
175	0xbd3a73b8	-0.045520514
176	0x3e0a2cca	0.13493648
177	0xbdac0d89	-0.08401019
178	0x3e67df8a	0.22643867
179	0x3ce6566f	0.028117387
180	0xbe4206f6	-0.18947968
181	0x3dc60877	0.09669583
182	0xbd709876	-0.058739148
183	0x3dc82f3a	0.09774633
184	0x3e8cdd0e	0.275124
185	0x3cf54e4d	0.029944563
186	0x3eebd9bb	0.46064553
187	0x3e27fadb	0.16404288
188	0x3eab1a6b	0.33418593
189	0xbe4b28f7	-0.19839846
190	0x3a2ff5f7	0.0006712372
191	0x3ec2d885	0.38055816
192	0x3db296c7	0.08720165
193	0x3c6d94d4	0.014500815
194	0xbd1692ba	-0.036761023
195	0xbec651cc	-0.3873428
196	0x3e18e809	0.14932264
197	0xbe463191	-0.19354846
198	0x3d05dfb4	0.032684043
199	0xbdbcbec3	-0.092160724
200	0xbda5ddb0	-0.08098924
201	0x3e832535	0.25614324
202	0x3e85a14e	0.26099628
203	0x3ca9e6c7	0.020739926
204	0xbda1a4f5	-0.07892791
205	0x3e395e6c	0.18102425
206	0x3e81a7f0	0.2532344
207	0x3e0d5c45	0.1380473
208	0xbd106079	-0.035248253
209	0xbd5f2afe	-0.05448436
210	0x3e4bc5ba	0.19899645
211	0x3e058dbf	0.13042353
212	0x3d28fe22	0.041257985
213	0xbd07279c	-0.03299676
214	0x3ea499b9	0.3214853
215	0x3ef7e890	0.4841962
216	0x3c4fb24f	0.012676789
217	0xbed85f77	-0.42260334
218	0x3d6108c3	0.054939996
219	0xbebcbfd6	-0.3686511
220	0xbe6bc824	-0.23025566
221	0x3e3c4352	0.18385056
222	0xbdc45939	-0.0958733
223	0xbd917fb2	-0.07104434
224	0xbdc588e8	-0.096452534
225	0xbe3d44e3	-0.1848331
226	0xbe1e4770	-0.15456939
227	0xbd17474b	-0.036933225
228	0xbd39ba5c	-0.04534374
229	0xbe1f55d1	-0.1556008
230	0xbe483199	-0.1955017
231	0x3ecc092f	0.39850757
232	0x3e558b2c	0.20853871
233	0x3b8e5e1d	0.0043447153
234	0x3e705cfb	0.23472969
235	0x3d93e931	0.07222212
236	0x3c912d5e	0.017721828
237	0xbe915404	-0.2838441
238	0x3dd30f18	0.10305613
239	0xbd7dc982	-0.06195975
240	0xbc066b5b	-0.0082043065
241	0x3e4ad515	0.19807847
242	0x3e9d6d3b	0.307474
243	0xbe9bdb06	-0.3044054
244	0xbe66031b	-0.22462122
245	0x3d547aa0	0.051874757
246	0xbdaba512	-0.08381094
247	0xbe43f20a	-0.191353
248	0xbe2b9eeb	-0.16759841
249	0xbb0051cc	-0.0019580005
250	0x3d46e21b	0.048555475
251	0xbea7a343	-0.32741746
252	0xbd531ea5	-0.051542897
253	0x3db5bf8b	0.088744245
254	0x3e4229d4	0.18961269
255	0xbcbb1666	-0.022837829

sage.layer2.fc_self.weight f4 [128, 64]
0	0x3f2d1b3f	0.676197
1	0x3ed0a5ae	0.40751404
2	0x3e941f2c	0.28930032
3	0xbe9a03de	-0.30081075
4	0x3f15eba7	0.585627
5	0x3f971c6e	1.1805551
6	0x3fbcc637	1.474799
7	0x3fb5edff	1.4213256
8	0x3ede97ab	0.43475088
9	0x3f2b8d72	0.67012703
10	0xbf93a74a	-1.1535428
11	0x3ea780f1	0.32715562
12	0x3fa4eb24	1.2884259
13	0x3f2a97a5	0.6663764
14	0xbd99a640	-0.07502413
15	0x3ee4ef0d	0.4471363
16	0xbd26ecb9	-0.0407531
17	0x3f57bb2d	0.8426998
18	0x3e19c1fc	0.15015405
19	0x3ed86ae1	0.42269042
20	0xbe47bdef	-0.19506048
21	0xbe0bc4ea	-0.13649336
22	0x3f2d9aa5	0.67814094
23	0x3da09ed4	0.07842794
24	0x3ee06600	0.4382782
25	0xbfb15c3d	-1.3856274
26	0xbfc6942f	-1.5513972
27	0x3ef62298	0.48073268
28	0x3f868856	1.0510356
29	0x3f3e533e	0.7434577
30	0x3f3aca60	0.7296505
31	0x3f17173e	0.5901984
32	0xbe1cb8a0	-0.15304804
33	0x3f82bf76	1.0214679
34	0x3f4e045b	0.80475396
35	0x3eee43ca	0.46536094
36	0x3e28f178	0.16498363
37	0x3e90afad	0.2825903
38	0x3d93493c	0.07191703
39	0xbe1ae780	-0.15127373
40	0x3deb4ea3	0.11489608
41	0x3e73fd69	0.23827137
42	0x3eadfec7	0.33983442
43	0x3e99f77e	0.30071634
44	0xbe5ff28a	-0.21869865
45	0x3f12c028	0.5732446
46	0x3f22b8e5	0.63563377
47	0x3f206efe	0.6266936
48	0x3f8a4c28	1.0804491
49	0x3fd9cb74	1.7015214
50	0x3f1b116b	0.6057345
51	0xbf6abd9e	-0.9169558
52	0x3df9b856	0.121933624
53	0x3f46dc14	0.7767956
54	0x3f188d97	0.5959105
55	0x3f904c31	1.1273252
56	0x3dbabd6f	0.09118163
57	0x3eac1f02	0.33617407
58	0x3ec5a115	0.38599458
59	0x3f82ec91	1.0228444
60	0xbf8d1928	-1.1023302
61	0xbe18a6b8	-0.14907348
62	0x3f9686ff	1.1759948
63	0xbea43802	-0.3207398
64	0xbfb34293	-1.4004692
65	0x3ec49efa	0.3840254
66	0xbd6ea828	-0.058265835
67	0xbe75d13a	-0.24005595
68	0x3f9e47cb	1.236566
69	0xbe6deabf	-0.2323408
70	0xbec84cbc	-0.39121044
71	0x3e7a7a50	0.24460721
72	0xbf479653	-0.7796375
73	0xbe5858be	-0.21127602
74	0x3df78b26	0.12087087
75	0xbf082971	-0.53188235
76	0x3e470ceb	0.19438522
77	0xbdc9bcb6	-0.09850447
78	0xbfa7894c	-1.3088775
79	0xbf9b3229	-1.2124683
80	0xbf755cb3	-0.9584457
81	0xbdc32d1a	-0.09530087
82	0x3fb35bd1	1.4012395
83	0xbf543ab5	-0.8290208
84	0xbdecee09	-0.11568839
85	0xbf516966	-0.8180145
86	0x3f596473	0.849189
87	0xbe1298d4	-0.14316112
88	0xbf8c8d5a	-1.0980637
89	0x3ebdab0e	0.37044567
90	0x3d8c2767	0.06843453
91	0x3ed17da2	0.40916163
92	0x3eced8c3	0.4039975
93	0xbf484881	-0.7823563
94	0xbec5a1c6	-0.38599986
95	0xbf176268	-0.5913453
96	0x3fad61e8	1.3545504
97	0xbf49d0dd	-0.78834325
98	0x3f575fbc	0.84130454
99	0xbd59a7c1	-0.0531385
100	0x3e7e7e4a	0.24852863
101	0x3efd7ed7	0.49510834
102	0x3e6f0013	0.23339872
103	0xbfa60859	-1.2971298
104	0xbe8e0ebe	-0.27745622
105	0xbe0a3793	-0.13497762
106	0xbeba7006	-0.36413592
107	0xbdb96a40	-0.09053469
108	0xbf0f77ee	-0.56042373
109	0xbe983687	-0.297291
110	0x3f748b4b	0.95525044
111	0xbd68604f	-0.056732472
112	0x3e7cbf09	0.24682249
113	0xbfd21e41	-1.6415483
114	0x3fb3f4b1	1.4059049
115	0xbf15d59c	-0.5852907
116	0x3fec640f	1.8468035
117	0x3e45cac7	0.19315635
118	0x3e60478e	0.21902296
119	0x3dad91e3	0.08475091
120	0xbfcdee13	-1.608828
121	0x3e4c126e	0.19928905
122	0xbfb88057	-1.4414166
123	0xbe4c0b55	-0.19926198
124	0xbe29cff8	-0.1658324
125	0x3f9a672f	1.2062739
126	0xbf899be4	-1.0750699
127	0x3c0ab969	0.008467057
128	0xbc0d8a70	-0.008638963
129	0x3ea675d9	0.32511786
130	0xbdc005f4	-0.093761355
131	0xbf310c6c	-0.6915958
132	0x3eb1e90e	0.3474812
133	0x3f83db8b	1.0301374
134	0x3f73a76c	0.9517734
135	0x3fb08388	1.379014
136	0x3e3d4467	0.18483125
137	0xbf0f608d	-0.560067
138	0xbf1aec5e	-0.6051692
139	0x3f6adb1d	0.9174059
140	0xbee7c520	-0.45267582
141	0x3f55bb90	0.8348932
142	0xbe562b30	-0.20914912
143	0xbdd9b66d	-0.10630498
144	0xbf100df5	-0.56271297
145	0xbda1bcba	-0.07897325
146	0x3df430e3	0.11923387
147	0xbd8169a6	-0.06318979
148	0x3e7a267b	0.24428742
149	0x3e4f7092	0.20257786
150	0xbf4103f6	-0.7539667
151	0x3eb9a8bf	0.36261556
152	0x3bb45030	0.005502723
153	0xbf173574	-0.5906594
154	0xbf2347ad	-0.63781244
155	0x3db766bb	0.08955141
156	0x3e5a4628	0.21315825
157	0xbf19c3fd	-0.6006468
158	0x3f2a207e	0.6645583
159	0x3e90138e	0.2813992
160	0x3f0200a3	0.5078222
161	0x3d13ef5a	0.036116935
162	0x3e6d8511	0.23195292
163	0x3f9dc4e5	1.2325712
164	0x3f434868	0.7628236
165	0x3ec528bf	0.3850765
166	0x3e91a323	0.28444776
167	0xbf756490	-0.9585657
168	0x3ea61d0b	0.32444033
169	0x3d2db996	0.042413317
170	0x3ea99043	0.33117875
171	0xbebfff5c	-0.3749951
172	0xbf41ea41	-0.7574807
173	0xbe17ff72	-0.14843538
174	0x3ea02703	0.31279764
175	0xbe6cd214	-0.23127013
176	0xbf2aec1b	-0.6676652
177	0x3f9d1966	1.2273376
178	0xbe139767	-0.14413224
179	0x3ed7231c	0.42018974
180	0x3f6e69fc	0.9313047
181	0xbe07818d	-0.13233013
182	0xbd838975	-0.06422702
183	0x3f369aa2	0.713297
184	0xbee2fdb0	-0.44334173
185	0x3eb0bdf6	0.3451993
186	0xbf4c4147	-0.79787105
187	0x3f61ffdc	0.88281035
188	0xbe089c53	-0.13340883
189	0x3ecdc2b1	0.401876
190	0xbf0b95f7	-0.54525703
191	0xbf4bd544	-0.7962229
192	0xbfed70eb	-1.8550085
193	0x3d8efc79	0.06981749
194	0x3eb11d7f	0.34592816
195	0x3f02e321	0.5112782
196	0x3f186ff5	0.5954583
197	0xbebc968a	-0.36833602
198	0x3f7c7189	0.9861074
199	0x3ce98f61	0.028510751
200	0xbf5f2a59	-0.8717399
201	0xbf7a0f77	-0.9767985
202	0xbe4e56c3	-0.20150284
203	0x3f75ce39	0.96017796
204	0xbf4a32b0	-0.78983593
205	0xbf3c0176	-0.7343973
206	0xbf9e88ca	-1.2385495
207	0x3f104bdc	0.5636575
208	0x3f3946a4	0.72373414
209	0xbf74a63c	-0.95566154
210	0xbbec33f7	-0.007208343
211	0xbe5d9a63	-0.21640925
212	0x3db0c4b4	0.08631268
213	0xbf9a652e	-1.2062128
214	0xbdaaf16b	-0.08346828
215	0x3e999557	0.2999675
216	0xbb40ffe3	-0.0029449395
217	0xbdbd982f	-0.09257542
218	0xbbd3a346	-0.0064586727
219	0x3f99c757	1.2013959
220	0x3eefb209	0.46815518
221	0x3f2bf286	0.67166936
222	0x3f00759c	0.5017946
223	0xbfa3f1fa	-1.280822
224	0x3e305965	0.17221601
225	0xbe523715	-0.20528825
226	0x3f5f3717	0.87193435
227	0x3cadf079	0.02123283
228	0xbedb24d0	-0.42801523
229	0xbd68a6fb	-0.05679987
230	0xbf1f86ac	-0.6231487
231	0xbe5d8f2b	-0.21636645
232	0x3ef3e316	0.4763419
233	0x3ee9f7e6	0.45696944
234	0xbf03cccc	-0.5148437
235	0x3fae9baf	1.3641261
236	0xbee379f8	-0.44428992
237	0x3f35e581	0.7105332
238	0x3f0e04b4	0.55475926
239	0xbe5de891	-0.21670748
240	0xbd8e7a37	-0.069569044
241	0xbe20db74	-0.15708715
242	0x3eeea2be	0.46608537
243	0xbec22181	-0.37916186
244	0xbe29034b	-0.16505162
245	0xbcf3be7e	-0.02975392
246	0xbd386fae	-0.04502838
247	0xbf10dee0	-0.5659008
248	0xbfd72043	-1.680672
249	0x3cb89edd	0.02253669
250	0xbeb124be	-0.34598345
251	0xbf30038e	-0.68755424
252	0xbe564b88	-0.2092725
253	0x3ef2c215	0.47413698
254	0x3f04c1ff	0.51858515
255	0xbf009836	-0.50232255

sage.layer2.fc_self.bias f4 [128]
0	0xbe70aaea	-0.23502699
1	0xbd203400	-0.03911209
2	0xbd8ebfb0	-0.06970155
3	0x3cc88e3f	0.02448189
4	0x3cb96b3d	0.022634143
5	0xbd8a519d	-0.06753848
6	0x3e43a1f2	0.19104746
7	0xbe4df470	-0.20112777
8	0xbe13dc07	-0.14439403
9	0x3ca7ea9a	0.020497609
10	0x3d9bcf46	0.07607894
11	0xbde33756	-0.11094539
12	0xbd211484	-0.039326206
13	0xbcca5a88	-0.024701372
14	0xbd40874c	-0.04700403
15	0xbd3f9bbe	-0.046779387
16	0xbbc36cae	-0.0059638834
17	0x3b53d3da	0.0032322318
18	0xbd678937	-0.056527343
19	0x3dde57e7	0.1085661
20	0x3e195b72	0.1497629
21	0x3cba8acd	0.022771263
22	0x3c95721a	0.018242884
23	0xbdce7103	-0.10080149
24	0xbc4fdb67	-0.012686587
25	0xbcfc2c71	-0.03078291
26	0x3d9a0c2d	0.075218536
27	0x3c81fc00	0.015867233
28	0xbdc91b87	-0.098197035
29	0x3d81d8f4	0.06340209
30	0xbd9192a4	-0.071080476
31	0xbd80094a	-0.06251772
32	0x3deef769	0.116682835
33	0xbd2a3767	-0.041556742
34	0x3d52dd71	0.051480714
35	0x3de0618f	0.10956108
36	0x3e2ddca7	0.16978703
37	0x3bf53e65	0.0074842446
38	0x3cb6dd18	0.022322223
39	0xbd7ce4e9	-0.061741743
40	0x3daf331f	0.085546724
41	0x3cbac689	0.022799747
42	0x3d92c93f	0.07167291
43	0xbd5fb264	-0.054613486
44	0x3d4bb82d	0.04973619
45	0x3e0daeae	0.13836166
46	0x3d000e7c	0.031263813
47	0xbc49ad2b	-0.012309353
48	0x3d88cda0	0.06679845
49	0xbda7b56d	-0.08188901
50	0x3d66989f	0.056297895
51	0x3e7e8433	0.24855117
52	0xbd6add91	-0.05734021
53	0x3e3db0e2	0.18524507
54	0xbade00d7	-0.0016937506
55	0x3de441b5	0.11145345
56	0xbd8d590b	-0.06901749
57	0xbdec7aac	-0.11546835
58	0xbdd18483	-0.10230353
59	0x3cb5e634	0.022204496
60	0x3ca362b4	0.019944526
61	0xbdd9e9e2	-0.10640313
62	0x3d802287	0.062565856
63	0xbd416aca	-0.047220983
64	0x3bb5527e	0.0055335155
65	0xbde71224	-0.11282757
66	0xbdd32cc4	-0.10311273
67	0x3bcb9e5b	0.006213946
68	0x3d08378d	0.033256102
69	0x3e086bb1	0.13322331
70	0xbc1d3863	-0.009595963
71	0x3d38a5b1	0.04507989
72	0xbc904d17	-0.017614884
73	0x3d6471c6	0.055772565
74	0xbd76c338	-0.06024477
75	0xbc8f4dd4	-0.017493166
76	0xbd62984d	-0.055321027
77	0xbdb436ac	-0.0879949
78	0xbe253297	-0.1613258
79	0x3d069139	0.03285334
80	0x3a81777d	0.0009877529
81	0xbdc0b4be	-0.09409474
82	0xbd4648f9	-0.048409436
83	0xbd90dfab	-0.07073911
84	0x3d881209	0.06644065
85	0xbe171f0b	-0.14757936
86	0x3c524938	0.0128348395
87	0xba8c9022	-0.0010724107
88	0xbdb13064	-0.08651808
89	0x3d5697ac	0.05239074
90	0xbd4a6aed	-0.04941838
91	0xbd441e7c	-0.047880635
92	0xbd69ea05	-0.057107944
93	0xbd444b32	-0.047923274
94	0x3d4dc7a4	0.05023922
95	0xbd8025db	-0.0625722
96	0x3c9bfb0f	0.019040613
97	0x3dd36b3c	0.10323188
98	0xbcf786f7	-0.030215723
99	0x3d97cab3	0.07411709
100	0x3dcf4085	0.10119728
101	0xbdc5d065	-0.09658889
102	0xbdf741b2	-0.12073077
103	0xbc7fec38	-0.015620284
104	0xbde9ca63	-0.11415555
105	0x3dc24a05	0.09486774
106	0xbcb38db5	-0.021918157
107	0x3d958416	0.07300584
108	0x3d0e5fe8	0.034759432
109	0xbe1d33d9	-0.1535181
110	0x3c86d42b	0.016458591
111	0x3b8034da	0.0039125504
112	0xbda6e26d	-0.08148656
113	0x3d61d8cd	0.055138398
114	0xbe06ef36	-0.13177189
115	0xbd17d694	-0.037069872
116	0xbd9a02c8	-0.07520062
117	0xbd26271d	-0.040564645
118	0xbd1cbb53	-0.038264584
119	0x3de762a1	0.11298109
120	0x3dfd51fd	0.12369154
121	0x3d609943	0.05483366
122	0x3d9477a2	0.07249381
123	0x3bca4c1a	0.006173623
124	0x3e004c27	0.1252905
125	0x3e1354a9	0.14387764
126	0xbdade1bb	-0.0849032
127	0x3caf38b1	0.021389337
