Audit-log_Analysis/code/GNN/training/checkpoint_graphSAGE/best_model_GraphSAGE_transR_50-4.pt (torch, 294273 bytes, 12 tensors)

sage.layer1.fc_pool.weight f4 [50, 50]
0	0x3dd147be	0.10218762
1	0x3eae00c5	0.33984962
2	0xbda16888	-0.07881266
3	0x3f3c4863	0.73547953
4	0x3ea533c8	0.32266068
5	0xbed17105	-0.4090654
6	0x3efe9205	0.4972078
7	0x3e9b3ad5	0.30318323
8	0xbe0fa1d5	-0.14026578
9	0x3d5db428	0.05412689
10	0xbd6930dc	-0.05693136
11	0xbf42aa6d	-0.760413
12	0xbdbbd284	-0.09171012
13	0x3edb185c	0.42792022
14	0xbe4328cd	-0.19058533
15	0xbe5cbbf2	-0.2155607
16	0x3ef62948	0.4807837
17	0xbe79cca4	-0.2439447
18	0x3f0c79df	0.5487346
19	0xbe93f95f	-0.28901193
20	0xbf8be72e	-1.0929925
21	0xbedc98be	-0.43085283
22	0xbe869076	-0.2628209
23	0x3edc68f8	0.43048835
24	0xbe6721d7	-0.22571503
25	0xbeb7d19b	-0.35902104
26	0x3e3bbe4e	0.18334314
27	0xbe8cd2b5	-0.27504507
28	0x3e9020e5	0.28150097
29	0xbc4dcb5f	-0.0125606945
30	0xbe701251	-0.23444487
31	0x3e60f818	0.2196964
32	0xbf38108f	-0.71900266
33	0xbdc664b9	-0.0968718
34	0xbe26282f	-0.16226266
35	0xbf13462a	-0.57528937
36	0x3eb085bd	0.34477034
37	0xbdaf4aa3	-0.08559158
38	0xbde67aa3	-0.1125386
39	0xbecbd53b	-0.3981112
40	0x3f232321	0.6372548
41	0xbcad3986	-0.021145593
42	0x3de6bb1c	0.11266157
43	0xbbb97623	-0.005659835
44	0xbeeca9f0	-0.46223402
45	0x3ed5ba58	0.41743731
46	0xbe94ace5	-0.29038158
47	0xbe008b43	-0.12553124
48	0x3d4c0a24	0.04981436
49	0x3de1ffe1	0.11035133
50	0x3f1aa23a	0.6040379
51	0x3f04b869	0.5184389
52	0x3ebad7d7	0.36492798
53	0x3e866b97	0.2625396
54	0xbe95a7e1	-0.29229644
55	0x3ce7a560	0.0282771
56	0xbf3638c0	-0.71180344
57	0x3f14f4cb	0.58186024
58	0xbc912c13	-0.017721212
59	0xbe3da10b	-0.18518464
60	0x3df06b60	0.1173923
61	0xbf5f9a09	-0.87344414
62	0xbe2d1c7f	-0.16905402
63	0xbe8b7b37	-0.27242443
64	0x3ef62e6e	0.48082298
65	0x3ea27517	0.31729957
66	0x3db576c9	0.08860547
67	0x3e8b7df9	0.27244547
68	0xbddebc6c	-0.10875782
69	0xbe880bd4	-0.26571524
70	0x3e903579	0.28165796
71	0x3e57316e	0.2101495
72	0xbe5de0bc	-0.2166776
73	0xbf248333	-0.64262694
74	0xbe62e649	-0.2215816
75	0x3cf46d3b	0.029837241
76	0xbdbb6555	-0.09150187
77	0xbe00a3e3	-0.12562518
78	0x3f1cfe63	0.61325663
79	0xbe04f353	-0.12983446
80	0x3d20f95e	0.039300315
81	0x3edd9978	0.4328115
82	0xbb10a92e	-0.0022073495
83	0xbee85f1e	-0.4538507
84	0x3e5777cb	0.21041791
85	0xbc777e7e	-0.015105842
86	0xbf0bdd8d	-0.54634935
87	0x3f02f18b	0.51149815
88	0x3e4bd588	0.19905674
89	0xbd59a70f	-0.053137835
90	0x3ed1cbba	0.40975744
91	0x3e006932	0.12540129
92	0xbe39775f	-0.18111943
93	0xbeaa1d2d	-0.33225384
94	0x3e723ea1	0.23656704
95	0xbde43545	-0.11142973
96	0x3f519b22	0.8187734
97	0xbee21638	-0.44157577
98	0xbe392df5	-0.18083937
99	0xbeb960c0	-0.36206627
100	0x3eb88d57	0.36045334
101	0xbf071935	-0.5277284
102	0x3edfa206	0.43678302
103	0xbe4890a4	-0.19586426
104	0xbe703dc3	-0.2346106
105	0x3e5acb60	0.21366644
106	0xbcec6479	-0.028856503
107	0xbedf2ee2	-0.43590456
108	0x3bf9e5a6	0.007626253
109	0x3e3cbc31	0.18431164
110	0xbf88f27f	-1.0699004
111	0xbe022ac3	-0.12711625
112	0x3db1ab18	0.08675212
113	0xbcbd7064	-0.023124881
114	0x3dd0cae7	0.101949506
115	0x3e226817	0.1586002
116	0xbe313c4f	-0.17308162
117	0xbe1dd787	-0.15414248
118	0xbeb86a11	-0.36018422
119	0xbdd1e514	-0.10248771
120	0x3e484144	0.19556147
121	0xbc169a97	-0.0091921305
122	0xbed33c22	-0.41256815
123	0xbf3671ee	-0.7126759
124	0xbf267104	-0.650162
125	0x3f3aaee3	0.72923106
126	0xbf23baff	-0.6395721
127	0x3d5376a9	0.051626835
128	0xbf301e08	-0.68795824
129	0x3f4f50b6	0.8098253
130	0xbe85fea4	-0.26170838
131	0x3e898724	0.26860917
132	0xbf0133aa	-0.5046946
133	0x3e4f7c40	0.20262241
134	0x3ed3b6bb	0.4135035
135	0xbe8169b0	-0.25275946
136	0x3de6e84c	0.11274776
137	0xbf25ca4b	-0.647618
138	0x3d197ffb	0.037475567
139	0xbe66e7af	-0.22549318
140	0x3f077f17	0.529283
141	0xbec4d814	-0.38446105
142	0xbc92a05b	-0.01789873
143	0x3f0b6a18	0.5445876
144	0xbe8e8a7e	-0.27840036
145	0x3e2c7e7d	0.16845126
146	0x3ecf5f1b	0.40502247
147	0x3ee87d78	0.45408225
148	0xbdd3804c	-0.10327205
149	0x3e0a801b	0.13525431
150	0xbe3a21f2	-0.18177012
151	0x3f722807	0.94592327
152	0x3f1a754f	0.6033525
153	0x3f388e18	0.7209182
154	0x3e336e9d	0.17522664
155	0x3f764269	0.96195084
156	0x3ed5f3dc	0.41787612
157	0xbe8cb86b	-0.2748445
158	0x3c6e432b	0.014542381
159	0x3db60fb3	0.08889713
160	0xbeb5d9a1	-0.355176
161	0x3ae7fdb0	0.0017699506
162	0xbe58a70c	-0.21157473
163	0xbec902fb	-0.39260086
164	0x3e15eb56	0.14640555
165	0xbeb5092d	-0.35358563
166	0x3e9675ab	0.2938665
167	0xbec18265	-0.37794796
168	0x3eb104f2	0.34574085
169	0xbe0d503f	-0.13800143
170	0xbf792532	-0.9732238
171	0xbd00691d	-0.031350244
172	0xbef53991	-0.47895482
173	0x3e459d61	0.19298317
174	0x3f2a64f5	0.665603
175	0xbeb36866	-0.35040587
176	0x3dbf01b0	0.09326494
177	0x3eadc7b8	0.33941436
178	0x3eced63c	0.40397823
179	0x3dc8bfed	0.09802232
180	0xbde52401	-0.11188508
181	0x3e6be403	0.23036198
182	0x3e853562	0.2601729
183	0x3e8477a6	0.25872535
184	0x3d5bcea1	0.053663854
185	0xbe985d1a	-0.2975853
186	0x3c8d7a47	0.01727022
187	0x3d7b124d	0.06129675
188	0xbf213449	-0.62970406
189	0x3cecf1cc	0.028923891
190	0x3d9d0e35	0.076687254
191	0x3dbc9654	0.0920836
192	0x3d882acb	0.06648787
193	0x3e026d49	0.12737001
194	0xbe7a4c2b	-0.24443118
195	0xbe1c7394	-0.15278465
196	0xbe8d4286	-0.27589816
197	0x3f2e66cf	0.68125623
198	0xbd7db5fd	-0.061941136
199	0xbef84e8e	-0.48497432
200	0xbe73c932	-0.23807219
201	0xbf2283ea	-0.63482535
202	0xbdd22a4e	-0.10261975
203	0xbf624fff	-0.88403314
204	0xbe9c39e0	-0.30512905
205	0xbf084bc6	-0.5324062
206	0xbe834c5b	-0.25644192
207	0x3e9617e5	0.29315105
208	0xbd44024f	-0.047853764
209	0xbcfb8586	-0.030703317
210	0xbe456d96	-0.19280085
211	0x3cf8bb42	0.030362729
212	0xbc210d2e	-0.009829802
213	0x3e252afc	0.16129678
214	0xbe842142	-0.25806624
215	0xbe68078a	-0.22659126
216	0xbec7fa26	-0.39058036
217	0x3e4337be	0.19064233
218	0x3e4e353e	0.20137498
219	0x3dbd0302	0.09229089
220	0x3e63307c	0.22186464
221	0x3db1533b	0.08658453
222	0x3e787ff4	0.2426756
223	0x3d20342e	0.039112262
224	0xbdf27c36	-0.118400976
225	0xbf2b2901	-0.6685944
226	0x3e26b9f8	0.16281879
227	0x3ea8ac37	0.3294389
228	0xbe8feddf	-0.2811117
229	0x3e828e91	0.25499395
230	0xbcf83b91	-0.030301841
231	0xbd05c7e1	-0.032661323
232	0x3db1a172	0.086733714
233	0xbf3c61a3	-0.7358648
234	0x3f0c049c	0.54694533
235	0xbe184884	-0.14871413
236	0x3e0e6586	0.13905916
237	0xbfa87694	-1.3161187
238	0x3e77bbc9	0.24192728
239	0xbe910602	-0.28324896
240	0x3ef84668	0.48491216
241	0xbcc57a9a	-0.024106313
242	0x3f2a045e	0.66412914
243	0x3ef56073	0.47925147
244	0xbeadbd77	-0.33933613
245	0x3eb5e212	0.3552404
246	0x3e6ccce7	0.23125039
247	0x3de789ee	0.11305605
248	0x3e13e085	0.14441116
249	0x3f13cd57	0.577352
250	0x3e839037	0.25695965
251	0x3f5495b2	0.83040917
252	0x3ecc4486	0.3989603
253	0xbe9054a5	-0.2818958
254	0xbeebca5b	-0.46052822
255	0x3e89bc76	0.26901597

sage.layer1.fc_pool.bias f4 [50]
0	0xbb8289dd	-0.0039837197
1	0xbb9003e2	-0.004394994
2	0x3c8c427e	0.01712155
3	0x3b068ba1	0.0020530003
4	0x3d324d3a	0.04353068
5	0x3bc7d48d	0.006098336
6	0x3b7b7ec7	0.0038375126
7	0x3cc40d01	0.023931982
8	0x3d203790	0.03911549
9	0xbc8288a2	-0.015934292
10	0x3d26b5e6	0.040700816
11	0xbbf6e8be	-0.0075350692
12	0xbd7eb633	-0.062185477
13	0xbafdc6aa	-0.0019361575
14	0x3d4ba474	0.04971738
15	0xbc9fc81a	-0.019504596
16	0xbc8a1746	-0.0168568
17	0xbc1c233b	-0.009529884
18	0xbad194e5	-0.0015989809
19	0x3d7e50b9	0.062088702
20	0xbbabca7a	-0.005242643
21	0x3cebc8a7	0.028782202
22	0xbb440979	-0.0029912873
23	0x3d090642	0.033453234
24	0x3d42abe3	0.047527205
25	0x3d159a1c	0.036523923
26	0xbd71ad63	-0.059003245
27	0x3c6dd71c	0.014516618
28	0x3d0801f0	0.033204973
29	0xbcddf8c8	-0.027096167
30	0x3bdb4d9c	0.0066926014
31	0xbd925090	-0.07144272
32	0xbbbb2c7e	-0.005712091
33	0x3b7bf207	0.003844382
34	0x3bce421e	0.006294503
35	0xbba995ed	-0.0051753432
36	0xbc09a360	-0.008400768
37	0xbcdad409	-0.026712434
38	0xbc56991e	-0.013098029
39	0xbcd4bf40	-0.025970101
40	0xbbcf31b6	-0.0063230647
41	0x3c210f7e	0.009830354
42	0xbbe73fe7	-0.0070571783
43	0x3d3e52fb	0.046465855
44	0xbab5e1d6	-0.0013876508
45	0x3cbcfecf	0.023070721
46	0xbb87d4f2	-0.004145258
47	0x3c4fb9e4	0.012678597
48	0xbbbea45d	-0.0058179335
49	0xbd7fea68	-0.062479407

sage.layer1.fc_neigh.weight f4 [64, 50]
0	0x3f120b9e	0.57048976
1	0xbea27b19	-0.3173454
2	0xbe0177c5	-0.12643345
3	0x3e8830d6	0.2659976
4	0x3e87f049	0.2655051
5	0xbd9d944b	-0.076943
6	0x3e02cc14	0.12773162
7	0xbdb6b2f9	-0.08920855
8	0x3e2fe7e6	0.17178306
9	0x3e087605	0.13326271
10	0xbe37f97d	-0.17966266
11	0xbdf41627	-0.11918288
12	0x3d8194b0	0.06327188
13	0xbe556d37	-0.20842443
14	0x3e28659c	0.16445011
15	0x3cc8d0f6	0.024513703
16	0x3d5b7b38	0.053584307
17	0xbd48dfb4	-0.049041465
18	0xbd64d906	-0.055871032
19	0x3baf426d	0.0053484947
20	0x3e209915	0.15683396
21	0xbe880dce	-0.26573032
22	0x3e576ef6	0.21038422
23	0x3eb9eb90	0.36312532
24	0x3e143750	0.14474225
25	0x3d69250c	0.056920096
26	0x3df8e3a2	0.121527925
27	0x3d80bf91	0.062865384
28	0x3e68dd20	0.22740602
29	0x3d7cf3e8	0.061756045
30	0x3e420e22	0.18950704
31	0xbdc1d048	-0.094635546
32	0x3e93ce14	0.28868163
33	0x3c14d4a1	0.009083898
34	0x3dd304e3	0.103036664
35	0xbeb6dd1a	-0.35715562
36	0x3e7a26db	0.24428885
37	0x3cdcca7c	0.02695202
38	0x3e2e7155	0.1703542
39	0x3e693cfe	0.22777173
40	0xbeb14d14	-0.34629118
41	0xbde15899	-0.11003227
42	0xbd97768e	-0.073956594
43	0x3e952b57	0.29134628
44	0x3da8f48c	0.082497686
45	0x3ec1d426	0.3785717
46	0x3e12bfbf	0.14330958
47	0x3ee708a8	0.45123792
48	0x3ed4a348	0.41530824
49	0x3e3062f9	0.17225255
50	0x3d2382d8	0.039919704
51	0x3cf792d2	0.030221377
52	0x3e261c60	0.16221762
53	0xbe5e735a	-0.2172369
54	0x3d956dfb	0.07296368
55	0x3ae64458	0.0017567975
56	0x3d9386c8	0.07203442
57	0xbdd6a8e8	-0.10481435
58	0xbe0c68c0	-0.13711834
59	0xbcb3271c	-0.021869235
60	0xbcf0898f	-0.029362468
61	0x3e0cb832	0.1374214
62	0x3d794a65	0.060861964
63	0xbdfefba0	-0.124503374
64	0xbe293a73	-0.16526203
65	0x3d2c6c35	0.04209538
66	0x3e27549f	0.16340874
67	0x3e362323	0.17786841
68	0x3e93f6f2	0.28899342
69	0xbde5a23a	-0.11212583
70	0xbe0c9b20	-0.1373105
71	0x3e469abd	0.19394965
72	0x3e087c77	0.1332873
73	0x3e6eeaab	0.23331706
74	0xbe557d32	-0.2084854
75	0xbe62bd29	-0.22142471
76	0xbd81ce9c	-0.06338236
77	0xbd51ea5a	-0.051248886
78	0xbd820c85	-0.06350044
79	0x3d94d544	0.0726724
80	0x3d1fe6a8	0.03903833
81	0x3d119c02	0.03554917
82	0xbcb4040f	-0.021974592
83	0x3bb13521	0.005407945
84	0x3d620f0f	0.055190142
85	0x3ee010e9	0.437629
86	0xbe57a720	-0.21059847
87	0x3e5ce3ac	0.21571225
88	0xbdd0268b	-0.101636015
89	0x3dfeb324	0.12436512
90	0x3e072f60	0.13201666
91	0x3ce49c0a	0.027906436
92	0x3e2ca016	0.16857943
93	0xbe3b6603	-0.18300633
94	0x3c83843f	0.01605427
95	0xbdbb4f87	-0.09146028
96	0xbcefe66a	-0.029284675
97	0xbd967ab6	-0.07347624
98	0x3ec0bcb0	0.37643957
99	0x3cb08b7a	0.021550883
100	0xbe01785c	-0.1264357
101	0xbe89866e	-0.26860374
102	0x3e7bf998	0.24606931
103	0x3e46d8cc	0.19418639
104	0xbe479183	-0.19489102
105	0xbcc35326	-0.02384336
106	0x3dcfec03	0.101524375
107	0xbce2ba8c	-0.027676843
108	0xbe3529eb	-0.17691772
109	0xbe4c2a2c	-0.19937962
110	0xbe940069	-0.28906563
111	0x3dae9a81	0.08525563
112	0x3cd5daa7	0.026105238
113	0x3d4f9562	0.050679572
114	0x3dee7cdb	0.11644908
115	0x3eac582f	0.3366103
116	0x3d53c7ec	0.051704332
117	0xbe1cec6f	-0.15324567
118	0x3c9e5ff4	0.019332863
119	0xbdd45c77	-0.10369199
120	0xbd647632	-0.055776782
121	0xbdb5df12	-0.08880438
122	0xbd6e307d	-0.05815171
123	0xbe87c08f	-0.26514098
124	0x3c4ad48a	0.012379775
125	0x3dea69ae	0.11445938
126	0xba7151f5	-0.0009205633
127	0xbdc12002	-0.09429933
128	0x3d89767d	0.06712053
129	0x3e12cab5	0.14335139
130	0x3ea9d00e	0.33166546
131	0x3d1b6c9a	0.037945367
132	0x3e069c2c	0.13145512
133	0x3cd033f0	0.02541539
134	0x3e97f2b0	0.29677343
135	0x3b26a96a	0.0025430568
136	0xbcb3e866	-0.021961402
137	0xbcba53e8	-0.022745088
138	0x3e890e09	0.2676852
139	0x3e896b00	0.26839447
140	0xbe21cbb4	-0.15800363
141	0x3d4fca41	0.050729994
142	0x3eaff63c	0.3436755
143	0xbdf42a6b	-0.11922153
144	0xbd59553c	-0.0530598
145	0xbe6513e9	-0.22370876
146	0xbe06eaa5	-0.13175447
147	0x3e2cff7e	0.16894338
148	0xbe60c295	-0.21949227
149	0xbe01f641	-0.12691595
150	0xbe7e50bd	-0.24835487
151	0x3d06401a	0.032775976
152	0x3e877a70	0.264606
153	0xbe4cec70	-0.20012069
154	0x3d929438	0.07157177
155	0x3cf23269	0.029565053
156	0x3e351bf6	0.17686448
157	0x3e0af849	0.13571276
158	0x3e53ff52	0.20702866
159	0xbd7b52cd	-0.06135826
160	0x3db463a7	0.0880807
161	0xbed35469	-0.41275337
162	0x3cffa2ac	0.031205498
163	0xbe294533	-0.16530304
164	0xbe6c2366	-0.23060378
165	0x3de9b447	0.11411338
166	0xbe4d821b	-0.20069163
167	0xba55a241	-0.0008149483
168	0x3e18ac11	0.14909388
169	0x3e93b048	0.2884543
170	0xbc2b288e	-0.010446681
171	0x3e445fc0	0.1917715
172	0x3b98d2f0	0.0046638176
173	0xbd6655bf	-0.056234118
174	0x3ebb52a5	0.3658649
175	0x3ec5b31c	0.38613212
176	0xbd27a7a0	-0.040931344
177	0x3caa9b1d	0.020825917
178	0x3d9fe16d	0.078066684
179	0xbe7b819b	-0.2456116
180	0x3e42a4b5	0.19008143
181	0x3e333533	0.17500763
182	0xbf6b7d28	-0.9198785
183	0x3e910fdb	0.2833241
184	0xbea4041d	-0.32034388
185	0xbea3fb5b	-0.32027707
186	0x3e547681	0.2074833
187	0xbe637321	-0.22211887
188	0xbee4dce4	-0.44699776
189	0x3daf700e	0.085662946
190	0x3e6a489e	0.22879264
191	0x3ea30adc	0.31844223
192	0xbf2c6c57	-0.67352813
193	0xbe2d9399	-0.16950835
194	0x3e79f5a2	0.24410108
195	0xbd00a99a	-0.031411745
196	0x3e300e22	0.17192891
197	0x3e331523	0.17488532
198	0x3cabef0b	0.020988008
199	0xbce2f3f6	-0.02770422
200	0xbe8d9513	-0.27652797
201	0x3ea4b5fd	0.32170096
202	0xbe8579f7	-0.26069614
203	0x3f0ac4b2	0.54206383
204	0xbe426b78	-0.18986309
205	0x3d98810d	0.074464895
206	0xbe99bf68	-0.30028844
207	0xbdcd09a9	-0.10011608
208	0xbed729b1	-0.42023996
209	0x3e2fafdd	0.1715693
210	0xbd2bce31	-0.041944686
211	0x3e71bbc9	0.2360679
212	0x3e1b483e	0.15164277
213	0xbd94aeaf	-0.07259881
214	0xbf03139c	-0.51201797
215	0xbe92a81f	-0.2864389
216	0xbe2e5cbb	-0.17027561
217	0x3e0f23bb	0.13978474
218	0x3f1e849f	0.61921114
219	0xbcfc5d15	-0.030806104
220	0xbeaf776a	-0.34270793
221	0xbe64febd	-0.223628
222	0xbd9b27bb	-0.07575937
223	0xbd9cbbe6	-0.07653026
224	0xbe877372	-0.26455265
225	0x3d224864	0.03961982
226	0xbdcae20a	-0.09906395
227	0x3e19ead5	0.15030988
228	0xbe85e6c3	-0.2615262
229	0xbee12b5d	-0.43978396
230	0xbe4e2fa4	-0.20135361
231	0xbda4140f	-0.080116384
232	0xbf0a1ed2	-0.5395328
233	0x3e16b75c	0.14718384
234	0xbdd3e7dd	-0.10346959
235	0x3f1ab249	0.6042829
236	0xbd561e5a	-0.05227504
237	0x3da15185	0.07876877
238	0xbdf6a886	-0.12043862
239	0x3e3d80ff	0.1850624
240	0x3d89628e	0.06708251
241	0x3e329ebd	0.17443366
242	0x3e81a518	0.2532127
243	0x3df96be3	0.12178781
244	0xbd9cc31a	-0.076544
245	0xbdf079df	-0.11741995
246	0xbda539cf	-0.08067667
247	0xbeb4b4c5	-0.35294166
248	0x3f2edf44	0.68309426
249	0x3cfbcb56	0.030736607
250	0xbeae58c3	-0.34052095
251	0x3e86dc40	0.26339912
252	0x3dcb55de	0.09928487
253	0xbe79221d	-0.2432942
254	0xbe17d345	-0.14826687
255	0xbee5c25e	-0.44874853

sage.layer1.fc_self.weight f4 [64, 50]
0	0xbef0819c	-0.46973884
1	0x3e88ffae	0.26757568
2	0x3d82c901	0.06385995
3	0xbeeb8cf5	-0.4600598
4	0x3f065d35	0.5248597
5	0xbef2f65c	-0.47453582
6	0xbe561afd	-0.20908733
7	0x3edc3d5e	0.4301557
8	0xbdc9526f	-0.09830176
9	0x3d2506f9	0.040289853
10	0x3eac3b2f	0.33638903
11	0xbf1f06b8	-0.62119627
12	0xbe95ab95	-0.2923247
13	0x3eafabbc	0.3431071
14	0xbe8d86a6	-0.2764179
15	0x3e7728a2	0.24136594
16	0xbf5fce8b	-0.87424535
17	0xbbfea5e9	-0.007771243
18	0x3de39ecd	0.11114273
19	0x3e6a5e7a	0.22887602
20	0xbdee3cbc	-0.11632678
21	0x3f5a14fd	0.85188276
22	0x3dd355ac	0.10319075
23	0x3e58c806	0.21170053
24	0x3f1b24b1	0.6060286
25	0x3f3a3e18	0.72751
26	0xbcf87435	-0.03032885
27	0x3f76cab8	0.96403074
28	0x3e0752da	0.13215199
29	0x3f2c8e4f	0.67404646
30	0x3ca0b555	0.019617716
31	0xbe47d4ac	-0.19514722
32	0xbf5f8713	-0.8731548
33	0xbf9c3452	-1.2203467
34	0x3ee523bb	0.44753823
35	0x3f15b34f	0.5847673
36	0x3f5ac098	0.85450125
37	0xbf58223f	-0.84427255
38	0x3efdfc72	0.49606663
39	0x3dd3b36a	0.10336955
40	0x3ef492e6	0.47768325
41	0xbf5761f7	-0.8413386
42	0x3f382469	0.7193056
43	0x3f6d7f7c	0.9277265
44	0x3f2dfe0d	0.67965776
45	0xbe83f50f	-0.25772902
46	0xbf61ae26	-0.88156354
47	0x3e6bb000	0.23016357
48	0x3f4508d1	0.7696658
49	0xbe06e272	-0.1317232
50	0xbf361b19	-0.711351
51	0x3ec7af0c	0.39000738
52	0x3ed44338	0.41457534
53	0xbef18a22	-0.471757
54	0x3e8eff9b	0.27929386
55	0xbdd16faf	-0.1022638
56	0xbebf416e	-0.37354606
57	0x3e721bf0	0.2364347
58	0xbebe4b05	-0.3716661
59	0xbef10fdc	-0.47082412
60	0xbc66629e	-0.014061598
61	0xbf473606	-0.7781681
62	0x3dc16897	0.09443777
63	0x3eada4bb	0.33914742
64	0x3e5b19a6	0.21396503
65	0xbf2d7feb	-0.6777331
66	0xbeaf6d33	-0.34263
67	0x3e21fa9d	0.15818258
68	0x3b8e6c4f	0.0043464075
69	0xbe26bf80	-0.16283989
70	0xbe5284ac	-0.20558423
71	0x3f067ad4	0.5253117
72	0x3f22a901	0.6353913
73	0x3f0d52ca	0.5520445
74	0x3e6635d7	0.22481476
75	0x3e414de0	0.18877363
76	0x3f3d0747	0.7383923
77	0x3da81614	0.08207336
78	0x3e82bdde	0.25535482
79	0x3ec6c082	0.38818747
80	0xbf1dc62a	-0.616305
81	0x3c000104	0.007812742
82	0xbe808749	-0.25103214
83	0xbf611c1f	-0.87933534
84	0x3f5c9531	0.8616515
85	0xbebfb7ba	-0.3744486
86	0x3f0e8062	0.55664647
87	0x3e7692be	0.24079415
88	0x3eda41d6	0.42628354
89	0xbf3762bb	-0.71635026
90	0x3f3997dd	0.7249735
91	0xbf32faa9	-0.6991373
92	0x3f2734fa	0.6531521
93	0x3f02d9f3	0.51113814
94	0x3ed716d0	0.42009592
95	0xbe1a2df1	-0.15056588
96	0xbf000b08	-0.5001683
97	0x3ee65882	0.449894
98	0x3f1307b3	0.57433623
99	0x3f8f4da7	1.1195573
100	0x3e9acc74	0.3023411
101	0xbe4264ec	-0.18983811
102	0xbe00f557	-0.1259359
103	0xbf6ca647	-0.9244122
104	0x3ee6ab6b	0.45052657
105	0xbe7266f5	-0.23672087
106	0x3cbcdfa9	0.023055868
107	0x3fbb0e19	1.4613677
108	0xbe8ad709	-0.27117184
109	0xbecb1e56	-0.39671582
110	0xbe72ae38	-0.23699272
111	0xbe62e500	-0.22157669
112	0xbf1ca480	-0.6118851
113	0xbf13032d	-0.5742672
114	0xbed80175	-0.42188612
115	0x3f952877	1.1652974
116	0xbe765397	-0.24055324
117	0x3f2836a9	0.65708405
118	0xbeb57c1b	-0.35446247
119	0x3ef96804	0.4871217
120	0x3f3f7d4d	0.7480057
121	0xbf60a5e7	-0.87753147
122	0xbf5fd1b8	-0.8742938
123	0xbf6fc3a1	-0.9365788
124	0xbe31d068	-0.17364657
125	0x3e636473	0.22206287
126	0xbf2d9456	-0.6780447
127	0x3eb3b95f	0.35102364
128	0xbf065256	-0.52469385
129	0x3f13527f	0.57547754
130	0x3f0ee3ca	0.5581633
131	0x3e04b0e3	0.12958102
132	0xbcb45cbd	-0.022016877
133	0x3c6f3172	0.014599191
134	0x3f092aeb	0.5358111
135	0x3f3057ad	0.6888378
136	0xbdf58184	-0.11987594
137	0xbf7d18b3	-0.98865813
138	0xbea03376	-0.31289262
139	0x3f92d1d6	1.1470287
140	0xbf1711a1	-0.59011275
141	0x3e3174c9	0.17329706
142	0x3eb4e2b9	0.35329226
143	0x3fa02e26	1.2514083
144	0xbf0ad94c	-0.5423782
145	0x3eba8cff	0.36435696
146	0x3d8be0a4	0.06829956
147	0x3f30d19b	0.6906983
148	0xbf23d129	-0.6399103
149	0xbf9e2a68	-1.2356691
150	0x3e17490e	0.14773962
151	0xbf8b993f	-1.0906142
152	0xbe3e96ad	-0.18612166
153	0x3eebf501	0.4608536
154	0x3e7e0618	0.24807012
155	0x3f3ec312	0.74516404
156	0xbdd1e7a1	-0.10249258
157	0xbf24767e	-0.64243305
158	0x3f3b5957	0.73183197
159	0x3e7c3ca3	0.24632506
160	0xbeebbada	-0.46040994
161	0x3f2e1d52	0.6801349
162	0xbf0129ec	-0.5045459
163	0xbeec3b9f	-0.46139237
164	0x3e868464	0.2627288
165	0xbd8e1d47	-0.06939178
166	0x3e554e5a	0.2083067
167	0xbe1300b2	-0.14355734
168	0x3ec852d8	0.39125705
169	0xbd503fbc	-0.05084203
170	0x3e43f455	0.19136174
171	0xbec90cc7	-0.3926756
172	0x3e2a5cfe	0.16637036
173	0xbef59830	-0.47967672
174	0xbeed218c	-0.46314657
175	0xbef1a1a5	-0.47193637
176	0xbf394f22	-0.7238637
177	0xbe739b30	-0.23789668
178	0xbe654792	-0.22390583
179	0xbee6a8f3	-0.45050773
180	0x3ebaaa76	0.36458176
181	0x3f499540	0.7874336
182	0x3e8cbf7f	0.2748985
183	0x3ea7c4bd	0.32767287
184	0xbf38fecf	-0.7226381
185	0x3f1ab9b5	0.60439616
186	0xbea6f080	-0.32605362
187	0xbdbeadd1	-0.093104966
188	0xbece4359	-0.40285757
189	0x3e7c4730	0.24636531
190	0xbf8a5911	-1.0808431
191	0x3f338d1f	0.7013721
192	0x3e188b28	0.14896834
193	0xbf640a30	-0.89078045
194	0x3f4663af	0.77495855
195	0xbe5be330	-0.21473384
196	0x3f50f0c8	0.81617403
197	0xbf048ec3	-0.5178034
198	0xbf0b7f4d	-0.5449112
199	0xbda4e3ce	-0.08051263
200	0xbf0a3667	-0.5398926
201	0x3f2ade5d	0.6674555
202	0x3f29bc6e	0.66303146
203	0x3ca407ec	0.020023309
204	0xbe5731d4	-0.21015102
205	0x3f24fc19	0.6444717
206	0x3eea4e05	0.4576265
207	0x3e6acb93	0.2292922
208	0x3eea9f39	0.45824602
209	0xbe8a863d	-0.2705554
210	0x3ed757df	0.42059228
211	0x3ebb7c38	0.3661821
212	0xbea77d99	-0.3271301
213	0xbe2b579b	-0.16732638
214	0x3ec94a13	0.39314327
215	0x3bd7a202	0.006580592
216	0xbef1945e	-0.47183508
217	0xbeeac9d9	-0.45857123
218	0x3f411a05	0.7543033
219	0x3ea0e204	0.31422436
220	0x3efc00d9	0.49219397
221	0xbdada5c7	-0.08478885
222	0xbd1d3343	-0.038378965
223	0xbb280885	-0.0025639844
224	0x3d150088	0.03637746
225	0xbdf5502f	-0.119781844
226	0xbf1e71f0	-0.61892605
227	0x3ef69085	0.48157135
228	0xbf417539	-0.7556949
229	0xbe41dd71	-0.1893213
230	0x3e6a6952	0.22891739
231	0xbe8eacf6	-0.27866334
232	0x3f02b32f	0.5105466
233	0xbdc09ed9	-0.09405298
234	0xbcc8d9a3	-0.02451784
235	0x3e8df1d2	0.27723557
236	0xbb811c4a	-0.00394014
237	0x3f97a600	1.1847534
238	0xbef9ab25	-0.48763385
239	0x3e2042dc	0.15650505
240	0x3d958b25	0.0730193
241	0x3e8bc468	0.27298284
242	0x3f3e0ad2	0.7423526
243	0x3e28e49f	0.16493462
244	0xbf189be6	-0.5961288
245	0xbebf1775	-0.37322584
246	0x3f7a5eb4	0.97800756
247	0x3da9993a	0.08281179
248	0xbe08273a	-0.13296214
249	0xbefcf804	-0.4940797
250	0xbe589e5d	-0.21154161
251	0x3e08aba3	0.13346724
252	0x3f1bcf87	0.60863537
253	0x3f049c2a	0.5180079
254	0xbeb668f5	-0.3562695
255	0xbe9e9dde	-0.30979818

sage.layer1.fc_self.bias f4 [64]
0	0x3db4ba64	0.08824614
1	0x3dd63973	0.10460176
2	0x3c430d0e	0.011904968
3	0xbd0f6444	-0.03500773
4	0x3cb975a5	0.022639105
5	0x3cbe9efe	0.023269173
6	0x3d7662b6	0.06015273
7	0x3d8a3adf	0.0674951
8	0x3db61930	0.08891523
9	0xbc3400fc	-0.010986563
10	0xbd5cc9e7	-0.053903487
11	0xbcd1eced	-0.02562567
12	0x3cd0e0cb	0.025497815
13	0x3cce0a2f	0.02515134
14	0xbd333c3a	-0.04375861
15	0x3da89219	0.08230991
16	0xbd279131	-0.04090995
17	0x3d608516	0.05481442
18	0xbd0a73b5	-0.033801753
19	0x3d898ae9	0.06715948
20	0xbc52f5a0	-0.012875944
21	0x3d9a7dff	0.07543563
22	0x3c28b289	0.010296472
23	0xbd341bb0	-0.043971717
24	0x3cfd87c1	0.030948522
25	0x3dc02074	0.0938119
26	0x3a5d1141	0.0008433052
27	0x3d9e7bc8	0.07738453
28	0x3cced8df	0.025249897
29	0x3d90b4dc	0.07065746
30	0x3dcb721c	0.09933874
31	0x3d6dd9ef	0.058069166
32	0x3d98041b	0.07422658
33	0xbc669a1c	-0.0140748285
34	0x3c206e2a	0.00979189
35	0xbd00609b	-0.03134213
36	0x3d136456	0.03598436
37	0xbc6d1c7e	-0.014472125
38	0x3d8e59bf	0.069507115
39	0x3dbb5dc3	0.09148743
40	0xbcf09e89	-0.02937247
41	0x3b8a8c34	0.0042281393
42	0x3d3336a0	0.043753266
43	0x3de4f2bf	0.11179113
44	0xbd321079	-0.04347274
45	0x3c001d7c	0.00781953
46	0xbc065a1b	-0.008200194
47	0x3d7c690e	0.061623625
48	0x3c28cdc8	0.010302968
49	0x3a8220eb	0.0009928023
50	0x3d481df3	0.048856687
51	0xbd334583	-0.043767463
52	0x3d9afc7c	0.07567689
53	0x3dcb0c9b	0.09914514
54	0xbc9c00f1	-0.019043418
55	0x3da9c9ca	0.08290441
56	0x3d03a478	0.03213927
57	0xbc840a9c	-0.01611834
58	0xbca831cd	-0.02053156
59	0x3d4e9e05	0.050443668
60	0x3d1da52f	0.03848761
61	0x3d378ca2	0.044811852
62	0xbc689d72	-0.014197694
63	0xbcae1c4a	-0.021253724

sage.layer2.fc_pool.weight f4 [64, 64]
0	0xbcc31949	-0.023815768
1	0xbd7ef8be	-0.062248938
2	0xbe6ca18c	-0.231085
3	0x3dd753ae	0.105140075
4	0xbd0cee8c	-0.034407184
5	0x3e3d2589	0.1847135
6	0xbe826b0c	-0.25472295
7	0xbe72b32e	-0.23701164
8	0xbe1c9b8a	-0.15293708
9	0xbda310e2	-0.079622045
10	0x3cc1107a	0.023567427
11	0x3dbaea79	0.09126753
12	0x3eedc83b	0.46441826
13	0x3e0a7b12	0.1352351
14	0x3eae35a6	0.34025306
15	0xbc97fbfe	-0.018552776
16	0xbc9cbd91	-0.019133361
17	0xbdb028a1	-0.08601499
18	0x3e7c3a69	0.24631657
19	0x3e7f8e8e	0.24956724
20	0x3e66316a	0.22479787
21	0xbe5acd69	-0.2136742
22	0x3ebaf9ca	0.365187
23	0x3ea161bb	0.31519875
24	0x3dada88f	0.084794156
25	0xbd3cbdd6	-0.04607948
26	0x3dbd36a8	0.092389405
27	0xbed63f3f	-0.41845128
28	0x3e404d55	0.187795
29	0x3e8cb913	0.2748495
30	0xbe189c56	-0.14903387
31	0xbc876955	-0.016529718
32	0x3d9136db	0.07090541
33	0x3c4e0946	0.012575453
34	0x3e263359	0.16230525
35	0x3e88788b	0.26654467
36	0x3ecfa1a5	0.40553012
37	0x3d9d5dac	0.07683882
38	0xbee314f4	-0.44351923
39	0xbab5e6ca	-0.0013877985
40	0x3eaac0df	0.33350274
41	0x3f07a81d	0.52990896
42	0xbe292d91	-0.16521288
43	0xbdd58889	-0.10426433
44	0x3e25d7fd	0.16195674
45	0x3f009498	0.50226736
46	0x3d8de559	0.0692851
47	0x3d91de6e	0.07122503
48	0xbdac8760	-0.08424258
49	0x3e6a1717	0.2286037
50	0xbe6324a2	-0.22181943
51	0xbd3ab3c4	-0.045581594
52	0xbe6339e7	-0.22190057
53	0xbe24b6d3	-0.16085367
54	0x3e25f2f0	0.16205955
55	0xbec76775	-0.3894612
56	0xbd909029	-0.07058746
57	0x3e9f0fec	0.31066835
58	0x3e5dea65	0.21671446
59	0xbea8a5fb	-0.32939133
60	0x3e5652da	0.20930043
61	0xbe0eb7c0	-0.13937283
62	0x3d2c8f83	0.04212905
63	0x3e4aa161	0.19788124
64	0xbed850ac	-0.42249048
65	0x3ebc84c9	0.36820057
66	0xbf4494da	-0.7678963
67	0x3e76b795	0.24093468
68	0xbd9444fb	-0.072397195
69	0xbeac03bd	-0.33596602
70	0x3ef2777b	0.4735678
71	0xbe475753	-0.19466905
72	0x3e10a82a	0.1412665
73	0x3e7e0ee8	0.24810374
74	0xbe20f2b6	-0.15717587
75	0x3d45d25e	0.048296325
76	0xbd92f67c	-0.071759194
77	0xbda26229	-0.07928879
78	0xbe1fb564	-0.15596539
79	0x3e23712f	0.15961145
80	0x3e164347	0.14674102
81	0xbee1fb26	-0.44136924
82	0x3e0160fa	0.1263465
83	0xbdac48f3	-0.084123515
84	0x3e8c6730	0.27422476
85	0xbe81b467	-0.2533295
86	0x3e0e763d	0.13912292
87	0xbea97171	-0.3309436
88	0xbdec5573	-0.11539736
89	0x3e347e59	0.17626323
90	0x3e7854f0	0.24251151
91	0xbd68e906	-0.056862853
92	0x3da5a9c3	0.0808902
93	0x3f0225ff	0.5083923
94	0xbe4f60ed	-0.20251818
95	0x3e7b5665	0.24544676
96	0xbe88fc83	-0.2675515
97	0x3c6b3885	0.014356737
98	0x3e87b647	0.26506254
99	0xbdc141bf	-0.09436368
100	0x3e94cda9	0.29063156
101	0x3e0a3791	0.1349776
102	0xbe01ff7a	-0.12695113
103	0xbe19be4d	-0.15014
104	0xbebc2293	-0.36745128
105	0xbe49f8e9	-0.19723858
106	0x3e49b0e4	0.19696385
107	0x3ebb4998	0.36579585
108	0xbdbc66ae	-0.09199272
109	0x3e1f9c70	0.1558702
110	0x3e937c70	0.28805876
111	0x3d6a816f	0.057252344
112	0x3e2880cf	0.16455387
113	0x3e2c3e0a	0.16820541
114	0xbec2361a	-0.379319
115	0xbbd55142	-0.006509931
116	0xbe28b6e6	-0.1647602
117	0xbe6992ae	-0.2280986
118	0x3e836ded	0.25669804
119	0xbece2671	-0.40263703
120	0xbe965557	-0.29361984
121	0xbf10a5f8	-0.5650325
122	0x3e20a2f3	0.1568716
123	0xbf435e52	-0.76315796
124	0xbe97ec54	-0.29672492
125	0x3e0a726b	0.1352021
126	0x3e8c89d8	0.27448916
127	0x3ddcc8a4	0.10780457
128	0xbf36fa27	-0.7147545
129	0xbf17b838	-0.5926547
130	0xbeb7333c	-0.35781276
131	0x3e46c6d0	0.19411778
132	0x3eb905a1	0.36137107
133	0x3ef6b838	0.48187423
134	0xbe71a5a8	-0.23598349
135	0xbe099a70	-0.1343782
136	0x3e1517b1	0.14559819
137	0xbe1198b8	-0.14218414
138	0x3e56e51c	0.20985836
139	0xbcb9366d	-0.02260896
140	0x3e8ab3b5	0.2709023
141	0x3df672b0	0.12033594
142	0xbea4d237	-0.3219163
143	0xbf097b0d	-0.53703386
144	0xbef1f406	-0.47256488
145	0xbf1a0cdb	-0.60175866
146	0xbd4ac814	-0.049507216
147	0x3d757304	0.05992414
148	0x3e2211e8	0.15827143
149	0xbf175034	-0.59106755
150	0x3f05932c	0.5217769
151	0x3cd3b3aa	0.025842506
152	0x3d109b4d	0.035304356
153	0xbe2ca01b	-0.1685795
154	0xbec62c84	-0.38705838
155	0xbd586b5e	-0.05283677
156	0x3f1126fb	0.56700104
157	0x3ec9d52b	0.39420447
158	0x3eb160f2	0.34644276
159	0x3e0d6840	0.138093
160	0x3d4c03c1	0.049808268
161	0xbe2bc03f	-0.16772555
162	0xbdf3a223	-0.118961595
163	0x3e66fce5	0.22557409
164	0xbe8da7d4	-0.27667105
165	0xbe17661d	-0.14785047
166	0x3d112527	0.03543582
167	0xbe997db9	-0.2997873
168	0x3e8e650c	0.27811468
169	0x3d520e1b	0.051282983
170	0x3e18b3c7	0.1491233
171	0xbe45c88f	-0.19314788
172	0x3d123c26	0.035701893
173	0x3e685074	0.2268694
174	0xbf0df3db	-0.5545022
175	0xbe6f7405	-0.23384102
176	0x3d6f78a1	0.05846465
177	0x3e249d6f	0.16075681
178	0x3e3541f5	0.17700942
179	0xbea3dd32	-0.32004696
180	0xbe919a1b	-0.28437886
181	0x3eb3fe22	0.35154825
182	0x3d7b1acf	0.061304864
183	0xbe2d4423	-0.16920523
184	0xbefb513f	-0.49085423
185	0xbdaf2943	-0.08552792
186	0xbe0908c8	-0.13382256
187	0xbe541463	-0.20710902
188	0x3daeb39d	0.08530352
189	0xbe5e01c6	-0.21680364
190	0x3d49b6f1	0.049246732
191	0xbd3a03c9	-0.045413766
192	0x3eb0afb3	0.34509048
193	0x3e590d83	0.2119656
194	0xbed7d4ad	-0.42154446
195	0x3d746214	0.059663847
196	0xbd2f79c6	-0.04284074
197	0x3c1b40dc	0.009475913
198	0x3cbb1f81	0.02284217
199	0x3e8ecb7d	0.27889624
200	0xbde658b1	-0.11247385
201	0xbe2de0b4	-0.16980249
202	0xbd8d7d95	-0.069087185
203	0xbeac5972	-0.3366199
204	0xbd9e464c	-0.07728252
205	0x3e8d0de6	0.27549666
206	0xbea8f472	-0.32998997
207	0x3ea5b245	0.3236257
208	0xbdcaa5e5	-0.09894923
209	0xbe66c9fd	-0.2253799
210	0xbc2096c8	-0.009801574
211	0x3e8f95e5	0.28044048
212	0xbbd1dc85	-0.006404462
213	0x3ccac493	0.024751937
214	0x3eafba48	0.3432181
215	0x3e7cf9e0	0.24704695
216	0xbccf5e5f	-0.025313554
217	0x3ea890ea	0.3292306
218	0x3d3f6c0d	0.046733905
219	0x3da44f6b	0.0802296
220	0xbe1fbd08	-0.15599453
221	0x3eb031c4	0.34412968
222	0x3e242168	0.16028368
223	0xbd143a21	-0.03618825
224	0x3e2760f4	0.16345578
225	0xbea59ecc	-0.32347715
226	0xbe530f85	-0.20611389
227	0x3ce3f45d	0.027826482
228	0xbd9c72a0	-0.076390505
229	0xbe667b52	-0.2250798
230	0x3e05e006	0.1307374
231	0x3d6aa4a2	0.057285912
232	0xbe0e2966	-0.1388298
233	0x3e409a74	0.18808919
234	0xbdb32023	-0.08746364
235	0x3ea39ac8	0.31954026
236	0xbe79f72c	-0.24410695
237	0xbee020f4	-0.4377514
238	0xbd233fc7	-0.039855745
239	0xbb613cea	-0.0034368583
240	0x3cac6046	0.021042
241	0x3da03514	0.07822624
242	0x3dc87157	0.09787243
243	0x3d7cc1f6	0.061708413
244	0xbe1316c8	-0.14364159
245	0x3da20bb5	0.07912389
246	0xbdb29040	-0.0871892
247	0xbe956ca7	-0.29184458
248	0xbdc0b6e4	-0.094098836
249	0x3d9f59a0	0.077807665
250	0xbe37881a	-0.17923012
251	0xbd87b32b	-0.066259705
252	0xbea52d09	-0.32260922
253	0x3d8d9fe1	0.0691526
254	0x3e805dce	0.25071567
255	0x3dbbe7f8	0.09175104

sage.layer2.fc_pool.bias f4 [64]
0	0xbc37a79c	-0.011209395
1	0x3d8ef24f	0.069798104
2	0x3ddb934c	0.10721454
3	0x3cc370b5	0.023857454
4	0xbb4f37ce	-0.0031618956
5	0xbd58e287	-0.05295041
6	0x3d481cdb	0.048855644
7	0x3d742c8b	0.059612792
8	0xbb17b328	-0.0023147557
9	0x3d01c8a9	0.031685505
10	0x3d9005fb	0.07032391
11	0xbc6e5435	-0.014546444
12	0x3ccc17f2	0.024913762
13	0x3ca5c170	0.02023384
14	0xbd1b8835	-0.037971694
15	0x3c16d9db	0.009207214
16	0x3cff1600	0.03113842
17	0xbc636d39	-0.013881021
18	0x3d847eb4	0.06469479
19	0x3d91448a	0.07093151
20	0x3c4be8c8	0.012445636
21	0x3cac3134	0.021019556
22	0x3d876308	0.066106856
23	0x3d8bfab5	0.06834928
24	0x3d15910f	0.03651529
25	0xbce72e59	-0.028220342
26	0x3d82ed19	0.06392879
27	0x3ccb951f	0.02485138
28	0xbd12d1c9	-0.035844598
29	0x3d020cb6	0.031750403
30	0x3b8cba28	0.0042946525
31	0xbd17ff63	-0.03710879
32	0x3d841d55	0.06450907
33	0x3df74ca3	0.12075164
34	0x3da270ab	0.07931646
35	0xbcfe6c20	-0.031057417
36	0x3d2e0098	0.042481035
37	0x3c871745	0.016490588
38	0x3c614078	0.013748281
39	0x3d3f211a	0.046662427
40	0x3dde873b	0.10865637
41	0x3ce69e07	0.028151525
42	0x3c4cf5b6	0.012509754
43	0x3c85173b	0.016246429
44	0xbcd1c34e	-0.025605824
45	0xbc88bec3	-0.016692525
46	0x3bb4ea87	0.005521122
47	0x3be64233	0.0070269345
48	0x3dfb618c	0.12274465
49	0x3c2fbd4d	0.010726285
50	0x3cdb1500	0.026743412
51	0x3ce98af4	0.02850864
52	0x3da2338d	0.07919989
53	0x3d6b156d	0.05739348
54	0x3ca18127	0.019714905
55	0x3d55223b	0.052034598
56	0x3d93b2e1	0.07211853
57	0x3c8b1732	0.016978834
58	0xbd748715	-0.059699137
59	0x3d20f26c	0.03929369
60	0x3c1469a3	0.009058389
61	0xbd088e00	-0.033338547
62	0x3d5ffe5b	0.05468593
63	0x3d9e0f74	0.07717791

sage.layer2.fc_neigh.weight f4 [128, 64]
0	0xbdb9cd9d	-0.09072421
1	0xbf76f151	-0.9646197
2	0x3ef9fd5b	0.48826107
3	0xbe5c73bc	-0.21528524
4	0xbf0e8b6c	-0.5568149
5	0x3d1792a2	0.037005074
6	0x3eab8c79	0.3350561
7	0x3c0f72c7	0.008755392
8	0xbd39326b	-0.045214098
9	0xbcf14b7d	-0.02945494
10	0x3d933d6b	0.07189449
11	0xbe3e7327	-0.18598615
12	0x3f3e5df2	0.743621
13	0x3e17da73	0.14829426
14	0x3e99f39b	0.3006867
15	0x3d14c780	0.03632307
16	0x3e59e3a3	0.21278243
17	0xbd927372	-0.07150926
18	0x3c8bffa9	0.017089682
19	0x3ef72c63	0.48276052
20	0xbd356770	-0.0442881
21	0xbc28e7ad	-0.010309142
22	0xbe336441	-0.17518713
23	0x3e0d54e6	0.13801917
24	0x3e47e1c2	0.19519714
25	0x3e0bb228	0.1364218
26	0x3d63fcce	0.055661015
27	0xbe186ecf	-0.1488602
28	0xbc01011a	-0.007873798
29	0xbd456c7b	-0.04819916
30	0x3deeaa47	0.116535716
31	0xbe65c589	-0.22438635
32	0xbdb9dafd	-0.09074972
33	0xbf427656	-0.75961816
34	0xbe1cc2c2	-0.15308669
35	0xbe40da9b	-0.18833391
36	0x3e1a73a3	0.15083174
37	0x3e8f32ee	0.27968544
38	0xbe916fbe	-0.28405565
39	0xbf024a33	-0.5089447
40	0xbf178923	-0.5919363
41	0x3d520627	0.0512754
42	0xbdacc922	-0.084368005
43	0x3e671e20	0.22570086
44	0xbd05fcb1	-0.03271169
45	0x3e4e4983	0.2014523
46	0x3cff31b3	0.031151628
47	0xbdcad121	-0.099031694
48	0x3f01090c	0.5040443
49	0xbdcb3460	-0.09922099
50	0xbcbdb0bf	-0.023155568
51	0x3b244ec9	0.0025071374
52	0x3e344738	0.17605293
53	0xbd35df5d	-0.04440247
54	0xbd6d24fb	-0.057896595
55	0x3f05c822	0.52258503
56	0xbea36865	-0.31915584
57	0xbe5c9d9c	-0.21544498
58	0xbd9241a9	-0.0714143
59	0xbdb153ff	-0.08658599
60	0xbe5d944c	-0.21638602
61	0x3e03fcdc	0.12889427
62	0xbd7a5ad7	-0.061121788
63	0x3e74a46f	0.23890851
64	0x3d38f061	0.04515112
65	0x3e242ada	0.16031972
66	0x3d2abf13	0.04168613
67	0x3eba787c	0.36420047
68	0x3dfec4d5	0.124398865
69	0xbd0ac6df	-0.033881065
70	0xbf163eef	-0.5868978
71	0x3d742363	0.05960406
72	0xbdfa4577	-0.122202806
73	0x3e2545ba	0.1613988
74	0x3e093f26	0.13402995
75	0x3c508d2f	0.012728973
76	0xbf25842b	-0.646548
77	0x3e074097	0.13208233
78	0x3d313f86	0.04327347
79	0x3db9be4e	0.09069501
80	0xbe3042a6	-0.17212924
81	0x3dfa4d03	0.1222172
82	0xbe032ecb	-0.12810819
83	0x3ea5e129	0.32398346
84	0xbda7a383	-0.08185484
85	0x3e1369ab	0.14395778
86	0xbd26bd6c	-0.04070799
87	0x3e2b6ec8	0.16741478
88	0x3f0320ec	0.5122211
89	0xbe1a5477	-0.15071283
90	0xbd931b5a	-0.07182951
91	0xbd9b3e9e	-0.07580303
92	0x3df43ab7	0.119252615
93	0x3e594bdc	0.21220344
94	0xbdf0367d	-0.11729143
95	0xbe653765	-0.22384413
96	0x3e1eb95f	0.15500401
97	0xbd8772b5	-0.066136755
98	0xbd1e4f23	-0.03864969
99	0x3bb5f326	0.005552667
100	0xbeff3436	-0.4984452
101	0xbd4a05f8	-0.0493221
102	0xbdf250f9	-0.118318506
103	0x3c2b1932	0.010443019
104	0xbf0b694f	-0.54457563
105	0xbd6e2f31	-0.058150474
106	0x3cf02dd7	0.029318733
107	0xbd444ea7	-0.04792657
108	0xbcaa2f5e	-0.02077454
109	0x3d4e69e6	0.05039396
110	0x3ed6c0ac	0.41943872
111	0xbe107b11	-0.14109446
112	0x3e85085f	0.2598295
113	0x3ddd26ed	0.1079844
114	0x3e2b6cc8	0.16740716
115	0xbd460700	-0.04834652
116	0x3e98d9c0	0.2985363
117	0xbe6d1f93	-0.23156576
118	0x3e3c0a90	0.18363404
119	0x3e53d46c	0.20686501
120	0x3e1bfab3	0.15232353
121	0x3ed6f095	0.41980425
122	0xbd88aa50	-0.066731095
123	0x3bd0a3b3	0.0063671707
124	0xbec5701c	-0.38562095
125	0x3d81fa61	0.06346584
126	0x3d2b894d	0.041878987
127	0x3dd569cd	0.104205705
128	0xbe70564d	-0.23470421
129	0x3ed3a323	0.413354
130	0xbf1b33c4	-0.60625863
131	0xbe6b925b	-0.23005049
132	0x3ee761e4	0.45191872
133	0x3c755c14	0.014975566
134	0x3dc28087	0.09497171
135	0xbd701548	-0.058614045
136	0xbda0e822	-0.07856776
137	0x3d3f5235	0.046709258
138	0x3e2a981e	0.1665959
139	0xbe03f746	-0.12887296
140	0xbddd93b8	-0.10819191
141	0x3d2cdbe4	0.04220189
142	0x3eb3e671	0.3513675
143	0xbe042099	-0.1290306
144	0x3c2409f5	0.01001214
145	0x3d9a406f	0.07531821
146	0xbd14a9a8	-0.03629461
147	0x3b00338f	0.0019561981
148	0x3e9221c5	0.2854139
149	0xbd9b6a0b	-0.075885855
150	0x3dca9026	0.098907754
151	0xbdeb93bd	-0.11502788
152	0x3da12d4e	0.07869969
153	0xbbaec169	-0.005333115
154	0xbe5b80f2	-0.21435907
155	0x3e186998	0.14884031
156	0xbd652919	-0.055947397
157	0x3e0ab48b	0.13545434
158	0xbeaac4a5	-0.33353153
159	0xbd038120	-0.032105565
160	0x3e1328e2	0.14371064
161	0x3e9d7386	0.307522
162	0xbe800b2d	-0.25008526
163	0xbe075d37	-0.13219152
164	0xbdeb002c	-0.11474642
165	0xbd7eca78	-0.062204808
166	0x3e130364	0.14356762
167	0xbda727d3	-0.08161893
168	0x3ecaed8d	0.39634362
169	0xbe3a78a7	-0.18210088
170	0x3e836500	0.25662994
171	0xbb7a3445	-0.0038178128
172	0xbeaeb38a	-0.34121352
173	0xbe8a070a	-0.26958495
174	0xbdfa8eb4	-0.1223425
175	0x3d840d22	0.064478174
176	0x3e618314	0.22022659
177	0xbe2347c8	-0.15945351
178	0x3d7dd033	0.061966132
179	0xbe431701	-0.19051744
180	0xbe47aba4	-0.1949907
181	0xbf387d1a	-0.7206589
182	0x3d55d314	0.052203253
183	0xbe951c38	-0.29123092
184	0xbe231152	-0.15924576
185	0x3f2d1ff4	0.6762688
186	0x3dea1d6e	0.114313945
187	0xbe03fdf4	-0.12889844
188	0x3da76d36	0.08175127
189	0x3d987084	0.07443336
190	0x3e795ac2	0.24351028
191	0x3d555e97	0.05209216
192	0xbcc6eb2a	-0.024282057
193	0xbcbc3b51	-0.022977503
194	0x3f21f877	0.6326975
195	0x3c9ea449	0.019365447
196	0xbe00e50f	-0.12587379
197	0xbd665292	-0.05623109
198	0xbe543417	-0.20722996
199	0xbe52cfad	-0.20587035
200	0xbe915559	-0.28385428
201	0x3d922293	0.07135501
202	0xbe72eb78	-0.23722637
203	0x3e76878a	0.24075142
204	0x3c40aa38	0.011759333
205	0xbe56f68a	-0.20992485
206	0xbe056055	-0.13025029
207	0xbbe3ae2f	-0.0069482545
208	0xbdfa66db	-0.122266494
209	0xbdc3931b	-0.095495425
210	0xbe9f1f8b	-0.31078753
211	0x3e612b8f	0.21989273
212	0xbdb07dcc	-0.08617744
213	0xbc5642ac	-0.013077419
214	0x3f0ba6ce	0.545514
215	0xbdec7f6b	-0.115477405
216	0xbd6c28cf	-0.057656106
217	0xbe907539	-0.28214434
218	0x3df0e330	0.117620826
219	0xbda337c4	-0.07969621
220	0x3dcebec0	0.100949764
221	0xbe7b3581	-0.24532129
222	0xbe5043b3	-0.20338325
223	0xbd9fe1da	-0.0780675
224	0xbeb3343c	-0.3500079
225	0x3f15d2fb	0.58525056
226	0xbe11242c	-0.14173955
227	0xbd6bc8e0	-0.057564616
228	0x3e638709	0.2221948
229	0xbe39f736	-0.1816071
230	0xbdf8fadb	-0.12157222
231	0x3eed3ebd	0.46336928
232	0x3f1ce8bc	0.61292624
233	0xbda05199	-0.078280635
234	0x3e44f377	0.192335
235	0x3d223d48	0.039609224
236	0x3e646bd6	0.22306761
237	0x3e4f040c	0.20216388
238	0xbe39473d	-0.18093581
239	0xbed22148	-0.41041017
240	0xbd36be5c	-0.044615135
241	0x3c925f05	0.017867574
242	0xbebee2e3	-0.37282476
243	0xbe1bf075	-0.15228446
244	0x3eedf7d3	0.46478137
245	0x3eef69a6	0.4676029
246	0x3e4ba0bb	0.19885533
247	0xbdd7578b	-0.10514744
248	0xbee83ee1	-0.45360473
249	0xbeb1cf6b	-0.3472856
250	0xbdef103c	-0.11673018
251	0xbf07c521	-0.5303517
252	0xbb96d24e	-0.004602707
253	0x3e597f33	0.21239929
254	0x3efad7bf	0.48992726
255	0xbe0ec756	-0.13943228

sage.layer2.fc_self.weight f4 [128, 64]
0	0xbe032db6	-0.12810406
1	0x3daf2218	0.08551425
2	0x3dfe817e	0.124270424
3	0x3d8efc55	0.06981722
4	0x3e3518f1	0.17685296
5	0xbe0d4d0a	-0.1379892
6	0xbdda115e	-0.10647844
7	0xbf242884	-0.6412432
8	0xbe545d63	-0.20738749
9	0xbeb686e9	-0.35649803
10	0xbe04ade1	-0.12956955
11	0x3eabbc5e	0.3354215
12	0x3e07c1b9	0.13257493
13	0x3f1c4da6	0.6105598
14	0xbea9ca1d	-0.33162013
15	0x3c996a30	0.018727392
16	0xbe5c7991	-0.21530749
17	0x3eb2cbf5	0.34921232
18	0xbeb5c6df	-0.3550329
19	0x3cf40671	0.029788228
20	0xbe50e302	-0.20399097
21	0x3edeea91	0.43538335
22	0xbeb0e817	-0.3455207
23	0x3de1a752	0.11018242
24	0x3d18d375	0.037311036
25	0x3e7055e2	0.23470262
26	0xbc6186d5	-0.013765057
27	0x3dd657bd	0.104659535
28	0x3f09d9ca	0.53847945
29	0xbe8b6796	-0.27227467
30	0x3e1badd1	0.15203024
31	0xbe1b471c	-0.15163845
32	0x3e63e13e	0.22253892
33	0xbc19818a	-0.009369263
34	0xbd82f7b2	-0.063949004
35	0x3ccf53b3	0.025308466
36	0x3dd56029	0.10418732
37	0xbe082022	-0.13293508
38	0x3dee0c70	0.11623466
39	0xbf455805	-0.7708743
40	0x3e86ac27	0.26303217
41	0xbdad993d	-0.084764935
42	0xbf35814d	-0.7090042
43	0x3d26f285	0.04075863
44	0x3e9248ea	0.28571254
45	0x3e1f55f6	0.15560135
46	0xbee45855	-0.44598642
47	0x3ea12504	0.31473553
48	0x3dbe1418	0.09281176
49	0x39051f8d	0.00012695622
50	0x3d84ef99	0.06491012
51	0xbe888b72	-0.26668888
52	0x3eaf441a	0.34231645
53	0x3e277bd7	0.16355835
54	0x3e8c7dcf	0.27439734
55	0x3e919a19	0.2843788
56	0x3e97b007	0.29626486
57	0xbe39c494	-0.18141395
58	0x3d4d66c6	0.05014684
59	0x3e50fa66	0.2040802
60	0x3e180e1a	0.1484913
61	0x3dcdacbe	0.100427136
62	0x3ddc1daf	0.10747849
63	0x3ea44289	0.32082012
64	0x3ebd1ec0	0.36937523
65	0x3e05f0ae	0.13080093
66	0xbe0c3967	-0.13693772
67	0x3ce89873	0.028393006
68	0xbe52369a	-0.20528641
69	0x3e90519c	0.28187263
70	0x3e0c9690	0.1372931
71	0x3f737428	0.95099115
72	0x3defaddd	0.11703084
73	0xbe6f5cec	-0.2337529
74	0x3d6e16cc	0.05812721
75	0xbe9ae05c	-0.30249298
76	0xbe9ba810	-0.3040166
77	0xbf2274e2	-0.634596
78	0xbea338db	-0.31879315
79	0x3f00a8b9	0.5025745
80	0x3d9f67fb	0.077835046
81	0xbe8a3257	-0.2699153
82	0xbcc50972	-0.024052355
83	0xbd978603	-0.073986076
84	0x3f525c25	0.8217185
85	0xbeb84779	-0.3599203
86	0xbe08b51c	-0.13350338
87	0x3cf47005	0.029838571
88	0xbd822e18	-0.06356448
89	0x3e10258f	0.14076827
90	0x3e208799	0.15676726
91	0x3da7e90c	0.08198747
92	0x3d20c18e	0.039247088
93	0xbe1c227a	-0.15247527
94	0x3e9148ed	0.2837595
95	0xbd71f40b	-0.059070628
96	0xbe8f6212	-0.2800451
97	0xbdf158dc	-0.11784527
98	0xbd54e812	-0.051979132
99	0x3dba87fe	0.0910797
100	0xbdf4c113	-0.119508885
101	0xbebd3887	-0.3695719
102	0x3e9de3fb	0.30837998
103	0x3f721f91	0.94579417
104	0xbd39c519	-0.045353983
105	0xbe24388f	-0.160372
106	0x3e3b832d	0.18311758
107	0x3ebb904b	0.36633524
108	0xbe13c7d3	-0.14431696
109	0xbe95f95f	-0.29291818
110	0xbd797380	-0.060901165
111	0xbe1ab4ec	-0.15108079
112	0x3ed6c43a	0.41946584
113	0x3ed8791d	0.42279902
114	0xbe8c89cd	-0.27448884
115	0xbe0229fe	-0.12711331
116	0x3e6f4e8a	0.23369804
117	0xbe6dba75	-0.23215659
118	0x3d77131e	0.060320966
119	0xbe553439	-0.20820703
120	0xbed6c759	-0.41948965
121	0xbe810627	-0.25200006
122	0xbefcede9	-0.4940026
123	0x3d820eb8	0.06350464
124	0xbd571c5c	-0.05251728
125	0x3f06538f	0.5247125
126	0xbe880c15	-0.26571718
127	0xbd9a75c8	-0.07541996
128	0x3d75d305	0.060015697
129	0x3f3aebfd	0.7301634
130	0xbe8ee1e8	-0.27906728
131	0x3e3cfe28	0.18456328
132	0xbe72eb6c	-0.23722619
133	0xbe8b0836	-0.27154702
134	0x3eb8489b	0.35992894
135	0x3f42db78	0.7611613
136	0xbe26f9c4	-0.16306216
137	0x3da096ca	0.07841261
138	0xbe5beb0f	-0.21476386
139	0xbd3aaad4	-0.04557307
140	0xbe24c84c	-0.16092032
141	0xbdb7a5db	-0.08967181
142	0x3d77f5b1	0.060537044
143	0x3f5b324a	0.8562361
144	0x3d30a96a	0.043130316
145	0x3dc90800	0.09815979
146	0xbe16ad8e	-0.14714643
147	0xbedda5bb	-0.43290505
148	0x3ee52714	0.44756377
149	0x3e984f86	0.29748172
150	0xbe41c1a6	-0.18921527
151	0xbe8344b7	-0.25638363
152	0x3ea76a99	0.32698515
153	0x3e3bf050	0.1835339
154	0x3e855c97	0.26047203
155	0x3dacc477	0.0843591
156	0xbe36a3de	-0.17835948
157	0x3ef1445d	0.4712247
158	0xbed5e0aa	-0.41772968
159	0xbdddee7d	-0.10836504
160	0x3d77e0ba	0.06051705
161	0x3ac10309	0.0014725636
162	0x3f02b385	0.51055175
163	0xbec4c7d0	-0.38433695
164	0x3e5ebf48	0.21752656
165	0x3d4a03f6	0.049320184
166	0x3e7e9394	0.24860984
167	0x3f5fb658	0.8738761
168	0xbf4382b4	-0.7637131
169	0xbe174875	-0.14773734
170	0xbe90ec9a	-0.28305513
171	0x3e11de77	0.1424502
172	0xbb5e63c2	-0.0033933972
173	0x3d7ccb17	0.06171712
174	0x3c9ee6a4	0.019397087
175	0xbe761c22	-0.2403417
176	0x3f30c37f	0.69048303
177	0x3e98df40	0.29857826
178	0x3d98112d	0.07425151
179	0xbc3e96fe	-0.011632679
180	0x3f462dc0	0.7741356
181	0xbe5e2074	-0.21692067
182	0xbe03a588	-0.12856114
183	0x3dcf1685	0.10111717
184	0xbec29817	-0.3800666
185	0xbf1c12f0	-0.60966396
186	0xbf19b644	-0.6004374
187	0xbd9f88f0	-0.07789791
188	0x3ee2f629	0.4432843
189	0x3e97c1b6	0.29639977
190	0xbdb83cc8	-0.08995968
191	0xbe0e1dbb	-0.13878529
192	0x3d61ce25	0.055128235
193	0x3e78838b	0.2426893
194	0xbe69dde7	-0.22838555
195	0xbf56ce9c	-0.8390901
196	0x3db10775	0.086440004
197	0xbe22b5d2	-0.15889671
198	0x3d427343	0.047473203
199	0x3ef73294	0.48280776
200	0x3f015073	0.5051338
201	0xbe1ac0ea	-0.15112653
202	0xbe7f37dc	-0.24923652
203	0xbf01a7c8	-0.5064664
204	0xbe7b8773	-0.24563389
205	0x3e980157	0.29688522
206	0xbf29de19	-0.6635452
207	0x3ef5652a	0.47928745
208	0xbea03e16	-0.31297368
209	0xbeacf97b	-0.33784088
210	0xbea24c48	-0.31698823
211	0x3e95d31d	0.2926263
212	0xbe07a3d2	-0.13246086
213	0xbe21c841	-0.15799047
214	0x3e9a5331	0.30141595
215	0xbeda6535	-0.4265534
216	0xbf08f7d4	-0.53503156
217	0x3ef505a7	0.47855875
218	0xbec5513d	-0.38538542
219	0x3e8bbabc	0.27290905
220	0x3f067110	0.5251627
221	0x3f0347af	0.51281255
222	0x3f033ab3	0.5126144
223	0xbce4b960	-0.027920425
224	0x3d8d2de2	0.06893517
225	0xbec299df	-0.3800802
226	0xbeb15ef1	-0.34642747
227	0xbed22ed5	-0.41051355
228	0xbe63fd24	-0.22264534
229	0xbea49078	-0.3214147
230	0x3ecb110f	0.39661452
231	0x3f6b6c61	0.9196225
232	0xbe964abf	-0.29353902
233	0xbc89d4e8	-0.016825154
234	0xbdbe86b2	-0.09303035
235	0x3f266c94	0.6500943
236	0xbf412660	-0.7544918
237	0xbeef414c	-0.46729505
238	0xbe9a3822	-0.3012095
239	0x3ed0ac6b	0.40756544
240	0xbe556d93	-0.2084258
241	0x3e90d6c5	0.28288856
242	0xbde42734	-0.1114029
243	0xbf3e3dbe	-0.7431296
244	0x3f4befa4	0.7966254
245	0x3f62bd68	0.8857026
246	0x3de9b201	0.11410905
247	0x3e04f7d4	0.12985164
248	0xbe86020b	-0.26173434
249	0x3ecb4773	0.3970295
250	0xbdf31fc5	-0.11871294
251	0xbdb92eb5	-0.09042112
252	0xbee3795b	-0.44428524
253	0x3dea0cac	0.11428198
254	0x3abe69a3	0.0014527332
255	0xbe5ace33	-0.21367721

sage.layer2.fc_self.bias f4 [128]
0	0xbb9c149c	-0.004763199
1	0xbccb528f	-0.02481964
2	0xbd59adcc	-0.05314426
3	0xbc9e2ba7	-0.019307924
4	0xbbe3defe	-0.006954073
5	0xbbdf0859	-0.006806415
6	0x3c840b52	0.01611868
7	0x3d6fe6ac	0.058569595
8	0xbb2be28d	-0.0026227564
9	0xbd2df6ce	-0.0424717
10	0xbcaf5373	-0.021402096
11	0x3d2c3f6c	0.04205267
12	0x3d8ef2a6	0.06979875
13	0xbc53fb42	-0.0129383225
14	0x3d1b7ef2	0.03796286
15	0xbaa60c79	-0.0012668512
16	0xbdad9f20	-0.08477616
17	0x3d1eac97	0.038738813
18	0xbd8729f4	-0.06599799
19	0xbde40a73	-0.111348055
20	0xbcdb9836	-0.026805978
21	0x3d1ca753	0.03824551
22	0x3d07c214	0.03314407
23	0xbd7d6edb	-0.0618733
24	0xbd25d162	-0.040482886
25	0xbd21129c	-0.039324388
26	0xbc991638	-0.018687353
27	0xbcbeb145	-0.023277888
28	0xbcb8a7f8	-0.022541031
29	0xbd1c2b23	-0.038127076
30	0x3d7ff454	0.06248887
31	0x3dd45b84	0.10369018
32	0x3bf13844	0.0073614437
33	0xbd988f2a	-0.074491814
34	0xbcdd04d0	-0.026979834
35	0xbd1029bb	-0.035196047
36	0x3a81aff2	0.0009894355
37	0xbd418d9e	-0.047254197
38	0xbd4ee179	-0.050507996
39	0x3cf3e22f	0.029770939
40	0x3cdc47b6	0.026889663
41	0x3d4b4fbb	0.049636584
42	0xbd4bc2c6	-0.049746297
43	0x3d8207ca	0.06349142
44	0x3d4b45a3	0.049626958
45	0x3d253279	0.040331338
46	0xbd0fa121	-0.035065774
47	0xbd3cdeb9	-0.046110842
48	0x3c4dfb71	0.012572155
49	0x3d664167	0.056214716
50	0x3dc7a042	0.097473636
51	0x3cbfaab1	0.023396822
52	0xbd492af4	-0.04911323
53	0xbdae7ad2	-0.0851952
54	0x3d85f932	0.06541671
55	0x3da5b7d0	0.080917
56	0xbd78a31d	-0.060702432
57	0xba2d7cf1	-0.0006618044
58	0xbd06e644	-0.032934442
59	0x3db51fe6	0.08843975
60	0x3da0dc82	0.078545585
61	0x3c2d06eb	0.010560731
62	0xbdcc01d4	-0.09961286
63	0xbcbea99d	-0.023274237
64	0xbd5b6843	-0.05356623
65	0x3d45ec3d	0.048320998
66	0xbc54df3b	-0.012992675
67	0x3cfb6f8c	0.030692838
68	0x3d5c52ea	0.05379001
69	0xbc6eb7a1	-0.014570148
70	0xbce73475	-0.028223256
71	0xbccf3307	-0.025292886
72	0x3dac3e77	0.08410352
73	0x3bc59ea5	0.006030875
74	0xbd7cd3ef	-0.061725553
75	0xbd853af0	-0.06505382
76	0xbdfff062	-0.12497021
77	0xbcd7042d	-0.026247108
78	0xbdd068dc	-0.1017625
79	0x3d23b1cb	0.03996448
80	0x3cdd71da	0.027031828
81	0xbd79319d	-0.06083833
82	0x3d0e6747	0.03476646
83	0xbcdc5612	-0.02689651
84	0xbd1482b2	-0.036257453
85	0x3c67328a	0.014111171
86	0x3c8d1879	0.017223584
87	0xbb19e758	-0.002348384
88	0x3d989b48	0.074514925
89	0x3c321c9e	0.010871081
90	0x3de01e9b	0.109433375
91	0xbc83ce4e	-0.016089585
92	0xbb6de8bb	-0.0036302048
93	0x3c78ac6b	0.015177826
94	0x3ce6ab98	0.028157994
95	0x3e0a3dc7	0.13500129
96	0xbc2db609	-0.010602483
97	0xbcffdf25	-0.031234333
98	0x399803fb	0.00028994665
99	0xbd8436bd	-0.06455753
100	0x3d4d6339	0.050143454
101	0x3c716992	0.014734643
102	0x3d54f665	0.051992793
103	0xbd4fbc47	-0.050716665
104	0xbd5d30b4	-0.054001525
105	0x3d2cfad1	0.042231385
106	0xbdb08ab0	-0.086202025
107	0xbcda0079	-0.026611554
108	0xbd299532	-0.04140205
109	0x3b0674ca	0.002051639
110	0x3d948cea	0.0725344
111	0xbdefa0ef	-0.117006175
112	0xbba638d6	-0.0050726933
113	0xbe083d0d	-0.13304539
114	0xbabf529e	-0.0014596765
115	0x3c8d32df	0.017236171
116	0xbb72b1a8	-0.003703216
117	0xbd6ad0d5	-0.057328064
118	0xbc431f40	-0.011909306
119	0x3ccbb28f	0.024865417
120	0xbc7b8047	-0.015350408
121	0xbc939038	-0.018013105
122	0xbd8e2765	-0.06941108
123	0xbd5cff6e	-0.053954534
124	0x3cb1879e	0.021671113
125	0xbd32b00a	-0.043624915
126	0x3d509e09	0.050931964
127	0xbd578cac	-0.05262439
