Audit-log_Analysis/code/GNN/training/checkpoint_graphSAGE/best_model_GraphSAGE_transR_50-2.pt (torch, 79579 bytes, 5 tensors)

layer1.fc_pool.weight f4 [50, 50]
0	0x3fd371ab	1.6519064
1	0x40d0457c	6.508482
2	0x402b235f	2.6740339
3	0xc03fdeb2	-2.9979672
4	0xc08302e3	-4.0941024
5	0x40dfb2f2	6.990594
6	0x3fa7bf30	1.3105221
7	0xbfb2bf7f	-1.396469
8	0x3ef40aca	0.4766448
9	0x406394d1	3.555958
10	0x3f9e9d50	1.2391758
11	0xbfbeb571	-1.4899122
12	0xc0935363	-4.603929
13	0xc0345a08	-2.817995
14	0x3feddf27	1.8583726
15	0xbe99f37b	-0.30068573
16	0xc09ca7a8	-4.895466
17	0xc0c6aa9d	-6.208327
18	0x4012a080	2.2910461
19	0x3f7aee64	0.98020005
20	0xbf9c7bde	-1.2225301
21	0x406321ce	3.5489383
22	0x409483e9	4.6411023
23	0x40aaa668	5.3328133
24	0xbfdf200a	-1.7431653
25	0x4080b51b	4.0221076
26	0x402b44ad	2.6760666
27	0xbf798860	-0.97473717
28	0x409056f7	4.510616
29	0xc0021a84	-2.0328684
30	0xbecf455f	-0.40482613
31	0xbe886503	-0.26639566
32	0xbfddad2d	-1.7318474
33	0xbee82ddc	-0.45347488
34	0xbe1415cf	-0.14461444
35	0xc0753ccc	-3.8318357
36	0xc0673b4b	-3.612994
37	0xc06ceb48	-3.7018604
38	0xc0402a7a	-3.0025926
39	0xbfdb2bce	-1.7122743
40	0xbe651ae3	-0.22373538
41	0x3f5f69ed	0.87271005
42	0x3fa9371c	1.3219943
43	0x3f9f58e0	1.2448997
44	0x402bb62d	2.6829941
45	0xc011070d	-2.2660553
46	0xbe1707de	-0.14749095
47	0x3f789998	0.97109365
48	0xbf17e9fc	-0.59341407
49	0xbfc1a118	-1.5127287
50	0xc0b7e79b	-5.747022
51	0x3f1d402f	0.6142606
52	0xc065ec2c	-3.5925398
53	0xc0354ac3	-2.832688
54	0x3ee8f693	0.4550062
55	0xc0c454c5	-6.135348
56	0xc0329713	-2.7904708
57	0xbf2bdb79	-0.67131764
58	0x406c7536	3.694654
59	0x40a60c35	5.18899
60	0xc0128c96	-2.2898307
61	0x40080d91	2.125828
62	0x400f5612	2.2396283
63	0x4086642e	4.199729
64	0xc0be1e83	-5.9412246
65	0xbf5e390e	-0.8680581
66	0xbf83a35c	-1.0284228
67	0x402c498a	2.6919885
68	0xc0e4fbe7	-7.15575
69	0xc08f111a	-4.4708376
70	0xbfd8798d	-1.6912094
71	0xc0b22109	-5.5665326
72	0x401a465b	2.4105442
73	0x3eb2aad9	0.3489597
74	0x3e82aca5	0.25522342
75	0xc0cac3b2	-6.3363886
76	0xc0bc2313	-5.8792815
77	0x40264975	2.5982335
78	0xc015268f	-2.3304784
79	0x3f47a48e	0.77985466
80	0x400a103b	2.1572406
81	0x3eff631a	0.49880296
82	0x3fe89461	1.8170282
83	0x4020e489	2.5139487
84	0xbf0c4628	-0.5479455
85	0x407e236d	3.9709122
86	0x400c0524	2.1878138
87	0x3dd13a64	0.10216215
88	0x3fffc69e	1.9982488
89	0xc00ebd7a	-2.2303147
90	0xc08581cd	-4.172095
91	0x400871dd	2.1319497
92	0x40680f00	3.6259155
93	0xc093986b	-4.6123557
94	0xbfba6958	-1.4563398
95	0x4071b130	3.7764397
96	0x3f558d28	0.8341851
97	0xc0d4da75	-6.651667
98	0x4035b359	2.8390715
99	0xbfc43221	-1.5327798
100	0xbed665fb	-0.4187468
101	0x3e80462d	0.2505354
102	0x3f850ce1	1.0394555
103	0xc041f1f6	-3.0303931
104	0xbf6cf5fc	-0.9256284
105	0x401a5402	2.4113774
106	0xbc42d13c	-0.011890706
107	0xc048b7ba	-3.1362138
108	0xbfa9afef	-1.3256816
109	0xc08e8521	-4.453751
110	0xc098bf3f	-4.7733455
111	0x3f3bbd51	0.7333575
112	0xc02ad8f1	-2.669491
113	0xc09ef103	-4.9669204
114	0xbf37a72d	-0.71739465
115	0x3fc17fbf	1.511711
116	0xbf278d35	-0.6544984
117	0x3eb4577a	0.3522299
118	0xc0964241	-4.6955876
119	0x3fefc979	1.873336
120	0x4062a7ac	3.5414839
121	0x401572e8	2.3351383
122	0xc0176424	-2.365487
123	0x3fd2c3eb	1.646604
124	0x3fc3d69c	1.5299869
125	0xbfa5858f	-1.2931384
126	0x405e7041	3.4756014
127	0xc04f87cb	-3.2426631
128	0xbea2f012	-0.31823784
129	0x4099d3c3	4.8071
130	0xbf2f4423	-0.68463343
131	0x3ff9bbc3	1.9510425
132	0x3f8ec627	1.1154221
133	0xbfe6fb7a	-1.8045495
134	0xbe0d4507	-0.13795863
135	0xc069e6a7	-3.654703
136	0xc0eb1bb8	-7.3471336
137	0xc0a1440c	-5.0395565
138	0xbda6c71d	-0.081434466
139	0x3f8f4f81	1.1196138
140	0x3ed88fcf	0.42297217
141	0xbeef8143	-0.46778306
142	0x3ec3bcac	0.38229883
143	0xbff39e0f	-1.9032611
144	0x4094a6d6	4.6453657
145	0xbf6b2831	-0.918582
146	0x40955772	4.6669245
147	0xbfd290cf	-1.6450442
148	0xc101c4e1	-8.110566
149	0xc023edb0	-2.5613823
150	0xc098c6a6	-4.774249
151	0x406547e3	3.5825126
152	0x3fa88a55	1.3167216
153	0x3ff8cac8	1.9436884
154	0x40e85aec	7.261099
155	0x40d6d8e8	6.713978
156	0x4012b2fd	2.2921746
157	0xc040b71a	-3.0111756
158	0xbface1cf	-1.3506411
159	0xc044a0c8	-3.0723133
160	0xc09e81dd	-4.9533525
161	0xc03ab24e	-2.9171329
162	0x3fe745a5	1.8068129
163	0xc014fbc8	-2.3278675
164	0x40a7a039	5.2383084
165	0x4040b4b4	3.0110292
166	0x3d0b42df	0.03399932
167	0xbfcbc0df	-1.5918235
168	0xc09f79fc	-4.9836407
169	0x3e3ec358	0.18629205
170	0x4017699d	2.3658211
171	0x3fd17f08	1.6366892
172	0xc0857e1f	-4.1716456
173	0xc08ddd8a	-4.4332933
174	0xbf482008	-0.78173876
175	0xc03d2e39	-2.9559462
176	0x4075126a	3.829249
177	0x3e462bb3	0.19352607
178	0xc10cb852	-8.795
179	0x404a2354	3.1584063
180	0x3f2fe02d	0.6870144
181	0xbf2efaaf	-0.6835126
182	0xbef86f88	-0.48522592
183	0xbfd74b77	-1.6819905
184	0xbf1db87d	-0.6160963
185	0xc07f1895	-3.9858754
186	0xc0249236	-2.571424
187	0xbfb1f00f	-1.3901385
188	0xc09c0c77	-4.8765216
189	0xc088a0ad	-4.2696137
190	0x3ef82970	0.48469114
191	0xbe0f7db6	-0.14012799
192	0xbf837b4d	-1.0272003
193	0xbf73b427	-0.95196766
194	0xbe595947	-0.21225463
195	0xbef8bcb7	-0.48581478
196	0x3fbeb6bb	1.4899515
197	0x4095cf0f	4.6815257
198	0xbff1ddda	-1.8895829
199	0xbe75410e	-0.23950598
200	0x400741ee	2.113399
201	0xc022300a	-2.534182
202	0xc097db7a	-4.7455416
203	0x3f52b474	0.823066
204	0x3fa949a1	1.3225595
205	0xbf43fda4	-0.765589
206	0xbef02a3b	-0.4690722
207	0x3eda4d48	0.42637086
208	0x3ffd52ad	1.9790856
209	0xc0040317	-2.0626886
210	0x40082ab4	2.1276064
211	0x406371db	3.5538242
212	0x40620837	3.5317514
213	0x408824a8	4.2544746
214	0xbf219029	-0.63110596
215	0x4081ab91	4.052193
216	0x3f476118	0.7788253
217	0x40934f1b	4.6034064
218	0x3ee5b06a	0.44861156
219	0xc014a9d3	-2.3228652
220	0xbe867775	-0.26263013
221	0xc0f9dbfc	-7.8081036
222	0xc07a3e65	-3.9100583
223	0x3f30fe6b	0.6913821
224	0xbf70fbc7	-0.9413418
225	0xc0b7f03d	-5.748076
226	0xbfaf10d7	-1.3677014
227	0x400d9b1a	2.2125916
228	0x40b16deb	5.5446677
229	0x4030d226	2.7628264
230	0x3f1f475e	0.6221827
231	0xc00218cc	-2.0327635
232	0x3f461c20	0.77386665
233	0xbf3ae13a	-0.7299992
234	0xbf864034	-1.0488343
235	0x40adf655	5.43632
236	0x4093bff5	4.6171823
237	0x406ca2da	3.6974397
238	0x3feb0ccc	1.836328
239	0x3fd19435	1.6373354
240	0xc02572b7	-2.5851266
241	0x3e1a4b3e	0.15067765
242	0x3ff61663	1.9225582
243	0xc0b571f7	-5.6701617
244	0xc0731361	-3.7980578
245	0x4012e3d7	2.2951562
246	0x401dae2f	2.4637563
247	0x3f723b3b	0.9462163
248	0xbfdbaa30	-1.7161312
249	0xc01e2f5f	-2.4716413
250	0xc09f6ff3	-4.9824157
251	0xc041ab96	-3.0260978
252	0xc0caea37	-6.3410907
253	0x3f4574cf	0.7713136
254	0xc08bb63d	-4.365996
255	0xc0d43508	-6.6314735

layer1.fc_pool.bias f4 [50]
0	0x3ef16e5f	0.4715452
1	0x3f592bde	0.8483256
2	0x3eecc35c	0.46242797
3	0x3f17e436	0.593326
4	0x3edb3792	0.42815834
5	0x4001445f	2.019798
6	0x3ed432dd	0.41445056
7	0x3fdd9218	1.7310209
8	0xbd1d07c7	-0.038337495
9	0x3fcf6743	1.6203388
10	0x3f0adf66	0.5424713
11	0x3fc1d6c6	1.5143669
12	0x3f20f91d	0.62880117
13	0x3fcb47b7	1.5881261
14	0x3f2cfd79	0.6757427
15	0x3fc1850e	1.511873
16	0x400c9686	2.1966872
17	0x3efacffe	0.4898681
18	0xbd497615	-0.049184877
19	0x3fc006e5	1.5002104
20	0x3fd05b0b	1.6277784
21	0x3fcc61d6	1.5967357
22	0x3f15ab27	0.5846428
23	0x4013b523	2.3079307
24	0xbd3e2b88	-0.046428233
25	0x3eff4a30	0.49861288
26	0x3eda2c6a	0.4261201
27	0x3f40bdc8	0.75289583
28	0x3ed88f40	0.4229679
29	0x3eb21d6f	0.3478808
30	0xbd13bbaf	-0.03606766
31	0x3edd67a6	0.4324314
32	0x3f882705	1.0636908
33	0x3ee16211	0.4402013
34	0xbd2f45b2	-0.042791076
35	0xbd4507d5	-0.048103172
36	0x3f15efa3	0.5856878
37	0xbc9bf867	-0.019039346
38	0x3ee83dea	0.45359737
39	0x3fc2ce2b	1.5219167
40	0xbd0a2e1d	-0.033735383
41	0x3f56a4d9	0.8384529
42	0xbd6b09ea	-0.0573825
43	0x3ef3850b	0.4756244
44	0xbd077363	-0.033069026
45	0xbd93af24	-0.0721114
46	0x3f776da0	0.9665165
47	0x3ee4793e	0.4462375
48	0x3eb7a895	0.35870805
49	0xbd98a9ee	-0.074542865

layer1.fc_neigh.weight f4 [167, 50]
0	0xbcf830d2	-0.030296717
1	0x3cd4acbb	0.02596127
2	0x3add70ff	0.0016894637
3	0x3c44c812	0.012010591
4	0xbc893056	-0.016746681
5	0x3cecce4b	0.028906962
6	0x3d6da1cf	0.05801564
7	0x3d3f3530	0.046681583
8	0xbd1ae23f	-0.03781342
9	0xbd9118d6	-0.07084815
10	0x3d3ebfca	0.046569623
11	0xbda00236	-0.07812922
12	0x3d5012c6	0.050799154
13	0xbd1e61f1	-0.038667623
14	0xbce608f9	-0.02808045
15	0xbd480602	-0.048833854
16	0xbd39e52c	-0.04538457
17	0x3c665a60	0.014059633
18	0xbd7b3d18	-0.06133756
19	0xb902a484	-0.00012459053
20	0x3b1197f2	0.002221581
21	0x3d5092e0	0.05092132
22	0x3d790142	0.060792215
23	0xbd5ee9fd	-0.054422367
24	0x3da4066e	0.08009039
25	0xbd00aa0d	-0.031412173
26	0x3cdc6b85	0.026906738
27	0x3d346c7e	0.04404878
28	0xbd20998f	-0.039208945
29	0x3c011549	0.00787861
30	0x3cf28638	0.029605016
31	0xbbde9505	-0.006792667
32	0x3d4ba710	0.04971987
33	0xbccb7cb4	-0.024839737
34	0xbd481adb	-0.048853736
35	0x3be2bb5b	0.006919307
36	0x3ca8746e	0.02056333
37	0x3d7009c8	0.058603078
38	0xbd3c3b9c	-0.045955285
39	0xbd5e699b	-0.054299932
40	0x3d84b90b	0.06480607
41	0xbda7fab8	-0.08202118
42	0x3da14077	0.07873624
43	0x3d50794c	0.050896928
44	0xbd086c1d	-0.03330623
45	0xbcf7bc9a	-0.0302413
46	0xbd6f1915	-0.05837353
47	0xbd9773ff	-0.073951714
48	0xbd8bdce5	-0.06829242
49	0x3d43320d	0.047655154
50	0x3c8be237	0.017075641
51	0x3cf66b4e	0.030080464
52	0x3d39ad40	0.04533124
53	0xbd057ca2	-0.032589562
54	0x3d792ca0	0.060833573
55	0x3c63ae1f	0.013896494
56	0xbcb3da8c	-0.021954797
57	0x3cae6f26	0.021293234
58	0xbd93ebfe	-0.07222746
59	0xbd21a78d	-0.03946643
60	0x3c63abd4	0.0138959475
61	0xbd61106e	-0.05494731
62	0xbd8c1738	-0.06840366
63	0x3d080700	0.0332098
64	0xbdb5a0c3	-0.088685535
65	0x3b86ff56	0.004119794
66	0xbd20a36c	-0.03921835
67	0xba5a607e	-0.00083304185
68	0x3d952d77	0.07284062
69	0xbd9282e8	-0.07153875
70	0xbd8c7f5b	-0.06860229
71	0xbd25d32b	-0.04048459
72	0x3c33a994	0.010965724
73	0xbce6c63b	-0.028170696
74	0x3d9df087	0.077118926
75	0xb9ceeffd	-0.00039470187
76	0x3d36cfaa	0.044631638
77	0xbc0a600f	-0.008445754
78	0x3cf0a0f9	0.029373633
79	0x3c109e54	0.008826811
80	0x3ca48854	0.020084538
81	0xbd225399	-0.039630506
82	0xbbfd4f52	-0.007730403
83	0x3d7bb2f4	0.06144996
84	0xbd583050	-0.05278045
85	0xbcfd0632	-0.030886743
86	0x3c966b9b	0.018361857
87	0xbd9c1622	-0.07621409
88	0xbcbe3733	-0.02321968
89	0x3d381888	0.04494527
90	0xbd51288d	-0.051064063
91	0x3cd176f3	0.025569415
92	0x3c5b7574	0.013394702
93	0xbd4acf83	-0.049514305
94	0xbcc47f3e	-0.023986455
95	0xbc99babb	-0.018765798
96	0xbb39b110	-0.0028334297
97	0xbd62bbed	-0.055355
98	0xbcc70e75	-0.024298886
99	0xbd9bdf20	-0.07610917
100	0xbd4c2f62	-0.049849875
101	0xbd6d8050	-0.057983696
102	0xbd91d440	-0.071205616
103	0x3d00032b	0.03125302
104	0x3d8ec685	0.06971458
105	0x3d591014	0.05299385
106	0xbd33f89b	-0.04393826
107	0x3d1aad93	0.03776319
108	0xbd556efb	-0.052107792
109	0xbd5a6bcb	-0.053325456
110	0xbd8d16c4	-0.06889108
111	0xbd2afdbe	-0.041745894
112	0xbd17adc7	-0.03703096
113	0x3cd04eec	0.025428258
114	0xbd9a6f7f	-0.075407974
115	0x3c18e270	0.009331331
116	0xbd49c111	-0.049256388
117	0x3be91ca8	0.007114012
118	0x3d0f28ff	0.034951206
119	0x3c8a6f1d	0.016898686
120	0xbd2c12a4	-0.042009965
121	0x3d2c25d8	0.042028278
122	0x3d640c46	0.055675767
123	0x3c02b429	0.007977524
124	0xbd5fb975	-0.054620225
125	0xbd019dac	-0.03164451
126	0xbd778ef8	-0.06043908
127	0xbda00b60	-0.078146696
128	0xbd942ff7	-0.07235711
129	0xbc525fe0	-0.012840241
130	0x3d9969a6	0.07490854
131	0x3d5504ad	0.052006412
132	0x3cd42312	0.02589563
133	0x3d03fdd1	0.03222448
134	0x3cf2f6a4	0.029658623
135	0x3cbf2fc7	0.023338212
136	0x3d5f7fde	0.054565303
137	0xbd92afbe	-0.071624264
138	0xbce91245	-0.028451094
139	0x3cf0e4c1	0.029405953
140	0xbd86690f	-0.06563007
141	0xbb1b7f30	-0.0023726933
142	0xbd3b98ac	-0.045799896
143	0xbdb593e2	-0.08866097
144	0xbc68a65b	-0.0141998185
145	0x3cd1b624	0.025599547
146	0x3d672089	0.056427512
147	0xbdb5c3c6	-0.088752314
148	0xbd913735	-0.07090608
149	0xbc62c570	-0.013841018
150	0xbcc95cc6	-0.02458037
151	0x3d48795f	0.048943873
152	0xbd8b4c45	-0.06801657
153	0x3d9aa7cc	0.07551536
154	0xbcc68f54	-0.024238266
155	0xbd53a357	-0.051669445
156	0xbd691420	-0.05690396
157	0xbd3eb024	-0.0465547
158	0xbd3ed4bd	-0.0465896
159	0xbd16499c	-0.036691293
160	0xbc51466d	-0.0127731385
161	0xbd107f96	-0.035277925
162	0x3cb3e298	0.021958634
163	0x3d2a43b0	0.041568458
164	0xbcbe684c	-0.023243092
165	0xbcf047c9	-0.029331105
166	0x3c3da15c	0.011574116
167	0xbd8aec83	-0.06783392
168	0x3ccc75df	0.024958549
169	0xbd90a6cf	-0.07063066
170	0x3bcf0465	0.0063176625
171	0xbb9d209d	-0.0047951476
172	0xbba5898a	-0.0050517963
173	0xbd14dc56	-0.03634294
174	0xbc69ed52	-0.014277773
175	0x3c9a55e3	0.018839782
176	0x3d742688	0.05960706
177	0x3bbc56b1	0.005747639
178	0xba8fbaa9	-0.0010965663
179	0xbd834ab6	-0.06410734
180	0xbd278699	-0.040899847
181	0x3cf7481e	0.030185755
182	0x3c4b372a	0.012403289
183	0xbcd3b2f8	-0.025842175
184	0xbd714386	-0.058902286
185	0x3da358d6	0.079759285
186	0x3d7d50b8	0.061844558
187	0x3bf6e332	0.007534408
188	0xbb263f31	-0.0025367255
189	0x3d839dd2	0.06426586
190	0x3c95e03a	0.018295396
191	0x3b89361b	0.004187358
192	0xbd4a7ce8	-0.049435526
193	0xbd48029d	-0.048830617
194	0x3d45fa4b	0.0483344
195	0xbd01221c	-0.03152667
196	0x3cb16e78	0.02165912
197	0x3b829386	0.0039848713
198	0xbd23cc57	-0.039989796
199	0x3d4c143c	0.049823985
200	0xbbf11f9e	-0.0073585054
201	0xbd97300b	-0.0738221
202	0xbd81fc20	-0.06346917
203	0xbda0b0c4	-0.07846215
204	0x3d3b8b19	0.04578695
205	0xbd22ce04	-0.039747253
206	0x3d4ed1d1	0.050493065
207	0xbd85367c	-0.06504533
208	0xbd976013	-0.073913716
209	0x3cb818c9	0.022472756
210	0xbdab3ee1	-0.083616026
211	0xbc872265	-0.016495893
212	0x3d42ca01	0.047555927
213	0xbd47fdff	-0.048826214
214	0xbd077b36	-0.033076487
215	0x3c5d1cbf	0.013495623
216	0x3d7e7b52	0.062129326
217	0x3c6227dd	0.013803449
218	0x3d77d64e	0.06050711
219	0x3d1cc97e	0.038278095
220	0x3d2ef63c	0.042715296
221	0x3b773910	0.003772322
222	0x3d689a53	0.0567878
223	0x3ca6f38f	0.02037981
224	0xbda4d409	-0.08048255
225	0x3ca6f264	0.020379253
226	0x3ca04428	0.01956375
227	0xbdc31122	-0.09524752
228	0xb777c410	-1.4767997e-05
229	0xbdb141ef	-0.08655154
230	0x3d3e68fc	0.04648684
231	0x3d2fa47d	0.042881478
232	0x3d108210	0.035280287
233	0x3c59f29e	0.013302473
234	0xbd927c3a	-0.071526006
235	0xbcff77f6	-0.031185132
236	0x3bfbf78c	0.007689422
237	0x3c06b8a5	0.008222734
238	0xbdb5b3cd	-0.08872185
239	0xbd89f9d8	-0.06737107
240	0x3d01874b	0.031623166
241	0x3ca77752	0.020442639
242	0xbd97e4de	-0.074167
243	0x3d2de770	0.042457044
244	0xbd885460	-0.06656718
245	0xbd3c487c	-0.045967564
246	0x3cad4e2f	0.021155445
247	0x3c79cef6	0.015247097
248	0x3cb43321	0.021997036
249	0x3c76847a	0.015046233
250	0x3bb95c59	0.0056567607
251	0xbd4336b8	-0.047659606
252	0xbc7777e8	-0.0151042715
253	0x3d0cdeee	0.03439229
254	0xbd3b1fcd	-0.045684624
255	0x3c735e54	0.014854033

layer1.fc_self.weight f4 [167, 50]
0	0x3d366d83	0.044538032
1	0xbda3ac45	-0.07991842
2	0x39210190	0.00015354739
3	0xbd0297d1	-0.031883065
4	0x3d4666b1	0.048437778
5	0x3cf84c42	0.0303098
6	0xbc1a61ad	-0.009422702
7	0xbc0841ff	-0.008316516
8	0xbd98e161	-0.074648626
9	0xbd557d16	-0.052121244
10	0x3b910f36	0.004426862
11	0x3ca0dd07	0.019636644
12	0x3d163b89	0.03667787
13	0xbc239111	-0.009983317
14	0xbdb118c0	-0.08647299
15	0xba172a54	-0.00057665
16	0x3d053da1	0.032529477
17	0xbcc5f06e	-0.024162497
18	0x3d8072fc	0.062719315
19	0x3d59f0b5	0.05320807
20	0xbd92e1f3	-0.07172003
21	0xbcc80531	-0.024416538
22	0xbd86d9fd	-0.06584547
23	0x3d707107	0.05870154
24	0xbd95de6b	-0.073178135
25	0x3d275680	0.040853977
26	0xbd3e0abd	-0.04639696
27	0xbd490c27	-0.049083855
28	0x3c0f9a92	0.00876488
29	0x3cb1ad6f	0.021689145
30	0x3d8d3219	0.06894321
31	0x3cc74b35	0.024327854
32	0xbd720b1d	-0.05909263
33	0x3d662719	0.05618963
34	0x3c9b61d5	0.018967548
35	0xbd4b27cb	-0.049598496
36	0x3c1537b8	0.009107523
37	0xbd959b71	-0.07305039
38	0x3d94f886	0.072739646
39	0xbc9e3bb4	-0.019315578
40	0x3d444604	0.047918335
41	0x3d828a66	0.06374054
42	0x3cca8feb	0.024726829
43	0xbd2f4a65	-0.042795558
44	0x3c8c781e	0.01714712
45	0x3dbfbdb8	0.09362358
46	0x3c8b9b48	0.017041817
47	0xbd1b315f	-0.03788888
48	0xbd81bbc2	-0.0633464
49	0x3cb91a7c	0.022595637
50	0x3d9bb047	0.076019816
51	0xbd97603b	-0.073914014
52	0xbd10d8f7	-0.035363164
53	0x3d1f5c82	0.03890658
54	0x3d8785c5	0.066173114
55	0x3d91f039	0.07125897
56	0xbd4ed4ca	-0.0504959
57	0x3ccbe7a1	0.024890723
58	0x3d714c27	0.058910515
59	0x3cb3db7d	0.021955246
60	0xbc1426f4	-0.00904249
61	0x3c4a202d	0.012336773
62	0x3d80f886	0.06297402
63	0xbc68ca89	-0.014208444
64	0xbd871092	-0.065949574
65	0x3cc82d56	0.02443568
66	0xbc0ef5e9	-0.008725622
67	0xbce586fa	-0.028018463
68	0x3d038ded	0.032117773
69	0xbc5e0f65	-0.013553475
70	0x3ce07f15	0.027404347
71	0xbd593bcc	-0.053035542
72	0x3d3973ec	0.045276567
73	0x3d38b380	0.04509306
74	0xbda98fb2	-0.08279361
75	0xbc91bcd6	-0.01779024
76	0x3d8cd95b	0.06877395
77	0xbd406865	-0.04697456
78	0xbc6573f1	-0.014004693
79	0xbd4bc0cc	-0.049744412
80	0xbd57bf3a	-0.052672602
81	0xbd18a656	-0.037268005
82	0xbd715e33	-0.058927726
83	0xbbc42950	-0.00598637
84	0x3c9c9f83	0.01911903
85	0xbcd2aa88	-0.025716081
86	0x3d88fe4e	0.0668913
87	0x3d60170d	0.054709483
88	0xbd9aec5f	-0.075646155
89	0xbd681955	-0.056664784
90	0x3d7fb870	0.062431753
91	0x3bf38b53	0.00743238
92	0x3d7a27f6	0.061073266
93	0x3d8e90af	0.0696119
94	0xbd5edb14	-0.054408148
95	0xbd1daabf	-0.038492914
96	0xbd025177	-0.031815972
97	0x3d0029bf	0.031289812
98	0x3d4f7278	0.050646275
99	0x3c119ae2	0.008887025
100	0xbd66fc5b	-0.05639301
101	0xbd3df0b8	-0.046372145
102	0xbd0f8fc9	-0.035049234
103	0xbd5cec98	-0.05393657
104	0xbd09aa6e	-0.0336098
105	0xbd30cc97	-0.043163862
106	0xbc763974	-0.015028346
107	0x3b54f6d5	0.0032495756
108	0xbce96e1e	-0.02849489
109	0x3aa5e322	0.0012656192
110	0xbd623af7	-0.055232015
111	0xbcdb1080	-0.026741266
112	0x3d17078f	0.036872443
113	0xbd03020d	-0.031984378
114	0xbd05a349	-0.032626424
115	0xbb7b93f8	-0.0038387757
116	0x3b0bdd3e	0.0021341587
117	0xbd401661	-0.046896342
118	0xbd4b4873	-0.04962964
119	0x3cc32c26	0.023824763
120	0x3d815adc	0.06316158
121	0xbd9d7b2b	-0.07689508
122	0xbda54342	-0.08069469
123	0xbc36b45f	-0.011151402
124	0x3b91fdd7	0.004455309
125	0xbd18f8a3	-0.037346493
126	0x3d831a42	0.06401493
127	0x3d311e29	0.043241654
128	0x3d275544	0.0408528
129	0x3d08c637	0.033392157
130	0xbd94e186	-0.07269578
131	0xbd8cdaa7	-0.06877642
132	0xbb661365	-0.0035106775
133	0x3cdd91b5	0.027047018
134	0xbc454e76	-0.012042632
135	0xbd5e668d	-0.05429702
136	0xbc720732	-0.014772223
137	0x3be487b5	0.0069741854
138	0xbc8183da	-0.015809942
139	0x3b3e18a0	0.0029006377
140	0x3d4bfbf8	0.049800843
141	0xbd38e200	-0.045137405
142	0xbbdd9b53	-0.006762901
143	0xbd06f1a5	-0.032945294
144	0xbc5ec25b	-0.013596143
145	0xbd9fa759	-0.07795591
146	0x3c43d8b2	0.01195352
147	0xbd2edbbc	-0.042690024
148	0x3d8ec287	0.06970697
149	0xbd87060d	-0.06592951
150	0xbc41f515	-0.011838217
151	0xbcf1bba3	-0.029508417
152	0x3c892f08	0.016746059
153	0xbd01df55	-0.031707127
154	0x3bac57d1	0.005259492
155	0x3d9cbb96	0.07652967
156	0x3ce96c66	0.028494071
157	0xbd39b4c3	-0.045338403
158	0x3d4780b1	0.048706714
159	0x3db73318	0.08945292
160	0xbc6ce0a1	-0.014457853
161	0x3d51a53c	0.05118297
162	0x3d7b2c82	0.061321743
163	0x3d5816d7	0.052756157
164	0xbd8ae465	-0.06781844
165	0xbbdaba99	-0.006675076
166	0x3d0a2693	0.033728193
167	0xbd52a9dd	-0.051431525
168	0x3dbeee54	0.09322801
169	0xbcc5c900	-0.024143696
170	0xbd940588	-0.072276175
171	0xba8fa31c	-0.0010958645
172	0x3d471a06	0.048608802
173	0xbd963804	-0.07334903
174	0xbd831ad3	-0.06401601
175	0xbd610f4f	-0.05494624
176	0xbd986679	-0.0744142
177	0x3da9628a	0.08270748
178	0xbd0d2aa6	-0.0344645
179	0xbbe77a38	-0.00706413
180	0x3d279ce0	0.040921092
181	0x3cce0439	0.025148498
182	0xbccff9df	-0.025387703
183	0xbda02f2b	-0.078214966
184	0x3d5d7c89	0.054073844
185	0x3b6a8598	0.0035785194
186	0xbd9800e5	-0.074220456
187	0xbd7a502c	-0.061111614
188	0xbc3e10d0	-0.011600688
189	0x3c214a5d	0.00984439
190	0x3b02014e	0.0019837203
191	0xbc5d4fd3	-0.013507801
192	0xbccae075	-0.024765233
193	0x3b9c9d45	0.00477949
194	0xbcb71a69	-0.02235146
195	0xbd733da3	-0.059384953
196	0xbc355b09	-0.011069068
197	0xbc0f2356	-0.008736452
198	0x3d726ad9	0.05918393
199	0xbd560445	-0.052250165
200	0x3da9133d	0.082556225
201	0x3d3ea0fc	0.046540245
202	0xbcfaa55e	-0.030596431
203	0x3d1684be	0.036747687
204	0xbd345f63	-0.04403628
205	0xbc6e7789	-0.014554867
206	0xbd83a4c7	-0.06427913
207	0xbd8cc9da	-0.06874438
208	0x3d0cb663	0.034353625
209	0x3d6e1bd0	0.058131993
210	0xbd27965f	-0.04091489
211	0xbd2d6e87	-0.042341735
212	0x3c2b7b21	0.010466368
213	0xbd732bd7	-0.05936798
214	0x3cbc55f6	0.022990208
215	0x3c59dbbe	0.0132970195
216	0x3ae15907	0.001719267
217	0xbc23d8c8	-0.010000415
218	0xbd03842c	-0.03210847
219	0xbd37e79c	-0.044898614
220	0xbbd05ecc	-0.006358957
221	0xbc2db36c	-0.01060186
222	0xbce495c3	-0.027903443
223	0x3c77e666	0.015130615
224	0xbc034095	-0.008011003
225	0xbccccadf	-0.02499908
226	0x3d911e01	0.07085801
227	0xbd390b85	-0.045177
228	0xbd6e7924	-0.058220997
229	0x3d906ec3	0.07052376
230	0xbda6e0fa	-0.081483796
231	0x3ccf76ec	0.025325261
232	0xbd16b16d	-0.0367903
233	0x3d0fe43d	0.035129774
234	0x3b292523	0.0025809489
235	0x3d7b9c9c	0.06142865
236	0x3d63b26e	0.055590086
237	0xbd88b2e7	-0.06674748
238	0xbdab0bcf	-0.08351862
239	0xbd3c6be0	-0.046001315
240	0xbcf14e04	-0.029456146
241	0xbd4457d8	-0.047935337
242	0x3d534b1e	0.05158531
243	0x3cfe587a	0.031048048
244	0xbd9382b7	-0.07202666
245	0x3d60e73b	0.05490802
246	0x3d3982e3	0.04529084
247	0xbd782e32	-0.06059093
248	0x3ce7aef6	0.02828167
249	0xbda1fc08	-0.07909399
250	0x3d67978a	0.056541003
251	0xbd77f9c2	-0.060540922
252	0xbd28ef0d	-0.0412436
253	0x3d8b2e20	0.06795907
254	0xbc48087e	-0.012209056
255	0x3cbeb563	0.023279851

layer1.fc_self.bias f4 [167]
0	0xbd2d0bcd	-0.042247582
1	0xbd7e29a6	-0.062051438
2	0xbd8b7c22	-0.06810786
3	0xbd4a63fd	-0.049411763
4	0xbd71cbb8	-0.059032172
5	0xbd3c1e1a	-0.045927145
6	0xbd1376af	-0.036001857
7	0xbd911d3e	-0.07085656
8	0x3eafd8f3	0.34345207
9	0xbd1704be	-0.036869757
10	0x3f9839bc	1.1892619
11	0xbd5e5c67	-0.05428734
12	0xbd289d74	-0.041165784
13	0xbd3d8715	-0.046271402
14	0x3f7dc06b	0.9912173
15	0xbd9aae56	-0.07552783
16	0xbd5705d6	-0.0524958
17	0xbee9f4ed	-0.45694676
18	0xbd1b94d6	-0.037983738
19	0xbd2bf950	-0.04198581
20	0xbd55a9bd	-0.05216383
21	0xbd66d764	-0.056357756
22	0xbd535b43	-0.051600706
23	0xbebaf2ab	-0.36513266
24	0x3f7edaa1	0.9955235
25	0xbd60093d	-0.05469631
26	0xbd3075fc	-0.04308127
27	0x3e4c1fb5	0.1993397
28	0xbde9e8ab	-0.11421331
29	0xbd0cee49	-0.034406934
30	0xbd7894a4	-0.06068863
31	0xbd800ebe	-0.06252812
32	0xbd2b2f35	-0.041793067
33	0x3f7e814f	0.9941606
34	0xbd7da7e6	-0.0619277
35	0xbcc5b140	-0.024132371
36	0xbd247199	-0.040147398
37	0xbd2680e8	-0.04065028
38	0x3f804a20	1.0022621
39	0xbd49b644	-0.049246088
40	0xbdf17eab	-0.11791738
41	0xbde56630	-0.11201131
42	0x3f7d66df	0.98985094
43	0xbdf2abc8	-0.11849171
44	0x3f7e7523	0.99397486
45	0xbd037d85	-0.032102127
46	0xbd949585	-0.07255081
47	0xbd0005b1	-0.031255428
48	0xbd25fda0	-0.04052508
49	0xbd292105	-0.041291256
50	0x3b3a8ce9	0.0028465337
51	0xbe80ffca	-0.25195152
52	0xbd8fcf4b	-0.0702196
53	0xbd386170	-0.0450148
54	0x3f7ebe66	0.99509275
55	0x3f80562d	1.0026299
56	0x3dcbf912	0.09959616
57	0x3f5e75bf	0.86898416
58	0xbdaf6e50	-0.08565962
59	0xbcc665aa	-0.0242184
60	0xbd17c907	-0.03705695
61	0xbd3aa026	-0.045562886
62	0xbe534f7a	-0.20635787
63	0xbe20ac63	-0.1569076
64	0xbd0af612	-0.033926077
65	0xbcdf24e8	-0.027239278
66	0xbd90609a	-0.07049675
67	0x3dbcf9ab	0.09227308
68	0xbc5ded1b	-0.0135453
69	0xbded10c2	-0.11575462
70	0xbd8d26cb	-0.06892165
71	0xbd5146b4	-0.05109282
72	0x3ebe5a1e	0.3717813
73	0xbc18b34c	-0.009320091
74	0x3f7f653f	0.99763864
75	0xbd90c1d2	-0.07068218
76	0xbd33a9d2	-0.043863125
77	0xbd80364c	-0.06260356
78	0xbd96347e	-0.07334231
79	0xbd01d61e	-0.03169834
80	0xbe8872d7	-0.26650116
81	0xbd5f42b1	-0.05450696
82	0xbd25ea7f	-0.040506836
83	0x3f7fb624	0.998873
84	0xbeb20803	-0.34771737
85	0xbe390d5b	-0.18071501
86	0xbde4c9a3	-0.11171272
87	0x3f7efeb2	0.99607384
88	0xbd8c78cb	-0.06858977
89	0xbdb0bc62	-0.08629681
90	0xbcdf5219	-0.027260827
91	0xbcc492c3	-0.023995763
92	0xbd11bdc9	-0.035581384
93	0xbd61b5cd	-0.05510502
94	0xbd9b8ddb	-0.07595416
95	0x3e013599	0.12618102
96	0xbd3c527b	-0.045977097
97	0xbc97e3b7	-0.0185412
98	0x3f4a2556	0.7896322
99	0xbcfa8c38	-0.03058444
100	0xbdddec4b	-0.10836085
101	0xbe5f4b2c	-0.2180602
102	0xbe8537cd	-0.26019135
103	0xbd5d87ac	-0.054084465
104	0xbd684e40	-0.05671525
105	0xbd49567f	-0.049154755
106	0xbd09b365	-0.03361835
107	0xbd49b8f5	-0.049248654
108	0xbd7a5c3a	-0.06112311
109	0xbd546ba4	-0.051860467
110	0xbd15f976	-0.036614858
111	0x3f7e618d	0.993676
112	0xbcfb0cca	-0.030645747
113	0xbcbadf7c	-0.022811644
114	0xbcf08bf2	-0.029363606
115	0xbe65f659	-0.22457255
116	0x3f7d2cce	0.9889649
117	0xbd241a7f	-0.04006433
118	0xbed12621	-0.40849403
119	0xbd19d489	-0.037556205
120	0xbd1e9fc6	-0.03872659
121	0xbd3733e3	-0.044727217
122	0xbe46898a	-0.19388404
123	0xbe6c72d8	-0.23090684
124	0xbce1620b	-0.02751257
125	0x3f7dcc57	0.9913992
126	0xbde09f46	-0.10967879
127	0xbd341ed3	-0.04397471
128	0xbd0df109	-0.034653697
129	0x3d35f9fb	0.044427853
130	0x3e72938a	0.23689094
131	0xbd8b3418	-0.067970455
132	0xbd90eeff	-0.07076835
133	0xbe275c09	-0.16343702
134	0xbd86bd63	-0.065790914
135	0x3d8e5a5c	0.069508284
136	0xbe21c612	-0.15798214
137	0x3dd2eb15	0.102987446
138	0xbcd0a5d3	-0.025469696
139	0xbd501e97	-0.050810423
140	0xbe61e5d3	-0.22060327
141	0xbec37b35	-0.38179937
142	0xbd3bac00	-0.04581833
143	0xbd933377	-0.071875505
144	0xbd7ed9ba	-0.06221936
145	0xbd625788	-0.055259258
146	0xbc8452e6	-0.01615281
147	0xbd2d52de	-0.042315356
148	0xbd7c236c	-0.06155722
149	0xbc9b3993	-0.018948352
150	0x3f80388d	1.0017258
151	0xbd8a7a9a	-0.06761666
152	0x3f7e9c64	0.99457383
153	0x3f7bec70	0.9840765
154	0xbe8c2e30	-0.27378988
155	0xbe8e36c7	-0.27776167
156	0xbd805adf	-0.06267332
157	0xbd5afbf3	-0.053462934
158	0xbd078806	-0.033088706
159	0xbd8e44bd	-0.069467045
160	0xbe0dbd11	-0.13841654
161	0xbe8822b5	-0.2658898
162	0x3f7e4608	0.9932561
163	0xbcc390b4	-0.02387271
164	0x3f0a2e40	0.5397682
165	0xbccfe322	-0.02537686
166	0xbd82f961	-0.063952215
