Audit-log_Analysis/code/GNN/training/checkpoint_GAT/best_model_GAT_secureBERT_50.pt (torch, 741359 bytes, 16 tensors)

layer1.attn_l f4 [1, 8, 16]
00000000: c8c5 90bd fdc1 443d b93c d1bc da7d a63d
00000010: d073 413d 345a 66be 61e8 acbe 4f57 d93c
00000020: 1fe6 4dbe b427 29be b015 abbc a59d 543d
00000030: 0cca 9ebe afcd c63d dd12 0ebe d0a2 9cbd
00000040: e90c b137 4b4a 843d 306a 44be 8460 e0bb
00000050: c104 9dbe 1d4d fc3d 38b0 8f3e 5fdf 28be
00000060: 80af 9c3c 04c9 93be 59a1 cdbd 1785 a5be
00000070: 9d0a 09bd d2c5 54be d8e7 2f3d a209 af3d
00000080: 9579 c1be 15a2 f6bd 3bd5 59be e0ac e0bd
00000090: 6463 7fbe 4111 4dbd 6fd8 52bb 3b62 b2bd
000000a0: af24 dcbd 0097 0cbe 81c0 11be cd42 42be
000000b0: f486 f53d e3ab 11bc fee2 03bf 6b58 94bd
000000c0: 5316 26be f33b b2be b144 a0be 131d 5a3e
000000d0: 5c99 f5bd b42a 7dbe 159b 1e3e 9c7a a0be
000000e0: 2ed3 44be c782 82be 270e d4bd 9a12 24be
000000f0: f8be 273d b888 7fbe 0249 febb d676 89be
00000100: 5278 d53c cb5c 473e 2c59 58be 5364 b2be
00000110: 5c35 5abe 3bc7 c1be 9e8a 623e cc57 76be
00000120: 2c10 663c 4b0a b7bd 2319 b4be c7e7 02be
00000130: 784a 483e 599a aabe 1479 a6be c5af 50be
00000140: 1c3c 94bd 95ec 673c db25 d5be a701 3cbe
00000150: 0265 4a3d 4e03 093e 0406 54be 9b25 39be
00000160: 6e69 843e 1759 08be c0a8 b4be 2c5a efbd
00000170: eae4 08be 018f b03e 3e8a a7be a49b 933a
00000180: dfcd 5c3d 8bbe 8bbe aa0c b43d e4e1 9fbd
00000190: 995f 50be f975 daba f121 333e 7008 323c
000001a0: 896f 1bbe 65e6 dfbd a773 6bbd 2abf 643d
000001b0: bf35 8fbe 548a 84be db12 febd 7caf ffbe
000001c0: 7c48 813d 9e4a b03c 066e 4b3e 6e4d 233d
000001d0: 6d23 233e b4fe 8a3d 8e0f d8bd 8f45 663c
000001e0: 6c1c e9bd 616e 2ebd d5f0 1c3e 1b46 d33c
000001f0: fcb4 133e 59d6 80be d2b8 133d be67 c93d
-0.07068974 0.048036564 -0.02554165 0.08129473 0.047229588 -0.22495347 -0.3377104 0.02653089
-0.20107315 -0.16519052 -0.020884365 0.051908154 -0.31013525 0.097072 -0.13874383 -0.076482415
2.1106056e-05 0.06459483 -0.19181132 -0.006847443 -0.3066769 0.12319396 0.28064132 -0.1649146
0.019126654 -0.288643 -0.1004054 -0.32328102 -0.033457387 -0.20778587 0.042945713 0.08546759
-0.37788072 -0.120426334 -0.21272747 -0.10970473 -0.24940258 -0.050065283 -0.0032172462 -0.08710142
-0.10749184 -0.13729477 -0.1423359 -0.18970795 0.11988631 -0.008891079 -0.5151824 -0.07243427
-0.16219454 -0.34811363 -0.31302407 0.21300153 -0.119921416 -0.24723321 0.15488847 -0.31343544
-0.19221184 -0.254904 -0.10354262 -0.16022721 0.040953606 -0.24954498 -0.007760168 -0.26848477
0.02605835 0.19468991 -0.21127766 -0.34842166 -0.21309417 -0.37847313 0.22123191 -0.2405693
0.014041942 -0.0893751 -0.35175428 -0.12783729 0.19559658 -0.33320883 -0.3251425 -0.20379551
-0.072380275 0.014155527 -0.41630444 -0.18360005 0.049412735 0.13380167 -0.2070542 -0.18080752
0.25861686 -0.13315235 -0.35284996 -0.11687121 -0.13368574 0.34484103 -0.32722658 0.0011261594
0.05390727 -0.2729381 0.08791478 -0.07806757 -0.20348968 -0.0016667239 0.17493416 0.0108662695
-0.15179266 -0.10932616 -0.05748334 0.05584637 -0.27970693 -0.25886786 -0.1240594 -0.4993857
0.063126534 0.021519955 0.1986619 0.039868765 0.15931483 0.06786862 -0.10549842 0.01405467
-0.11382374 -0.042585734 0.15326245 0.025790265 0.14424509 -0.25163534 0.03606493 0.098342404

layer1.attn_r f4 [1, 8, 16]
00000000: c4ee f43d 9032 6cbe c551 8dbe f993 923e
00000010: ca26 a3bd fdae 883e 7746 523e ebac 1e3e
00000020: 2318 b23e e66f d33d b9c7 2f3e fc1f f03d
00000030: caaf 803e a30c 84be 29c1 343e b714 1d3e
00000040: 809d 853e 704c 46be 72e5 d93e 3156 bfbe
00000050: f820 253e bbe5 cd3e 03b6 fbbc 0a09 c5bd
00000060: 9968 b53e 9fb9 c43e 34af 7dbd dbaa dd3e
00000070: 409d c5be 3569 0a3f 2a35 b5bd 0abb 043f
00000080: cfee d03d 572b 7e3d c9a1 d43b 05bc a73e
00000090: 5ea5 c83d 62ca 2abe b978 b8bd ac4a babd
000000a0: b7e2 e1bd 5215 3e3e 7f2c 00be 2bbd e13d
000000b0: e1d3 49be 65d0 6ebe 4676 8bbd e38e ac3d
000000c0: f1f1 86be c664 8e3e 0509 a43e 6604 c0be
000000d0: e874 16be f011 6f3e aa31 c9be db33 b83e
000000e0: 7900 9a3e d136 3d3e c96a 5abb 9ee5 edba
000000f0: a23a 13be 5ad6 903d 9c01 47be 6746 e93e
00000100: 3ada 92be 734f fb3d 946e df3e 510b 093f
00000110: 532c 963e b02b e33e e0bf 923e 6a5d ed3e
00000120: c075 cabe d13c e73e c750 a03e d3c4 b73e
00000130: 7955 d93e dfae ca3e de01 d1be c070 d23e
00000140: 6e53 a93c 75f8 0a3d 788e 3cbe 3ed2 7b3d
00000150: e121 03be 1432 983b 9df4 22be c47d 98bd
00000160: e56e 46bd badc be3c d07b 10be 0197 5f3d
00000170: dd04 18be 866c 5f3d ebed 13be effb e33c
00000180: 52ef d13d 6c66 9e3b c7e4 14be eb8b e4bb
00000190: 43a6 f3bd 4d2e b3bd de6a 793d 1f10 f4bd
000001a0: b8cc a03d 34f9 98bd d9c2 02be 5e1b 7f3d
000001b0: 58bf b0bd 2f1c 0e3d 0237 25be 9e38 9fbe
000001c0: a25b 7ebd 7f27 cabe 38ed 63bb 77e4 623e
000001d0: 38cf d93b 9cf7 78be efaa 1d3e a6fe a23d
000001e0: 9496 a7be 8bec 1bbe f909 373e 2e4c 66be
000001f0: e420 6abe 7788 42be 9711 9a3d d206 073d
0.119596034 -0.23066163 -0.27601448 0.2862852 -0.07966383 0.26696005 0.20534693 0.1549565
0.3478404 0.10324077 0.17166032 0.117248505 0.25134116 -0.2579089 0.1765181 0.15339933
0.26096725 -0.19365096 0.42557865 -0.37370446 0.16125858 0.40214333 -0.030726438 -0.09620865
0.35431364 0.38422868 -0.061934665 0.43294415 -0.38596535 0.54066783 -0.08848031 0.518479
0.10201799 0.06205305 0.006489013 0.32760635 0.09797166 -0.16678765 -0.09007401 -0.09096274
-0.110295705 0.1856282 -0.12516974 0.11022409 -0.19709732 -0.23321684 -0.06809668 0.08425691
-0.26356462 0.2781126 0.3203813 -0.37503356 -0.14693034 0.23346686 -0.39295703 0.35977063
0.30078486 0.18477942 -0.003332781 -0.0018150096 -0.14377835 0.07072134 -0.19434208 0.45561525
-0.2868212 0.12271013 0.43639052 0.5353289 0.29330692 0.44369268 0.28662014 0.46360332
-0.3954296 0.45163587 0.31311628 0.35892352 0.42448023 0.3958654 -0.40821737 0.41101646
0.020669665 0.033928353 -0.18413723 0.0614798 -0.12805893 0.0046446417 -0.15913625 -0.07445863
-0.0484456 0.02329861 -0.1410973 0.054587368 -0.14845605 0.054546855 -0.14446227 0.027830092
0.10250725 0.004833987 -0.14540397 -0.0069746873 -0.11896946 -0.087490655 0.060892932 -0.11917137
0.07851547 -0.07469407 -0.12769641 0.06228196 -0.08630246 0.034694847 -0.16134265 -0.31097883
-0.062099107 -0.39483258 -0.0034778845 0.22157465 0.006647017 -0.24313205 0.15397237 0.079587266
-0.3273207 -0.15226953 0.17874898 -0.22489998 -0.2286411 -0.1899737 0.07522886 0.03296549

layer1.bias f4 [128]
00000000: 06d4 13bb f399 1abe 2038 86be 047e 27bc
00000010: 6b93 a5bd 14c7 09bc c3d7 d3bb 5308 01bd
00000020: abfb f3bc aa36 02bc dc5c 81bc e1c0 f0bc
00000030: 3fde bfbb bb90 ffbe 6cdd bbbc 995b e7bb
00000040: 8da7 9fba 0710 9dbe 04cb 00bc 7cc1 23bc
00000050: 9ae8 23bc 4ceb 8fbc 7e02 26bd 4b48 05bd
00000060: 974e 92bc 50fa 6cbc 4503 fdbc 7536 04bd
00000070: 5cc4 4bbd 4a23 a8bc 3099 97bc 632b cbbb
00000080: e0a4 cdbc cb81 bcbd e61d 45bd 312f 08be
00000090: 6951 3ebe 6493 08bc c640 5ebb b78a 55be
000000a0: a569 fcbb 6558 ffbd cd4b eebb 1c51 3fbd
000000b0: 6d75 0fbc c3bd 40bb 60ee 8fbb 5df2 01be
000000c0: 4f3d f2bb a743 71bc 4db6 a9bb 1b48 0741
000000d0: 6e6b 7bbd 24fc ffb9 d7e6 0141 2219 9abb
000000e0: 5690 babb 5db4 11bd 2621 81bd cb70 84bc
000000f0: c6f2 c6bc c4d0 d3bc c9b1 c0be 56f4 02bc
00000100: 4a12 b7bc f73f cbbc 4706 afbb ec87 c2bb
00000110: b220 08bd 34db 67bb 5bde 00bd a1e0 32bc
00000120: 0b2d 8ebe d038 b4bc 5122 9cbc bb21 40bc
00000130: 46cb dcbb f993 24bc c248 90bd 23b6 34bc
00000140: 910d cdbc e246 0ebd d418 01bc 052c 7cbb
00000150: 400e f7bb 982d 13bd 023a 88bc 09c9 27bb
00000160: add0 02bc 17cc 8abd d6b3 42bc ff48 debd
00000170: 8217 f9bb e875 03bf 1ae9 2cbc a4cb debb
00000180: c03c 23bd d082 0fbd 7288 94bc 89c2 07bd
00000190: 677e 34bb 74d3 0cbc 1ba9 05bd 8d4e 0cbc
000001a0: 8d00 afbe 874c a5bb 75a1 45bb 5103 51bd
000001b0: 5fa7 d6bb e8fa b9bc 2e87 1bbc 434e 48bc
000001c0: bcbd 45bc 851f 2ebb 443f afbc 9db6 5cbd
000001d0: 9738 f5bd aa9f 46bb d312 ecbd 0f27 ccbd
000001e0: 1552 58bc 64cd 77bc 8424 25be a517 04bc
000001f0: 4016 85bc 6c58 afbb 0047 88be d2f5 43bd
-0.0022556796 -0.1509779 -0.26214695 -0.010222916 -0.08084758 -0.00840928 -0.00646493 -0.03150208
-0.02978309 -0.007947603 -0.01579135 -0.029388847 -0.005855351 -0.49915108 -0.02293273 -0.00706048
-0.0012180671 -0.3067629 -0.007860903 -0.009994861 -0.010004187 -0.017568253 -0.04052972 -0.032539647
-0.01785974 -0.014463976 -0.030885348 -0.032278497 -0.04974781 -0.02052464 -0.018505663 -0.0062002405
-0.025103033 -0.092044435 -0.048124216 -0.13299252 -0.18585743 -0.008335922 -0.003391312 -0.20853697
-0.0077030235 -0.12468032 -0.0072722198 -0.04670821 -0.008756024 -0.0029409982 -0.00439243 -0.1269011
-0.0073925625 -0.014725602 -0.0051792026 8.455104 -0.06138175 -0.0004882525 8.118857 -0.004702703
-0.0056934757 -0.0355724 -0.06305151 -0.016167065 -0.024285685 -0.025856383 -0.3763564 -0.007992825
-0.022347588 -0.024810774 -0.0053413245 -0.0059366133 -0.033234306 -0.0035378458 -0.031462055 -0.0109178135
-0.2776874 -0.021999747 -0.019059332 -0.011726792 -0.0067380993 -0.010045045 -0.070451275 -0.011029753
-0.025030883 -0.034735568 -0.007879455 -0.0038478386 -0.0075395405 -0.035932153 -0.016629223 -0.0025602004
-0.0079843225 -0.06777208 -0.011883697 -0.10853767 -0.0076016793 -0.51351786 -0.010553623 -0.006799178
-0.039852858 -0.035036862 -0.018131468 -0.033144508 -0.0027541162 -0.008595336 -0.032631975 -0.00856365
-0.34180108 -0.005044523 -0.003015605 -0.051028553 -0.006550714 -0.02270265 -0.009492679 -0.01222569
-0.012069162 -0.002656908 -0.021392472 -0.05388509 -0.11973684 -0.003030757 -0.11527028 -0.09968387
-0.013203164 -0.015124653 -0.16127211 -0.008062278 -0.016245961 -0.005351117 -0.2661667 -0.047841854

layer1.fc.weight f4 [128, 50]
00000000: 45a4 d4be 35a0 383d a2a5 34bd 6f25 e13c
00000010: e22d 80be 8f64 09bd 200a b1be 9edc 343e
00000020: 3b7e 09bd 38c9 953d d2f4 06be ba30 5cbd
00000030: 62e5 ffbd 9dff 07bd f944 18be 37df fdbc
00000040: ac6b dabd d261 23be e13a 85bd 6782 10be
00000050: c7e3 663c 5bb6 04be 1836 bebd a3ff f83c
00000060: bc1c 78be 6b80 9a3d d893 c0bd bed0 df3d
00000070: d1d4 e7bc 096a 28bd 600e 963d 669c 9ebe
00000080: 2a46 113e 74f2 9dbe 7f7d 883c cda6 83bd
00000090: 3776 34be b352 c8bc 2bff 123e da45 36be
000000a0: 99a4 f8bc 8ccd 0c3e 2522 6cbc a091 fabd
000000b0: fab1 333e 9e1c 90bb a364 68be 6a75 c5bd
000000c0: ff1f 163d 67d6 be3d c01c 573e 8e28 543b
000000d0: 683d 22be ea4d 25be f366 b9bd f49a 0abe
000000e0: ee83 4a3e 3a16 98be 7c81 c83d b652 cfbe
000000f0: 7f78 1f3e ced0 193c a7cf 22be 783d 433d
00000100: 1fd0 36be 38b5 9fbe 827f 093d 47d4 163e
00000110: dc03 ad3e 113b 9ebd f8c7 46be 3102 b5be
00000120: 54c6 50be 25c3 c7bd 6539 80be e8d5 47bd
00000130: 9eea c13d 13a7 283e 2d04 dcbc 32db c03d
00000140: b8c3 d43d 0c4f 5a3c feb4 a9bd 43ea 883e
00000150: e395 8e3e 2bcf b33c 4e86 a8be fdbe c03e
00000160: 798c 8abe 1987 0cbe e11b 913d 3bd6 a0be
00000170: 813e cb3d 7f79 233e aa1b 163e 8603 aabe
00000180: bc3f cdbd 356e d43e 0049 b83e adb7 bebe
00000190: a873 c63d ce84 bebd 1e6e 89bc ca89 793d
000001a0: 942b 893d a867 303e 7646 8b3c 4ccb 10bd
000001b0: e5ca 50be 050c 80bd 18d5 033d 2c10 17bf
000001c0: b5db 653e 3678 ba3e 004e 853e 725a bc3e
000001d0: bb01 f9be c022 753e 1f9b 2fbf 8315 9bbe
000001e0: ad17 acbe fd38 f3be 3bba 25be 3156 b33b
000001f0: 1c64 f83d eefd ca3b 18c3 2cbe f383 2dbe
00000200: 67ef 6b3d e12b 36be 2bad fa3b 072b 31be
00000210: 25bb 29be 1556 203d 3329 5e3e 2d4f a4bd
00000220: e428 65be 837a acbe 8b54 9b3d fa6d 94bd
00000230: 7315 023e 63d9 ab3e b76d edbd 04a0 63be
00000240: 375e 093e 5916 a7be 019d d1be 4c95 6dbd
00000250: 6fe2 b9be adb2 61bd f1ff 32bf 18a9 353e
00000260: e6aa a7bd 1aaa a23d bbf6 09bd b808 1dbd
00000270: d606 a5be d4fd bbbd 5f45 de3d cd2a ee3d
00000280: 98fd 8dbe e6b9 11bc b98e 213e ed42 81bd
00000290: 2c4a e7bd 07d4 4d3c c8c8 3ebe ef8d 75bc
000002a0: 7877 9439 356f 90bd 4ccc d63d f572 7fbd
000002b0: b93f 2a3c 652f 183c 6179 9bbe 9b68 b8bc
000002c0: 68df adbd f2bd 84bd f6f7 2bbd 0bc2 ff3d
000002d0: 56e4 5a3d b362 bbbd 4cac d7bb 8d1e 45be
000002e0: 7670 5bbd c9c4 53bd 2959 acbd 1044 2dbe
000002f0: 400d c0bd 1d2c 43be 5e7e 513d a516 ec3b
00000300: c5b8 6bbd 0220 853e 941f 113c 0448 d9bc
00000310: f92f 083e 2769 5f3d 3625 bebd 604c 0abe
00000320: 9385 713e 1ca9 11be 477e 003e 0ac2 34be
00000330: 5e2b 82be 53ae d93d 50bb 90bd b2f5 67bd
00000340: 4bb6 b73d 6f37 2a3e 7f8b fdbd a41c 85be
00000350: 5043 1a3d aba6 0abd 9191 94bd 3312 87be
00000360: 8cea e13c e22e 8d3e fcd6 113e 35a5 5d3e
00000370: b472 c6be c984 723e f950 523d d509 eabe
00000380: 3749 973e 3bb8 f0bd f425 8dbd b4c2 d6be
00000390: 20fd b03e 6397 623d 7d11 a3be 704b fbbe
000003a0: 9c54 04be 052c c53d 0f0d 53bd b2ac 9b3d
000003b0: ace8 7a3e 3a2d 123d 5e27 b73e 86ba 28bf
000003c0: b24e 66be 664b de3d 9e99 31bd aab1 98bd
000003d0: f028 823c 0ef6 afbd eec4 97be b6dd efbc
000003e0: dac5 a4be 9724 30bb 677c 09bf bdae bb3d
000003f0: 4f7d 253d e82a dd3b 4bef 893d 9aad 8a3c
-0.41531578 0.04507466 -0.044103272 0.02748367 -0.25035006 -0.033543166 -0.34578037 0.17662284
-0.03356765 0.0731377 -0.13179329 -0.053757407 -0.12494923 -0.033202756 -0.14870061 -0.030990226
-0.10665068 -0.15955284 -0.06505371 -0.14112245 0.014092392 -0.12960188 -0.09287661 0.030395335
-0.24229711 0.07544025 -0.09403199 0.10928486 -0.028299721 -0.041116748 0.073269606 -0.30978698
0.14186922 -0.3084904 0.016661404 -0.06428299 -0.1762322 -0.024453497 0.14355151 -0.17800084
-0.030351924 0.13750285 -0.014412438 -0.12234807 0.17548361 -0.0043979427 -0.2269464 -0.096415356
0.036651608 0.09318238 0.21007061 0.0032372805 -0.15843737 -0.16143003 -0.09052839 -0.13535672
0.1977689 -0.29704458 0.09790322 -0.4049279 0.1557331 0.009388162 -0.15899526 0.047666043
-0.1785283 -0.31192946 0.033568867 0.14729415 0.33792007 -0.0772611 -0.1941222 -0.35353234
-0.20388156 -0.09754018 -0.2504379 -0.04878798 0.09468578 0.16469984 -0.02685746 0.09416808
0.10388893 0.01332451 -0.08286475 0.26741228 0.2784873 0.021949371 -0.32914966 0.37645712
-0.27060297 -0.1372341 0.070853956 -0.31413445 0.09924031 0.15964316 0.1465899 -0.33205813
-0.10021922 0.4149033 0.35993195 -0.37249509 0.096900284 -0.09302674 -0.01677614 0.06092242
0.06697765 0.17227042 0.017001372 -0.03535013 -0.20389898 -0.062522925 0.032185644 -0.5900905
0.22447093 0.3641984 0.26036072 0.36787754 -0.48634133 0.23939037 -0.6859607 -0.3028985
-0.33611813 -0.47504416 -0.16184323 0.0054729213 0.12128469 0.0061948216 -0.16871297 -0.16944866
0.05760136 -0.17790176 0.0076500378 -0.1730157 -0.16575296 0.039144594 0.21695404 -0.08022914
-0.2237888 -0.3368722 0.07584485 -0.07247539 0.12703495 0.3356429 -0.11593192 -0.2222901
0.13414846 -0.32634237 -0.40940097 -0.05800371 -0.36305568 -0.05510204 -0.69921786 0.17740285
-0.08186893 0.079426005 -0.033682566 -0.038338393 -0.32231778 -0.09179273 0.10853075 0.11629257
-0.2773254 -0.008894419 0.157771 -0.06311593 -0.11293444 0.012562758 -0.1863128 -0.014987453
0.0002831777 -0.07052461 0.10488185 -0.06236549 0.010391169 0.0092886435 -0.30366042 -0.022510817
-0.08489877 -0.06481542 -0.04198452 0.12488183 0.053440414 -0.09149685 -0.0065818187 -0.19249935
-0.053574048 -0.05170134 -0.084154435 -0.16920495 -0.09377527 -0.19059797 0.051145904 0.007204848
-0.057549257 0.26000983 0.0088576265 -0.026523598 0.1329955 0.05454364 -0.09284441 -0.13505697
0.23586111 -0.14224666 0.12548171 -0.17652145 -0.25423712 0.10628953 -0.07066977 -0.056630798
0.089703165 0.16622709 -0.123801224 -0.25998414 0.03766185 -0.033850353 -0.07254327 -0.26381072
0.027577661 0.2757483 0.14242166 0.21645053 -0.38759387 0.23683466 0.051346753 -0.45710626
0.29548046 -0.11753889 -0.068920046 -0.41945422 0.3456812 0.055320155 -0.3184928 -0.49080992
-0.12922901 0.09627537 -0.051526126 0.076012984 0.2450282 0.035687663 0.35772222 -0.6590961
-0.22490957 0.10854225 -0.04335939 -0.07455762 0.015888661 -0.08591853 -0.29642433 -0.029280525
-0.321822 -0.0026877278 -0.5370545 0.09164188 0.040402707 0.0067494996 0.06735095 0.016928483

layer2.attn_l f4 [1, 8, 168]
00000000: 7370 323d a23b 11bd 2877 5bbc 2a60 bc3e
00000010: 965a e8bc a391 b83c abdc 99bd 4a18 373f
00000020: a8f5 a7bd 6c78 66bc d259 89b9 6410 873b
00000030: 1faf f0bc edd1 b83d 03fa 89bc 6d3d 613c
00000040: ce3c c3bd e675 f83e 057e 01bc d90e 8dbb
00000050: e6ac 8abd e9ba 95bd 18d3 183f 6129 f03d
00000060: 902f 54bc 542c 54bb ac51 2bbd 846e 1b3d
00000070: 2c5e 05bc 5777 e03a 7bfb b4bc 0957 05bd
00000080: 1d0c f3bc 4c8e 51bd 0a11 29bc 946f 9b3d
00000090: aaaa 2dbd 7ae1 4cbd 8cd5 04bd 3334 7a3d
000000a0: 914f debb 72dc 3bbc 600e c3bc 9010 20bc
000000b0: 806c 77bc ab5c e93b 538a b0bc 0d1d 76bc
000000c0: 5c63 e6bc 5ab2 133a d995 ac3c ac76 5bbb
000000d0: 00e4 343f 7dd9 5bbd 2b1f 2fbd 6d2a f6bc
000000e0: 362a 7bbd f4f5 63bd f06a 7a3b df86 16bc
000000f0: ad55 e8ba ceee c33d f8a8 b03d 923a c139
00000100: 56a0 61bd 65de b1bd 991f 65bd 3cab 113b
00000110: 942e 67bd ff4e a2bd ac28 e1bd 7c4a 85bd
00000120: eb4d abbc b54a aa3a 0101 2c3c 0ed3 7dbd
00000130: de7f 10bc 32ce 76bc 8182 e53d 8e48 b53d
00000140: ef00 993e 2f9f f0bc 0b72 44be c134 15bd
00000150: 6fc5 093e 1f9f 16bd 2c43 1abd ab57 bbbb
00000160: 5eb3 7ebd 4774 2cbc a400 44bd 2a36 69bd
00000170: 01db 573b 0079 27bb 81d4 143e 2752 b33c
00000180: ba99 073e 5d56 b7bc bba7 56bd cab8 0e3f
00000190: 3b46 3abd 9aab 76bc a1e1 23bd 0255 eabc
000001a0: b19c 97bb b061 65bc 3ba4 583e 44d1 03be
000001b0: a999 f8bc 9192 92bc 45b3 50bd cac4 33bc
000001c0: c69a 5fbc 37a4 66bd 04ec 66bb 4059 01bd
000001d0: e7ba 04bd 24b1 9c3c b39c acbd 3b9e e13b
000001e0: bdfa 66bc c7e2 fdbd fc57 11bd 10b4 8abc
000001f0: 92c6 b3ba 3826 03bd 16a4 bb3d fc57 683e
00000200: 2abb be3c 1cab 38bd 4011 773c c1f0 d8bd
00000210: feac 2fbe c8ca f0bb 3a3a 15bb 09fd 31bd
00000220: d802 653e 47e3 e2bb fc55 42bc f6af 99bc
00000230: 0d50 7c3e 5e44 223b 618c 26bd 52d1 bdbd
00000240: 0618 5dbc 503f 4b3e 5d73 8b3d fb97 7a3e
00000250: 3caf 79bd 70cc 1bbe ac9d a8bb 5650 e3bc
00000260: 03dc d7bc b53d c3bc 2a7f 29bd e022 00bc
00000270: b161 cdbd 78d5 68bd 228a 8c3b 2227 9a3c
00000280: d05b 1dbb 4ba0 0ebd e7b4 c8bc b288 923b
00000290: aff9 5bbd 8c72 71be 5594 33bd a870 273f
000002a0: 62d4 3bbd a6b2 893c d89e 50bd fdbb c03e
000002b0: affc 70bd 4ee0 853d 4a2c 27bc 8fbe 1a3f
000002c0: 4fa9 02bc 87ef 5cbd 6468 103e bb47 063e
000002d0: 299a 3fbd ece6 833d a60e c0bb c1b2 a93d
000002e0: e933 13be 5f77 e23e ec10 17bd 114d 86bd
000002f0: 0bdf a6bd e1ae 253c ce8a 1f3f 9bdf 703e
00000300: 68ac fabc cafe 063e 201d 5abd 5fa3 bc3d
00000310: c6de d23c 75d7 603c 79af 06bd 0997 72bd
00000320: 104a 8b3d 7651 cd3c c57b 85bc 0a2e 143e
00000330: 2d89 8a3d 8a74 20bc 2258 33bc b6b2 6b3c
00000340: 26f6 bf3d cf42 293d ba1d f2bc 862b 32bd
00000350: d5b6 c3bb 201e 2e3d a403 0cbd 9aa4 bfbc
00000360: 794e c73d 2f99 72bc bad6 5d3d a904 b8bd
00000370: 2369 6c3f 98af d0bc 72d0 7ebc 1485 25bd
00000380: 6120 013e 8229 8fbd 417d a23c 78d2 2dbd
00000390: 5e90 893d 361e 8b3d dbde 9d3d dcb0 133d
000003a0: 60cb 6cbc 5612 24be 6922 ca3b 2740 be3b
000003b0: f6a5 9fbc e2a8 06be 73fe f0bd 50f3 4ebd
000003c0: 0c06 61bd 308a f83d a214 333d 8f5e 46bd
000003d0: 1967 083c d0c5 85bd 3b99 2cbc c15a f23d
000003e0: 68f9 ef3e 681c a6bd 91d7 b1bd 1c01 223e
000003f0: a1a7 c33d dee7 dbbd 1c84 5bbd 4a00 16ba
0.04356427 -0.03545726 -0.013395108 0.36792117 -0.028363507 0.022530382 -0.07512792 0.7152144
-0.08201152 -0.014066797 -0.00026197598 0.004121827 -0.02938038 0.09024415 -0.016842848 0.013747555
-0.09533082 0.4852745 -0.007903581 -0.0043047485 -0.06771259 -0.07311041 0.59697104 0.117266424
-0.012950793 -0.0032375054 -0.041825935 0.037947193 -0.008140128 0.001712541 -0.022092571 -0.032553706
-0.029668862 -0.051161095 -0.010319004 0.07589641 -0.042399086 -0.05001972 -0.032430217 0.061084937
-0.0067843874 -0.0114661325 -0.023810565 -0.009769574 -0.015101552 0.0071216426 -0.021550333 -0.015021575
-0.02812355 0.00056341814 0.021067547 -0.0033487482 0.706604 -0.05367421 -0.042754333 -0.030049527
-0.061319552 -0.05565448 0.0038210712 -0.009187429 -0.0017725729 0.09567033 0.08625978 0.00036855467
-0.05508455 -0.086849965 -0.055938337 0.0022227308 -0.056440905 -0.079252236 -0.10994086 -0.065083474
-0.020911178 0.0012992235 0.010498286 -0.061968856 -0.008819548 -0.015063809 0.11206532 0.08851729
0.29883525 -0.02937278 -0.19184129 -0.036427263 0.13454221 -0.036772843 -0.037661716 -0.005717238
-0.062182777 -0.01052577 -0.047852173 -0.05693642 0.0032936933 -0.00255543 0.14534189 0.02188976
0.13242236 -0.022380048 -0.052406054 0.55750716 -0.045477133 -0.015055561 -0.0400101 -0.028604988
-0.0046268334 -0.014000341 0.21156399 -0.12872797 -0.030346708 -0.017892154 -0.050952215 -0.010972211
-0.013647741 -0.05630895 -0.003523589 -0.031579256 -0.032404806 0.019127436 -0.084283255 0.0068853176
-0.014097867 -0.1239677 -0.0354843 -0.016931564 -0.0013715795 -0.03201887 0.09162156 0.22689813
0.023282606 -0.045085058 0.015079796 -0.10592795 -0.17155835 -0.007348392 -0.0022770301 -0.043454204
0.22364366 -0.006924066 -0.011861321 -0.018760663 0.24639912 0.0024759988 -0.04066122 -0.0926844
-0.013494497 0.1984837 0.06809113 0.24472038 -0.060958132 -0.15214705 -0.005145749 -0.027748268
-0.026350027 -0.023833135 -0.04138104 -0.007820815 -0.10028399 -0.056844205 0.0042889277 0.018817488
-0.0024011023 -0.034820836 -0.024500323 0.0044718618 -0.053704914 -0.23578852 -0.043842632 0.65406275
-0.04585684 0.016808819 -0.050932735 0.37643424 -0.058834728 0.06536923 -0.01020343 0.6044702
-0.007974937 -0.05393937 0.14102322 0.131133 -0.046777878 0.06440529 -0.005861121 0.08286048
-0.14375271 0.44231698 -0.036881372 -0.06557668 -0.08148011 0.010112495 0.62321174 0.23522799
-0.030599788 0.13183132 -0.053250432 0.09210848 0.025740992 0.013723244 -0.032882188 -0.05922607
0.06801236 0.025063258 -0.01629437 0.14470688 0.067644455 -0.00979341 -0.0109463055 0.01438587
0.09373121 0.04132348 -0.02955519 -0.04349854 -0.005972723 0.0425092 -0.03418316 -0.023393918
0.09731764 -0.01480703 0.054159857 -0.08985264 0.92347926 -0.025474355 -0.015552627 -0.040410116
0.12610008 -0.06990339 0.019835116 -0.042437047 0.06716989 0.06792872 0.07708522 0.036057338
-0.014452785 -0.1602262 0.006168653 0.0058059874 -0.019488316 -0.13150361 -0.11767282 -0.05052501
-0.054937407 0.12135732 0.04372085 -0.04843002 0.008325362 -0.0653187 -0.01053458 0.11833716
0.4686997 -0.08110887 -0.08683694 0.15820736 0.09553457 -0.107375845 -0.053592786 -0.0005722089

layer2.attn_r f4 [1, 8, 168]
00000000: a697 083c 3f42 103d 1fa6 a1bb 7b52 2dbc
00000010: 487d b5bc 07de 97bb f915 4d3b c65b d4bd
00000020: cd9e e93c 455a 21bc ef4f 5abc d5cd 8ebc
00000030: 94a8 20ba a52d 39bd a445 aebc 57d7 f2bc
00000040: f63f 00bd 0c42 e1bd 42c8 5dbc 9830 573c
00000050: f735 6d3c dd0c df3c ed7c 083c 798a b83c
00000060: c1d1 56bc 0b71 21bd b11f 693c 9aaa 8a3c
00000070: 8fd4 12bc 01a6 293c fc3c d6bb fead 993c
00000080: 513b a6bb 760d 95bb 6b27 5d3b 34b3 4abc
00000090: 5b98 463c 05e3 3c3c fb43 d93c d4b8 d8bb
000000a0: 8174 31bc 87f7 54bc c65c cbba e510 a53c
000000b0: 789b 273c 92c7 edbc 83a2 09bc 9d0b be3c
000000c0: c0bd 153c 0b35 87bc 1f18 81bc 0029 1cbc
000000d0: 1728 9dba cdc5 363d a213 263b f0e0 0a3c
000000e0: 046a 1dbd 9b55 ac3b a8eb 113c 9990 8e3c
000000f0: 2f19 c3bc 3acd a13c ecdc 3dbc 827f 6cbc
00000100: a700 d43a 8c56 ca3c f633 52bc f058 563b
00000110: 07ed 023d df99 adbc 50fd 13bd 37ea 9e3b
00000120: 9bf6 b33a c93b 07bc 571c 81bc 2be0 69bb
00000130: 89d5 f23c 9c09 473c b5a9 5ebc c64e 8cbd
00000140: a1c0 e2bc f540 bebb 8b41 73bd ac34 f9bb
00000150: 515e 443c dd9f 85bd a54d 5d3a b2ca f5bc
00000160: 3f4a 573c abf0 e0bc 5613 323c 192e faba
00000170: ccf2 e639 3d96 4b3a efc1 e9bb 300e 133b
00000180: 39a6 adbb a246 a6bc 9e13 453b 5c8f 7f3b
00000190: fc75 5d3d 8969 e13b 193f fb3c 557c 13bd
000001a0: dd3f 1bbc 0f07 eabc 0988 72bd 349e a43c
000001b0: 218c f6bc 4736 d63c 8e78 1ebc 3002 f33c
000001c0: bb15 afbb bf77 52bd 32b8 a53c 11a3 0dbc
000001d0: 78cb 06bc 0cec 383c 86b2 2cbd 2ab8 ab3a
000001e0: a809 f0bc fc94 903a 0df9 fbbc 01bc e6bc
000001f0: c29e 383b df2e 93bb 9480 27bc d199 ba3d
00000200: 72df 963c 69f2 1d3b 475f cbbc 2351 1d3c
00000210: c836 b73a 459f 3e3b f64b 1bbc 062a f23c
00000220: 5a74 0bbd cdc3 16bc d881 73bc 8778 103b
00000230: 7290 36bd 78c6 8dbc 913e 3fbb 7bcb 57bc
00000240: 4fbf 6dbc 3a62 c23a 00a3 77bc cc1a 01bc
00000250: aa51 44bc 9fe6 04bd 7090 c4bc 783e 563b
00000260: 066f 693b 143a 85bb 29f9 c6bc 605b a4bc
00000270: 6794 e3bb 19e9 473d 34e1 a13c e6b4 2abd
00000280: d84d da3c 3f5e 1f3d 1850 973c 2980 a2bc
00000290: 2faf 3e3d b499 90bd 2209 ff3b c25a a13a
000002a0: 1f9d 8a3f 5351 c63f 9ec0 c23f e4fa 7b3f
000002b0: 2f91 c33f 8bb2 873f a059 ca3f eabf a6bf
000002c0: 6bae c73f dba5 bd3f 5454 453f 9691 213f
000002d0: d2ee b13f 5761 893f b96b cf3f 98a4 8a3f
000002e0: 0c67 b7bf 8a71 42bf 814e c03f 3e15 b63f
000002f0: 041d b43f 1851 d13f 3968 a83d 9d8e 813f
00000300: 9e22 c83f 4478 26bf 618c b93f 6bbc 893f
00000310: 1718 a13f 5c54 9f3f d139 c13f 889b ba3f
00000320: 9ae2 883f 4dc2 ba3f a25d c83f 1b2d 8b3f
00000330: 0bf9 843f 4bd8 ca3f 4bec c83f a987 863f
00000340: c7ff 8c3f 74b8 a73f 8cbb bd3f d1ff c13f
00000350: 90c8 d43f 22ba 8f3f 2c4f bd3f e616 c63f
00000360: 0ccb 4c3f 6165 cc3f 8d04 893f ea49 b53f
00000370: 6e19 a8bf 4c77 c43f d920 bf3f afa2 bc3f
00000380: 0d10 843f d30f c13f e542 d13f 552c c23f
00000390: 0f84 8a3f 9a36 8c3f 3fde 8a3f e1ad 943f
000003a0: ccf9 ca3f b937 973f fbe0 d63f c2e3 8b3f
000003b0: 9279 c43f 7da6 aabf 48ab b6bf 0940 b93f
000003c0: 2385 8c3f 6fa8 893f 32d8 b53f 0d42 bd3f
000003d0: 2b42 d53f 9a49 b43f de27 893f 9b6b 8a3f
000003e0: 00dc 773f 8269 b83f 547f 86bf d1bd 923d
000003f0: 0dca 813f ddd9 b3bf 93f5 b83f 343a d13f
0.008336937 0.035219427 -0.0049331333 -0.010578747 -0.022154465 -0.004634622 0.0031293614 -0.10369067
0.028518105 -0.009848182 -0.013324722 -0.017432133 -0.0006128636 -0.045209546 -0.021273442 -0.029643698
-0.031310998 -0.109989256 -0.013536515 0.013134144 0.014478198 0.027227813 0.008330566 0.022526966
-0.013111533 -0.039414447 0.014228747 0.016927052 -0.008961811 0.01035452 -0.0065380316 0.018759724
-0.005072989 -0.004548724 0.0033745419 -0.012371827 0.012121285 0.011528735 0.026521673 -0.00661383
-0.010830999 -0.012998468 -0.001551532 0.020149658 0.010229938 -0.029025827 -0.008400562 0.023198897
0.009139478 -0.016504785 -0.015758572 -0.00953126 -0.0011990097 0.04462223 0.0025341292 0.008476481
-0.038431183 0.0052592284 0.0089062825 0.017402934 -0.02381572 0.01975118 -0.011588316 -0.014434697
0.0016174511 0.024699472 -0.012829771 0.003270682 0.03196433 -0.021191536 -0.03613025 0.004849698
0.001373011 -0.008254 -0.015760584 -0.0035686593 0.029642837 0.012148287 -0.013590266 -0.06850962
-0.027679743 -0.0058060833 -0.05938868 -0.007605156 0.011985377 -0.06524632 0.0008442051 -0.03000388
0.01314026 -0.02745851 0.010868868 -0.0019087225 0.00044049916 0.00077662227 -0.0071337144 0.0022438876
-0.0052993563 -0.020297352 0.0030071507 0.003899536 0.054067597 0.006879036 0.030669736 -0.036007244
-0.009475675 -0.028567819 -0.059211764 0.020094968 -0.030096116 0.026148928 -0.009672297 0.029664129
-0.0053431666 -0.05138373 0.020229433 -0.008644835 -0.008227222 0.011286747 -0.04216244 0.001310115
-0.02930148 0.0011030729 -0.030758405 -0.02816582 0.00281708 -0.0044916715 -0.0102235265 0.091113694
0.018417094 0.0024100787 -0.024825705 0.009601864 0.0013978118 0.0029086631 -0.00947856 0.029561054
-0.03404651 -0.009201956 -0.0148625 0.0022044496 -0.044571348 -0.017306551 -0.002918158 -0.013171072
-0.014510944 0.0014830299 -0.015114546 -0.007879924 -0.011982361 -0.0324465 -0.023994654 0.0032691043
0.0035619154 -0.0040657613 -0.02428873 -0.020063102 -0.006945181 0.048806284 0.019760706 -0.041676424
0.026648447 0.03890824 0.018470809 -0.019836502 0.046553787 -0.070605665 0.007783071 0.0012310373
1.08292 1.5493568 1.5215032 0.98429704 1.5278682 1.0601362 1.5808601 -1.3027318
1.5600103 1.481624 0.770818 0.6311277 1.3901007 1.0732831 1.6204749 1.083148
-1.4328322 -0.75954497 1.5023957 1.4225233 1.4071355 1.6352873 0.08223004 1.0121647
1.5635564 -0.6502726 1.4495965 1.0760626 1.2585477 1.244762 1.5095769 1.4578714
1.0694153 1.4590546 1.5653574 1.087314 1.0388502 1.5847257 1.5697111 1.051015
1.1015557 1.3103166 1.482286 1.5156194 1.6623707 1.1228678 1.4789786 1.5475738
0.79997325 1.5968438 1.0704514 1.4163182 -1.313276 1.5348907 1.4931899 1.4737147
1.0317398 1.5082954 1.634854 1.5169779 1.0821551 1.0954163 1.0849074 1.1615564
1.5857482 1.181388 1.6787409 1.0928881 1.53496 -1.3332058 -1.4271021 1.4472667
1.097813 1.0754527 1.4206603 1.4785782 1.6660818 1.4084961 1.0715292 1.0814089
0.9682007 1.4407198 -1.0507607 0.07165111 1.0139786 -1.4050862 1.4449943 1.6345887

layer2.bias f4 [1344]
00000000: 57a6 2d3f 79de 8b3f 9b60 853f b5aa 5dc0
00000010: 3200 8d3f 486d 303f bece 0fc0 d382 46c0
00000020: f7f0 63be cb54 8a3f aed0 873f dcd5 8b3f
00000030: 5ec5 8a3f a277 2d3f fdeb 8a3f 2c78 293f
00000040: 14fd 17c0 e2a5 89c0 8414 8c3f 2862 873f
00000050: fe26 873f f700 70bf eb08 46c1 6b11 c7bf
00000060: 1b00 883f 5b16 6cc0 214c 873f a29d 2c3f
00000070: a643 17c0 846a 8dbd 55b7 873f fea7 873f
00000080: 089b 00c0 e33f 8a3f ad9c 8c3f 6742 91bf
00000090: 9b35 8b3f bbec a9be a7c8 893f 32f7 243f
000000a0: 9427 90bf 39f6 873f 3fa7 893f aca9 8c3f
000000b0: 9447 8d3f 36bf 2b3f 2ce2 873f a954 873f
000000c0: b58b 8b3f b40f 893f 77f7 2a3f b246 d0bf
000000d0: 4df2 bcbf 0674 8e3f 1ebd 843f ec62 893f
000000e0: 0916 2d3f 011a 8b3f beda 5b3f 385b 86bf
000000f0: f34b 8c3f facc 2d3f 12c1 8ebf c169 863f
00000100: 591e 8fbe fe67 0ac1 03d7 adbf dd51 313f
00000110: fb80 86be da6a e4bf 77dd edbe 993c 883f
00000120: d4dc 283f d463 2e3f 15e1 883f fed0 873f
00000130: 4471 883f f1ec 68bf 9d98 293f 3059 313f
00000140: 3134 5cc0 bf5d 863f 31cc b6bf 78f7 893f
00000150: f16e bebf 91b7 433f 70d5 873f 70ff 843f
00000160: 61ca 7bbe aa46 2f3f 249e 73be b442 70bf
00000170: 76a0 893f 652a 66be 48e7 293f 9fc4 283f
00000180: 3e1e 28c0 3d76 8a3f 1310 8e3f d0f4 c9c0
00000190: 54b9 59be e38e 78bf 6168 8c3f 8681 9bbe
000001a0: e2dd 893f a036 00c0 43cf eebf e447 82be
000001b0: 855c aebf 7829 863f 6335 7fbe 6bef 893f
000001c0: c7aa 8a3f 667f 8abe 06b5 99be 21da bdbf
000001d0: 0158 893f 861b 2a3f 55dc f83e d098 893f
000001e0: 6ff4 90bf ffc1 853f 1423 fd3e 757b 60c0
000001f0: 39fd 8a3f 0e23 863f 3af2 303f 7a72 9ebf
00000200: ba62 1dc0 32da 9abe 1390 2e3f de7e dcbf
00000210: deaa 3ec0 0843 81be df95 94c0 af9c 8a3f
00000220: f473 25c0 90e9 893f 4a32 c6bf cacf 843f
00000230: c08f 25c0 9914 85be 5e1a 8b3f 8fc6 8b3f
00000240: 60e7 843f 922b 27c0 528e 40c0 51a8 c2bf
00000250: 4a32 41be da36 38bf 011f 893f 60e4 8d3f
00000260: c337 8b3f 565b 853f 036a 26c0 61c3 a7bf
00000270: 5f54 0ac0 45f5 8a3f f965 883f 2075 b7bf
00000280: e790 7fbe ff33 30c0 38bb 8b3f be59 8b3f
00000290: aebe 8d3f c85e 963d a687 75bf abcd 5cc1
000002a0: 57a6 2d3f 79de 8b3f 9b60 853f b5aa 5dc0
000002b0: 3200 8d3f 486d 303f bece 0fc0 d382 46c0
000002c0: f7f0 63be cb54 8a3f aed0 873f dcd5 8b3f
000002d0: 5ec5 8a3f a277 2d3f fdeb 8a3f 2c78 293f
000002e0: 14fd 17c0 e2a5 89c0 8414 8c3f 2862 873f
000002f0: fe26 873f f700 70bf eb08 46c1 6b11 c7bf
00000300: 1b00 883f 5b16 6cc0 214c 873f a29d 2c3f
00000310: a643 17c0 846a 8dbd 55b7 873f fea7 873f
00000320: 089b 00c0 e33f 8a3f ad9c 8c3f 6742 91bf
00000330: 9b35 8b3f bbec a9be a7c8 893f 32f7 243f
00000340: 9427 90bf 39f6 873f 3fa7 893f aca9 8c3f
00000350: 9447 8d3f 36bf 2b3f 2ce2 873f a954 873f
00000360: b58b 8b3f b40f 893f 77f7 2a3f b246 d0bf
00000370: 4df2 bcbf 0674 8e3f 1ebd 843f ec62 893f
00000380: 0916 2d3f 011a 8b3f beda 5b3f 385b 86bf
00000390: f34b 8c3f facc 2d3f 12c1 8ebf c169 863f
000003a0: 591e 8fbe fe67 0ac1 03d7 adbf dd51 313f
000003b0: fb80 86be da6a e4bf 77dd edbe 993c 883f
000003c0: d4dc 283f d463 2e3f 15e1 883f fed0 873f
000003d0: 4471 883f f1ec 68bf 9d98 293f 3059 313f
000003e0: 3134 5cc0 bf5d 863f 31cc b6bf 78f7 893f
000003f0: f16e bebf 91b7 433f 70d5 873f 70ff 843f
0.6783194 1.0927268 1.0420107 -3.4635441 1.1015685 0.6891675 -2.2469935 -3.1017349
-0.2225989 1.0807127 1.0610559 1.092464 1.0841482 0.6776067 1.0853268 0.6619899
-2.3748217 -4.3014994 1.0943761 1.057683 1.0558774 -0.9375147 -12.377177 -1.555219
1.0625032 -3.6888645 1.0570108 0.6742803 -2.363504 -0.06905082 1.0602823 1.0598142
-2.0094624 1.0800747 1.0985314 -1.1348389 1.0875734 -0.33188424 1.0764359 0.6443969
-1.1262078 1.0622016 1.0754164 1.098928 1.1037469 0.6708864 1.0615897 1.0572711
1.090201 1.0707917 0.6678385 -1.6271574 -1.4761444 1.1129158 1.0370214 1.0733314
0.6761175 1.0867311 0.8588065 -1.0496588 1.0960678 0.67890894 -1.115267 1.0501024
-0.2795284 -8.650389 -1.3581241 0.6926554 -0.2627028 -1.7845109 -0.46458027 1.0643493
0.65961957 0.68121076 1.069369 1.0610654 1.0659566 -0.90986544 0.66248494 0.69276714
-3.4406855 1.0497359 -1.4281064 1.0778646 -1.4877607 0.76451975 1.0612011 1.0390453
-0.2458892 0.684672 -0.23790795 -0.9385178 1.0752094 -0.2247711 0.6636853 0.6592502
-2.6268458 1.0817333 1.1098655 -6.3111343 -0.21262103 -0.9709303 1.0969354 -0.30372256
1.0770838 -2.003334 -1.8657001 -0.25445473 -1.3621985 1.0481405 -0.24922709 1.077619
1.0833367 -0.27050322 -0.30020922 -1.4832193 1.0729982 0.6644825 0.486056 1.074976
-1.1324595 1.0449828 0.49440825 -3.5075352 1.0858527 1.0479448 0.6911961 -1.2378685
-2.4591508 -0.30244595 0.6818859 -1.7226217 -2.979179 -0.25246453 -4.643295 1.0829066
-2.5852022 1.0774403 -1.5484097 1.0375912 -2.5868988 -0.25992277 1.0867422 1.091997
1.038311 -2.6120343 -3.0086865 -1.5207616 -0.1886684 -0.71958697 1.0712587 1.108532
1.0876392 1.0418499 -2.6002204 -1.31065 -2.1613996 1.08561 1.065612 -1.4332619
-0.2495762 -2.7531736 1.091651 1.0886762 1.1073816 0.07342297 -0.9591011 -13.800212
0.6783194 1.0927268 1.0420107 -3.4635441 1.1015685 0.6891675 -2.2469935 -3.1017349
-0.2225989 1.0807127 1.0610559 1.092464 1.0841482 0.6776067 1.0853268 0.6619899
-2.3748217 -4.3014994 1.0943761 1.057683 1.0558774 -0.9375147 -12.377177 -1.555219
1.0625032 -3.6888645 1.0570108 0.6742803 -2.363504 -0.06905082 1.0602823 1.0598142
-2.0094624 1.0800747 1.0985314 -1.1348389 1.0875734 -0.33188424 1.0764359 0.6443969
-1.1262078 1.0622016 1.0754164 1.098928 1.1037469 0.6708864 1.0615897 1.0572711
1.090201 1.0707917 0.6678385 -1.6271574 -1.4761444 1.1129158 1.0370214 1.0733314
0.6761175 1.0867311 0.8588065 -1.0496588 1.0960678 0.67890894 -1.115267 1.0501024
-0.2795284 -8.650389 -1.3581241 0.6926554 -0.2627028 -1.7845109 -0.46458027 1.0643493
0.65961957 0.68121076 1.069369 1.0610654 1.0659566 -0.90986544 0.66248494 0.69276714
-3.4406855 1.0497359 -1.4281064 1.0778646 -1.4877607 0.76451975 1.0612011 1.0390453

layer2.fc.weight f4 [1344, 128]
00000000: b468 acbd 06e4 cabe 79fc 06bf 7d62 92bd
00000010: 79ef d1be 2e53 e5bd deef d7bd 44cb 09be
00000020: 045e 2fbd 7603 41be 373c cbbd 21d3 06be
00000030: 14d8 90bd bd1e 50bf 1e49 84bd 2515 43be
00000040: 0cfc 75be 89e9 a2be b3f3 86bd d1ab afbe
00000050: 5637 bbbd 9711 dbbd ae07 ffbe fa0a fabd
00000060: bca7 9dbd a23d bcbb 3c41 34be 5225 37bd
00000070: a041 86be 69fa babd b9d2 13bf 11c0 0abe
00000080: 1849 8bbe 1b4f 36bd cbd8 8abe 0504 1abf
00000090: 67c8 efbe bb4e c7bd 1a70 ccbd 63e0 0fbf
000000a0: 3129 0cbe 617c 00bf f417 79bd 1e17 60bf
000000b0: 257f b4bd e0c7 9cbc 59af e4bd c577 73be
000000c0: 20cb 08bf a77c 69bd 78e8 9abd 5dd0 0dbf
000000d0: 5e82 39be 7947 c2bd 1230 01bf 6d44 a3bd
000000e0: f0ab 2bbe 8822 9fbd 4198 55be a518 4bbe
000000f0: d5a0 26bd ac3d 2bbe b1ac c0be e3fe d1bd
00000100: ae09 ccbe e861 36be a2dd 30be 2f10 91bd
00000110: f6c8 81bd c05d ddbd 0b35 8dbe 033c d8bd
00000120: 96c5 e7be 42f3 23be ddcd e0bd 278c 73bd
00000130: fff2 f6bd a5ec 6fbd baf7 07bf 55f2 80bd
00000140: 33ef 85be 4d31 75be c674 89bd 3a13 d9bd
00000150: afb2 0dbe 21cc 06bf 1288 d7bc 2709 99bd
00000160: 8501 88be ce0b 66be 46a8 89bd 7148 45be
00000170: 5760 dabd 8d80 5dbf ecae b4bd 8688 8abe
00000180: 3839 87be cf2f 6dbe f930 ddbd 10ab 03bf
00000190: 1ffc b5bd cbf1 dabd ffbe 98bd fc15 cdbd
000001a0: c284 25bf 7e11 00be 6349 4cbd 1aa6 b5be
000001b0: a738 c7bd 32df 99be 955a 8cbd 2a20 1cbe
000001c0: 281c 83bd 7612 cebd 7e38 00bf 616b 25bf
000001d0: 6af3 f4be 8291 dcbd 6728 f1be 97a5 83be
000001e0: ba78 b4bd 31bb f2bd 95bd 58be 0edb dbbd
000001f0: 0e9b b0bd 846c 9dbd 3ac3 2cbe 8a2a 5fbe
00000200: ec5e abbe 66d3 83bf 9b01 4dbf 628f 86be
00000210: 47a3 6ebf 957c 6fbe 784a 4cbe 0a9c d7be
00000220: e100 70be d22e 50be 6950 59be 6489 93be
00000230: dd27 7bbe 8ac7 69bf 4c67 81be 049e 0dbe
00000240: 6036 4dbe 5bbc 68bf 15dd 50be 25bd fcbe
00000250: d5f0 13be 57f5 e3be 4bb4 80bf dfa0 1dbe
00000260: 8704 e8be 4199 603e 4b24 bfbe 8ba5 803c
00000270: b698 27bf 9cff 95bc 62de f5be 1010 72be
00000280: 5caf 54bf 6006 89bf 79ff 26bf 2085 49bf
00000290: 1b16 62bf e8a9 5fbe bf88 a4be 170b 37bf
000002a0: d801 dabe efe6 fdbe 2162 e8bd da19 99bf
000002b0: 5cef 9cbe 18b3 7bbe 0fc8 31bf 85aa 7cbe
000002c0: dd96 78bf 0d18 a9be c07d 3bbe fd13 9e3d
000002d0: e13d 5cbf cd46 94be ea09 713d 849a aebd
000002e0: c524 fdbe 4fba 8ebe 7702 c6be c3fe bdbe
000002f0: b916 19bf 8511 5bbf 942f f8be 955f 86be
00000300: 741e 40bf c658 20bf 72fd e4be 0afd b0be
00000310: be2e babe 2146 e6be e173 afbe dbb3 39be
00000320: b301 59bf e13e b5be ec8b 5ebe 4639 c2be
00000330: b815 eabc 7058 cfbe 658f 93bf 50f5 49be
00000340: 8795 83be 2d50 0dbf e324 8dbe d301 3cbe
00000350: c250 cfbe ecfe 78bf cf08 77be 150b 1cbe
00000360: 44cc 41bf 3faa 90bf d303 c9be adc7 67bf
00000370: 8b88 c7be 75b3 82bf 7e41 60be 4310 fcbe
00000380: 55e9 bfbe 1790 33bf bf5d 9fbe e696 36bf
00000390: 4faf 9fbe 18e3 f4bd 176c 1cbf c129 803d
000003a0: 3ecf a8be bfff 9fbe f7af 70be 5810 dfbe
000003b0: 0a07 51be 7275 70bf 715c c0be 6212 46be
000003c0: 787e 7fbe ffaa 72be 98a5 31bf 8587 6ebf
000003d0: 88a6 4abf d0e9 adbe 5737 5bbf 6d28 06bf
000003e0: 2c07 02be 7f4a d7be e4ae 7bbf 2aff c5be
000003f0: 68ab d3be 113b 3abd 82af 3bbf 5029 37bf
-0.08418408 -0.39627093 -0.5272899 -0.071476914 -0.41003016 -0.11197506 -0.10543798 -0.13456446
-0.04281427 -0.18848976 -0.099235944 -0.13166477 -0.07072464 -0.812969 -0.064592585 -0.19051035
-0.2402193 -0.31818798 -0.06589451 -0.34310773 -0.09141414 -0.10696714 -0.49810547 -0.12209125
-0.076980084 -0.005744652 -0.1760301 -0.044713326 -0.26221943 -0.09129793 -0.5774341 -0.1354983
-0.27204204 -0.044509035 -0.27118525 -0.60162383 -0.46832582 -0.097318135 -0.09982319 -0.5620176
-0.13687588 -0.5018979 -0.06081386 -0.87535274 -0.088133134 -0.019138277 -0.111662574 -0.23776157
-0.53434944 -0.057003643 -0.07563871 -0.5539606 -0.18116137 -0.094862886 -0.50463974 -0.079720356
-0.16764808 -0.07770258 -0.20858862 -0.1983362 -0.040680725 -0.16722745 -0.37631753 -0.10253694
-0.39851135 -0.17810786 -0.17272046 -0.07083165 -0.063371584 -0.10808897 -0.2757953 -0.10558321
-0.45267934 -0.16010764 -0.10976765 -0.05945983 -0.120580666 -0.05857529 -0.53112376 -0.06296221
-0.26159057 -0.23944588 -0.06711726 -0.1059937 -0.13837694 -0.52655226 -0.02631 -0.07472449
-0.2656366 -0.2246544 -0.06721549 -0.19265915 -0.106629066 -0.8652428 -0.08822426 -0.27057284
-0.26410842 -0.23162769 -0.108003564 -0.51432896 -0.08885979 -0.106906496 -0.074583046 -0.10013959
-0.646557 -0.12506673 -0.049874675 -0.35478288 -0.097276025 -0.30053097 -0.06853215 -0.15246645
-0.06401855 -0.10062115 -0.500862 -0.6461697 -0.4784196 -0.10769941 -0.47101137 -0.25712273
-0.08812089 -0.1185211 -0.2116607 -0.10735141 -0.08623324 -0.07686713 -0.16871348 -0.21793571
-0.33470857 -1.0298889 -0.80080575 -0.26281267 -0.9321789 -0.23387368 -0.19950283 -0.42111236
-0.23437835 -0.2033036 -0.2122208 -0.28815758 -0.24526925 -0.913201 -0.25274122 -0.1382981
-0.20040274 -0.9091241 -0.20396836 -0.49363056 -0.14447339 -0.44523117 -1.0055021 -0.15393399
-0.45315954 0.21933462 -0.37332377 0.015703937 -0.65467393 -0.01831036 -0.48021227 -0.2363894
-0.8308008 -1.070507 -0.6523357 -0.7871876 -0.8831498 -0.21842158 -0.3213558 -0.71501297
-0.42579532 -0.4959025 -0.113468416 -1.1961014 -0.30651367 -0.24580038 -0.6944589 -0.24674423
-0.971052 -0.33026162 -0.18309689 0.07718656 -0.8603192 -0.28960267 0.058847345 -0.08525565
-0.49442115 -0.27876517 -0.38673756 -0.3710843 -0.598003 -0.8557361 -0.484738 -0.26244798
-0.7504647 -0.6263546 -0.44724613 -0.34568053 -0.36363786 -0.4497538 -0.34268096 -0.18135016
-0.8476822 -0.35399535 -0.21733063 -0.3793432 -0.02857481 -0.4049716 -1.1528136 -0.19722486
-0.25700018 -0.55200464 -0.27567205 -0.18360071 -0.404913 -0.9726398 -0.24124454 -0.15238602
-0.7570231 -1.1301955 -0.3926073 -0.90539056 -0.38971362 -1.0211016 -0.21899983 -0.49231157
-0.37482706 -0.7014174 -0.3112621 -0.71324 -0.31188437 -0.11957377 -0.6110243 0.06257964
-0.32970613 -0.31249806 -0.23504625 -0.43567157 -0.20412841 -0.9392921 -0.37570527 -0.1934295
-0.24950588 -0.23698042 -0.693933 -0.93175536 -0.79160357 -0.33967447 -0.85631317 -0.52405435
-0.12698048 -0.42049024 -0.98313737 -0.38671237 -0.4134171 -0.045466486 -0.7331468 -0.7154741

batchnorm1.weight f4 [128]
00000000: 0000 803f 0000 803f 0000 803f 0000 803f
00000010: 0000 803f 0000 803f 0000 803f 0000 803f
00000020: 0000 803f 0000 803f 0000 803f 0000 803f
00000030: 0000 803f 0000 803f 0000 803f 0000 803f
00000040: 0000 803f 0000 803f 0000 803f 0000 803f
00000050: 0000 803f 0000 803f 0000 803f 0000 803f
00000060: 0000 803f 0000 803f 0000 803f 0000 803f
00000070: 0000 803f 0000 803f 0000 803f 0000 803f
00000080: 0000 803f 0000 803f 0000 803f 0000 803f
00000090: 0000 803f 0000 803f 0000 803f 0000 803f
000000a0: 0000 803f 0000 803f 0000 803f 0000 803f
000000b0: 0000 803f 0000 803f 0000 803f 0000 803f
000000c0: 0000 803f 0000 803f 0000 803f 0000 803f
000000d0: 0000 803f 0000 803f 0000 803f 0000 803f
000000e0: 0000 803f 0000 803f 0000 803f 0000 803f
000000f0: 0000 803f 0000 803f 0000 803f 0000 803f
00000100: 0000 803f 0000 803f 0000 803f 0000 803f
00000110: 0000 803f 0000 803f 0000 803f 0000 803f
00000120: 0000 803f 0000 803f 0000 803f 0000 803f
00000130: 0000 803f 0000 803f 0000 803f 0000 803f
00000140: 0000 803f 0000 803f 0000 803f 0000 803f
00000150: 0000 803f 0000 803f 0000 803f 0000 803f
00000160: 0000 803f 0000 803f 0000 803f 0000 803f
00000170: 0000 803f 0000 803f 0000 803f 0000 803f
00000180: 0000 803f 0000 803f 0000 803f 0000 803f
00000190: 0000 803f 0000 803f 0000 803f 0000 803f
000001a0: 0000 803f 0000 803f 0000 803f 0000 803f
000001b0: 0000 803f 0000 803f 0000 803f 0000 803f
000001c0: 0000 803f 0000 803f 0000 803f 0000 803f
000001d0: 0000 803f 0000 803f 0000 803f 0000 803f
000001e0: 0000 803f 0000 803f 0000 803f 0000 803f
000001f0: 0000 803f 0000 803f 0000 803f 0000 803f
1.0 1.0 1.0 1.0 1.0 1.0 1.0 1.0
1.0 1.0 1.0 1.0 1.0 1.0 1.0 1.0
1.0 1.0 1.0 1.0 1.0 1.0 1.0 1.0
1.0 1.0 1.0 1.0 1.0 1.0 1.0 1.0
1.0 1.0 1.0 1.0 1.0 1.0 1.0 1.0
1.0 1.0 1.0 1.0 1.0 1.0 1.0 1.0
1.0 1.0 1.0 1.0 1.0 1.0 1.0 1.0
1.0 1.0 1.0 1.0 1.0 1.0 1.0 1.0
1.0 1.0 1.0 1.0 1.0 1.0 1.0 1.0
1.0 1.0 1.0 1.0 1.0 1.0 1.0 1.0
1.0 1.0 1.0 1.0 1.0 1.0 1.0 1.0
1.0 1.0 1.0 1.0 1.0 1.0 1.0 1.0
1.0 1.0 1.0 1.0 1.0 1.0 1.0 1.0
1.0 1.0 1.0 1.0 1.0 1.0 1.0 1.0
1.0 1.0 1.0 1.0 1.0 1.0 1.0 1.0
1.0 1.0 1.0 1.0 1.0 1.0 1.0 1.0

batchnorm1.bias f4 [128]
00000000: 0000 0000 0000 0000 0000 0000 0000 0000
00000010: 0000 0000 0000 0000 0000 0000 0000 0000
00000020: 0000 0000 0000 0000 0000 0000 0000 0000
00000030: 0000 0000 0000 0000 0000 0000 0000 0000
00000040: 0000 0000 0000 0000 0000 0000 0000 0000
00000050: 0000 0000 0000 0000 0000 0000 0000 0000
00000060: 0000 0000 0000 0000 0000 0000 0000 0000
00000070: 0000 0000 0000 0000 0000 0000 0000 0000
00000080: 0000 0000 0000 0000 0000 0000 0000 0000
00000090: 0000 0000 0000 0000 0000 0000 0000 0000
000000a0: 0000 0000 0000 0000 0000 0000 0000 0000
000000b0: 0000 0000 0000 0000 0000 0000 0000 0000
000000c0: 0000 0000 0000 0000 0000 0000 0000 0000
000000d0: 0000 0000 0000 0000 0000 0000 0000 0000
000000e0: 0000 0000 0000 0000 0000 0000 0000 0000
000000f0: 0000 0000 0000 0000 0000 0000 0000 0000
00000100: 0000 0000 0000 0000 0000 0000 0000 0000
00000110: 0000 0000 0000 0000 0000 0000 0000 0000
00000120: 0000 0000 0000 0000 0000 0000 0000 0000
00000130: 0000 0000 0000 0000 0000 0000 0000 0000
00000140: 0000 0000 0000 0000 0000 0000 0000 0000
00000150: 0000 0000 0000 0000 0000 0000 0000 0000
00000160: 0000 0000 0000 0000 0000 0000 0000 0000
00000170: 0000 0000 0000 0000 0000 0000 0000 0000
00000180: 0000 0000 0000 0000 0000 0000 0000 0000
00000190: 0000 0000 0000 0000 0000 0000 0000 0000
000001a0: 0000 0000 0000 0000 0000 0000 0000 0000
000001b0: 0000 0000 0000 0000 0000 0000 0000 0000
000001c0: 0000 0000 0000 0000 0000 0000 0000 0000
000001d0: 0000 0000 0000 0000 0000 0000 0000 0000
000001e0: 0000 0000 0000 0000 0000 0000 0000 0000
000001f0: 0000 0000 0000 0000 0000 0000 0000 0000
0.0 0.0 0.0 0.0 0.0 0.0 0.0 0.0
0.0 0.0 0.0 0.0 0.0 0.0 0.0 0.0
0.0 0.0 0.0 0.0 0.0 0.0 0.0 0.0
0.0 0.0 0.0 0.0 0.0 0.0 0.0 0.0
0.0 0.0 0.0 0.0 0.0 0.0 0.0 0.0
0.0 0.0 0.0 0.0 0.0 0.0 0.0 0.0
0.0 0.0 0.0 0.0 0.0 0.0 0.0 0.0
0.0 0.0 0.0 0.0 0.0 0.0 0.0 0.0
0.0 0.0 0.0 0.0 0.0 0.0 0.0 0.0
0.0 0.0 0.0 0.0 0.0 0.0 0.0 0.0
0.0 0.0 0.0 0.0 0.0 0.0 0.0 0.0
0.0 0.0 0.0 0.0 0.0 0.0 0.0 0.0
0.0 0.0 0.0 0.0 0.0 0.0 0.0 0.0
0.0 0.0 0.0 0.0 0.0 0.0 0.0 0.0
0.0 0.0 0.0 0.0 0.0 0.0 0.0 0.0
0.0 0.0 0.0 0.0 0.0 0.0 0.0 0.0

batchnorm1.running_mean f4 [128]
00000000: 0000 0000 0000 0000 0000 0000 0000 0000
00000010: 0000 0000 0000 0000 0000 0000 0000 0000
00000020: 0000 0000 0000 0000 0000 0000 0000 0000
00000030: 0000 0000 0000 0000 0000 0000 0000 0000
00000040: 0000 0000 0000 0000 0000 0000 0000 0000
00000050: 0000 0000 0000 0000 0000 0000 0000 0000
00000060: 0000 0000 0000 0000 0000 0000 0000 0000
00000070: 0000 0000 0000 0000 0000 0000 0000 0000
00000080: 0000 0000 0000 0000 0000 0000 0000 0000
00000090: 0000 0000 0000 0000 0000 0000 0000 0000
000000a0: 0000 0000 0000 0000 0000 0000 0000 0000
000000b0: 0000 0000 0000 0000 0000 0000 0000 0000
000000c0: 0000 0000 0000 0000 0000 0000 0000 0000
000000d0: 0000 0000 0000 0000 0000 0000 0000 0000
000000e0: 0000 0000 0000 0000 0000 0000 0000 0000
000000f0: 0000 0000 0000 0000 0000 0000 0000 0000
00000100: 0000 0000 0000 0000 0000 0000 0000 0000
00000110: 0000 0000 0000 0000 0000 0000 0000 0000
00000120: 0000 0000 0000 0000 0000 0000 0000 0000
00000130: 0000 0000 0000 0000 0000 0000 0000 0000
00000140: 0000 0000 0000 0000 0000 0000 0000 0000
00000150: 0000 0000 0000 0000 0000 0000 0000 0000
00000160: 0000 0000 0000 0000 0000 0000 0000 0000
00000170: 0000 0000 0000 0000 0000 0000 0000 0000
00000180: 0000 0000 0000 0000 0000 0000 0000 0000
00000190: 0000 0000 0000 0000 0000 0000 0000 0000
000001a0: 0000 0000 0000 0000 0000 0000 0000 0000
000001b0: 0000 0000 0000 0000 0000 0000 0000 0000
000001c0: 0000 0000 0000 0000 0000 0000 0000 0000
000001d0: 0000 0000 0000 0000 0000 0000 0000 0000
000001e0: 0000 0000 0000 0000 0000 0000 0000 0000
000001f0: 0000 0000 0000 0000 0000 0000 0000 0000
0.0 0.0 0.0 0.0 0.0 0.0 0.0 0.0
0.0 0.0 0.0 0.0 0.0 0.0 0.0 0.0
0.0 0.0 0.0 0.0 0.0 0.0 0.0 0.0
0.0 0.0 0.0 0.0 0.0 0.0 0.0 0.0
0.0 0.0 0.0 0.0 0.0 0.0 0.0 0.0
0.0 0.0 0.0 0.0 0.0 0.0 0.0 0.0
0.0 0.0 0.0 0.0 0.0 0.0 0.0 0.0
0.0 0.0 0.0 0.0 0.0 0.0 0.0 0.0
0.0 0.0 0.0 0.0 0.0 0.0 0.0 0.0
0.0 0.0 0.0 0.0 0.0 0.0 0.0 0.0
0.0 0.0 0.0 0.0 0.0 0.0 0.0 0.0
0.0 0.0 0.0 0.0 0.0 0.0 0.0 0.0
0.0 0.0 0.0 0.0 0.0 0.0 0.0 0.0
0.0 0.0 0.0 0.0 0.0 0.0 0.0 0.0
0.0 0.0 0.0 0.0 0.0 0.0 0.0 0.0
0.0 0.0 0.0 0.0 0.0 0.0 0.0 0.0

batchnorm1.running_var f4 [128]
00000000: 0000 803f 0000 803f 0000 803f 0000 803f
00000010: 0000 803f 0000 803f 0000 803f 0000 803f
00000020: 0000 803f 0000 803f 0000 803f 0000 803f
00000030: 0000 803f 0000 803f 0000 803f 0000 803f
00000040: 0000 803f 0000 803f 0000 803f 0000 803f
00000050: 0000 803f 0000 803f 0000 803f 0000 803f
00000060: 0000 803f 0000 803f 0000 803f 0000 803f
00000070: 0000 803f 0000 803f 0000 803f 0000 803f
00000080: 0000 803f 0000 803f 0000 803f 0000 803f
00000090: 0000 803f 0000 803f 0000 803f 0000 803f
000000a0: 0000 803f 0000 803f 0000 803f 0000 803f
000000b0: 0000 803f 0000 803f 0000 803f 0000 803f
000000c0: 0000 803f 0000 803f 0000 803f 0000 803f
000000d0: 0000 803f 0000 803f 0000 803f 0000 803f
000000e0: 0000 803f 0000 803f 0000 803f 0000 803f
000000f0: 0000 803f 0000 803f 0000 803f 0000 803f
00000100: 0000 803f 0000 803f 0000 803f 0000 803f
00000110: 0000 803f 0000 803f 0000 803f 0000 803f
00000120: 0000 803f 0000 803f 0000 803f 0000 803f
00000130: 0000 803f 0000 803f 0000 803f 0000 803f
00000140: 0000 803f 0000 803f 0000 803f 0000 803f
00000150: 0000 803f 0000 803f 0000 803f 0000 803f
00000160: 0000 803f 0000 803f 0000 803f 0000 803f
00000170: 0000 803f 0000 803f 0000 803f 0000 803f
00000180: 0000 803f 0000 803f 0000 803f 0000 803f
00000190: 0000 803f 0000 803f 0000 803f 0000 803f
000001a0: 0000 803f 0000 803f 0000 803f 0000 803f
000001b0: 0000 803f 0000 803f 0000 803f 0000 803f
000001c0: 0000 803f 0000 803f 0000 803f 0000 803f
000001d0: 0000 803f 0000 803f 0000 803f 0000 803f
000001e0: 0000 803f 0000 803f 0000 803f 0000 803f
000001f0: 0000 803f 0000 803f 0000 803f 0000 803f
1.0 1.0 1.0 1.0 1.0 1.0 1.0 1.0
1.0 1.0 1.0 1.0 1.0 1.0 1.0 1.0
1.0 1.0 1.0 1.0 1.0 1.0 1.0 1.0
1.0 1.0 1.0 1.0 1.0 1.0 1.0 1.0
1.0 1.0 1.0 1.0 1.0 1.0 1.0 1.0
1.0 1.0 1.0 1.0 1.0 1.0 1.0 1.0
1.0 1.0 1.0 1.0 1.0 1.0 1.0 1.0
1.0 1.0 1.0 1.0 1.0 1.0 1.0 1.0
1.0 1.0 1.0 1.0 1.0 1.0 1.0 1.0
1.0 1.0 1.0 1.0 1.0 1.0 1.0 1.0
1.0 1.0 1.0 1.0 1.0 1.0 1.0 1.0
1.0 1.0 1.0 1.0 1.0 1.0 1.0 1.0
1.0 1.0 1.0 1.0 1.0 1.0 1.0 1.0
1.0 1.0 1.0 1.0 1.0 1.0 1.0 1.0
1.0 1.0 1.0 1.0 1.0 1.0 1.0 1.0
1.0 1.0 1.0 1.0 1.0 1.0 1.0 1.0
