Audit-log_Analysis/code/GNN/training/checkpoint_GAT/best_model_GAT_secureBERT_100.pt (torch, 766959 bytes, 16 tensors)

layer1.attn_l f4 [1, 8, 16]
00000000: c540 6cbd 488a babe 6660 f13d 37ed 8dbc
00000010: ffdd 44be e206 003d 8ab3 263e ab84 d03d
00000020: a946 10be 8fb8 afbe 206b 3bbe 26ad 21be
00000030: b8db 8bbe 3587 e03d 0950 c0bc 9909 b13c
00000040: ac58 f3bd e06c 053e 443c f1bd c4dd 423e
00000050: 3223 663d 29bc 5f3d 8cd0 6bbd 3b6e 213e
00000060: 3b01 623b 6fd5 4d3d 622e ab3a 8d3e 163e
00000070: c0de 8abe 9390 f2bd b2ad 813d dc6b 78be
00000080: 0adb edbd 86ee 6d3c 8e53 d5bc a78f 3d3e
00000090: 13de 47bc 819b fc3d 5758 103e cd18 97bd
000000a0: 2cb3 20be 1499 0f3d 61da 2a3d 6d36 f13d
000000b0: 21a6 273d 9a22 dcbd 4ba9 2e3d 56a3 d1bd
000000c0: 303f c8bd caaf 833c 5e8e 31be 79d7 a7bc
000000d0: cd79 18be c57d cebd 2908 42be 2a97 e2bc
000000e0: 6114 65bd 36a5 49be 95b5 f53d acd2 3bbe
000000f0: 35d1 d03b 48ca 23be d369 77bd a031 8b3d
00000100: dbc3 65bd 1440 b7bd 13bc 07be 45a5 fabd
00000110: 7a90 a5be 3bde e73c b887 9d3d 569d 293e
00000120: 81b3 ca3c f212 583e dfca 0ebd 95f2 9f3c
00000130: da87 0dbd b1b4 e73d f297 a13d 8789 55bc
00000140: 7cae 48bd bed1 08bc 6103 e83d 582e 993d
00000150: c4ad a0bd db64 cbbc 9aa7 13bd 7fed 873c
00000160: fe9b d43d f06e 163d e7bc 0dbd cbea dbbc
00000170: 428d 0d3d 76c0 133d a405 e7bd 5a61 9ebd
00000180: 76b5 843e 2b79 de3e 38c8 953e 91f7 0bbf
00000190: 628c 983e 63e0 c4be 4cbc 9d3d d569 5abf
000001a0: fc9f 323e 9e48 8b3e e764 01be 7c69 15bf
000001b0: 26e5 01be 62fc a6be f735 93be 0f58 34bf
000001c0: 71e9 95be fbd0 863d 2c47 b23c e4c1 c8bd
000001d0: 9b9b 3dbd 5fff c3bd 4c6c 9c3b 2192 093d
000001e0: 9ea8 3dbe a4e8 03be e932 ed3d 6ad7 d83d
000001f0: 7612 a2be df98 40be 98af 533e 9ddb fe3d
-0.057678957 -0.36433625 0.11785965 -0.017325027 -0.1922531 0.031256564 0.16279426 0.101815544
-0.14089455 -0.34320495 -0.18302584 -0.15788707 -0.2731607 0.10963289 -0.023475664 0.021611022
-0.11882147 0.13029814 -0.11779073 0.1902991 0.05618591 0.054622803 -0.057571933 0.15764706
0.0034485597 0.050252374 0.0013060088 0.14672299 -0.2712307 -0.118439816 0.06331958 -0.24259895
-0.11614044 0.0145222 -0.026040819 0.1851183 -0.012198943 0.123343475 0.14096199 -0.07377777
-0.15693349 0.035058096 0.04171217 0.11777959 0.040929917 -0.10748787 0.04264192 -0.10236232
-0.09777677 0.016075034 -0.17339465 -0.020488488 -0.14890213 -0.100825824 -0.18948425 -0.027659971
-0.055927638 -0.19691929 0.11997525 -0.18342084 0.0063725957 -0.15995133 -0.060403656 0.067965746
-0.056094985 -0.08947769 -0.13255338 -0.12238554 -0.3233679 0.02830421 0.07691902 0.16563925
0.024743797 0.21100977 -0.03486144 0.019524852 -0.034553386 0.11313761 0.078903094 -0.013033277
-0.048994526 -0.008350788 0.113287695 0.074795425 -0.07845643 -0.024828365 -0.03604851 0.01659274
0.10381316 0.036726892 -0.03460398 -0.026845356 0.034558542 0.036072217 -0.11280373 -0.07733412
0.25919694 0.4345182 0.29254317 -0.5467463 0.29794604 -0.38452443 0.077019304 -0.85317737
0.17443842 0.2720384 -0.12636147 -0.5836408 -0.1268507 -0.32614428 -0.2875211 -0.70446867
-0.29279664 0.065828286 0.021762453 -0.09802607 -0.046290975 -0.095701925 0.004773652 0.033586625
-0.18521354 -0.12881714 0.11581976 0.10587962 -0.3165471 -0.18808316 0.20672452 0.12444232

layer1.attn_r f4 [1, 8, 16]
00000000: 93e9 0b3e 737b 6d3e e4be 65be b03d 9f3a
00000010: d56c 5d3d 535d 2abe 7f17 8e3e d220 46be
00000020: 37b0 233e cdee ca3d 561d 28be e57a b23e
00000030: 5b4f 1f3e 50cb 23bd 26a6 8e3e 506f 843e
00000040: 4518 6ebd c271 143e 0cba 523d c50e 1fbd
00000050: 7125 a0bd dd14 19bd 55b5 453d 0b13 883d
00000060: b11a c03c d306 05bd bb51 db3c be37 3ebe
00000070: bc7d b7bd 12f0 9f3d eab2 1f3e d2f6 5bbd
00000080: aecc 4b3d 83ae 0c3d 0d67 163e 66af 7dbd
00000090: af33 94bd 90a5 90bd 655b b1bd 464c efbd
000000a0: 66d0 f93d 4dd6 0abe 8890 b9bd 7e4d 573d
000000b0: de22 33be 8c77 d0bd 8be8 6b3d 3059 c8bd
000000c0: 64e7 80bd c973 94bd c245 603d 5b70 e93c
000000d0: efe9 07be 9fb3 233e 4e3b 313b bd55 043c
000000e0: 935e 5ebe afca 523c baf7 87be b043 12be
000000f0: f4fe 353d 041d 2fbe 7251 e63d 3710 f6bd
00000100: 2e91 6b3e 372d 5fbd 97b5 f9bc 11b5 fdbb
00000110: 61c7 06bd 25cc 493c 1243 21be f8cb 12be
00000120: f0d9 05be b6ec 3b3b 9dd5 9f3e 28e6 0c3d
00000130: 5d7c 153c 13c3 c6bd 28c7 da3d 4be6 35bb
00000140: 0740 033e 2b59 cabd 3369 1bbe 2f9f 703d
00000150: 4ed6 b73d 685c 033e d3fc 88bd 5b74 b0bd
00000160: 89f3 8abd 322e a1bc 3ad5 d8bd 2d75 913c
00000170: 9d6b 743d cbd9 38bd 750a abbd 1fcd 893d
00000180: d877 153d 4585 573d 9ddc 113d 00a7 843c
00000190: f8fb b6bd 9aeb 3d3c 9745 e3bb 70bf 0dbe
000001a0: 2c7a 00be 625f 9d3d 7796 613d 3037 1cbe
000001b0: ef5a c6bd ddcf 4fbd ecc2 b1bc 53a0 b8ba
000001c0: b694 133e c6e4 0f3e bd87 833d 4d3f f03d
000001d0: 4b0f e03d d0a8 243e 8209 b33c ee7c 16be
000001e0: a2ab 07be 60d2 ef3d 3d1f 153e d068 bb3d
000001f0: d462 163e 1158 3f3e b3cb 643d 7942 acbe
0.1366332 0.23191623 -0.224361 0.0012149122 0.05405887 -0.16637163 0.277523 -0.19348457
0.1598519 0.09908829 -0.16417441 0.34859386 0.15557615 -0.039988816 0.27861136 0.25866175
-0.058128614 0.1449652 0.05144696 -0.038832445 -0.078196414 -0.037373412 0.048268635 0.06644257
0.023450227 -0.03247721 0.02677237 -0.18575951 -0.08959529 0.07809462 0.15595594 -0.053702183
0.049755745 0.034346115 0.14687748 -0.06193485 -0.0723642 -0.070628285 -0.0866001 -0.1168447
0.12197952 -0.13558312 -0.0906077 0.052564137 -0.1749377 -0.10179052 0.057594817 -0.09782636
-0.06294134 -0.07248647 0.054754026 0.028495958 -0.13272832 0.15986489 0.0027043405 0.008077082
-0.21715765 0.012865706 -0.26556188 -0.14283633 0.044432595 -0.17100912 0.11246003 -0.120148115
0.230046 -0.05448648 -0.030482097 -0.007742532 -0.032904986 0.012316738 -0.15748242 -0.1433562
-0.13071418 0.0028675026 0.31217661 0.03439918 0.009123889 -0.09705176 0.10682517 -0.0027755674
0.12817393 -0.09880289 -0.15176849 0.05874556 0.08976422 0.12828219 -0.066888474 -0.08615943
-0.06784732 -0.019675348 -0.10587545 0.01775607 0.05967294 -0.04512958 -0.08351604 0.06728577
0.036491245 0.05261733 0.035610784 0.016192913 -0.08934778 0.011591816 -0.006935786 -0.13842559
-0.12546605 0.076842085 0.055075135 -0.15255427 -0.09685313 -0.050735343 -0.021699391 -0.0014085866
0.14412197 0.14052114 0.064223744 0.11730824 0.10940417 0.16080022 0.02185512 -0.14696094
-0.13249066 0.11710048 0.14562698 0.09150851 0.14686137 0.18685938 0.055858325 -0.33644465

layer1.bias f4 [128]
00000000: db3c abbc 8f8a 3cbc c98c bebd 86d8 0bbe
00000010: 2d30 6ebd 409c 49bd 304b b8bb 7664 06bc
00000020: c675 74bb ef19 61bb a911 13be cbcc 73bc
00000030: f09c 5bbc 97d8 15bd fad7 78bb 9a39 f5bb
00000040: 0fdb 13bd 383e aabd e9a4 39bb e214 32bb
00000050: 1f0a 68bc 470a 94bd cc73 0fbd c6e5 81be
00000060: 39bd d2bc 2229 2fbe fbe0 94bb 51bf 26bd
00000070: 5361 02bc 43a3 2fbd 18b3 d3bd 6901 7dbb
00000080: 44bd 09bd 6e65 7cbe 63da b0bd 08f1 d240
00000090: 58ca 7fbc 6b24 48bc 0229 65be ccdd 09bd
000000a0: fcf7 30bd 3127 a6bb ae36 afbc cbdf 4abd
000000b0: 8446 92bc aac6 8fbc 7fd9 c3bd 9286 c6bb
000000c0: 24c6 4bbd 6691 03bc 875d 01be 97e0 4abc
000000d0: 1423 89bc b30a 66bd 4481 8ebc b548 33bd
000000e0: 8590 09bc 681c 79bd 690e 51bb 9294 dcbb
000000f0: 5452 fcbc 83ba d9bb 1030 8bbd 6799 01bd
00000100: 6aed 6ebc 83e6 fbbd df49 60bc 70da 67bd
00000110: e61c cebd 7b10 c9bd fb03 d040 56f3 cf40
00000120: 3768 8ebb ae06 9bbc 16dd 92bc e2c8 17bd
00000130: 0b9c 563f 7199 70bd 2b42 3abc e5ca 6cbd
00000140: 6c6e 12bd f00e 17bc 7fcf aebb 85f0 6dbd
00000150: 8833 8abd a89e 9bbe 5f04 86bd b159 e2bb
00000160: 0b47 91bc c037 2cbe d621 d1bb fa75 5fbd
00000170: 890b bcbc 4292 29bb 3a8b 76bc 2abd 95bd
00000180: 4cdc d1bb 9b1a ce40 96aa 3bbe b7f9 b1bd
00000190: 3e63 90be 2b7f 9dbb 694b 2dbd a175 1cbb
000001a0: 3a4d e8bc 3628 8dbd b10b 9abb 5569 c73f
000001b0: 0051 b9bd d682 fd39 cb45 65bb f1c3 5abb
000001c0: ae34 aab9 153b 2b3a c76d a7bb 4c10 57bd
000001d0: a409 3fba d833 05bc 7331 ecbb 1bb6 ca40
000001e0: 211e 30bd 3846 8cbd f3d3 85bc 33a0 aabb
000001f0: 560b 53bc b908 96bb ebaf dbbc 0933 0abd
-0.020903042 -0.011507644 -0.093041964 -0.13656816 -0.058151413 -0.049221277 -0.0056241974 -0.008202663
-0.0037301644 -0.0034347733 -0.14362206 -0.014880369 -0.013404116 -0.03658351 -0.003797053 -0.0074836733
-0.036097582 -0.083126485 -0.0028327054 -0.0027173092 -0.014162569 -0.07228523 -0.035022542 -0.25370616
-0.025724994 -0.17105535 -0.0045434213 -0.040709797 -0.007957774 -0.042880308 -0.10336894 -0.0038605577
-0.033627763 -0.24648067 -0.08635404 6.5919228 -0.015612207 -0.012215714 -0.22378924 -0.033658788
-0.043205246 -0.00507059 -0.021388378 -0.04952983 -0.01785589 -0.017550785 -0.095629685 -0.0060585225
-0.04974951 -0.008030271 -0.12633334 -0.012382648 -0.01674036 -0.056162547 -0.017395623 -0.04377051
-0.008396273 -0.060818106 -0.0031899458 -0.006731578 -0.030800976 -0.0066445484 -0.067962766 -0.031640437
-0.014582971 -0.12299826 -0.013689487 -0.056604803 -0.10064106 -0.098175965 6.500486 6.498454
-0.0043459195 -0.018924084 -0.017927688 -0.03705681 0.8383185 -0.058740083 -0.011368315 -0.057810683
-0.035749838 -0.00921987 -0.005334794 -0.058090705 -0.0674811 -0.30394483 -0.065438025 -0.0069076647
-0.017734071 -0.16818142 -0.0063822074 -0.05455587 -0.02295472 -0.002587453 -0.015047843 -0.07311471
-0.0064044353 6.4407477 -0.18326792 -0.086902075 -0.28200716 -0.0048064194 -0.042308245 -0.0023873823
-0.028357137 -0.06892435 -0.0047011008 1.557902 -0.09048653 0.000483534 -0.0034984227 -0.003338095
-0.00032464176 0.0006531936 -0.005109522 -0.052505776 -0.00072875083 -0.008130036 -0.0072080432 6.3347297
-0.042997483 -0.06849331 -0.016336417 -0.0052070855 -0.012881121 -0.0045786765 -0.026817283 -0.033740077

layer1.fc.weight f4 [128, 100]
00000000: 3766 383c 8f93 923e a11a 6e3c 6845 133e
00000010: e119 1b3e 1b8f debb 2214 7b3d da74 403d
00000020: 97d5 753e 4e0e a43d 45c8 1abd 990d 0abb
00000030: 9c4a 033e 97dd b03e 3aef 3e3e d446 323d
00000040: 4587 42be 0237 fbbd d3ff 04be f0e0 62be
00000050: 432a 523e e011 32be 300b 60be b68a 173e
00000060: 5eb5 273e 7965 8bbe e6c6 4cbd a567 3cbd
00000070: 0f64 a23d 6162 23be a39d d63d aa67 153e
00000080: 90f8 9f3d 1275 17be 8afd 1d3e 091e 28bd
00000090: 24c6 14be 1f79 62be 6555 ccbd 284e c7bd
000000a0: 0a44 e63d ad7a e03e 7d2e c2be 6c57 82be
000000b0: 43e2 553d 05d2 e43c e478 14bf c459 d0bd
000000c0: 2eb0 df3d 71bd cd3d 3f12 403e fb00 253e
000000d0: 6b18 fbbd a3d2 6cbe 2f13 fdbe 38ca 9bbe
000000e0: 05b5 1cbe 0117 4dbe e5e5 583e 12fc ee3d
000000f0: dfc4 5cbd 0546 393e fb8d aabd 01f3 c2be
00000100: 7dc9 173e 2c77 9bbe 9dd0 32be 51c7 863e
00000110: ac75 35be 2bb9 09bf f99e b5be 7c48 85bd
00000120: 43d0 153e 9def 3c3d 66f0 3fbe cefc 67be
00000130: 1d65 ed3d 7ce4 d9be 06a5 1b3f 9d7b 30be
00000140: 5c85 a83e f7a3 0bbe 1b23 78be a6d7 a9bd
00000150: cda4 643e 8d02 ccbd e478 be3e 6da8 34be
00000160: 3c2b f1bd cb1b 54be fb73 2d3a 8a9a 8cbe
00000170: b8c8 94be 81ec 163e 4c57 e9bb f566 49be
00000180: bca3 a73e 2f33 9f3e 8662 ccbc 578b 1a3c
00000190: c039 29bf ac8c cfbd 205d b53d 7e38 c03d
000001a0: 94ae 2b3e 5e8c 303e 8cce 80bd b919 afbe
000001b0: 541a 8d3c 0e94 843d df5c 473d 6782 233e
000001c0: 97e1 42bb 3b6d 9abd 2ada 71be 44c4 a8bd
000001d0: 92a0 e03c 5b7e 443c cc5a 4abd 1603 703c
000001e0: 038d 8f3d f66f f33d 2062 5d3d 11ba 96bb
000001f0: ac7d d93d 3897 d13d ae40 393e b91c 043e
00000200: 6734 9dbd fd3a 0abe dd8c 473d 700a 8bbd
00000210: 4064 be3d 19cb 1cbd c75e fa3d 8e66 43bd
00000220: 9a25 563d 99dc c03c f737 e53d ab18 4b3e
00000230: f8b0 61be 09cb 973d f1a6 443d 7de6 083b
00000240: d3fd e73d 3d24 49be 5664 b33d 5724 06bd
00000250: 19db be3c 24c1 073e 9432 85bd 6d96 0bbe
00000260: 7ab2 11be 0148 1fb9 53d7 c23d 8171 b5bc
00000270: 1883 433e 812f 423d a17c b13d ae4e 473e
00000280: 5af1 44bd f0b2 e7bd 9145 b73d fb46 243d
00000290: e4da f23d 7b0f ce3d 524a 143e 833e 113d
000002a0: 9300 f3bd c503 9c3c 228e 2dbe cbf3 513e
000002b0: 7c7e 2a3d 0418 5bbc d298 4fbe f6fa d03d
000002c0: 20b6 12be 535b 1cbd d6b0 37be a0e1 09bd
000002d0: f875 e63d 609a 573d 25ba 47be 1c94 773e
000002e0: c0a3 a73c 8e25 3fbd 957b 613e 205a e13d
000002f0: 9b33 cc3d 263e 41bb 4e36 88be a63d 783e
00000300: f50e a53d dd5b d6bd bf54 56bb 8b59 353e
00000310: 31c9 1bbe ba78 c63e 5ca9 223e efdd fd3c
00000320: 69f0 373e 202f 163f 3069 33be fb0c c3bd
00000330: 7a21 bfbd a01e cb3d f0a3 f83d b5e6 d5bc
00000340: 98a2 a3be acc8 bf3c d192 943d d654 583e
00000350: 1d27 233c 8a5e 4bbe 5fcf 843d 5fad 32bd
00000360: 62fc af3d 5af4 5b3e 4033 193d 917c cf3e
00000370: 7b7d 91be 6eaa 263e 2304 46be 5d42 1e3e
00000380: 7a28 0e3e 9764 0e3e 857b 0c3d 70ec eebd
00000390: b548 1bbe 5c07 3b3d 3ddb 60be 02b2 5ebe
000003a0: 92a3 31be c737 5bbb 335a 643e 3e77 873e
000003b0: 9dc8 3c3e 39ad 583e 7379 1f3d 69db e1bd
000003c0: 7a91 283e cffa c6be 3e6a b5be 806d 8e3e
000003d0: 625c 41be 67ea 463d 6fbc 783e ee1b 653e
000003e0: 4023 a0be e9ad 5bbe ec82 9f3d 6cd9 25be
000003f0: f473 0f3e 5a40 243e bb4b 5fbe 10ad 51be
0.011254839 0.28628203 0.014532716 0.14381945 0.15146591 -0.006791962 0.061298497 0.04698644
0.2400726 0.08010541 -0.03778865 -0.0021065234 0.1282143 0.3454406 0.18645945 0.04352458
-0.18996914 -0.12266351 -0.12988214 -0.2215612 0.20523934 -0.17389631 -0.21879268 0.14799008
0.1637778 -0.27225855 -0.04999437 -0.04599728 0.07929241 -0.15955497 0.104792856 0.14590326
0.078110814 -0.14790753 0.15428749 -0.04104427 -0.1452871 -0.22116517 -0.09977225 -0.09731704
0.11243446 0.43843594 -0.37926093 -0.25457323 0.052217733 0.027932176 -0.57996964 -0.101733714
0.109222755 0.10045899 0.1875696 0.16113655 -0.12260517 -0.23127227 -0.49428698 -0.30427718
-0.15303428 -0.20028307 0.21181448 0.11669172 -0.05389869 0.18093117 -0.08327862 -0.38076022
0.14822955 -0.30364358 -0.17462392 0.2632394 -0.1772067 -0.5379817 -0.3547285 -0.06507966
0.14630227 0.04612695 -0.18744048 -0.22655031 0.115915515 -0.42557132 0.6079868 -0.17234655
0.32914245 -0.13636766 -0.24232142 -0.08293085 0.22328492 -0.09961424 0.37201607 -0.17642374
-0.117758244 -0.20713727 0.00066167087 -0.27461654 -0.29059386 0.14738657 -0.0071210023 -0.19668181
0.32742107 0.31093737 -0.024949323 0.009432635 -0.66103745 -0.10134253 0.08855653 0.09385775
0.16765815 0.17241046 -0.06289396 -0.34199312 0.017224468 0.06473552 0.048672553 0.15967713
-0.0029736513 -0.07540365 -0.23618379 -0.0824056 0.027420316 0.011993016 -0.049402997 0.014649173
0.07009318 0.11886589 0.054048657 -0.0045998176 0.10619673 0.10233921 0.1809108 0.12901582
-0.076760106 -0.13499065 0.048718322 -0.067891 0.09296465 -0.038279627 0.122251086 -0.047705226
0.052281953 0.02354269 0.11192315 0.19833629 -0.22040164 0.07411773 0.04801077 0.0020889335
0.1132771 -0.1964273 0.08759372 -0.0327495 0.023297833 0.13257271 -0.06503788 -0.13631602
-0.1422824 -0.00015190245 0.09513726 -0.02214885 0.19092977 0.047408585 0.08666349 0.19463608
-0.048081733 -0.113134265 0.089488156 0.040106755 0.11858156 0.100615464 0.14481476 0.035460006
-0.11865344 0.019044766 -0.1694875 0.20503156 0.04162453 -0.013372425 -0.2027314 0.10204117
-0.14327288 -0.03817303 -0.17938551 -0.03366244 0.112529695 0.052637458 -0.19504602 0.24177593
0.020463824 -0.046666674 0.22019799 0.11003518 0.099707805 -0.0029486506 -0.2660393 0.24242267
0.080594935 -0.1046674 -0.0032704321 0.17709939 -0.15213467 0.38763982 0.15884918 0.030989615
0.17962803 0.5866566 -0.17520595 -0.0952396 -0.09332557 0.09917951 0.121406436 -0.026110986
-0.31959987 0.023411117 0.072545655 0.21126112 0.009958056 -0.19860283 0.064848654 -0.04362237
0.0859306 0.21479931 0.03740239 0.40524724 -0.28416047 0.16275951 -0.19337516 0.15455003
0.13882628 0.1390556 0.034297485 -0.116661906 -0.15164454 0.045661315 -0.21958633 -0.21747592
-0.17347553 -0.0033449994 0.22300033 0.26458162 0.18435903 0.21159829 0.038934182 -0.11028177
0.16461745 -0.38863227 -0.3543262 0.27817917 -0.18882897 0.048563387 0.24290632 0.22373936
-0.31276894 -0.2145306 0.07788643 -0.16196221 0.14009076 0.16040173 -0.21806233 -0.20476174

layer2.attn_l f4 [1, 8, 168]
00000000: 0aad a03c 75cb a3bd 1db3 8dba a786 373e
00000010: 0eac 83bd eea6 abbd 8cf4 6fbd e735 163f
00000020: dc33 363c e9eb a23c 8dfe 18be 6f5c 613c
00000030: 43d8 b7bd 1d3a bf3b 77b3 81bd d1e0 9bbd
00000040: f541 97bd 6119 e43d c02b d63a cd00 a0b8
00000050: d78c c7bc d217 243b 7f8f 8e3f bb9a aa3a
00000060: 86f0 153c 2a4b 09bd 5a5c f63b 7a9d d1bd
00000070: 8615 e6b9 9aef c4bd f98f d0bd 91e3 8cbc
00000080: 33d2 73bd 6101 1bbc a7db 313b 366a 91bd
00000090: 4258 c83b acf2 3a3b 7ab9 4fbc ebc3 e7bd
000000a0: 8aff 4cbd 43d3 cabd 4bbe 37bd e56e 8dbd
000000b0: 9951 08be 71ee 3bbd 6d51 3bbc 378c 0dbd
000000c0: 02ac 70bd 3d7d e5ba 0fe9 34be 29b2 243c
000000d0: a313 643f 15ff 233c bf82 98bd 150c 8abb
000000e0: 53a4 883c 71ad 54bc e25e aa3a de97 233d
000000f0: 07b4 e23c 5d2f 0abd cc86 7ebd be45 053c
00000100: 604b 82bd 9db3 3dbf edee ffbc 4acc cfbd
00000110: 5153 ec3c 2ae5 19be 199a c5bd 9388 b2bd
00000120: 1454 16bd 3ea2 dcbd 80f0 47bc 9e47 553c
00000130: 71ac 3fbd 4388 41bd b91f 1bbc 4496 0cbd
00000140: 68fd 143e 400b 56bd 7537 5fbe f92a 273d
00000150: 5199 3abd b0e5 91bb 8b95 b8bb a3d9 ae3b
00000160: 600c 4e3b 243a e6bc 261d 43bd 574f 21bc
00000170: 91b7 94bd 5bf2 103c bc2f b8bd af5a dabd
00000180: 8323 d43d 5217 6dbd 5007 c8bc 316c cf3d
00000190: 54da a63b 9848 afbd 8d94 d03b 9d75 adbc
000001a0: 3d2b 26bb 92f7 e1bb f3c0 bf3e 9e24 c63d
000001b0: 3fbb 083d b316 bc3b 612a 24bd df0f 93bd
000001c0: 994f 52bd 2fb1 0dbc 5554 be3b cf2a f63c
000001d0: 4e26 c93b 54e2 a7ba 3f60 60bc 2391 28bd
000001e0: 423b 23be 29e5 663c fa9c a339 9746 8cbd
000001f0: 08e4 5ebd e894 f7bd ec40 cfbd f994 c83e
00000200: 514e c9bd cd6b 22bd c66f f7bb 7c41 39bd
00000210: 31e7 31bd 6dfa fdbb eb1e 4cbe 632d babc
00000220: 3156 173e 0b49 64bd 620a d0bd 08fb 81bd
00000230: 5f24 253e 62bb b13d ed17 4cbd 39de 01be
00000240: 0c8e 903c 9f2e 5a3e 9921 2a3e f86d 25bc
00000250: 06b0 d7ba 43cd 32be a599 c33a f868 26bd
00000260: d3dc a0bd f32e b43b ac25 38be e62e 99bc
00000270: 290b 24be d8af f5ba 8060 dabd 5a8c b5bd
00000280: 3428 a23d 391c bc3c 91da dd3b 53c8 75bc
00000290: d293 493c 712e 2ebe 946b c5bd a25f 7f3f
000002a0: a24b ac3b c195 86bc eaff 8abc 987b 643f
000002b0: a3a1 87bc 478a 753c eb5d c7bc a4bd 1c3f
000002c0: 088e 46bc 8900 94bc f686 88bc e904 a2bc
000002d0: 8245 c2bc 6b1b 8d3c 7606 3cbd 52e3 ee3c
000002e0: 9361 4fbd 9d7b 013f 11bb d6bb e726 acbc
000002f0: 717e 97bc e141 53bd 8b00 8d3e 9f3a 903e
00000300: 0ed0 75bd fab9 e23d 2daf 86bc e584 b93c
00000310: 19d2 b8bd e99d 13bd f4dc 8ebc a0be 94bc
00000320: 835d 163d a176 93bc 1587 8ebc 1746 613c
00000330: a11e c7bc b98e 91bc 106a 66bc 124e 4b3c
00000340: 612d a73c a0bc a2bc 9ccc 8cbc 3a32 69bc
00000350: 2d3f 99bc 1033 703d c62e a4bc 9b78 8ebc
00000360: 58bd 1ebd fbfa 52bc fa56 8b3d f4c9 bebc
00000370: 91c6 8f3e cd2d 88bc 6660 6fbc 5a16 93bc
00000380: 78ea 443c 7068 88bc 38fd 81bb 67be 4ebd
00000390: 2a7e aebc 3002 973a 5e1c 52bc 8a20 22bc
000003a0: f32e 40bd 7af1 313c 8afe 89bd 6558 073d
000003b0: 29c0 aabd ae1e 9cbd 4703 4ebd bc0e 66bc
000003c0: 43f6 e03c 1d25 b7bb 9e3c 95bc b413 60bc
000003d0: 5eb2 e8bc ad6f 9dbd 0262 ef3c dac2 b53c
000003e0: 2ac2 353f 932b 28bc e926 b4bd be84 aabc
000003f0: 0416 ea3e 7734 b8bc 56fe 89bc d2fc a4bc
0.019613761 -0.07997791 -0.0010810826 0.1792246 -0.06429301 -0.08381449 -0.058582827 0.58676
0.011120763 0.019887881 -0.14940853 0.013754948 -0.089767955 0.005835785 -0.06333058 -0.0761124
-0.07385627 0.11137653 0.0016339943 -7.629544e-05 -0.02435915 0.0025038612 1.1137542 0.0013016084
0.009151584 -0.033518948 0.0075183334 -0.102351144 -0.00043885055 -0.09616013 -0.101837106 -0.017198356
-0.059526633 -0.009460778 0.002713898 -0.07100336 0.006114037 0.0028525991 -0.012678498 -0.11316665
-0.05004839 -0.09903576 -0.044859212 -0.06905917 -0.13312377 -0.045881692 -0.011432988 -0.034557547
-0.05875779 -0.0017508637 -0.1766703 0.010052242 0.89092463 0.010009547 -0.07446813 -0.004212866
0.016679918 -0.012980805 0.0012998248 0.039939754 0.027673734 -0.033736575 -0.06214027 0.008134304
-0.06362033 -0.74102193 -0.031241858 -0.10146387 0.028848322 -0.15028825 -0.096485324 -0.08717456
-0.036701277 -0.10773133 -0.012203336 0.013017563 -0.046795312 -0.04724909 -0.0094680125 -0.034322992
0.14549792 -0.052256823 -0.21798499 0.040812466 -0.04555637 -0.0044524297 -0.0056330613 0.005336003
0.0031440482 -0.028103895 -0.04763522 -0.009845576 -0.07261575 0.008846845 -0.089934796 -0.10661828
0.10358336 -0.057883568 -0.02441755 0.10128058 0.0050919447 -0.08558768 0.006365365 -0.021174246
-0.0025355362 -0.0068959678 0.37451896 0.09674953 0.033381697 0.0057400106 -0.04007948 -0.071807615
-0.05134544 -0.008648201 0.005808393 0.03004971 0.0061385995 -0.001280854 -0.013694822 -0.04115404
-0.15940574 0.014092722 0.0003120674 -0.068494014 -0.054416686 -0.120889485 -0.10119805 0.39176157
-0.09829391 -0.039653588 -0.007551166 -0.045228466 -0.043433372 -0.0077508003 -0.1993367 -0.02272672
0.14778973 -0.05573372 -0.1015823 -0.063467085 0.16127156 0.086783186 -0.049827505 -0.12682427
0.017645858 0.21306847 0.16614379 -0.010097019 -0.0016455657 -0.17461114 0.0014923109 -0.04062745
-0.07854619 0.005498761 -0.1798312 -0.01869912 -0.16019882 -0.0018744422 -0.10662937 -0.088646606
0.079178244 0.022962676 0.00677044 -0.015001374 0.0123033095 -0.17009903 -0.096396595 0.997553
0.0052580396 -0.01642883 -0.016967732 0.8925109 -0.016556567 0.014986581 -0.024336776 0.6122687
-0.012118824 -0.018066661 -0.016665917 -0.019777732 -0.023714785 0.017224988 -0.0459046 0.02916113
-0.050630163 0.50579244 -0.006553062 -0.021014644 -0.01849291 -0.0515765 0.27539477 0.28169724
-0.06001287 0.110706285 -0.016440952 0.022646377 -0.09024448 -0.036039267 -0.017439343 -0.018157303
0.036710273 -0.018000903 -0.017398397 0.013749621 -0.024306597 -0.01776825 -0.014063373 0.01240875
0.02040738 -0.019865334 -0.01718741 -0.014233166 -0.018706882 0.058642447 -0.020041835 -0.017391494
-0.03875479 -0.012877221 0.06803699 -0.023289658 0.28081182 -0.016623402 -0.0146103855 -0.017954994
0.012018792 -0.016651362 -0.0039669536 -0.05047455 -0.021300394 0.0011521038 -0.012824146 -0.009895453
-0.046919774 0.010860795 -0.067380026 0.033043284 -0.08337433 -0.07623039 -0.050296094 -0.014041599
0.027461177 -0.005589141 -0.018217381 -0.013676573 -0.028405365 -0.07687316 0.029221538 0.022187639
0.70999396 -0.010264295 -0.08796484 -0.02081525 0.45719922 -0.022485955 -0.01684491 -0.020140085

layer2.attn_r f4 [1, 8, 168]
00000000: 44d6 bcbc fec5 a5ba f550 13bd 97b8 c5bc
00000010: 5bc3 1bbd 0158 c1bc 01bc 16bd 4a90 64be
00000020: 3f1a 1ebd 12b8 33bd 09a1 75bc 65fe e7bc
00000030: 9670 6cbd 76c0 8abd be4f 82bc 73cd 22bd
00000040: 9dfa f3bc 52b4 01bc 8707 e5bc 30ca 37bd
00000050: 6214 bbbc aa2b 03bd 9784 6dbd 714e 44ba
00000060: 1fa4 64bd 7433 ff3b 37e9 20bd 6d17 07bd
00000070: f5df 60bc 4f96 45bd b39d 20bb 0e11 a7bc
00000080: 7fb2 8ebc ded5 94bc 54ac 7cbd 5656 70bd
00000090: ee46 16bd 058c 90bd 8b7d 32bc d344 cf3a
000000a0: 7d9f a83c fe31 423c b8a5 e5bc b5bb 9ebb
000000b0: 6767 92bc 7f87 1aba 1b6b 56bc bb17 6d3a
000000c0: d6ac a8bc 38c3 cebc 6bb0 ebbc 1c7c acbc
000000d0: 953c 12be 5562 61bc 8141 16bc cf7c d4bb
000000e0: 7db1 6abd 0fe2 59bc a4f4 283c 0ec6 67bd
000000f0: af46 28bc b0d3 28bd ac92 fbbc 2d2a f5bc
00000100: 3bcb 63bc 89a1 273c c81a 82bc 43dc 39bd
00000110: d72d 0cbd 2cca 4bba 2569 eabc f221 35bc
00000120: 12c5 a7bc 7b90 89bd 1067 6abd c2e5 e2bc
00000130: f157 61bd 840e c5bc 79d9 7ebd d245 05bd
00000140: 5813 88bc 4e01 84bc cf8e 903c 87e1 eebc
00000150: 8dff 55bd 5e0f 81bc f7a0 36bb 865f c0bc
00000160: 7570 b9bd 331e 0fbd 82e2 a0bb d58d 05bc
00000170: 7f9b cbbc 5a7b d9bc a10a c2bc 08c3 e7bc
00000180: 1866 4cbd d41e 8fbc 7f78 92bc 14a7 d9bc
00000190: cd48 0ebd 8da8 b7bc 2e9a 97bc fc32 afbb
000001a0: d945 babc 2e25 93bc eb8f 3abe 0871 903d
000001b0: c286 15bd cb6a 00bd 8462 d2bc a5c4 233c
000001c0: 724d 8fbc b5e9 88bd 51c4 84bc f3a6 afbb
000001d0: a945 25bd 703c 5ebd e9f2 21bd a581 86bc
000001e0: b62d 3abd d7ef 65bd ad72 2dbd 658b 1cbd
000001f0: 75f3 3fbd 008e b33c 3bd8 b4bc 37cc 0cbd
00000200: bedc 69bd 4b5a 07bc 2e77 63bd c775 23bd
00000210: b42e 2abc 8f5b 3ebd 983b a7bc 38e9 2abd
00000220: 3754 4ebd be1e c1bc 6d86 3ebc 7e29 0ebc
00000230: eada 73bc c53a 53bc 288b e0bb a951 5e3b
00000240: 2be2 2cbd a6ad 4abd 67bd 6dbd 5159 a2bc
00000250: bd20 1dbd da22 12bd ca76 bdbc bfc5 89bc
00000260: c764 473b 29f0 74bb 3283 3bbc 7e8c c3bb
00000270: daa6 ffbc e342 08bc 013c a2bc bb06 68bc
00000280: 2d74 8dba 0a4c 46bd ea1c 60bd 5aef eebc
00000290: 100f 77bd 4070 fcbc 0fe1 f8bb 89df 96bd
000002a0: 4dfe ccbd 80a7 9bbd 85b6 b3bd ab66 d6bd
000002b0: a5c6 94bd d7f9 b8bd d5f4 9dbd a4b5 9abd
000002c0: 250d e4bd d770 87bd 7736 84bd b41b 81bd
000002d0: 6b0d 9abd 481a b3bd b78c b6bd 9c64 9fbd
000002e0: 5dd6 193d d91e 313d d09d a5bd 4c30 d8bd
000002f0: 58f8 8abd d14d c9bd f0c0 c3bd d7c6 a6bd
00000300: c3be b3bd 9c95 813d ceec 7abd 69c3 a4bd
00000310: 108a 88bd 04f9 94bd 6447 a3bd b045 b2bd
00000320: 4eeb d9bd 286a 85bd 39b9 8bbd dc72 acbd
00000330: 6774 41bd 9365 60bd 1789 8dbd eb36 86bd
00000340: 31f0 dbbd 5ed0 95bd a4b2 8ebd 177b 70bd
00000350: 5e67 28bd 6d76 99bd 0594 a0bd 573b d2bd
00000360: e674 b3bd 82fc 2fbd d255 b3bd cb89 4dbd
00000370: 6db0 5bbc e0d4 51bd 8b98 9cbd 10e0 8ebd
00000380: cde1 a9bd bd8d ddbd fabe babd 9df1 7abd
00000390: a5e3 65bd 54d6 bfbd 1ac7 a5bd d618 bdbd
000003a0: 8f7d b4bd 78f2 bdbd 0360 61bd 1dd7 c9bd
000003b0: 83d9 65bd f04d a33d 0933 133d e5a1 1cbd
000003c0: bfb6 fdbd 9dc4 9cbd 5bcd 4abd bde1 9abd
000003d0: 688d c6bd 9ab4 7bbd b9e0 a1bd 53b2 abbd
000003e0: a22b acbd 0ef0 04bd a607 1f3d 68f0 8cbd
000003f0: 09e9 88bd 8a55 933d 051e a4bd 8cce c4bd
-0.023051389 -0.0012647507 -0.03596588 -0.02413587 -0.038028102 -0.023601534 -0.03680039 -0.22320667
-0.03859925 -0.043876715 -0.014992007 -0.028319547 -0.057724558 -0.0677499 -0.015907165 -0.039746713
-0.029782588 -0.007916527 -0.02795769 -0.044870555 -0.022836868 -0.032024063 -0.057987776 -0.00074884953
-0.05582058 0.007788116 -0.03928491 -0.032981325 -0.0137252705 -0.04823905 -0.0024508059 -0.020393874
-0.017419098 -0.018168386 -0.061687782 -0.058676086 -0.036688738 -0.070579566 -0.01089419 0.0015813358
0.020583862 0.011852739 -0.028033122 -0.0048441538 -0.017871572 -0.0005894824 -0.013087059 0.00090443686
-0.020590227 -0.025239572 -0.028770646 -0.021055274 -0.14280923 -0.013756354 -0.009170891 -0.006484605
-0.057298172 -0.0132985255 0.010312233 -0.056585364 -0.0102707585 -0.041217506 -0.030709587 -0.029927338
-0.013903434 0.010231384 -0.01588191 -0.045376074 -0.034223404 -0.00077739614 -0.02861459 -0.0110554565
-0.020479713 -0.067170106 -0.057227194 -0.027697448 -0.055015508 -0.024054773 -0.062219117 -0.03253729
-0.016610786 -0.016113903 0.017646221 -0.029160274 -0.052245665 -0.015754398 -0.0027866939 -0.02348305
-0.090546526 -0.03494091 -0.0049098143 -0.008151491 -0.02485442 -0.026548076 -0.023686709 -0.02829124
-0.04990205 -0.017470755 -0.017879723 -0.026568927 -0.034737397 -0.022419238 -0.018506136 -0.005346654
-0.022738384 -0.017962065 -0.18218963 0.07052809 -0.03650547 -0.031351846 -0.025681742 0.009995614
-0.017492983 -0.06685201 -0.016206892 -0.005360478 -0.040349636 -0.054256856 -0.039538298 -0.016419241
-0.04545375 -0.056136932 -0.04234569 -0.038218874 -0.046863038 0.021918297 -0.022075763 -0.034374442
-0.05709528 -0.008261274 -0.05553358 -0.039907243 -0.010387111 -0.046474036 -0.020414159 -0.04172632
-0.050373282 -0.02357423 -0.011628729 -0.008676885 -0.014883736 -0.01289243 -0.006852526 0.0033923185
-0.042207878 -0.04948201 -0.058041956 -0.01981798 -0.0383613 -0.03567777 -0.023127932 -0.016817925
0.0030425058 -0.0037374592 -0.011444854 -0.0059676757 -0.03120749 -0.008316728 -0.019804003 -0.014161761
-0.0010792069 -0.04841236 -0.054715075 -0.029166866 -0.0603171 -0.030815244 -0.0075951885 -0.07366855
-0.100094415 -0.076003075 -0.08775047 -0.10468801 -0.07264451 -0.09032028 -0.07712714 -0.075541764
-0.111353196 -0.06613319 -0.06455701 -0.06304112 -0.075220905 -0.08745247 -0.08913558 -0.077828616
0.03755795 0.04324231 -0.08086741 -0.10556087 -0.06785649 -0.098292954 -0.09558284 -0.081433944
-0.08776619 0.06327364 -0.06126099 -0.08045084 -0.06666958 -0.072740585 -0.07972601 -0.08704698
-0.10640584 -0.06514388 -0.06822438 -0.08420345 -0.04723015 -0.05478437 -0.069109134 -0.065534435
-0.10739172 -0.073151335 -0.06967667 -0.058711138 -0.041114204 -0.07493291 -0.078407325 -0.102652244
-0.08762531 -0.04296542 -0.08756603 -0.050180238 -0.013408762 -0.051228404 -0.07646283 -0.0697633
-0.08295021 -0.1081805 -0.09118457 -0.061265577 -0.056125302 -0.09367052 -0.08094616 -0.09233253
-0.08813011 -0.09274763 -0.055023205 -0.09855483 -0.05611564 0.0797385 0.035937343 -0.038240332
-0.12388372 -0.076546885 -0.04951225 -0.075625874 -0.0969494 -0.061451532 -0.079041906 -0.08383622
-0.0840676 -0.032455496 0.038825653 -0.06881791 -0.06685073 0.0719405 -0.08013538 -0.09609708

layer2.bias f4 [1344]
00000000: 91e9 a03f 73a0 903f c5fd 963f 070b e5bf
00000010: 8070 953f 243c a23f 690e 6ac0 8a11 1cc0
00000020: 01bb 92bf 13df 973f e4b2 973f 4b09 983f
00000030: 77d0 913f 4e04 a03f b750 943f 286e a23f
00000040: ff5d 13c0 d46b 46c0 e6f8 943f 31a7 953f
00000050: e0be 983f 9e4c 05c0 faaa 0fc1 db83 1abf
00000060: f451 9b3f 5daa 35c0 0ee9 953f edfe a13f
00000070: 8430 77c0 31e4 19bf 2530 973f 24ac 953f
00000080: 8059 10c0 50b9 933f c49d 973f 92dc a0bf
00000090: ac9c 923f b072 90bf 3325 943f 2d9e a03f
000000a0: e874 9cbf b530 943f fb91 983f afff 933f
000000b0: e8a8 993f ad5d a23f cb71 9b3f 78a0 953f
000000c0: 181e 963f f256 953f 944d a13f 29fe 3fc0
000000d0: 8e85 bdbf 72a5 953f b678 923f 1d00 963f
000000e0: 474c a13f 5579 963f c822 bf3f 1b96 07c0
000000f0: 276d 933f b315 a03f a9d7 9abf 32ca 993f
00000100: d0f0 8ebf a80d ffc0 44f2 28c0 4885 a33f
00000110: 4d74 95bf 9ade 8f3e 7cfe 0fbf f259 983f
00000120: 5c26 9d3f dad8 9b3f 2011 933f 71d9 953f
00000130: aa68 983f b77d 08c0 8f61 9f3f 2a82 a03f
00000140: 11ab d9bf 4b7c 913f f64f e4bf 750b 963f
00000150: 347a 1dbf 83c3 ae3f 0d95 8f3f c867 963f
00000160: 702d 8ebf 213e a23f 160f 94bf 50e3 04c0
00000170: b02e 973f 297c 94bf 109d 9d3f aa09 a03f
00000180: 99ba 93bf 67dc 943f ae6d 913f 504e 53c0
00000190: 1db5 8fbf 2c57 06c0 2cb9 973f c6a4 90bf
000001a0: 689e 973f 8aac 0ec0 f2ab b5bf fd76 8ebf
000001b0: 11dd 28c0 718e 9a3f c863 8ebf 190c 973f
000001c0: 4070 993f 260f 8fbf 42d4 8ebf bb14 e0bf
000001d0: ef61 943f a55f a13f 6018 053f 0137 923f
000001e0: 2385 99bf 3975 933f 0890 e73e b8dd bfbf
000001f0: f412 963f cabc 953f 08b3 a43f a0e4 c4bf
00000200: e753 31c0 0efa 94bf 2826 a13f adeb 3ec0
00000210: 737a 93c0 ef0c 8dbf 5b7d 1cc0 ba8b 993f
00000220: a1ce 8cbf bd53 973f 676b cfbe 5bdd 953f
00000230: cf40 8dbf e2fc 91bf c6ca 913f c57d 953f
00000240: 5f2f 973f 62fe 90bf f5c1 1fc0 1c90 1cbf
00000250: 8d8b 90bf a997 89bf e5d1 903f f83a 933f
00000260: 2d8a 993f 0a32 923f 0170 46c0 04da 27c0
00000270: a5b8 28c0 bb18 943f 5351 913f ed54 ddbf
00000280: 88bd 93bf 8ca8 89c0 fd6f 943f 2e6c 953f
00000290: eb17 963f da46 45bf 0c34 06c0 dc87 26c1
000002a0: 91e9 a03f 73a0 903f c5fd 963f 070b e5bf
000002b0: 8070 953f 243c a23f 690e 6ac0 8a11 1cc0
000002c0: 01bb 92bf 13df 973f e4b2 973f 4b09 983f
000002d0: 77d0 913f 4e04 a03f b750 943f 286e a23f
000002e0: ff5d 13c0 d46b 46c0 e6f8 943f 31a7 953f
000002f0: e0be 983f 9e4c 05c0 faaa 0fc1 db83 1abf
00000300: f451 9b3f 5daa 35c0 0ee9 953f edfe a13f
00000310: 8430 77c0 31e4 19bf 2530 973f 24ac 953f
00000320: 8059 10c0 50b9 933f c49d 973f 92dc a0bf
00000330: ac9c 923f b072 90bf 3325 943f 2d9e a03f
00000340: e874 9cbf b530 943f fb91 983f afff 933f
00000350: e8a8 993f ad5d a23f cb71 9b3f 78a0 953f
00000360: 181e 963f f256 953f 944d a13f 29fe 3fc0
00000370: 8e85 bdbf 72a5 953f b678 923f 1d00 963f
00000380: 474c a13f 5579 963f c822 bf3f 1b96 07c0
00000390: 276d 933f b315 a03f a9d7 9abf 32ca 993f
000003a0: d0f0 8ebf a80d ffc0 44f2 28c0 4885 a33f
000003b0: 4d74 95bf 9ade 8f3e 7cfe 0fbf f259 983f
000003c0: 5c26 9d3f dad8 9b3f 2011 933f 71d9 953f
000003d0: aa68 983f b77d 08c0 8f61 9f3f 2a82 a03f
000003e0: 11ab d9bf 4b7c 913f f64f e4bf 750b 963f
000003f0: 347a 1dbf 83c3 ae3f 0d95 8f3f c867 963f
1.2571279 1.1298965 1.1796194 -1.789399 1.1674957 1.2674603 -3.6571295 -2.4385705
-1.1463319 1.1864952 1.1851468 1.1877836 1.1391743 1.2501314 1.1587132 1.2689867
-2.302612 -3.1003313 1.1638458 1.1691648 1.193325 -2.0828013 -8.979242 -0.60357445
1.2134385 -2.8385231 1.1711748 1.2655922 -3.8623362 -0.6011382 1.1811568 1.1693158
-2.2554626 1.1540928 1.1845021 -1.2567313 1.1454062 -1.1285 1.1573852 1.2548271
-1.2223177 1.1577364 1.191955 1.1562403 1.2004671 1.2684838 1.2144102 1.1689596
1.1727934 1.1667159 1.26018 -2.9998877 -1.4806383 1.1691115 1.1443088 1.1718785
1.2601403 1.1755778 1.4932489 -2.1185367 1.1517686 1.2506622 -1.2097064 1.201483
-1.116724 -7.970417 -2.6397867 1.2775049 -1.1676117 0.2809952 -0.5624769 1.1902449
1.2277331 1.2175553 1.1489601 1.1706983 1.1906941 -2.132673 1.2451648 1.2539723
-1.700533 1.1366056 -1.7836902 1.1722246 -0.6151459 1.3653415 1.1217362 1.1750422
-1.1107616 1.267521 -1.1567104 -2.076374 1.1811123 -1.1600391 1.2313557 1.2502949
-1.154132 1.1629761 1.1361597 -3.3016548 -1.1227146 -2.0990705 1.1853385 -1.1300285
1.1845217 -2.229281 -1.4193099 -1.1130062 -2.6384928 1.207472 -1.1124201 1.1800567
1.1987381 -1.1176498 -1.1158526 -1.7506326 1.1592387 1.2607313 0.5199032 1.1423036
-1.1993755 1.1520149 0.45227075 -1.4989538 1.1724534 1.1698239 1.2867136 -1.5382271
-2.770746 -1.1638811 1.2589769 -2.9831345 -4.6086974 -1.1019572 -2.445151 1.1995766
-1.1000558 1.182243 -0.4051163 1.1708177 -1.1035403 -1.1405299 1.1390007 1.1679007
1.1811332 -1.1327631 -2.4962132 -0.61157393 -1.1292588 -1.0749408 1.1314055 1.1502371
1.1995293 1.1421521 -3.1005862 -2.6226816 -2.6362698 1.1570047 1.1352943 -1.7291542
-1.1542215 -4.3018246 1.1596676 1.1673639 1.1726049 -0.77061236 -2.0969267 -10.408169
1.2571279 1.1298965 1.1796194 -1.789399 1.1674957 1.2674603 -3.6571295 -2.4385705
-1.1463319 1.1864952 1.1851468 1.1877836 1.1391743 1.2501314 1.1587132 1.2689867
-2.302612 -3.1003313 1.1638458 1.1691648 1.193325 -2.0828013 -8.979242 -0.60357445
1.2134385 -2.8385231 1.1711748 1.2655922 -3.8623362 -0.6011382 1.1811568 1.1693158
-2.2554626 1.1540928 1.1845021 -1.2567313 1.1454062 -1.1285 1.1573852 1.2548271
-1.2223177 1.1577364 1.191955 1.1562403 1.2004671 1.2684838 1.2144102 1.1689596
1.1727934 1.1667159 1.26018 -2.9998877 -1.4806383 1.1691115 1.1443088 1.1718785
1.2601403 1.1755778 1.4932489 -2.1185367 1.1517686 1.2506622 -1.2097064 1.201483
-1.116724 -7.970417 -2.6397867 1.2775049 -1.1676117 0.2809952 -0.5624769 1.1902449
1.2277331 1.2175553 1.1489601 1.1706983 1.1906941 -2.132673 1.2451648 1.2539723
-1.700533 1.1366056 -1.7836902 1.1722246 -0.6151459 1.3653415 1.1217362 1.1750422

layer2.fc.weight f4 [1344, 128]
00000000: 20cf 9fbe 3214 9bbd 5c35 4cbe c2b5 d2be
00000010: 7144 8abe b889 8dbe f35b 11be 1164 9abe
00000020: b609 a6bd 4e18 bcbd 17bf ddbe b8a2 acbd
00000030: bf1b a4bd d3e1 10bf 3592 cebd 8473 6cbd
00000040: 9395 fdbd dd82 b9be 9f31 cbbd f23f 8ebe
00000050: 9871 d3bd a227 7abd 9451 69be c75c aabe
00000060: 9ebc d6be 7635 48bf 8109 b0be 8bd8 c2bc
00000070: d86a a7bd 4cac febd efb5 9cbe 8c6a acbd
00000080: 4417 6cbe c873 d0bc 289b b9be ccf9 c1be
00000090: 326b 53be 0ec7 40be 7232 04bf 7f5b 49be
000000a0: 4670 39be 5c36 a8bd 4645 15be e576 c2be
000000b0: 77aa 84be 34fd f2be 75a8 afbe a918 13be
000000c0: e33f 13be 942a 3fbd 43ff e1be 08b1 4bbe
000000d0: 036a f5bd 2d28 a7be 17ee d3bd 81c0 79be
000000e0: 2777 1abe 4868 4fbe a1c2 ccbd b5ce b3bd
000000f0: 88a1 75be d14d 73bd 3d79 8bbe ba43 e2bd
00000100: 5891 efbd 45f6 afbe c9ce e1be 6bec 25be
00000110: 8dc8 bdbe c935 8abe e8c6 d6be 43b7 cdbe
00000120: e022 c8be 8b60 81be 9c17 d4bd 8702 8dbe
00000130: f8ee aebd f5ee 19be c151 ccbd 3d67 10be
00000140: c47b d9be 2039 c4bd 23b5 34bd d75f 27be
00000150: 550c a5be 2ab2 95be ecc1 c9be 1917 fcbe
00000160: 12b4 e2bd c80e 15bf 7c93 f8bd 8479 3abf
00000170: 5d70 c7be 158e 93bd b7cb e1bd 44c7 83be
00000180: dc9a 53bf 5e2d c3be daa9 fcbe 2f7f 6fbe
00000190: 7de1 edbe 9d89 0cbe a811 813d 2f28 8ebd
000001a0: e961 11be 5e05 4ebe 1b84 e3bd b44e b9bd
000001b0: 0117 d6be 080d d2bd ad13 bebd ad93 b9bd
000001c0: d934 acbd b5e2 22bd 63c6 cebd 4199 66be
000001d0: fec2 64bd b624 0fbe e69b 1bbe f43d aabe
000001e0: 1555 88be 0570 14bf ee65 86bd dd03 e3bd
000001f0: 0807 d5bd 31ef 5dbd 9221 b9bd cb47 c7be
00000200: e729 05bf 9ab5 b5be fef1 62be a191 96bd
00000210: f507 88be c250 12bf 8abc 8ebd c373 c2be
00000220: 6d35 79be 81d5 b4be 3562 34bf db65 b6be
00000230: d7cb 96be 161e e3be 0a63 9fbe 85b3 cdbd
00000240: dd4f 29be c7e9 9fbe 0066 dcbd 1ec9 49bf
00000250: aaf4 64be 2852 a7bd 77a1 f5be 407c ebbe
00000260: f5fe 0bbf 430c 14bf 765c 18bf 9d7b 10bf
00000270: ea78 a1be 3ff7 b2be ea95 e6be 5628 d7be
00000280: 6602 cabe 5715 edbe 4bf8 26be 88fd 4b3d
00000290: 7040 9ebe dcb1 32be 7efd 9dbe 3dbf 6cbe
000002a0: 4fc6 b0be 90ec 55be c64d 97be 5c73 90be
000002b0: afc4 bbbe 4c12 17bf 69c2 06bf 449a 97be
000002c0: a747 95be f46c 4bbe 51b0 12be 86b8 febe
000002d0: 6c3d 09be 9a56 4fbe 17a8 8cbe 9ce2 50be
000002e0: 8cdb 07be 3630 e7be 10e1 dfbd 16a6 97be
000002f0: 4397 05bf 29e6 bbbe d07c 8ebe 079b c6bd
00000300: 21f2 a0bd 98e4 13bd 3c46 e0be fb9a 51be
00000310: 2123 e5be a9e3 debe 442d 473d 9d51 213d
00000320: 5908 1ebf d3cf a5be ed00 1abe 1a10 14bf
00000330: 2d61 32be 2a48 0bbf 6729 7ebe 441f c4be
00000340: a8a2 1bbf 41f5 48be f3df a7be 1ed9 19bf
00000350: a6b5 edbe c707 0dbf 64bf 03bf 1bec 8bbe
00000360: c1fd 5fbe 3eca 93be a9e2 c3be e081 c0be
00000370: 7843 5bbf 824b 51be c561 52be c691 c6be
00000380: c59b eabe 4ae9 5d3d bbb8 90be a087 a1be
00000390: 3b81 98be b6d5 c7be d2e7 1fbe 1c2b dbbe
000003a0: 9e20 46be 747a a7be 5d46 9ebe 0952 c1be
000003b0: 46df 0dbf cf65 3cbe 7d00 8bbe 97c7 e4be
000003c0: 1d02 97be 91a4 c0be 8d26 8ebe b679 07bf
000003d0: 7f12 be3c 22a8 bcbe 81b2 e6be 929e 0d3d
000003e0: 14a9 f3be 8c23 63be d612 17be b9ab 8cbe
000003f0: 7659 adbe 8cbd 74be 5506 aabc 0880 a0be
-0.3121271 -0.07572211 -0.1994223 -0.41154295 -0.27005342 -0.27644134 -0.14195232 -0.3015447
-0.08107321 -0.09184323 -0.43309852 -0.08429474 -0.08013105 -0.5659458 -0.100864805 -0.05772735
-0.12382045 -0.36232653 -0.09921574 -0.2778316 -0.10324401 -0.061072953 -0.22785026 -0.33273908
-0.41940778 -0.78206575 -0.3438225 -0.023784896 -0.08174676 -0.12435207 -0.30607554 -0.0841876
-0.2305575 -0.025445834 -0.36251187 -0.37885892 -0.2064636 -0.18825933 -0.51639473 -0.19663809
-0.18109235 -0.08213493 -0.14577207 -0.37981334 -0.25911304 -0.47458804 -0.3430821 -0.14364876
-0.1437984 -0.046671465 -0.44140062 -0.19891751 -0.11983111 -0.3264784 -0.103481464 -0.2438984
-0.15084516 -0.20254624 -0.0999806 -0.087796606 -0.239874 -0.059400383 -0.27240935 -0.11048074
-0.11697644 -0.34367576 -0.44103077 -0.16203468 -0.3706707 -0.2699416 -0.41948628 -0.4017888
-0.39089108 -0.2526897 -0.10356066 -0.2754099 -0.085416734 -0.15032561 -0.09976531 -0.14101882
-0.42477238 -0.09581208 -0.044118058 -0.16345154 -0.3223597 -0.2923749 -0.39405763 -0.49236372
-0.11069502 -0.5822568 -0.121375054 -0.7284167 -0.38952914 -0.07204834 -0.11025184 -0.25737965
-0.8265817 -0.3812055 -0.49348336 -0.2338836 -0.46461096 -0.1372437 0.06302196 -0.06941258
-0.14197506 -0.20119235 -0.111091815 -0.090482146 -0.41814426 -0.10256392 -0.092810966 -0.0906137
-0.084085174 -0.039766986 -0.10096433 -0.22519399 -0.05585002 -0.13978848 -0.1519619 -0.3325039
-0.26627412 -0.5798343 -0.0656241 -0.11084721 -0.10401732 -0.05418319 -0.09039606 -0.3892196
-0.5201706 -0.35490113 -0.22162625 -0.07351995 -0.2656857 -0.57154477 -0.06969555 -0.37978944
-0.24336787 -0.3531914 -0.7046235 -0.35624585 -0.29452392 -0.4435889 -0.31130248 -0.10044006
-0.16534372 -0.31233045 -0.107616425 -0.78822505 -0.22358957 -0.08169967 -0.4797475 -0.45993233
-0.5468591 -0.5783121 -0.59516084 -0.5643862 -0.31537563 -0.3495426 -0.4503625 -0.4202296
-0.39454955 -0.46305344 -0.16305654 0.049802333 -0.30908537 -0.1745066 -0.30857462 -0.23119827
-0.34526297 -0.20891023 -0.29551524 -0.28213012 -0.36673495 -0.59012294 -0.52640396 -0.29609883
-0.2915623 -0.19865781 -0.14325072 -0.49750155 -0.13402337 -0.2024788 -0.27471992 -0.20398945
-0.13267344 -0.4515397 -0.10931599 -0.296189 -0.5218393 -0.36699036 -0.278296 -0.09697538
-0.078586824 -0.036106676 -0.43803585 -0.20469277 -0.44753364 -0.43533066 0.048627153 0.039384473
-0.6173149 -0.3238512 -0.15039416 -0.5783707 -0.17419882 -0.5440699 -0.24820481 -0.38305104
-0.6079507 -0.19624807 -0.32788047 -0.6009692 -0.4642765 -0.5508999 -0.51463914 -0.27328572
-0.21874143 -0.28865236 -0.38258865 -0.37599087 -0.85649824 -0.2043896 -0.20545109 -0.3878309
-0.45821968 0.05417756 -0.28265938 -0.31548786 -0.29786095 -0.39030236 -0.15615776 -0.42806327
-0.1934838 -0.32710612 -0.30913058 -0.377579 -0.55418813 -0.18398212 -0.2714881 -0.44683525
-0.294938 -0.37625554 -0.27763787 -0.5292009 0.023202179 -0.36847025 -0.45058063 0.034575053
-0.47589934 -0.22181529 -0.14753279 -0.27474764 -0.33857316 -0.23900431 -0.020754972 -0.3134768

batchnorm1.weight f4 [128]
00000000: 0000 803f 0000 803f 0000 803f 0000 803f
00000010: 0000 803f 0000 803f 0000 803f 0000 803f
00000020: 0000 803f 0000 803f 0000 803f 0000 803f
00000030: 0000 803f 0000 803f 0000 803f 0000 803f
00000040: 0000 803f 0000 803f 0000 803f 0000 803f
00000050: 0000 803f 0000 803f 0000 803f 0000 803f
00000060: 0000 803f 0000 803f 0000 803f 0000 803f
00000070: 0000 803f 0000 803f 0000 803f 0000 803f
00000080: 0000 803f 0000 803f 0000 803f 0000 803f
00000090: 0000 803f 0000 803f 0000 803f 0000 803f
000000a0: 0000 803f 0000 803f 0000 803f 0000 803f
000000b0: 0000 803f 0000 803f 0000 803f 0000 803f
000000c0: 0000 803f 0000 803f 0000 803f 0000 803f
000000d0: 0000 803f 0000 803f 0000 803f 0000 803f
000000e0: 0000 803f 0000 803f 0000 803f 0000 803f
000000f0: 0000 803f 0000 803f 0000 803f 0000 803f
00000100: 0000 803f 0000 803f 0000 803f 0000 803f
00000110: 0000 803f 0000 803f 0000 803f 0000 803f
00000120: 0000 803f 0000 803f 0000 803f 0000 803f
00000130: 0000 803f 0000 803f 0000 803f 0000 803f
00000140: 0000 803f 0000 803f 0000 803f 0000 803f
00000150: 0000 803f 0000 803f 0000 803f 0000 803f
00000160: 0000 803f 0000 803f 0000 803f 0000 803f
00000170: 0000 803f 0000 803f 0000 803f 0000 803f
00000180: 0000 803f 0000 803f 0000 803f 0000 803f
00000190: 0000 803f 0000 803f 0000 803f 0000 803f
000001a0: 0000 803f 0000 803f 0000 803f 0000 803f
000001b0: 0000 803f 0000 803f 0000 803f 0000 803f
000001c0: 0000 803f 0000 803f 0000 803f 0000 803f
000001d0: 0000 803f 0000 803f 0000 803f 0000 803f
000001e0: 0000 803f 0000 803f 0000 803f 0000 803f
000001f0: 0000 803f 0000 803f 0000 803f 0000 803f
1.0 1.0 1.0 1.0 1.0 1.0 1.0 1.0
1.0 1.0 1.0 1.0 1.0 1.0 1.0 1.0
1.0 1.0 1.0 1.0 1.0 1.0 1.0 1.0
1.0 1.0 1.0 1.0 1.0 1.0 1.0 1.0
1.0 1.0 1.0 1.0 1.0 1.0 1.0 1.0
1.0 1.0 1.0 1.0 1.0 1.0 1.0 1.0
1.0 1.0 1.0 1.0 1.0 1.0 1.0 1.0
1.0 1.0 1.0 1.0 1.0 1.0 1.0 1.0
1.0 1.0 1.0 1.0 1.0 1.0 1.0 1.0
1.0 1.0 1.0 1.0 1.0 1.0 1.0 1.0
1.0 1.0 1.0 1.0 1.0 1.0 1.0 1.0
1.0 1.0 1.0 1.0 1.0 1.0 1.0 1.0
1.0 1.0 1.0 1.0 1.0 1.0 1.0 1.0
1.0 1.0 1.0 1.0 1.0 1.0 1.0 1.0
1.0 1.0 1.0 1.0 1.0 1.0 1.0 1.0
1.0 1.0 1.0 1.0 1.0 1.0 1.0 1.0

batchnorm1.bias f4 [128]
00000000: 0000 0000 0000 0000 0000 0000 0000 0000
00000010: 0000 0000 0000 0000 0000 0000 0000 0000
00000020: 0000 0000 0000 0000 0000 0000 0000 0000
00000030: 0000 0000 0000 0000 0000 0000 0000 0000
00000040: 0000 0000 0000 0000 0000 0000 0000 0000
00000050: 0000 0000 0000 0000 0000 0000 0000 0000
00000060: 0000 0000 0000 0000 0000 0000 0000 0000
00000070: 0000 0000 0000 0000 0000 0000 0000 0000
00000080: 0000 0000 0000 0000 0000 0000 0000 0000
00000090: 0000 0000 0000 0000 0000 0000 0000 0000
000000a0: 0000 0000 0000 0000 0000 0000 0000 0000
000000b0: 0000 0000 0000 0000 0000 0000 0000 0000
000000c0: 0000 0000 0000 0000 0000 0000 0000 0000
000000d0: 0000 0000 0000 0000 0000 0000 0000 0000
000000e0: 0000 0000 0000 0000 0000 0000 0000 0000
000000f0: 0000 0000 0000 0000 0000 0000 0000 0000
00000100: 0000 0000 0000 0000 0000 0000 0000 0000
00000110: 0000 0000 0000 0000 0000 0000 0000 0000
00000120: 0000 0000 0000 0000 0000 0000 0000 0000
00000130: 0000 0000 0000 0000 0000 0000 0000 0000
00000140: 0000 0000 0000 0000 0000 0000 0000 0000
00000150: 0000 0000 0000 0000 0000 0000 0000 0000
00000160: 0000 0000 0000 0000 0000 0000 0000 0000
00000170: 0000 0000 0000 0000 0000 0000 0000 0000
00000180: 0000 0000 0000 0000 0000 0000 0000 0000
00000190: 0000 0000 0000 0000 0000 0000 0000 0000
000001a0: 0000 0000 0000 0000 0000 0000 0000 0000
000001b0: 0000 0000 0000 0000 0000 0000 0000 0000
000001c0: 0000 0000 0000 0000 0000 0000 0000 0000
000001d0: 0000 0000 0000 0000 0000 0000 0000 0000
000001e0: 0000 0000 0000 0000 0000 0000 0000 0000
000001f0: 0000 0000 0000 0000 0000 0000 0000 0000
0.0 0.0 0.0 0.0 0.0 0.0 0.0 0.0
0.0 0.0 0.0 0.0 0.0 0.0 0.0 0.0
0.0 0.0 0.0 0.0 0.0 0.0 0.0 0.0
0.0 0.0 0.0 0.0 0.0 0.0 0.0 0.0
0.0 0.0 0.0 0.0 0.0 0.0 0.0 0.0
0.0 0.0 0.0 0.0 0.0 0.0 0.0 0.0
0.0 0.0 0.0 0.0 0.0 0.0 0.0 0.0
0.0 0.0 0.0 0.0 0.0 0.0 0.0 0.0
0.0 0.0 0.0 0.0 0.0 0.0 0.0 0.0
0.0 0.0 0.0 0.0 0.0 0.0 0.0 0.0
0.0 0.0 0.0 0.0 0.0 0.0 0.0 0.0
0.0 0.0 0.0 0.0 0.0 0.0 0.0 0.0
0.0 0.0 0.0 0.0 0.0 0.0 0.0 0.0
0.0 0.0 0.0 0.0 0.0 0.0 0.0 0.0
0.0 0.0 0.0 0.0 0.0 0.0 0.0 0.0
0.0 0.0 0.0 0.0 0.0 0.0 0.0 0.0

batchnorm1.running_mean f4 [128]
00000000: 0000 0000 0000 0000 0000 0000 0000 0000
00000010: 0000 0000 0000 0000 0000 0000 0000 0000
00000020: 0000 0000 0000 0000 0000 0000 0000 0000
00000030: 0000 0000 0000 0000 0000 0000 0000 0000
00000040: 0000 0000 0000 0000 0000 0000 0000 0000
00000050: 0000 0000 0000 0000 0000 0000 0000 0000
00000060: 0000 0000 0000 0000 0000 0000 0000 0000
00000070: 0000 0000 0000 0000 0000 0000 0000 0000
00000080: 0000 0000 0000 0000 0000 0000 0000 0000
00000090: 0000 0000 0000 0000 0000 0000 0000 0000
000000a0: 0000 0000 0000 0000 0000 0000 0000 0000
000000b0: 0000 0000 0000 0000 0000 0000 0000 0000
000000c0: 0000 0000 0000 0000 0000 0000 0000 0000
000000d0: 0000 0000 0000 0000 0000 0000 0000 0000
000000e0: 0000 0000 0000 0000 0000 0000 0000 0000
000000f0: 0000 0000 0000 0000 0000 0000 0000 0000
00000100: 0000 0000 0000 0000 0000 0000 0000 0000
00000110: 0000 0000 0000 0000 0000 0000 0000 0000
00000120: 0000 0000 0000 0000 0000 0000 0000 0000
00000130: 0000 0000 0000 0000 0000 0000 0000 0000
00000140: 0000 0000 0000 0000 0000 0000 0000 0000
00000150: 0000 0000 0000 0000 0000 0000 0000 0000
00000160: 0000 0000 0000 0000 0000 0000 0000 0000
00000170: 0000 0000 0000 0000 0000 0000 0000 0000
00000180: 0000 0000 0000 0000 0000 0000 0000 0000
00000190: 0000 0000 0000 0000 0000 0000 0000 0000
000001a0: 0000 0000 0000 0000 0000 0000 0000 0000
000001b0: 0000 0000 0000 0000 0000 0000 0000 0000
000001c0: 0000 0000 0000 0000 0000 0000 0000 0000
000001d0: 0000 0000 0000 0000 0000 0000 0000 0000
000001e0: 0000 0000 0000 0000 0000 0000 0000 0000
000001f0: 0000 0000 0000 0000 0000 0000 0000 0000
0.0 0.0 0.0 0.0 0.0 0.0 0.0 0.0
0.0 0.0 0.0 0.0 0.0 0.0 0.0 0.0
0.0 0.0 0.0 0.0 0.0 0.0 0.0 0.0
0.0 0.0 0.0 0.0 0.0 0.0 0.0 0.0
0.0 0.0 0.0 0.0 0.0 0.0 0.0 0.0
0.0 0.0 0.0 0.0 0.0 0.0 0.0 0.0
0.0 0.0 0.0 0.0 0.0 0.0 0.0 0.0
0.0 0.0 0.0 0.0 0.0 0.0 0.0 0.0
0.0 0.0 0.0 0.0 0.0 0.0 0.0 0.0
0.0 0.0 0.0 0.0 0.0 0.0 0.0 0.0
0.0 0.0 0.0 0.0 0.0 0.0 0.0 0.0
0.0 0.0 0.0 0.0 0.0 0.0 0.0 0.0
0.0 0.0 0.0 0.0 0.0 0.0 0.0 0.0
0.0 0.0 0.0 0.0 0.0 0.0 0.0 0.0
0.0 0.0 0.0 0.0 0.0 0.0 0.0 0.0
0.0 0.0 0.0 0.0 0.0 0.0 0.0 0.0

batchnorm1.running_var f4 [128]
00000000: 0000 803f 0000 803f 0000 803f 0000 803f
00000010: 0000 803f 0000 803f 0000 803f 0000 803f
00000020: 0000 803f 0000 803f 0000 803f 0000 803f
00000030: 0000 803f 0000 803f 0000 803f 0000 803f
00000040: 0000 803f 0000 803f 0000 803f 0000 803f
00000050: 0000 803f 0000 803f 0000 803f 0000 803f
00000060: 0000 803f 0000 803f 0000 803f 0000 803f
00000070: 0000 803f 0000 803f 0000 803f 0000 803f
00000080: 0000 803f 0000 803f 0000 803f 0000 803f
00000090: 0000 803f 0000 803f 0000 803f 0000 803f
000000a0: 0000 803f 0000 803f 0000 803f 0000 803f
000000b0: 0000 803f 0000 803f 0000 803f 0000 803f
000000c0: 0000 803f 0000 803f 0000 803f 0000 803f
000000d0: 0000 803f 0000 803f 0000 803f 0000 803f
000000e0: 0000 803f 0000 803f 0000 803f 0000 803f
000000f0: 0000 803f 0000 803f 0000 803f 0000 803f
00000100: 0000 803f 0000 803f 0000 803f 0000 803f
00000110: 0000 803f 0000 803f 0000 803f 0000 803f
00000120: 0000 803f 0000 803f 0000 803f 0000 803f
00000130: 0000 803f 0000 803f 0000 803f 0000 803f
00000140: 0000 803f 0000 803f 0000 803f 0000 803f
00000150: 0000 803f 0000 803f 0000 803f 0000 803f
00000160: 0000 803f 0000 803f 0000 803f 0000 803f
00000170: 0000 803f 0000 803f 0000 803f 0000 803f
00000180: 0000 803f 0000 803f 0000 803f 0000 803f
00000190: 0000 803f 0000 803f 0000 803f 0000 803f
000001a0: 0000 803f 0000 803f 0000 803f 0000 803f
000001b0: 0000 803f 0000 803f 0000 803f 0000 803f
000001c0: 0000 803f 0000 803f 0000 803f 0000 803f
000001d0: 0000 803f 0000 803f 0000 803f 0000 803f
000001e0: 0000 803f 0000 803f 0000 803f 0000 803f
000001f0: 0000 803f 0000 803f 0000 803f 0000 803f
1.0 1.0 1.0 1.0 1.0 1.0 1.0 1.0
1.0 1.0 1.0 1.0 1.0 1.0 1.0 1.0
1.0 1.0 1.0 1.0 1.0 1.0 1.0 1.0
1.0 1.0 1.0 1.0 1.0 1.0 1.0 1.0
1.0 1.0 1.0 1.0 1.0 1.0 1.0 1.0
1.0 1.0 1.0 1.0 1.0 1.0 1.0 1.0
1.0 1.0 1.0 1.0 1.0 1.0 1.0 1.0
1.0 1.0 1.0 1.0 1.0 1.0 1.0 1.0
1.0 1.0 1.0 1.0 1.0 1.0 1.0 1.0
1.0 1.0 1.0 1.0 1.0 1.0 1.0 1.0
1.0 1.0 1.0 1.0 1.0 1.0 1.0 1.0
1.0 1.0 1.0 1.0 1.0 1.0 1.0 1.0
1.0 1.0 1.0 1.0 1.0 1.0 1.0 1.0
1.0 1.0 1.0 1.0 1.0 1.0 1.0 1.0
1.0 1.0 1.0 1.0 1.0 1.0 1.0 1.0
1.0 1.0 1.0 1.0 1.0 1.0 1.0 1.0
