Audit-log_Analysis/code/GNN/training/checkpoint_GAT/best_model_GAT_5.pt (torch, 741359 bytes, 16 tensors)

layer1.attn_l f4 [1, 8, 16]
0	0xbd3abfa0	-0.045592904
1	0x3d729481	0.059223656
2	0x3df4dbc5	0.1195598
3	0x3eb887fe	0.36041254
4	0x3eaef236	0.34169167
5	0x3e25b6d1	0.1618302
6	0xbdd77524	-0.1052039
7	0x3d067a39	0.032831404
8	0xbb2594ba	-0.002526565
9	0xb8bf901f	-9.1344344e-05
10	0xbe024634	-0.12722093
11	0xbc22d882	-0.009939315
12	0xbdb9ac46	-0.09066062
13	0x3e4b352d	0.19844504
14	0x3c19196c	0.00934444
15	0x3e55d1af	0.20880769
16	0xbdf4300d	-0.119232275
17	0xbe376f96	-0.1791366
18	0xbe3d7007	-0.18499766
19	0xbd5f78fa	-0.05455873
20	0xbe13f650	-0.1444943
21	0x3c969419	0.018381165
22	0x3d328acb	0.043589395
23	0xbe4aa7be	-0.19790551
24	0x3e168a84	0.14701277
25	0xbd2513fd	-0.040302265
26	0xbdae3757	-0.08506649
27	0xbd8d4350	-0.068976045
28	0xbdf0b309	-0.11752898
29	0x3b8303db	0.0039982623
30	0x3c72e616	0.014825365
31	0x3d890c53	0.06691804
32	0xbe12348a	-0.14277855
33	0x3cb95df5	0.02262781
34	0x3d18de13	0.03732116
35	0xbe1c231d	-0.1524777
36	0xbe949bb4	-0.29025042
37	0x3d8fb42b	0.07016786
38	0xbdffe554	-0.12494913
39	0xbe48356e	-0.19551632
40	0x3de7df25	0.11321858
41	0x3e66b306	0.2252923
42	0xbdd8c789	-0.10584933
43	0xbd341990	-0.04396969
44	0x3be68df3	0.0070359646
45	0x3d218f35	0.039443213
46	0xbeb0cfce	-0.34533542
47	0xbc9ae6eb	-0.018908938
48	0xbddb3daf	-0.107051246
49	0xbe44df1a	-0.19225731
50	0xbe1337a5	-0.14376695
51	0xbd92022d	-0.07129321
52	0xbd131dcd	-0.035917092
53	0x3bf4f365	0.007475304
54	0x3dfca3c7	0.123359255
55	0xbe6b7e3c	-0.22997373
56	0x3dba4bdd	0.09096501
57	0xbe388f75	-0.18023475
58	0x3d54d547	0.05196121
59	0x3e1ce5cb	0.15322034
60	0x3e8a3824	0.26995957
61	0xbd9a9fd4	-0.07550016
62	0xbe98a9ce	-0.2981705
63	0xbe29c0e7	-0.16577493
64	0x3df94271	0.12170876
65	0xbe7e1b84	-0.24815184
66	0x3e161620	0.14656878
67	0xbd0c501d	-0.03425609
68	0x3da91afd	0.08257101
69	0xbdb0c4a7	-0.086312585
70	0x3d162b36	0.036662303
71	0x3d065320	0.032794118
72	0x3e552b43	0.20817284
73	0xbdda60e9	-0.106630154
74	0xbd683814	-0.056694105
75	0x3d783429	0.06059662
76	0x3d78ca14	0.06073959
77	0xbd6a5358	-0.05720839
78	0xbdee443a	-0.11634107
79	0xbe17cf54	-0.14825183
80	0xbd5d76e8	-0.054068476
81	0x3da70ba0	0.08156514
82	0x3cb366df	0.021899639
83	0x3d522bbd	0.051311243
84	0xbd28472a	-0.041083492
85	0x3b2504cf	0.0025179868
86	0x3dbe355f	0.092875235
87	0xbd9c958a	-0.0764571
88	0x3d935b19	0.0719511
89	0xbe088f79	-0.1333598
90	0x3d37cd11	0.0448733
91	0xbe4c803b	-0.19970791
92	0xbd982132	-0.074282065
93	0x3e1a6607	0.15077983
94	0xbd9c7611	-0.07639707
95	0x3d2a6c2f	0.04160708
96	0xbe27a218	-0.16370428
97	0xbe723c89	-0.23655905
98	0xbd428314	-0.047488287
99	0xbd72c173	-0.05926652
100	0xbe7d4432	-0.24733046
101	0xbdbdd122	-0.092684045
102	0x3e2dfb3a	0.16990367
103	0xbdfa8e62	-0.122341886
104	0xbd6637a4	-0.056205407
105	0xbbfc2277	-0.007694538
106	0xbdb16d42	-0.086634174
107	0xbd370ed3	-0.04469187
108	0xbd8add45	-0.06780485
109	0xbe1d5e5f	-0.15368031
110	0x3c92f60f	0.017939596
111	0xbe7b8768	-0.24563372
112	0x3c9d9ed9	0.019240784
113	0x3da17b53	0.0788485
114	0xbd7a0587	-0.061040428
115	0x3cabfebd	0.020995492
116	0x3e229b2d	0.15879507
117	0xbdb53faf	-0.08850037
118	0x3ba0d2b5	0.0049079307
119	0xbdcfaa79	-0.10139937
120	0x3d5a2929	0.05326191
121	0xbe386573	-0.1800745
122	0x3e8d7598	0.2762878
123	0xbbdd4ab0	-0.006753288
124	0x3e8ebaec	0.27876985
125	0xbe5514f9	-0.20808782
126	0x3dfa84d9	0.1223237
127	0x3db6f17c	0.08932778

layer1.attn_r f4 [1, 8, 16]
0	0xbe99db1b	-0.30049977
1	0xbe1a480c	-0.15066546
2	0xbe98cea5	-0.29845157
3	0x3e1aa9a5	0.15103777
4	0xbe8a900c	-0.27063024
5	0x3de0fa75	0.10985271
6	0xbd912808	-0.070877135
7	0xbd8f024f	-0.06982862
8	0x3e8140bc	0.252447
9	0xbca10b7d	-0.019658798
10	0xbd7f696c	-0.062356398
11	0xbdd9e676	-0.1063966
12	0xbd524406	-0.051334403
13	0xbe7893d2	-0.24275139
14	0xbdcf17bb	-0.10111948
15	0x3e427612	0.18990353
16	0x3d12d0c5	0.03584363
17	0xbaa4a875	-0.0012562411
18	0xbe3e38dc	-0.18576378
19	0xbddaa8b3	-0.10676708
20	0xbe79b5ed	-0.24385805
21	0x3e8e1371	0.27749208
22	0xbe3450f3	-0.17609005
23	0xbe8a448a	-0.27005416
24	0xbdcdb5c0	-0.10044432
25	0x3eb91f6b	0.36156783
26	0x3db01aee	0.085988864
27	0xbe4745f5	-0.1946028
28	0xbd1948ff	-0.03742313
29	0x3e08be59	0.13353862
30	0xbc4300ed	-0.011902076
31	0x3e28a124	0.1646772
32	0xbdb33a8c	-0.08751401
33	0xbe29511b	-0.16534846
34	0xbc93c1f3	-0.018036818
35	0x3da90377	0.08252614
36	0xbdc441c4	-0.09582856
37	0x3b7341fd	0.003711819
38	0x3e5fd15e	0.21857211
39	0xbdb90961	-0.09034992
40	0xbddb0c62	-0.10695721
41	0x3d81e001	0.063415535
42	0x3d8ba8ed	0.068193294
43	0x3db1ad7d	0.086756684
44	0xbdc81b46	-0.09770827
45	0xbe385c55	-0.18003972
46	0xbdedf3aa	-0.11618741
47	0x3dc2093c	0.094744176
48	0xbde1e4fe	-0.11030005
49	0xbdee77b7	-0.116439275
50	0x3d040391	0.032229964
51	0xbdf2e477	-0.118599825
52	0x3da60dd1	0.08108104
53	0xbe546ad8	-0.20743883
54	0xbe2852a7	-0.1643778
55	0x3df00711	0.11720098
56	0x3e8d742f	0.27627704
57	0x3e07fcf1	0.13280083
58	0x3cb28e6b	0.021796426
59	0x3d865b62	0.06560399
60	0xbd9c2da1	-0.076258905
61	0x3dba38e6	0.09092884
62	0xbe396c90	-0.1810782
63	0x3eada8a5	0.33917728
64	0xbe862b7d	-0.26205054
65	0xbef5fe1d	-0.48045436
66	0x3e52de1b	0.20592539
67	0x3eb298ce	0.34882206
68	0xbe6c6698	-0.23086011
69	0x3e67c791	0.22634722
70	0xbdd98da2	-0.106227174
71	0x3e521b64	0.20518261
72	0x3df45fdd	0.11932347
73	0x3df8a15c	0.12140152
74	0xbe817196	-0.25281972
75	0x3dd2881f	0.10279869
76	0x3d9fc993	0.07802119
77	0xbb1bef15	-0.0023793627
78	0xbd8fa19b	-0.07013246
79	0xbd0b070d	-0.03394227
80	0x3d065024	0.03279127
81	0x3dc4d8b3	0.096116446
82	0xbe3aa696	-0.1822761
83	0x3e40efa7	0.1884142
84	0xbe867c43	-0.2626668
85	0xbe411da9	-0.1885897
86	0xbe8e803c	-0.2783221
87	0x3ce2ae2e	0.027670946
88	0xbe4dc267	-0.2009369
89	0xbd429fbe	-0.047515623
90	0xbe2ab9e2	-0.16672471
91	0x3e197a47	0.14988051
92	0xbe1f1aa1	-0.15537502
93	0x3e58e272	0.21180132
94	0xbe49ac26	-0.19694576
95	0xbc2309ec	-0.009951096
96	0x3e108fca	0.14117351
97	0x3d99b6c1	0.07505561
98	0x3d010504	0.031498924
99	0xbd7e4a2d	-0.06208246
100	0x3e6fedea	0.23430601
101	0xbd1811dd	-0.03712641
102	0xbd209890	-0.039207995
103	0x3b2bf5b2	0.0026238975
104	0x3e231f6c	0.15929955
105	0x3e302ecc	0.17205352
106	0xbc1d5fba	-0.0096053425
107	0x3e03009d	0.12793203
108	0x3e284475	0.16432364
109	0xbd43758b	-0.04771952
110	0xbdb29e0f	-0.087215535
111	0xbedba43e	-0.42898744
112	0x3eb9900c	0.36242712
113	0xbed860ab	-0.42261252
114	0xbe571dd7	-0.21007477
115	0x3e8345cb	0.25639185
116	0x3d0dc283	0.03460933
117	0xbd1d7d44	-0.03844954
118	0x3e9f79fd	0.31147757
119	0x3e5ca5c2	0.21547607
120	0xbe77c36c	-0.24195641
121	0x3dd3ef2e	0.10348354
122	0x3d8eb13d	0.06967399
123	0xbc0ae9fd	-0.008478639
124	0xbc708044	-0.014679018
125	0xbaaa097c	-0.0012972797
126	0xbdce23b4	-0.100654036
127	0xbd25c90a	-0.04047493

layer1.bias f4 [128]
0	0x3ecb86a8	0.39751172
1	0x38fcf684	0.000120622135
2	0xbc086f50	-0.00832732
3	0xbb02b79c	-0.0019945865
4	0x3f8c1cb7	1.0946263
5	0xbb2d1994	-0.002641295
6	0xb97d2be6	-0.00024144314
7	0xbaf95601	-0.0019022824
8	0xbb269a41	-0.0025421532
9	0xba48bc22	-0.00076574285
10	0xbaf0da5a	-0.0018375621
11	0xba009560	-0.0004905071
12	0xbb656f11	-0.0035008828
13	0xb891d9f5	-6.9547365e-05
14	0xbbb1d478	-0.0054269396
15	0xb8ea8752	-0.00011183195
16	0x3fac591d	1.3464695
17	0x38025659	3.1074833e-05
18	0xbba135d0	-0.004919745
19	0x3eb2da6a	0.34932262
20	0x3dea396e	0.11436735
21	0xbc1acfd0	-0.00944896
22	0x3f65006a	0.89453757
23	0xbb6104ce	-0.003433514
24	0x3e71c3ce	0.2360985
25	0xba8eb59d	-0.0010887865
26	0xba837244	-0.0010028561
27	0x3f5a0c52	0.8517505
28	0xba0abaa6	-0.0005292095
29	0x3cc3935a	0.023873974
30	0x390fa26a	0.00013698047
31	0x3e2d79e2	0.16941026
32	0xba43f2e3	-0.00074748526
33	0xbaf0e913	-0.0018380008
34	0xbb78edb1	-0.0037983472
35	0xb9c8697c	-0.00038225565
36	0x38300c88	4.197334e-05
37	0xb8e1862b	-0.00010753827
38	0xba7e852c	-0.0009709175
39	0x3ec2d064	0.38049614
40	0x3e0e5b70	0.13902068
41	0xbad12cae	-0.001595875
42	0xb9479dcf	-0.00019036907
43	0xb967af14	-0.00022095098
44	0x38f34813	0.00011600568
45	0xb9e5aad2	-0.00043805555
46	0xba8c1cc3	-0.0010689724
47	0x3eb37622	0.35051066
48	0x3f8ca1f9	1.098693
49	0xb9873f4a	-0.0002579636
50	0x3f257824	0.64636445
51	0xbb814063	-0.003944443
52	0xba3cff7f	-0.0007209703
53	0xb9012b94	-0.00012318633
54	0xb9cf599d	-0.00039548884
55	0x394f9118	0.0001979511
56	0xb8ee9763	-0.00011376922
57	0xbad089da	-0.0015910224
58	0x3805d588	3.1908537e-05
59	0xbb502828	-0.0031762216
60	0xbb36286c	-0.002779509
61	0xbb15c174	-0.0022850903
62	0x3f897025	1.0737349
63	0x35a2ca9d	1.2128909e-06
64	0xba5a4b6d	-0.00083272794
65	0xb85acf30	-5.216821e-05
66	0xb8d9c879	-0.00010384707
67	0xbc6e984e	-0.014562679
68	0xba5e4546	-0.00084789505
69	0xbb44605b	-0.002996466
70	0x3e66a76b	0.22524802
71	0xbbbdd8ea	-0.0057936804
72	0x3b875348	0.004129801
73	0xba95ac8a	-0.0011419218
74	0x3f832ad8	1.024745
75	0x3a0143fc	0.000493109
76	0xbc0f1970	-0.008734092
77	0x3ea06333	0.31325683
78	0x399ce6e7	0.00029926674
79	0xbb64d4a8	-0.0034916792
80	0xbb00b373	-0.001963821
81	0xbb0f5314	-0.0021869587
82	0xbb7090d8	-0.0036707427
83	0xb8ce14b7	-9.826704e-05
84	0xbaf59018	-0.001873496
85	0xbaae8db0	-0.0013317373
86	0xba0873b8	-0.0005205232
87	0x388125de	6.158253e-05
88	0xba1abfbd	-0.0005903205
89	0xba96183e	-0.0011451317
90	0xbb1c8af3	-0.002388653
91	0xb9eab15a	-0.00044764095
92	0xba60c1b0	-0.00085737836
93	0xb91c690f	-0.00014916457
94	0xba501cd0	-0.0007938864
95	0x3e077407	0.13227855
96	0x3ef6493d	0.4810275
97	0xbac9bc16	-0.0015391137
98	0xb9d76f2a	-0.0004109082
99	0xbb2f447b	-0.0026743698
100	0x3e567349	0.20942415
101	0xba8a73ed	-0.0010563113
102	0x3bbb4691	0.0057151993
103	0xbb655314	-0.0034992145
104	0x39e6e779	0.0004404148
105	0xbb01397a	-0.0019718097
106	0xbbc829bf	-0.006108492
107	0xbb20191e	-0.0024429034
108	0xba30362a	-0.0006721938
109	0xbaac0128	-0.0013122903
110	0xb939eda7	-0.00017731507
111	0xba19c98f	-0.00058665214
112	0xba817b78	-0.0009878716
113	0xba72f2de	-0.00092677574
114	0xb996fc06	-0.00028798002
115	0xb9510740	-0.00019934494
116	0x386c2028	5.6296733e-05
117	0x3f431e68	0.7621827
118	0xb9a5bd73	-0.00031612403
119	0x3f72914e	0.9475297
120	0xbad36fdd	-0.001613136
121	0x3e35eaf0	0.17765403
122	0xb80ccab9	-3.35674e-05
123	0xba3c4fde	-0.0007183532
124	0x3990def7	0.00027631942
125	0xbae2c2e3	-0.0017300512
126	0x3bdbd2f3	0.0067084967
127	0xbaa389a8	-0.0012476938

layer1.fc.weight f4 [128, 50]
0	0xc04bd7ed	-3.185054
1	0x3f90995e	1.1296804
2	0x3fba4096	1.455096
3	0xbf8148c1	-1.0100328
4	0xbfc165f5	-1.510924
5	0x3f6b167b	0.9183118
6	0x3f87d339	1.0611335
7	0x3f9e59b9	1.2371131
8	0x3fdf2674	1.743361
9	0x3f95f179	1.1714317
10	0xbe4e9593	-0.20174246
11	0x3fb24f39	1.3930427
12	0x3d87ddaf	0.0663408
13	0x3f1462c4	0.57963204
14	0xbfe93de2	-1.822201
15	0xc0268d11	-2.60236
16	0xbf821e08	-1.0165415
17	0x3dcf2640	0.101147175
18	0xbda6582b	-0.081222855
19	0xbff61e3d	-1.9227978
20	0x3d9be73e	0.07612465
21	0xbfda687f	-1.706314
22	0x3d92945c	0.071572036
23	0xbeb0afd7	-0.34509155
24	0xbfd20a28	-1.640935
25	0xc04dd80d	-3.2163117
26	0xc00789e3	-2.117791
27	0xbfb669a4	-1.4250989
28	0x3f083bc6	0.5321621
29	0xbf0569e9	-0.5211473
30	0x3fbe2f3c	1.4858165
31	0x3f0292b7	0.5100512
32	0x40180744	2.3754435
33	0xbf9435d5	-1.1578928
34	0x3ebad505	0.36490646
35	0x3e68c8cd	0.2273285
36	0xbfafa205	-1.372132
37	0x3feee90b	1.8664869
38	0x3f1f4c48	0.6222577
39	0x3e70854d	0.2348835
40	0x3ea26896	0.31720418
41	0xbf08c1a8	-0.53420496
42	0xbe3b6460	-0.18300009
43	0xbef7512c	-0.48304117
44	0xbed90590	-0.42387056
45	0x3f9cecb3	1.2259735
46	0x3fb30df6	1.3988636
47	0x3e57450c	0.21022433
48	0x40233f48	2.5507374
49	0xbce73de2	-0.02822775
50	0x3fceea0d	1.6165177
51	0x401f5191	2.4893534
52	0x3f8eee36	1.1166446
53	0x402b9d56	2.681478
54	0xbdadae10	-0.084804654
55	0x3d211a37	0.03933164
56	0x3e536280	0.20643044
57	0xc009ca8b	-2.1529872
58	0xc00be399	-2.1857665
59	0xc0080bc8	-2.125719
60	0x3f4ae84b	0.792607
61	0x3fc44f94	1.5336785
62	0xbf2fceeb	-0.68675107
63	0xbfbb67c0	-1.4641037
64	0xbfd5c868	-1.6701784
65	0xc0190da8	-2.3914585
66	0x3feb58cf	1.8386477
67	0xbe991d07	-0.2990496
68	0x3f89c43a	1.0763009
69	0xbf2da569	-0.6783052
70	0x3f16d09c	0.5891206
71	0x3f781fa7	0.969233
72	0x3faf9d89	1.3719951
73	0x3fa3895e	1.2776296
74	0xc02ce1be	-2.7012782
75	0xbe20ba82	-0.15696147
76	0xbfd1079e	-1.633045
77	0xc0015249	-2.0206473
78	0xbf37a71b	-0.7173936
79	0x40225441	2.5363925
80	0x3fd0c91b	1.6311373
81	0xbef56c13	-0.47934017
82	0xbe996707	-0.29961416
83	0x3e092db1	0.13396336
84	0xbfaf1236	-1.3677433
85	0xbfd42be8	-1.6575899
86	0x3ffdb622	1.9821208
87	0x3fddc278	1.7324972
88	0x3f88a325	1.0674788
89	0xbfbece19	-1.4906646
90	0xbfed1557	-1.8522137
91	0xc0245ad6	-2.5680442
92	0x3f98de0b	1.1942762
93	0xbfce78b6	-1.6130588
94	0x3f01d22a	0.5071131
95	0xbe9b7e72	-0.30369908
96	0x3faf597d	1.3699185
97	0xbc896c49	-0.016775267
98	0x400d5280	2.2081604
99	0x3dfa5236	0.12222712
100	0x3fca86cc	1.5822387
101	0xbf3c001d	-0.7343767
102	0xbb82fdcf	-0.0039975415
103	0x402e5d2d	2.724437
104	0x3f6e8180	0.9316635
105	0xbfeb5bda	-1.8387406
106	0xbf96d467	-1.178357
107	0xbe1c5d7d	-0.15270038
108	0xc0441d47	-3.064287
109	0xbee7c297	-0.45265648
110	0x3f668e0b	0.9006049
111	0xc0098dd7	-2.1492822
112	0xbfed8985	-1.8557593
113	0xbf671d62	-0.9027921
114	0xbfaa5761	-1.3307916
115	0x3f7f5230	0.99734783
116	0x4013bee2	2.3085256
117	0xbf2b7fb9	-0.66991764
118	0x3e9931db	0.2992085
119	0x3eaf5d43	0.3425084
120	0x3ffaa789	1.9582378
121	0xbe29b9cd	-0.16574784
122	0x3feef144	1.8667378
123	0x3ef55edc	0.47923934
124	0xc02fdf7d	-2.7480156
125	0xbf7e214f	-0.99269575
126	0xbf32f9b6	-0.6991228
127	0xbf0180ad	-0.5058697
128	0xbe7aa155	-0.24475606
129	0x3ed2d247	0.41176054
130	0xbf4054e5	-0.7512954
131	0xbff58ac9	-1.9182979
132	0x3dabb55d	0.08384202
133	0xbf694734	-0.9112427
134	0xbfd7f99b	-1.6873049
135	0xbffff86d	-1.9997689
136	0x403f5bc4	2.989976
137	0xbfb68512	-1.425936
138	0x4030bc39	2.7614882
139	0x3f3c9ed3	0.73679847
140	0x3ee1a8ce	0.440741
141	0xbe312bfd	-0.17301936
142	0xbdd45771	-0.103682406
143	0xbf58064c	-0.8438461
144	0x3fe76fc1	1.808098
145	0x3f350fac	0.7072704
146	0x3f8e341d	1.1109654
147	0x3fdb3bcd	1.7127625
148	0x4038bffe	2.8867183
149	0x3ec842cc	0.39113462
150	0xbf92334f	-1.1421908
151	0xbdf18797	-0.1179344
152	0xbc484363	-0.0122230975
153	0x3f03e61f	0.5152301
154	0x401a722a	2.413218
155	0xbfd6c1de	-1.6777914
156	0x3fc21f7b	1.5165857
157	0xbf8870e0	-1.0659447
158	0xc01c69eb	-2.4439647
159	0xbf843eae	-1.0331628
160	0x402a4322	2.6603475
161	0xbfc30a3f	-1.5237502
162	0x3fcf6ca6	1.6205032
163	0xc0131bf7	-2.2985818
164	0xbf696fc4	-0.91186166
165	0x3fd90775	1.6955401
166	0x400450c3	2.0674293
167	0xc0399b53	-2.9001052
168	0xbcb6c8ab	-0.022312483
169	0xbfb348c8	-1.4006586
170	0x4013c7e6	2.3090758
171	0xc014df30	-2.3261223
172	0x40012ee2	2.0184865
173	0x3f956ed0	1.1674442
174	0xc01f2fcc	-2.4872923
175	0xbf3b45dd	-0.7315348
176	0xbeaa63c6	-0.33279246
177	0x3f109ede	0.5649241
178	0x4053726a	3.3038583
179	0x3fff28de	1.9934347
180	0xbf8a0aa5	-1.0784498
181	0x3d036b7d	0.03208493
182	0xbe9a59ff	-0.30146787
183	0xbd67d510	-0.056599677
184	0xbf86bedc	-1.0526996
185	0xc038a1a0	-2.8848648
186	0x3faa1bf9	1.3289787
187	0x3ffea439	1.9893867
188	0x40255f65	2.5839474
189	0xbffc8a2a	-1.9729664
190	0xbfa5061f	-1.2892493
191	0xc012330a	-2.2843652
192	0x3fb25496	1.3932064
193	0xc01e2486	-2.4709792
194	0x3ff2cf04	1.8969426
195	0x3f3dd700	0.7415619
196	0x400649dc	2.098258
197	0x401abf98	2.417944
198	0x4021e436	2.529554
199	0xbff506aa	-1.9142659
200	0x3f921691	1.1413137
201	0x3f51cf8c	0.81957316
202	0x3ffc60c9	1.9717036
203	0x3fda46b5	1.7052828
204	0xbfd23a60	-1.6424065
205	0x400820be	2.1269984
206	0xbfe792ed	-1.8091713
207	0xbf86bff1	-1.0527326
208	0x3f6f1fd8	0.93407965
209	0xc002cfcc	-2.043933
210	0xc002fb37	-2.046583
211	0x401dcaf7	2.465513
212	0xbfe7d19d	-1.8110844
213	0x3f3b6ac0	0.7320976
214	0x3fad23b9	1.3526527
215	0xc00354bf	-2.0520475
216	0xbf81d65f	-1.0143546
217	0x4019422e	2.3946643
218	0x3f37022e	0.714877
219	0xbf8ca616	-1.0988185
220	0xbfff53e6	-1.9947479
221	0x400ddcdb	2.216605
222	0xbf4f5cbb	-0.8100087
223	0xbf61afdb	-0.8815896
224	0x3f881f12	1.0634482
225	0x40057800	2.0854492
226	0xbf02d9de	-0.5111369
227	0xbeefc136	-0.46827096
228	0xbff17ece	-1.8866823
229	0xbfe50022	-1.7890666
230	0x3f87900a	1.0590832
231	0xbf8f378c	-1.1188827
232	0x3fac57e4	1.3464322
233	0x3f132e38	0.574924
234	0xbd9e1c45	-0.07720236
235	0x3fe15bb3	1.7606109
236	0x4021c98d	2.5279267
237	0xbfa0c495	-1.2559992
238	0xbfd32861	-1.6496698
239	0x3fd956ea	1.6979649
240	0xbf3fec89	-0.749703
241	0xbf7740ad	-0.9658306
242	0xbed7fe19	-0.4218605
243	0xbf04304d	-0.516362
244	0xbff4807d	-1.9101712
245	0x3f5bf9d5	0.8592809
246	0xbfaa66d0	-1.3312626
247	0xc0254911	-2.5825846
248	0xbf87e8b2	-1.0617888
249	0x3fb8bd24	1.4432721
250	0xbf2243cb	-0.63384694
251	0x4000960b	2.009158
252	0x3e0e7066	0.13910064
253	0x3eb9a16c	0.36255968
254	0x3fe49154	1.7856851
255	0xc00ff0a3	-2.2490623

layer2.attn_l f4 [1, 8, 168]
0	0xbee0bee2	-0.43895632
1	0xbe39e526	-0.1815382
2	0xbe890125	-0.26758686
3	0xbe4f0ba1	-0.2021928
4	0xbe80318b	-0.25037798
5	0xbeb70e84	-0.35753262
6	0xbcc00c27	-0.023443295
7	0x3e7ad3de	0.24494883
8	0xbdd74cd5	-0.105127014
9	0xbe961f95	-0.2932097
10	0xbe67409c	-0.2258324
11	0xbde25b9c	-0.11052629
12	0xbe45cbbd	-0.19316001
13	0xbef5ec82	-0.48032004
14	0xbe65ea96	-0.22452769
15	0xbeef6489	-0.4675639
16	0x3c6b3265	0.014355277
17	0x3cb73a3f	0.022366641
18	0xbe16ae16	-0.14714846
19	0xbe3ac724	-0.18240029
20	0xbe3c1700	-0.18368149
21	0xbd9222cb	-0.071355425
22	0xbf396e80	-0.72434235
23	0xbedbcb94	-0.42928755
24	0xbe53ec72	-0.20695665
25	0xbed332f4	-0.41249812
26	0xbe348e5d	-0.17632432
27	0xbf1ed090	-0.6203699
28	0x3dcdc6c7	0.100476794
29	0xbe126540	-0.14296436
30	0xbdb7e2a8	-0.08978778
31	0xbe278c3e	-0.16362092
32	0xbd564009	-0.052307162
33	0xbe66616a	-0.22498098
34	0xbdf861df	-0.121280424
35	0xbe9cc4bf	-0.30618855
36	0xbe8211a1	-0.25404075
37	0xbe185d4a	-0.14879337
38	0xbe2fc10e	-0.17163488
39	0xbe39f331	-0.18159176
40	0xbeebb8b5	-0.46039358
41	0xbe852e6d	-0.26011983
42	0xbe2ef09c	-0.17083973
43	0xbe149696	-0.14510569
44	0xbe2eba15	-0.17063172
45	0xbf055a0b	-0.5209052
46	0xbe7ba72d	-0.24575491
47	0xbe1f93a0	-0.15583658
48	0xbe4f3bbe	-0.20237634
49	0xbd8105fa	-0.06299968
50	0xbf03327f	-0.51248926
51	0x3cd8c9c4	0.026463397
52	0x3f44483d	0.76672727
53	0xbe7917e0	-0.24325514
54	0xbe3d255b	-0.18471281
55	0xbe393e97	-0.18090282
56	0xbedc87c4	-0.4307233
57	0xbe795d6a	-0.24352041
58	0xbe1f6f26	-0.15569744
59	0x3d3f5956	0.046716057
60	0xbe1fcdc3	-0.15605836
61	0xbf22cf84	-0.63597894
62	0xbe69bbcd	-0.22825547
63	0xbe15d042	-0.14630225
64	0xbe00b37a	-0.12568465
65	0xbf521eb0	-0.82078075
66	0x3d170178	0.036866635
67	0xbd331afa	-0.0437269
68	0xbe3b55dc	-0.18294472
69	0xbe92e255	-0.28688303
70	0xbe5102f2	-0.2041128
71	0xbe98d608	-0.29850793
72	0xbefbf9a8	-0.4921391
73	0xbf2594b1	-0.6468001
74	0xbd2e8359	-0.04260573
75	0xbe3daedd	-0.18523736
76	0xbdfc6782	-0.1232443
77	0x3d60f9d2	0.054925747
78	0xbeab8dd8	-0.33506656
79	0xbeea4019	-0.45752028
80	0xbe57c4fc	-0.21071237
81	0xbe8ac6db	-0.2710484
82	0xbe634961	-0.2219596
83	0xbea247b7	-0.3169534
84	0xbec660e1	-0.38745788
85	0x3d5f7143	0.054551374
86	0xbe85e681	-0.26152423
87	0xbe0016e3	-0.1250873
88	0xbd79c583	-0.060979377
89	0xbed72e47	-0.42027494
90	0xbe5adc66	-0.21373138
91	0xbe1cd4e5	-0.15315588
92	0xbe6354ff	-0.22200392
93	0xbd8d1bb9	-0.06890053
94	0xbf005f19	-0.5014511
95	0xbf114923	-0.5675222
96	0xbebede6f	-0.37279078
97	0xbea2ab4b	-0.3177131
98	0xbe14fafc	-0.14548868
99	0xbe119c2c	-0.14219731
100	0xbe428d69	-0.18999256
101	0xbd7ea21e	-0.062166326
102	0xbe3f1a1d	-0.18662305
103	0xbe07bda3	-0.13255934
104	0xbe7f5502	-0.24934772
105	0xbd82fab1	-0.06395472
106	0xbdf2d3e9	-0.11856825
107	0xbe7f69ca	-0.24942699
108	0xbc99fae0	-0.018796384
109	0xbe453b4e	-0.19260904
110	0xbe359bd8	-0.17735231
111	0xbe502280	-0.2032566
112	0xbe5451a4	-0.20734268
113	0xbe382d49	-0.17986025
114	0xbddd26ff	-0.107984535
115	0xbed2a161	-0.41138747
116	0xbe3d39c0	-0.18479061
117	0xbec81689	-0.39079693
118	0x3c5aafb2	0.013347553
119	0xbe0c6a18	-0.13712347
120	0xbf03d6d7	-0.51499695
121	0xbe874907	-0.26422903
122	0xbea62055	-0.32446542
123	0xbd1aef44	-0.037825838
124	0xbe448041	-0.1918955
125	0xbe781429	-0.2422644
126	0xbeaa3200	-0.33241272
127	0x3e47dac7	0.1951705
128	0xbe578c1d	-0.21049543
129	0xbe6c41c5	-0.23071964
130	0xbf1b5369	-0.6067415
131	0xbdb1df0b	-0.0868512
132	0xbd1c69a6	-0.03818669
133	0xbe0e5ad7	-0.1390184
134	0x3ec14895	0.37750688
135	0xbe70798f	-0.23483871
136	0xbe99e0f0	-0.30054426
137	0xbe733a3b	-0.23752682
138	0xbebd9d20	-0.3703394
139	0xbe89c3da	-0.26907235
140	0xbdbbf62f	-0.09177815
141	0xbc73db19	-0.01488378
142	0xbe8c25c5	-0.27372566
143	0xbe8e9802	-0.27850348
144	0xbe3dfde1	-0.18553878
145	0xbea2638c	-0.31716573
146	0xbe772232	-0.24134138
147	0xbece7f21	-0.40331367
148	0xbcf23647	-0.029566897
149	0xbe835d14	-0.2565695
150	0xbde1076e	-0.10987745
151	0xbe91e566	-0.2849533
152	0xbe82de08	-0.2556002
153	0xbe407381	-0.18794061
154	0x3d541e8a	0.051786937
155	0xbc8394d8	-0.016062185
156	0xbd899ef8	-0.06719774
157	0xbeac4475	-0.3364598
158	0xbe35a35e	-0.17738101
159	0xbe374a26	-0.17899379
160	0x3d4b4457	0.04962572
161	0x3e43d1ab	0.1912295
162	0xbe84be76	-0.2592656
163	0xbe105247	-0.14093886
164	0xbe5d36b1	-0.21602894
165	0x3d833e13	0.06408324
166	0xbd40035e	-0.04687821
167	0xbf255045	-0.64575607
168	0xbf2a63fd	-0.6655882
169	0xbde66bdc	-0.11251041
170	0xbe234162	-0.1594291
171	0xbe103b81	-0.14085199
172	0xbe5deb14	-0.21671706
173	0xbeb8533a	-0.36000997
174	0xbd14a4e0	-0.03629005
175	0x3e920d6e	0.2852587
176	0xbdc02389	-0.09381778
177	0xbe6f6509	-0.23378386
178	0xbdde4fb1	-0.10855044
179	0xbcc54952	-0.024082813
180	0xbe6fd096	-0.23419413
181	0xbea23540	-0.31681252
182	0xbe3d976d	-0.18514796
183	0xbf162074	-0.5864327
184	0xbdb29a8f	-0.08720886
185	0x3df91a07	0.121631674
186	0xbe1330e4	-0.14374119
187	0xbe8295b6	-0.25504845
188	0xbe286a9a	-0.16446915
189	0x3d8a3027	0.067474656
190	0xbf51aa7d	-0.8190077
191	0xbf084e14	-0.5324414
192	0xbd57be99	-0.052672002
193	0xbe813af2	-0.25240284
194	0xbe0e0515	-0.13869126
195	0xbf22e94c	-0.6363723
196	0x3e552cf9	0.20817937
197	0x3d11cef2	0.03559775
198	0xbd8b3c00	-0.067985535
199	0xbe21ebdd	-0.15812631
200	0xbdd2f9d8	-0.1030156
201	0xbe1ed4e8	-0.15510905
202	0xbe172333	-0.14759521
203	0xbea88e45	-0.32921043
204	0xbd87826b	-0.06616672
205	0xbd89e59e	-0.06733249
206	0xbde6aee8	-0.112638295
207	0xbee69104	-0.45032513
208	0xbed7ecea	-0.4217294
209	0xbd4a3a19	-0.049371812
210	0xbe432351	-0.19056441
211	0xbe2cfb85	-0.16892822
212	0xbe15e067	-0.14636384
213	0xbf3ecf37	-0.74534935
214	0xbe367bce	-0.17820665
215	0xbe02742c	-0.12739629
216	0xbdf5f57e	-0.120097145
217	0xbe15da13	-0.1463397
218	0xbec8abed	-0.3919367
219	0xbcf1abda	-0.02950089
220	0x3ef15893	0.4713789
221	0xbe91818c	-0.2841915
222	0xbe4cf568	-0.2001549
223	0xbe5eee52	-0.217706
224	0xbeb79176	-0.35853165
225	0xbe378d5c	-0.17925018
226	0xbdb4c78e	-0.088271245
227	0x3c16802a	0.00918583
228	0xbdbb42e3	-0.09143617
229	0xbf1c221f	-0.60989565
230	0xbe78de83	-0.24303631
231	0xbe00f5ca	-0.12593761
232	0xbd20fbbf	-0.039302584
233	0xbf52568a	-0.821633
234	0x3dce2e27	0.100673966
235	0xbecebe85	-0.4037973
236	0xbd9bcbbb	-0.07607218
237	0xbed52a0b	-0.4163364
238	0x3dce4dfc	0.10073468
239	0xbe3aeebd	-0.18255134
240	0xbf0172b6	-0.5056566
241	0xbeda7a76	-0.42671555
242	0xbdace289	-0.08441646
243	0xbe8b632b	-0.27224097
244	0xbda2dd53	-0.079523705
245	0x3d39617e	0.04525899
246	0xbeaba329	-0.3352292
247	0xbf02698f	-0.5094232
248	0xbe5b1819	-0.21395911
249	0xbe726096	-0.23669657
250	0xbe4c5e0b	-0.1995775
251	0xb9ecb4ca	-0.00045148126
252	0xbe946cae	-0.28989166
253	0xbdb07543	-0.08616116
254	0xbe380aee	-0.1797292
255	0xbe186491	-0.14882113

layer2.attn_r f4 [1, 8, 168]
0	0x3dc6b3a5	0.09702233
1	0x3e2bbef1	0.16772057
2	0x3d89a40f	0.06720745
3	0xbda09322	-0.07840563
4	0x3c905954	0.01762072
5	0xbc3cd8c2	-0.011526288
6	0x3d801d1a	0.06255551
7	0x3b9cb3a0	0.004782155
8	0x3e017739	0.12643136
9	0x3d3c282f	0.04593676
10	0x3cddc53b	0.027071586
11	0x3d2182dc	0.039431438
12	0x3d61e229	0.055147324
13	0xbda760e6	-0.08172779
14	0x3c8ee79c	0.017444424
15	0xbda098a1	-0.07841612
16	0xbd082746	-0.03324058
17	0xbcf1bc9e	-0.029508885
18	0x3d6287be	0.055305235
19	0x3dcf71a6	0.101290986
20	0x3dbc7d44	0.0920358
21	0x3e009c5c	0.12559646
22	0x3e2a3dfc	0.16625208
23	0x3d69f660	0.057119727
24	0x3d578efd	0.0526266
25	0xbd15e2e5	-0.036593337
26	0x3dc27403	0.09494784
27	0x3d38992a	0.045067944
28	0x3d3d3285	0.046190757
29	0x3d907829	0.07054169
30	0xb9017175	-0.00012344665
31	0x3ded3cc7	0.11583858
32	0xbd640016	-0.055664144
33	0x3d4100b3	0.047119807
34	0x3d9bb4d2	0.07602848
35	0xbd845c26	-0.064628884
36	0x3dd5b7f9	0.104354806
37	0x3dc6ff55	0.097166695
38	0x3e108570	0.14113402
39	0xbc94d4c4	-0.01816786
40	0xbd479a3c	-0.048731074
41	0x3d19029d	0.037356008
42	0x3d616ff3	0.055038404
43	0x3ded759c	0.11594698
44	0x3db902db	0.09033748
45	0xbdaa65ef	-0.083202235
46	0x3d2440a4	0.04010071
47	0x3e0e8c1b	0.13920633
48	0x3da87fe3	0.082275175
49	0x3d416f5b	0.047225337
50	0xbd1e1d4f	-0.03860217
51	0x3d0f18f0	0.03493589
52	0x3ce4286a	0.027851302
53	0x3e418492	0.18898228
54	0x3d568c71	0.05238003
55	0x3dcaa80d	0.098953344
56	0xbdae961d	-0.085247256
57	0x3dac8bbb	0.08425089
58	0x3d91e93a	0.071245626
59	0x3dfc4279	0.12317366
60	0x3c446158	0.011986099
61	0x3d5169f2	0.051126428
62	0xbd7a2e51	-0.061079327
63	0x3d9be881	0.07612706
64	0x3d9596f0	0.0730418
65	0x3e35f3a7	0.17768727
66	0x3c12ddf2	0.008964049
67	0x3cbc0261	0.022950353
68	0x3e1832e4	0.14863163
69	0xbcc04298	-0.023469254
70	0x3bda8381	0.0066685085
71	0x3da87d7d	0.0822706
72	0x3ba6de74	0.0050924364
73	0x3bb0df85	0.0053977394
74	0x3d5a8526	0.053349636
75	0x3d54cbbf	0.05195212
76	0x3e2a29f4	0.16617566
77	0x3db3f04c	0.08786067
78	0xbba5e896	-0.005063127
79	0xbe2ee926	-0.17081127
80	0xbde088c0	-0.10963583
81	0x3d765416	0.060138784
82	0xbdd0bbb6	-0.10192053
83	0x3d52875a	0.051398613
84	0x3bcd9ddd	0.0062749223
85	0xbd85d4f9	-0.06534762
86	0x3d98b721	0.07456804
87	0x3d7b9a2b	0.061426323
88	0x3dbc8628	0.09205276
89	0xbd4fc097	-0.050720777
90	0x3dd51efe	0.10406302
91	0x3d762006	0.060089134
92	0x3dab5e05	0.08367542
93	0x3dc9a7bd	0.09846447
94	0xbb9a514d	-0.004709399
95	0x3d2f31a6	0.042771958
96	0xbd7bc921	-0.06147111
97	0x3caa57f2	0.020793889
98	0x3d7f4bce	0.062328152
99	0xbcd48d43	-0.025946265
100	0x3e59c5d7	0.21266876
101	0x3da6d04e	0.081452
102	0x3e13b739	0.14425363
103	0xbcf4ee19	-0.02989869
104	0x3d04aead	0.032393146
105	0xbd9b8c22	-0.075950876
106	0xbdeff4ae	-0.11716591
107	0x3db44cd0	0.08803713
108	0xbd3077bd	-0.04308294
109	0x3e16d98e	0.14731428
110	0x3ccc4064	0.024933048
111	0x3e21ce69	0.15801395
112	0x3d67827c	0.056520924
113	0xbd8adde2	-0.06780602
114	0x3e07c2fc	0.13257974
115	0xbd50cc91	-0.05097634
116	0x3d0e9d50	0.034817994
117	0x3d1449f7	0.03620335
118	0xbda3705e	-0.07980417
119	0x3d9af4e6	0.07566242
120	0xbd97b5e6	-0.07407741
121	0x3d8201f1	0.063480265
122	0xbcac01f2	-0.020997021
123	0xbd49218d	-0.049104262
124	0x3dc2dca4	0.0951474
125	0x3d7863fc	0.060642228
126	0x3cac7fd3	0.021057045
127	0x3da15251	0.07877029
128	0x3b7f5c93	0.003896509
129	0x3d81d175	0.06338779
130	0xbbacc0dc	-0.005272014
131	0x3dcb427d	0.09924791
132	0x3d8f5a00	0.06999588
133	0x3db1bda9	0.08678753
134	0x3d62a49e	0.055332772
135	0x3e121c1b	0.14268534
136	0xbde0b4e5	-0.10972003
137	0x3d8054b5	0.062661566
138	0x3d0de78c	0.03464465
139	0x3da77d08	0.08178145
140	0xbe0284ba	-0.12745944
141	0x3d29567e	0.04134225
142	0x3d6c591c	0.05770217
143	0x3cb37700	0.02190733
144	0x3ceb1b50	0.028699547
145	0xbd032ed0	-0.032027066
146	0xbd5fa8b8	-0.054604262
147	0xbd10d1e5	-0.03535642
148	0x3cdbc98e	0.026829507
149	0xbd80173b	-0.06254431
150	0x3c6d6909	0.014490374
151	0x3d99510a	0.0748616
152	0x3d93766a	0.0720032
153	0x3d42d949	0.0475705
154	0x3d0df06e	0.03465312
155	0x3b9f1a0f	0.0048554013
156	0x3cc1352d	0.023584927
157	0x3e458a61	0.19291069
158	0x3e0f2378	0.13978374
159	0xbe0d4cb3	-0.1379879
160	0x3e093b23	0.13401465
161	0x3e095694	0.13411933
162	0x3df9c9c3	0.12196686
163	0x3cbd4d8d	0.023108268
164	0x3e3add97	0.18248592
165	0xbc8c3c76	-0.017118674
166	0x3d8ecf81	0.06973172
167	0x3e69231f	0.22767304
168	0xbd54e7b0	-0.051978767
169	0x3d2fc73c	0.042914614
170	0x3ddbc494	0.10730854
171	0x3d234914	0.039864615
172	0x3ddb2208	0.1069985
173	0x3d35230b	0.044222873
174	0x3cdf11f4	0.02723024
175	0xbdd93516	-0.106058285
176	0xbc32ac0c	-0.010905277
177	0xbbd0a79a	-0.006367636
178	0x3cf3db93	0.029767787
179	0x3e03fbdf	0.1288905
180	0xbddbba40	-0.10728884
181	0xbcb71d12	-0.022352729
182	0x3cb27d23	0.021788185
183	0xbd7f393e	-0.06231045
184	0x3d4838a0	0.048882127
185	0x3d1e1450	0.03859359
186	0x3c81262d	0.015765274
187	0xbd006c47	-0.03135326
188	0x3d8f802d	0.070068695
189	0x3dc02141	0.09381343
190	0x3d9f6898	0.077836215
191	0x3c8cb948	0.017178193
192	0x3c790afa	0.015200371
193	0xbbbe7ce4	-0.005813228
194	0x3d31cf47	0.043410566
195	0x3b814735	0.003945256
196	0xbc1e4b79	-0.009661549
197	0xbcbeb7e2	-0.023281042
198	0x3bffddc7	0.0078084203
199	0x3d0f416f	0.03497451
200	0xbd013fc5	-0.031554956
201	0x3c2daac0	0.010599792
202	0x3d21de93	0.039518904
203	0x3db9251e	0.09040283
204	0x3d3f1c5c	0.046657905
205	0xba701930	-0.00091590267
206	0x3b5a4982	0.0033307974
207	0xbd649c3c	-0.05581306
208	0x3cbe12af	0.023202268
209	0xbd10883f	-0.035286184
210	0xbd119395	-0.035541136
211	0xbc39b15c	-0.01133379
212	0x3dd8173e	0.10551308
213	0x3d0c032a	0.034182705
214	0x3cd9598c	0.026531957
215	0xbd978694	-0.073987156
216	0x3d10503a	0.03523276
217	0x3c2e400f	0.01063539
218	0xbd699c17	-0.057033625
219	0xbc193519	-0.009351038
220	0xbd222aa5	-0.03959145
221	0x3ce556fd	0.02799558
222	0x3d4ac1cc	0.049501225
223	0xbd171811	-0.036888186
224	0x3bceff44	0.006317051
225	0xbc8a04d1	-0.016848
226	0x3d8cb908	0.068712294
227	0xbaaec63f	-0.0013334228
228	0x3c470280	0.012146592
229	0x3d550805	0.0520096
230	0x3d49d7fd	0.049278248
231	0xbd88b2c1	-0.066747196
232	0x3b4d5c7a	0.0031335638
233	0x3e3d2c3c	0.18473905
234	0x3d32eefb	0.04368494
235	0x3d20b057	0.03923067
236	0x3d2e8bb4	0.0426137
237	0xbd5dfc24	-0.05419554
238	0xbce46c06	-0.02788354
239	0x3c64c9e0	0.013964146
240	0x3d65b906	0.056084655
241	0x3c9d8fd6	0.019233625
242	0x3c531504	0.0128834285
243	0x3a25665f	0.0006309505
244	0x3db494d3	0.088174485
245	0xbcbea6ea	-0.02327295
246	0xba435e54	-0.00074527157
247	0xbd1f7ba8	-0.038936287
248	0x3c8ef5a1	0.01745111
249	0xbd0632a1	-0.032763127
250	0x3c6cbea4	0.014449749
251	0x3d386b83	0.045024406
252	0xbcd3ba90	-0.025845796
253	0xbc70891b	-0.014681126
254	0xbd28115e	-0.041032188
255	0x3bc9e837	0.0061617154

layer2.bias f4 [1344]
0	0xbcbcb457	-0.023035211
1	0x3e83e069	0.2575715
2	0x3e785667	0.2425171
3	0xbec0b078	-0.37634635
4	0x3e78d2e1	0.24299194
5	0xbd4db798	-0.050223917
6	0xbea20277	-0.31642506
7	0xbf19eeb4	-0.6012986
8	0x3b507ddf	0.0031813306
9	0x3e7d7f86	0.24755678
10	0x3e849cf2	0.2590099
11	0x3e8570bb	0.2606257
12	0x3e818365	0.2529556
13	0xbd869704	-0.06571773
14	0x3e7ed087	0.24884234
15	0xbcee9709	-0.029124754
16	0xbed9ad5d	-0.42515078
17	0xbf201112	-0.6252605
18	0x3e73d81f	0.23812912
19	0x3e83dd45	0.25754753
20	0x3e84e1d3	0.2595354
21	0xbde53c73	-0.111931704
22	0xbf16301a	-0.5866715
23	0xbe4cc3a0	-0.199965
24	0x3e6c97b6	0.23104748
25	0xbefb69ed	-0.49104252
26	0x3e79a19c	0.24378055
27	0xbd4257a3	-0.04744686
28	0xbe9f2534	-0.3108307
29	0xbe40b41f	-0.1881871
30	0x3e7523fb	0.23939507
31	0x3e7e21f9	0.24817647
32	0xbee2d1cc	-0.44300687
33	0x3e777cb3	0.24168663
34	0x3e7a8a39	0.2446679
35	0xbe78af31	-0.2428558
36	0x3e68531c	0.22687954
37	0x3b457eca	0.0030135387
38	0x3e7cb9e8	0.24680293
39	0xbd1a2f6f	-0.037642892
40	0xbe83388a	-0.25629073
41	0x3e586059	0.21130504
42	0x3e766d41	0.24065115
43	0x3e7541ee	0.23950931
44	0x3e760905	0.24026878
45	0xbcfda5de	-0.03096288
46	0x3e7f3df4	0.24925977
47	0x3e77b8e3	0.24191622
48	0x3e71eb50	0.23624921
49	0x3e759736	0.23983464
50	0xbd78674a	-0.06064538
51	0xbe6bde87	-0.23034106
52	0xbf14dde7	-0.58151096
53	0x3e8681b3	0.26270828
54	0x3e73c314	0.23804885
55	0x3e70f24c	0.23529929
56	0xbd099fd0	-0.033599675
57	0x3e802bee	0.25033516
58	0x3e57f6cb	0.21090238
59	0xbdf75070	-0.12075889
60	0x3e8605a9	0.26176193
61	0xbd738ad3	-0.059458565
62	0xbe83a1c8	-0.25709367
63	0x3e6dc0f0	0.23218131
64	0xbaf5f26c	-0.0018764264
65	0xbf16aa56	-0.5885366
66	0xbe3d9c41	-0.18516637
67	0xbd2d002a	-0.042236485
68	0xbcecdde1	-0.028914394
69	0xbe3bd44b	-0.18342702
70	0xbeb931ac	-0.3617071
71	0x3e813773	0.25237617
72	0xbd3362b4	-0.043795303
73	0x3b0e8264	0.00217452
74	0x3e6dd8ec	0.2322728
75	0x3e6d9a1a	0.23203316
76	0x3e8180e2	0.25293642
77	0xbe013e12	-0.12621334
78	0xbd69204f	-0.056915578
79	0xbca07946	-0.019589078
80	0xbea07920	-0.3134241
81	0x3e7af14d	0.24506111
82	0xbf0f4efb	-0.5597989
83	0x3e6a65a6	0.22890338
84	0xbe46027a	-0.19336882
85	0xbe2c953f	-0.16853808
86	0x3e7412c1	0.23835279
87	0x3e81369d	0.2523698
88	0x3bd8a7a6	0.006611782
89	0xbd0f23ed	-0.03494637
90	0x3be0aded	0.006856671
91	0xbde5e653	-0.112255715
92	0x3e7e3bd3	0.24827509
93	0xbbb7d888	-0.0056105293
94	0xbcb4e175	-0.022080163
95	0xbd2071b4	-0.039170936
96	0xbe9f4689	-0.31108502
97	0x3e7ffe91	0.24999453
98	0x3e812ea9	0.2523091
99	0xbef07a9c	-0.46968544
100	0x3b040c89	0.0020149073
101	0xbdfec6c7	-0.124402575
102	0x3e84232a	0.25808078
103	0xbce84031	-0.028350921
104	0x3e89fed1	0.26952222
105	0xbeb1bfa1	-0.34716514
106	0xbed364ad	-0.41287747
107	0xbca99b56	-0.020703953
108	0xbe53019d	-0.20606084
109	0x3e808e5e	0.25108618
110	0x3c13b9e1	0.009016485
111	0x3e8bf2f4	0.27333796
112	0x3e7e1f3c	0.24816602
113	0x3c305e3c	0.010764655
114	0x3bf558f6	0.0074874116
115	0xbec9c2be	-0.3940639
116	0x3e669dd9	0.22521152
117	0xbd1c9a88	-0.03823331
118	0xbea91284	-0.3302194
119	0x3e74252c	0.23842305
120	0xbe812779	-0.25225428
121	0x3e5dae43	0.21648507
122	0xbe2812f8	-0.16413486
123	0xbeb844c0	-0.35989952
124	0x3e86d0c1	0.26331142
125	0x3e720643	0.23635201
126	0xbcd52123	-0.026016777
127	0xbebb833c	-0.3662356
128	0xbed826c2	-0.4221707
129	0xbc207150	-0.009792641
130	0xbbb7d5fc	-0.0056102257
131	0xbe5d4996	-0.21610102
132	0xbee2afbe	-0.44274706
133	0xbbe6dabf	-0.0070451195
134	0xbf0238cd	-0.5086792
135	0x3e79ace5	0.2438236
136	0xbe5e7443	-0.21724038
137	0x3e86e180	0.26343918
138	0xbd552bdc	-0.05204378
139	0x3e6a6566	0.22890243
140	0xbe8974b9	-0.26846865
141	0xbb8a6fd0	-0.004224755
142	0x3e840950	0.25788355
143	0x3e741e59	0.23839702
144	0x3e8c4ede	0.2740392
145	0xbea369c4	-0.3191663
146	0xbecd37a3	-0.4008151
147	0xbe1837c4	-0.14865023
148	0x3c125a62	0.008932682
149	0xbefd2d6d	-0.4944872
150	0x3e86c4bc	0.2632197
151	0x3e75470f	0.23952888
152	0x3e7cad1c	0.24675411
153	0x3e845d50	0.25852442
154	0xbf0f0bde	-0.5587748
155	0xbe3c69d7	-0.1839975
156	0xbf0ae475	-0.5425485
157	0x3e71a3d8	0.23597658
158	0x3e6a1068	0.22857821
159	0xbf0a4fa8	-0.54027796
160	0x3c240e5e	0.010013191
161	0xbed5ccef	-0.41757914
162	0x3e77567e	0.24154088
163	0x3e8315f4	0.25602686
164	0x3e6c2147	0.2305957
165	0xbede906e	-0.43469566
166	0xbdf3c0b0	-0.119019866
167	0xbf16cd56	-0.5890707
168	0xbcbcb457	-0.023035211
169	0x3e83e069	0.2575715
170	0x3e785667	0.2425171
171	0xbec0b078	-0.37634635
172	0x3e78d2e1	0.24299194
173	0xbd4db798	-0.050223917
174	0xbea20277	-0.31642506
175	0xbf19eeb4	-0.6012986
176	0x3b507ddf	0.0031813306
177	0x3e7d7f86	0.24755678
178	0x3e849cf2	0.2590099
179	0x3e8570bb	0.2606257
180	0x3e818365	0.2529556
181	0xbd869704	-0.06571773
182	0x3e7ed087	0.24884234
183	0xbcee9709	-0.029124754
184	0xbed9ad5d	-0.42515078
185	0xbf201112	-0.6252605
186	0x3e73d81f	0.23812912
187	0x3e83dd45	0.25754753
188	0x3e84e1d3	0.2595354
189	0xbde53c73	-0.111931704
190	0xbf16301a	-0.5866715
191	0xbe4cc3a0	-0.199965
192	0x3e6c97b6	0.23104748
193	0xbefb69ed	-0.49104252
194	0x3e79a19c	0.24378055
195	0xbd4257a3	-0.04744686
196	0xbe9f2534	-0.3108307
197	0xbe40b41f	-0.1881871
198	0x3e7523fb	0.23939507
199	0x3e7e21f9	0.24817647
200	0xbee2d1cc	-0.44300687
201	0x3e777cb3	0.24168663
202	0x3e7a8a39	0.2446679
203	0xbe78af31	-0.2428558
204	0x3e68531c	0.22687954
205	0x3b457eca	0.0030135387
206	0x3e7cb9e8	0.24680293
207	0xbd1a2f6f	-0.037642892
208	0xbe83388a	-0.25629073
209	0x3e586059	0.21130504
210	0x3e766d41	0.24065115
211	0x3e7541ee	0.23950931
212	0x3e760905	0.24026878
213	0xbcfda5de	-0.03096288
214	0x3e7f3df4	0.24925977
215	0x3e77b8e3	0.24191622
216	0x3e71eb50	0.23624921
217	0x3e759736	0.23983464
218	0xbd78674a	-0.06064538
219	0xbe6bde87	-0.23034106
220	0xbf14dde7	-0.58151096
221	0x3e8681b3	0.26270828
222	0x3e73c314	0.23804885
223	0x3e70f24c	0.23529929
224	0xbd099fd0	-0.033599675
225	0x3e802bee	0.25033516
226	0x3e57f6cb	0.21090238
227	0xbdf75070	-0.12075889
228	0x3e8605a9	0.26176193
229	0xbd738ad3	-0.059458565
230	0xbe83a1c8	-0.25709367
231	0x3e6dc0f0	0.23218131
232	0xbaf5f26c	-0.0018764264
233	0xbf16aa56	-0.5885366
234	0xbe3d9c41	-0.18516637
235	0xbd2d002a	-0.042236485
236	0xbcecdde1	-0.028914394
237	0xbe3bd44b	-0.18342702
238	0xbeb931ac	-0.3617071
239	0x3e813773	0.25237617
240	0xbd3362b4	-0.043795303
241	0x3b0e8264	0.00217452
242	0x3e6dd8ec	0.2322728
243	0x3e6d9a1a	0.23203316
244	0x3e8180e2	0.25293642
245	0xbe013e12	-0.12621334
246	0xbd69204f	-0.056915578
247	0xbca07946	-0.019589078
248	0xbea07920	-0.3134241
249	0x3e7af14d	0.24506111
250	0xbf0f4efb	-0.5597989
251	0x3e6a65a6	0.22890338
252	0xbe46027a	-0.19336882
253	0xbe2c953f	-0.16853808
254	0x3e7412c1	0.23835279
255	0x3e81369d	0.2523698

layer2.fc.weight f4 [1344, 128]
0	0xbdd14b09	-0.1021939
1	0x3d456ae6	0.04819765
2	0x3ea4ae43	0.321642
3	0x3e0f1791	0.13973834
4	0xbe6dc202	-0.2321854
5	0xbe307965	-0.17233808
6	0xbda188c6	-0.078874156
7	0xbdc8ea32	-0.09810294
8	0xbe8b1033	-0.27160797
9	0xbe01090a	-0.12601104
10	0x3d558050	0.05212432
11	0xbcd13062	-0.025535766
12	0xbedf7310	-0.43642473
13	0xbe5724a1	-0.21010067
14	0xbe700093	-0.23437719
15	0xbe163cc4	-0.14671618
16	0xbdfd901f	-0.123810045
17	0xbe14a851	-0.14517333
18	0xbe9978a1	-0.29974845
19	0xbe3bcc55	-0.18339665
20	0xbeb80f43	-0.35949144
21	0x3d824d9e	0.063624606
22	0xbc984cbf	-0.018591283
23	0xbdfc4993	-0.12318721
24	0xbe203f13	-0.15649061
25	0x3e542815	0.20718415
26	0xbe6c9ff6	-0.23107895
27	0xbe58382d	-0.2111518
28	0x3e24b3b6	0.1608418
29	0xbeb03134	-0.3441254
30	0x3e85de01	0.26145938
31	0xbe343447	-0.17598067
32	0x3dd093ba	0.101844266
33	0x3dd7aa10	0.10530484
34	0xbe76506c	-0.24054116
35	0xbcfdda99	-0.030988025
36	0x3d05d631	0.032674972
37	0xbd3ce0c5	-0.046112794
38	0x3e4d56be	0.20052621
39	0xbe7dc428	-0.24781859
40	0xbce06719	-0.02739291
41	0x3ead32ad	0.33827725
42	0xbdbbe85f	-0.09175181
43	0x3d8f6b51	0.07002891
44	0xbd873d1f	-0.06603455
45	0x3eb23e84	0.3481332
46	0x3d9a3118	0.07528895
47	0xbd16b770	-0.036796033
48	0xbea60c62	-0.32431322
49	0x3d9073ee	0.07053362
50	0xbe08ae1b	-0.13347666
51	0xbeca9d65	-0.39573207
52	0xbdc4fa6b	-0.09618076
53	0xbe1fbf89	-0.15600409
54	0x3da6a73b	0.081373654
55	0xbed534c1	-0.4164181
56	0x3d90d6bf	0.070722096
57	0xbdc31bf7	-0.09526818
58	0x3e540a77	0.20707117
59	0xbdfe6483	-0.12421515
60	0x3cf30e1f	0.02966982
61	0x3db104fc	0.08643529
62	0x3af339f6	0.0018556702
63	0xbe25e9fc	-0.16202539
64	0x3df25ab0	0.118337035
65	0x3cc2d6ec	0.023784123
66	0x3e05d774	0.1307047
67	0x3d1d4ad3	0.038401436
68	0x3dca80ce	0.09887849
69	0xbf8246f1	-1.01779
70	0xbd63b2b5	-0.05559035
71	0xbeb75e5c	-0.35814178
72	0x3e69c573	0.22829227
73	0xbd8f25e9	-0.06989653
74	0xbdbf8d7b	-0.09353157
75	0x3de205a0	0.11036229
76	0xbd1f151b	-0.038838487
77	0xbc00ee18	-0.007869266
78	0xbe583bd9	-0.2111658
79	0x3cfb4443	0.030672198
80	0x3d238fe3	0.039932143
81	0xbd9f8acf	-0.077901475
82	0xbe692901	-0.22769548
83	0x3dee833b	0.11646124
84	0x3e15b3a0	0.14619303
85	0x3d626c52	0.055279084
86	0x3ebc0cdb	0.36728558
87	0x3e4cfcc2	0.20018294
88	0x3e860022	0.26171976
89	0xbde2c7a3	-0.11073234
90	0xbcaf4d05	-0.02139903
91	0x3d919322	0.071081415
92	0xbdb84f79	-0.08999533
93	0x3daf2e0f	0.08553707
94	0xbd0b59ce	-0.03402119
95	0x3e7ed919	0.24887504
96	0xbdd21e24	-0.10259655
97	0xbeca8406	-0.3955385
98	0xbe80a2df	-0.2512426
99	0xbef3f9f5	-0.4765164
100	0x3c9749fe	0.0184679
101	0xbe94a2e4	-0.29030526
102	0x3c02a731	0.007974432
103	0xbe8f82d3	-0.28029498
104	0xbd051ca7	-0.032498028
105	0x3d587715	0.05284794
106	0x3e749bf7	0.23887621
107	0x3b475fc6	0.0030422076
108	0x3c33b772	0.01096903
109	0xbe405d13	-0.18785505
110	0x3dcbb90e	0.09947406
111	0x3deb99eb	0.11503967
112	0x3e85e0d4	0.26148093
113	0x3e3d49e0	0.18485212
114	0x3e6643d6	0.22486815
115	0xbd9f425b	-0.07776328
116	0xbc584cac	-0.013201874
117	0xbe0521c1	-0.13001157
118	0xbe4474e4	-0.19185215
119	0xbe2e2667	-0.17006837
120	0x3b60eea7	0.0034321935
121	0x3e1c2184	0.1524716
122	0x3dac5469	0.084145375
123	0xbe44bd7b	-0.19212906
124	0xbdf08bb9	-0.117454
125	0x3cda5879	0.026653515
126	0x3ea5d165	0.32386318
127	0x3e792602	0.24330905
128	0xbd864078	-0.06555265
129	0xbe98c318	-0.29836345
130	0xbeedf09b	-0.4647263
131	0xbede35da	-0.4340046
132	0x3d9a74e3	0.075418256
133	0xbf1db1e8	-0.6159959
134	0xbf4262c8	-0.7593198
135	0xbf1b26bc	-0.6060598
136	0xbf105f52	-0.5639545
137	0xbf611b86	-0.8793262
138	0xbef22075	-0.47290388
139	0xbf50464a	-0.8135725
140	0xbed830c0	-0.42224693
141	0xbec2b0a5	-0.38025394
142	0xbf01a6b4	-0.50644994
143	0xbfba8f47	-1.4574975
144	0x3e347d78	0.17625988
145	0xbec04e7c	-0.3755988
146	0xbf099354	-0.5374043
147	0xbc978061	-0.018493833
148	0xbdaec0bb	-0.08532854
149	0xbeb36e29	-0.35044983
150	0xbd5e4d4c	-0.054272935
151	0xbf0fbba0	-0.5614567
152	0xbd2b86df	-0.04187667
153	0xbf2ea97e	-0.68227375
154	0xbf26342c	-0.6492336
155	0x3cb59013	0.022163427
156	0xbf80609c	-1.0029483
157	0xbddbd0ee	-0.107332096
158	0xbf151a85	-0.5824359
159	0xbda0e453	-0.078560494
160	0xbf4876e1	-0.78306395
161	0xbeef521e	-0.46742338
162	0xbf18d31c	-0.5969713
163	0xbf9884ce	-1.1915529
164	0xbf5d275a	-0.8638817
165	0xbf29ac75	-0.66278774
166	0xbf430738	-0.7618289
167	0x3da5f869	0.08104021
168	0xbd315a58	-0.04329905
169	0xbf54338a	-0.8289114
170	0xbf475dea	-0.77877676
171	0xbf69423a	-0.9111668
172	0xbf39fe26	-0.72653425
173	0xbf1b1f2f	-0.6059446
174	0xbeb939b2	-0.3617683
175	0xbd0926ee	-0.033484392
176	0x3da4f85d	0.08055184
177	0xbf2bdfd5	-0.67138416
178	0xbd183eb0	-0.03716916
179	0xbe695330	-0.2278564
180	0xbf032b5e	-0.5123805
181	0xbf078fa5	-0.5295356
182	0xbf90ba74	-1.1306901
183	0xbf2d5169	-0.6770235
184	0xbf0e4a2f	-0.55581945
185	0xbf2573cb	-0.6462981
186	0xbf9d5f8f	-1.2294787
187	0xbf0d5154	-0.5520222
188	0xbe9fe162	-0.3122664
189	0xbed8ba72	-0.42329746
190	0x3e16ccc8	0.14726555
191	0xbef1a88e	-0.4719891
192	0xbf502a96	-0.8131498
193	0xbfba3943	-1.4548725
194	0xbf2fdedb	-0.68699425
195	0x3b9e2ed1	0.0048273583
196	0xbf36ac42	-0.71356595
197	0xbeb372ed	-0.3504862
198	0xbd5c8c18	-0.05384454
199	0xbf137e6f	-0.576148
200	0xbeaf926d	-0.34291402
201	0xbf5ffa86	-0.87491643
202	0x3d0fecb7	0.03513786
203	0xbf360224	-0.71097016
204	0xbe5d54d9	-0.21614398
205	0xbb27319c	-0.0025511747
206	0xbf0359ce	-0.51308906
207	0xbeff17b8	-0.49822783
208	0xbf27b672	-0.65512764
209	0xbeece806	-0.4627077
210	0xbe28cf48	-0.16485322
211	0xbf0d71f9	-0.55252033
212	0xbf567b3a	-0.8378178
213	0xbf2e3647	-0.6805157
214	0xbf2f2aa1	-0.6842442
215	0xbeec1bd1	-0.46114972
216	0xbf46ae16	-0.77609384
217	0xbf24569e	-0.6419467
218	0xbf268b2e	-0.6505612
219	0xbf53f123	-0.8278982
220	0xbf18936f	-0.59599966
221	0xbf943d9d	-1.1581303
222	0xbf8422be	-1.0323102
223	0xbdb6fb94	-0.089347035
224	0xbd2a986e	-0.041649275
225	0xbe648992	-0.22318104
226	0xbf4036ad	-0.7508343
227	0xbf485789	-0.7825857
228	0xbd83aeab	-0.064298
229	0xbf4b0d25	-0.7931693
230	0xbf0f965a	-0.56088793
231	0xbf191633	-0.597995
232	0xbee470d9	-0.44617346
233	0xbe79bbaf	-0.24388002
234	0xbf17598c	-0.5912101
235	0xbf39ae7e	-0.7253188
236	0xbf4f4cde	-0.80976665
237	0xbdc9f083	-0.09860327
238	0xbf372eec	-0.7155597
239	0xbf544830	-0.8292265
240	0xbf4a098f	-0.78920835
241	0xbf95b426	-1.1695602
242	0xbef5d135	-0.48011175
243	0xbf3ba7ee	-0.73303115
244	0xbf67bdc7	-0.9052395
245	0xbc8ba0a7	-0.017044378
246	0xbf015214	-0.50515866
247	0x3d6e9c5c	0.058254585
248	0xbefa50b5	-0.488897
249	0xbe1eb450	-0.15498471
250	0xbefe7ab4	-0.4970299
251	0xbf7f54a2	-0.99738514
252	0xbe971046	-0.29504603
253	0xbeec7982	-0.46186453
254	0xbf035a83	-0.51309985
255	0xbf5686dd	-0.83799535

batchnorm1.weight f4 [128]
0	0x3f800000	1.0
1	0x3f800000	1.0
2	0x3f800000	1.0
3	0x3f800000	1.0
4	0x3f800000	1.0
5	0x3f800000	1.0
6	0x3f800000	1.0
7	0x3f800000	1.0
8	0x3f800000	1.0
9	0x3f800000	1.0
10	0x3f800000	1.0
11	0x3f800000	1.0
12	0x3f800000	1.0
13	0x3f800000	1.0
14	0x3f800000	1.0
15	0x3f800000	1.0
16	0x3f800000	1.0
17	0x3f800000	1.0
18	0x3f800000	1.0
19	0x3f800000	1.0
20	0x3f800000	1.0
21	0x3f800000	1.0
22	0x3f800000	1.0
23	0x3f800000	1.0
24	0x3f800000	1.0
25	0x3f800000	1.0
26	0x3f800000	1.0
27	0x3f800000	1.0
28	0x3f800000	1.0
29	0x3f800000	1.0
30	0x3f800000	1.0
31	0x3f800000	1.0
32	0x3f800000	1.0
33	0x3f800000	1.0
34	0x3f800000	1.0
35	0x3f800000	1.0
36	0x3f800000	1.0
37	0x3f800000	1.0
38	0x3f800000	1.0
39	0x3f800000	1.0
40	0x3f800000	1.0
41	0x3f800000	1.0
42	0x3f800000	1.0
43	0x3f800000	1.0
44	0x3f800000	1.0
45	0x3f800000	1.0
46	0x3f800000	1.0
47	0x3f800000	1.0
48	0x3f800000	1.0
49	0x3f800000	1.0
50	0x3f800000	1.0
51	0x3f800000	1.0
52	0x3f800000	1.0
53	0x3f800000	1.0
54	0x3f800000	1.0
55	0x3f800000	1.0
56	0x3f800000	1.0
57	0x3f800000	1.0
58	0x3f800000	1.0
59	0x3f800000	1.0
60	0x3f800000	1.0
61	0x3f800000	1.0
62	0x3f800000	1.0
63	0x3f800000	1.0
64	0x3f800000	1.0
65	0x3f800000	1.0
66	0x3f800000	1.0
67	0x3f800000	1.0
68	0x3f800000	1.0
69	0x3f800000	1.0
70	0x3f800000	1.0
71	0x3f800000	1.0
72	0x3f800000	1.0
73	0x3f800000	1.0
74	0x3f800000	1.0
75	0x3f800000	1.0
76	0x3f800000	1.0
77	0x3f800000	1.0
78	0x3f800000	1.0
79	0x3f800000	1.0
80	0x3f800000	1.0
81	0x3f800000	1.0
82	0x3f800000	1.0
83	0x3f800000	1.0
84	0x3f800000	1.0
85	0x3f800000	1.0
86	0x3f800000	1.0
87	0x3f800000	1.0
88	0x3f800000	1.0
89	0x3f800000	1.0
90	0x3f800000	1.0
91	0x3f800000	1.0
92	0x3f800000	1.0
93	0x3f800000	1.0
94	0x3f800000	1.0
95	0x3f800000	1.0
96	0x3f800000	1.0
97	0x3f800000	1.0
98	0x3f800000	1.0
99	0x3f800000	1.0
100	0x3f800000	1.0
101	0x3f800000	1.0
102	0x3f800000	1.0
103	0x3f800000	1.0
104	0x3f800000	1.0
105	0x3f800000	1.0
106	0x3f800000	1.0
107	0x3f800000	1.0
108	0x3f800000	1.0
109	0x3f800000	1.0
110	0x3f800000	1.0
111	0x3f800000	1.0
112	0x3f800000	1.0
113	0x3f800000	1.0
114	0x3f800000	1.0
115	0x3f800000	1.0
116	0x3f800000	1.0
117	0x3f800000	1.0
118	0x3f800000	1.0
119	0x3f800000	1.0
120	0x3f800000	1.0
121	0x3f800000	1.0
122	0x3f800000	1.0
123	0x3f800000	1.0
124	0x3f800000	1.0
125	0x3f800000	1.0
126	0x3f800000	1.0
127	0x3f800000	1.0

batchnorm1.bias f4 [128]
0	0x00000000	0.0
1	0x00000000	0.0
2	0x00000000	0.0
3	0x00000000	0.0
4	0x00000000	0.0
5	0x00000000	0.0
6	0x00000000	0.0
7	0x00000000	0.0
8	0x00000000	0.0
9	0x00000000	0.0
10	0x00000000	0.0
11	0x00000000	0.0
12	0x00000000	0.0
13	0x00000000	0.0
14	0x00000000	0.0
15	0x00000000	0.0
16	0x00000000	0.0
17	0x00000000	0.0
18	0x00000000	0.0
19	0x00000000	0.0
20	0x00000000	0.0
21	0x00000000	0.0
22	0x00000000	0.0
23	0x00000000	0.0
24	0x00000000	0.0
25	0x00000000	0.0
26	0x00000000	0.0
27	0x00000000	0.0
28	0x00000000	0.0
29	0x00000000	0.0
30	0x00000000	0.0
31	0x00000000	0.0
32	0x00000000	0.0
33	0x00000000	0.0
34	0x00000000	0.0
35	0x00000000	0.0
36	0x00000000	0.0
37	0x00000000	0.0
38	0x00000000	0.0
39	0x00000000	0.0
40	0x00000000	0.0
41	0x00000000	0.0
42	0x00000000	0.0
43	0x00000000	0.0
44	0x00000000	0.0
45	0x00000000	0.0
46	0x00000000	0.0
47	0x00000000	0.0
48	0x00000000	0.0
49	0x00000000	0.0
50	0x00000000	0.0
51	0x00000000	0.0
52	0x00000000	0.0
53	0x00000000	0.0
54	0x00000000	0.0
55	0x00000000	0.0
56	0x00000000	0.0
57	0x00000000	0.0
58	0x00000000	0.0
59	0x00000000	0.0
60	0x00000000	0.0
61	0x00000000	0.0
62	0x00000000	0.0
63	0x00000000	0.0
64	0x00000000	0.0
65	0x00000000	0.0
66	0x00000000	0.0
67	0x00000000	0.0
68	0x00000000	0.0
69	0x00000000	0.0
70	0x00000000	0.0
71	0x00000000	0.0
72	0x00000000	0.0
73	0x00000000	0.0
74	0x00000000	0.0
75	0x00000000	0.0
76	0x00000000	0.0
77	0x00000000	0.0
78	0x00000000	0.0
79	0x00000000	0.0
80	0x00000000	0.0
81	0x00000000	0.0
82	0x00000000	0.0
83	0x00000000	0.0
84	0x00000000	0.0
85	0x00000000	0.0
86	0x00000000	0.0
87	0x00000000	0.0
88	0x00000000	0.0
89	0x00000000	0.0
90	0x00000000	0.0
91	0x00000000	0.0
92	0x00000000	0.0
93	0x00000000	0.0
94	0x00000000	0.0
95	0x00000000	0.0
96	0x00000000	0.0
97	0x00000000	0.0
98	0x00000000	0.0
99	0x00000000	0.0
100	0x00000000	0.0
101	0x00000000	0.0
102	0x00000000	0.0
103	0x00000000	0.0
104	0x00000000	0.0
105	0x00000000	0.0
106	0x00000000	0.0
107	0x00000000	0.0
108	0x00000000	0.0
109	0x00000000	0.0
110	0x00000000	0.0
111	0x00000000	0.0
112	0x00000000	0.0
113	0x00000000	0.0
114	0x00000000	0.0
115	0x00000000	0.0
116	0x00000000	0.0
117	0x00000000	0.0
118	0x00000000	0.0
119	0x00000000	0.0
120	0x00000000	0.0
121	0x00000000	0.0
122	0x00000000	0.0
123	0x00000000	0.0
124	0x00000000	0.0
125	0x00000000	0.0
126	0x00000000	0.0
127	0x00000000	0.0
