Audit-log_Analysis/code/GNN/training/checkpoint_GAT/best_model_GAT_transE_100.pt (torch, 766959 bytes, 16 tensors)

layer1.attn_l f4 [1, 8, 16]
00000000: 0949 c93d f6d1 c03d 02df c63d 94f8 1d3d
00000010: e226 01bd 2f5e ad3d ab74 8c3d 03af 0f3d
00000020: e651 b53d 8f4f 82bd 92a1 9e3b 755b 2a3e
00000030: 6ed2 593c 16ec 343d 0eb1 0fbd 83b5 853e
00000040: ce69 b13c 130a ef3b 4d9b 993d 1c7e df3d
00000050: 49e4 e439 cd32 a43d 4ee7 69bd 28fa a33d
00000060: cdfd 093d 6148 7ebc 3127 1e3e f40d c03d
00000070: caf9 52bd d969 74bd 6fdc b0bc f41b 153e
00000080: bee7 04bd c7a3 a93d 07d0 6d3b a3a5 8dbd
00000090: 10f7 3d3d 060f b9bc b98c 8d3d 0895 053d
000000a0: 4dc8 383b a273 183e 4c15 c83c 9580 4fbd
000000b0: f6e9 343e a2d8 04be 7041 f0bc dd68 a0bd
000000c0: ca9d aa3c 5acc c239 6d21 88bd 16bf 96bd
000000d0: b5f2 2f3d 4c7d 8b3c 71e7 ff3d d903 eb3c
000000e0: 7323 61bd c158 81bd a8f2 d33d 470b 233d
000000f0: b273 cfbc 73dd 98bc f924 d1bc 3b7b e13d
00000100: 731b 273d b65c 203e 4d70 b33d 081f 723d
00000110: d36b afbd f7f2 763d bd5c f9bd 99c5 373e
00000120: 67c4 f23d 18ab 9b3d 6286 2abe 3061 b43d
00000130: e7e5 7c3d 677f 06be bbf7 54bd 3c87 543b
00000140: 3707 ac3d d43d b73d d629 3e3e 8c06 713e
00000150: 6265 9f3a 4b6a d2bd 555f cd3d ec7a c03d
00000160: d29c 253e b822 ee3d da9a ca3d f396 acbc
00000170: 1666 133e dd52 7abd 0428 90bc 7d81 81bd
00000180: d8ec bfbd f584 f93b 3f66 c23d 5a45 d53b
00000190: b1ab 923d e70b 9a3d a353 c0bd 0b9e 8cbd
000001a0: b025 f3bb 9f98 d93d a12b cb3d c8a8 ae3d
000001b0: a5a6 aebd c4fe 133e 01c0 bebc 718c aa3c
000001c0: 0ce3 5f3d 0f35 9f3d 7181 253c fc75 17bd
000001d0: 7854 d7bb 10c3 a03d d269 2bbd af3b 6d3d
000001e0: 77e8 143c 1846 653d 15e3 a53d 3f3d 523d
000001f0: 50fe d3bd bc46 c2bd 383f 923d 2a89 b9bc
0.098283835 0.09415047 0.09710504 0.03856714 -0.031531222 0.0846523 0.0685819 0.035079014
0.088535115 -0.06362831 0.004841038 0.1663645 0.013294799 0.04417046 -0.035080962 0.26115045
0.021656897 0.007294902 0.075003244 0.10912725 0.00043657635 0.08017502 -0.057105355 0.08006698
0.03368931 -0.015520186 0.15444638 0.09377661 -0.05150775 -0.059671257 -0.021589486 0.14561445
-0.03244757 0.08283191 0.0036287324 -0.06916358 0.046378195 -0.022590172 0.06911606 0.03261283
0.002819556 0.1488786 0.024424218 -0.050659735 0.17667374 -0.12973264 -0.029328078 -0.07832501
0.020827193 0.00037154817 -0.066470005 -0.073606655 0.042956073 0.01702752 0.12495316 0.028688358
-0.054965448 -0.063157566 0.103490174 0.039805677 -0.025323723 -0.018660283 -0.025530325 0.110098325
0.040797662 0.15660366 0.08761654 0.059111625 -0.08565488 0.060290303 -0.121758915 0.17946471
0.11853867 0.07600993 -0.16652825 0.088075995 0.06174269 -0.13134538 -0.051994067 0.0032429239
0.083998136 0.0894734 0.18570647 0.23537654 0.0012160952 -0.1027418 0.10027949 0.093984455
0.16173103 0.11627716 0.09892817 -0.021068072 0.14394411 -0.06111418 -0.017597206 -0.06323526
-0.09371346 0.0076147267 0.09492158 0.0065085115 0.07161654 0.075218014 -0.093909524 -0.06866082
-0.007420264 0.10624813 0.09920431 0.08528286 -0.08527879 0.14452654 -0.023284914 0.02081892
0.05465989 0.07773792 0.010101662 -0.036977753 -0.0065713488 0.07849705 -0.041848965 0.057918247
0.009088627 0.05597505 0.08099953 0.05132794 -0.10351241 -0.09486148 0.07140964 -0.022648413

layer1.attn_r f4 [1, 8, 16]
00000000: c476 653d 5815 bebd 9d16 22bd 0ca3 ae3d
00000010: 213f fc3c b66f 5abd 6f70 0b3d 7be2 0fbd
00000020: 7878 37bc 7eb6 34bc 6cc4 ce3d 6012 453d
00000030: 8bc7 f63c dc23 ac3d e35f eb3b d608 0abe
00000040: ab3a 98bb 9b89 1c3e c278 9e3d 5064 493d
00000050: 0f6a 123c 04df b23c e9b1 c13c ae06 853d
00000060: 9dbf 763d e2f5 b7bc cc59 e0bc 6304 aabd
00000070: 8024 d8bd f5b2 19bb b772 7a3d 9c77 75bd
00000080: 81bb b8bc 783e c43d c69e fc3d 7dc3 adbd
00000090: ad35 ca3c 9c68 1b3d 034e 063d bd01 ae3c
000000a0: 934a db3d 86a2 b1bd 3f06 fbbc 2b6f e43d
000000b0: ecf6 a8bd 5d81 dabc 8312 7d3b 0be9 a6bd
000000c0: bef8 6c3d 6a14 8c3d 3223 17bc 3d9a a93d
000000d0: c001 f8bc e958 0b3d 802d 133d dbdf 093d
000000e0: eaa9 6fbd 86d5 f13d b49a 04be 4aa9 c43c
000000f0: fcce a2bd be56 9dbd 8edf a9bb 521f 14bd
00000100: e26a cd3d 02e7 0fbd a7b3 823c e724 8fbb
00000110: 1314 843d 2250 ea3d 5bb7 bcbd 8088 923c
00000120: 5cb5 f53c 60b4 85bd 720b e43d ae29 c63d
00000130: 09cd 603c 3400 90bd 9298 b9bd 3dff 1cbd
00000140: 18e5 9d3d 0bf7 14bd 1d4c bdbc 4c34 0dbc
00000150: 6385 8cbc fd2f 4d3c 6382 ccbd df41 edbd
00000160: c328 cc3c d03e 8abd 1cd8 48bb 7db7 39bd
00000170: ff26 a43d 4c4a b33d 9939 453c f59d 283c
00000180: c7b2 d83d e554 d4bb f35c fdbc 61e3 7b3d
00000190: 92b7 6cbd a65a da3c a1ff bd3d c1a1 60bd
000001a0: 05ad cabd d51f b13c f2af b23d e139 b7bd
000001b0: f438 edbd 671d a23c 2efb 60bb e282 caba
000001c0: de5b 81bd d565 623d 7141 e33c a463 853a
000001d0: a4ca 4dbd 2b83 583c a2b1 80bd 64ac 87bc
000001e0: 3fb1 1fbd b4d2 fe3c f115 853d c498 ab3d
000001f0: e1c2 2abd 39b3 743c b661 09bd d21b 0fbd
0.056021467 -0.09281415 -0.039572347 0.085271925 0.030791821 -0.053329192 0.034042772 -0.035128098
-0.011198156 -0.011029838 0.10096058 0.048113227 0.030124446 0.08405277 0.0071830614 -0.13479933
-0.0046456656 0.15286867 0.077378765 0.04916793 0.008936419 0.021834858 0.023644404 0.06495415
0.06024133 -0.022456113 -0.027386568 -0.08301618 -0.10553837 -0.0023452614 0.061144557 -0.05992852
-0.022550346 0.095822275 0.12334971 -0.08484552 0.024683798 0.03794156 0.03278924 0.021241063
0.10707583 -0.08673577 -0.030642627 0.11154016 -0.082502216 -0.026673013 0.003861577 -0.08149918
0.057854407 0.06839831 -0.0092247 0.08281372 -0.030274272 0.03402034 0.035932064 0.03366075
-0.058511652 0.118083045 -0.1294964 0.024006505 -0.079496354 -0.076825604 -0.0051841205 -0.036162682
0.10030152 -0.035132416 0.015954806 -0.004368413 0.06449141 0.11441065 -0.0921466 0.017887354
0.029993705 -0.065285444 0.111349955 0.096759185 0.013720759 -0.07031289 -0.090623036 -0.03832935
0.07709712 -0.03636841 -0.023107583 -0.008618426 -0.017153447 0.012523648 -0.09985807 -0.115848295
0.02492178 -0.06750262 -0.003064639 -0.045341004 0.080152504 0.087544054 0.012037658 0.010291566
0.10580974 -0.006479847 -0.03092811 0.061496142 -0.057792254 0.026654553 0.09277273 -0.05484176
-0.09896282 0.021621624 0.08724965 -0.089465864 -0.115831286 0.01978941 -0.0034329402 -0.0015450383
-0.063163504 0.055272896 0.027741166 0.001017679 -0.05024208 0.013214867 -0.06283881 -0.016561694
-0.038987394 0.03110633 0.064983256 0.08378747 -0.041689757 0.014935308 -0.03354045 -0.03493864

layer1.bias f4 [128]
00000000: 6114 83bc d2a4 6a3e d3af 3abb dde9 433e
00000010: 28f0 f3ba 72cc aa3e 31f5 d8bb 446f 803e
00000020: 7343 e0bb 9224 8aba bbdd 8eba 012c 5a3e
00000030: b892 683e c987 54bb fc0e 18bb 1289 973e
00000040: d587 c03d 5b05 2bbb f1d9 bebb 431e d33c
00000050: ed80 993c 4ab2 97bb 6f8c fa3b 2a65 053c
00000060: 79c9 dbbb 6ca2 33bb 8e53 683e 156d 17bb
00000070: f60d c53e a307 81bb 2561 e43e ee0b a73e
00000080: 75c2 49bc 72f3 80bb 0f46 ba39 2fd6 56bb
00000090: 4160 ca3a a997 7438 750f 323c 8c62 48bb
000000a0: 167f 9e3b 51b8 72bb 441c 0140 c61a c7bd
000000b0: 9b33 593d 93f5 2f3b 69f6 d1bb 01e5 473e
000000c0: 25cd 76bb d0e2 ec3d b944 5e3e 48ad e73d
000000d0: 8d54 0ebb 0970 4f40 2dea 573e 4649 9bbb
000000e0: 7333 e9bb 27b3 4d3e d74f ebbb 4e24 9d3a
000000f0: bc1d fa3d c22d 0b3d b460 2abb 2c8b 883f
00000100: b826 bd3e 5dc7 9a3e 4052 e9bb fe36 ca3c
00000110: e95d 08bd 7ef4 46bb 4344 ba3f fc14 b9bb
00000120: f842 283c c6aa 98bb 0f82 b83f 5ccb de3d
00000130: b30c 963e 4a19 da3f e59d a93f e2cf ba3d
00000140: 8c0f f9ba 10f6 293e 9599 e93d 1cea d9bb
00000150: 8366 11ba 54be af3f d143 3ebc bb70 52bb
00000160: e1c5 183e f686 293e 34b5 ddbb 6a9b c2bb
00000170: a4c3 46ba 4e87 daba f37c fd3d 6277 2dba
00000180: 7da8 0e3e 7758 c83f 4117 b03a 6791 28bb
00000190: 6609 ff3d 6412 ea3d 98ad 7f3e 19c1 c0bb
000001a0: 53b1 713c 5c04 4fbb b74c 57bc 0a8c f2b9
000001b0: 37d1 a73e 954e 33bb 3d15 1d40 6514 703e
000001c0: 0a31 dcbb fe02 733e 7678 a9bb 10aa 0fbb
000001d0: 62e0 363e acea bb3d 5b3c db3e cc7d 823d
000001e0: 2114 833e de80 093e fda8 0e3d f854 033d
000001f0: b5b5 67ba 1434 0840 521f 8bbb 7418 643c
-0.016000928 0.22914436 -0.0028486147 0.1913218 -0.0018611001 0.33359104 -0.006621026 0.2508489
-0.006843978 -0.0010539463 -0.0010899821 0.21305849 0.22712219 -0.0032429567 -0.002320229 0.29596764
0.09400908 -0.0026095721 -0.0058243205 0.025771266 0.018738234 -0.004629408 0.0076461355 0.008141795
-0.006707367 -0.0027410043 0.22688124 -0.002310579 0.38487214 -0.003937678 0.44605365 0.3262629
-0.012314429 -0.003935271 0.00035528882 -0.0032781472 0.0015440063 5.8315378e-05 0.010867943 -0.0030576317
0.004836927 -0.003703613 2.0173502 -0.097219035 0.05302773 0.0026849255 -0.006407548 0.19520952
-0.0037658897 0.115666986 0.21705903 0.11312348 -0.0021717877 3.241213 0.21085425 -0.0047389595
-0.007116729 0.20087872 -0.0071811485 0.0011988969 0.12212703 0.033979185 -0.002599758 1.0667472
0.36943603 0.30230227 -0.0071204007 0.024684425 -0.033292685 -0.003035813 1.4552082 -0.0056482535
0.010269873 -0.0046590297 1.4414691 0.108786315 0.29306564 1.7038968 1.325131 0.09121682
-0.0019001826 0.16597772 0.114062466 -0.0066502225 -0.00055465865 1.3729959 -0.011612848 -0.003211065
0.14919235 0.1655539 -0.006765986 -0.005938937 -0.00075822533 -0.0016672404 0.12377348 -0.00066172157
0.1393146 1.5651997 0.0013434665 -0.0025721432 0.124529645 0.11429289 0.24968565 -0.005882394
0.01475175 -0.0031588292 -0.013140849 -0.00046262174 0.32776806 -0.002736007 2.4544213 0.2344528
-0.006719713 0.2373161 -0.0051718308 -0.0021921434 0.17859033 0.091756195 0.42819485 0.0637165
0.25601295 0.13428065 0.03482913 0.032063454 -0.0008839027 2.1281786 -0.004245677 0.013921846

layer1.fc.weight f4 [128, 100]
00000000: 8bf4 1440 cbdf d7bf 943d 2bc0 0a19 5440
00000010: 8999 6640 3d13 5640 e564 ca3f 1238 91c0
00000020: 7623 2840 7f4a 66bf 0a6f 893f 5313 6340
00000030: b9de 59bf 9e62 2140 7501 21bf 6ee4 2040
00000040: 2d89 fe3f 915e 1e3f 2071 dcc0 eb6b 9ec0
00000050: 93e7 9dbf 4068 6bc0 dfac 27bf cbac 6b40
00000060: 962c 16c0 007a 2d3f 39ab abc0 148c 67c0
00000070: a503 b3c0 04e9 42be 6730 dd3f 5e35 1440
00000080: 26ef 1fbe aa72 31c0 1a88 1dc0 9333 b0bf
00000090: 658e 8a40 2ad6 9fc0 0278 49bf 976d 36bd
000000a0: a850 8640 5386 af3f 9e8f 21c0 60c1 babf
000000b0: a9aa f8bf 3665 5a3f e8cf 9cc0 d728 b33f
000000c0: 56fb 22c0 ff10 cabf 9538 003f 8868 00c0
000000d0: 2bb0 813f 90f2 32c0 cdc0 12bf b668 1f40
000000e0: 8a37 a040 34b3 1f3e d12f ea3e a33b 9e40
000000f0: 939f a540 9ee5 b440 fe08 05c0 1f0b b63f
00000100: 3b76 42c0 47a2 8cc0 6a18 a8bf 243e 8ebf
00000110: 1fea adbf ae9d bfbf e549 c440 a4c8 3f3f
00000120: 75f5 b140 3b6a f7bf 6919 8940 716d a840
00000130: 930a 3e3e f6c8 ebbf cda2 43bf 7743 9abf
00000140: 78ac 2a40 390a 013f 348d 1440 05dd f2be
00000150: 94e6 a0c0 128e adc0 1930 33c0 070f 19c0
00000160: b232 7940 0e38 03c0 849a fbbf 5dcb 48c0
00000170: 43af c7bf f91f 0b40 3376 e93f bd63 bb3f
00000180: efeb 033e 034d 94c0 ea94 883e 8b6f 1040
00000190: 5fb2 0e40 4e4c 4fc0 763a 0d40 48af 2cc0
000001a0: a548 7dc0 5c05 07bf d7af 103f 443d 2a3f
000001b0: 2ff3 3240 cef7 f2bf 9205 35c0 8fd9 ecbf
000001c0: d4d6 393d 2928 143f 8ed1 02be 7eb1 1fc0
000001d0: 464f 6a40 df18 8a3d 6fc2 c8c0 3ddc 4ac0
000001e0: 0a72 5040 07f0 6240 ba85 2341 af04 98c0
000001f0: 078d 55c0 40ca f4bd 7472 c5bf b3b4 a83f
00000200: 31e9 8c3e 5f49 48c0 367c 82c0 0623 acbf
00000210: 8d79 903d 7b2e 41bf 1bde 5d3f 4c6f 7dc0
00000220: 47ec 7e40 b9ba 81be b04b b2c0 ab6b 21c0
00000230: 7434 4bbf 454e c4bf fecd e53d 7399 183f
00000240: 781b d0bf fe9c 503e 5bad c6c0 6afa a340
00000250: 492a 2a40 7b0c 6040 bc35 b93f 24c1 90c0
00000260: dea0 6940 19e3 0540 742c 31bd 3b2b 0ec0
00000270: 3d8b 903f 4ed7 c1bf 4cb9 3cc0 168e a7bf
00000280: 3fb3 80c0 8801 82c0 fb57 5ec0 abfd 28c0
00000290: 3d54 92c0 021d 5540 15e2 ec3f 4849 9ac0
000002a0: a7d5 d1bd 6c47 16bf c4ce 97bf 776e e13d
000002b0: 301c f6bf 1743 52c0 cbb8 32c0 6aa3 c53f
000002c0: 8901 3b3e 2237 44bf b077 b83e 07d9 8740
000002d0: 810a cebf bd38 1bbf 472d 1940 8982 09bf
000002e0: fc62 c440 bfbf db3f aee4 febe ca35 c940
000002f0: 0c01 dfbf 994f 4ec0 e4cc 70c0 e082 0440
00000300: 70eb a03e 4951 6ac0 0696 3fc0 557d 0f40
00000310: fad7 43bf 0afb 73c0 0267 3fbf e0c0 0e40
00000320: dd9e 6140 5106 913f 2a08 9ac0 6b2a cf3f
00000330: 3d54 3c40 7d50 0f40 6ae3 2040 da14 4e40
00000340: ae95 2f40 6188 0640 c6e0 fd3f 3b60 f540
00000350: bbe5 0ac0 cba1 7cc0 948f 0bbd 04eb f93e
00000360: 9449 3f40 9f49 0bc0 61d5 4ebf 0c3f febf
00000370: 9ec4 e43f 2dcb 4b3f 789f e23f ae46 e7bf
00000380: 7728 1ebf 3b57 8d40 52e9 cd3e 32c4 91c0
00000390: 72b8 febf 2a08 1340 1b84 80bf 76f5 c63f
000003a0: ef82 ea3f bbf5 81bf 81d5 a3c0 4871 f0bf
000003b0: 4f2e 3540 5879 fbbf 4451 67c0 eb4c 85bf
000003c0: f255 9340 4a00 003f c043 9fc0 6031 64c0
000003d0: 0041 0ac0 511d 123c bdef 8fc0 049a 7040
000003e0: f6e4 20c0 303f 553e 8bf8 0d3f f4ed fb3f
000003f0: f202 8a40 c123 3ac0 2672 37c0 a012 933f
2.3274257 -1.6865171 -2.6756334 3.3140283 3.603121 3.3449242 1.581204 -4.5380945
2.6271644 -0.8995742 1.0737011 3.5480545 -0.8510547 2.521644 -0.6289285 2.5139422
1.9885613 0.61863047 -6.888809 -4.9506736 -1.2336296 -3.678238 -0.65498155 3.6824214
-2.3464713 0.6776428 -5.364651 -3.6179247 -5.594195 -0.19034201 1.7280396 2.3157573
-0.15618572 -2.7726235 -2.461432 -1.3765739 4.329882 -4.994893 -0.7869874 -0.044538107
4.1973457 1.3712867 -2.5243907 -1.4590263 -1.9427081 0.85310686 -4.900379 1.3996838
-2.5465903 -1.5786437 0.5008634 -2.00638 1.0131887 -2.7960548 -0.5732544 2.490766
5.0067797 0.15595704 0.45739606 4.94478 5.1757293 5.6530294 -2.0786738 1.4222144
-3.0384662 -4.3948092 -1.313245 -1.1112714 -1.3587073 -1.4969995 6.1340203 0.7491553
5.561213 -1.9329294 4.284352 5.2633595 0.18558721 -1.8420703 -0.7642029 -1.2051839
2.6667767 0.50406224 2.3211184 -0.4743425 -5.0281467 -5.4235926 -2.7998106 -2.3915422
3.8937192 -2.0502963 -1.965653 -3.1374123 -1.5600361 2.1738265 1.8239197 1.4639813
0.1288297 -4.634401 0.26676112 2.256808 2.229637 -3.2390323 2.2066932 -2.6981983
-3.9575589 -0.5274255 0.5651831 0.66499734 2.7960927 -1.8981874 -2.828465 -1.8503894
0.04537089 0.5787378 -0.12775251 -2.4952083 3.6610885 0.06743025 -6.2737346 -3.1696923
3.2569604 3.5459 10.220148 -4.7505717 -3.3367326 -0.119526386 -1.5425553 1.3180145
0.2752166 -3.1294782 -4.0776625 -1.3448188 0.07054434 -0.7546155 0.8666703 -3.959918
3.9831712 -0.2533777 -5.571739 -2.5221965 -0.7937691 -1.5336386 0.112209305 0.59609145
-1.6258383 0.20372388 -6.2086616 5.124318 2.658831 3.5007617 1.4469523 -4.5235767
3.6504436 2.091986 -0.043255284 -2.2213886 1.1292492 -1.5143831 -2.9488096 -1.3090236
-4.0218806 -4.062687 -3.47412 -2.6404827 -4.572783 3.3298955 1.8506495 -4.8214455
-0.10245829 -0.5870273 -1.1859975 0.110073976 -1.9227352 -3.2853448 -2.7925289 1.5440495
0.18262304 -0.76646626 0.36028814 4.2452426 -1.6096956 -0.6063345 2.3933885 -0.53714806
6.137083 1.7167891 -0.49783844 6.287816 -1.7422194 -3.2236083 -3.7625055 2.070488
0.31429625 -3.6612113 -2.9935317 2.2420247 -0.7650143 -3.8121972 -0.7476655 2.2305222
3.5253212 1.1330053 -4.8134966 1.618482 2.9426415 2.2392876 2.5138803 3.2200227
2.7435107 2.102074 1.983422 7.667997 -2.1702716 -3.947375 -0.034072474 0.48812115
2.9888659 -2.1763685 -0.8079434 -1.986299 1.7872503 0.79606897 1.7704916 -1.8068445
-0.61780494 4.4168983 0.40217072 -4.5551996 -1.9900038 2.2973733 -1.0040315 1.5543659
1.8321208 -1.0153116 -5.1198125 -1.8784571 2.8309515 -1.9646406 -3.614335 -1.0414099
4.6042414 0.5000044 -4.9770203 -3.5655136 -2.1602173 0.008918122 -4.498015 3.7594004
-2.5139747 0.20824885 0.5545737 1.9681993 4.3128595 -2.9084322 -2.866342 1.1490059

layer2.attn_l f4 [1, 8, 168]
00000000: c562 84be 455b b43d 63ea 993d f2c1 633d
00000010: 0878 b83d 7c38 893d 09c1 29be 54f5 693c
00000020: 1567 cc3d aff6 e63d 8967 c83d a953 cd3d
00000030: 9f1b 523c d052 48be 24d1 cd3b 2bee 16be
00000040: edea 65be 54d6 68be 44d7 9f3d 4b12 433d
00000050: 28f3 28bc e2c0 b6bd b137 05c0 4770 6dbe
00000060: 25c6 683d 5ea3 123e 3c4e 993d 64e7 87ba
00000070: 5316 1bbe 27e7 44be ba9b e43b 75ea 343d
00000080: 677b 85be 4d5d 6d3d d38a 6a3d 16f5 37be
00000090: be28 173e d357 2dbd 3266 993d 7d38 a8bd
000000a0: a1c5 813c d421 c23d 5c2e 323d 384e 5f3d
000000b0: 838d 443d c896 d4bd 854f c93d 67ce fe3c
000000c0: b969 0b3d 3d92 973c 4a11 97be b881 28be
000000d0: 4503 e33e fe26 963d f0fc cf3c 0927 ff3c
000000e0: 14ee ebbe 3ac6 ff3c f358 223f 0382 debd
000000f0: 4471 383d b444 9fbe b8c6 b53c a8c3 c23d
00000100: a1cd a2bd d857 28be 709a 37be 508e 2cbe
00000110: 3dcb dabd 6996 253e b972 96bd b8de bd3c
00000120: 42c0 02bf aa4a bcbd 3e0b 633d 045e 4d3d
00000130: 62b4 463b 350f d9bd 6aa5 b4b9 1071 83be
00000140: 6019 013e 0681 c73d 46bf 00be b8de 013e
00000150: bedd bfbe 687f 61be dd44 ec3d 63dd bf3d
00000160: 1924 a0bd 1dd7 30be 6cb8 15be 95bd 2fbe
00000170: d792 ba3d e0a9 03bc b745 77be 87b8 71be
00000180: 0204 8e3d 5b49 b53d e39c 5d3d 440c 19be
00000190: 2546 8ebd 301f 19be a86c 613d 5b79 47bd
000001a0: 7c00 f93d 3fdc cbbd c842 50be 8cda 89bb
000001b0: 38f4 30be dacb 813c df81 91bd caa0 293d
000001c0: d7f1 4f3d 5e5b 0fbe 06f1 80bc 14f5 02be
000001d0: aece 5b3c 67d7 afbe ea6e 98be 8376 343d
000001e0: 9458 643e cdb3 a93d 0025 01be 33f5 48be
000001f0: 309b 113c 2004 123d 70ca 48be 0231 b03e
00000200: 5112 4abd cc23 3cbe 5ed0 43be 9987 2fbe
00000210: 482f 48be 54c0 04be 6a04 37be 1fd0 873d
00000220: a40f b93d 307f 773d e464 03bd 8546 8d3d
00000230: a165 c03b eae0 78bd aef1 363d 624f 213d
00000240: f926 ca3c aa01 cf3d 5381 ff3d 5aa6 8dbd
00000250: 2bc6 fbbc 671c 6d3d fa8d ec3d f55c 703d
00000260: a3d3 943d 824f e83d 03c2 f33d cfac 51be
00000270: c8ce 33bd 47de 763d aba7 693d 0026 213d
00000280: 1765 8dbd b33a 8cbe 3790 db3d 9e8d bd3d
00000290: 8235 213d f672 49bc 818b 09be 45ea 04c0
000002a0: e814 b1bd 6237 44be 731e 13be 8392 f73e
000002b0: f868 1dbe c711 b03e dd66 803d 7929 bf3e
000002c0: 691e 923d 804e c1be 00d3 4bbe 3d9c 3ebe
000002d0: 7605 bcbe d001 f1bd b38b cdbe d83c f63e
000002e0: 6bc1 9e3e fc93 a03e ed72 1abe 8696 aabe
000002f0: 05a5 01bf 346a 853b cc26 d03f e723 fa3e
00000300: 05a5 f9be 579e 203f 0eaf b0be 3475 1c3d
00000310: c79e 1e3e 68ba 843c bade 04be 0a1d a3be
00000320: c6d2 833c 64b5 4abe 8a29 48be 6317 cd3e
00000330: 4d97 adbe 1fc4 eabd 49d9 06be a361 8e3e
00000340: 289b e83e 1f16 86be 142a 43be 1de5 b9be
00000350: d9ea 1cbe 1fd8 4a3d 8630 69be d7c8 bfbe
00000360: 87ee f0be 8ca8 e2be 5776 5c3e 5af2 f33d
00000370: 71a1 e43f 7fec 80be cc4e 8abe 988c 72bd
00000380: c8ed a63d 146f a5be 5da4 aa3f 0a4b 513d
00000390: b620 04bf f679 f43e 2abf ca3e 1477 1cbe
000003a0: 1acd 87bd 3234 36be 3827 543d d391 60be
000003b0: c5ba 68be b5d6 363e 267a 6f3e bca9 9cbd
000003c0: 894f 3b3f 0fe4 cd3e b343 58be 4fe4 a7be
000003d0: 1a13 83be 01a0 06bd 8fe5 3fbe 66e4 5d3f
000003e0: 59b0 403f 0524 05be c259 bc3d 1d62 57be
000003f0: 5ce1 483f 0745 bcbc 6038 60be 6584 b2bd
-0.25856605 0.08806471 0.07515409 0.055604883 0.09007269 0.06700227 -0.16577543 0.014279682
0.09980599 0.1127752 0.09785373 0.100257225 0.012823968 -0.1956284 0.006281035 -0.14739291
-0.22452898 -0.2273801 0.078047305 0.047624867 -0.010311879 -0.08923508 -2.0815241 -0.23187362
0.05682959 0.14320132 0.07485625 -0.0010368642 -0.15145235 -0.19228803 0.006976572 0.04416891
-0.2607071 0.057950307 0.0572613 -0.17964587 0.14761636 -0.042320084 0.07490195 -0.08213899
0.015841307 0.094791085 0.043501243 0.054517955 0.04798652 -0.10380322 0.0982962 0.03110428
0.03403637 0.018502349 -0.29505378 -0.16455734 0.44338432 0.07331656 0.025389165 0.031146543
-0.46080077 0.031222451 0.63416976 -0.108646415 0.045029894 -0.31107104 0.022189483 0.09509975
-0.07949377 -0.1643976 -0.17930007 -0.16851163 -0.10683296 0.16170658 -0.073461 0.02317749
-0.5107461 -0.091939285 0.055430643 0.05013849 0.003031992 -0.10598604 -0.00034455518 -0.25672197
0.12607336 0.09741406 -0.12572965 0.12682617 -0.37473863 -0.22021258 0.11536572 0.09368398
-0.07819385 -0.17269559 -0.14621133 -0.17162164 0.09110039 -0.008036107 -0.24147688 -0.23605548
0.06934358 0.08851882 0.054104697 -0.14946085 -0.06946973 -0.14953303 0.055035263 -0.048699718
0.121582955 -0.09954118 -0.20337975 -0.004206961 -0.17280662 0.015844274 -0.07104849 0.041413106
0.050767746 -0.13999698 -0.015739929 -0.12788802 0.0134159755 -0.34344026 -0.2977212 0.044058334
0.22299415 0.082862474 -0.1261177 -0.19624786 0.008887097 0.035648465 -0.19608474 0.3441239
-0.049333874 -0.1837303 -0.19122455 -0.1714157 -0.19549286 -0.12963992 -0.17872778 0.06631493
0.09036186 0.06042403 -0.03207864 0.06898216 0.00587149 -0.06076137 0.044664077 0.039382346
0.024676787 0.10107739 0.124758385 -0.06916495 -0.030734142 0.057888415 0.115505174 0.0586824
0.07266929 0.1134329 0.11902239 -0.20476077 -0.043898374 0.060270574 0.057044666 0.03934288
-0.06904047 -0.27388534 0.10720866 0.09255527 0.03935767 -0.012295475 -0.13432123 -2.0767987
-0.08646566 -0.19161752 -0.14367084 0.48353967 -0.15372074 0.34388563 0.062696196 0.3733633
0.071347065 -0.37755203 -0.19904709 -0.18614288 -0.36722916 -0.11767924 -0.40145645 0.48093295
0.3100694 0.31362903 -0.15082903 -0.33317965 -0.50642425 0.0040714983 1.626184 0.48855516
-0.48758712 0.6274161 -0.34508556 0.03819771 0.15490256 0.016202167 -0.12975588 -0.31858093
0.016091716 -0.19795758 -0.19547096 0.40056905 -0.33904496 -0.114631884 -0.13168825 0.27808866
0.45430875 -0.26188752 -0.1905902 -0.36307612 -0.15323962 0.049522515 -0.22772416 -0.37457916
-0.47056982 -0.44269216 0.21529518 0.11911459 1.7861768 -0.25180432 -0.27013242 -0.059216112
0.08150822 -0.32311308 1.333141 0.051096953 -0.5161241 0.477493 0.39598972 -0.152798
-0.06630917 -0.17793348 0.051795214 -0.21930628 -0.22727497 0.17855342 0.2338644 -0.07649562
0.73168236 0.40213057 -0.21119575 -0.32791373 -0.2560051 -0.032867435 -0.18739913 0.86676633
0.75269085 -0.13002022 0.091968074 -0.21033521 0.7846887 -0.022982134 -0.21896505 -0.087166585

layer2.attn_r f4 [1, 8, 168]
00000000: cc4a 113e 910c da3c b152 6b3b 0f0f 3cbc
00000010: cd7f 0bbc 40da 50bd cf30 503a c299 123e
00000020: 1297 0c3c d8c7 c03b 1b25 d83a 1b50 513c
00000030: 7c2d e2bc ec39 6cbe 1ed6 3c3c 22bb 8dbd
00000040: f828 e1bb 68ff 59bd 6e0f 733c f33d cbbb
00000050: 6eed 243c 283d 733c f022 1b3c 9cb9 23bd
00000060: f52b 11bc a240 953d b46e 2d3c e779 ae3d
00000070: 0369 f63c 5696 8abd 6bca 943c 3f16 613c
00000080: f190 3c3e 66dd 9d3c 1c37 41bc cd82 01bd
00000090: 0c02 373c 5636 abbc c52e ca3c 8d81 063c
000000a0: daf3 113e 65c9 003d c1ff 943a db7b b83c
000000b0: 12a5 9d3b 085d ff3d a655 bb3c 8af3 013d
000000c0: 9671 653a 4c64 ad3c d99f 9abc 0d8c fb3c
000000d0: 548f 59be 79d0 fd3c 662b 7d3c 5040 053d
000000e0: 3b29 143d 44a1 953c dc5f 5e3d d002 bb3b
000000f0: 5a85 273d 5e22 313d a1ed 25bd f407 683c
00000100: 6449 a23c 6dd7 25bd a96a bd3c c1d5 36bd
00000110: 0168 c13c 6d89 373e b86f 03be 5128 503c
00000120: e553 8c3c e3b3 35bd e156 9fbc 53a4 a33c
00000130: c90c dcbc 1b33 883c 0d9b 73bd 0886 89bc
00000140: bdc1 d8bd 63c3 623c eae1 68be d133 803c
00000150: e96e f83d 332c 363d 2d2a 0e3d 850a be3c
00000160: 21d2 1dbd 92f2 b9bc a410 ea3c cdfe ff3c
00000170: 70a0 3f3b 171c c73c e668 ad3d 1905 8ebd
00000180: 3d3a 0bbe 33e4 6a3c 14af 973c 92a6 30be
00000190: 4a6e 603c ab00 4f3c c621 ea3c 728c 0b3d
000001a0: 6108 6a3c 5051 49be 39b0 be3d 83a8 0d3d
000001b0: 6f67 ac3c 6b54 f03b a8c8 553c 884d 1f3d
000001c0: c469 973c 6fb6 e0bc 1343 d83c 23b9 99bd
000001d0: a818 053c ab8b 79bb 82e1 273e 8fd0 423c
000001e0: 0d1b 2ebd 30f3 9e3a d8dc b43d bebd 1dbe
000001f0: d423 29bc e314 3f3d c113 b7ba e8e6 41bd
00000200: f6fa 143d 971d 8e3c 7809 e4bc fc8c 803a
00000210: c801 c43c 5e99 35bc 704e 17be 8ad3 27bc
00000220: b863 c9bd 8a93 2b3c ef6f 45be 2858 a23c
00000230: 01d0 e33d c655 363d 7f16 b93c 3d3d b63c
00000240: 802a 2f3c 34b6 07be e81a 5cbd 50e9 97bd
00000250: 1afa 173b c989 0cbe 5ab2 7e3c bd20 593c
00000260: aba0 db3c e972 243d fcfe 1b3d c222 fd3c
00000270: 3a30 843e 61ef f73c 3398 9a3b 0e9c 18bd
00000280: f452 82bb 8ed6 a43b 3deb ebbb 40a1 213c
00000290: 196d 7abc 98c5 cb3c 80a8 dc3c 7e8d d5bc
000002a0: d2af b83e 9029 263f 0660 273f 4b93 8c3e
000002b0: 5146 2c3f eeec bf3e 48f9 383f be34 a13e
000002c0: 239c 313f 54fd 203f d955 2a3f b273 253f
000002d0: 3b63 203f 9c64 673e 69b1 1a3f 0fa4 c13e
000002e0: e32e 873e 8f95 9a3e ed86 2a3f 6e72 183f
000002f0: f17b 1b3f a418 213f 94ad bc3e 2d4c 893e
00000300: 1eb7 173f 56a3 9e3e b5e0 263f fc3b d83e
00000310: 0b34 293f 8c82 b23e ebe8 2a3f 9b3c 1a3f
00000320: f62e 833e 16db 233f 702e 2b3f ad19 933e
00000330: 327a 2b3f 7b7f 373f 895e 283f 3dae b33e
00000340: c9c5 a93e e4f4 283f a393 203f c83b 1f3f
00000350: a644 313f f67c fb3e 2ec1 1f3f b9f8 1b3f
00000360: 6a87 0f3f 283d 1c3f cb9d de3e ea1c 373f
00000370: f075 4e3e 34b3 2c3f f331 233f cd47 2b3f
00000380: f0d9 b33e 6ca5 153f bc4b 0c3f 1b22 313f
00000390: d5d4 1b3f fc60 d53e c948 ab3e df73 273f
000003a0: d40f 303f f666 c33e a070 323f c1be ae3e
000003b0: 2d3b 2a3f 9bc0 0b3f 8b73 a63e 3615 303f
000003c0: ea9a a63e ec35 e43e d306 2d3f a15e 213f
000003d0: ae85 1b3f aef8 2b3f 34c7 b93e 90e3 923e
000003e0: 167c 893e 7665 303f cf4a 4c3e 28a0 223f
000003f0: 56fa d43e 23c4 063f d33e 263f f93f 243f
0.14188689 0.02661732 0.0035907442 -0.0114782 -0.008514357 -0.05098939 0.00079418434 0.14316466
0.00858094 0.005883198 0.001649055 0.012775446 -0.02760958 -0.2306897 0.011525659 -0.069204584
-0.006871339 -0.05322209 0.014835222 -0.0062024533 0.010066373 0.014846124 0.009468779 -0.039971933
-0.008860578 0.07287718 0.010585476 0.08519345 0.03007937 -0.067669556 0.018162927 0.013738214
0.18414666 0.01927061 -0.011792924 -0.031618882 0.011169922 -0.020899933 0.024680505 0.008209598
0.14253178 0.031442065 0.0011367725 0.022519996 0.0048109377 0.12468916 0.022867989 0.031726398
0.00087525824 0.02116599 -0.01887505 0.03070643 -0.21246082 0.030983197 0.0154522415 0.032532036
0.036172133 0.018265374 0.054290637 0.0057071224 0.04089866 0.043245666 -0.040509824 0.014162052
0.019810386 -0.04048865 0.023122149 -0.044637445 0.023609163 0.17923518 -0.12835586 0.012704925
0.017129848 -0.044361006 -0.019450607 0.019975817 -0.026861565 0.016625931 -0.05947404 -0.016787544
-0.10583828 0.013840529 -0.2274243 0.015649708 0.121305294 0.044475745 0.03470819 0.023198375
-0.038530473 -0.022698674 0.028572388 0.031249428 0.0029239915 0.024305386 0.084672734 -0.06934566
-0.13596435 0.0143366335 0.018516101 -0.17251042 0.01369817 0.012634437 0.028580558 0.034069486
0.014284224 -0.19659925 0.093109556 0.034584533 0.021045415 0.007334282 0.013048328 0.0388923
0.01848305 -0.027430741 0.026399171 -0.07506015 0.008123554 -0.0038077633 0.16394618 0.011890545
-0.042506266 0.0012126919 0.08831185 -0.15404412 -0.0103234835 0.04665078 -0.0013967679 -0.04733935
0.036372148 0.017348094 -0.027836546 0.0009807642 0.02392663 -0.011083929 -0.14776015 -0.010243306
-0.09833473 0.010472188 -0.1928098 0.019817427 0.11123658 0.044515394 0.022593735 0.022245998
0.010691285 -0.13253099 -0.053736597 -0.07417548 0.0023189844 -0.13724436 0.015545452 0.013252434
0.02681001 0.04014865 0.03808497 0.030900363 0.25818044 0.030265512 0.0047178506 -0.0372582
-0.003977174 0.0050304597 -0.0071996734 0.009865105 -0.0152848 0.024874493 0.026935816 -0.026068445
0.3607164 0.6490717 0.65380895 0.27456126 0.67294794 0.3748545 0.72255373 0.31485552
0.6937887 0.6288655 0.66537243 0.6462966 0.62651414 0.22596973 0.60426956 0.3782048
0.2640296 0.3019223 0.6661213 0.59549606 0.60735995 0.62928224 0.3685118 0.2681593
0.5926379 0.3098399 0.65186626 0.42233264 0.66095036 0.34865224 0.66761655 0.60248727
0.25621766 0.64006174 0.66867733 0.28730527 0.6698333 0.71678895 0.6576925 0.3509387
0.3315871 0.65998673 0.62725276 0.62200594 0.69245374 0.49118775 0.62404144 0.60926396
0.56066 0.6103082 0.4347976 0.71528494 0.20162177 0.6746094 0.6374809 0.66906434
0.3512721 0.5845554 0.5480306 0.69192666 0.6087163 0.41675556 0.33453968 0.6541118
0.6877415 0.3816449 0.697031 0.3412991 0.66496545 0.5459077 0.32510027 0.68782365
0.32540065 0.4457239 0.6758854 0.6303502 0.60750854 0.6717633 0.36284792 0.2868924
0.26852483 0.6890482 0.19950412 0.6352563 0.4159724 0.5264303 0.6493961 0.64160115

layer2.bias f4 [1344]
00000000: c007 e83e 5f70 bc3f 8e78 bc3f a167 f1bf
00000010: cbc9 bc3f 2469 da3e 0b05 9bc0 dc66 17c0
00000020: 8789 dbbf b4e6 b93f 6327 bc3f ce98 ba3f
00000030: 8609 bc3f 1b91 723e 4d4c ba3f 32ab cb3e
00000040: 3d2e 2ac0 47cb 33c0 6766 bb3f a9e6 ba3f
00000050: 3566 bb3f d8c0 39c0 c7b0 15c1 10cf 9bbf
00000060: 9cf0 b93f b2c5 18c0 8dab bb3f 548a 0d3f
00000070: 00fc a3c0 01e1 07c0 46b0 b93f 485c bb3f
00000080: a290 23c0 ac46 bc3f 4cac ba3f e660 0bc0
00000090: c7c3 bb3f a13b d9bf 03b4 ba3f 7768 c63e
000000a0: 8871 ecbf bbc2 b93f dd3b bb3f 89c6 bd3f
000000b0: a143 bb3f 650e d43e 7445 bc3f 0a14 bf3f
000000c0: cfd7 bb3f 7e6f bc3f 52d4 e53e f62a 80c0
000000d0: fa38 49c0 4e52 bd3f 4373 bb3f ed37 bd3f
000000e0: 7565 48be a2f6 bd3f aaab b73f 0132 3ac0
000000f0: 85f2 b93f c044 fb3d 46a0 06c0 bd2f bc3f
00000100: 1f59 d9bf b740 51c0 31ce 65c0 92cb 933c
00000110: 478d dabf 9d53 2abf c075 38c0 17e6 bf3f
00000120: 773c eb3e 6094 d53e 0497 bf3f a2ef bc3f
00000130: 313e bd3f 6596 3ac0 700f 393d 6e01 d73e
00000140: 8e1e 00c0 1d8b b93f b86f 23c0 e49a ba3f
00000150: dec8 48bf a07c b2bf 08c5 b93f ea0e bc3f
00000160: fd01 dabf 35e8 e13e c739 d9bf b27b 3bc0
00000170: aa24 bc3f 9435 dbbf 3be3 1e3f 3266 c13e
00000180: a150 c9bf 2413 be3f 0561 b83f 0ea7 28c0
00000190: e8e0 dabf 6710 3cc0 198e bc3f 536b d9bf
000001a0: 7223 bd3f c25e 14c0 274a 35c0 1a06 d7bf
000001b0: b5ce 65c0 e48b bc3f 1172 d9bf bb66 b93f
000001c0: 1b9d bc3f 0f62 dcbf a6b4 d9bf 0640 5bc0
000001d0: e682 be3f 94ca e13e 98e0 49c0 d700 bb3f
000001e0: ed0a f4bf 7589 bc3f 05a6 adbf edac d8bf
000001f0: 67d3 bc3f 532a b93f 312d 263e 9357 26c0
00000200: 444d 53c0 f979 dabf 190e 013e dd11 81c0
00000210: ef43 c2c0 d8e6 d8bf 110e 1dc0 1bcf bb3f
00000220: a990 e1bf 5050 ba3f c69d c3be af6d bd3f
00000230: f6d2 cbbf ba72 d7bf fefc b93f ff43 bc3f
00000240: b15f bc3f 4dd3 cfbf 5de5 43c0 69fe 6abf
00000250: 0d0b dbbf 0c7c 44c0 1246 bc3f acbe bc3f
00000260: 9bcd bb3f 2131 bc3f 1aaf 45c0 c98d 64c0
00000270: bbcf 2ec0 ae11 bb3f 5120 ba3f d953 40c0
00000280: 9d3f d9bf 4c22 b7c0 4554 bb3f 6041 bc3f
00000290: ea2a bc3f b561 7ac0 87d8 3bc0 89b4 15c1
000002a0: c007 e83e 5f70 bc3f 8e78 bc3f a167 f1bf
000002b0: cbc9 bc3f 2469 da3e 0b05 9bc0 dc66 17c0
000002c0: 8789 dbbf b4e6 b93f 6327 bc3f ce98 ba3f
000002d0: 8609 bc3f 1b91 723e 4d4c ba3f 32ab cb3e
000002e0: 3d2e 2ac0 47cb 33c0 6766 bb3f a9e6 ba3f
000002f0: 3566 bb3f d8c0 39c0 c7b0 15c1 10cf 9bbf
00000300: 9cf0 b93f b2c5 18c0 8dab bb3f 548a 0d3f
00000310: 00fc a3c0 01e1 07c0 46b0 b93f 485c bb3f
00000320: a290 23c0 ac46 bc3f 4cac ba3f e660 0bc0
00000330: c7c3 bb3f a13b d9bf 03b4 ba3f 7768 c63e
00000340: 8871 ecbf bbc2 b93f dd3b bb3f 89c6 bd3f
00000350: a143 bb3f 650e d43e 7445 bc3f 0a14 bf3f
00000360: cfd7 bb3f 7e6f bc3f 52d4 e53e f62a 80c0
00000370: fa38 49c0 4e52 bd3f 4373 bb3f ed37 bd3f
00000380: 7565 48be a2f6 bd3f aaab b73f 0132 3ac0
00000390: 85f2 b93f c044 fb3d 46a0 06c0 bd2f bc3f
000003a0: 1f59 d9bf b740 51c0 31ce 65c0 92cb 933c
000003b0: 478d dabf 9d53 2abf c075 38c0 17e6 bf3f
000003c0: 773c eb3e 6094 d53e 0497 bf3f a2ef bc3f
000003d0: 313e bd3f 6596 3ac0 700f 393d 6e01 d73e
000003e0: 8e1e 00c0 1d8b b93f b86f 23c0 e49a ba3f
000003f0: dec8 48bf a07c b2bf 08c5 b93f ea0e bc3f
0.45318413 1.4721793 1.472429 -1.885975 1.4749082 0.4265834 -4.8443656 -2.365653
-1.7151345 1.452353 1.469952 1.4577882 1.4690406 0.23688166 1.4554535 0.3977905
-2.6590722 -2.809282 1.4640626 1.4601642 1.4640566 -2.9023952 -9.355659 -1.2172565
1.4526553 -2.3870664 1.4661728 0.55289197 -5.1245117 -2.1231081 1.4506919 1.4637537
-2.5557027 1.4709067 1.4583831 -2.1777892 1.4669122 -1.6971322 1.4586185 0.38751575
-1.8472147 1.4512552 1.4627644 1.4826213 1.4630014 0.41417232 1.4708695 1.492799
1.4675235 1.4721525 0.4488855 -4.0052443 -3.1441026 1.4790742 1.464455 1.4782692
-0.19569953 1.4840891 1.4349263 -2.909302 1.4527136 0.122689724 -2.1035323 1.4702069
-1.6980323 -3.2695749 -3.59071 0.018041406 -1.7074364 -0.66533834 -2.882187 1.4992093
0.4594457 0.41714764 1.4967961 1.476063 1.4784604 -2.9154294 0.045180738 0.41993278
-2.001865 1.4495579 -2.5536938 1.4578519 -0.784315 -1.3944283 1.4513254 1.4692051
-1.7031857 0.44122472 -1.6970757 -2.9294248 1.4698689 -1.7125726 0.62065476 0.3777328
-1.5727731 1.4849591 1.4404608 -2.6351962 -1.7099886 -2.9385011 1.4730865 -1.6985878
1.4776442 -2.3182836 -2.832651 -1.6798737 -3.5907414 1.4730191 -1.6987935 1.4484476
1.4735445 -1.7217425 -1.7008255 -3.4257827 1.4883697 0.44099867 -3.154333 1.4609631
-1.9065834 1.4729449 -1.356629 -1.6927773 1.4752015 1.4466041 0.16228177 -2.599095
-3.301591 -1.7068473 0.12603034 -4.0334306 -6.0707927 -1.6945448 -2.4539835 1.4672579
-1.7622272 1.455576 -0.3820631 1.4799098 -1.5923755 -1.6831887 1.4530332 1.4708251
1.4716703 -1.6236359 -3.0608742 -0.9179445 -1.7112747 -3.0700712 1.4708884 1.4745688
1.4672121 1.4702493 -3.0888124 -3.5711539 -2.7314289 1.461477 1.4541112 -3.0051177
-1.6972538 -5.7229366 1.4635092 1.4707451 1.4700596 -3.9122136 -2.9350908 -9.356576
0.45318413 1.4721793 1.472429 -1.885975 1.4749082 0.4265834 -4.8443656 -2.365653
-1.7151345 1.452353 1.469952 1.4577882 1.4690406 0.23688166 1.4554535 0.3977905
-2.6590722 -2.809282 1.4640626 1.4601642 1.4640566 -2.9023952 -9.355659 -1.2172565
1.4526553 -2.3870664 1.4661728 0.55289197 -5.1245117 -2.1231081 1.4506919 1.4637537
-2.5557027 1.4709067 1.4583831 -2.1777892 1.4669122 -1.6971322 1.4586185 0.38751575
-1.8472147 1.4512552 1.4627644 1.4826213 1.4630014 0.41417232 1.4708695 1.492799
1.4675235 1.4721525 0.4488855 -4.0052443 -3.1441026 1.4790742 1.464455 1.4782692
-0.19569953 1.4840891 1.4349263 -2.909302 1.4527136 0.122689724 -2.1035323 1.4702069
-1.6980323 -3.2695749 -3.59071 0.018041406 -1.7074364 -0.66533834 -2.882187 1.4992093
0.4594457 0.41714764 1.4967961 1.476063 1.4784604 -2.9154294 0.045180738 0.41993278
-2.001865 1.4495579 -2.5536938 1.4578519 -0.784315 -1.3944283 1.4513254 1.4692051

layer2.fc.weight f4 [1344, 128]
00000000: 9b0f c33f 0432 9e3e b23f e83f e548 e9c0
00000010: 20f9 523f 5dba ce3e de1a a43f a6ac e13b
00000020: 7435 a83f 657a 49bf 5727 d53f 5976 213f
00000030: ceaa ccc0 4b9b e6c0 6921 d33f 183a 6fbe
00000040: f0d0 463f f75f 56bd b530 703f 8495 15c0
00000050: df4c b1c0 657f 413f d8da 09be 528d 713f
00000060: 2ae0 013f e65c e13e a484 bebe 19c5 0e3f
00000070: 4d2d 283e 1769 c43f ec66 313d 5d55 853f
00000080: 618a fbbf 062e 0e3f 0cdb abc0 1baf d4c0
00000090: cfa6 9ac0 5b18 3e3f 6788 02c0 8440 9fbe
000000a0: 8d32 613f c0dc e3c0 13c7 b3be 68d5 293f
000000b0: 1919 353f 25b3 973f 903b 36c0 85e8 bec0
000000c0: c595 d63f a320 313f 7750 80bf b447 6c3f
000000d0: 26d7 823f fbb8 c4be 56d9 e43d 2ced bb3e
000000e0: 766f da3d 1df5 89bf 2b02 e5bf d43c d83f
000000f0: f81d 7b3f cbf2 fb3e 296b 233f cc40 a8be
00000100: 8daf 30c0 4008 2fc0 6bcb 97c0 f053 b7be
00000110: aeaa 313f ac0f 3ebb 5559 94be 1534 d2bf
00000120: 79cd ca3f f58f adc0 973e aabe d3af 973f
00000130: 73e6 3a3f c377 b4be ab0d b5be a22c 9d3f
00000140: 0c02 3dc0 3f6b 1f3f e8c9 6f3f 0de8 e6be
00000150: 8bf3 ab3f 19e5 afbe 839c c13f 8d0a 43c0
00000160: 3c1d 1d3f 41b3 513f 5bd3 cdbe 6213 ddbf
00000170: 5c3b a9bf 957f ca3e bea3 55bf 192a 51c0
00000180: 36a6 73be 06d7 cabe 94d3 1e3f fdd5 b2bf
00000190: 9f0d 7d3f bd33 3c3f 37cd 323e db47 c53e
000001a0: b0c0 8fbf d723 4ac0 08c8 2dbf ba73 8f3e
000001b0: 8985 10c0 87b3 72bf 5378 b8be 7165 f8bf
000001c0: 80f0 253f 9286 adbd 24f7 dfbf d5aa c9bf
000001d0: 16ea 2ec0 2490 593e ef53 22bf 91e1 333f
000001e0: 0b23 0ebf 33f0 d8bf 31db c3c0 759e 2dc0
000001f0: bfff d23e 3759 a1be 7a5e ddbe d8bf 3e3f
00000200: 0ebb 75c0 a17e bfbe 7dfb 14c0 455d f6be
00000210: 1021 acbf efa1 5ebe f395 91c0 cad4 eebe
00000220: 0379 1dc0 4b8f 25c0 b317 b2bf ac84 fabe
00000230: e2d4 0dbf f27c 2dc0 bf0b 32c0 02f2 a8be
00000240: d2c8 97bf d243 24c0 6406 31c0 c7e9 babf
00000250: 7bf0 b0bf 3cc9 49c0 7ed9 f4bf f2c9 c3bf
00000260: 410f 64c0 e667 debf a562 ebbe f433 1fc0
00000270: b7d8 a3be b951 68c0 7181 04be 25f8 85be
00000280: f96b 8bc0 489f 20c0 52ec 21c0 b3d4 8cc0
00000290: dc06 04c0 dc20 5fc0 7f07 15c0 5706 08c0
000002a0: d21c b1bf 811e e7bf 19f1 3fbd a410 14c1
000002b0: ec78 aabf 6724 f2bf f0bd 68c0 9298 18bf
000002c0: 5d12 95c0 0054 74bf fd6a d5be 8f85 99bf
000002d0: f8f6 66c0 14e0 d23c bdf5 a8be 6d1b 3ac0
000002e0: 257d 3ac0 5a11 bfbe 27b3 01c0 6a83 0cc0
000002f0: fba4 5cbf c141 a5bf 6cd4 cfbf 1b3f 05bd
00000300: 63f2 39be 97c9 bcbe 407b 3bc0 986d a9bf
00000310: 2dec 13c1 82bd 77c0 ff57 8bbd 2508 bdc0
00000320: 6acf d1bf 7cb5 31c0 3466 12bd ddbb 68bf
00000330: e0a1 88be 9298 373b efb4 75bd 21cb 74bf
00000340: 3e0f fabf 89dc 14bf c18e 83bf 8aeb 71c0
00000350: e427 11c1 ff0f 7d3c 65a4 01c1 6c73 e2bf
00000360: 11c6 2bbf 34a8 48bf ec5c 34c0 e754 89c0
00000370: 1efc 6dc0 fc9a 82c0 3534 53bf 6fa5 32c0
00000380: 8685 24bf da81 14bd 3f7c 45c0 714d 72c0
00000390: 2310 61bf 660d 17bf f18d c8be a0e9 c1bf
000003a0: b188 bcbf 5946 01c1 9ca0 62c0 29a2 92c0
000003b0: ed4b 6bbe 5635 09c0 810c 0f3d f6c5 c6be
000003c0: e0f2 21c0 a086 0ebf 619f 28c0 7a18 38c0
000003d0: 8bd1 1bbf 112b 87bf c5d5 1abe 529b 9ebf
000003e0: 0ca3 babe b256 82bf 6326 85bf 9b3b a0bf
000003f0: 5a8e 47c0 20ec c7bc e2ac 15c0 6f83 24c0
1.5239137 0.30897534 1.8144438 -7.2901483 0.82411385 0.4037656 1.2820699 0.0068870364
1.3141313 -0.78702384 1.665263 0.6307121 -6.39585 -7.2064567 1.6494571 -0.23362005
0.77662563 -0.052337613 0.9382432 -2.3372507 -5.5406337 0.75585014 -0.13462389 0.9435626
0.5073267 0.44016188 -0.37210572 0.557695 0.16423531 1.5344571 0.043311045 1.0416676
-1.9651605 0.55538976 -5.370489 -6.646375 -4.8328624 0.74255913 -2.0395753 -0.3110391
0.8796776 -7.120697 -0.3511282 0.6634126 0.7074142 1.1851546 -2.8473854 -5.9658837
1.6764456 0.69190425 -1.0024556 0.9229691 1.0221908 -0.3842238 0.11174266 0.36704385
0.10665791 -1.0777928 -1.7891287 1.6893563 0.98092604 0.49208674 0.6383539 -0.32861936
-2.7607148 -2.7348785 -4.7435813 -0.35806227 0.6940106 -0.002900104 -0.28974405 -1.6422144
1.5843955 -5.423823 -0.33250877 1.1850532 0.7300789 -0.3524762 -0.3536199 1.2279246
-2.95325 0.6227302 0.9366746 -0.45098916 1.3433698 -0.34354475 1.5125889 -3.047519
0.61372733 0.81914145 -0.40200314 -1.727154 -1.322124 0.39550462 -0.83452976 -3.2681944
-0.23793873 -0.39617175 0.6204159 -1.3971554 0.9884891 0.73516446 0.17461096 0.38531384
-1.1230679 -3.1584375 -0.6788335 0.2801798 -2.2581503 -0.94805187 -0.360293 -1.9405957
0.648201 -0.08472933 -1.7497296 -1.5755259 -2.7330375 0.21246392 -0.6340932 0.7026606
-0.5552222 -1.6948303 -6.120507 -2.7127964 0.41210744 -0.31513378 -0.43236142 0.7451148
-3.839542 -0.37401298 -2.3278496 -0.48118034 -1.344759 -0.2174146 -4.5495543 -0.4664672
-2.460511 -2.586871 -1.3913482 -0.48929346 -0.5540296 -2.710751 -2.781967 -0.32997137
-1.185816 -2.5666394 -2.766015 -1.4602593 -1.3823389 -3.1529074 -1.9128873 -1.5296004
-3.563431 -1.7375457 -0.45973697 -2.487546 -0.32001278 -3.629988 -0.12940003 -0.26165882
-4.3569303 -2.5097218 -2.5300488 -4.4009643 -2.0629187 -3.4863806 -2.3285825 -2.125387
-1.383692 -1.8056184 -0.046860788 -9.254063 -1.3318152 -1.8917359 -3.6365929 -0.59607804
-4.6584916 -0.95440674 -0.41683188 -1.1993884 -3.6088238 0.025741614 -0.32999983 -2.907924
-2.9138882 -0.37317926 -2.0265596 -2.1955209 -0.8618924 -1.2910691 -1.6236701 -0.032530885
-0.1815887 -0.3687255 -2.9293976 -1.323657 -9.24516 -3.8709416 -0.06803893 -5.907244
-1.6391423 -2.776702 -0.035742 -0.90911657 -0.26686 0.0028014523 -0.059987005 -0.9562245
-1.9535902 -0.5814901 -1.027794 -3.7800012 -9.072239 0.015445708 -8.102635 -1.7691474
-0.670991 -0.7838166 -2.8181715 -4.291614 -3.718513 -4.081419 -0.82501537 -2.7913473
-0.6426624 -0.03625665 -3.0857084 -3.7859766 -0.8791525 -0.5900482 -0.39170793 -1.5149422
-1.4729215 -8.079675 -3.5410528 -4.582295 -0.22978182 -2.1438804 0.034924034 -0.38822907
-2.530449 -0.5567417 -2.6347277 -2.876494 -0.6086661 -1.0560018 -0.15120609 -1.239115
-0.3645252 -1.0182707 -1.040234 -1.251819 -3.1180634 -0.024404585 -2.338677 -2.570522

batchnorm1.weight f4 [128]
00000000: 0000 803f 0000 803f 0000 803f 0000 803f
00000010: 0000 803f 0000 803f 0000 803f 0000 803f
00000020: 0000 803f 0000 803f 0000 803f 0000 803f
00000030: 0000 803f 0000 803f 0000 803f 0000 803f
00000040: 0000 803f 0000 803f 0000 803f 0000 803f
00000050: 0000 803f 0000 803f 0000 803f 0000 803f
00000060: 0000 803f 0000 803f 0000 803f 0000 803f
00000070: 0000 803f 0000 803f 0000 803f 0000 803f
00000080: 0000 803f 0000 803f 0000 803f 0000 803f
00000090: 0000 803f 0000 803f 0000 803f 0000 803f
000000a0: 0000 803f 0000 803f 0000 803f 0000 803f
000000b0: 0000 803f 0000 803f 0000 803f 0000 803f
000000c0: 0000 803f 0000 803f 0000 803f 0000 803f
000000d0: 0000 803f 0000 803f 0000 803f 0000 803f
000000e0: 0000 803f 0000 803f 0000 803f 0000 803f
000000f0: 0000 803f 0000 803f 0000 803f 0000 803f
00000100: 0000 803f 0000 803f 0000 803f 0000 803f
00000110: 0000 803f 0000 803f 0000 803f 0000 803f
00000120: 0000 803f 0000 803f 0000 803f 0000 803f
00000130: 0000 803f 0000 803f 0000 803f 0000 803f
00000140: 0000 803f 0000 803f 0000 803f 0000 803f
00000150: 0000 803f 0000 803f 0000 803f 0000 803f
00000160: 0000 803f 0000 803f 0000 803f 0000 803f
00000170: 0000 803f 0000 803f 0000 803f 0000 803f
00000180: 0000 803f 0000 803f 0000 803f 0000 803f
00000190: 0000 803f 0000 803f 0000 803f 0000 803f
000001a0: 0000 803f 0000 803f 0000 803f 0000 803f
000001b0: 0000 803f 0000 803f 0000 803f 0000 803f
000001c0: 0000 803f 0000 803f 0000 803f 0000 803f
000001d0: 0000 803f 0000 803f 0000 803f 0000 803f
000001e0: 0000 803f 0000 803f 0000 803f 0000 803f
000001f0: 0000 803f 0000 803f 0000 803f 0000 803f
1.0 1.0 1.0 1.0 1.0 1.0 1.0 1.0
1.0 1.0 1.0 1.0 1.0 1.0 1.0 1.0
1.0 1.0 1.0 1.0 1.0 1.0 1.0 1.0
1.0 1.0 1.0 1.0 1.0 1.0 1.0 1.0
1.0 1.0 1.0 1.0 1.0 1.0 1.0 1.0
1.0 1.0 1.0 1.0 1.0 1.0 1.0 1.0
1.0 1.0 1.0 1.0 1.0 1.0 1.0 1.0
1.0 1.0 1.0 1.0 1.0 1.0 1.0 1.0
1.0 1.0 1.0 1.0 1.0 1.0 1.0 1.0
1.0 1.0 1.0 1.0 1.0 1.0 1.0 1.0
1.0 1.0 1.0 1.0 1.0 1.0 1.0 1.0
1.0 1.0 1.0 1.0 1.0 1.0 1.0 1.0
1.0 1.0 1.0 1.0 1.0 1.0 1.0 1.0
1.0 1.0 1.0 1.0 1.0 1.0 1.0 1.0
1.0 1.0 1.0 1.0 1.0 1.0 1.0 1.0
1.0 1.0 1.0 1.0 1.0 1.0 1.0 1.0

batchnorm1.bias f4 [128]
00000000: 0000 0000 0000 0000 0000 0000 0000 0000
00000010: 0000 0000 0000 0000 0000 0000 0000 0000
00000020: 0000 0000 0000 0000 0000 0000 0000 0000
00000030: 0000 0000 0000 0000 0000 0000 0000 0000
00000040: 0000 0000 0000 0000 0000 0000 0000 0000
00000050: 0000 0000 0000 0000 0000 0000 0000 0000
00000060: 0000 0000 0000 0000 0000 0000 0000 0000
00000070: 0000 0000 0000 0000 0000 0000 0000 0000
00000080: 0000 0000 0000 0000 0000 0000 0000 0000
00000090: 0000 0000 0000 0000 0000 0000 0000 0000
000000a0: 0000 0000 0000 0000 0000 0000 0000 0000
000000b0: 0000 0000 0000 0000 0000 0000 0000 0000
000000c0: 0000 0000 0000 0000 0000 0000 0000 0000
000000d0: 0000 0000 0000 0000 0000 0000 0000 0000
000000e0: 0000 0000 0000 0000 0000 0000 0000 0000
000000f0: 0000 0000 0000 0000 0000 0000 0000 0000
00000100: 0000 0000 0000 0000 0000 0000 0000 0000
00000110: 0000 0000 0000 0000 0000 0000 0000 0000
00000120: 0000 0000 0000 0000 0000 0000 0000 0000
00000130: 0000 0000 0000 0000 0000 0000 0000 0000
00000140: 0000 0000 0000 0000 0000 0000 0000 0000
00000150: 0000 0000 0000 0000 0000 0000 0000 0000
00000160: 0000 0000 0000 0000 0000 0000 0000 0000
00000170: 0000 0000 0000 0000 0000 0000 0000 0000
00000180: 0000 0000 0000 0000 0000 0000 0000 0000
00000190: 0000 0000 0000 0000 0000 0000 0000 0000
000001a0: 0000 0000 0000 0000 0000 0000 0000 0000
000001b0: 0000 0000 0000 0000 0000 0000 0000 0000
000001c0: 0000 0000 0000 0000 0000 0000 0000 0000
000001d0: 0000 0000 0000 0000 0000 0000 0000 0000
000001e0: 0000 0000 0000 0000 0000 0000 0000 0000
000001f0: 0000 0000 0000 0000 0000 0000 0000 0000
0.0 0.0 0.0 0.0 0.0 0.0 0.0 0.0
0.0 0.0 0.0 0.0 0.0 0.0 0.0 0.0
0.0 0.0 0.0 0.0 0.0 0.0 0.0 0.0
0.0 0.0 0.0 0.0 0.0 0.0 0.0 0.0
0.0 0.0 0.0 0.0 0.0 0.0 0.0 0.0
0.0 0.0 0.0 0.0 0.0 0.0 0.0 0.0
0.0 0.0 0.0 0.0 0.0 0.0 0.0 0.0
0.0 0.0 0.0 0.0 0.0 0.0 0.0 0.0
0.0 0.0 0.0 0.0 0.0 0.0 0.0 0.0
0.0 0.0 0.0 0.0 0.0 0.0 0.0 0.0
0.0 0.0 0.0 0.0 0.0 0.0 0.0 0.0
0.0 0.0 0.0 0.0 0.0 0.0 0.0 0.0
0.0 0.0 0.0 0.0 0.0 0.0 0.0 0.0
0.0 0.0 0.0 0.0 0.0 0.0 0.0 0.0
0.0 0.0 0.0 0.0 0.0 0.0 0.0 0.0
0.0 0.0 0.0 0.0 0.0 0.0 0.0 0.0

batchnorm1.running_mean f4 [128]
00000000: 0000 0000 0000 0000 0000 0000 0000 0000
00000010: 0000 0000 0000 0000 0000 0000 0000 0000
00000020: 0000 0000 0000 0000 0000 0000 0000 0000
00000030: 0000 0000 0000 0000 0000 0000 0000 0000
00000040: 0000 0000 0000 0000 0000 0000 0000 0000
00000050: 0000 0000 0000 0000 0000 0000 0000 0000
00000060: 0000 0000 0000 0000 0000 0000 0000 0000
00000070: 0000 0000 0000 0000 0000 0000 0000 0000
00000080: 0000 0000 0000 0000 0000 0000 0000 0000
00000090: 0000 0000 0000 0000 0000 0000 0000 0000
000000a0: 0000 0000 0000 0000 0000 0000 0000 0000
000000b0: 0000 0000 0000 0000 0000 0000 0000 0000
000000c0: 0000 0000 0000 0000 0000 0000 0000 0000
000000d0: 0000 0000 0000 0000 0000 0000 0000 0000
000000e0: 0000 0000 0000 0000 0000 0000 0000 0000
000000f0: 0000 0000 0000 0000 0000 0000 0000 0000
00000100: 0000 0000 0000 0000 0000 0000 0000 0000
00000110: 0000 0000 0000 0000 0000 0000 0000 0000
00000120: 0000 0000 0000 0000 0000 0000 0000 0000
00000130: 0000 0000 0000 0000 0000 0000 0000 0000
00000140: 0000 0000 0000 0000 0000 0000 0000 0000
00000150: 0000 0000 0000 0000 0000 0000 0000 0000
00000160: 0000 0000 0000 0000 0000 0000 0000 0000
00000170: 0000 0000 0000 0000 0000 0000 0000 0000
00000180: 0000 0000 0000 0000 0000 0000 0000 0000
00000190: 0000 0000 0000 0000 0000 0000 0000 0000
000001a0: 0000 0000 0000 0000 0000 0000 0000 0000
000001b0: 0000 0000 0000 0000 0000 0000 0000 0000
000001c0: 0000 0000 0000 0000 0000 0000 0000 0000
000001d0: 0000 0000 0000 0000 0000 0000 0000 0000
000001e0: 0000 0000 0000 0000 0000 0000 0000 0000
000001f0: 0000 0000 0000 0000 0000 0000 0000 0000
0.0 0.0 0.0 0.0 0.0 0.0 0.0 0.0
0.0 0.0 0.0 0.0 0.0 0.0 0.0 0.0
0.0 0.0 0.0 0.0 0.0 0.0 0.0 0.0
0.0 0.0 0.0 0.0 0.0 0.0 0.0 0.0
0.0 0.0 0.0 0.0 0.0 0.0 0.0 0.0
0.0 0.0 0.0 0.0 0.0 0.0 0.0 0.0
0.0 0.0 0.0 0.0 0.0 0.0 0.0 0.0
0.0 0.0 0.0 0.0 0.0 0.0 0.0 0.0
0.0 0.0 0.0 0.0 0.0 0.0 0.0 0.0
0.0 0.0 0.0 0.0 0.0 0.0 0.0 0.0
0.0 0.0 0.0 0.0 0.0 0.0 0.0 0.0
0.0 0.0 0.0 0.0 0.0 0.0 0.0 0.0
0.0 0.0 0.0 0.0 0.0 0.0 0.0 0.0
0.0 0.0 0.0 0.0 0.0 0.0 0.0 0.0
0.0 0.0 0.0 0.0 0.0 0.0 0.0 0.0
0.0 0.0 0.0 0.0 0.0 0.0 0.0 0.0

batchnorm1.running_var f4 [128]
00000000: 0000 803f 0000 803f 0000 803f 0000 803f
00000010: 0000 803f 0000 803f 0000 803f 0000 803f
00000020: 0000 803f 0000 803f 0000 803f 0000 803f
00000030: 0000 803f 0000 803f 0000 803f 0000 803f
00000040: 0000 803f 0000 803f 0000 803f 0000 803f
00000050: 0000 803f 0000 803f 0000 803f 0000 803f
00000060: 0000 803f 0000 803f 0000 803f 0000 803f
00000070: 0000 803f 0000 803f 0000 803f 0000 803f
00000080: 0000 803f 0000 803f 0000 803f 0000 803f
00000090: 0000 803f 0000 803f 0000 803f 0000 803f
000000a0: 0000 803f 0000 803f 0000 803f 0000 803f
000000b0: 0000 803f 0000 803f 0000 803f 0000 803f
000000c0: 0000 803f 0000 803f 0000 803f 0000 803f
000000d0: 0000 803f 0000 803f 0000 803f 0000 803f
000000e0: 0000 803f 0000 803f 0000 803f 0000 803f
000000f0: 0000 803f 0000 803f 0000 803f 0000 803f
00000100: 0000 803f 0000 803f 0000 803f 0000 803f
00000110: 0000 803f 0000 803f 0000 803f 0000 803f
00000120: 0000 803f 0000 803f 0000 803f 0000 803f
00000130: 0000 803f 0000 803f 0000 803f 0000 803f
00000140: 0000 803f 0000 803f 0000 803f 0000 803f
00000150: 0000 803f 0000 803f 0000 803f 0000 803f
00000160: 0000 803f 0000 803f 0000 803f 0000 803f
00000170: 0000 803f 0000 803f 0000 803f 0000 803f
00000180: 0000 803f 0000 803f 0000 803f 0000 803f
00000190: 0000 803f 0000 803f 0000 803f 0000 803f
000001a0: 0000 803f 0000 803f 0000 803f 0000 803f
000001b0: 0000 803f 0000 803f 0000 803f 0000 803f
000001c0: 0000 803f 0000 803f 0000 803f 0000 803f
000001d0: 0000 803f 0000 803f 0000 803f 0000 803f
000001e0: 0000 803f 0000 803f 0000 803f 0000 803f
000001f0: 0000 803f 0000 803f 0000 803f 0000 803f
1.0 1.0 1.0 1.0 1.0 1.0 1.0 1.0
1.0 1.0 1.0 1.0 1.0 1.0 1.0 1.0
1.0 1.0 1.0 1.0 1.0 1.0 1.0 1.0
1.0 1.0 1.0 1.0 1.0 1.0 1.0 1.0
1.0 1.0 1.0 1.0 1.0 1.0 1.0 1.0
1.0 1.0 1.0 1.0 1.0 1.0 1.0 1.0
1.0 1.0 1.0 1.0 1.0 1.0 1.0 1.0
1.0 1.0 1.0 1.0 1.0 1.0 1.0 1.0
1.0 1.0 1.0 1.0 1.0 1.0 1.0 1.0
1.0 1.0 1.0 1.0 1.0 1.0 1.0 1.0
1.0 1.0 1.0 1.0 1.0 1.0 1.0 1.0
1.0 1.0 1.0 1.0 1.0 1.0 1.0 1.0
1.0 1.0 1.0 1.0 1.0 1.0 1.0 1.0
1.0 1.0 1.0 1.0 1.0 1.0 1.0 1.0
1.0 1.0 1.0 1.0 1.0 1.0 1.0 1.0
1.0 1.0 1.0 1.0 1.0 1.0 1.0 1.0
