Audit-log_Analysis/code/GNN/training/checkpoint_GAT/best_model_GAT_transH_150.pt (torch, 792559 bytes, 16 tensors)

layer1.attn_l f4 [1, 8, 16]
000000 e3 73 80 bc 8b f7 30 be d1 74 d1 bd f2 4e 09 be
       -0.01568026 -0.1728193 -0.10227359 -0.13409021
000010 90 c6 cb bd 78 51 09 be bc f5 c1 3d 75 0e 49 be
       -0.09949982 -0.13409984 0.09470698 -0.19634421
000020 0f be 5c be 5b e1 2b bd 05 c5 09 bd 4f 33 de bd
       -0.21556877 -0.041962963 -0.033635158 -0.1084963
000030 2e f1 73 3d 60 e7 83 bd 45 e7 59 bd d9 79 a3 bd
       0.05955618 -0.06440616 -0.05319907 -0.07982225
000040 b6 ce b3 bd 42 56 85 be 0a 18 5f 3e 0e 82 04 be
       -0.08779661 -0.26042372 0.21786514 -0.12940237
000050 03 c5 fb bd c2 95 3f be 0b 22 65 be 25 0d 29 be
       -0.122934364 -0.18709472 -0.22376268 -0.1650892
000060 34 f9 2a be d6 d5 f4 3d 55 4b 6c 3d e1 a8 a2 3c
       -0.16696626 0.119548485 0.05768903 0.019855918
000070 0d 10 4a 3d 0e 34 09 be 41 6c 57 bd 9e 81 e7 bd
       0.049331713 -0.13398764 -0.052593473 -0.113040194
000080 ad 24 eb bd e1 fd 77 3d 18 ab a3 bd 8e b7 8f bd
       -0.11481605 0.060544852 -0.07991618 -0.07017432
000090 da 33 f5 bd fa 7e fd bc 80 14 c0 bd d7 b4 d7 3b
       -0.119727805 -0.030944336 -0.0937891 0.006582837
0000a0 56 f5 2e 3d e1 da d1 bd 4f ff b8 bd 22 42 f0 bd
       0.04271444 -0.10246826 -0.09033071 -0.11731364
0000b0 63 17 5a be 6d 4b 36 be 6f ec c9 bd 3e 09 3f be
       -0.21297984 -0.1780221 -0.09859549 -0.1865587
0000c0 05 0c 73 bd 42 2d 75 3c ce 34 3b 3c 6f 09 c2 3c
       -0.059337635 0.014964404 0.011426164 0.023686139
0000d0 7f 62 b8 bd 84 d2 cb 3d a8 4e 8b 38 fe 02 16 bc
       -0.09003162 0.09952262 6.6426874e-05 -0.009155987
0000e0 43 e1 5e 3c 6f 6c 0e be 39 0c 24 3d 58 ea 14 be
       0.013603511 -0.13908552 0.04005072 -0.1454252
0000f0 db 47 07 3c e5 c5 29 3c 54 5a 95 3c af 87 cd bd
       0.008256878 0.010362123 0.018231548 -0.10035645
000100 59 3d 85 bd 3e 34 88 be 4a be 36 be c6 ac 73 be
       -0.06505842 -0.26602358 -0.17846027 -0.23796377
000110 60 f4 f6 bd 34 40 2e 3e fe 9e 5a bd 84 5b ea bd
       -0.120583296 0.17016679 -0.053374283 -0.114432365
000120 1b 3f 75 be d4 04 5c bd 20 83 48 be a4 5d 20 be
       -0.23949854 -0.053715542 -0.1958127 -0.15660721
000130 6f 79 ce bd d5 5f 2e be c6 35 d4 bd e3 d1 0d be
       -0.10081755 -0.17028745 -0.10361819 -0.13849597
000140 ad d4 93 be 9a e4 b0 be d9 61 68 bb 25 9e 9c be
       -0.28873196 -0.3454941 -0.0035458712 -0.30589405
000150 9b 42 2c be cd 5e 69 be a8 9f 9e be 29 9e 96 3d
       -0.16822283 -0.2279007 -0.30981183 0.073543854
000160 45 9a 19 be dd ef 74 be 85 f9 a3 be e8 77 2f be
       -0.15000255 -0.23919626 -0.32026306 -0.17135584
000170 70 0c 88 be 4a 4c 7a be 6a 7d a7 be ac 06 21 3e
       -0.2657199 -0.24443164 -0.3271287 0.15725201
000180 91 26 04 be 62 ca 12 be c7 6b 68 bd cf 56 80 be
       -0.12905337 -0.14335015 -0.05674341 -0.2506623
000190 f5 68 44 be 74 29 36 bd 0c de bb bd aa ad 74 be
       -0.19180663 -0.044473127 -0.091732115 -0.23894373
0001a0 e0 43 54 bd e5 40 0e be 04 a1 e2 bd 71 84 1b be
       -0.051822543 -0.13891943 -0.110658675 -0.15187241
0001b0 92 5b 86 be 6f b8 39 be 02 34 2a be e4 6a a9 bc
       -0.26241738 -0.18136762 -0.16621402 -0.020680852
0001c0 d2 e7 d8 bd 09 4c a9 bd 39 05 0c be e6 e4 d0 bc
       -0.10591091 -0.08266456 -0.13673867 -0.025499772
0001d0 18 7a 43 be ce 85 16 3b 1d 33 48 be ab 6a db bd
       -0.19089544 0.0022967937 -0.19550748 -0.10713705
0001e0 71 c5 e2 bd 20 bb 56 bc 27 20 cd 3d 51 34 50 be
       -0.11072815 -0.0131061375 0.10015898 -0.20332457
0001f0 97 95 2a 3e fe cd 9e be 4b 50 26 be 64 b1 50 be
       0.16658626 -0.31016535 -0.16241567 -0.20380169

layer1.attn_r f4 [1, 8, 16]
000000 8c ad 9f bc 9c 3e 72 3d ea 08 4f 3e 5d d4 ec bd
       -0.019491933 0.05914174 0.20218244 -0.115639426
000010 94 16 97 bd 9c 66 5c 3d 63 b5 a0 bd e7 21 a7 bd
       -0.07377353 0.053808793 -0.07847097 -0.08160763
000020 0e 5f 46 3d 83 60 f9 bd a5 82 89 3c eb f1 83 3d
       0.048430495 -0.12176611 0.016785929 0.064426266
000030 91 4a de 3b df 83 8a 3d d7 e2 4a bd f9 af 16 bd
       0.0067837914 0.06763434 -0.049532738 -0.036788914
000040 64 77 c4 3d 6b 24 56 3d 85 3c 50 bc 5f 00 e1 bd
       0.095930845 0.052280825 -0.0127097415 -0.10986399
000050 cb 69 3a 3d 79 73 02 3d d7 6d 33 be a7 35 08 be
       0.04551105 0.031848405 -0.1752237 -0.13301717
000060 f7 af 4f bd 8e f4 0e be e3 42 60 bd 1f ce 35 bd
       -0.050704923 -0.13960478 -0.05475129 -0.044386026
000070 61 b6 d8 3d bc 18 64 bd 21 b9 e0 bd d5 64 69 3d
       0.10581661 -0.05568765 -0.109728105 0.056980927
000080 7f 23 c6 3c 31 53 85 3d 95 cb d9 bc 5e c8 25 3e
       0.024186848 0.06510008 -0.026586333 0.16189715
000090 71 74 54 3d ae ac 05 bd f0 38 5e bd e8 1c 16 be
       0.05186886 -0.032635383 -0.05425352 -0.14659464
0000a0 a9 65 17 3e ad c1 f6 bc 9f 5c 0b bc 39 d7 69 bd
       0.14784874 -0.030121649 -0.008505969 -0.057090018
0000b0 73 67 14 be de 70 8a bd 2e 9b 73 3d 3b f7 91 3d
       -0.14492588 -0.06759809 0.059474163 0.071272336
0000c0 88 5c 78 bd 39 b2 36 3d f9 04 0a bd 2f ed b3 bd
       -0.06063512 0.04460356 -0.03369615 -0.087854736
0000d0 64 16 2c 3d f1 1a 98 3c a8 97 4b 3d fb e2 92 3d
       0.04201354 0.018567534 0.049705178 0.07172199
0000e0 18 2e 45 3d ba 76 93 bc 8b ac 1e 3d 8e da bb bd
       0.04813966 -0.01800095 0.03873877 -0.091725454
0000f0 9f 67 05 3e f1 db cb bb a5 cb e4 bd 3a 80 78 3d
       0.1302781 -0.0062212874 -0.111716546 0.06066916
000100 c2 62 ea bc 20 ea 2e 3d 1f dd 6b 3d 74 29 f5 bc
       -0.028611545 0.042703748 0.057583924 -0.029926993
000110 58 d1 94 bd 3e de 14 bd 69 ce 66 bd 1c b4 7a bd
       -0.07266492 -0.03634476 -0.05634919 -0.061206922
000120 71 d8 49 3d 68 b8 97 bd 01 87 a2 3d ab 9f 9d 3d
       0.04927868 -0.074082196 0.07935906 0.0769647
000130 3b bc 7e bd 42 d9 84 bd fb 1c 25 3e 7e ce 84 3d
       -0.06219123 -0.06486751 0.16124336 0.06484698
000140 79 c4 2a bd f3 f6 43 be 2b 72 db bd c6 40 7d bd
       -0.041691277 -0.19137172 -0.10715135 -0.06182935
000150 75 f2 a8 bd 6f ed 78 3d a2 bd 5a 3d 2e bc 7f bc
       -0.0824937 0.06077331 0.053403504 -0.01560883
000160 db 67 2d 3b 6c 5d d4 bd 70 30 0a 3e 14 9e 70 3d
       0.0026459608 -0.10369381 0.1349504 0.058744505
000170 4c 0b 20 3d a3 b8 c4 3c 58 d2 c2 3d 34 f0 3d be
       0.039073274 0.024013823 0.09512776 -0.18548661
000180 19 e7 a9 bb 7b 4d a7 3d 3f 01 d1 3d 18 c1 1e 3e
       -0.0051850197 0.08169075 0.10205316 0.15503347
000190 c1 de 3f 3d 36 92 ac 3d ed b4 87 3d e1 ad 43 3e
       0.046843294 0.08426325 0.06626306 0.19109298
0001a0 b9 6a 64 bc 61 86 a2 3d 22 ff 6a bc 85 e2 8c 3d
       -0.01394146 0.07935787 -0.014343055 0.06879143
0001b0 87 43 17 3d 89 6b 63 3c 1a c7 86 bd f5 58 18 3d
       0.036929633 0.013880619 -0.06580944 0.03719421
0001c0 aa 0c 30 3d 69 42 ed bc 44 75 0b 3c 52 0b 55 3d
       0.042980827 -0.02896233 0.008511845 0.05201275
0001d0 5d 06 85 bd 71 ea 0e bc d1 ae bd bd 13 3f 84 3c
       -0.06495354 -0.008722887 -0.09261859 0.016143357
0001e0 a9 45 3f 3d 15 05 1f 3d 93 5b 01 3e 54 b0 11 be
       0.046697292 0.038823206 0.12632589 -0.1422742
0001f0 f1 4a 15 3e 3c 2e dc bd 25 d2 17 be 9d e7 f7 3d
       0.14579369 -0.10751006 -0.14826258 0.121047236

layer1.bias f4 [128]
000000 58 83 e3 bb 47 26 c2 bb c6 15 3b ba 6c 28 0b 3d
       -0.0069431476 -0.005924973 -0.00071367284 0.033974096
000010 f5 85 0c bb c3 93 e0 bb f5 05 eb 3b ba 7a b9 3e
       -0.002144215 -0.006853552 0.007172341 0.36226445
000020 97 3e 13 bc 9d ca cf bb 47 e6 a5 3c 23 85 fa ba
       -0.008987091 -0.006341292 0.020251406 -0.0019113164
000030 49 32 dc 3f 1f 8a 8f 39 2c 31 10 3b b6 f4 b4 3d
       1.7202846 0.00027377994 0.0022001965 0.088357374
000040 9f 16 0c 3b d7 14 1d 3e 24 34 1d 40 e6 3a 99 3e
       0.0021375788 0.15339981 2.4563074 0.29927748
000050 b9 e8 90 3e 09 8e 3b 3d ac a1 4d 3e 26 f6 f3 b9
       0.28302553 0.045789752 0.20081204 -0.00046531967
000060 05 ae 15 bb 0b 92 03 40 3d a5 91 ba b3 17 1b 3f
       -0.002283932 2.0557888 -0.0011111867 0.6058304
000070 3e 7f ea 3e 30 89 d2 3b 8d c6 09 3c 56 eb 86 3c
       0.45800203 0.0064250454 0.008409155 0.016469639
000080 9a fa 09 3f 55 80 d4 3c dd a2 b7 ba 64 4d 46 3b
       0.5389801 0.0259401 -0.0014010329 0.003025853
000090 44 a3 a4 bb 6f e9 d1 3d 27 b8 94 3b 5d a5 64 3e
       -0.0050243456 0.10249602 0.004538554 0.22328706
0000a0 5d 36 97 3f 58 80 b9 3b d2 e3 e5 ba 97 a6 6f bb
       1.1813465 0.0056610517 -0.0017539209 -0.00365678
0000b0 7d 58 99 3d ee c6 af ba 11 b8 15 3e 72 c9 2a bb
       0.07487581 -0.0013410726 0.14620997 -0.0026060012
0000c0 c3 e3 7f 3b d0 0f a0 bb 38 d2 ca bb e6 22 7f bb
       0.0039045669 -0.0048846975 -0.006189611 -0.0038930713
0000d0 59 85 bb ba 39 0d 15 bb 8d 65 ca 3f a5 f1 02 3e
       -0.0014306708 -0.0022743477 1.5812241 0.12787493
0000e0 47 29 d9 3f 7b 30 76 3a 9e 90 c5 3f 83 0d 87 bb
       1.6965722 0.00093913794 1.5434759 -0.004121484
0000f0 4b 6c 6e 40 2f b1 3b bb a9 9b e6 3b 13 00 55 3e
       3.7253597 -0.0028639545 0.007037599 0.2080081
000100 b9 80 dc bb 55 c2 73 b8 0c b0 b4 3d c5 07 d7 3d
       -0.006729212 -5.81167e-05 0.08822641 0.10499529
000110 24 6a 8f bb 0a 53 01 40 81 15 df bc 61 3e 49 3b
       -0.0043766666 2.0206933 -0.027231934 0.0030707347
000120 28 96 4c 3d 47 eb 32 ba 57 34 56 bc 77 6f 5e 3e
       0.049947888 -0.000682522 -0.013074002 0.21722208
000130 1a a2 16 3b 0f 09 d6 bb 74 cd 30 39 b4 2d 66 bb
       0.0022984804 -0.0065318416 0.00016861205 -0.0035122456
000140 53 62 95 bb a8 39 8b 3e 5a af 03 3f 9c eb 02 3e
       -0.0045588403 0.27192426 0.5143944 0.1278519
000150 6c 89 b8 bb 25 e1 bb 3d 0b 5e 0e 3d aa 5d 82 3e
       -0.0056316163 0.09173802 0.034757655 0.25462085
000160 66 9f e5 3d ab 07 24 b5 e1 a1 7a ba d4 aa 82 3c
       0.112120435 -6.110592e-07 -0.0009560865 0.015950598
000170 01 67 cb b9 70 0b 61 ba 81 ef 1f 3b a9 28 0c 40
       -0.0003879592 -0.0008584773 0.002440423 2.1899817
000180 5f ec b9 bb 0b e7 b9 3d 36 f1 f6 3d f8 df da ba
       -0.0056739296 0.09077271 0.12057726 -0.0016698828
000190 ca 61 96 b5 5b e8 42 ba 65 f1 b9 bb e0 20 18 ba
       -1.1204331e-06 -0.00074351364 -0.0056745284 -0.00058032386
0001a0 00 e5 b4 3a 09 2d 7b bb 00 c3 b9 3c 41 e6 f2 bb
       0.0013801157 -0.0038326404 0.022675991 -0.0074127023
0001b0 fe 27 0f 3c 69 0b 4e bb 98 38 8e ba 57 2b 23 3d
       0.008737562 -0.0031439906 -0.0010850606 0.039836254
0001c0 8e 10 44 3f 70 0e 91 3b 32 db 32 bc e6 89 dd bb
       0.7658776 0.00442677 -0.010916518 -0.0067608235
0001d0 33 73 ee 3d 51 cd 55 bb a2 60 b4 bb 10 be 5c 3a
       0.11643066 -0.0032623599 -0.0055046836 0.00084206555
0001e0 09 36 11 3e 58 c2 df 3d ca bf 86 3e b1 1e 0e 3e
       0.14180769 0.1092574 0.26318198 0.13878895
0001f0 fb 61 dd 3f 84 1a f7 3a 06 8b ba ba 96 23 a3 39
       1.7295526 0.0018852507 -0.0014232106 0.00031116296

layer1.fc.weight f4 [128, 150]
000000 6c 7e 29 3f 17 64 94 c0 c1 64 0b 40 57 a3 50 3f
       0.6620853 -4.637218 2.1780245 0.81499237
000010 bb af b6 bf f3 be 05 40 eb 40 79 40 63 85 a2 3f
       -1.4272379 2.0897796 3.8945873 1.2696956
000020 04 1d ff 3f 40 ca 8b be 07 42 dd bf 40 c1 3c 3e
       1.993073 -0.27302742 -1.7285775 0.18433094
000030 e3 a4 15 c0 c0 dd ca 3f b4 d0 ee bf da 25 e5 3e
       -2.338189 1.5848923 -1.8657441 0.4475544
000040 fd 70 df be 9d 10 fa be 27 97 98 40 56 a9 45 40
       -0.4364089 -0.488408 4.768451 3.0884604
000050 7b 3e de bf 99 f5 91 40 7b 5a 31 c0 da 65 f9 3f
       -1.7362818 4.56123 -2.7711475 1.9484208
000060 35 5c 2e bd 51 6e a4 c0 b2 a2 c5 40 21 a0 84 be
       -0.042568404 -5.1384664 6.1761103 -0.2590342
000070 f0 53 ce bf 98 00 74 40 47 db 23 40 be 5d 21 40
       -1.6119366 3.8125362 2.5602586 2.5213466
000080 69 c1 7a c0 98 47 97 be 99 3c d8 bf 42 26 ac 40
       -3.9180548 -0.2954681 -1.6893493 5.37967
000090 8c ae 32 3f 61 b1 db be d5 ae 0f 3f 95 e6 85 40
       0.6979759 -0.42908767 0.5612615 4.184397
0000a0 c7 89 4b c0 d1 ef 76 c0 76 61 e5 bf eb dd 96 40
       -3.1802843 -3.8583872 -1.7920368 4.7145896
0000b0 c7 07 25 40 6b 1d fc 3d 85 60 99 bf f5 e7 56 3f
       2.5785997 0.123102985 -1.198258 0.8394769
0000c0 ce 14 62 c0 82 f8 c4 c0 fd 6b d6 bf a1 62 af 3f
       -3.5325198 -6.1553354 -1.6751705 1.3701974
0000d0 a1 26 34 c0 10 14 08 c0 a3 61 da 3e 9d 50 c4 3f
       -2.8148577 -2.1262245 0.42652616 1.5337101
0000e0 fc 04 1d c0 77 fe 36 bf 9b 93 d6 be c4 36 75 3f
       -2.4534292 -0.7148203 -0.4190949 0.9578669
0000f0 41 60 4c 3f d7 6d 5a 3f 96 d6 0c 40 86 16 a7 3f
       0.7983437 0.8532385 2.2005973 1.3053749
000100 44 49 86 bf ae f8 34 40 a0 b3 d8 40 4b cb 8a 40
       -1.0491109 2.8276782 6.771927 4.337316
000110 22 d5 5f be d5 4d 16 c0 ac 84 fd bf 29 c5 36 c0
       -0.21858647 -2.3485005 -1.9806113 -2.8557837
000120 8d ff c0 bf 0a 29 7f 40 05 98 82 3f 86 2b 84 3f
       -1.5077988 3.9868798 1.0202643 1.0325782
000130 1e 57 f9 bf 7e 42 3f 40 8e a7 1d 40 2b 00 88 be
       -1.9479711 2.9884334 2.4633517 -0.26562628
000140 0d 82 90 40 f5 17 19 3f d0 66 82 3f 9a 69 44 c0
       4.5158753 0.5980218 1.0187626 -3.0689454
000150 b5 7f ef bf a4 8c 7e 40 bb 98 54 40 e6 f9 f0 3f
       -1.8710848 3.977334 3.321822 1.8826263
000160 96 01 13 c0 69 15 a0 3f 35 4b 29 40 fa ec eb 3f
       -2.2969718 1.2506534 2.6452153 1.8431695
000170 9a 05 16 40 f4 44 63 c0 84 e0 2b c0 4e 0f cc bf
       2.344092 -3.5510836 -2.6855783 -1.5942171
000180 0b 4a 0d bf bf ff 0e 3f 26 d4 de 3f 6c f3 77 40
       -0.55191106 0.5585899 1.7408493 3.8742323
000190 c6 04 5b 3e d1 ec bb be 76 79 16 40 91 ac 60 3f
       0.2138854 -0.36704114 2.3511634 0.87763315
0001a0 3f 56 53 c0 37 b5 26 bf f2 df 95 3f 4e 20 46 c0
       -3.302139 -0.6512026 1.1708968 -3.0957217
0001b0 66 fa 46 40 2b 82 53 c0 a4 bf 91 bf bf 04 42 c0
       3.109033 -3.3048198 -1.1386609 -3.0315397
0001c0 8d 6b f9 bf 68 7f fc 3e 6c a8 5f c0 f7 47 5d 3f
       -1.9485947 0.49315953 -3.4946547 0.86437935
0001d0 e1 ed 78 3d 29 fa 1a 40 54 51 b6 c0 ca f7 a9 3e
       0.060773734 2.4215186 -5.6974277 0.3319686
0001e0 8a 33 f8 be 58 6f c3 bf 51 23 d8 3f b7 f1 a2 bc
       -0.4847682 -1.5268354 1.6885778 -0.01989065
0001f0 4c da 42 c0 5c 81 50 c0 a0 e3 44 bf 60 0b 5a c0
       -3.0445738 -3.2578955 -0.7690983 -3.4069443
000200 84 16 0f bf 6e 93 a2 3f 97 21 b8 3f 85 cf 05 40
       -0.5589373 1.2701242 1.4385251 2.090791
000210 58 b1 59 bf dd 05 c5 3e 3a fe dd 3e b3 e3 ea bf
       -0.8503623 0.38481036 0.43358022 -1.8350738
000220 80 73 57 40 f6 57 c4 c0 62 bb ad 3f 2e fa 26 c0
       3.3664246 -6.1357374 1.357281 -2.6090198
000230 39 1d b8 3f 7f 86 3e 40 14 7b b1 3f 06 81 b0 3f
       1.4383918 2.976959 1.3865685 1.3789375
000240 a6 a4 b1 be 50 2f 01 40 98 7b c7 3e ff af 90 3e
       -0.3469593 2.0185127 0.38961482 0.28259274
000250 66 db 93 c0 ea f5 52 3f a2 a0 da 3f 6d a3 69 3f
       -4.620532 0.82406485 1.7080271 0.9126499
000260 75 a9 d3 be b0 1f be 3f 70 8e c9 be 3e 98 bb 40
       -0.41340223 1.485342 -0.39366484 5.8623343
000270 d2 f8 be 3e d2 bf 1f c0 17 df 07 40 81 99 e9 3f
       0.3729921 -2.4960828 2.1229913 1.8249971
000280 f1 1a 27 c0 3c c3 95 bf ae 0f 99 bf 06 fa be bf
       -2.6110194 -1.1700206 -1.195791 -1.4920051
000290 ce 5a d7 be 6c 83 32 3e f0 8f 93 40 37 b5 0f 40
       -0.42061466 0.17432946 4.6113205 2.2454355
0002a0 24 58 59 be 06 ba 66 40 cd bc 07 c0 b0 f1 ae bf
       -0.21225029 3.605104 -2.1208985 -1.3667507
0002b0 5a fb 92 c0 6d a1 06 41 f1 ee 80 3f d6 d4 21 3f
       -4.5931826 8.414411 1.0072919 0.63215387
0002c0 0d cb 89 c0 8a 1d b7 c0 76 6c 4e 40 68 ad a3 40
       -4.3060365 -5.722356 3.22537 5.1149178
0002d0 4d ce c7 bf b3 2d 8f be 4f ed 42 3e 93 07 b7 3f
       -1.5609833 -0.27964553 0.19035839 1.4299186
0002e0 9a d5 e5 3e 61 f9 17 40 b8 00 98 40 05 f0 21 c0
       0.44889528 2.3745959 4.7500877 -2.5302746
0002f0 11 a4 b1 bf d8 2d bb bf bd 6f a3 c0 ca 77 87 3f
       -1.3878194 -1.4623365 -5.10739 1.0583432
000300 e0 9a 36 c0 96 0b 6f bf 07 ad b7 bf 2b 0c 15 3f
       -2.8532028 -0.93377054 -1.4349679 0.5822169
000310 7e f1 f2 be 14 29 42 c0 10 e8 ad c0 96 46 80 3e
       -0.4744987 -3.0337572 -5.434578 0.25053853
000320 6c 76 63 c0 e9 bc 84 bf 9e 24 35 40 1e 54 1b 3f
       -3.554103 -1.0370151 2.83036 0.6067523
000330 de 44 0b be 58 ce 2e c0 9c 46 38 c0 a5 92 55 c0
       -0.1360049 -2.7313442 -2.8793097 -3.3370755
000340 d2 d1 3c 3f 13 b9 2e 40 ea 12 93 40 3e d6 40 be
       0.7375766 2.730046 4.596059 -0.18831727
000350 3d 2d 0c bf e2 94 91 40 83 a8 02 40 7f 60 bc 3f
       -0.5475653 4.549424 2.0415351 1.4716948
000360 aa 37 5d 40 fb 02 5c c0 e5 57 a6 bd 90 62 29 3f
       3.4565225 -3.437682 -0.08122233 0.6616602
000370 85 18 2c 40 ff bb 07 c0 e7 20 93 bf 57 29 30 c0
       2.6889966 -2.1208494 -1.1494416 -2.7525232
000380 92 cc 28 c0 c5 b3 5e bf 7b c2 e3 3f 72 26 80 bf
       -2.637486 -0.86993057 1.7793726 -1.0011733
000390 88 11 80 3f 28 47 43 3e 10 4f 56 40 da 9d af 3f
       1.000535 0.19070113 3.3485756 1.3720047
0003a0 66 b1 d4 bf 06 64 aa 3f 04 99 91 40 a1 51 cf bf
       -1.6616638 1.3311775 4.5499287 -1.6196786
0003b0 aa a8 d6 40 72 9d 36 c0 88 4d 18 40 6e 04 53 bf
       6.708089 -2.8533597 2.3797321 -0.82428634
0003c0 69 e1 85 3f b3 71 1c c0 e3 b9 89 c0 8c 07 4e 3a
       1.0459415 -2.4444396 -4.3039412 0.0007859401
0003d0 2b b7 53 3f 89 9d 10 c0 eb d0 23 bf d0 5d 8f bf
       0.8270137 -2.2596152 -0.6399066 -1.1200504
0003e0 05 b3 ff 3f 9b 95 87 c0 94 6a e0 bf bf 9d dd bf
       1.9976507 -4.2370124 -1.7532525 -1.7313765
0003f0 3a 08 66 be 47 26 8e 40 ce 84 04 bf 5c 71 7d bf
       -0.22464076 4.4421725 -0.51765144 -0.990011

layer2.attn_l f4 [1, 8, 168]
000000 a9 7a 0a bf 7f 57 4c 3e 80 7e a8 3d cd 52 0e 3e
       -0.54093415 0.19955252 0.08227253 0.13898773
000010 c7 ef a7 bc bc 9f b6 be 24 e3 12 bf 3a b4 00 bc
       -0.020500077 -0.35668743 -0.5737784 -0.007855469
000020 99 cc 9a be b4 4c 8e 3d 7d 36 ec 3d 3d 94 3f 3d
       -0.3023422 0.06948224 0.1153383 0.04677223
000030 f4 b4 10 3e df aa 0e bd f6 db 8b 3d 54 cf e7 be
       0.14131528 -0.034830924 0.068290636 -0.45275366
000040 ac 0f 75 be 78 01 ab 3d 79 8a b9 bd bd 78 e0 3d
       -0.2393176 0.083498895 -0.09059615 0.10960529
000050 ec d4 58 bd ef 87 d0 be 10 6b 68 c0 52 da 39 bb
       -0.052937433 -0.4072871 -3.6315346 -0.0028358889
000060 71 d3 08 3e a6 7d 27 bd a8 12 34 bd ff 84 e3 bd
       0.13361908 -0.040891312 -0.043963104 -0.11109351
000070 d4 d5 19 bf d1 c5 db be fc 7e a9 3d 11 36 70 3d
       -0.600919 -0.4292436 0.082761735 0.05864531
000080 a1 70 8e be 88 bc 29 be 28 ea 8e 3e 19 4f b1 bd
       -0.27820304 -0.16575825 0.27913022 -0.08657665
000090 7e 71 93 3d f8 03 a4 be 89 0b 88 3d a8 4d 9a bd
       0.07199381 -0.32034278 0.06642825 -0.07534343
0000a0 3e 50 a6 b9 5d a5 a4 3d eb 4e c2 3d af 6b a7 bc
       -0.00031721772 0.08039353 0.09487709 -0.02043709
0000b0 dc 27 f9 bc 66 7c 50 be ea c1 83 bc 10 18 a7 bd
       -0.030414514 -0.20359954 -0.016083676 -0.081588864
0000c0 b7 55 22 3d 51 a1 db 3c f1 83 da bd 58 db 0b bf
       0.039632525 0.02681032 -0.10669697 -0.54631567
0000d0 c5 b0 02 3f 65 a5 b4 bc 6e 9a 40 bd f7 dc df 3b
       0.5105098 -0.022051523 -0.047022276 0.006831761
0000e0 f0 c2 bd be 02 f3 12 3d c9 fe cf 3f 61 e5 c6 be
       -0.37062788 0.03587628 1.6249629 -0.38846877
0000f0 33 c6 0f 3e 88 08 72 be 46 9b 66 3d cd 73 41 bd
       0.14040451 -0.23636067 0.056300424 -0.047229577
000100 58 75 09 be 7b 27 97 be 65 b8 e9 be c8 6d 16 be
       -0.1342367 -0.2952231 -0.45648494 -0.14690316
000110 34 f4 80 be 66 5b 6b 3e 0e ac fa be a5 6f 01 3e
       -0.25186312 0.22984084 -0.48959392 0.12640245
000120 ac 20 f7 bd 85 d3 d5 be 32 53 0f 3e 0d ae 98 be
       -0.120667785 -0.4176294 0.1399658 -0.2982029
000130 ae 20 f7 3c b1 cb c7 be 83 c5 3c 3e 32 49 11 3d
       0.03016695 -0.39022592 0.1843472 0.035470195
000140 89 bb 20 3e 82 85 4f 3e c3 e3 26 be bb 52 69 3d
       0.15696539 0.20265773 -0.16297822 0.056963664
000150 c7 6c ec 3d a5 46 83 3e 8d 68 cd 3c 06 e9 ad bd
       0.11544185 0.25639835 0.025074268 -0.08491711
000160 45 f5 0e be 2b c3 14 bf 88 d7 5a be 2b 89 cd be
       -0.1396075 -0.581103 -0.21371281 -0.40143713
000170 3e f7 7a 3d 98 47 d3 be ee b8 67 be 41 96 f9 3d
       0.061270945 -0.4126556 -0.22629139 0.12186862
000180 01 5b bb 3d 0f fe 8e bd 18 9d d6 bd 2f c1 be 3e
       0.09148217 -0.069820516 -0.10479182 0.37256762
000190 00 59 ed be 0e e3 d7 be 89 aa ea bc 1e ce 4a be
       -0.46356964 -0.42165416 -0.02864577 -0.1980519
0001a0 06 25 ad 3c 47 f8 29 be 52 83 02 3f 90 2d 6f be
       0.021135818 -0.16598617 0.5098163 -0.23357224
0001b0 08 b7 76 be 3e d2 c6 3d a4 e3 c2 be f3 17 7c 3d
       -0.24093258 0.09708069 -0.380643 0.061546277
0001c0 39 6b 8b bd a1 65 e9 bd 7b 61 96 be d1 ff d7 3d
       -0.068075605 -0.11396337 -0.29371247 0.1054684
0001d0 7a 9a be 3d 86 dc 16 bf de 25 7a be 3e a9 f1 3c
       0.09306808 -0.5893024 -0.24428508 0.029499646
0001e0 da c9 2b 3e 30 70 8e bb 43 3b d4 be 6b 3f 68 3d
       0.16776219 -0.00434687 -0.41451463 0.056701105
0001f0 1c 0d e1 bd 27 73 9d 3b 56 77 5d bd 56 a4 c6 3e
       -0.109888285 0.004804987 -0.054068886 0.38797253
000200 60 77 ce bd 96 6c be be 1e 57 94 be 72 39 c1 be
       -0.10081363 -0.3719222 -0.28972715 -0.3773914
000210 58 a8 03 bf 48 c3 2c be 81 86 c0 be 60 2d b8 3d
       -0.5142875 -0.16871369 -0.37602618 0.089930296
000220 49 c8 2f 3e a6 3d c6 3c 40 e9 9b be 04 99 b8 3d
       0.17166246 0.024199318 -0.30451393 0.090135604
000230 28 5f 02 3d 31 5d 66 be 78 ad d8 bd e4 99 8a 3d
       0.03182903 -0.22496487 -0.105799615 0.067676336
000240 8f 61 2f bd e6 9a 11 bc 65 8b 54 3e a7 ee 40 3e
       -0.04281765 -0.008887028 0.207563 0.18841039
000250 39 31 a7 be 1b f9 8c be a8 bc 0c bd 0f c1 32 3e
       -0.3265474 -0.27533802 -0.034359604 0.17456459
000260 cd 72 21 3d dd bb 76 bd cd 44 12 bf a1 bd b5 be
       0.039416123 -0.060237754 -0.5713623 -0.35496238
000270 25 c2 42 3e e9 38 cb 3c ee f3 5d be 79 09 98 3d
       0.19019373 0.02480741 -0.21675083 0.07423682
000280 6b b6 53 be 9e 97 a0 be 46 31 46 3d 35 d7 76 3e
       -0.20675056 -0.31365675 0.048386835 0.24105532
000290 12 19 d6 3c 36 b6 68 3e 17 6c ab be 08 d5 61 c0
       0.026135001 0.22725758 -0.33480904 -3.5286274
0002a0 70 59 e8 be 06 79 c1 3c 56 a4 2f 3b 4c 53 fa 3c
       -0.45380735 0.023617279 0.0026800833 0.030557297
0002b0 f3 c7 9c 3d 09 90 ad be e4 1a 6f be dc a3 58 b8
       0.07655325 -0.33898953 -0.23350102 -5.165102e-05
0002c0 ad 0a 8a bd e6 47 87 3d 8c f9 5e 3d 1f e9 43 3e
       -0.067403175 0.066055104 0.054437205 0.19131897
0002d0 75 7e b0 3c e3 ae f0 bd 07 ce 35 3d 01 72 ab be
       0.021544674 -0.11752107 0.044385936 -0.33485416
0002e0 42 b1 aa bd 7c 8c 87 be 22 97 9f bc 95 cd 4c 3d
       -0.083345905 -0.2647437 -0.019481245 0.050000746
0002f0 b1 2f 5e 3d b8 e9 10 be c5 c7 b8 bf 36 73 3e 3d
       0.0542447 -0.14151657 -1.4435965 0.046496592
000300 43 86 bf 3c 03 2a a5 3c 17 f7 b2 bc 6c 1e c3 be
       0.02337945 0.020161634 -0.021846337 -0.38109148
000310 d7 f9 29 be 20 ee ee be 11 0f 12 3e 43 61 0e bd
       -0.16599213 -0.4666605 0.1426356 -0.034760725
000320 72 55 3c be dd d7 ef bb d6 00 de 3d 61 c2 04 be
       -0.1839197 -0.007319434 0.10840003 -0.12964775
000330 da 6b fa 3d 90 0c 03 be 1d 89 bb 3d 84 6e 87 be
       0.12227602 -0.12797761 0.09157012 -0.26451504
000340 e2 ab 59 3d 93 69 30 3d 6e 20 51 3d c4 3b 31 3d
       0.053142436 0.043069433 0.051056318 0.043269888
000350 f5 4f 65 bb 7f 74 ba be 1c 8c 95 3a f4 78 8d 3b
       -0.0034990285 -0.36417004 0.0011409554 0.0043173973
000360 91 19 2a 3d c6 47 0c 3e c5 14 3a be b5 6c 14 be
       0.04152829 0.13699254 -0.18171985 -0.14494593
000370 b6 66 eb 3e a5 93 34 3e a0 f9 13 3e 70 36 ed 3d
       0.459768 0.17634447 0.14450693 0.11582649
000380 61 8a b6 be 9d e8 a4 3d cb d8 1c 3f 66 d9 0e be
       -0.3565245 0.0805218 0.612683 -0.13950118
000390 ad dc 4f bd 39 01 3e be 1c 5d 3a bd 2f 3c 87 3d
       -0.050747562 -0.18555154 -0.045498952 0.06603276
0003a0 cf d0 cf bd 6a 33 33 be 95 b9 23 be 7a 22 86 3d
       -0.10147249 -0.17500082 -0.15988763 0.06549545
0003b0 dd e9 93 3b f4 94 89 bb 81 0b 9e be 86 0f 4d 3d
       0.0045139627 -0.004198665 -0.30868152 0.050063632
0003c0 b6 97 0e bf df 07 c0 be 42 1a 0c 3c b1 bd 49 3d
       -0.5570024 -0.37506005 0.008551182 0.04925317
0003d0 af d5 66 3d 19 e7 ed bd 1d fb 1a 3e fa a3 db bd
       0.05635613 -0.11616344 0.15134855 -0.107246354
0003e0 4a 4a 89 3d b6 35 f3 3a cc bd 07 be 96 4f 9a 3a
       0.06703623 0.0018555436 -0.13255996 0.0011772986
0003f0 8d db fe bc cc b1 2e 3d 80 2c 96 3c 1d a8 58 3d
       -0.03111055 0.04265003 0.018331766 0.0528947

layer2.attn_r f4 [1, 8, 168]
000000 7d a3 b1 3d 9b 26 1d 3f e9 85 13 3f aa f9 ff 3d
       0.08673761 0.6138703 0.57626206 0.124987915
000010 2d 68 14 3f 94 48 ac 3e 99 2f 43 3f 80 d1 fb 3d
       0.5797146 0.33649123 0.76244503 0.12295818
000020 db 6e 3f 3f ef e0 1e 3f d9 98 1b 3f ac df 17 3f
       0.7477853 0.6206197 0.607801 0.5932567
000030 5c ec 20 3f 26 ce 84 3e 42 be 2a 3f ab e8 e3 3e
       0.62860656 0.2593853 0.6669656 0.4451345
000040 c7 63 6b 3d f1 34 90 3e fb c1 12 3f dc 40 1a 3f
       0.057468202 0.2816539 0.5732724 0.6025522
000050 85 ed 0f 3f fb e9 48 3f 29 d5 01 3f e8 98 77 3e
       0.562218 0.78482026 0.5071588 0.24179423
000060 6b 84 2c 3f 78 9c 4d 3e 98 d0 1c 3f 50 5f a8 3e
       0.67389554 0.2007922 0.6125579 0.32885218
000070 0c c9 3d 3f 13 70 2e 3f b5 6c 23 3f 84 d9 14 3f
       0.741349 0.6813976 0.6383775 0.581444
000080 8e 06 76 3b 25 2b 0f 3f 21 41 1c 3f 7f 66 09 3e
       0.0037540528 0.5592521 0.6103688 0.13418005
000090 34 61 24 3f b5 29 3b 3f 89 38 1a 3f d2 e1 b0 3e
       0.6421082 0.73110515 0.60242516 0.34547287
0000a0 15 79 a8 3e b0 28 18 3f f9 62 1e 3f 9b 3a 17 3f
       0.32904878 0.59437084 0.6186977 0.590738
0000b0 1c b9 18 3f 29 29 a7 3e 96 b9 14 3f f2 44 25 3f
       0.59657454 0.3264859 0.5809568 0.6455833
0000c0 0e 3f 1f 3f e3 2d 14 3f ad 79 d1 3e 4a 7d 49 3f
       0.6220559 0.5788252 0.40913144 0.787068
0000d0 d7 4b 1a 3e 5e 36 1d 3f 1a e6 20 3f 95 48 13 3f
       0.15067993 0.6141108 0.6285111 0.57532626
0000e0 2f 16 ac 3d 72 7e 23 3f be 91 37 3f 10 49 44 3f
       0.08402669 0.63864815 0.7170676 0.76673985
0000f0 3f b4 20 3f 0a f2 f4 3e dc fe c2 3e 11 63 06 3f
       0.62775034 0.4784091 0.38085067 0.52494913
000100 bd 63 3d 3f 43 c9 b8 3e 49 eb 53 3f e0 ef 66 3e
       0.73980314 0.3609105 0.8278089 0.22552443
000110 a8 1f 3b 3f 04 1f 09 3e 00 bd 6f 3e 37 19 15 3f
       0.7309518 0.13390738 0.23411942 0.582416
000120 8a 59 84 3e 7b 94 d9 3e 7a 26 19 3f ed bf 0d 3f
       0.25849563 0.42496094 0.59824336 0.5537098
000130 e7 83 2b 3f 54 ff 4a 3f 41 83 45 3e 3f 7a 6a 3e
       0.6699814 0.7929585 0.1928835 0.22898196
000140 56 9d 76 3e 32 cb 25 3f 46 a9 bd 3d 90 71 24 3f
       0.24083456 0.64763176 0.09260802 0.6423578
000150 95 68 8e 3e 10 ec 5f 3e d9 22 29 3f 44 d6 1b 3f
       0.27814165 0.21867394 0.660688 0.6087382
000160 12 8a 42 3f 38 8b ae 3e 61 80 39 3f a5 17 47 3f
       0.7599193 0.3409059 0.72461516 0.77770454
000170 07 96 27 3f cd af 40 3f 41 ee b4 3e 7e a8 03 3f
       0.654633 0.7526825 0.35338023 0.51428974
000180 94 b8 1d 3e 7c d7 18 3f fe 55 22 3f dc 14 71 3d
       0.15402442 0.59703803 0.63412464 0.058857784
000190 cd 9a 39 3f 68 b5 3b 3f df b4 1b 3f 38 ff 31 3f
       0.7250183 0.7332368 0.6082286 0.6953006
0001a0 e0 71 15 3f 1d 18 c5 3d 80 88 ba 3e 9a d0 49 3f
       0.58376884 0.0962374 0.36432266 0.78833926
0001b0 7e 8e 45 3f 2b d4 29 3f 3b a8 38 3f 2e d1 20 3f
       0.7717055 0.6633937 0.721317 0.6281918
0001c0 53 ac 22 3f 91 f8 3e 3f e7 b3 47 3f 77 ec b6 3e
       0.63544196 0.7459803 0.78008884 0.35727283
0001d0 2b 52 20 3f d0 aa e6 3e a5 37 66 3e ba 30 23 3f
       0.6262538 0.45052195 0.22482164 0.63746226
0001e0 a8 dd ae 3e 15 87 11 3f 57 b8 e7 3d e1 af 59 3e
       0.34153485 0.56846744 0.11314457 0.21258499
0001f0 b6 24 25 3f 17 ec 2c 3f 0b b2 d4 3e b4 64 88 3d
       0.6450914 0.67547745 0.41542086 0.066598326
000200 06 ce be 3e 8f c5 33 3f 33 2e 14 3e 01 26 50 3f
       0.37266558 0.70223325 0.14470749 0.8130799
000210 7d 9c 34 3f be c8 3f 3f 03 e4 2c 3e dd c1 1d 3f
       0.7055128 0.74915683 0.16883855 0.61623937
000220 a4 66 2e 3e ee ba 0f 3f 34 b5 7c 3e d4 d9 1f 3f
       0.17031342 0.5614461 0.24678499 0.62441754
000230 34 b6 48 3e 10 70 3a 3f 5c 2f 27 3f f0 05 24 3f
       0.19600755 0.72827244 0.6530664 0.6407156
000240 eb b2 16 3f c6 03 98 3e 1e be 48 3e 07 8c 86 3e
       0.5886676 0.2969038 0.19603774 0.26278707
000250 65 1e 3c 3f 15 73 46 3e 56 34 1b 3f 5c 0c 23 3f
       0.7348388 0.19379838 0.60626733 0.63690734
000260 ee 7c 0c 3f ec e3 25 3f 22 cb b6 3e bf c6 4c 3f
       0.5487813 0.64800906 0.35701853 0.7999076
000270 e8 15 ef 3d c6 7c 27 3f 7f 27 1f 3f 43 ed 07 3d
       0.116741 0.65424764 0.6216964 0.033185255
000280 5c 97 3a 3f 36 60 32 3f 50 6a 0f 3f 67 c9 23 3f
       0.72887206 0.69678056 0.56021595 0.6397919
000290 87 89 26 3f 65 bc 08 3e 5e 58 49 3f 38 41 05 3f
       0.650536 0.13353117 0.7865046 0.5205264
0002a0 99 e2 d8 bd 50 36 13 bd 40 69 29 3b 11 af 80 3d
       -0.10590095 -0.03594047 0.0025850087 0.06283391
0002b0 e8 e1 58 bc a1 5f 17 3c ec c2 12 bd 7b 0a 6f 3d
       -0.013237454 0.009239108 -0.035830423 0.058359604
0002c0 3f c6 3b bd ab a2 e9 bb 1a 09 85 bc 64 74 18 bb
       -0.04584336 -0.0071299872 -0.016239692 -0.0023262734
0002d0 4a 00 8f 3c b9 43 26 3d b5 d6 80 bc 75 9e 92 3d
       0.017456193 0.04059193 -0.01572738 0.071591295
0002e0 f9 9c 90 bd 1c 6f b1 bc 54 45 f4 bc 7f 6b 18 bd
       -0.0706119 -0.021659426 -0.029818214 -0.03721189
0002f0 5d bf e7 3c 14 98 99 bc ce 9c fc 3c 69 ab 4c bc
       0.028289491 -0.018749274 0.030836489 -0.012492039
000300 f9 d8 8c 3c 51 5c 36 bc b7 d1 31 bc 44 a5 38 3d
       0.017193304 -0.011130408 -0.010853223 0.045079485
000310 75 2d 0c bd ab 77 06 3d 41 73 eb bc d6 ac e5 bc
       -0.03422304 0.032828968 -0.02874148 -0.028036516
000320 1b 82 0f 3d 25 76 a3 3c 75 28 5e 3b 67 f9 9e bc
       0.035036188 0.019953797 0.0033898626 -0.019406034
000330 88 12 f8 bb fa d4 a0 3c 7c 4d fc bc 77 cd 21 3b
       -0.0075705685 0.019632805 -0.030798666 0.0024689117
000340 9c b3 3f 3d 55 9f 0d bd 3c 76 11 bd 4b bf b5 3c
       0.04680215 -0.03457578 -0.035513148 0.022185942
000350 81 3c bc 3b e5 87 b8 bc 18 12 c8 bc e2 50 ad bc
       0.0057445173 -0.022525737 -0.02442269 -0.021156732
000360 99 19 36 bc a1 0b b7 bb f1 42 2a 3d ef 1f 97 ba
       -0.011114501 -0.005586103 0.041567747 -0.0011529903
000370 5c 0c bc bd f4 55 7e bb 9d 36 bf bb f7 11 03 3c
       -0.09182045 -0.0038808556 -0.005835368 0.007999889
000380 54 2b b8 bd a5 92 6e bb 2c 20 07 3c 12 9a 7c bb
       -0.08992639 -0.0036403325 0.0082474165 -0.0038543981
000390 6f 86 d8 bc 44 26 b3 3d fb 28 f9 3d 98 6f bd bc
       -0.02643129 0.08747533 0.121660195 -0.023124501
0003a0 38 3d c4 bc c5 79 43 bd bd dc 06 bd 0c ad b8 bd
       -0.023954973 -0.04772355 -0.032925356 -0.09017381
0003b0 f5 70 94 3b ba 32 ec bd cd ea c6 bd 99 96 85 39
       0.004530067 -0.11533113 -0.097127534 0.0002547994
0003c0 70 8d c8 3c a7 4c cf 3c 9e b5 e1 3c 88 8e 34 3c
       0.024481505 0.025305105 0.027552422 0.01102031
0003d0 3c 7d bc bc 8e a3 76 bc a7 f9 e7 bd d7 60 55 3c
       -0.023008935 -0.015053643 -0.11326914 0.013023577
0003e0 5b 89 fb 3c 5f 2b 90 bb cd 81 2b be 8c c6 87 3c
       0.030705145 -0.0043997015 -0.16748734 0.016574167
0003f0 7e fc 62 3d 39 cc 22 3d 9c 58 09 3c 82 23 8b bc
       0.055416577 0.039745543 0.0083829425 -0.016984705

layer2.bias f4 [1344]
000000 80 34 80 3e a0 57 bc 3f cc 84 be 3f 41 b0 08 c0
       0.25040054 1.4714241 1.4884276 -2.1357577
000010 60 b7 bc 3f 88 f7 f4 3e 9e 67 97 c0 7a c7 0a c0
       1.4743462 0.478451 -4.7313986 -2.168425
000020 46 cd d3 bf 3d 48 b9 3f 80 09 bc 3f 2d a1 bd 3f
       -1.654702 1.447517 1.4690399 1.4814812
000030 40 3e c0 3f 1c 9f d2 3d 3f 27 bd 3f 97 18 ff 3e
       1.5018997 0.10284254 1.4777602 0.49823448
000040 d1 c3 2c c0 00 ce 2c c0 3e 8c bb 3f a6 02 bb 3f
       -2.6994517 -2.7000732 1.4652174 1.4610183
000050 f2 77 bd 3f 65 16 36 c0 bf eb 08 c1 2c 00 0d bf
       1.480223 -2.8451169 -8.557555 -0.5507839
000060 41 12 bd 3f 85 2d 04 c0 ff eb ba 3f 4a 54 0d 3f
       1.4771196 -2.0652783 1.460327 0.5520674
000070 fc b7 a0 c0 48 01 f7 bf fb ff bc 3f 32 77 ba 3f
       -5.022459 -1.9297266 1.4765619 1.4567626
000080 7e 00 28 c0 fa ee b9 3f 4d 36 bb 3f 05 0d 06 c0
       -2.62503 1.4526055 1.4625946 -2.0945446
000090 ac 61 bd 3f 4d d0 d3 bf 18 c4 bb 3f 05 37 d2 3e
       1.4795432 -1.6547943 1.4669218 0.41057602
0000a0 07 be 0c c0 6f 1f bb 3f 8a b6 b9 3f 1b 4e bc 3f
       -2.1990983 1.4618968 1.4508832 1.4711336
0000b0 52 f4 bb 3f 2c cb 06 3f ea f3 ba 3f a7 4b bf 3f
       1.4683936 0.52653766 1.4605687 1.4944962
0000c0 91 83 ba 3f 5e 21 bd 3f 62 b3 30 3f 28 77 7a c0
       1.4571401 1.4775808 0.69023716 -3.9135227
0000d0 4e f9 3b c0 5e a8 bc 3f 54 40 bc 3f 32 73 ba 3f
       -2.9370914 1.4738882 1.4707131 1.4566405
0000e0 8d 16 09 3f 53 4a bc 3f 05 08 b1 3f bb 65 35 c0
       0.53550035 1.4710182 1.3830572 -2.8343341
0000f0 b6 2f bc 3f c9 ee 0c 3f c1 65 f5 bf 7d 75 b7 3f
       1.470206 0.5505186 -1.9171678 1.433273
000100 1a c1 d1 bf 9f 52 48 c0 32 26 5f c0 29 8a 2e 3e
       -1.6387055 -3.1300428 -3.4867063 0.17044891
000110 d6 27 d5 bf 83 c4 98 bf f7 fa 27 c0 7c 5f b9 3f
       -1.6652782 -1.1934971 -2.6246927 1.4482265
000120 48 bf 07 3f b2 c1 f8 3e a8 c1 bb 3f 7a 4e ba 3f
       0.5302625 0.48585278 1.4668474 1.4555199
000130 0e ac ba 3f 3c 0f 35 c0 0b 8b 36 3e 62 d3 1b 3f
       1.4583757 -2.8290548 0.17826478 0.6086942
000140 3a e9 14 c0 11 22 bd 3f 63 27 26 c0 44 48 bc 3f
       -2.326735 1.4776021 -2.596154 1.4709554
000150 ce 1d 7c be 32 16 02 c0 03 67 bd 3f c8 59 bd 3f
       -0.24620745 -2.0326047 1.4797062 1.4793024
000160 c4 ff d1 bf 44 47 01 3f e1 d9 d1 bf 33 e2 35 c0
       -1.6406178 0.5049937 -1.6394616 -2.841931
000170 28 87 bd 3f ef 8a d0 bf 85 1f 1f 3f 6c e6 23 3f
       1.4806871 -1.6292399 0.6215747 0.6402347
000180 0a 1c ca bf 66 7d bc 3f 06 89 b9 3f f5 24 28 c0
       -1.5789807 1.4725769 1.4494941 -2.6272557
000190 03 1c d3 bf fa 1c 35 c0 bd 56 bc 3f c2 71 d3 bf
       -1.6492923 -2.8298936 1.471397 -1.6519091
0001a0 6c 61 b9 3f 3d 19 28 c0 59 48 31 c0 e7 d3 cf bf
       1.4482856 -2.6265404 -2.7700408 -1.6236542
0001b0 e1 92 5e c0 75 3f bc 3f ae 9e ce bf 62 a2 bd 3f
       -3.4777148 1.4706866 -1.6142175 1.481518
0001c0 96 4a ba 3f 44 46 d1 bf b0 93 d1 bf fb 18 53 c0
       1.4554012 -1.6349568 -1.6373196 -3.2983997
0001d0 bc e8 b9 3f 55 83 e4 3e 96 af 15 c0 5d 60 bd 3f
       1.452415 0.44631448 -2.338842 1.4795033
0001e0 a4 70 02 c0 25 ea bc 3f 98 e4 e7 bf 83 2f c9 bf
       -2.038125 1.4758955 -1.8116636 -1.5717624
0001f0 19 5e bb 3f e5 86 ba 3f b4 66 13 3f 26 74 47 c0
       1.4638091 1.4572417 0.5757859 -3.1164641
000200 fe 5d 3f c0 0d 0a d2 bf c3 07 9f 3d 83 72 7a c0
       -2.9901118 -1.6409317 0.07765152 -3.9132392
000210 65 06 be c0 66 21 d0 bf 34 5b e8 bf fa 29 bb 3f
       -5.9382806 -1.6260192 -1.8152833 1.4622185
000220 1e 3b c5 bf 5c 29 bb 3f dd de 38 bf 4b d3 b9 3f
       -1.5408666 1.4621997 -0.7221506 1.4517606
000230 1d 59 81 bf d0 9a d2 bf 24 3e b9 3f 8a d6 bc 3f
       -1.010532 -1.6453495 1.4472089 1.4752972
000240 d8 aa bb 3f 1e 19 dc bf e8 02 41 c0 cf 71 5f bf
       1.4661512 -1.7195165 -3.0158024 -0.87283033
000250 80 fb d1 bf bd cf 3e c0 e4 b8 bc 3f fb 22 bc 3f
       -1.6404877 -2.9814293 1.4743924 1.4698175
000260 53 5a bd 3f ae 1c bd 3f 79 c2 37 c0 0c b7 5f c0
       1.479319 1.4774377 -2.8712447 -3.4955473
000270 32 2d 25 c0 19 d5 bf 3f 45 dd bd 3f 25 3f 35 c0
       -2.5808835 1.4986907 1.4833151 -2.831979
000280 b7 9a d0 bf 54 bd b1 c0 3e 47 bd 3f 42 9d b9 3f
       -1.6297215 -5.5543613 1.4787366 1.4501116
000290 04 02 ba 3f 10 62 4e c0 d3 db 33 c0 37 48 09 c1
       1.4531865 -3.2247353 -2.810292 -8.580131
0002a0 80 34 80 3e a0 57 bc 3f cc 84 be 3f 41 b0 08 c0
       0.25040054 1.4714241 1.4884276 -2.1357577
0002b0 60 b7 bc 3f 88 f7 f4 3e 9e 67 97 c0 7a c7 0a c0
       1.4743462 0.478451 -4.7313986 -2.168425
0002c0 46 cd d3 bf 3d 48 b9 3f 80 09 bc 3f 2d a1 bd 3f
       -1.654702 1.447517 1.4690399 1.4814812
0002d0 40 3e c0 3f 1c 9f d2 3d 3f 27 bd 3f 97 18 ff 3e
       1.5018997 0.10284254 1.4777602 0.49823448
0002e0 d1 c3 2c c0 00 ce 2c c0 3e 8c bb 3f a6 02 bb 3f
       -2.6994517 -2.7000732 1.4652174 1.4610183
0002f0 f2 77 bd 3f 65 16 36 c0 bf eb 08 c1 2c 00 0d bf
       1.480223 -2.8451169 -8.557555 -0.5507839
000300 41 12 bd 3f 85 2d 04 c0 ff eb ba 3f 4a 54 0d 3f
       1.4771196 -2.0652783 1.460327 0.5520674
000310 fc b7 a0 c0 48 01 f7 bf fb ff bc 3f 32 77 ba 3f
       -5.022459 -1.9297266 1.4765619 1.4567626
000320 7e 00 28 c0 fa ee b9 3f 4d 36 bb 3f 05 0d 06 c0
       -2.62503 1.4526055 1.4625946 -2.0945446
000330 ac 61 bd 3f 4d d0 d3 bf 18 c4 bb 3f 05 37 d2 3e
       1.4795432 -1.6547943 1.4669218 0.41057602
000340 07 be 0c c0 6f 1f bb 3f 8a b6 b9 3f 1b 4e bc 3f
       -2.1990983 1.4618968 1.4508832 1.4711336
000350 52 f4 bb 3f 2c cb 06 3f ea f3 ba 3f a7 4b bf 3f
       1.4683936 0.52653766 1.4605687 1.4944962
000360 91 83 ba 3f 5e 21 bd 3f 62 b3 30 3f 28 77 7a c0
       1.4571401 1.4775808 0.69023716 -3.9135227
000370 4e f9 3b c0 5e a8 bc 3f 54 40 bc 3f 32 73 ba 3f
       -2.9370914 1.4738882 1.4707131 1.4566405
000380 8d 16 09 3f 53 4a bc 3f 05 08 b1 3f bb 65 35 c0
       0.53550035 1.4710182 1.3830572 -2.8343341
000390 b6 2f bc 3f c9 ee 0c 3f c1 65 f5 bf 7d 75 b7 3f
       1.470206 0.5505186 -1.9171678 1.433273
0003a0 1a c1 d1 bf 9f 52 48 c0 32 26 5f c0 29 8a 2e 3e
       -1.6387055 -3.1300428 -3.4867063 0.17044891
0003b0 d6 27 d5 bf 83 c4 98 bf f7 fa 27 c0 7c 5f b9 3f
       -1.6652782 -1.1934971 -2.6246927 1.4482265
0003c0 48 bf 07 3f b2 c1 f8 3e a8 c1 bb 3f 7a 4e ba 3f
       0.5302625 0.48585278 1.4668474 1.4555199
0003d0 0e ac ba 3f 3c 0f 35 c0 0b 8b 36 3e 62 d3 1b 3f
       1.4583757 -2.8290548 0.17826478 0.6086942
0003e0 3a e9 14 c0 11 22 bd 3f 63 27 26 c0 44 48 bc 3f
       -2.326735 1.4776021 -2.596154 1.4709554
0003f0 ce 1d 7c be 32 16 02 c0 03 67 bd 3f c8 59 bd 3f
       -0.24620745 -2.0326047 1.4797062 1.4793024

layer2.fc.weight f4 [1344, 128]
000000 8c c0 b5 3f 8f 47 78 c0 30 dc 01 c1 7c 8d 0b bf
       1.4199386 -3.8793676 -8.116257 -0.54512763
000010 8f 0f a4 bf 7f 59 7c bf 3a 15 69 bf 1b 99 e2 bd
       -1.2817248 -0.9857406 -0.91048014 -0.11064359
000020 d7 0b bf 3f 06 35 88 3e d9 f2 6b bf df 53 79 c0
       1.4925488 0.26602954 -0.9216743 -3.895744
000030 bb d5 b9 be 62 8d 2a c0 02 4d fb 3e 57 df 8f 3f
       -0.36295876 -2.6648793 0.4908219 1.1240033
000040 16 5c a2 bd 6b fe 5b 3f e8 b5 c0 be 11 9a 8b bf
       -0.0792772 0.85935086 -0.37638783 -1.0906392
000050 3a 70 1a bf b9 80 9d c0 4f 1f 32 3f 9d 60 87 bd
       -0.60327494 -4.921963 0.69579023 -0.066102244
000060 78 83 1b 3f 5d ae a0 be 40 e8 9f 3e 60 5c e6 bd
       0.6074748 -0.3138303 0.3123188 -0.11248088
000070 ec 41 94 be e5 33 0f 40 d9 94 65 c0 4e 99 72 c0
       -0.28956544 2.2375424 -3.58721 -3.790607
000080 ea 44 43 bf 6c 74 48 3f 84 4e a2 3f b7 cd cd 3e
       -0.7627703 0.78302646 1.2680211 0.4019601
000090 d4 3f cf 3f a8 47 b9 3f 1f ce cd bf ad 56 70 be
       1.6191354 1.4474993 -1.6078528 -0.23470564
0000a0 23 bd c1 be f0 ec 93 c0 22 d7 80 bd a1 b0 24 c0
       -0.37839612 -4.622673 -0.06291033 -2.5732806
0000b0 26 e3 a5 3f 4d 42 c0 3f 67 3c 91 3e 2d 31 4c bf
       1.2959945 1.5020233 0.28366396 -0.79762536
0000c0 52 db a7 bf d7 2e 0b 3f 69 b0 26 c0 5b 70 8b 3f
       -1.3113806 0.54368347 -2.6045172 1.0893663
0000d0 de db 0f bf 7f fc ae 3e be 5e ad be 79 3d 7a 3e
       -0.56194866 0.34177014 -0.33861345 0.24437512
0000e0 2c 62 c0 be 13 e6 6c c0 e0 3c c0 be a5 96 99 3f
       -0.375749 -3.7015426 -0.37546444 1.1999098
0000f0 58 a9 a9 be 2a 54 bf bf aa 7a fa bf 1d 40 c5 bd
       -0.33137012 -1.494756 -1.9568684 -0.09631369
000100 0e 2c 15 c0 39 04 9c 3f b1 7b 01 c0 31 b8 00 3e
       -2.330814 1.2188789 -2.0231745 0.12570263
000110 9b f6 b8 c0 25 df a4 be e8 97 87 3c 51 1c 10 c0
       -5.780103 -0.32201496 0.016551927 -2.2517283
000120 2c 0a 2a 3f 0a be 76 be 36 02 82 3e 76 0f cd 3c
       0.6642177 -0.24095932 0.25392312 0.025031786
000130 7d e9 a4 3f be 83 7e bf dc dc fe 3f c2 e7 b9 3e
       1.2883755 -0.9941977 1.9911151 0.3630963
000140 6a 50 30 3f 0f 39 6d bd da 07 b2 bd 91 de 20 3f
       0.688727 -0.057915743 -0.08692904 0.6283961
000150 68 eb 08 40 b7 03 a2 bf b0 a7 78 3f 61 b9 14 3e
       2.139368 -1.2657384 0.9713087 0.14523841
000160 39 52 09 3f 1c 1c b9 3e 1e 20 b1 bf e2 42 f2 c0
       0.53641087 0.36154258 -1.3837926 -7.5706644
000170 a6 ef 8a c0 ee a2 7b bf 96 6c b1 3e 79 d2 86 be
       -4.341754 -0.98295486 0.34653157 -0.26332453
000180 b0 29 41 3f 8d 57 7a 3f 52 60 a9 3f 51 c5 dc 3f
       0.75454235 0.9778984 1.323252 1.7247716
000190 bf 97 44 c0 7e db 72 bd da 7a a7 c0 8d 84 84 c0
       -3.0717618 -0.059291355 -5.2337465 -4.1411805
0001a0 37 9a 95 bf e6 7e 88 3f 3e 33 62 c0 d9 39 0d c0
       -1.1687688 1.0663726 -3.5343776 -2.2066557
0001b0 62 c7 f1 bf c9 79 3b 3e cc d4 ac bf 09 43 65 3f
       -1.8888972 0.18308176 -1.350244 0.8955541
0001c0 01 76 42 be 8d f1 56 bf b5 a1 96 bf 8d 3f 23 3f
       -0.18990327 -0.8396233 -1.1768099 0.63768846
0001d0 96 1c 95 3e de c9 57 3f 3f fd 40 c0 20 58 a3 3f
       0.29123372 0.842924 -3.015457 1.2761269
0001e0 75 86 3a 3f ac a1 66 3f d0 0b 00 c0 05 06 db be
       0.72861415 0.9009044 -2.000721 -0.4277803
0001f0 44 16 ba be ae e7 27 3f 17 40 b7 3f d9 ca ea c0
       -0.36345112 0.6558789 1.4316434 -7.3372617
000200 f2 a3 3b c0 a7 ae 93 c0 37 bf 10 c0 af 57 a6 bf
       -2.9318814 -4.61507 -2.2616708 -1.2995509
000210 9d 52 49 c0 bc b1 2d c0 11 61 e2 bf ca f4 ef be
       -3.1456673 -2.713973 -1.7685872 -0.46866447
000220 f7 dd 0d c0 c2 31 b1 c0 f4 16 9e bf 4e 8e c6 bf
       -2.2166727 -5.537324 -1.2350755 -1.5512178
000230 0d bb 3c bc ed 85 39 c0 bf 08 a3 bf 74 2e 65 bf
       -0.011519206 -2.8987992 -1.2737044 -0.89524007
000240 44 32 c0 bf 54 3d 3d bf 59 8c c5 3b 49 06 a7 be
       -1.501534 -0.73921704 0.0060286936 -0.32621983
000250 70 e8 da be 1e da a9 bf 8f 0e 2f bf c5 d1 2d c0
       -0.4275546 -1.3269689 -0.6838159 -2.7159283
000260 d0 f0 40 c0 96 12 49 bc 9f 6a f9 bf 20 bf b1 bd
       -3.014698 -0.012272498 -1.9485663 -0.08679032
000270 76 94 99 be d1 a1 b9 bf 17 40 f7 bf 6d 92 81 bf
       -0.2999608 -1.4502507 -1.9316434 -1.0122811
000280 a6 2d 6f be 19 00 c1 bf 70 53 09 c0 78 29 ee bf
       -0.23357257 -1.5078155 -2.1457176 -1.8606405
000290 be cc 61 c0 2a dd 66 bf 78 3b c9 bf 61 1a 15 bf
       -3.5281215 -0.9018122 -1.5721273 -0.58243376
0002a0 fa 84 1e bd d1 57 54 c0 85 9e da bf 11 83 12 c0
       -0.038701035 -3.31786 -1.7079626 -2.2892497
0002b0 31 31 94 bf ab a7 da bf 78 bf 21 bf 7c d8 91 c0
       -1.1577512 -1.7082418 -0.63182783 -4.5576763
0002c0 01 d2 cc bf 37 1a 93 c0 07 45 2f c0 ff 28 25 c0
       -1.6001588 -4.59695 -2.738588 -2.5806272
0002d0 c3 d3 1e c0 cf 5b 3b c0 68 3a 61 bd 29 11 57 bf
       -2.481675 -2.9274786 -0.05498734 -0.8401056
0002e0 cc 75 9e bd 73 ca 14 c0 b0 b2 23 bd 93 e4 45 c0
       -0.07737312 -2.3248565 -0.03996533 -3.092076
0002f0 07 33 76 3d 38 d4 7b c0 f0 94 f0 bf 66 08 56 bf
       0.060107257 -3.9348278 -1.8795452 -0.83606565
000300 4d 0e de bf dd 9c c2 bf da d3 64 bf 97 b8 87 bf
       -1.7348114 -1.5204121 -0.8938576 -1.0603207
000310 13 e3 a6 c0 49 d9 f4 bc d2 c8 db c0 6f 40 b3 bf
       -5.215219 -0.029888766 -6.868264 -1.4004039
000320 77 2b 95 bf 9a 25 c4 c0 ec ea 85 c0 1f 4f 15 bf
       -1.165389 -6.12959 -4.184927 -0.58323854
000330 19 1d 14 c0 8b 12 68 c0 e8 47 c9 bf 58 45 f4 bf
       -2.314276 -3.6261318 -1.5725069 -1.9083662
000340 fa 35 81 c0 59 a4 ee be b4 c5 01 be 79 52 5e bf
       -4.037839 -0.46609762 -0.12673074 -0.86844593
000350 e2 85 c9 bf 9d a1 8b bf ac a5 97 bf ac 1c 43 bf
       -1.5743983 -1.0908695 -1.1847434 -0.76215625
000360 11 20 44 bf fa 39 bf bf 6c 92 c1 bf 1a 4e 9a bf
       -0.7661143 -1.4939568 -1.512281 -1.2055085
000370 6b d6 0a c0 40 f3 35 c0 a9 b1 07 c0 2b ae cf 3c
       -2.169337 -2.8429718 -2.1202185 0.025351604
000380 91 03 3d c0 74 eb 98 bf 0c 16 74 bf bb 04 0b c0
       -2.9533427 -1.1946855 -0.9534614 -2.1721637
000390 18 83 9e bf 07 46 5d c0 4d da 4d c0 1a 7a bf bf
       -1.2383757 -3.4573991 -3.216449 -1.4959137
0003a0 c1 74 e3 bf 62 77 01 c0 8c 62 a3 bf 65 c2 3a c0
       -1.7770005 -2.0229115 -1.2764449 -2.918115
0003b0 fb ce e4 bf ca 7f 60 c0 02 f4 2d c0 c1 e0 b9 bf
       -1.7875665 -3.5077996 -2.718018 -1.4521714
0003c0 15 37 e4 bd 9a b8 cd bf bd e2 31 c0 a8 f0 33 c0
       -0.111433186 -1.6071961 -2.779464 -2.8115635
0003d0 d5 9b 7c bf 7f 9b 85 c0 d8 95 22 c0 10 61 64 c0
       -0.9867528 -4.1752315 -2.5403957 -3.5684242
0003e0 a8 5f 5d bf b9 2a 20 bf b9 34 1b bf e7 86 55 bf
       -0.86474085 -0.6256519 -0.60627323 -0.8340897
0003f0 7a 86 a9 bd 3d a0 0b c0 ff b1 f7 bf 17 fc 14 c0
       -0.082776025 -2.1816552 -1.9351195 -2.3278863

batchnorm1.weight f4 [128]
000000 00 00 80 3f 00 00 80 3f 00 00 80 3f 00 00 80 3f
       1.0 1.0 1.0 1.0
000010 00 00 80 3f 00 00 80 3f 00 00 80 3f 00 00 80 3f
       1.0 1.0 1.0 1.0
000020 00 00 80 3f 00 00 80 3f 00 00 80 3f 00 00 80 3f
       1.0 1.0 1.0 1.0
000030 00 00 80 3f 00 00 80 3f 00 00 80 3f 00 00 80 3f
       1.0 1.0 1.0 1.0
000040 00 00 80 3f 00 00 80 3f 00 00 80 3f 00 00 80 3f
       1.0 1.0 1.0 1.0
000050 00 00 80 3f 00 00 80 3f 00 00 80 3f 00 00 80 3f
       1.0 1.0 1.0 1.0
000060 00 00 80 3f 00 00 80 3f 00 00 80 3f 00 00 80 3f
       1.0 1.0 1.0 1.0
000070 00 00 80 3f 00 00 80 3f 00 00 80 3f 00 00 80 3f
       1.0 1.0 1.0 1.0
000080 00 00 80 3f 00 00 80 3f 00 00 80 3f 00 00 80 3f
       1.0 1.0 1.0 1.0
000090 00 00 80 3f 00 00 80 3f 00 00 80 3f 00 00 80 3f
       1.0 1.0 1.0 1.0
0000a0 00 00 80 3f 00 00 80 3f 00 00 80 3f 00 00 80 3f
       1.0 1.0 1.0 1.0
0000b0 00 00 80 3f 00 00 80 3f 00 00 80 3f 00 00 80 3f
       1.0 1.0 1.0 1.0
0000c0 00 00 80 3f 00 00 80 3f 00 00 80 3f 00 00 80 3f
       1.0 1.0 1.0 1.0
0000d0 00 00 80 3f 00 00 80 3f 00 00 80 3f 00 00 80 3f
       1.0 1.0 1.0 1.0
0000e0 00 00 80 3f 00 00 80 3f 00 00 80 3f 00 00 80 3f
       1.0 1.0 1.0 1.0
0000f0 00 00 80 3f 00 00 80 3f 00 00 80 3f 00 00 80 3f
       1.0 1.0 1.0 1.0
000100 00 00 80 3f 00 00 80 3f 00 00 80 3f 00 00 80 3f
       1.0 1.0 1.0 1.0
000110 00 00 80 3f 00 00 80 3f 00 00 80 3f 00 00 80 3f
       1.0 1.0 1.0 1.0
000120 00 00 80 3f 00 00 80 3f 00 00 80 3f 00 00 80 3f
       1.0 1.0 1.0 1.0
000130 00 00 80 3f 00 00 80 3f 00 00 80 3f 00 00 80 3f
       1.0 1.0 1.0 1.0
000140 00 00 80 3f 00 00 80 3f 00 00 80 3f 00 00 80 3f
       1.0 1.0 1.0 1.0
000150 00 00 80 3f 00 00 80 3f 00 00 80 3f 00 00 80 3f
       1.0 1.0 1.0 1.0
000160 00 00 80 3f 00 00 80 3f 00 00 80 3f 00 00 80 3f
       1.0 1.0 1.0 1.0
000170 00 00 80 3f 00 00 80 3f 00 00 80 3f 00 00 80 3f
       1.0 1.0 1.0 1.0
000180 00 00 80 3f 00 00 80 3f 00 00 80 3f 00 00 80 3f
       1.0 1.0 1.0 1.0
000190 00 00 80 3f 00 00 80 3f 00 00 80 3f 00 00 80 3f
       1.0 1.0 1.0 1.0
0001a0 00 00 80 3f 00 00 80 3f 00 00 80 3f 00 00 80 3f
       1.0 1.0 1.0 1.0
0001b0 00 00 80 3f 00 00 80 3f 00 00 80 3f 00 00 80 3f
       1.0 1.0 1.0 1.0
0001c0 00 00 80 3f 00 00 80 3f 00 00 80 3f 00 00 80 3f
       1.0 1.0 1.0 1.0
0001d0 00 00 80 3f 00 00 80 3f 00 00 80 3f 00 00 80 3f
       1.0 1.0 1.0 1.0
0001e0 00 00 80 3f 00 00 80 3f 00 00 80 3f 00 00 80 3f
       1.0 1.0 1.0 1.0
0001f0 00 00 80 3f 00 00 80 3f 00 00 80 3f 00 00 80 3f
       1.0 1.0 1.0 1.0

batchnorm1.bias f4 [128]
000000 00 00 00 00 00 00 00 00 00 00 00 00 00 00 00 00
       0.0 0.0 0.0 0.0
000010 00 00 00 00 00 00 00 00 00 00 00 00 00 00 00 00
       0.0 0.0 0.0 0.0
000020 00 00 00 00 00 00 00 00 00 00 00 00 00 00 00 00
       0.0 0.0 0.0 0.0
000030 00 00 00 00 00 00 00 00 00 00 00 00 00 00 00 00
       0.0 0.0 0.0 0.0
000040 00 00 00 00 00 00 00 00 00 00 00 00 00 00 00 00
       0.0 0.0 0.0 0.0
000050 00 00 00 00 00 00 00 00 00 00 00 00 00 00 00 00
       0.0 0.0 0.0 0.0
000060 00 00 00 00 00 00 00 00 00 00 00 00 00 00 00 00
       0.0 0.0 0.0 0.0
000070 00 00 00 00 00 00 00 00 00 00 00 00 00 00 00 00
       0.0 0.0 0.0 0.0
000080 00 00 00 00 00 00 00 00 00 00 00 00 00 00 00 00
       0.0 0.0 0.0 0.0
000090 00 00 00 00 00 00 00 00 00 00 00 00 00 00 00 00
       0.0 0.0 0.0 0.0
0000a0 00 00 00 00 00 00 00 00 00 00 00 00 00 00 00 00
       0.0 0.0 0.0 0.0
0000b0 00 00 00 00 00 00 00 00 00 00 00 00 00 00 00 00
       0.0 0.0 0.0 0.0
0000c0 00 00 00 00 00 00 00 00 00 00 00 00 00 00 00 00
       0.0 0.0 0.0 0.0
0000d0 00 00 00 00 00 00 00 00 00 00 00 00 00 00 00 00
       0.0 0.0 0.0 0.0
0000e0 00 00 00 00 00 00 00 00 00 00 00 00 00 00 00 00
       0.0 0.0 0.0 0.0
0000f0 00 00 00 00 00 00 00 00 00 00 00 00 00 00 00 00
       0.0 0.0 0.0 0.0
000100 00 00 00 00 00 00 00 00 00 00 00 00 00 00 00 00
       0.0 0.0 0.0 0.0
000110 00 00 00 00 00 00 00 00 00 00 00 00 00 00 00 00
       0.0 0.0 0.0 0.0
000120 00 00 00 00 00 00 00 00 00 00 00 00 00 00 00 00
       0.0 0.0 0.0 0.0
000130 00 00 00 00 00 00 00 00 00 00 00 00 00 00 00 00
       0.0 0.0 0.0 0.0
000140 00 00 00 00 00 00 00 00 00 00 00 00 00 00 00 00
       0.0 0.0 0.0 0.0
000150 00 00 00 00 00 00 00 00 00 00 00 00 00 00 00 00
       0.0 0.0 0.0 0.0
000160 00 00 00 00 00 00 00 00 00 00 00 00 00 00 00 00
       0.0 0.0 0.0 0.0
000170 00 00 00 00 00 00 00 00 00 00 00 00 00 00 00 00
       0.0 0.0 0.0 0.0
000180 00 00 00 00 00 00 00 00 00 00 00 00 00 00 00 00
       0.0 0.0 0.0 0.0
000190 00 00 00 00 00 00 00 00 00 00 00 00 00 00 00 00
       0.0 0.0 0.0 0.0
0001a0 00 00 00 00 00 00 00 00 00 00 00 00 00 00 00 00
       0.0 0.0 0.0 0.0
0001b0 00 00 00 00 00 00 00 00 00 00 00 00 00 00 00 00
       0.0 0.0 0.0 0.0
0001c0 00 00 00 00 00 00 00 00 00 00 00 00 00 00 00 00
       0.0 0.0 0.0 0.0
0001d0 00 00 00 00 00 00 00 00 00 00 00 00 00 00 00 00
       0.0 0.0 0.0 0.0
0001e0 00 00 00 00 00 00 00 00 00 00 00 00 00 00 00 00
       0.0 0.0 0.0 0.0
0001f0 00 00 00 00 00 00 00 00 00 00 00 00 00 00 00 00
       0.0 0.0 0.0 0.0
