Audit-log_Analysis/code/GNN/training/graphSAGE_exp3/model3_initial(graphsage)/initial_weight.pth (torch, 637313 bytes, 12 tensors)

sage.layer1.fc_pool.weight f4 [250, 250]
00000000: 8feb ebbd 6098 1fbd 5723 dc3d 0f91 653d
00000010: ccd0 0dbe 2549 223d c7e0 3fbd e97c 89bd
00000020: 67d9 fdbd b93e 1abe b49a 85bd dc52 be3d
00000030: 7337 353c 91d7 453d fec2 0cbd fc21 0cbe
00000040: 92d7 dfbd 9051 d5bd f292 043e 3215 16be
00000050: b67e 823d 6c3a 3c3d 1eca ec3c ecc0 95bd
00000060: 09e2 683d 1529 28bd ec21 923d e51b f43d
00000070: 4432 e23d ee0a 3abd 7850 a3bc df07 a83d
00000080: 2dfb 88bd 7da4 f2bd d074 86bd 66c0 76bd
00000090: eb60 be3d bc64 ffbd f32b 28bd d40f 1cbe
000000a0: 78e5 5b3d d986 f6bc cc5f e3bd 01ea ac3d
000000b0: b7be 76bd 86d8 f9bd 789a 043e 235c f83d
000000c0: c380 a23c 36f6 92bd 9d21 183e 98aa 9cbd
000000d0: e5f0 c93c fe70 ecbd 3c57 0d3e e1be 163e
000000e0: 3d82 e1bd 426c 9c3d cb41 043e a02c 35bd
000000f0: 9274 043e 6e90 193d 12d5 a33d 9025 13be
00000100: 4437 2a3d 6dd6 c3bd 609a cabb 6e6a 9cbc
00000110: 9a73 d43d d791 22bd bb11 243c 1612 193e
00000120: c324 ae3d 6876 563c 9771 0d3d e219 b83d
00000130: 6640 76bc 4797 6fbc 6286 05be b8a9 063d
00000140: 30cf f23d cdbc 5b3d c569 a33d 8fbc 163e
00000150: 8717 02be 6bde 32bd 205f c73d 62f7 003e
00000160: 4142 ce3d 6760 19be 653e 41bb 61eb c13d
00000170: b4e1 ec3c 0f47 aabd b888 c2bd 4069 cfbd
00000180: 3822 e2bd 7d00 bb3d 98ca b1bd 10ef 2b3d
00000190: f7c2 8a3c 926c 7b3c ed0e 603d 7482 fb3c
000001a0: 17b5 35bc fa6c 04be a45c 3cbd 21a9 07be
000001b0: 0b8b 163e 991c 11be eaa2 bebd c889 e4bd
000001c0: 98ce a53d 0500 1abe e1e4 d9b9 a941 2dbd
000001d0: d3a6 183e 7310 9c3d ac18 fbbd 84ee 4abd
000001e0: 5671 9d3d ad30 a13d 9dcc 343d b7c5 0abd
000001f0: 2c94 103e 7d3e 7c3c 8e67 ffbb c056 de3d
00000200: 413b be3d 56b9 d7bc c2aa b33d a257 cebd
00000210: 2f5a cf3a 6f94 063d 721a 133e 8404 193d
00000220: b62a 003e ff90 933d 98fb c73d 24d1 a5ba
00000230: fb36 223d a0ac a53d 6a42 b63d cba0 47bb
00000240: 82e2 6a3d f582 243d 3a3e 193b 27a4 6a3d
00000250: 9739 1cbd 49b0 27bd 66b4 86bd 8a68 8c3b
00000260: 932c 92bc 9f0c 153e 5e22 bb3c 96eb bd3d
00000270: 0ab9 353c ac27 fb3d a78d 003d a470 9d3d
00000280: 6e46 853c c84b 1e3e 6e6d 53bd 3cad 08be
00000290: 7e21 163e 2b77 17be 5a7e e0bc 1d54 d43d
000002a0: 2015 da3d d712 53bd 3535 913d 1e0f c2bd
000002b0: 057a b43d 256e 80bd eede 81b9 239b 09be
000002c0: c51f 163b e378 dfbc 1994 943d 9fb5 bcbc
000002d0: bd8c 77bd b579 00bd 42cf 0c3e bb3a 0b3e
000002e0: 35d5 0b3e cb38 45bd c1a5 ed3d c83f fbbd
000002f0: bbec 843c c93f e53c ed1c 323d 9b53 473d
00000300: 3b2a 29bd bb97 c73d fd3a 2f3c 2904 0dbe
00000310: 7d93 97bd 525b e0bd ef1b 36bd fc3b 1a3e
00000320: c9ed f2bd 399e 48bd 96e3 ed3d 20c0 673d
00000330: 2b0b 32bd 788c 77bd cd47 00bb 679f e43d
00000340: 8940 1c3e ba4f dfbd d181 6ebd 1785 203d
00000350: 34c5 f43d e04a c13d d2a6 963d b299 493d
00000360: 4c6d afbd 4b98 8c3c 8119 053e accc 9dbd
00000370: 91c7 9abc 9cfd ce3d 3aac a03d 1c39 543d
00000380: 718f abbd d885 493d f70c dd3d 0e56 05be
00000390: d101 453d 7e8a c4bd be1e 033e 0131 83bd
000003a0: 2149 973d f421 e3bc 44e5 2b3d 0ee7 153e
000003b0: f49d 49bd 1fed 05bc 3295 0c3e bf1d 9f3d
000003c0: 078a 403d 63a4 133d 6cfe 89bd 2e3f 1fbc
000003d0: 1030 853d 8e2c ce3d 8842 88bd a6b0 1d3d
000003e0: 1673 d83c a0d6 febd 9c4e 89bd 34c7 203d
000003f0: 5300 e53d aa0a 163e e20e ba3b e9fe 83bd
-0.115195386 -0.038963675 0.10748928 0.05604654 -0.13849181 0.039620537 -0.046845224 -0.06713278
-0.12394982 -0.1506299 -0.06523648 0.09293148 0.011060583 0.048301283 -0.034365647 -0.13684839
-0.10929789 -0.104159474 0.1294668 -0.14656523 0.063718244 0.045954153 0.02890497 -0.073121876
0.05685619 -0.041054804 0.07135376 0.11919383 0.11044744 -0.04542058 -0.019935831 0.08204626
-0.06688533 -0.1184778 -0.06565249 -0.06024208 0.092958294 -0.124703854 -0.04105754 -0.15240413
0.053685635 -0.030093597 -0.11102256 0.0844307 -0.060240474 -0.12199502 0.1294955 0.12126949
0.019836789 -0.07175867 0.14856572 -0.07649726 0.024651 -0.11544989 0.13802809 0.14721252
-0.11011169 0.07637836 0.12915723 -0.04423201 0.12935093 0.037491255 0.07999624 -0.14369798
0.04155661 -0.09562383 -0.0061829537 -0.019093718 0.10373612 -0.039689865 0.010013993 0.14948305
0.085031055 0.013089754 0.034532156 0.08989312 -0.015030002 -0.01462347 -0.13039544 0.0328767
0.11855924 0.05364685 0.07979158 0.14720367 -0.12704287 -0.043669146 0.097349405 0.12594369
0.10071231 -0.14978181 -0.0029486653 0.09468723 0.028916217 -0.083143346 -0.09498733 -0.10127497
-0.11041683 0.091309525 -0.0868122 0.041976035 0.01693867 0.015345709 0.054701734 0.030701853
-0.011090538 -0.12932196 -0.045986786 -0.13248111 0.14701478 -0.14171065 -0.09308417 -0.11159092
0.08096045 -0.1503907 -0.00041559993 -0.042298947 0.14907388 0.07620325 -0.12260565 -0.049543872
0.07687633 0.07870612 0.044140447 -0.03387996 0.14119023 0.015395758 -0.007794327 0.1085639
0.092886455 -0.026333492 0.08772804 -0.100753084 0.0015819723 0.0328564 0.14365557 0.037357822
0.12516293 0.0720539 0.097647846 -0.001265083 0.039603215 0.08089566 0.08899386 -0.003046083
0.05734492 0.040163953 0.0023383037 0.057285454 -0.03814086 -0.040939603 -0.06577377 0.004284923
-0.01784352 0.14555596 0.022843536 0.0927345 0.01109148 0.12263426 0.03138509 0.076875
0.016268935 0.15458596 -0.051618032 -0.13347334 0.14661214 -0.14791553 -0.027404 0.10367606
0.106485605 -0.05153164 0.070902266 -0.094755396 0.08812336 -0.062710084 -0.00024770893 -0.13438086
0.002290712 -0.027279323 0.0725481 -0.023035822 -0.060436953 -0.03136607 0.13750938 0.13596623
0.13655551 -0.048149865 0.11603881 -0.12268025 0.016226163 0.027984517 0.043484617 0.048663717
-0.04130004 0.09745737 0.010695216 -0.13771118 -0.07401178 -0.10954918 -0.044460233 0.15061945
-0.1186176 -0.048979018 0.11615674 0.05657971 -0.04346768 -0.060436696 -0.0019574047 0.11163216
0.15258993 -0.109038785 -0.05822927 0.039189424 0.11951676 0.094381094 0.07356037 0.04921884
-0.085657686 0.017162463 0.1299801 -0.07705054 -0.018893989 0.10106966 0.078453496 0.051812276
-0.08376969 0.04919991 0.107934885 -0.13021109 0.048097435 -0.09596728 0.12804696 -0.06405831
0.07386995 -0.027726151 0.04196669 0.14638922 -0.0492229 -0.00817421 0.13728788 0.077693455
0.047006633 0.036045443 -0.0673798 -0.009719653 0.06503308 0.10067092 -0.06653315 0.038498543
0.026422065 -0.1244328 -0.06704447 0.039252475 0.111817025 0.14652506 0.0056780437 -0.06445105

sage.layer1.fc_pool.bias f4 [250]
00000000: 02db 84bc ebea 1c3b aec7 c3bc 0ce3 6dbc
00000010: 60ff 553d 046e 7bbd a2de 0a3d 3d5b dd3c
00000020: bf34 623d 6636 4b3d d726 483d 671b a83c
00000030: a741 9bbc 52d5 ba3a ad1a 49bd 063d 313c
00000040: fa36 49bd 841c 5dbb e9a5 5e3d b09e c63c
00000050: 78bf 3abd 70a9 223d 6973 afbb 20f0 6ebc
00000060: b3bf 7fbc 8126 4dbd 8daa e53c bace d7bc
00000070: 7157 cebc 0b19 91bc 4816 d53c 9b73 7b3d
00000080: 3508 213b 4f35 d6bb bd95 6ebd d649 1e3c
00000090: 3195 49bd 6383 87bc 7adb 183d c75e 47bd
000000a0: 868c 74bc 2421 cb3c bb20 033d df5a 05bd
000000b0: af1e de3b 2439 203d d4e8 6f3d cefa e4bc
000000c0: dd90 f03c 55fb 163d 8b1a 34bc 9ffd 853c
000000d0: a091 573d c11c b9bc 412d 6a3d a1fa 0b3d
000000e0: 3506 363d 69e3 2dbd 790d 203d 1774 3e3d
000000f0: a498 4abc d3e9 063c bc42 d0ba 51a0 5dbb
00000100: f584 18bc 080b b33c 8b0d 4cbd d931 00bd
00000110: 28a5 f2bc a2d2 203d 4ae5 233d 2b22 6dbd
00000120: 9f11 ab3c d3b4 133d 3238 16bd 24b1 40bd
00000130: e444 7fbd d641 263d 12d2 3e3c 0e9e 93bc
00000140: af2a 503d 3ef7 a03c b710 3abd 9983 7bbd
00000150: dd50 29bc a6a4 723c 1b0f 6b3d b8b7 e43c
00000160: 3162 e2bc a5c7 81bb 3876 053d ac65 1bbc
00000170: ac8d 453d 6cdf 693d 9ecc 0f3d f86f e53c
00000180: b08e 7abc 72cc fa3c d8cd eebb 6541 533b
00000190: 312b 9e3c 846f cbbc c1f1 103d a129 f7ba
000001a0: 7bbc 33bd a463 efbc eec6 8dbc 2e36 813a
000001b0: cd83 4b3d 7b8f 7ebd c2c6 cf3c 0bac 73bd
000001c0: 2080 56bd a629 813d 9f2c 5b3d 1ceb 0bbd
000001d0: ffde 0bbd 28cd 223d 7572 53bd 9cef ce3c
000001e0: 91cf 6a3d 2887 733d f556 173c a7dc e4bb
000001f0: b9d7 2bbd 238d c7bc 79e3 9d3a 94e7 93bc
00000200: 3cb0 06bd 625c 14bd 67aa cd3c 5cee 66bd
00000210: 2f8e 953c dc32 3a3d 1900 c53c 7021 823c
00000220: 25a7 01bd ddfa 19bc 1ccb 43bb a462 803d
00000230: 3c34 abbc 8b90 58bb d4b3 fabc efab 193c
00000240: 9a1c feba 6f0a fdbb 78c5 77bd cf2c 3cbd
00000250: 5cac 1f3d 4b21 29bd 5efe 3dbd c19b df3c
00000260: e3e5 2abd 0751 16bd 9360 103c f97b acbc
00000270: 7707 b6bc 4ce2 583d c9b5 db3a 2b08 503b
00000280: 05e0 223a 3154 103d 7bb7 29bc e7a2 ae3c
00000290: 83f2 3f3d 4931 533d 8646 55bd 6db4 62bd
000002a0: c5fc 8e3c c825 0bbd eaad 403d 0f3c fbbc
000002b0: eaf4 293d 8916 463c 33cb a4bc f4ad e7bc
000002c0: 60e1 61bd 5647 05bd 60fa 33bd 3e16 813c
000002d0: a590 193d 32b0 e6bc cb59 00bd 66cc ea3c
000002e0: a20a c0bc 6233 713d b1a3 fcbc 4b8a b23a
000002f0: bb40 27bb f18b 453d b5ff 113d a31c b6bb
00000300: ccd3 6ebd 9501 6d3d fe48 3d3d fc48 e13c
00000310: 447d 40bd 9737 753d dc91 62bc 02ce 543c
00000320: 3fe1 513b fc5d 7c3d c8ad e03b a1ed 773c
00000330: e550 6a3d 6ca7 783d 2547 d03c 7d91 743d
00000340: d0b6 043c d500 50bd 3aca 4cbc e1cb 3c3d
00000350: 808f 7dbc 3035 3c3c af6d f7bc 777e 5d3d
00000360: 1eb9 17bc 2003 ed3c abdb e2bb 08c9 943c
00000370: ccae 36ba 2485 243c 00bc 923c 3f2d e6bc
00000380: db1a 033d 46c5 16bd 141c 893c 1a28 043d
00000390: 2a47 2d3d b083 5e3d 2a0b a0bb a6be c2bc
000003a0: ea8a 1ebd 63a3 5d3c 7a05 dd3c 72f9 233d
000003b0: 2f27 003d e97f 9fbc 36ae 923b 2651 583d
000003c0: 6ef5 183d 3771 39bc 9f32 00bc b88b 16bd
000003d0: b0bb b93b a122 cdbc cc4f 6e3b b1ce 67bd
000003e0: 112f 08bc e25c c73a
-0.016217712 0.0023943733 -0.023898926 -0.014519464 0.052245498 -0.061384216 0.033903725 0.027021045
0.055226084 0.049612425 0.048865166 0.020520879 -0.018952204 0.0014254248 -0.049097706 0.010817772
-0.049124695 -0.003373892 0.054357443 0.02424559 -0.045592755 0.03971237 -0.005354334 -0.014583617
-0.0156096695 -0.05008555 0.028035427 -0.026343692 -0.02518818 -0.017712137 0.026011601 0.061389547
0.0024571542 -0.0065371166 -0.05824827 0.009661159 -0.049214546 -0.016542142 0.037318684 -0.04867437
-0.0149260815 0.024796076 0.032013636 -0.032557365 0.00677856 0.039116994 0.05857165 -0.027951624
0.029365951 0.036860783 -0.010992656 0.016356288 0.052629113 -0.022596719 0.057172064 0.034174565
0.044439513 -0.042453203 0.03907535 0.04649743 -0.012365494 0.008234459 -0.0015889029 -0.003381748
-0.009309043 0.021855846 -0.049817603 -0.03129754 -0.029619768 0.039263375 0.04001359 -0.057893913
0.020882426 0.03606112 -0.036674686 -0.047043934 -0.06232156 0.04059013 0.011646764 -0.018019702
0.050821956 0.019649144 -0.045426097 -0.0614048 -0.010334221 0.014809763 0.057387453 0.027919635
-0.027634712 -0.003960567 0.032583445 -0.00948469 0.048230812 0.057097837 0.035107248 0.028007492
-0.015292808 0.030615065 -0.007287722 0.0032235023 0.019307705 -0.024833448 0.035386804 -0.0018857011
-0.04388092 -0.029222317 -0.017306771 0.0009858066 0.049686242 -0.062148552 0.02536333 -0.059490245
-0.052368283 0.06306772 0.05350935 -0.034159765 -0.034148213 0.039746433 -0.051622827 0.025260739
0.057326857 0.059455067 0.009237041 -0.0069843116 -0.041953776 -0.024359291 0.0012045942 -0.018054761
-0.032882914 -0.036220916 0.025105668 -0.05637966 0.018256275 0.04545866 0.024047898 0.015885085
-0.031653542 -0.009398189 -0.0029875701 0.06268814 -0.02089893 -0.0033045139 -0.030603327 0.009379371
-0.0019387186 -0.007722191 -0.060491055 -0.04594117 0.038982734 -0.041291516 -0.04638516 0.027295949
-0.041723143 -0.036698367 0.008812088 -0.021055209 -0.022220356 0.05295019 0.001676255 0.003174315
0.0006213191 0.03523654 -0.010358687 0.021317912 0.046862137 0.051560674 -0.05206921 -0.05534785
0.017454514 -0.033971578 0.047040857 -0.030668287 0.041493334 0.012090334 -0.020116424 -0.02828119
-0.055146575 -0.032538734 -0.043939948 0.015757676 0.03749146 -0.028160188 -0.031335633 0.028661918
-0.02344257 0.058886893 -0.030839773 0.0013621537 -0.002552076 0.04822916 0.03564425 -0.005557613
-0.058307454 0.057862837 0.04621219 0.027500622 -0.046994463 0.059867468 -0.013828721 0.012988569
0.0032025126 0.061613068 0.006856654 0.015132339 0.057206053 0.06070654 0.02542455 0.05970906
0.0081002265 -0.050782043 -0.012499386 0.04609287 -0.015476108 0.01148729 -0.030203668 0.054075684
-0.009260444 0.028932154 -0.006923159 0.018162265 -0.0006968796 0.010041509 0.017911911 -0.028097747
0.032008033 -0.03680923 0.016737022 0.032264806 0.042304195 0.054324806 -0.0048841434 -0.023772549
-0.038706698 0.013527724 0.02698015 0.04003281 0.03128737 -0.019470172 0.004476334 0.052811764
0.037343435 -0.011318496 -0.007824569 -0.03675434 0.005668126 -0.025040926 0.003636348 -0.0565936
-0.008312003 0.0015210176

sage.layer1.fc_neigh.weight f4 [64, 250]
00000000: 40a7 073e c024 343e ddd9 0cbe 366f 14be
00000010: 8323 a4bd f9fb 343e e619 253e bee7 44be
00000020: 0946 aa3d e4f7 2c3e 96c0 813d 679d 733d
00000030: 36d7 24be b0a4 40be 05dd 12be a87a 8ebd
00000040: a158 41be 3c75 febd 61a2 22be 5c57 fc3d
00000050: 1b97 1b3d 97dc 6fbd a90f 753b 0d1d 14be
00000060: 87c1 413d ad2c 60bd b162 1e3e 01bb f63c
00000070: 0bc9 bc3d c935 e83d 2431 61bd 6494 37be
00000080: af62 0e3d 769b 02bd a1a3 efbc 70dd d4bc
00000090: f627 5b3d 565b d43c 4eff b03d 20aa ebbd
000000a0: c2ad 02be a18f 3bbe 037c 46be 3fa9 0abe
000000b0: 5166 30be 861a 473e 9a67 2f3e e9be 19be
000000c0: c476 cb3d 4ae3 003b 5b53 13be d5c8 a0bc
000000d0: c843 25be 98df 17be ccba 983c ef20 de3c
000000e0: 4342 553d 9bad 773c f19e b23d 213e a3bd
000000f0: de7c cc3d 53db 433d 4471 13be 13f1 02be
00000100: a1b0 6a3d 88c0 d63d 39b1 2fbe 4b21 dabb
00000110: 1068 a33d 820d cfbb 8225 8bbc 9914 023e
00000120: 1c70 11bd 84b1 343d 501a 203e 9815 96bd
00000130: 15d7 a43c 9780 93bd 613f 76bd 1b97 19be
00000140: 78f7 33be ac7d 3ebe a20c 0bbd 57d0 3d3e
00000150: 8636 183e 6836 c7bd c238 33be 74f0 283d
00000160: 9736 df3d 82a8 183e c7a5 20be e0c0 e63d
00000170: 650c e7bd 31b2 263e 8bb4 db3c bbd5 2dbe
00000180: 52e0 44be e511 a93d 315d b8bd 3b15 19be
00000190: 3e0e ca3d 4776 2a3e a5cf 463e 424c 113e
000001a0: 0419 41be 2062 23be 8d90 e23d b595 8ebc
000001b0: 991c 56bd 3a03 a3bc 024d dbbd dc07 a23d
000001c0: 5be0 1cbe b345 3d3e 319a 893d 942c e23d
000001d0: 64b8 a4bd 5eb0 23be 03bc 953d a614 a53d
000001e0: b376 4c3d f731 c8bd edf0 51bd fde3 a83d
000001f0: fc89 91bd 6e04 3d3e 3a1e 353e 0944 bf3c
00000200: 0ed4 f0bc 818f c2bd ed11 253d 6983 68bd
00000210: 7541 babd 8169 1dbe c869 9abd 68c4 163e
00000220: 876a fabd 15ab 0fbd e271 34bd 7ae9 253e
00000230: 5926 a6bd f554 46bd 1688 e1bd 1e2c fa3d
00000240: 05f2 dcbd 628e 943d eea3 afbd a49f 6bbd
00000250: 3b50 2b3e 65ce f6bd 7fc0 af3c 3192 443e
00000260: efb3 eebd f645 223e e02c 56bd c0b3 06be
00000270: 9379 cbbd f6eb 2fbe 2e91 94bd 04ad b0bd
00000280: dca5 643d 0a14 8d3d 5bf4 233e 84cc 02be
00000290: 9136 dabd 9507 233e 9487 e03d 98c1 33be
000002a0: 21a7 463e 4ec2 e4bd 2f1c 02be 68a9 c93d
000002b0: 1b7d 333e a8a6 f23d e1e2 223e 5e59 c13d
000002c0: d41f 363e 5bf5 023e c407 13be 735e 21be
000002d0: 44b5 ab3d 46ab 973d a9f1 463e 4355 3ebe
000002e0: 9b5d 3e3e 9924 02be ff9d acbd dcca 253e
000002f0: 4f1b 88bc ea6d d33d d01e ce3d 6c74 3e3e
00000300: a1cd 6bbc 8e76 153e 9a47 073e df25 b73b
00000310: a09d 3cbe 3ac4 3ebe 8b82 2cbd 39da a2bc
00000320: 3554 fcbd 600c d3bd d38f 2ebd 1233 03be
00000330: 80dc dfbd abcc 553b 9b25 823d 5709 96bd
00000340: 95d7 ec3d 4199 bfbd 338b 323e 1593 463e
00000350: b3a5 07be 8986 a0bd 5c25 9fbd b7e9 803d
00000360: 6ceb 8fbd aff3 3f3d 6a76 27be 4d8c 233e
00000370: af90 b23d eacb 3b3e 37b1 1abe 893b dbbd
00000380: e3b5 3ebd 4a40 75bd 8234 0c3d 2d68 23be
00000390: 52ab 143e 88aa cb3d abdb dfbb 6d07 93bd
000003a0: 7c6f 193e 58eb ee3d e436 1dbe 3055 493c
000003b0: 7276 fb3d b5d8 a2bd 4826 9bbd 5267 d93d
000003c0: 0d43 9a3b 1192 21be 8e0e dc3d c2e0 1ebe
000003d0: 1d67 e0bd 790b f93d 2867 2fbe 3f27 86bd
000003e0: 4b27 7e3d e624 42be 349f b1bd 92ad 0a3e
000003f0: f6d4 33be 703b d1bb bdae 22be 354b 10be
0.13247395 0.17592144 -0.13754983 -0.14495549 -0.08014586 0.17674245 0.1612316 -0.19229028
0.083141394 0.16891438 0.06335561 0.059476282 -0.16097721 -0.18812823 -0.14342125 -0.069569886
-0.18881465 -0.124247044 -0.15882255 0.1232135 0.037985902 -0.05855998 0.0037393367 -0.14464207
0.047303703 -0.054730106 0.15467335 0.030118467 0.092180334 0.11338384 -0.054978505 -0.179277
0.03476208 -0.03188654 -0.029252829 -0.025984496 0.053504907 0.025922459 0.086424455 -0.11507058
-0.12761596 -0.18316509 -0.19383244 -0.13541125 -0.1722653 0.19443712 0.17129365 -0.15014233
0.09934762 0.0019666725 -0.14387266 -0.019627014 -0.16139138 -0.14831388 0.01864376 0.027115313
0.052065145 0.015117074 0.08721722 -0.079708345 0.09984754 0.047816586 -0.14398676 -0.12787275
0.057297353 0.10485941 -0.17157449 -0.006656801 0.07978833 -0.006318749 -0.016985659 0.1270317
-0.035507306 0.044114605 0.15635037 -0.073283374 0.02012209 -0.07202261 -0.060119037 -0.14999048
-0.1757487 -0.18602628 -0.033947594 0.18536507 0.14864549 -0.09727174 -0.1750212 0.04124494
0.10899084 0.1490803 -0.15688239 0.11267257 -0.11281661 0.16278912 0.026819488 -0.16976063
-0.19226196 0.08255366 -0.0900215 -0.14949505 0.09865998 0.16646682 0.19415148 0.14189246
-0.18857199 -0.159554 0.11062727 -0.01740537 -0.052273367 -0.019899 -0.107080474 0.07911655
-0.1531996 0.1848362 0.06718863 0.11043659 -0.08042982 -0.15985247 0.07311251 0.08060579
0.049917888 -0.09775155 -0.051255155 0.0824661 -0.071063966 0.18458721 0.17687312 0.023347871
-0.02939799 -0.095000274 0.0403003 -0.056765947 -0.09094516 -0.15372278 -0.075397074 0.1472336
-0.1222735 -0.035075266 -0.04405392 0.16202345 -0.08112783 -0.048420865 -0.110122845 0.12215446
-0.10788349 0.0725372 -0.08576189 -0.057525292 0.16729824 -0.120510854 0.021454094 0.19196393
-0.11655413 0.15847 -0.05228889 -0.13154507 -0.09935298 -0.17179856 -0.07254253 -0.0862675
0.05582224 0.06888588 0.16011183 -0.12773329 -0.10654939 0.15920861 0.109633595 -0.17554319
0.19399692 -0.11169873 -0.12706064 0.09846765 0.17528193 0.118481934 0.1590686 0.094408736
0.17785579 0.12788908 -0.14358431 -0.15758686 0.08384183 0.07405715 0.19428124 -0.18587212
0.18590395 -0.12709273 -0.08428573 0.16190666 -0.016614584 0.10323699 0.10064471 0.18599099
-0.0143922875 0.14596006 0.13210908 0.0055892314 -0.18419504 -0.18629542 -0.042116683 -0.019879447
-0.12320749 -0.10305095 -0.04261763 -0.1281245 -0.10930729 0.0032623212 0.06354829 -0.07326
0.115645565 -0.09355403 0.17435913 0.19392045 -0.13246803 -0.078381605 -0.077707976 0.062945776
-0.07027325 0.046863254 -0.16353765 0.15971489 0.087190025 0.18339506 -0.15106665 -0.10704715
-0.04656018 -0.059875764 0.034229763 -0.15957709 0.14518479 0.09944636 -0.0068316064 -0.07179151
0.14983934 0.11665982 -0.1535297 0.012288377 0.12278451 -0.0795149 -0.07575661 0.1061541
0.0047077 -0.15778376 0.107449636 -0.15515426 -0.10957167 0.12160391 -0.17129195 -0.06550454
0.06204919 -0.18959388 -0.08672944 0.13542774 -0.17561707 -0.0063852593 -0.1588697 -0.14091189

sage.layer1.fc_self.weight f4 [64, 250]
00000000: 6c63 cb3d 613a ebbd 0807 233e 41cb 98bd
00000010: b20d 103e 39a2 09be b337 89bc 5d40 403e
00000020: 3b2c 0bbe 8113 41be 5e81 4ebd 2efd 37be
00000030: 7844 023d 8fb2 49bd 220e 80bd fa4e 283d
00000040: 4092 f23d f793 2cbd 94c3 f9bd be98 dc3d
00000050: 7b7e c03a c6dc 02be 9840 2c3e cee5 473e
00000060: 9ba6 2d3e c32a 5d3c 110f 44be 5b5b 5f3d
00000070: 30f5 ea3d f058 06be 9b54 d9bd 1064 dd3d
00000080: ea68 a63c 1b1c 0ebe 53f8 26be c567 86bd
00000090: c41e 9e3d 208e 0fbe 8d4c 263e 468f 3f3d
000000a0: e0fb 453e a83d 453e d859 3fbe 773c 9cbd
000000b0: 7216 c23d c34c 9dbd c891 c13c 9edd f83d
000000c0: a5ce 09be 1da0 e0bd 5919 fabd 653f 2abe
000000d0: fe63 90bd 5614 48bd 6a70 43be 87c2 9e3d
000000e0: 6b75 23bd 0abe ddbd a418 9fbd 50db 273e
000000f0: de3d 8cbd d942 6dbd 4a8d 2f3e 082b 293e
00000100: b234 f53d d652 343e 00fc 18be e81a 133e
00000110: dc54 113e a823 35bd 1497 13be 8a5b 79bd
00000120: a9a4 373e c678 cfbd 2a89 f43d 33e3 38bd
00000130: bede 3fbd ed81 df3d 3dd6 c6bd 8946 e63d
00000140: 5f8f e3bd 9acb 9abc d6a5 473c f28a 193e
00000150: 2a83 33bd a15b babd dc23 b93d 67c4 c33d
00000160: 9acc ad3d 5dee b43b 8c15 37bc 2ef9 cbbd
00000170: f7e6 f13d 78f4 ecbd 1000 92bd 67a4 673d
00000180: 361f 30be 9528 0fbe e68d 20be 1932 2cbe
00000190: 09d8 1f3e 186b bd3c a319 e33d 3f5d 9a3c
000001a0: d09f 89bd f703 2abe be5f d33c 0cfa 19be
000001b0: fa2c a03c 0869 d23c 154f 00bd f198 3c3e
000001c0: 1ed8 f93c 828a 2c3d 0a93 ffbd a0b5 b33d
000001d0: c291 823a f91f 21bd a98e 8b3d 60b1 b8bd
000001e0: a59b 26bd 855a 423e 6070 ec3d d6f2 37be
000001f0: 7a15 403e 1775 b33d e8bd 3dbe 5149 f8bd
00000200: 484e cebd 28f1 233e f096 713d a112 8e3c
00000210: d3ba 2b3e 2384 9cbb 372d 60bd bc32 de3d
00000220: 43da 2e3e e0e8 cfbd 2a62 093e 5284 a33d
00000230: 605a fabd ccd9 893d ad52 0d3e 803f 393e
00000240: 02f3 5a3d e0b2 233d 2b97 cdbd 1abf 45be
00000250: 4531 a23d 6bd7 af3b eea3 22be 811b 2b3e
00000260: 7e2e 073e 1784 723d ebcd 27be de52 073e
00000270: e488 143e ae29 59bd 656d 833c 2afb d1bd
00000280: af1b 16be ccb3 413e 9fe2 d1bd c92a 37bd
00000290: e6bb 003d 419e f1bd 98a4 033e e49e 2bbd
000002a0: dcdc 0fbb d04b e43d a250 e53d b0e3 2bbe
000002b0: 46a9 21be ae45 22be aa19 983d 8452 623c
000002c0: 5154 283e a54c 25be 0449 363e 8c6d e43d
000002d0: 99a5 913d 030d 1c3d a333 193d 337c ef3d
000002e0: ee57 423e 9f25 a0bd 9e1d 993d 0c29 293d
000002f0: 5fce d63c c654 c4bd 1294 e93d abab a2bd
00000300: 6d43 a23d 7a10 c83c b8c8 5dba 0a17 32bd
00000310: fe90 0abe 8b1b 143e 78ab 70bd 6be4 5a3d
00000320: 9d89 423c 7f6d 28bd 1e19 2d3d 475f 92bd
00000330: c020 dbbd 8509 7b3d 3fcb e9bc b3be e43d
00000340: 6b61 3abe d88d 383d 6f68 30be 5c16 bdbd
00000350: 54b4 b13d 5b62 3bbc d621 acbd 5aba c93b
00000360: 03e6 5e3d eb3b 863c 957b 1f3e 5455 7fbd
00000370: b1db ddbd fe12 f3bd c254 35be b5a3 b23d
00000380: 14dd 6abc 4ec9 fc3d 1b79 9cbd 9233 213e
00000390: b3ff 463e 08f3 5fbd e5d9 8cbd 6ce2 4a3c
000003a0: 250b 97bd 3304 0c3e 6f57 dcbc ad18 b7bc
000003b0: 04a1 423e 29b0 1e3e b5a1 18be 2982 22be
000003c0: c9fd 13be d58a ad3d 1a9a 23be f39f e63d
000003d0: f0f2 46bd c45b 0ebd 81d8 1a3d df17 623c
000003e0: b9a2 e1bc 0e80 b9bd 116e 353e 8837 17bd
000003f0: 6aa9 a6bd 96f2 ffbd d215 283b 99bc d1bd
0.099310726 -0.11485744 0.15920651 -0.074606426 0.14067724 -0.1344079 -0.016750192 0.18774553
-0.13591091 -0.18855096 -0.050416343 -0.17967674 0.03180358 -0.049242552 -0.062526956 0.041090943
0.11844301 -0.042133298 -0.12195507 0.10771321 0.0014686132 -0.12779531 0.16821516 0.19521257
0.16958086 0.013498965 -0.19146372 0.054530483 0.11472547 -0.13119864 -0.1061184 0.10810101
0.020313699 -0.13877909 -0.16305666 -0.06562761 0.07720712 -0.1401906 0.1624014 0.046767496
0.19334364 0.19261801 -0.18686616 -0.0762872 0.09476937 -0.07680657 0.023629084 0.12151645
-0.13457735 -0.10968039 -0.12211866 -0.16625746 -0.07050322 -0.04884752 -0.19085851 0.07751947
-0.0399069 -0.10827263 -0.07768372 0.16392255 -0.06847738 -0.05792508 0.17143741 0.16520321
0.119729415 0.17609724 -0.1493988 0.14365733 0.14192528 -0.044223458 -0.144131 -0.060878314
0.17933907 -0.101304576 0.119402245 -0.04513855 -0.046843283 0.10913453 -0.097088315 0.11243922
-0.1111133 -0.018895913 0.012185534 0.1499441 -0.04382626 -0.09099508 0.09040043 0.09558945
0.0848629 0.005521579 -0.011174571 -0.09959637 0.11811631 -0.11570066 -0.07128918 0.05655327
-0.17199406 -0.13980325 -0.1567913 -0.16815986 0.15609755 0.023122355 0.11088874 0.018843291
-0.06719935 -0.16603075 0.02580249 -0.15036792 0.019552696 0.025684848 -0.03132542 0.18417718
0.03049856 0.04212428 -0.12479217 0.087748766 0.0009961652 -0.039337132 0.0681432 -0.090182066
-0.040675778 0.18979843 0.11544871 -0.17963728 0.18758193 0.087625675 -0.18529475 -0.12123359
-0.10073525 0.16009963 0.058981836 0.017342867 0.16770487 -0.004776494 -0.05473062 0.108495206
0.17075448 -0.10151839 0.13416353 0.079842225 -0.12224269 0.067309946 0.1380107 0.1809063
0.053454407 0.03996551 -0.100385986 -0.1931118 0.07919554 0.005366256 -0.15882847 0.1670971
0.13201329 0.059208002 -0.16387145 0.13215205 0.14505345 -0.053018264 0.016043374 -0.10252984
-0.14658998 0.18916243 -0.10248303 -0.044718537 0.031429194 -0.11797763 0.12855756 -0.041899577
-0.002195171 0.111472726 0.1119702 -0.16786075 -0.15787229 -0.15846893 0.0742677 0.013813619
0.16438414 -0.16142519 0.17801291 0.11153707 0.07111663 0.038098346 0.03740276 0.11693611
0.18978855 -0.07819676 0.07476352 0.04129891 0.026221452 -0.09586482 0.11405195 -0.07942899
0.07923017 0.02442192 -0.00084603904 -0.043479003 -0.13531873 0.14463632 -0.058757275 0.053440493
0.01187363 -0.04112005 0.04226028 -0.07147079 -0.10699606 0.061288375 -0.028539298 0.111691855
-0.18201225 0.045057148 -0.17227338 -0.0923278 0.08676973 -0.011437024 -0.08404891 0.006156248
0.054418575 0.016385993 0.15574487 -0.062337235 -0.108329184 -0.11868857 -0.17708114 0.08722631
-0.014334936 0.12343083 -0.076402865 0.15742329 0.19433479 -0.054675132 -0.068774976 0.012383085
-0.073751725 0.13673477 -0.02689716 -0.022350634 0.19006735 0.15496887 -0.14905436 -0.15869965
-0.1445228 0.08473746 -0.15976754 0.11260977 -0.048571527 -0.034755483 0.03780413 0.013799637
-0.027543413 -0.090576276 0.17717768 -0.036918193 -0.08137782 -0.124974415 0.0025647772 -0.1024105

sage.layer1.fc_self.bias f4 [64]
00000000: 6cb1 c6bb 72fb 55bd dab0 54bb f63c 74bd
00000010: b2e6 863c c331 213d 7353 e73c 7100 0e3d
00000020: 76c6 5d3d 3fc0 173d 03d3 ed3c 10f5 e2bc
00000030: 89e2 73bd a05a 003d 0dec 3f3b 3d95 edbc
00000040: 7dac 04bd 90cc d1bc cc7b 783d 35f9 e33c
00000050: c776 be38 376e 96bb b27c cf3c 3427 c1bb
00000060: 094f 043d c22f 683d b700 84bc 59e1 05bd
00000070: b600 1fbb 7a36 23bd 5489 1bbd a89a 063d
00000080: 2d1d 4d3d 88bb 5a3d b584 cd3c 20cb 173d
00000090: 65e0 7f3d 15ce 37bd d21e 7dbd 7615 473d
000000a0: 270d 1e3d 28d1 0b3d 4a44 523d 5ee3 e23c
000000b0: c790 5e3b b80d 1dbd 7521 65bd 3974 75bc
000000c0: 825e d43c 141d 6a3d 4f4e 58bd 6a10 8bbc
000000d0: e039 6fbd c192 28bd d20d 783b 6746 1dbd
000000e0: 5ba3 8ebc 4993 083d 8adf 1b3d 8303 ea3b
000000f0: e19f 303d 9ec5 ce3c f894 0e3d fe2d 6e3c
-0.006063631 -0.05224175 -0.0032454045 -0.05962845 0.016467426 0.039354097 0.028238034 0.03466839
0.054144345 0.037048575 0.029031282 -0.027704746 -0.059542213 0.031336427 0.0029284984 -0.029001826
-0.03239106 -0.025610238 0.060664937 0.027828792 9.08203e-05 -0.0045907754 0.025328014 -0.005894566
0.032301936 0.05668617 -0.016113622 -0.03268561 -0.0024261898 -0.039846875 -0.037972763 0.032862335
0.050076652 0.0534015 0.025087694 0.03705895 0.06246986 -0.04487427 -0.06179697 0.04860445
0.03858676 0.034135014 0.051334657 0.027696308 0.0033960806 -0.03834316 -0.05594011 -0.014981323
0.025923971 0.057156637 -0.052809056 -0.0169756 -0.058404803 -0.04115558 0.0037850034 -0.03839722
-0.017411878 0.033343587 0.03805498 0.007141532 0.043121222 0.025240716 0.034810036 0.014537333

sage.layer2.fc_pool.weight f4 [64, 64]
00000000: e416 03be ea65 63be 531c 163d f0c7 eebd
00000010: 4aed 533d 0bf5 d5bc 12de 703e 854c 4cbe
00000020: 2bdc 133e 47f1 043e 05fe 56be c408 63be
00000030: 9129 ab3d 75ea 383d 3bb2 823d 8ed8 4fbe
00000040: 56aa 943d 2dab 593d d0c6 1bbe f7e2 1fbe
00000050: 5700 4bbe fe41 423e 1ce5 503e ffa2 2e3e
00000060: 81b7 fcbd 35f5 893e 34a8 f93d 3fa3 7b3e
00000070: 2595 64be dca9 f8bd 787f 403e c535 93be
00000080: 91ae 96b9 21a6 7cbe c6a1 43be 3032 debd
00000090: c83c 833d 8478 893e f32a 07be d66f 8cbe
000000a0: 628a 983e a3d9 babb e4bc fdbd c154 8c3d
000000b0: ce52 103d ae80 3cbe e5d5 b53d 5687 2ebe
000000c0: fcc3 e93d 7e40 193e 85e3 b13d 3f72 2bbe
000000d0: f7f1 30be af1c ee3d f3e2 96be 1a2a 5b3e
000000e0: f1d0 0bbd 54bf adbd e051 873e d31b c4bb
000000f0: 7860 72be 1a89 bdbc df4a 25be 63df 043e
00000100: 3506 37be 4b27 edbc db15 dfbd f905 5fbd
00000110: 1285 1abe 2684 8fbd 6142 7d3e cb25 d9bd
00000120: 679d 663e 2361 843e 3810 79bc 1aef 6f3c
00000130: 33e5 dfbd c952 f6bd d22e 4cbe 7742 5f3e
00000140: 3e70 3b3e 9f40 68bc a6b2 3bbe c6c2 f2bd
00000150: 2055 233e cc0f 3ebe bdb6 663e 0da3 22bc
00000160: 8490 1d3e 631f 35bd 30c3 82bd f9a4 203e
00000170: dc1a 4abe 0c7c 843e bec7 7abe 6d78 9abe
00000180: 3f2d d8bc 6747 653e 1dc3 853e ba07 cf3d
00000190: 36d0 e5bd e69c 8e3d 02ba 3f3e 0dc5 c23d
000001a0: 7d60 2d3d 4e2b 9b3e d289 11be ca77 92be
000001b0: 7f9e 08be 7a31 5bbe cbba 83be 973f 93be
000001c0: 0526 343e cf4f 87be de3f 573e 1493 34bd
000001d0: c13e 513e 170f 48be c493 87be 540e cb3d
000001e0: 1d32 1e3e 2787 86be 6180 463e 3371 243d
000001f0: 9878 993c 4602 893e 24ba 82be d92d eebc
00000200: 4557 d23d dccc 81bd 7d11 82be 1058 cf3c
00000210: 7981 1d3d 9cac 22be 2174 223e 3ac2 953d
00000220: 4de9 8d3b 1cde 58bd 3d5f 8b3e c6f1 803e
00000230: b09c 0a3d 1b4a d8bc 368d 2fbd 1cac 09be
00000240: fed9 0ebe f3ce 3bbe 7021 9ebd 3db3 08be
00000250: c377 4abe 120f 153c 0835 693e 0af0 2abe
00000260: fc9c f1bd a37c 923e d22a 473e e477 a93d
00000270: b93f 543e 43ca 92be 2471 7e3e 926a abbd
00000280: f565 253d ab1a 5c3e f25d 4ebd 4e72 88be
00000290: bf96 9cbe 2d63 153e 8ee6 80be d982 5abd
000002a0: da7d 5bbe d1ab 8a3e 8b21 0d3e 2bba 0fbd
000002b0: 5537 3fbd 4e05 20bd 90e2 66be bef6 31be
000002c0: 006d 6e3e 0587 59be 5b67 91be 510c 2fbe
000002d0: de92 17bd a8e1 20be cea8 41be f0f9 993d
000002e0: 592b 4b3e b8d8 81be b881 32bd c098 633e
000002f0: 5ac1 073e 9997 213e c4ff 08be a4cc 7cbe
00000300: e425 263e 141f 8f3e 5a72 5bbe e1a1 9c3d
00000310: 538a 633d 2790 7ebe 2d8a 3e3e d462 523e
00000320: 22cc b3bc c23f 023e 98f6 d5bd 93b0 d93d
00000330: cd73 6bbe 850d 58bd 9e49 993e 9425 1e3e
00000340: f0a3 65be c9e6 a5bd 350d 023e 0395 1d3e
00000350: 7ebc 6cbe 41c1 cdbd d721 523e c976 fcbd
00000360: f48e 033d d5ad 4bbd d6de 98be 06cb 84be
00000370: 6aa8 783e df13 6e3e 75ef 28be 9dcb ddbd
00000380: 5fe8 1d3e 1e5c 003e 21b3 11be d704 ec3d
00000390: 088f 4fbe 48ee 80be 7c0d f93d 5998 72be
000003a0: de0c b93d 9179 453e 981b a9bd 3569 e0bd
000003b0: 3251 3c3e 103a 4cbe 0a87 7bbe 78c2 e33d
000003c0: d3b7 6d3e 6ac1 87be 46bc 3f3e 7281 edbd
000003d0: 969f 7d3e 087c b93d 8663 99be 27d9 563d
000003e0: 5cd8 89be 8491 2a3e ae92 94be 8c2a 98be
000003f0: 2242 233e 93d0 cebc daa3 87be 4b59 f43d
-0.12801701 -0.22206846 0.036648106 -0.11659229 0.05173997 -0.026117822 0.23522213 -0.19951065
0.14439456 0.12982665 -0.20995338 -0.22171313 0.083575375 0.04514547 0.06381651 -0.20297453
0.072590515 0.05314176 -0.1521256 -0.15613924 -0.19824348 0.18970487 0.20399898 0.17054366
-0.12339688 0.2694489 0.12190285 0.24573992 -0.22322519 -0.12141773 0.18798625 -0.2875196
-0.00028740292 -0.24672748 -0.1910468 -0.10849416 0.064080775 0.2684976 -0.13199978 -0.27429074
0.29793078 -0.005702214 -0.12389544 0.06852103 0.03523522 -0.18408462 0.08878688 -0.17043814
0.11414334 0.14966008 0.08685974 -0.167428 -0.17279802 0.11626565 -0.29470024 0.21402779
-0.03413481 -0.084837586 0.26429653 -0.005984762 -0.23669612 -0.023136664 -0.16141842 0.1297584
-0.17873462 -0.0289494 -0.108928405 -0.054449055 -0.15089825 -0.07007627 0.24732353 -0.106029116
0.22520982 0.2585536 -0.015201621 0.014644409 -0.10932388 -0.12027509 -0.19939736 0.21802698
0.18304536 -0.014175563 -0.18329868 -0.11853556 0.15950441 -0.18560714 0.22530647 -0.00992657
0.1538716 -0.044219386 -0.06384885 0.15687932 -0.19736809 0.2587589 -0.24490258 -0.30170003
-0.026388763 0.22390519 0.26125422 0.101088956 -0.11221354 0.0696352 0.187233 0.09510241
0.042328347 0.30306476 -0.1421273 -0.28607017 -0.13341711 -0.21405593 -0.2572845 -0.28759453
0.17592628 -0.26428077 0.21020457 -0.044085577 0.20434095 -0.19537006 -0.26479924 0.09914842
0.15448804 -0.26274988 0.1938491 0.040147018 0.018734261 0.26759547 -0.2553264 -0.029074596
0.102705516 -0.06337902 -0.25403967 0.025310546 0.038453553 -0.15886158 0.15864612 0.073124364
0.00433079 -0.052946195 0.272211 0.25184458 0.033840835 -0.026402524 -0.04285928 -0.13444561
-0.13950345 -0.18340664 -0.077212214 -0.13349624 -0.19772248 0.009097831 0.22774136 -0.1669313
-0.117975205 0.28610715 0.19449928 0.082748204 0.20727433 -0.28669938 0.24847847 -0.08369936
0.040380437 0.21494548 -0.050382562 -0.26649708 -0.3058376 0.14588614 -0.251759 -0.053347442
-0.21434727 0.2708421 0.13782327 -0.035089653 -0.046683628 -0.03906756 -0.22547364 -0.17379281
0.23283768 -0.21242912 -0.28399166 -0.17094542 -0.037005298 -0.15711081 -0.1891205 0.07518375
0.19840755 -0.25360656 -0.04358074 0.22226238 0.13257352 0.15780486 -0.13378817 -0.24687439
0.16225392 0.27953398 -0.2143034 0.076480635 0.055551838 -0.24859677 0.18607397 0.20545512
-0.021947924 0.12719634 -0.10447425 0.10629382 -0.22993393 -0.05274727 0.29938978 0.15444022
-0.22425818 -0.081006594 0.1270035 0.15388875 -0.23118779 -0.10046626 0.20520721 -0.12327344
0.032118753 -0.049726326 -0.2985751 -0.25936145 0.24282995 0.23249768 -0.16497596 -0.10829852
0.15420674 0.1253514 -0.14228489 0.115243606 -0.20269406 -0.25181794 0.12160775 -0.23690929
0.09035657 0.19284655 -0.08257216 -0.10957567 0.18390349 -0.19944024 -0.24563232 0.11121076
0.23214655 -0.2651475 0.18724164 -0.11596955 0.24767908 0.0905686 -0.29958743 0.052453186
-0.26922882 0.16657072 -0.29018158 -0.2971996 0.15943196 -0.02524594 -0.26492196 0.11931094

sage.layer2.fc_pool.bias f4 [64]
00000000: 2830 ce3c 6007 54bc f81d 883c 78d6 613d
00000010: 409a 1fbb 3c76 2f3d 9c35 89bd 0e7a 9e3d
00000020: a030 fb3c 004c a5bc 406b ecbb a46c aa3d
00000030: e689 95bd b27a c43d da1f bfbd 8880 8a3c
00000040: 8055 0ebc 28c9 63bd d4f8 183d c06c c4bb
00000050: 04d3 f63d 90e8 a63d a070 f8bb 202b c33b
00000060: a099 fbbb 3c8d d2bd 8c07 ae3d 0055 c83b
00000070: 78c3 f83d 8ab4 de3d 02e7 d8bd 60c8 f93b
00000080: 509c 00bc 00e5 72bd 3c88 2ebd 88e4 843d
00000090: dc48 eb3d e443 743d 201d fd3d 0e5b 83bd
000000a0: 9062 873c 02a1 d7bd 9022 5cbc d015 763d
000000b0: 00f3 5ebb 4088 c7bc d034 d1bd 5066 a33c
000000c0: a8f0 f23d 1037 11bd da7e c4bd e071 5cbd
000000d0: 6cfe a63d 48ac edbc 702d e8bd 0441 48bd
000000e0: b03b 75bc 28eb 2e3d 0a9e f8bd 5cb0 e2bd
000000f0: 2026 09bc 84f9 183d 3264 813d 506d 9d3c
0.025169447 -0.012941211 0.016615853 0.055136174 -0.0024353415 0.042837366 -0.06699678 0.07738124
0.030662835 -0.020177841 -0.0072149336 0.08321503 -0.07301693 0.09593715 -0.09332247 0.016906992
-0.008687377 -0.05561176 0.037346676 -0.0059944093 0.12051967 0.081498265 -0.0075817853 0.0059560686
-0.0076782256 -0.102808446 0.08497533 0.0061136484 0.12146658 0.10874279 -0.10590936 0.0076227635
-0.007849768 -0.059300423 -0.042610392 0.064889014 0.11488506 0.059635058 0.12359071 -0.06413852
0.01652649 -0.10528757 -0.013435975 0.060079396 -0.003401935 -0.024356961 -0.10215151 0.019946247
0.11862308 -0.035452902 -0.095945075 -0.053819537 0.08153996 -0.029012814 -0.113367915 -0.04889013
-0.014967844 0.04270473 -0.121395186 -0.11068794 -0.008370906 0.03734733 0.06317939 0.019217163

sage.layer2.fc_neigh.weight f4 [128, 64]
00000000: c4b6 a93d 20f1 3f3c 68d2 acbd 622c 3fbe
00000010: 481d 0ebd 1c48 80bd e024 afbd c079 9e3c
00000020: 689d 5f3e 44b1 8a3d e0f3 563d 9492 283e
00000030: 0e9c 6dbe 0837 11bd 805f da3d 085d 0ebe
00000040: e0bf ff3c e8b0 723e f8ea 333d ac6f 3a3e
00000050: b06e 5a3e 48da f6bd b09f b9bc 284a 0cbd
00000060: ece9 a03d 280e 7fbe 1241 643e b469 aabd
00000070: 00d1 15bc 78fb ba3d e0ba 04be 0040 26bc
00000080: e041 32be d658 473e 5219 26be 8042 1a3c
00000090: 5c5f 11be bca8 823d ce7f 193e a06e 603e
000000a0: 980f c83d 183f 2e3d 0028 57bc 9ce2 633e
000000b0: 9af2 68be 54ed 0dbe 50c5 4b3d 7085 95bc
000000c0: 2ca0 a1bd 60b4 dbbd e07e 1abc b877 07be
000000d0: 2e2b 403e 10fe 77be f028 6e3d c84d 723d
000000e0: 66f9 7d3e d8e3 9e3d 9e56 193e 688c 1dbd
000000f0: 5851 7cbe e867 e53d f0b5 92bd 3084 8fbd
00000100: 549e 5f3e 40b1 1b3c 80ec 0abc ecef fd3d
00000110: 983b 723e b232 3fbe e23e 67be bc61 febd
00000120: 10f5 61be da69 29be d025 fd3c 3234 44be
00000130: 6a26 64be aa2f 36be 48b6 2fbe 08da 4f3d
00000140: 0203 413e e855 673e 18c6 e53d 00c1 a3bc
00000150: 2aa0 323e c4de c13d b4c1 e1bd 1ef1 66be
00000160: ae55 393e 1eaa 4c3e 3618 573e fc9d 41be
00000170: 1870 77be 8c53 9cbd 8c35 0f3e b613 2e3e
00000180: 60da 843d d851 f3bd 5afe 203e 4a67 76be
00000190: 1cbb dd3d 80f5 34bb 4af9 713e 60b4 f8bc
000001a0: 2223 283e 487b 8abd 1432 633e c0cf 803b
000001b0: 9cc7 803d c2c6 5f3e e89a 343d 5080 73bd
000001c0: 8011 373b 3cdf ec3d c8da fd3d 026a 2e3e
000001d0: ecd1 c1bd 30c2 483e 74e6 0a3e f8a6 a93d
000001e0: a415 a63d 9822 06be 440a 233e 260a 0b3e
000001f0: 0684 2f3e 786d 4d3d e4fe 22be 8035 933b
00000200: 5cab e8bd d017 83bc 14fe fbbd 06f2 68be
00000210: 2863 c0bd a4ac 8abd 9008 303d a4d4 cabd
00000220: fe69 6ebe 4095 c53b 286b 97bd 68f8 de3d
00000230: ea98 67be 1030 9abc 26c7 30be 803b 103d
00000240: 3015 3a3e 1efd 7dbe fe81 40be f8e8 e8bd
00000250: 80d9 353b 008b 643e f871 963d 742f a33d
00000260: 80d6 a9bc 4859 53bd 40bb d2bc 407f 4dbe
00000270: 406e bcbd 96d7 43be 14f5 b3bd 40b5 953b
00000280: 948c 93bd ca2f 353e c060 6abe 8422 f4bd
00000290: b4e7 90bd 38f2 43be 665e 22be ae4e 233e
000002a0: 9ecc 3b3e 2689 2abe 78bf 003d d844 68be
000002b0: f045 36be c683 31be 5862 10bd 52d7 22be
000002c0: ecfb 0e3e 9a72 3bbe 784e 0bbe c8f0 b4bd
000002d0: f241 0d3e 0c78 e73d 0054 6b3c 68f8 74bd
000002e0: e0cd 76bd 8849 673e d6cc 67be 40b1 443d
000002f0: 0ebd 31be e07e 163c 509e c03d eeb3 633e
00000300: 080e 843d 4843 f33d 48f8 92bd 78cc 56bd
00000310: d67f 29be 54e7 34be bc65 94bd 6808 423d
00000320: f401 b13d f823 fabd 60d5 1bbc bce8 b33d
00000330: 4e78 5fbe 94a4 f33d 8aa9 513e 70c4 a3bd
00000340: a431 53be 0690 7d3e 0053 c23c 2a80 183e
00000350: 70b0 d03c b0cb 15be 0206 12be fca0 72be
00000360: c49d 203e 80a9 303e 0804 ae3d 1ea3 21be
00000370: a4b3 f53d 00ca 173e c2f1 7fbe 6652 0b3e
00000380: de8d 4c3e b25c 37be 56aa 72be 5449 18be
00000390: f07b b63c 309e 4dbe 584f 9bbd 2c26 283e
000003a0: ac4f 5f3e 00fa 773a 2cba 03be ea8b 673e
000003b0: d042 67be a4c9 54be 442b 68be 2850 cfbd
000003c0: d8e8 10be 444a 1fbe 80dc 95bc 0e39 753e
000003d0: 28b7 0ebe c492 98bd 2866 dfbd 40a5 3abc
000003e0: 00df 48be e05d 6d3c 72d9 3ebe 689c c8bd
000003f0: 2cf1 74be 08b1 083d 0061 7e3d ceb6 11be
0.08286813 0.0117152035 -0.08438569 -0.18669274 -0.034695894 -0.06263754 -0.08551955 0.019345164
0.2183739 0.06772092 0.05247867 0.16462165 -0.23204061 -0.035452873 0.106627464 -0.13902676
0.031219423 0.23700297 0.043925256 0.18206662 0.21331286 -0.120533526 -0.022659153 -0.03425041
0.07857117 -0.24907744 0.22290447 -0.083209425 -0.009144068 0.09129995 -0.12961912 -0.010147095
-0.17407942 0.19467482 -0.16220596 0.009415269 -0.14196533 0.0637984 0.1499016 0.219172
0.09768599 0.04254064 -0.013132095 0.22254413 -0.22748795 -0.13860065 0.04974872 -0.018252105
-0.078918785 -0.10727763 -0.009429663 -0.13229263 0.18766472 -0.24218011 0.05814451 0.05915621
0.24802169 0.077583015 0.14974448 -0.03846398 -0.24640405 0.11201459 -0.07163608 -0.07007635
0.21837741 0.009502709 -0.008479238 0.12399277 0.23655546 -0.18671682 -0.22582582 -0.12420985
-0.2206614 -0.16544285 0.03090182 -0.19160536 -0.22280279 -0.1779162 -0.17159379 0.05074504
0.18848804 0.22591364 0.11219424 -0.01998949 0.1744391 0.09466317 -0.11023274 -0.22552916
0.1809909 0.1998677 0.2100533 -0.18907923 -0.24163854 -0.07633123 0.1398527 0.16999707
0.06486964 -0.11880845 0.15722027 -0.24062839 0.10826704 -0.002761215 0.23630252 -0.030359447
0.16419652 -0.06761795 0.22187072 0.0039310157 0.062880725 0.21853164 0.044093043 -0.05944854
0.0027934015 0.11566016 0.12395245 0.17032626 -0.094638675 0.19605327 0.13564473 0.082838
0.08109596 -0.13099134 0.15921885 0.1357809 0.17140207 0.050153226 -0.15917546 0.0044924617
-0.11360809 -0.016002566 -0.12304321 -0.22748575 -0.093939126 -0.0677121 0.042976916 -0.09903839
-0.2328262 0.006029755 -0.07393485 0.108872235 -0.22616926 -0.018821746 -0.17263469 0.035212994
0.18172145 -0.24803588 -0.18799588 -0.1137256 0.0027748048 0.2231865 0.073459566 0.07968035
-0.020732164 -0.051598817 -0.025724053 -0.20068073 -0.09200716 -0.19125208 -0.08786979 0.004568726
-0.072045475 0.17694011 -0.2288847 -0.11920646 -0.07075444 -0.19135368 -0.15856323 0.15947983
0.18339774 -0.1665388 0.0314326 -0.22682512 -0.17800117 -0.17335424 -0.035250038 -0.1590245
0.13963288 -0.18305436 -0.13604152 -0.08834988 0.13794687 0.11302194 0.014363289 -0.05980721
-0.06025493 0.22586644 -0.22636732 0.0480206 -0.17357275 0.009185523 0.09405196 0.22236606
0.06447989 0.11878067 -0.07176262 -0.05244109 -0.16552672 -0.1766637 -0.07245967 0.047371298
0.08642951 -0.12213892 -0.009511322 0.08784625 -0.21823236 0.11896625 0.2047483 -0.07996452
-0.20624405 0.24761972 0.023721218 0.1489264 0.025474757 -0.14628482 -0.14260104 -0.23694223
0.15685183 0.17252159 0.08496863 -0.1578488 0.11997154 0.1482315 -0.24994567 0.13605651
0.19975993 -0.17906454 -0.2369779 -0.14871722 0.022275895 -0.20079875 -0.07583493 0.16420811
0.21807736 0.0009459555 -0.12863988 0.22611967 -0.2258408 -0.20780045 -0.22672755 -0.101227105
-0.14151323 -0.15555674 -0.01829362 0.23947546 -0.13937056 -0.07449868 -0.10908157 -0.011391938
-0.19616318 0.014487714 -0.18637636 -0.09795457 -0.23920125 0.033371955 0.062104225 -0.1422989

sage.layer2.fc_self.weight f4 [128, 64]
00000000: 7a54 63be 6a34 6c3e 181b e5bd 6c6c a7bd
00000010: 2461 0fbe 2882 7cbe e0f7 a03c 607d c4bd
00000020: 98a5 693e 24af b3bd 7664 73be 4054 34bc
00000030: beb0 493e c078 1c3c 389b 703d 5073 0c3e
00000040: d026 fdbd b8c6 ae3d 4a6d 6bbe 1af8 3abe
00000050: 40b2 b03c d679 6c3e 3e21 123e 4818 62be
00000060: e0dd 693e 54d0 5c3e 4023 dd3d d62b 3d3e
00000070: dee4 1fbe 7efb 7dbe bef6 123e 7c09 123e
00000080: 229c 683e 684a 5d3e 10ac dfbc 441b f9bd
00000090: 402e a53d d83d c13d 7079 ae3c 36a4 67be
000000a0: b8d5 c43d 341f 863d 8c5a 0e3e 0489 ccbd
000000b0: 1221 643e a0bd 02bc f8dc 4ebe bc36 cc3d
000000c0: b43d 563e 1024 9cbc 3009 0abd 1e95 47be
000000d0: 00e4 bd3c dc19 ffbd 00a6 b33d 0026 2d3a
000000e0: 308b a93d 1495 d73d 14c1 af3d a02f d33d
000000f0: ccac 6fbe c0d1 6d3d ee61 6c3e a093 35bc
00000100: f470 60be 98f0 dd3d 6002 ed3d 20b4 0abd
00000110: b041 cc3c 188e 2f3e 16f7 563e dee6 023e
00000120: 22d4 5cbe e21a 753e c08b 153d e681 66be
00000130: be6d 2abe f076 533e 5e5c 063e 4208 4fbe
00000140: 76fa 753e 7e9b 623e e0b4 583e c0dd f3bb
00000150: 4c89 543e 50be 06bd fcdb 7fbe 500e d63d
00000160: a469 83bd a855 163e 0c9a 7b3e 4001 09bd
00000170: 5cba 5a3e e4de 4bbe 922b 7abe 00a6 bfbd
00000180: bc87 48be de78 32be a058 34bd b2fd 6ebe
00000190: f072 243d cc4b bcbd 9607 483e 408f 45be
000001a0: 1ea9 35be 8067 e73b b627 02be e2f9 33be
000001b0: 4003 6dbe ba75 60be 80c2 e83c 5872 003e
000001c0: 00a7 453b 0cc1 2fbe 9051 18bd 40e9 89bb
000001d0: 107f 94bc 5088 6cbd 0081 083d 7020 c1bd
000001e0: 2892 5bbd 70e7 a7bd d8e3 83bd f01b 01be
000001f0: 889d 1f3d 38c5 59be 74ed 69be c875 09bd
00000200: 1a21 6abe 2e44 3b3e 824f 10be a0d9 2dbc
00000210: 6ce7 b33d 128b 78be 600b b73c da24 4bbe
00000220: 0897 28be 1007 abbd e801 82bd 9ebe 263e
00000230: d2a7 6a3e e89f 09bd b037 60be 5cfb 163e
00000240: 4096 3ebe 8068 d53c 005f 1d3c 58a4 60bd
00000250: 041f ccbd 1229 693e 2cfc 363e c81c 31bd
00000260: 34cc a53d 9821 b9bd 5ceb fdbd ecaa db3d
00000270: e89e 24bd 2452 553e a830 0b3d 4c55 e83d
00000280: 4c49 0fbe 109b ecbd 0085 c9bb 0e50 003e
00000290: 1c48 05be 40f9 2f3c 50f1 cb3d 706d c8bc
000002a0: 2073 2e3e 800a cabd 70a7 ea3d 5481 6b3e
000002b0: 8097 65bc 50a1 37be 564a 03be 9cdf 663e
000002c0: 40f2 f6bb a8d1 36bd c82b 673e 2428 073e
000002d0: e09e 75bd 6c48 bfbd a8bb 01be 7ef6 56be
000002e0: 1002 183e e0e8 56be 401e 1c3d 4038 8d3c
000002f0: d456 383e 04ba 8d3d a230 79be b235 7bbe
00000300: 3c82 5dbe 8ed7 2c3e fcda 44be 6042 6fbd
00000310: 0671 3e3e 485d 66be 903c f13d 160f 213e
00000320: 1896 5d3d b661 3bbe c00d 1fbd c4b5 93bd
00000330: 5aaf 293e 1420 ab3d 4098 3d3e 7c66 fc3d
00000340: 241a 7f3e a0c6 ca3c 20a5 7a3d 04e7 6ebe
00000350: 6404 57be 409b 82bb 56c1 25be e021 1d3c
00000360: 1837 363d 8cb8 e23d 2ad4 6abe f8ad e3bd
00000370: 34f7 823d 661a 72be c02f 223e 522f 71be
00000380: 160a 7b3e 08c5 cdbd f858 aebd ccc6 c53d
00000390: f2d7 5f3e c445 153e 38d1 473d ac2d 7bbe
000003a0: de5a 533e e001 32bd a8a5 1f3e 888a 9b3d
000003b0: 1a0a 23be c8b7 443e 4883 4b3e a05f 733c
000003c0: 72ee 3d3e dedd 1f3e 6839 38be 8468 d43d
000003d0: 6a06 44be 3003 6cbe b2fe 763e 0e9d 7dbe
000003e0: 02bd 473e 40c7 3d3d 6078 19be c86d 16be
000003f0: 141c e3bd 04d6 cd3d 684f 5abd a28b 2dbe
-0.22200194 0.2306687 -0.11186808 -0.08174977 -0.140019 -0.24659026 0.019649446 -0.09594226
0.22817075 -0.0877364 -0.23768792 -0.011006415 0.19696328 0.009550273 0.058741778 0.13715863
-0.123609185 0.08533996 -0.22990909 -0.18258706 0.021569371 0.23093352 0.14270493 -0.22079575
0.22838545 0.21563846 0.10797739 0.18473753 -0.1561465 -0.24802968 0.14351937 0.1426143
0.2271581 0.21610415 -0.027303725 -0.12163404 0.08065462 0.09435624 0.02129814 -0.22621235
0.09611076 0.0654892 0.13901728 -0.09987071 0.2227824 -0.00797978 -0.2020148 0.09971377
0.20921975 -0.019060165 -0.033700168 -0.19490477 0.023180008 -0.12456104 0.08771896 0.0006605089
0.08278501 0.10526481 0.085817486 0.10311818 -0.2340576 0.05806136 0.23084232 -0.01108256
-0.21918088 0.10836905 0.115727186 -0.033863187 0.024933666 0.17144048 0.20992693 0.12783381
-0.21565297 0.23936036 0.03651023 -0.2251049 -0.16643426 0.2065084 0.13121173 -0.20217994
0.24021325 0.22129628 0.21162748 -0.007442206 0.207555 -0.03289634 -0.24986261 0.10451949
-0.06416634 0.14681113 0.24570483 -0.033448458 0.21360153 -0.19909245 -0.24430683 -0.09357834
-0.19583029 -0.1742892 -0.044029832 -0.23338965 0.040148675 -0.091941446 0.19534144 -0.19292927
-0.17740294 0.0070618987 -0.12710461 -0.17575791 -0.23145771 -0.21919909 0.028413057 0.12543619
0.0030159354 -0.17163485 -0.03718716 -0.004208714 -0.018126994 -0.057747185 0.03332615 -0.09430015
-0.053606182 -0.0819844 -0.06439942 -0.12608314 0.038968593 -0.21266639 -0.22844487 -0.03355959
-0.2286419 0.18287727 -0.1409283 -0.010610968 0.087843746 -0.24271801 0.022344291 -0.19838277
-0.16463864 -0.083509564 -0.0634802 0.16283652 0.22915581 -0.033599764 -0.21896243 0.14744323
-0.18612003 0.026050806 0.009605169 -0.05484423 -0.09966853 0.22769573 0.17869633 -0.04324034
0.08095589 -0.090396106 -0.12398407 0.1072596 -0.040190607 0.20832115 0.03398195 0.11344394
-0.13992804 -0.11553013 -0.006149888 0.12530538 -0.13015789 0.010740578 0.09958136 -0.024466246
0.17036104 -0.09865284 0.114577174 0.22998554 -0.014013171 -0.1793263 -0.12821326 0.22546238
-0.0075362027 -0.044633538 0.22575295 0.13198906 -0.059965968 -0.09339985 -0.12669241 -0.20992467
0.14844537 -0.20987272 0.038114786 0.017238736 0.18001872 0.06920245 -0.24334958 -0.24532202
-0.21631712 0.16879103 -0.19224161 -0.05841291 0.18597803 -0.22496521 0.117791295 0.15728411
0.05409822 -0.18298993 -0.038831472 -0.072124034 0.16570798 0.08355728 0.1851511 0.12324235
0.24912316 0.024752915 0.06119263 -0.23330313 -0.20997769 -0.0039857924 -0.16187033 0.009590596
0.044486135 0.11070356 -0.22932497 -0.11117166 0.063948065 -0.23642883 0.15838528 -0.23553208
0.24515566 -0.10047346 -0.08513063 0.09657058 0.2185972 0.14577395 0.04878351 -0.24529141
0.20640132 -0.04345882 0.15590537 0.07594782 -0.15921822 0.19210732 0.19874299 0.014854342
0.18547991 0.1561198 -0.17990649 0.10371497 -0.19143072 -0.23048091 0.24120596 -0.24766943
0.19505695 0.046332598 -0.14987326 -0.14690316 -0.1108934 0.10050586 -0.053298384 -0.16947797

sage.layer2.fc_self.bias f4 [128]
00000000: 5829 81bd 52db ff3d 54f7 37bd f008 193d
00000010: 78a9 133d 38fb 203d 80da 0f3d f08c 9a3d
00000020: bc2f 0f3d 30ed 85bd 5ca8 74bd 807a 903c
00000030: 0a84 8dbd d82d 033d 2a5a dc3d 0878 bc3c
00000040: 54b0 2e3d c0ae 74bd 80e1 65bd 0cf6 243d
00000050: 4002 fabb e8dd fc3c fe94 8cbd 164e efbd
00000060: c0f4 a7bc 3644 9bbd f6f0 853d de0e 8c3d
00000070: 00d6 5c3a a84c 223d 1c99 063d 14a4 e83d
00000080: b088 eabc 6663 df3d 18d6 2fbd dce1 d7bd
00000090: a0ca 0cbc 547e b33d 16f2 de3d f062 f03c
000000a0: 7a2c b3bd 8ed5 f1bd ee82 93bd 8694 e83d
000000b0: e88a fa3c 4086 183d fc05 2cbd 94eb b0bd
000000c0: 80ea db3b 4675 a93d 1230 d3bd 7822 b5bd
000000d0: f020 04bd 5a0c b23d 0034 cfb9 0013 37ba
000000e0: e2f7 c9bd 7c64 9a3d 8c58 643d 32c8 aa3d
000000f0: a81a 83bc 7e4c 9ebd 6c03 bf3d f826 743d
00000100: acd8 fe3d 6e02 9bbd 00a0 063b bcd4 3cbd
00000110: 48d4 b23c 004c e43a 68d9 d6bd 48e9 c23c
00000120: dcd0 a23d 6e06 ad3d 6a66 803d c050 21bc
00000130: 00aa 0abd c038 373c ca44 903d 30f8 5cbc
00000140: c040 273b deef f03d 4807 c53d f66f b53d
00000150: ec5b 97bd 943e 633d 10b4 c9bd c8f8 b03d
00000160: 1272 c9bd fcd1 48bd d85b a43c ec55 6abd
00000170: 3848 1f3d 1090 1bbc 707e eebd 767c 8bbd
00000180: 32a0 ed3d 40ad 1d3d 504b 8c3d e0d0 683d
00000190: 5c76 6fbd 5c7e 9f3d ca9a f33d f4d6 2cbd
000001a0: 006b 983c 5c8b 0dbd a892 e7bc c056 d2bb
000001b0: c2d8 ebbd a601 d7bd cc52 a63d 0232 c9bd
000001c0: d813 d0bc c8dc e6bc c015 8b3c e89b f13d
000001d0: 1c6f da3d 540f 3ebd 6283 e33d b686 bcbd
000001e0: fe8b cd3d b8b7 dfbc 1a91 e03d f4a4 9fbd
000001f0: 94a8 833d f8c4 69bd 1c3c f63d 1866 463d
-0.06306714 0.12493004 -0.044913605 0.03736204 0.03605029 0.03930208 0.035120487 0.07546413
0.034957632 -0.065393806 -0.059730873 0.017636538 -0.0690995 0.032026142 0.10759385 0.023006454
0.04264863 -0.059736967 -0.056123257 0.04027371 -0.0076296628 0.030867532 -0.068643555 -0.116848156
-0.020502448 -0.075813696 0.065401 0.06838773 0.00084242225 0.039623886 0.03286086 0.113594204
-0.02862963 0.109076306 -0.042928785 -0.10541126 -0.008593231 0.087643296 0.10886018 0.029344052
-0.087487176 -0.118083104 -0.07202707 0.113564536 0.030583814 0.037237406 -0.041997895 -0.08638683
0.006711304 0.08274321 -0.10311903 -0.08844465 -0.032257974 0.08693762 -0.0003952086 -0.0006983727
-0.09861733 0.07538697 0.055748507 0.083389655 -0.016003922 -0.077294335 0.093268245 0.059607476
0.12443671 -0.07568823 0.0020542145 -0.046101317 0.02182974 0.0017417669 -0.10490686 0.023792878
0.07949993 0.08448492 0.06269534 -0.009845912 -0.03385353 0.011182964 0.070443705 -0.013486907
0.0025520772 0.11764501 0.096205294 0.088592455 -0.073905796 0.0554796 -0.09848797 0.08641201
-0.0983621 -0.04902838 0.020063326 -0.057210848 0.038887233 -0.009494796 -0.1164521 -0.068108484
0.116028205 0.038495302 0.06850302 0.056839824 -0.058462486 0.07787773 0.11894758 -0.042197183
0.01860571 -0.03455673 -0.028268173 -0.006419033 -0.11515953 -0.10498361 0.08121261 -0.09823991
-0.025400087 -0.028181449 0.016978145 0.11797315 0.10665724 -0.046401337 0.11109044 -0.092053816
0.10036467 -0.027309284 0.10965176 -0.07795134 0.06428638 -0.05707261 0.12023184 0.048437208
