Audit-log_Analysis/code/GNN/training/graphSAGE_exp1-2/model3_initial(graphsage)/initial_weight.pth (torch, 837499 bytes, 14 tensors)

layer1.lstm.weight_ih_l0 f4 [200, 50]
0	0x3c2d2668	0.010568239
1	0x3c8ef84f	0.017452387
2	0xbd14de00	-0.03634453
3	0x3de2f7a3	0.11082389
4	0x3df4b692	0.11948885
5	0x3dd7aea6	0.105313584
6	0x3d974bd9	0.07387514
7	0xbca37e65	-0.01995773
8	0x3c762c0c	0.01502515
9	0xbe07d38b	-0.13264291
10	0xbd05196d	-0.03249495
11	0xbd834f7d	-0.064116456
12	0xbd481003	-0.048843395
13	0xbe0c5635	-0.1370476
14	0xbddb4b9b	-0.1070778
15	0xbe0c00d7	-0.13672195
16	0x3e0bb46b	0.13643043
17	0x3ddaf875	0.10691921
18	0x3d5feed9	0.054671142
19	0x3caff3b2	0.021478508
20	0x3d3ffaf2	0.04687018
21	0xbe0ce416	-0.13758883
22	0xbcfea7f6	-0.03108595
23	0x3df54a56	0.11977069
24	0xbd5c03e7	-0.05371466
25	0xbb30a259	-0.0026952235
26	0xbb951be3	-0.0045504435
27	0xbb39b2cb	-0.0028335329
28	0x3da03ddd	0.078242995
29	0xbda855a5	-0.082194604
30	0xbd8fb4ba	-0.07016893
31	0xbe014484	-0.12623793
32	0x3d6c7ca6	0.05773606
33	0x3d41ce34	0.04731579
34	0x3ce8b9e3	0.02840895
35	0xbb237b64	-0.0024945373
36	0x3d915d04	0.070978194
37	0x3d75f55f	0.060048457
38	0xbc1f6d5b	-0.009730662
39	0xbc162422	-0.009163888
40	0x3cd69310	0.026193172
41	0xbc065f67	-0.008201457
42	0x3cf55047	0.029945506
43	0xbd10e6f2	-0.035376497
44	0x3df3b864	0.11900404
45	0x3cb9f35a	0.022699047
46	0x3dc5ac5b	0.09652015
47	0xbdb142b4	-0.08655301
48	0xbdfbf822	-0.12303187
49	0x3d6c8201	0.05774117
50	0xbd625b8b	-0.055263083
51	0xbcf80b1c	-0.030278735
52	0x3c621578	0.013799064
53	0x3ddc01ed	0.10742555
54	0x3e01154b	0.12605779
55	0x3d822d2f	0.06356274
56	0x3dee9560	0.11649585
57	0xbdcad83a	-0.09904523
58	0x3dea607f	0.114441864
59	0xbdba1733	-0.09086456
60	0xbdd3f396	-0.10349195
61	0xbdf7b41c	-0.120949
62	0x3de1350d	0.10996447
63	0xbe00cdfc	-0.12578577
64	0x3da2a0fb	0.07940861
65	0x3c6fc980	0.014635444
66	0x3dc26f97	0.0949394
67	0xbd9dbc95	-0.07701985
68	0xbc48e5a5	-0.012261783
69	0xbcce0aa2	-0.025151554
70	0xbd8d4f74	-0.0689992
71	0xbe047fdf	-0.12939404
72	0x3d308127	0.04309192
73	0xbd1ede6f	-0.038786348
74	0xbd62be5d	-0.055357326
75	0xbc8042a5	-0.015656779
76	0xbd7427f7	-0.059608426
77	0x3b7e8437	0.003883613
78	0xbdc0cda8	-0.09414226
79	0x3dc0f582	0.09421827
80	0xbd979b2d	-0.07402644
81	0xbda77798	-0.081771076
82	0x3cb4f346	0.022088658
83	0xbbca1e66	-0.0061681746
84	0x3dba3f56	0.090941116
85	0x3d7719c2	0.0603273
86	0x3e0d1ea9	0.13781227
87	0x3dedeecd	0.11617813
88	0xbb2ec063	-0.0026664964
89	0xbdba0933	-0.09083786
90	0x3dafad20	0.08577943
91	0x3cedbc39	0.029020416
92	0x3e0e3dbc	0.13890737
93	0x3d996870	0.07490623
94	0x3d551bbb	0.0520284
95	0x3d341445	0.043964643
96	0xbbd5996b	-0.006518533
97	0xbcd45d57	-0.025923414
98	0x3c0d3e67	0.008620835
99	0xbd9d6585	-0.07685379
100	0xbda583a9	-0.08081753
101	0x3dc47bbe	0.095939144
102	0xbe05d994	-0.1307128
103	0x3d119d2b	0.035550278
104	0xbd235d84	-0.039884105
105	0x3e0d5dd2	0.13805321
106	0x3d544223	0.051820885
107	0x3d1c466d	0.0381531
108	0xbdfe2353	-0.12409081
109	0x3dd72fa2	0.10507132
110	0xbd247ce6	-0.040158175
111	0xbd4129a9	-0.04715887
112	0xbd94499f	-0.072406046
113	0xbd82a6e5	-0.06379489
114	0x3d0bcfa5	0.034133572
115	0xbcccaa90	-0.024983674
116	0x3dc43528	0.09580451
117	0xbe01b0e3	-0.12665133
118	0x3d45cd3f	0.04829144
119	0xbdf011bd	-0.11722133
120	0xbd81d12c	-0.063387245
121	0xbd24532a	-0.040118374
122	0x3de6c64e	0.11268292
123	0x3ca4eb8b	0.020131847
124	0xbcf24241	-0.029572608
125	0x3d93b19c	0.07211611
126	0x3d35b9f0	0.044366777
127	0xbdc5f5e5	-0.09666041
128	0xbddf0005	-0.108886756
129	0xbe0ca276	-0.13733849
130	0xbe00833a	-0.12550059
131	0x3d279716	0.04091557
132	0xbdc335f4	-0.09531775
133	0x3d988ba7	0.074485116
134	0x3e0c9515	0.13728745
135	0x3d92bd13	0.07164969
136	0xbcdaee07	-0.026724828
137	0xbe05dd1e	-0.13072631
138	0xbd268258	-0.04065165
139	0x3d0723b7	0.032993045
140	0x3ddfebda	0.10933657
141	0xbcca9376	-0.024728518
142	0xbd431b9a	-0.047633745
143	0x3d5e215a	0.054231025
144	0xbdbeb295	-0.093114056
145	0xbd9b0b98	-0.07570571
146	0xbde11e4f	-0.10992109
147	0xbd8b21a0	-0.06793523
148	0xbe098a3b	-0.13431637
149	0xbdc0dd38	-0.09417194
150	0xbd62788e	-0.05529075
151	0x3d652606	0.055944465
152	0x3d2033ce	0.039111905
153	0x3d7220d3	0.059113335
154	0xbdb8882c	-0.09010348
155	0x3d8af7b6	0.06785528
156	0xbd88e79e	-0.066848025
157	0x3e107847	0.14108382
158	0x3d861a49	0.06547982
159	0xbd9e658b	-0.077342115
160	0x3d8ec945	0.06971983
161	0xbdbd6504	-0.09247783
162	0xbe101391	-0.14069964
163	0x3cc93d81	0.02456546
164	0x3b60b762	0.0034288992
165	0x3d0040b4	0.031311706
166	0xbcf636dd	-0.030055458
167	0xbcdf7539	-0.027277576
168	0xbcca92f7	-0.024728281
169	0x3d4ee8ce	0.05051499
170	0x3e0b2f6a	0.13592306
171	0x3d2371cf	0.03990346
172	0xbcb8ec4e	-0.022573616
173	0x3e0ebfbf	0.13940333
174	0xbdaeb053	-0.08529725
175	0xbad160f6	-0.0015974331
176	0xbdd4beca	-0.103879526
177	0x3cc097e8	0.023509935
178	0xbd5cf6c7	-0.053946283
179	0xbd747bb9	-0.059688304
180	0xbd61af50	-0.05509883
181	0x3ca80a9c	0.020512871
182	0x3ded30a0	0.1158154
183	0x3d346c97	0.04404887
184	0x3cd6e53a	0.02623235
185	0x3dcd97d1	0.10038722
186	0x3de158f5	0.11003295
187	0xbc6d8df2	-0.014499174
188	0xbe0c141f	-0.1367955
189	0x3ddc2a04	0.10750201
190	0xbd1b2b12	-0.037882872
191	0x3de9d904	0.114183456
192	0xbd361574	-0.044454053
193	0xbdc3f52e	-0.09568249
194	0x3c6590d9	0.014011585
195	0xbdb7077a	-0.08936973
196	0xbcf2075a	-0.029544521
197	0x3c9709f2	0.01843736
198	0x3de42fd1	0.11141933
199	0xbdd08f30	-0.10183561
200	0x3db380f9	0.08764834
201	0xbd1f77d2	-0.03893263
202	0x3d4417b0	0.047874153
203	0xbd7bca00	-0.06147194
204	0xbde237bd	-0.110457875
205	0x3b1badac	0.002375464
206	0xbd54cbf3	-0.051952314
207	0x3c645806	0.013937002
208	0x3e0f276e	0.13979885
209	0x3d85d1b5	0.06534139
210	0x3e05cbab	0.13065974
211	0x3dc28fc1	0.09500075
212	0xbcdeecca	-0.02721252
213	0xbc829d62	-0.015944187
214	0x3c289c58	0.0102911815
215	0x3d05a586	0.03262856
216	0xbd5f5bed	-0.054531027
217	0xbd498104	-0.049195305
218	0x3d191f3e	0.03738331
219	0xbdc5cc56	-0.096581146
220	0xbda55ebe	-0.08074711
221	0x3c5841de	0.013199298
222	0xbdb4c4a4	-0.08826569
223	0xbd50b06a	-0.05094949
224	0xbcacaf66	-0.02107973
225	0xbe07e4bb	-0.13270847
226	0x3dc6ce15	0.09707276
227	0x3daa39d6	0.083118126
228	0x3d4d5a99	0.05013523
229	0xbda0b2d7	-0.07846611
230	0xbd340bc0	-0.04395652
231	0xbd7ae7f0	-0.06125635
232	0xbdbd896e	-0.09254728
233	0xbdbcec6b	-0.09224781
234	0x3df149eb	0.11781677
235	0xbdd5e7c0	-0.104445934
236	0xbdda2070	-0.10650718
237	0xbe00c163	-0.12573771
238	0x3d7f3370	0.062304914
239	0xbe0514a2	-0.12996152
240	0x3c9b45b1	0.01895413
241	0x3cbd2c03	0.023092275
242	0x3d3b8720	0.045783162
243	0x3e078e45	0.13237865
244	0x3de47831	0.11155737
245	0x3da5efa5	0.08102349
246	0x3dddaaee	0.10823618
247	0x3cf42370	0.029802054
248	0xbd5bc319	-0.053652856
249	0xbda6cd28	-0.08144599
250	0xbdfb2eec	-0.12264809
251	0xbd11b247	-0.03557041
252	0x3dac4fec	0.084136814
253	0xbe0189bc	-0.12650198
254	0x3d13b73e	0.036063425
255	0xbdc39bf4	-0.0955123

layer1.lstm.weight_hh_l0 f4 [200, 50]
0	0xbd31f031	-0.043441955
1	0x3dc663ce	0.09687005
2	0xbdb4b300	-0.08823204
3	0xbd27e0e4	-0.040985957
4	0x3d08404a	0.033264436
5	0xbdf21757	-0.11820858
6	0x3d1dcde5	0.038526434
7	0x3dcbbeee	0.09948526
8	0xbd49e4b8	-0.04929039
9	0xbc6dddfd	-0.014518258
10	0x3dce2174	0.100649744
11	0xbd3b8ec3	-0.045790445
12	0x3dc478f1	0.0959338
13	0x3d6b3df9	0.05743215
14	0x3e103df9	0.1408614
15	0xbd9eaad5	-0.077474274
16	0xbddf662e	-0.10908161
17	0x3cccbe0c	0.024992965
18	0xbe076a15	-0.13224061
19	0x3d27915c	0.04091011
20	0x3e07ded0	0.1326859
21	0x3d899abc	0.06718966
22	0x3dc4e31f	0.096136324
23	0xbd2cd473	-0.042194795
24	0xbe0a3dd7	-0.13500153
25	0x3dcac8b9	0.09901566
26	0xbd855e83	-0.06512167
27	0x3d337605	0.043813724
28	0xbc41f686	-0.011838561
29	0xbbf7562a	-0.0075481134
30	0x3d994796	0.07484357
31	0xbe08760e	-0.13326284
32	0xbe07de65	-0.1326843
33	0x3e06064f	0.13088344
34	0x3d86ec9f	0.06588101
35	0xbdf7d9b1	-0.12102068
36	0x3cf35043	0.029701358
37	0xbd8f07ff	-0.06983947
38	0x3d9eeba1	0.077597864
39	0x3e02e0c5	0.12781055
40	0x3dd5e986	0.10444932
41	0x3c46d966	0.012136793
42	0xbdb1d3d9	-0.08682985
43	0x3d1d6cdd	0.0384339
44	0xbdc47259	-0.095921226
45	0x3d8fb775	0.070174135
46	0x3d974e37	0.07387965
47	0xbd9fa886	-0.07795815
48	0x3d109fd4	0.035308674
49	0xbdc987e9	-0.09840376
50	0xbcfa6f92	-0.030570779
51	0x3dd0cc46	0.10195212
52	0xba310089	-0.0006752094
53	0xbdbae30f	-0.09125339
54	0x3cbecd08	0.023291126
55	0x3ca8b8ce	0.020595934
56	0x3df78153	0.120852135
57	0x3c5cc45c	0.01347455
58	0xbd3ca70b	-0.046057742
59	0x3c069ed5	0.008216579
60	0x3c367c25	0.011137997
61	0x3d9ed8e2	0.07756211
62	0xbdc9cbbb	-0.09853312
63	0xbcfc8c79	-0.030828701
64	0x3b603394	0.003421043
65	0x3d06b5ac	0.0328881
66	0xbdc24da6	-0.094874665
67	0x3c9cbde8	0.019133523
68	0x3c9f06a6	0.01941235
69	0x3e07063a	0.13185969
70	0xbcd41346	-0.025888097
71	0xbdaf17df	-0.08549475
72	0x3d6abd03	0.057309162
73	0xbda6cc63	-0.081444524
74	0xbdf2bb5d	-0.11852143
75	0x3d2e9ae0	0.04262817
76	0xbba2f9fd	-0.0049736486
77	0xbac82d72	-0.0015272333
78	0x3c1944b8	0.009354763
79	0x3ddf1e74	0.1089448
80	0xbc0d5b0a	-0.008627662
81	0x3d893d1d	0.067011096
82	0xbc9f9b24	-0.019483157
83	0xbd9947fb	-0.07484432
84	0x3c9494de	0.018137392
85	0x3d1aff04	0.037840858
86	0xbdf4bf2c	-0.11950526
87	0xbd0762c1	-0.033053163
88	0xbdeb36f9	-0.114850946
89	0x3cc4a57b	0.024004688
90	0xbdaa58ee	-0.08317743
91	0xbdcc9342	-0.09989025
92	0xbcd7f92d	-0.026363933
93	0xbce1baed	-0.027554953
94	0xbda0f475	-0.078591265
95	0x3dd06da7	0.101771645
96	0xbd60e5d7	-0.054906692
97	0xbcd87683	-0.026423698
98	0x3d862832	0.065506354
99	0xbd84c75e	-0.06483339
100	0x3d5cabd7	0.053874817
101	0xbd4b9f47	-0.049712446
102	0x3e05b686	0.13057908
103	0x3ccba5c9	0.024859326
104	0xbdb7fe88	-0.08984095
105	0xbd0ea51e	-0.034825437
106	0x3dbd8eee	0.09255777
107	0x3daf5ee7	0.08563023
108	0x3cb912bd	0.022591943
109	0x3e0a4c72	0.13505724
110	0xbdca3a52	-0.09874405
111	0xbdb11d63	-0.08648183
112	0x3dbb06e2	0.09132172
113	0xbd07632d	-0.033053566
114	0xbda509a2	-0.08058478
115	0xbc79e3d0	-0.015252069
116	0x3dca216e	0.098696575
117	0x3b1e9d78	0.0024202745
118	0xbe0e17bb	-0.1387624
119	0xbc68a7c0	-0.014200151
120	0xbe0cd8f5	-0.13754638
121	0xbda32c6c	-0.07967457
122	0xbdac6273	-0.08417215
123	0x3dae4acd	0.08510361
124	0x3d414d90	0.04719311
125	0x3e0b738c	0.13618296
126	0x3dda7593	0.10666957
127	0x3df1c894	0.11805835
128	0xbdb46edc	-0.08810207
129	0x3d34697f	0.04404592
130	0xbdf4562a	-0.11930497
131	0xbccfc7e6	-0.025363874
132	0x3e00c769	0.12576069
133	0x3dd293e6	0.10282116
134	0x3cd11eb4	0.025527336
135	0x3dd575a6	0.1042283
136	0x3ccfb8a9	0.025356608
137	0xbd566234	-0.052339748
138	0x3d55a6a9	0.052160893
139	0xbd2eba40	-0.04265809
140	0xbc32e96e	-0.010919912
141	0xbde6d692	-0.11271395
142	0xbdf3858b	-0.11890706
143	0x3d920ee8	0.071317494
144	0xbd97e1ac	-0.0741609
145	0x3d64ab80	0.055827618
146	0xbbcf3af9	-0.0063241688
147	0x3d6d56f3	0.05794425
148	0xbcb8e87d	-0.022571797
149	0xbd697642	-0.056997545
150	0x3cabf6bd	0.020991677
151	0x3e02ee5c	0.1278624
152	0x3d135a3d	0.03597473
153	0xbdf93c61	-0.121697195
154	0x3d7c78d1	0.061638657
155	0xbdeadb23	-0.11467578
156	0x3e0ebc53	0.13939027
157	0xbdf67a06	-0.12034993
158	0x3d911471	0.07083977
159	0xbd650f46	-0.05592277
160	0x3dc2b051	0.09506286
161	0xbd94c15c	-0.07263443
162	0x3dc38703	0.09547236
163	0xbbe4abad	-0.006978473
164	0x3dba0496	0.09082906
165	0xbd7fcf3b	-0.06245349
166	0x3d6b6daf	0.05747765
167	0x3e05ada6	0.13054523
168	0xbe084dac	-0.1331088
169	0xbdf15b05	-0.11784939
170	0xbd1797d8	-0.037010044
171	0x3d8bceae	0.068265304
172	0xbdc5b56f	-0.09653746
173	0x3de2489a	0.11049004
174	0xbdd60672	-0.10450448
175	0xbc7ea366	-0.015541887
176	0xbe084f0f	-0.13311408
177	0xbd698d22	-0.05701936
178	0xbe00a48c	-0.1256277
179	0x3df0ca0e	0.11757289
180	0xbd822aea	-0.063558415
181	0x3db34db3	0.08755054
182	0x3d073279	0.03300712
183	0xbd97d66c	-0.074139446
184	0x3bb62b40	0.005559355
185	0x3cf5de83	0.030013328
186	0x3daa3dbe	0.08312558
187	0xbd5ed09c	-0.054398164
188	0xbe06aab8	-0.13151062
189	0xbe0081be	-0.12549493
190	0x3c7f5eed	0.015586597
191	0xbd30c508	-0.043156654
192	0xbe0a92c1	-0.13532545
193	0x3dd33d12	0.103143826
194	0xbda092f0	-0.07840526
195	0xbde71167	-0.11282616
196	0xbcf59e85	-0.029982815
197	0xbd3e61b5	-0.0464799
198	0x3d79c8e8	0.060982615
199	0x3d53567a	0.051596142
200	0xbd55bd40	-0.052182436
201	0x3c8a3648	0.016871586
202	0x3df24676	0.118298456
203	0x3d2abc3c	0.04168342
204	0xbd9daea4	-0.07699326
205	0xbd77c3e8	-0.060489565
206	0xbd91214d	-0.0708643
207	0xbda81798	-0.08207625
208	0x3e0a90c7	0.1353179
209	0x3de56e6e	0.112027034
210	0xbdb2762a	-0.08713944
211	0xbce3ee35	-0.027823547
212	0x3df2e0c5	0.11859278
213	0x3d205557	0.039143886
214	0xbdc4067d	-0.0957155
215	0xbdd0f6c3	-0.10203316
216	0x3e085a8a	0.13315788
217	0xbe07832a	-0.13233629
218	0xbc064093	-0.008194107
219	0xbdb0ea36	-0.08638422
220	0x3d1a0afe	0.03760814
221	0xbbea2499	-0.007145476
222	0xbdc182b1	-0.094487555
223	0xbdeebed2	-0.1165749
224	0xbca32b2b	-0.019918045
225	0x3e0e60dc	0.13904136
226	0x3e02a2a7	0.1275736
227	0x3d838949	0.064226694
228	0xbd51b751	-0.051200215
229	0x3dabc928	0.08387977
230	0x3d5758a1	0.052574757
231	0xbdb0b0fa	-0.086275056
232	0xbd8c3420	-0.068458796
233	0xbc933566	-0.017969798
234	0x3e0d5d31	0.13805081
235	0x3e0d0d1a	0.13774529
236	0xbe02ef80	-0.12786674
237	0xbdb5cd0e	-0.08877002
238	0xbe0b8565	-0.13625105
239	0x3d56d9b8	0.052453727
240	0x3d53d79c	0.051719293
241	0xbd26f2af	-0.040758785
242	0x3db9eae6	0.090780064
243	0xbda24d9f	-0.07924961
244	0xbd22917b	-0.039689522
245	0xbd9d0509	-0.07666976
246	0xbd858956	-0.065203354
247	0x3d05cd94	0.032666758
248	0xbd1e409b	-0.03863583
249	0x3b6ee7a6	0.0036453991
250	0xbdef273e	-0.11677407
251	0xbdde2710	-0.10847294
252	0x3d95d76c	0.07316479
253	0xbe0ba235	-0.13636096
254	0x3d9348c8	0.07191616
255	0x3d5510ee	0.0520181

layer1.lstm.bias_ih_l0 f4 [200]
0	0xbb768af1	-0.0037619437
1	0xbcaac5a8	-0.020846203
2	0xbde79c60	-0.11309123
3	0x3dbcf823	0.09227016
4	0xbbbf1e6b	-0.0058324835
5	0xbd9f2ec7	-0.07772594
6	0xbde484e0	-0.111581564
7	0xbd6cead0	-0.057841122
8	0x3d08a196	0.033357225
9	0xbe01b2b0	-0.1266582
10	0x3d5c9674	0.05385442
11	0xbda14db2	-0.07876147
12	0xbc57b168	-0.013164856
13	0x3c03fc9b	0.008055831
14	0xbdee3f0e	-0.116331205
15	0x3cc8ad0b	0.024496576
16	0xbdb00b49	-0.085959025
17	0x3df352f5	0.11881057
18	0xbddf2c4b	-0.1089712
19	0x3dea086b	0.11427387
20	0xbddbfd83	-0.10741713
21	0x3d470476	0.04858824
22	0x3de296f6	0.1106395
23	0xbd3ad47e	-0.045612805
24	0x3dd57f71	0.10424698
25	0xbe0ec9e2	-0.139442
26	0x3e07f0de	0.13275477
27	0x3e032a77	0.12809168
28	0xbe0ac4a7	-0.1355158
29	0x3d98c4e2	0.074594274
30	0xbd6aaaaa	-0.057291664
31	0xbd8b3e41	-0.06798983
32	0x3d4e4694	0.050360277
33	0x3d93377c	0.07188317
34	0xbc657521	-0.0140049765
35	0x3c90ed54	0.017691292
36	0xbd8145e6	-0.0631216
37	0xbd85c7c8	-0.06532246
38	0xbd690b8a	-0.05689577
39	0x3d1860a5	0.037201542
40	0xbc7b3a9e	-0.0153338
41	0x3d050a03	0.03248025
42	0x3c4b312e	0.012401862
43	0x3d55c8f0	0.052193582
44	0x3d5b795d	0.053582538
45	0xbd373cf4	-0.044735864
46	0x3d9d553f	0.07682275
47	0x3d9e6271	0.0773362
48	0xbcdb13ee	-0.026742902
49	0x3d2771a5	0.040879864
50	0xbd8643a6	-0.06555872
51	0x3da5d222	0.0809672
52	0xbdb47b3a	-0.08812566
53	0xbdf4a1df	-0.11944937
54	0x3d842050	0.064514756
55	0x3dabd6d4	0.083905846
56	0x3de371af	0.11105668
57	0xbc596dd2	-0.013270812
58	0x3d82a630	0.06379354
59	0xbd7ae784	-0.061255947
60	0xbd8438f7	-0.06456178
61	0x3b3bfd20	0.002868481
62	0x3dc606f2	0.096692935
63	0xbe0ad3ad	-0.1355731
64	0xbddce7be	-0.10786389
65	0x3d9b9c52	0.07598175
66	0xbd8fa0ae	-0.07013069
67	0x3da11253	0.07864823
68	0xbdabee2a	-0.083950356
69	0xbda47568	-0.08030206
70	0xbcc7d971	-0.024395676
71	0x3db5e677	0.08881848
72	0x3dc3fde3	0.095699094
73	0xbc81618e	-0.015793588
74	0xbd189096	-0.037247263
75	0x3e09bcd5	0.1345094
76	0x3d435c37	0.047695365
77	0xbc2e14c5	-0.010625069
78	0xbc65528e	-0.013996733
79	0xbd78908f	-0.060684737
80	0xbd73a823	-0.05948652
81	0x3dde1628	0.1084407
82	0xbde2667a	-0.11054702
83	0x3dc23b91	0.09484018
84	0x3d32e4de	0.043675296
85	0x3cd0126d	0.025399411
86	0xbdb31d57	-0.087458305
87	0xbcb253aa	-0.02176841
88	0xbe08c561	-0.13356544
89	0x3e0a16a3	0.13485198
90	0xbd40d908	-0.047081977
91	0xbd99be95	-0.07507054
92	0x3e027a60	0.12741995
93	0xbc3220c1	-0.010872067
94	0x3c78c9f6	0.01518487
95	0xbe071c4d	-0.1319439
96	0x3dbafbd1	0.091300614
97	0xbd06aea7	-0.032881405
98	0xbdb6f621	-0.08933664
99	0xbd53bf1c	-0.051695928
100	0xbdd3b91e	-0.10338043
101	0x3dfd852e	0.12378918
102	0x3dade0ca	0.08490141
103	0xbd8f294d	-0.069902994
104	0x3d7e4aec	0.06208317
105	0xbd875677	-0.06608289
106	0xbb261cd7	-0.002534678
107	0x3d9cd953	0.07658639
108	0x3d574a6f	0.05256122
109	0x3dd9873c	0.10621497
110	0x3de10df8	0.109889925
111	0xbde8eac1	-0.11372901
112	0x3d6d5bb4	0.057948783
113	0x3de80169	0.11328394
114	0x3d5b2faa	0.053512253
115	0x3db1514c	0.08658084
116	0xbddf41b8	-0.10901207
117	0x3d23ac2e	0.039959125
118	0xbb7422e9	-0.0037252253
119	0xbdcf896b	-0.10133632
120	0x3dfac61d	0.12244818
121	0x3d897b99	0.067130275
122	0xbe0049ad	-0.12528105
123	0xbd2c6452	-0.04208786
124	0xba1d4a9f	-0.0006000194
125	0x3dfb3951	0.122667916
126	0xbde5462c	-0.11195025
127	0xbd147bbb	-0.03625081
128	0x3c883d17	0.016630692
129	0xbb914496	-0.004433225
130	0xbe07ffd5	-0.13281186
131	0xbd92c346	-0.07166152
132	0x3d04f33a	0.03245852
133	0x3d5323fd	0.051547993
134	0xbe0bfdd0	-0.1367104
135	0xbde2cb6d	-0.11073957
136	0xbd3fa03e	-0.04678368
137	0x3e017622	0.1264272
138	0x3dcedf62	0.10101201
139	0xbdbf8250	-0.09351027
140	0xbc44bac3	-0.012007418
141	0x3d5becdf	0.053692695
142	0x3ce76092	0.02824429
143	0x3e07b4e1	0.13252594
144	0x3d12e841	0.035866026
145	0xbd9bb327	-0.0760253
146	0xbd900e77	-0.07034009
147	0x3d8574b2	0.065163985
148	0x3d4f9cec	0.05068676
149	0x3cd88a62	0.026433174
150	0xbcff5aca	-0.031171221
151	0x3e0751db	0.13214819
152	0xbdf3e1cd	-0.119083025
153	0xbd3a2393	-0.045444082
154	0x3d55a96f	0.052163538
155	0xbc3a258e	-0.011361493
156	0xbc169d1f	-0.009192734
157	0x3b88f901	0.004180074
158	0xbd13ede7	-0.036115553
159	0xbd0a53ae	-0.03377121
160	0x3d3cef3d	0.046126593
161	0x3ddd4aec	0.10805306
162	0x3c7945fc	0.0152144395
163	0xbddf6ea8	-0.10909778
164	0x3d8eae6a	0.069668606
165	0xbd0caad9	-0.03434262
166	0x3d9ba5f0	0.076000094
167	0x3d4a85fe	0.04944419
168	0x3df0a54d	0.117502786
169	0x3db60cd4	0.088891655
170	0xbe03e833	-0.12881546
171	0xbd72214d	-0.05911379
172	0x3c75ac7c	0.014994737
173	0xbd1b61b6	-0.03793498
174	0xbd67caa7	-0.05658975
175	0xbda70658	-0.08155507
176	0x3db6d5a3	0.08927467
177	0x3d86c917	0.065813236
178	0xbcfe1244	-0.03101457
179	0x3db72eb0	0.08944452
180	0xbd93fb22	-0.07225634
181	0xbd6efd6d	-0.058347154
182	0x3d39d008	0.04536441
183	0x3d916ce6	0.07100849
184	0xbd812622	-0.063061014
185	0x3e0c6825	0.13711603
186	0xbdebcfdb	-0.11514255
187	0xbc2cd309	-0.010548362
188	0xbd16f8e3	-0.03685845
189	0xbd8ec811	-0.069717534
190	0x3e078ca3	0.13237242
191	0x3d6261ed	0.05526917
192	0x3d91e474	0.07123652
193	0xbcbb0d97	-0.022833629
194	0xbe038755	-0.12844594
195	0xbddf64cb	-0.109078966
196	0xbdd8370f	-0.105573766
197	0xbb66a9a4	-0.0035196329
198	0x3d17f154	0.037095383
199	0xbe013c14	-0.12620574

layer1.lstm.bias_hh_l0 f4 [200]
0	0xbc8ff379	-0.017572151
1	0x3deb62f0	0.1149348
2	0x3d6170b2	0.055039115
3	0xbe067816	-0.13131747
4	0xbda8c492	-0.08240618
5	0x3e0d5b12	0.13804272
6	0x3dc043b7	0.093879156
7	0xbc7db923	-0.015486035
8	0xbd4dc4aa	-0.05023638
9	0xbd326186	-0.043550037
10	0xbd604448	-0.054752618
11	0x3d8c89ad	0.06862197
12	0x3dc0f25f	0.094212286
13	0xbdea7846	-0.114487216
14	0x3d3e1956	0.04641088
15	0xbde727d5	-0.11286894
16	0x3e0298cb	0.12753598
17	0xbdef3079	-0.11679167
18	0xbd345fc1	-0.04403663
19	0xbc85f474	-0.016351916
20	0xbdfda661	-0.1238525
21	0xbc99073d	-0.01868021
22	0x3cf24e10	0.029578239
23	0x3d4c593b	0.049889784
24	0x3dbf15df	0.093303435
25	0xbe0ca5a5	-0.13735063
26	0x3d6a0e96	0.057142816
27	0xbdc04d65	-0.09389762
28	0x3c7e0f43	0.015506568
29	0x3df2815a	0.11841078
30	0x3da14086	0.07873635
31	0x3e0b6880	0.13614082
32	0xbd14bc60	-0.03631246
33	0xbdd8b29e	-0.105809435
34	0x3d4ef3f6	0.050525628
35	0x3dba4e27	0.090969376
36	0x3d2e093f	0.042489287
37	0x3dbccd31	0.09218825
38	0xbdac54b6	-0.08414595
39	0x3e0004c4	0.12501818
40	0xbd5dbfaf	-0.05413788
41	0xbd5bd912	-0.05367381
42	0xbd8f0505	-0.06983379
43	0xbe0e3731	-0.13888241
44	0xbd89a35d	-0.06720612
45	0xbdcd7f1f	-0.10034012
46	0xbc86153a	-0.016367543
47	0x3d19ffd2	0.037597485
48	0x3dac9ab5	0.084279455
49	0xbdd1a48d	-0.10236464
50	0xbd001044	-0.031265512
51	0x3b6804b1	0.0035403187
52	0xbd247be0	-0.0401572
53	0xbdbd07a0	-0.0922997
54	0x3d94afc6	0.072600886
55	0xbe0916b3	-0.13387565
56	0xbcbcde3b	-0.023055186
57	0x3d098604	0.033575073
58	0xbd659a41	-0.05605531
59	0x3db7236b	0.08942302
60	0xbd1100d4	-0.03540118
61	0xbdab0c84	-0.083519965
62	0xbd6a3bb8	-0.05718586
63	0x3d98fa4a	0.07469614
64	0x3c4bfd53	0.012450534
65	0x3db9be4a	0.09069498
66	0x3da84e46	0.082180545
67	0xbd5cb087	-0.053879287
68	0x3cee96a6	0.02912457
69	0x3de49924	0.11162022
70	0xbd4a89c6	-0.049447797
71	0xbe108c68	-0.1411606
72	0xbdc7ae53	-0.097500466
73	0x3d6a7ffd	0.057250965
74	0x3d42892e	0.047494106
75	0x3d7adae0	0.06124389
76	0xbdfb75d0	-0.1227833
77	0x3d9d39c6	0.07677035
78	0xbdc3c3ad	-0.095588066
79	0x3a5e738e	0.0008485847
80	0x3e078ab3	0.13236503
81	0x3deab3a9	0.11460049
82	0x3c799662	0.015233608
83	0x3d9ea1af	0.077456824
84	0x3d77c6a1	0.06049216
85	0xbdc82511	-0.09772695
86	0xbe081d61	-0.13292457
87	0xbc99fca4	-0.018797226
88	0xb9f671c4	-0.00047005538
89	0x3cc84449	0.024446623
90	0x3dc9934b	0.09842547
91	0xbd8590ce	-0.0652176
92	0x3d9f47ef	0.07777392
93	0x3d8985ca	0.06714971
94	0x3e0704c0	0.13185406
95	0x3cef4a1d	0.029210145
96	0xbe010317	-0.12598835
97	0x3de4597e	0.11149882
98	0x3da10cab	0.07863744
99	0xbd60c8a3	-0.054878842
100	0x3db9865e	0.09058832
101	0x3d2fa6d0	0.042883694
102	0xbd29f74e	-0.041495614
103	0xbe0a0201	-0.13477327
104	0x3dbb3ba0	0.09142232
105	0xbdc6e0e5	-0.09710864
106	0x3e0e3ae1	0.13889648
107	0x3e0ace36	0.13555226
108	0x3e03121e	0.1279988
109	0x3c8d9e52	0.017287407
110	0x3dbfa129	0.09356911
111	0xbd9a1b8f	-0.07524788
112	0x3c57c83f	0.013170301
113	0xbcba7e82	-0.022765402
114	0xbbec3833	-0.007208848
115	0x3deafb8c	0.1147376
116	0x3b9bcdea	0.0047547715
117	0xbdaaad01	-0.08333779
118	0x3df51e76	0.119687006
119	0x3c09f6b6	0.008420637
120	0xbb5de8f6	-0.003386078
121	0x3d757054	0.059921578
122	0xbd347212	-0.0440541
123	0x3d89cee7	0.067289166
124	0xbd08e221	-0.03341878
125	0xbdd93bc0	-0.106070995
126	0x3c94eba1	0.018178763
127	0xbdd6a309	-0.10480315
128	0x3dbb267e	0.09138201
129	0x3e039bd1	0.12852408
130	0xba3a2679	-0.000710107
131	0xbdf7c148	-0.12097412
132	0x3d33c36e	0.04388755
133	0x3cd61e7f	0.026137589
134	0x3db06e75	0.08614818
135	0xbe0ce22f	-0.13758157
136	0xbd61dd26	-0.055142544
137	0xbd785a92	-0.06063325
138	0x3ceda30d	0.029008413
139	0x3e0b70ed	0.13617297
140	0xbddd8eca	-0.108182505
141	0x3ddbc164	0.10730246
142	0xbe0692b4	-0.131419
143	0xbde8b3a7	-0.11362391
144	0x3db6b09a	0.08920403
145	0x3df65e27	0.12029677
146	0x3daa3369	0.08310587
147	0xba51a95e	-0.0007997955
148	0xbd8f52c4	-0.06998208
149	0xbe0a085d	-0.13479753
150	0xbc7a7b7d	-0.015288231
151	0x3df8cd78	0.12148565
152	0x3c819bc9	0.015821354
153	0x3c3b3bcd	0.011427832
154	0xbd70b6e9	-0.058768187
155	0xbd6caf6b	-0.05778448
156	0xbccb464a	-0.02481379
157	0xbd7ea38a	-0.06216768
158	0xbd77b846	-0.06047847
159	0xbda8b60f	-0.0823785
160	0xb91a6a19	-0.00014726109
161	0x3e06d580	0.13167381
162	0x3dd195fc	0.102336854
163	0x3d75613f	0.059907194
164	0xbdfe0092	-0.124024525
165	0x3e0feba2	0.1405473
166	0x3c1c9b42	0.009558501
167	0x3dc78698	0.097424686
168	0x3d008269	0.03137437
169	0xbd3e16d8	-0.046408504
170	0x3c72f83a	0.01482969
171	0xbc4d2a9f	-0.012522369
172	0x3d540159	0.051759098
173	0xbdb7d303	-0.08975794
174	0x3d0924af	0.03348225
175	0xbe0e445e	-0.13893268
176	0x3d5ed914	0.05440624
177	0x3c3d1755	0.011541207
178	0x3e0982cb	0.134288
179	0xbc85dbab	-0.016340097
180	0xbd020029	-0.031738434
181	0xbd73ade2	-0.059492
182	0x3dec3b3d	0.11534736
183	0x3db202de	0.08691953
184	0x3d915ac3	0.070973895
185	0x3c217460	0.009854406
186	0xbd22416f	-0.039613184
187	0x3ba33ae7	0.004981387
188	0xbd8fe6de	-0.07026456
189	0xbceffee2	-0.029296342
190	0x3dd6d683	0.104901336
191	0xbca3866c	-0.019961558
192	0xbe028638	-0.12746513
193	0xbe0b8f59	-0.13628902
194	0xbdbbe380	-0.091742516
195	0x3c7df702	0.015500786
196	0x3dc1aea4	0.09457138
197	0x3dc3dd4c	0.095636934
198	0x3dda1fcf	0.10650598
199	0x3b39596a	0.0028282055

layer1.fc_neigh.weight f4 [128, 50]
0	0x3d66a812	0.056312628
1	0x3d95b142	0.073092
2	0x3e534ed3	0.20635538
3	0x3c6ba4b7	0.014382533
4	0x3e47ea93	0.19523077
5	0xbd9bd957	-0.07609814
6	0x3e19c367	0.15015946
7	0xbda75a6b	-0.08171543
8	0x3e4c5ca2	0.19957212
9	0xbe10f176	-0.1415461
10	0xbe74df4d	-0.23913307
11	0x3e66ba77	0.22532068
12	0xbce0f0f0	-0.027458638
13	0x3e551a29	0.2081076
14	0x3bd5b9c7	0.0065223905
15	0xbe4fb3dd	-0.20283456
16	0xbe659f9f	-0.22424172
17	0xbd169d89	-0.03677133
18	0x3e796990	0.24356675
19	0x3de38184	0.111086875
20	0xbc4be826	-0.012445485
21	0xbe55f856	-0.20895514
22	0xbe66b6d2	-0.22530678
23	0xbd0cf371	-0.03441185
24	0x3cfb644b	0.030687472
25	0x3e7925bd	0.24330802
26	0x3e841cf2	0.25803334
27	0x3e00890c	0.12552279
28	0xbe46ea37	-0.19425283
29	0xbd11b38e	-0.035571627
30	0xbe02bfa5	-0.12768419
31	0x3cc48610	0.023989707
32	0x3e705fa3	0.23473983
33	0xbe4ede76	-0.2020205
34	0x3da32058	0.079651535
35	0x3e214fbc	0.15753073
36	0x3cd3aa4f	0.025838045
37	0xbded4695	-0.11585728
38	0xbe6a8977	-0.22904001
39	0x3d586e6a	0.052839674
40	0xbe7f7b08	-0.24949276
41	0x3e550183	0.20801358
42	0xbdb16c74	-0.08663264
43	0xbe08e97c	-0.13370317
44	0xbd72c0e5	-0.05926599
45	0xbe1d9251	-0.15387847
46	0xbe774f94	-0.2415145
47	0xbc6b7b6e	-0.01437269
48	0x3d416743	0.04721762
49	0x3d8581a1	0.065188654
50	0xbe6ee487	-0.23329364
51	0xbe20c1e1	-0.15698959
52	0xbdbdf6c2	-0.09275581
53	0xbe1317dd	-0.14364572
54	0x3e158fd5	0.14605649
55	0xbdebac04	-0.11507419
56	0x3e196e46	0.14983472
57	0x3e29dbdd	0.16587777
58	0xbc29e27a	-0.010368938
59	0xbe273e4d	-0.1633236
60	0x3de34bb0	0.110984206
61	0xbe4ea150	-0.20178723
62	0x3dc28abf	0.0949912
63	0xbe08f402	-0.13374332
64	0x3e76db86	0.24107179
65	0x3cf9a6f0	0.03047511
66	0xbe25b311	-0.1618159
67	0xbd75d34b	-0.060015958
68	0x3da59147	0.0808435
69	0x3e2f591b	0.17123835
70	0xbd2d4035	-0.04229756
71	0x3e3843ac	0.17994565
72	0xbe263685	-0.16231735
73	0xbe092df5	-0.13396437
74	0x3dd81993	0.10551753
75	0xbe7d89ac	-0.24759549
76	0xbd7dcc90	-0.061962664
77	0xbe7f3ac0	-0.24924755
78	0xbdb40db6	-0.08791678
79	0x3e5b6b97	0.21427761
80	0xbe418d1d	-0.18901487
81	0xbc3b3d44	-0.011428181
82	0xbe4bcbbe	-0.1990194
83	0xbe635500	-0.22200394
84	0xbe1b4248	-0.15162003
85	0xbcf24911	-0.029575856
86	0xbe581500	-0.21101761
87	0xbde0681a	-0.10957356
88	0x3e48108c	0.19537562
89	0xbe6d0427	-0.23146115
90	0xbe20f53b	-0.15718548
91	0xbc1af311	-0.009457366
92	0x3e667b23	0.2250791
93	0xbad07ec9	-0.0015906926
94	0xbe5557fb	-0.20834343
95	0x3da2d7c2	0.07951309
96	0xbc111454	-0.008854944
97	0xbe2cd3f9	-0.16877736
98	0xbd8c2fdd	-0.06845067
99	0x3e74bfd2	0.23901299
100	0x3df900fa	0.121583894
101	0xbb82a6be	-0.0039871624
102	0x3e5beab6	0.21476254
103	0xbe3b84fd	-0.1831245
104	0xbd9eb232	-0.07748832
105	0xbe11f8fe	-0.14255139
106	0x3d7bb1bc	0.061448798
107	0xbde220ef	-0.11041438
108	0x3e41bade	0.1891894
109	0x3cdb3c0b	0.02676203
110	0xbe2bde51	-0.16784026
111	0x3e5af1cd	0.21381302
112	0xbe25ff39	-0.16210641
113	0xbe08ccd5	-0.13359387
114	0xbe1eb509	-0.15498747
115	0x3e470b5a	0.19437924
116	0xbdc65acd	-0.096852876
117	0x3e596ce8	0.2123295
118	0x3d8783d3	0.0661694
119	0x3d44aad5	0.04801448
120	0xbe536e44	-0.20647532
121	0x3d445f15	0.04794224
122	0x3d11d729	0.035605583
123	0x3e81bcbd	0.25339308
124	0x3d7f4e44	0.0623305
125	0x3e1aae3a	0.15105525
126	0x3e4fd2f9	0.20295323
127	0x3dea6389	0.11444766
128	0x3e81981c	0.25311363
129	0x3e1f11de	0.1553416
130	0xbdcc78b1	-0.099839576
131	0xbe31df0e	-0.17370245
132	0xbcbe9d0b	-0.023268243
133	0xbceff34c	-0.029290818
134	0xbe4099f7	-0.18808733
135	0x3d7d79f6	0.06188389
136	0x3e7cfe84	0.24706465
137	0x3e4d0c93	0.20024328
138	0xbe593513	-0.21211652
139	0xbe5b748e	-0.21431181
140	0xbdf70bf1	-0.120628245
141	0xbe20f5b1	-0.15718724
142	0x3e0c1912	0.13681439
143	0xbe28131b	-0.16413538
144	0xbe5585cb	-0.20851819
145	0x3e237444	0.1596232
146	0x3e4106fc	0.1885032
147	0x3d645d2d	0.05575292
148	0x3da270e8	0.079316914
149	0xbd30d3c8	-0.04317072
150	0xbe47f778	-0.19527996
151	0xbd1ad1b4	-0.037797645
152	0x3da139da	0.078723624
153	0x3dbd17bd	0.09233043
154	0x3e00777b	0.12545578
155	0xbe43b015	-0.19110139
156	0xbdb62e20	-0.088955164
157	0x3e5e7e9d	0.21727987
158	0xbe01f77d	-0.12692066
159	0x3d82033b	0.063482724
160	0x3d1c20df	0.038117286
161	0x3e00df1d	0.12585111
162	0xbc0617d9	-0.008184397
163	0xbe1f41d0	-0.15552449
164	0xbcc4f4ee	-0.024042573
165	0x3d59cd19	0.053174112
166	0xbe12566d	-0.14290781
167	0xbd9aa9ab	-0.07551893
168	0xbe11b473	-0.14228992
169	0x3e08c950	0.13358045
170	0x3e752e0e	0.2394335
171	0x3cc65363	0.024209684
172	0xbd839bbc	-0.06426188
173	0xbe1d9d43	-0.15392022
174	0xbd63909b	-0.05555783
175	0x3d3de9a1	0.046365384
176	0xbd367838	-0.044548243
177	0x3cae37cf	0.021266846
178	0x3e70a57b	0.23500626
179	0xbdf8fec0	-0.12157965
180	0xbddae315	-0.10687844
181	0xbd8c866c	-0.068615764
182	0xbe27932a	-0.16364732
183	0xbd1a34a6	-0.037647866
184	0xbd0af363	-0.033923518
185	0xbe5be2dd	-0.2147326
186	0xbcced473	-0.025247788
187	0x3df632e9	0.12021429
188	0x3e798129	0.24365677
189	0xbdb284de	-0.08716749
190	0x3dc002d6	0.09375541
191	0xbcf59efa	-0.029983032
192	0xbe0fbf27	-0.14037763
193	0x3e2539ff	0.16135405
194	0xbd2a6be4	-0.0416068
195	0xbe4bef00	-0.1991539
196	0x3d710d2d	0.058850456
197	0x3e032daf	0.12810396
198	0x3ced6380	0.02897811
199	0x3df2e2c3	0.118596576
200	0x3e22417d	0.15845294
201	0xbe2d2e12	-0.16912106
202	0x3e073cba	0.13206759
203	0xbe0008f0	-0.1250341
204	0x3e1918f6	0.14950928
205	0x3e647e2f	0.2231376
206	0x3ce1d837	0.02756892
207	0xbde2650a	-0.11054428
208	0x3d92e825	0.07173184
209	0x3e831c44	0.25607502
210	0xbb4591e3	-0.003014677
211	0xbdfc0d91	-0.12307275
212	0x3d8fcee1	0.07021881
213	0xbcdc1189	-0.02686383
214	0x3e08a27b	0.13343231
215	0xbc7586f6	-0.0149857905
216	0xbd6387e9	-0.055549536
217	0x3e785ce1	0.2425418
218	0xbe49e5c7	-0.1971656
219	0xbe4d8822	-0.20071462
220	0x3e792d66	0.24333724
221	0x3e30ba60	0.17258596
222	0x3e399e08	0.1812669
223	0x3e799a90	0.24375367
224	0xbe427c9f	-0.18992852
225	0xbe27198a	-0.16318336
226	0x3e5af90e	0.2138407
227	0x3e10d8c8	0.14145195
228	0x3d6ac24e	0.05731421
229	0xbe646d46	-0.2230731
230	0x3d6247a3	0.0552441
231	0x3e836551	0.25663236
232	0x3e48bd3f	0.19603442
233	0xbd92e880	-0.07173252
234	0xbd4b94de	-0.049702518
235	0xbd87d915	-0.06633202
236	0x3d39097b	0.045175057
237	0x3e2ace0a	0.1668016
238	0xbe4f4ef4	-0.20244962
239	0xbdd7d622	-0.105388895
240	0x3e820506	0.25394458
241	0x3e38b8dc	0.18039268
242	0xbe49d7f7	-0.1971129
243	0x3e45750f	0.19282936
244	0x3d3e41bf	0.04644942
245	0x3e175280	0.14777565
246	0xbd663cd6	-0.05621036
247	0x3d991ace	0.07475816
248	0x3d7e8911	0.062142435
249	0x3e4cdc08	0.2000581
250	0x3e4a64e8	0.19765055
251	0xbe492616	-0.19643435
252	0xbe6cf01a	-0.23138466
253	0x3e825fe0	0.25463772
254	0xbd464f6d	-0.04841559
255	0x3d147b78	0.03625056

layer1.fc_self.weight f4 [128, 50]
0	0xbd42ec25	-0.047588486
1	0xbe1f76a9	-0.15572609
2	0x3cac35e8	0.021021798
3	0xbd5c78d7	-0.05382618
4	0x3e28f17e	0.16498372
5	0xbcbbe99b	-0.02293854
6	0xbe16ee86	-0.14739427
7	0x3d17ae9e	0.037031762
8	0xbdbc5d09	-0.091974325
9	0x3d297215	0.041368563
10	0xbe75b68c	-0.23995417
11	0x3d7ca7c8	0.061683446
12	0xbde20f74	-0.11038104
13	0xbdb9c4a7	-0.090707116
14	0x3dd83218	0.105564296
15	0xbdb710f1	-0.08938778
16	0x3e1b6d9a	0.15178528
17	0xbe24dd5a	-0.16100064
18	0x3e8043bb	0.25051674
19	0x3dabfebb	0.08398195
20	0xbd6db905	-0.058037776
21	0x3cda127d	0.026620144
22	0xbe06cb43	-0.13163476
23	0x3c594604	0.013261322
24	0x3de9cba0	0.114157915
25	0x3d5d1c39	0.053981993
26	0x3ca93c7f	0.02065873
27	0x3d7e28e6	0.062050723
28	0xbe0c536d	-0.137037
29	0x3e3b7e28	0.18309844
30	0xbe5862cb	-0.21131437
31	0x3e0260d3	0.12732248
32	0x3e802b26	0.2503292
33	0x3e11b758	0.14230096
34	0xbe1da0bc	-0.15393347
35	0x3e5f7968	0.21823657
36	0xbd75abb3	-0.0599782
37	0xbcf83341	-0.030297877
38	0xbe023bf9	-0.1271819
39	0xbdf553ae	-0.11978851
40	0x3d808553	0.062754296
41	0x3ccc2bb9	0.024923192
42	0x3dd7a137	0.10528796
43	0xbe1a7858	-0.1508497
44	0x3e4690b2	0.19391134
45	0xbd22cf17	-0.039748278
46	0xbd919906	-0.07109265
47	0x3d5b64f0	0.05356306
48	0x3e82b2a3	0.25526914
49	0x3e4b7c6a	0.19871679
50	0x3e560594	0.20900565
51	0xbe0935e9	-0.13399471
52	0x3e497835	0.19674762
53	0xbd9e874f	-0.07740652
54	0xbe390b95	-0.18070824
55	0xbe341261	-0.17585136
56	0x3e173456	0.14766058
57	0x3e0db83c	0.13839811
58	0x3d8ebeea	0.06970008
59	0xbd0ea00d	-0.034820605
60	0x3d8935d2	0.066997185
61	0x3e63de86	0.22252855
62	0x3df12d25	0.11776189
63	0x3d03e3b4	0.032199576
64	0xbdc23912	-0.094835415
65	0x3e65a426	0.22425899
66	0x3cae17cf	0.021251587
67	0x3dd74bf0	0.10512531
68	0xbe02ca91	-0.12772585
69	0x3cbd6db6	0.023123603
70	0x3e59a978	0.21256053
71	0xbd56e19c	-0.05246125
72	0xbe829f70	-0.25512266
73	0xbe67b7cc	-0.22628707
74	0x3e2efc5d	0.17088456
75	0x3dbf6ba0	0.093467
76	0x3d655f6d	0.05599921
77	0x3e5fa262	0.21839288
78	0x3e719673	0.23592548
79	0x3e28de1e	0.16490981
80	0xbe840146	-0.25782222
81	0xbe5f6556	-0.21816
82	0x3e69653a	0.22792521
83	0xbe3f443b	-0.18678372
84	0xbde41391	-0.111365445
85	0x3c224083	0.009903076
86	0x3e12cdc0	0.143363
87	0x3e502dff	0.20330046
88	0xbdc421d2	-0.09576763
89	0x3e46b40e	0.19404623
90	0x3dc7f5d2	0.097636834
91	0x3dd7a539	0.105295606
92	0x3e141cdf	0.14464138
93	0xbe69c556	-0.22829184
94	0xbdc94b90	-0.098288655
95	0xbc613a6a	-0.013746837
96	0xbe0fa6a0	-0.14028406
97	0x3e53c168	0.20679247
98	0x3d90da2f	0.07072865
99	0x3e0faf65	0.14031751
100	0xbd927d8b	-0.07152852
101	0x3e63ea95	0.22257455
102	0x3cd3b95e	0.025845226
103	0x3d4d3e23	0.050108086
104	0x3dc3513b	0.09536978
105	0xbd87be64	-0.06628111
106	0xbe361823	-0.17782645
107	0xbe273679	-0.16329373
108	0x3e84e872	0.25958592
109	0x3e310bc6	0.17289647
110	0xbe5c3ee0	-0.2150836
111	0xbdde80c8	-0.10864407
112	0xbe3f038c	-0.18653697
113	0x3db9e5b9	0.09077019
114	0xbe2b64aa	-0.16737619
115	0xbded2eb6	-0.11581175
116	0x3e5d4696	0.21608958
117	0x3e64ddbb	0.22350208
118	0x3e693b19	0.2277645
119	0xbe34d68e	-0.17659971
120	0xbce59680	-0.028025866
121	0xbd14dd7d	-0.03634404
122	0x3e8052bb	0.25063118
123	0x3e7a7521	0.24458744
124	0x3e534942	0.20633414
125	0x3e131311	0.14362742
126	0x3e03664c	0.12831992
127	0xbe616cc1	-0.22014143
128	0xbe308f00	-0.1724205
129	0x3ddf1110	0.10891926
130	0x3bb41239	0.0054953364
131	0xbdc561a4	-0.09637764
132	0x3e3ce58b	0.18446939
133	0xbe52c017	-0.20581089
134	0x3e4c78db	0.19967978
135	0x3e45ca17	0.19315372
136	0x3e690478	0.22755611
137	0x3dedec1f	0.11617302
138	0x3e8399e4	0.25703347
139	0x3e25fd06	0.16209802
140	0x3e534349	0.20631136
141	0xbd88770c	-0.066633314
142	0xbd8e113b	-0.0693688
143	0x3e6ba912	0.23013714
144	0xbca4a94d	-0.02010026
145	0xbbd1ea8d	-0.0064061345
146	0xbe480f06	-0.19536981
147	0x3de289dd	0.110614516
148	0xbd24cb06	-0.04023268
149	0x3e3d2931	0.18472745
150	0xbe5ef8c5	-0.21774586
151	0xbe05d603	-0.1306992
152	0x3e44ef25	0.19231851
153	0x3e291102	0.16510394
154	0x3d9cdfc7	0.0765987
155	0x3e81f1fe	0.25379938
156	0x3d48f431	0.049061004
157	0x3e0e84f1	0.139179
158	0x3d899668	0.06718141
159	0xbe14698c	-0.14493388
160	0xbc9faa28	-0.019490317
161	0xbd9ffca1	-0.07811857
162	0xbd6792c2	-0.056536444
163	0x3e46a520	0.19398928
164	0xbe264b3c	-0.16239637
165	0x3dc83cde	0.097772345
166	0xbe296c3f	-0.16545199
167	0xbe18f27a	-0.14936247
168	0x3c05c120	0.00816372
169	0x3d82a86a	0.06379779
170	0x3e1ac186	0.15112886
171	0xbd021659	-0.031759594
172	0xbe277dee	-0.16356632
173	0xbe25bb6a	-0.16184774
174	0xbe041152	-0.12897232
175	0x3dc3abfa	0.09554286
176	0xbe0e5c3e	-0.13902375
177	0xbe303ac7	-0.17209922
178	0x3e6b4c2b	0.22978275
179	0xbe436238	-0.19080436
180	0xbd372ba3	-0.04471935
181	0xbe691e0b	-0.22765367
182	0x3d9b3987	0.07579332
183	0x3b809c13	0.0039248555
184	0xbdaeb93e	-0.08531426
185	0xbe7ea0d9	-0.24866046
186	0x3e2aa34d	0.16663857
187	0xbe3c91aa	-0.18414941
188	0x3ca76116	0.020432036
189	0x3e68aa7e	0.22721288
190	0x3e5473e4	0.20747334
191	0xbd3c9a5c	-0.046045646
192	0x3e294852	0.16531494
193	0x3de71013	0.11282363
194	0xbe4fbbdb	-0.20286505
195	0xbe32f84a	-0.17477527
196	0xbda6417b	-0.08117958
197	0xbd5a45d5	-0.053289253
198	0x3e745802	0.23861697
199	0xbd6b5bc9	-0.05746058
200	0xbd6dabd8	-0.05802521
201	0x3e63c43e	0.22242829
202	0xbdeebe4a	-0.116573885
203	0xbe41f03e	-0.18939301
204	0xbdd2471d	-0.1026747
205	0x3c876792	0.016528878
206	0xbe48b90f	-0.19601844
207	0x3e776256	0.24158606
208	0xbe11c363	-0.1423469
209	0x3e5d2a55	0.2159818
210	0xbccd49a8	-0.025059536
211	0xbccc9a13	-0.024975812
212	0xbdc906c6	-0.09815745
213	0x3d02e49a	0.031956293
214	0x3e339598	0.17537534
215	0xbde3d29b	-0.11124154
216	0xbe645524	-0.22298104
217	0x3e2e23fd	0.17005916
218	0x3e5f4ff4	0.21807843
219	0xbe14d953	-0.14536028
220	0xbe33887b	-0.17532532
221	0x3dfdf683	0.12400534
222	0x3e36d79b	0.17855684
223	0x3e3f5145	0.18683346
224	0xbcf3ed4e	-0.029776242
225	0xbccda4fd	-0.025103087
226	0x3d9b3214	0.07577911
227	0xbd77d920	-0.0605098
228	0x3e23e938	0.16006935
229	0x3da6b464	0.081398755
230	0x3d4ee113	0.050507616
231	0xbe11f530	-0.14253688
232	0x3e812aef	0.25228068
233	0x3d8ebcb1	0.06969584
234	0xbd2ba9fe	-0.041910164
235	0xbdccdf34	-0.1000351
236	0xbe2ddb49	-0.16978182
237	0xbdae2b2f	-0.0850433
238	0x3e84813c	0.25879848
239	0xbe5b6e68	-0.21428835
240	0xbd641297	-0.05568179
241	0x3c851aa1	0.01624805
242	0x3cb02565	0.021502206
243	0xbe8227d0	-0.25421
244	0xbe0fea01	-0.14054109
245	0xbc98d36f	-0.018655507
246	0x3de1f93d	0.110338666
247	0xbb95d90d	-0.0045729936
248	0x3da57f1f	0.08080887
249	0xbe4b188a	-0.1983358
250	0xbe8145af	-0.25248477
251	0x3c9aa2f7	0.018876536
252	0x3e0bb57b	0.13643448
253	0xbe006ed1	-0.12542273
254	0x3e6eaedd	0.23308893
255	0x3e479fdf	0.1949458

layer1.fc_self.bias f4 [128]
0	0x3d92cefa	0.07168384
1	0xbdf3bd4c	-0.1190134
2	0x3df60b06	0.12013821
3	0x3bf9e485	0.0076261186
4	0xbda4bf82	-0.0804434
5	0x3d8fa6eb	0.07014259
6	0xbd1bb9c3	-0.038018953
7	0x3b7db05e	0.003870986
8	0x3d49e610	0.04929167
9	0x3cbcaaf7	0.023030741
10	0x3d527c31	0.05138797
11	0xbdc8084e	-0.09767209
12	0xbd868395	-0.06568066
13	0xbd1cb391	-0.038257185
14	0x3cb6015b	0.022217443
15	0xbe0edb1a	-0.13950768
16	0x3de9e20f	0.114200704
17	0xbdce5761	-0.1007526
18	0x3e0bd818	0.13656652
19	0xbd62e558	-0.0553945
20	0xbda1e483	-0.07904913
21	0xbe0cc7cd	-0.13748093
22	0x3d0a5a58	0.033777565
23	0x3bfe12cc	0.0077537056
24	0xbdb9377d	-0.09043787
25	0xbdbf5cb0	-0.093438506
26	0xbd9e30cd	-0.07724152
27	0x3d2b14b2	0.041767783
28	0xbc509da8	-0.012732901
29	0x3db4c2c7	0.08826213
30	0x3d6f3521	0.058400277
31	0x3c74a88d	0.014932764
32	0xbdcd70e6	-0.10031299
33	0xbc83b6d9	-0.0160784
34	0xbda872a3	-0.0822499
35	0x3d5824f2	0.05276961
36	0x3da51498	0.080605686
37	0xbd65b10a	-0.05607704
38	0xbdb89606	-0.0901299
39	0x3c6b5d47	0.014365501
40	0xbddc0ec0	-0.10745001
41	0x3b26d8a5	0.002545872
42	0x3d9b0c1b	0.07570668
43	0xbc882567	-0.016619397
44	0x3d3ec447	0.046573903
45	0x3a305491	0.00067264686
46	0x3dd12f2e	0.10214077
47	0x3da59868	0.0808571
48	0x3d97fe74	0.0742158
49	0x3cff7aff	0.031186579
50	0xbdd01dc2	-0.10161926
51	0xbdc579ea	-0.09642394
52	0x3d714275	0.05890127
53	0x3d8ca0d5	0.06866614
54	0xbd5fffbb	-0.054687243
55	0x3d8622c9	0.065496035
56	0x3e105c40	0.1409769
57	0x3c7ba14a	0.0153582785
58	0x3dffcc59	0.12490148
59	0x3d7498e4	0.05971612
60	0xbd2ae602	-0.04172326
61	0x3dc23f4c	0.09484729
62	0xbdd813dc	-0.10550663
63	0x3db0d91b	0.086351596
64	0x3d9d6a4f	0.076862924
65	0xbd774bdb	-0.060375076
66	0xbce001f9	-0.02734469
67	0xbd5170c3	-0.05113293
68	0xbda9d28b	-0.08292111
69	0x3d7fa95d	0.062417377
70	0xbd2f96cc	-0.04286842
71	0xbcbf7ae8	-0.023374036
72	0x3c934573	0.017977452
73	0xbdd2f89d	-0.103013255
74	0xbd9b60dd	-0.075868346
75	0xbd5227de	-0.05130755
76	0x3e08ee72	0.1337221
77	0xbdeb5067	-0.11489945
78	0x3d2029a0	0.039102197
79	0xbded2153	-0.11578622
80	0x3e078b9e	0.13236853
81	0x3d25a185	0.04043724
82	0xbd5eb6da	-0.0543736
83	0x3cc3180d	0.02381518
84	0xbcf15ada	-0.029462267
85	0x3d26c971	0.040719453
86	0xbe0c57b8	-0.13705337
87	0xbcbbb8b6	-0.022915225
88	0x3d837067	0.064179234
89	0xbdd453ac	-0.10367522
90	0x3d3fc550	0.04681903
91	0xbcda0071	-0.026611539
92	0x3d2583a9	0.040408764
93	0xbd592d1b	-0.05302153
94	0x3db15ad3	0.086599015
95	0x3e064732	0.13113096
96	0x3e0d50c0	0.13800335
97	0x3db344d7	0.087533645
98	0xbd4a0a5f	-0.049326297
99	0x3d7d2e07	0.061811473
100	0x3dfd2692	0.12360872
101	0x3d461e23	0.048368584
102	0xbdb548f5	-0.08851806
103	0x3d8f02c6	0.06982951
104	0x3d98cb24	0.07460621
105	0x3d0679cc	0.032831
106	0x3dc4f513	0.09617057
107	0xbc8e7ea7	-0.017394377
108	0xbd97b0a3	-0.07406738
109	0xbd09545c	-0.033527717
110	0x3dac636c	0.08417401
111	0x3de62cab	0.112389885
112	0xbdc36065	-0.0953987
113	0x3e02594b	0.12729375
114	0x3d004fec	0.03132622
115	0x3db62233	0.08893242
116	0xbc25668c	-0.01009525
117	0x3db02794	0.08601299
118	0xbdebd450	-0.11515105
119	0x3dd34b40	0.10317087
120	0xbd28196d	-0.041039873
121	0x3d85bf72	0.06530656
122	0xbdda2614	-0.10651794
123	0xbcef150b	-0.029184839
124	0x3dde6023	0.108581804
125	0x3e06ea3a	0.13175288
126	0x3bc6bb58	0.0060648136
127	0xbda3def8	-0.08001512

layer2.lstm.weight_ih_l0 f4 [512, 128]
0	0x3d0f6693	0.03500993
1	0x3d97123c	0.07376525
2	0x3c2cbd4f	0.010543182
3	0xbd610d04	-0.054944053
4	0xbc8d4ba6	-0.017247986
5	0x3d4ad24c	0.04951696
6	0x3d904559	0.07044477
7	0xbb9d1a06	-0.004794362
8	0x3c88cc1b	0.016698888
9	0xbdb33368	-0.08750039
10	0xbd3c4ea7	-0.045973446
11	0xbd093998	-0.03350219
12	0x3d6963df	0.05698001
13	0xbaaec300	-0.0013333261
14	0x3cd629ae	0.026142921
15	0xbd546e20	-0.051862836
16	0xbd594ebe	-0.05305361
17	0xbc22f183	-0.009945276
18	0x3dac4a51	0.08412612
19	0x3d73bc38	0.05950567
20	0xbcd7b75c	-0.02633255
21	0xbd28ed59	-0.041241977
22	0xbd28a196	-0.041169725
23	0xbda2945d	-0.07938454
24	0xbc8ac067	-0.016937448
25	0xbc483ad5	-0.012221058
26	0x3d530bda	0.051524974
27	0xbce7c801	-0.028293611
28	0xba4d3460	-0.0007827934
29	0xbd00b03a	-0.031418063
30	0x3d6af59e	0.057363145
31	0x3d0f9a04	0.03505899
32	0x3d05b855	0.032646496
33	0x3d62eb8a	0.05540041
34	0x3db25106	0.0870686
35	0xbc100ddf	-0.00879237
36	0x3d1e6fd5	0.03868087
37	0xbd4e14f0	-0.050312936
38	0xbd92057f	-0.071299545
39	0xbcb62eaf	-0.022239057
40	0x3d9780bc	0.07397601
41	0xbc84d935	-0.016216854
42	0x3d3aed68	0.045636564
43	0x3d2a146b	0.04152338
44	0x3d741997	0.059594717
45	0x3d19a7ff	0.03751373
46	0x3ce73bc1	0.028226735
47	0x3daeebc6	0.08541064
48	0x3cde0afd	0.027104849
49	0x3d3a4efb	0.045485478
50	0x3cb2ad53	0.021811163
51	0x3d856c13	0.06514754
52	0x3d9a5047	0.07534843
53	0xbb1e02ed	-0.002411063
54	0xbd9a6d51	-0.07540382
55	0x3d53159e	0.051534288
56	0x3d39f5f9	0.045400593
57	0xbd7d4f0f	-0.061842974
58	0xbcef743c	-0.02923023
59	0x3b75e2a5	0.0037519124
60	0x3d9f0da9	0.07766277
61	0xbc0d9897	-0.008642337
62	0x3daf2ae2	0.08553101
63	0xbd7c0173	-0.06152482
64	0x3da28e79	0.07937331
65	0xbd0fcec9	-0.035109315
66	0x3d75382d	0.059868027
67	0xbd1d0ccf	-0.038342293
68	0x3d2f9aa5	0.04287209
69	0x3d99b309	0.07504851
70	0xbd6ca3a3	-0.057773244
71	0xbcc4918a	-0.02399518
72	0x3b1c8b19	0.002388662
73	0xbae074e9	-0.0017124686
74	0xbb2e39ff	-0.0026584861
75	0x3d379793	0.044822287
76	0x3d85d0f1	0.06533993
77	0xbd60852f	-0.054814514
78	0x3d771fd6	0.060333095
79	0x3befeddb	0.0073220558
80	0xbc045c61	-0.0080786655
81	0x3d42420c	0.04742627
82	0xbc058958	-0.008150421
83	0x3db16989	0.08662707
84	0xbd0aa5e9	-0.03384963
85	0xbd398a49	-0.045297895
86	0xbd860791	-0.06544412
87	0x3d47cb66	0.04877796
88	0xbd7b4e05	-0.061353702
89	0x3da1c15e	0.0789821
90	0x3db238ca	0.08702238
91	0xbd4adfe3	-0.04952992
92	0x3d0a8e47	0.033827092
93	0x3d55b737	0.05217668
94	0xbbe869e8	-0.007092703
95	0xbdb08959	-0.08619947
96	0x3daf51ab	0.08560499
97	0xbbcc803e	-0.0062408736
98	0xbd8a62f7	-0.06757157
99	0xbda7ff16	-0.08202951
100	0xbd5c7119	-0.053818796
101	0x3c3d318b	0.0115474565
102	0x3d92dde8	0.071712315
103	0x3d0505c7	0.032476213
104	0x39a0041c	0.0003052064
105	0xbba24751	-0.0049523492
106	0x3d958fbe	0.07302807
107	0xbd8201a7	-0.063479714
108	0xbd56d976	-0.05245348
109	0x3d90d2c7	0.070714526
110	0xbd80c509	-0.062875815
111	0xbd2861ac	-0.041108772
112	0xbdaa0b87	-0.0830298
113	0x3daa3938	0.08311695
114	0x3cf2c496	0.029634755
115	0xbd871885	-0.065964736
116	0xbd9695f0	-0.07352817
117	0xbd97c842	-0.07411243
118	0xbd96d417	-0.07364672
119	0xbd617ec8	-0.05505255
120	0xbdab3bcc	-0.08361015
121	0x3cf90d41	0.030401828
122	0x3da83bff	0.08214568
123	0xbaf71094	-0.0018849545
124	0x3cc58aaf	0.024113981
125	0xbd5b1c07	-0.053493526
126	0xbc116b3a	-0.008875662
127	0xbc96b047	-0.018394602
128	0xbcb766e5	-0.022387931
129	0xbcda5e01	-0.026656153
130	0x3d2bff3d	0.04199146
131	0xbd84a8b7	-0.06477492
132	0x3d919479	0.07108397
133	0xbd336e68	-0.043806463
134	0xbd8bb1e3	-0.068210386
135	0x3b9a0227	0.0046999636
136	0x3d9fc81e	0.07801841
137	0xbd7c9b14	-0.06167133
138	0x3d537beb	0.05163185
139	0x3d202a59	0.039102886
140	0x3c0ec0bc	0.008712944
141	0x3d36776e	0.04454749
142	0xbd376cfe	-0.044781677
143	0x3d829712	0.063764706
144	0xbc8af8f3	-0.016964411
145	0xbd97adc3	-0.07406189
146	0xbdb441ab	-0.08801588
147	0x3c339086	0.01095975
148	0xbcfbaca7	-0.030721975
149	0xbd37b4c7	-0.044850137
150	0xbda2a159	-0.07940931
151	0x3d838383	0.06421568
152	0xbd261413	-0.040546488
153	0xbb2e08da	-0.002655557
154	0x3d66f7e2	0.056388743
155	0x3cfe6237	0.031052692
156	0x3d0250e1	0.031815413
157	0x3d7fe2f5	0.062472302
158	0x3cf1c0db	0.029510906
159	0x3da28c6d	0.0793694
160	0x3d2f80d9	0.042847488
161	0xbd76c7b4	-0.060249045
162	0x3ca00f39	0.019538509
163	0xbd96b697	-0.07359045
164	0xbd1377bf	-0.03600287
165	0x3d9e30b3	0.077241324
166	0xbca6aa3a	-0.020344842
167	0x3d95fe65	0.073239125
168	0x3d57d53f	0.0526936
169	0xbd2f6cb7	-0.042828288
170	0x3ceae37a	0.028672922
171	0xbc99aa18	-0.018757865
172	0x3d626741	0.05527425
173	0x3d973195	0.07382504
174	0x3cfc7863	0.030819124
175	0x3d0a757f	0.03380346
176	0x3c531328	0.012882985
177	0xbd9fdd8b	-0.07805928
178	0x3ceef8c2	0.029171351
179	0x3c77c5b0	0.015122816
180	0xbd6524ce	-0.055943303
181	0xbda7666f	-0.081738345
182	0xbc22512c	-0.009907048
183	0xbc0a46f5	-0.008439769
184	0xbbb2b5cf	-0.005453802
185	0x3d30bc6a	0.043148436
186	0xbd599abe	-0.05312609
187	0xbd5490df	-0.051895972
188	0x3c85201e	0.016250666
189	0x3b842f20	0.004033938
190	0xbd2b044e	-0.041752152
191	0xbc8ac2e7	-0.01693864
192	0x3d3ff216	0.04686173
193	0xbda6289e	-0.08113216
194	0xbd8c4569	-0.068491764
195	0x3d538c72	0.05164761
196	0x3d5b6c9e	0.053570382
197	0x3db29322	0.087194696
198	0xbd97cce4	-0.07412127
199	0x3c7eb185	0.015545254
200	0xbc4ecd65	-0.012622212
201	0x3db08674	0.08619395
202	0x3d109767	0.03530064
203	0xbda3e01a	-0.08001728
204	0x3d0bce8a	0.034132518
205	0xbc1fa9c7	-0.009745068
206	0xbda6c684	-0.081433326
207	0xbd63068b	-0.05542616
208	0xbd2e71ae	-0.042588882
209	0xbd30b714	-0.043143347
210	0xbcaf39b4	-0.02138982
211	0xbc954cc7	-0.018225087
212	0x3ce5e5c7	0.028063668
213	0xbab7ade5	-0.0014013617
214	0x3d6cd202	0.057817467
215	0xbdb2309e	-0.08700679
216	0x3d239173	0.039933633
217	0x3d95654a	0.0729471
218	0x3d9393c2	0.07205917
219	0xbd403499	-0.04692516
220	0x3c5625c4	0.013070527
221	0x3cafe10c	0.021469615
222	0x3be743ee	0.0070576584
223	0xbd50caa5	-0.050974507
224	0x3d2b5633	0.041830253
225	0x3d7acbf0	0.061229646
226	0xbdaa39b3	-0.083117865
227	0x3d07d805	0.033164997
228	0xbc860001	-0.016357424
229	0xbca75a62	-0.02042884
230	0x3d339908	0.043847114
231	0x3c12ad67	0.008952475
232	0xbcfaeb15	-0.030629674
233	0xbda03715	-0.07823006
234	0x39de70b9	0.00042427125
235	0x3d60f1c8	0.05491808
236	0x3d555cac	0.052090332
237	0xbdb4d95d	-0.08830521
238	0x3d7076af	0.058706935
239	0xbdaf4c71	-0.08559502
240	0x3a3a1952	0.000709911
241	0xb9b6e18a	-0.00034881785
242	0xbc895bfa	-0.01676749
243	0xbd65098f	-0.05591732
244	0x3cebac29	0.028768616
245	0xbda1d120	-0.079012156
246	0xbd94bbc3	-0.07262375
247	0xbd41c908	-0.04731086
248	0x3d80ae97	0.062833
249	0x3d30d806	0.043174766
250	0x3d78ec5a	0.060772277
251	0x3cab12b9	0.020882951
252	0x3d470765	0.048591036
253	0xbca30319	-0.019898938
254	0xbcdb0f61	-0.026740732
255	0xbd7aaf11	-0.061202113
