Paper/Synthesized/code/graphSAGE_exp3/checkpoint_graphSAGE/best_model_GraphSAGE_secureBERT_50.pt (torch, 405313 bytes, 12 tensors)

sage.layer1.fc_pool.weight f4 [50, 50]
00000000: e18a 963e c1a3 e13d cebf dbbd b82d 0e3e
00000010: 208a 6f3e bb9a c43c 5217 6d3e 9669 0cbe
00000020: 1385 3cbd de40 52bd 84f4 f1ba 4f2e 83bc
00000030: b16b 95bd 2cfc bd3d a816 a6be 188c 56be
00000040: 5258 033e 7201 94be 6b94 ac3e 8d86 55be
00000050: 4f45 3bbe 9564 64be 1813 0abe fa3c 9e3e
00000060: 447a e7bc 45a0 233e 0e65 ddbc 4420 fabd
00000070: 42f2 753d 22b3 39be 6a12 3bbe dba2 e73d
00000080: 5553 6abe e817 5ebe 5dd5 3abe bee4 abbd
00000090: bc01 0d3e 2eb8 a5bd 8dbd 72be 2d03 813e
000000a0: eb04 8f3e 0035 113e 7f9d 89be 3268 a93e
000000b0: e0d9 323e a3fb ab3e 089d 313d 5502 89be
000000c0: bdf0 5f3d 3879 aabd bdad 963e 16b4 0a3e
000000d0: 40b5 ce3d 2e58 5d3e c8a7 33be d332 763e
000000e0: 807d 97be 0444 053e 6914 d23d cb7f 36be
000000f0: cf62 2d3e d3e8 90be 9d54 2ebc 537f cdbd
00000100: b33c d1bc fd4d 9b3e 4952 393e 8ec4 5d3e
00000110: a44a 2b3e 0698 69bb 9757 0d3d eb8b 45bc
00000120: baf4 c53d ddca 54be 0f1c 8bbe e95a 313d
00000130: c0f3 993e eb6c 863d 43b8 713e 7e6f 91be
00000140: 3f2b a63d 7172 edbd 4112 00be 6bf9 c93d
00000150: 502d e33d 4083 b73c 36a8 85be 6ab8 b23e
00000160: fefa 383d 2de2 043e 134a 043d 595d beba
00000170: 7568 073e 36e3 243e b381 cdbd 711c 83bd
00000180: c98d 41bc 6983 72be 1ad4 65be 6c55 3fbd
00000190: 4cc3 ab3e 1e84 89be cfa2 623e 60f1 a43e
000001a0: 8860 683e 1f20 0f3e e4e0 873e 013e 6ebe
000001b0: e0cb 98be 4eb6 ae3d 9402 2abe 25e1 393d
000001c0: a504 db3d 53f7 be3d f359 683e 77d7 b6bd
000001d0: ff02 843e e103 173d a842 94be a9b6 3fbe
000001e0: 24da 95bc 0361 a0be d6fd 53be 70b2 83be
000001f0: 5650 6ebe ae20 853e 23cf aabe e833 0f3e
00000200: 79c4 6d3e 6d6d 64bd 0cb1 aebe e3fe 7a3e
00000210: b66f b1be 58a7 abbd 30be 4c3d 8883 96be
00000220: bd54 153e dcbc 3f3e 6f78 6c3d 8baa 093e
00000230: 46b4 bf3d 1915 8fbe d1bb 87bd 398a 803e
00000240: 6592 4fbd 4781 643e f1e9 c53b 5d4c 4c3e
00000250: adf4 9abe 77fe a13e a9aa 81be 70fa c1bd
00000260: 1a05 c9bd 2df4 743e 1577 463e 7da0 3e3e
00000270: f2c9 96be 583a 8fbe 2446 2c3b 3a17 ae3e
00000280: 0602 94be 0a6b 223e 2c31 19be 2c35 8abe
00000290: 5414 ac3d 56cb 7abd 215b a03e 92d2 ef3d
000002a0: 2e21 5e3d 08ba 06be 7498 8ebc 90fc a03e
000002b0: 77b3 25be 4575 fcbd fce3 a33e b5bc bcbe
000002c0: 7c49 0f3e 5d72 0c3e fefd 48be b00d 0e3e
000002d0: e6fa a13e 759f e0bd da01 033e 14ea ae3d
000002e0: 9c5e 503e 2a89 193c 4b63 533e 5e52 88be
000002f0: ac60 94be cbb7 a73e 8db8 223e d9df ec3d
00000300: 4809 9f3e 9148 a73e 78be 1d3e 1c8a a2be
00000310: cd40 f73d 4aaf ac3e 6aa4 193e 986c 42bd
00000320: abfb 2d3e b5b1 3ebc 522b a6be c53f 21be
00000330: 6fdc 9dbe 3464 02be 6806 983e 8fc1 703e
00000340: 76c4 8a3e e882 a2be 0dad 2ebe 1652 2b3e
00000350: 1f8f 8b3d f8fe ad3e 35b1 aa3e 07da 9abe
00000360: 8407 1e3d 4d30 84be d695 d9bd 05b1 9dbd
00000370: 4340 8dbe add6 4abe f568 e73d 756e 233e
00000380: b1f3 3dbd 3b10 83bd f976 273c 923f b53c
00000390: 0f7f a43d 1e75 5cbe ac4a 9e3d 24e3 a6bd
000003a0: fc24 6ebe b080 60be 10a2 873e b724 233e
000003b0: 2bdf 9dbe 71ba 8dbe f3f5 86be 1709 75bd
000003c0: 81db 913d 116d 443e caf4 b03e 1a2f 1f3e
000003d0: 1ae2 8fbe 549f 303e 8254 67be 113e 323e
000003e0: b584 bd3d b1b0 3f3d 2436 6c3b 016f aa3e
000003f0: 701b 863e 3166 3cbe 4127 fabd 7a8c 853e
0.2940283 0.11017562 -0.10729943 0.13884628 0.23392534 0.023999562 0.23153427 -0.13712153
-0.046025347 -0.051331393 -0.0018459712 -0.016013293 -0.07295931 0.092766136 -0.3243916 -0.20951879
0.1282666 -0.28907353 0.33706984 -0.20852108 -0.18288158 -0.22303994 -0.13483846 0.30905896
-0.028256543 0.15979107 -0.027025726 -0.122131854 0.06004549 -0.1813474 -0.18268743 0.11310359
-0.22883351 -0.21688807 -0.18245454 -0.083932385 0.13770193 -0.0809177 -0.2370512 0.25197735
0.2793344 0.14180374 -0.26877972 0.33087307 0.17465925 0.3359042 0.043362647 -0.26759592
0.054672945 -0.08323902 0.29429427 0.1354526 0.100931644 0.21615669 -0.17544472 0.24042825
-0.29587936 0.13014227 0.10257799 -0.17822187 0.16932224 -0.2830263 -0.010640291 -0.10034051
-0.025541639 0.30332938 0.18097796 0.21657011 0.16727692 -0.0035643592 0.03450736 -0.012057285
0.096658185 -0.20780511 -0.27169845 0.04329959 0.3006878 0.06563743 0.23605447 -0.28405374
0.08113717 -0.115940936 -0.12506963 0.09862026 0.11092627 0.022401452 -0.26104897 0.34906322
0.04516124 0.12976904 0.032297205 -0.0014523669 0.13223441 0.16102299 -0.10034504 -0.06401909
-0.011813589 -0.23682941 -0.22444192 -0.046712324 0.33547437 -0.2685861 0.22132419 0.32215405
0.22693074 0.13977097 0.26538765 -0.2326584 -0.29843044 0.085308656 -0.16602546 0.04538073
0.10694245 0.09324517 0.22690563 -0.089278154 0.25783536 0.036868934 -0.28957105 -0.18722023
-0.018292494 -0.31324014 -0.207023 -0.25722075 -0.23272833 0.26001495 -0.33361158 0.13984644
0.2321948 -0.05576842 -0.3411945 0.24511294 -0.3465554 -0.08381528 0.049986064 -0.29397225
0.14583106 0.18724388 0.057732042 0.13443963 0.09360556 -0.27945784 -0.0662762 0.25105456
-0.050676722 0.2231494 0.006039851 0.19951005 -0.30264798 0.31639454 -0.25325516 -0.09471595
-0.09815426 0.2392127 0.19381364 0.18615909 -0.29450947 -0.279742 0.0026286924 0.34002095
-0.28907794 0.15861145 -0.14960164 -0.26993692 0.08402315 -0.061229073 0.31319526 0.11710085
0.05423086 -0.13156903 -0.01740668 0.3144269 -0.16181742 -0.12327055 0.32009876 -0.36862722
0.13992876 0.13715501 -0.1962814 0.13872409 0.31636733 -0.10967914 0.12793675 0.085407406
0.2034859 0.009371081 0.20643346 -0.2662534 -0.28980005 0.3275741 0.15890713 0.11566133
0.3106177 0.3267255 0.1540469 -0.31745994 0.12072907 0.33727485 0.15004125 -0.047466844
0.16990535 -0.011639048 -0.32454926 -0.15746982 -0.3083224 -0.12733537 0.29692388 0.23511337
0.27103013 -0.317405 -0.17058201 0.16730532 0.068144076 0.33983588 0.33338323 -0.30244467
0.038581386 -0.258181 -0.10624282 -0.076997794 -0.2758809 -0.19808455 0.11299316 0.15960105
-0.04637498 -0.0639958 0.010221236 0.02212504 0.08032047 -0.21529052 0.07729086 -0.081487924
-0.23256296 -0.2192409 0.2649083 0.15931974 -0.30834326 -0.27681306 -0.2635952 -0.059823122
0.07121945 0.1918223 0.3456176 0.15545312 -0.2810219 0.17248279 -0.22590831 0.17406489
0.092538275 0.046799365 0.0036043013 0.33287814 0.26192808 -0.18398358 -0.12214518 0.26083738

sage.layer1.fc_pool.bias f4 [50]
00000000: 90b0 893c 1ffc 673d a579 cc3d a487 efba
00000010: 4c8c d23d 0d0f 983d 679f cf3d 5f23 f83d
00000020: 62bd 6d3c ca65 133e b77f 763d 0b5c 103c
00000030: 10f3 a6bd 65ee 003d 127d b9bd c020 97bc
00000040: 8bda 03be 43f7 f83d de2b c9bc 96a2 023e
00000050: 515b 07be 3a10 233d 91c4 8b3d 0c3c f8bc
00000060: 4a3d ed3d 9cdd 583d f735 c6bd 5a21 c73d
00000070: c986 ffbd 434d 72bd d9d9 bd3d c2e3 07be
00000080: c081 9fbd 3013 dd3d 8440 9dbc b6ca 5abd
00000090: 5437 7a3b d4cc 09bd c524 68bd cf80 6ebd
000000a0: 5ad0 d5bd 5bbd 033d 2393 30bd b33e 8c3c
000000b0: 0f91 0c3e dba7 c03d d361 cd3d 9f09 acbd
000000c0: 86c9 3cbd 7c3d 8abd
0.016807824 0.056636926 0.09984139 -0.0018274677 0.10280666 0.07424746 0.101378255 0.121161215
0.014510484 0.14394298 0.060180392 0.008811007 -0.08151829 0.03147735 -0.090570584 -0.018448234
-0.12876336 0.121565364 -0.02455705 0.12757334 -0.13218428 0.039810397 0.068246014 -0.03030207
0.115839556 0.05294572 -0.09678262 0.09723158 -0.1247688 -0.059155714 0.09270067 -0.13270476
-0.0778842 0.10794675 -0.019195803 -0.053415976 0.003817995 -0.033642605 -0.05667569 -0.05822831
-0.104401305 0.032163005 -0.04310907 0.017119741 0.1372721 0.09407016 0.10028424 -0.084002726
-0.046090625 -0.067500085

sage.layer1.fc_neigh.weight f4 [64, 50]
00000000: 22ba 903e d04d 77be c8de 93be 9295 a23d
00000010: 5eff 093e a090 96be 08b0 c23d b11d 3bbe
00000020: 79ec a53c c77f db3d b663 78be 493e abbd
00000030: 902b 0c3e 1b33 80be fa38 2dbc 6519 0abd
00000040: 1929 2d3e c4d5 35be 6456 fcbc ce6e 8abd
00000050: e52a 5f3c 9b86 a3be ec66 853d f825 6a3e
00000060: 047e f23d 0b95 883e ebfa 663e c706 bfbd
00000070: f8c0 4a3e f053 4d3e a035 423e 6644 23be
00000080: 4df4 473e df2c 143d 0743 3e3d 70f8 0cbe
00000090: f332 d63d 1bab 8f3c 76bb 393e 8c70 4b3e
000000a0: 2a33 86be db75 03be 9989 73be 6878 613e
000000b0: c969 143d 6cfd 6d3e 808e 4dbe 817b 863e
000000c0: 698a 883e 7e47 533e 9283 eebd 6918 05be
000000d0: b5d0 903e 8d29 82be 0e89 12bd 5423 0bbe
000000e0: 6046 ff3d 00dd 38be f935 f6bd 1bf0 d8bd
000000f0: 3598 4abe d149 3cbd 82eb 5e3d 27ac 96be
00000100: 040c 6fbe 2ad0 253e be79 5e3d efc2 713e
00000110: 49a8 203e 3265 69be 643d 50be 0637 6b3e
00000120: 328f 283e d7f8 9e3e 299c 8ebe 7c63 8ebe
00000130: 4976 fabd 329e 4ebc 7f03 48be c9a9 093e
00000140: 24f9 833d f059 643d 200b 50be 725c 443d
00000150: 7aa6 863c 571e 5a3d e0f3 94be 2156 a03d
00000160: 2613 4abe 60fb 773e 6f1f 60bd dbc6 a33d
00000170: 228a d73d 96da aebd 7fa3 eabc d72e 6bbe
00000180: a583 83bd 7de1 63be 0cb5 5a3e 1318 aabc
00000190: da72 333c ed5b a7be e399 7a3e 8ca0 5f3e
000001a0: 07f2 1ebe 6fa8 2ebd 74d1 d93d 8a6a 29bd
000001b0: d701 a7be 9856 8ebe 9784 a6be 1669 7dbe
000001c0: 3862 8bbe 261d 81be c519 953e eb8e 1ebd
000001d0: 9325 87bd fb2c 97be d753 e33d f4b5 41be
000001e0: c16e 69be e8ce 39be b0e7 56be 3c9a c43c
000001f0: bed0 db3d 751f 663e fdcc 12bc 8190 cc3c
00000200: 926c 31bd 78b0 233d 9004 9b3e 0f25 7a3d
00000210: e71c 2f3d 02f1 8f3e 7b6a 7b3e 931f 20be
00000220: 057a 73be 1df9 47be c4ba f93b 28e4 893e
00000230: 0791 1c3e b6b8 093e 4f49 26bc 3d82 b43d
00000240: 8c45 f2bd fe84 00be e1a5 043c b5ef a43d
00000250: 8877 52be d58b acbe aff4 93bd 55c8 9cbe
00000260: 26c5 8f3e ea93 8cbe a07b 96bc 5615 c83d
00000270: b68b ce3d 9d24 95bd ec58 223d 7597 a3be
00000280: b2b0 acbd 4b29 60be ad86 39be ca6f 56be
00000290: aa05 a8be b959 793c 7ee4 3fbe 2194 01be
000002a0: a5ee d73d 1f86 993e f7ec 123e fd6f febd
000002b0: 6c49 5dbd 0e4e f9bd 27c9 433e 10f8 423e
000002c0: 7cb1 a1bd 23e5 59bd a056 6d3d e93f 9dbe
000002d0: a633 903e caed a13e deba a7be 06e4 0c3e
000002e0: 7f95 3a3e 8abd 133e cf92 5c3e 3ede 8bbe
000002f0: f007 19be 19a7 883e 855e a9be 9f3d 113e
00000300: eaff 0dbe 1ea3 89be 93a0 303e 1c4f 98be
00000310: 6bab 0fbd 581c 2f3e e605 0cbd 0cae 303d
00000320: a8a0 80be 587a 753e c89a 99be 5bc4 733e
00000330: d41d 273d b77d 8e3e 3175 98be 161f 7ebe
00000340: de85 85be 3ed1 c6bc 446c 563e cf1b 0dbd
00000350: bf72 ee3d 33eb 92be c0b1 5dbe f3b9 69be
00000360: 0554 2bbe a5e9 8f3b 467a 643e 62c4 d13c
00000370: 3188 ebbd 793c 9cbe 673f 4fbd 0aa7 e83d
00000380: 9b28 9bbe eae7 8f3e 5b1a 47be ae03 8b3e
00000390: 3340 15be 540f 93be 0f09 873d cc8b 20be
000003a0: 4bea 89bd bff7 dbbd fa4b a93b 4269 1a3e
000003b0: 4cde b23d 0abb a03e e89b 113e 1533 7b3e
000003c0: 280a 44bd 58fe 953c 5deb c33d b7f1 e83d
000003d0: 46cb 19be ecd7 62be 08c9 1a3e 5596 dbbc
000003e0: 8906 9f3e e8eb a33d 0958 d73d 8a31 2f3e
000003f0: 9846 933d eb14 5bbe f72e 38bd c50f b0bd
0.28267008 -0.24150777 -0.28880906 0.079386845 0.13476321 -0.29407215 0.095062315 -0.18273045
0.02025436 0.10717731 -0.24256787 -0.08361489 0.13688493 -0.2503899 -0.010572666 -0.033715624
0.16910209 -0.17757326 -0.030802913 -0.067594156 0.013621067 -0.31938633 0.065137714 0.22866046
0.11840442 0.2667621 0.22556655 -0.093274646 0.19800174 0.20051551 0.18965769 -0.1594406
0.19526787 0.036175605 0.04645064 -0.13766646 0.104589365 0.017537644 0.18137917 0.19867152
-0.2621091 -0.12837927 -0.23782958 0.22018588 0.036233697 0.23241204 -0.2007389 0.262661
0.266681 0.20632741 -0.11646189 -0.12997593 0.2828423 -0.25422326 -0.035775237 -0.13587695
0.12464595 -0.18053055 -0.12022013 -0.105926715 -0.19784625 -0.045968834 0.054423817 -0.29428217
-0.23344427 0.1619269 0.05431532 0.23609518 0.15689196 -0.22792509 -0.20335919 0.22970209
0.16460875 0.31049225 -0.27853516 -0.27810276 -0.12229592 -0.012610959 -0.19532584 0.13443674
0.06444004 0.055749834 -0.20316744 0.047939725 0.016436804 0.05325159 -0.29092312 0.07828928
-0.19733867 0.24216986 -0.054717477 0.07996913 0.105243936 -0.08537786 -0.028642414 -0.22967087
-0.064215936 -0.22253986 0.21358126 -0.020763433 0.010952676 -0.3268732 0.24472766 0.21838588
-0.15522014 -0.0426411 0.10635653 -0.04136137 -0.3261859 -0.2780044 -0.32523033 -0.24747118
-0.27223372 -0.2521755 0.29121223 -0.038710516 -0.065989636 -0.29526505 0.110999756 -0.18917066
-0.22796156 -0.18145335 -0.2098682 0.023999326 0.10733174 0.22472937 -0.008960006 0.024971249
-0.04331643 0.039963216 0.30276918 0.061070498 0.042752173 0.28113562 0.24552338 -0.15637045
-0.23777016 -0.19528623 0.007621141 0.26931882 0.15289699 0.13449368 -0.010149314 0.088139035
-0.11829671 -0.12550732 0.008096189 0.08053533 -0.2055341 -0.33700433 -0.07224404 -0.3062159
0.280801 -0.274566 -0.018369496 0.097696945 0.100852415 -0.07282374 0.039635584 -0.3195149
-0.084321395 -0.21890752 -0.18117781 -0.20941082 -0.3281682 0.015219145 -0.18739507 -0.12654163
0.10543565 0.2998514 0.14348207 -0.12423704 -0.0540251 -0.12173091 0.19119702 0.19039941
-0.078951806 -0.053197037 0.05794394 -0.30712822 0.28164405 0.3162673 -0.32759756 0.13758859
0.1822109 0.14427772 0.21540378 -0.27317995 -0.14944434 0.26689985 -0.33079925 0.14183663
-0.13867155 -0.2688226 0.17248754 -0.29747856 -0.035075586 0.17100656 -0.034185313 0.043134734
-0.2512257 0.23972452 -0.300009 0.23805372 0.04079993 0.27830288 -0.2977691 -0.24816546
-0.26078695 -0.024269696 0.20939738 -0.03445035 0.1164298 -0.28695068 -0.21649837 -0.2282484
-0.1673127 0.0043918663 0.22312269 0.025606338 -0.11500586 -0.30514887 -0.050597575 0.11359985
-0.30304417 0.28106624 -0.19443648 0.27151245 -0.14575271 -0.28722632 0.06593525 -0.15678328
-0.06734141 -0.10740613 0.005166528 0.15079215 0.08733806 0.313927 0.1421963 0.24531205
-0.04786125 0.018309757 0.09566376 0.113742284 -0.15018949 -0.2215268 0.1511575 -0.026805082
0.31059673 0.0800398 0.10514838 0.17108741 0.07191199 -0.21394698 -0.044966664 -0.08596758

sage.layer1.fc_self.weight f4 [64, 50]
00000000: d424 6abd 72f9 083c 2a41 24be 3bf1 9dbe
00000010: f084 8e3e b0c1 64be 39f9 bcbd 9f67 3a3e
00000020: d3c9 f83d 3de1 c83d b861 063d f614 41be
00000030: ecbc 6ebd 3159 13bc 99f2 29be 1872 943e
00000040: 318a 88be cc9d 7bbe e900 8d3e b27e 07be
00000050: aabc 19be 5139 7bbb 75d9 c33c f64c 053e
00000060: 41a2 5f3e 95ce 8e3e 0d2b 96be 02a7 543c
00000070: eb2c c33d fa51 813e 84c2 4b3e ace8 833e
00000080: 459a f2bd 40f9 85be a86c 0ebe 58ad 933e
00000090: ef6c 0a3e 2cf9 f93d d15c 4f3e 6254 a8bd
000000a0: cb1a 003e 959b 80be 3609 973e a6eb 433d
000000b0: ca8b 933e d145 85be 6c49 5dbe 1938 1b3d
000000c0: fbb5 6f3e 5655 8fbe 51b8 69be 5376 623e
000000d0: 4be0 52be 6d03 28be 3b01 603e ae14 683e
000000e0: 5170 86be e20f 71be afef 9bbe 7543 89be
000000f0: bbc6 4f3e b484 7bbe 25d3 ba3d 768d ffbd
00000100: b16e 74bd e2db 6fbd 5ce8 753e c7b3 87bd
00000110: ef18 00be 6674 0ebe a3f8 bcbc 4131 1c3e
00000120: a705 693d 9f0c 863d 9de1 97be 6d0f 183e
00000130: 7e01 4c3e af04 9abd e82b 8abe dbad 863e
00000140: 5e97 e7bd d91f 5d3e c289 59be 99d3 aabd
00000150: 69ff 653e e167 d43d d1b7 e63c 16d9 ba3d
00000160: 5363 54be 396a 82be 342c d6bd 60ff 413c
00000170: 6653 97be 923b d9bc 0e2d 853e 8b57 153d
00000180: 8958 9cbe 6c65 25bc c450 123e ffc5 853e
00000190: ebce 8abe 8b99 0a3d fc04 01be 1b1a a1be
000001a0: 6f5e 9b3e c0f2 4bbe 95b5 a23d df09 463e
000001b0: fb0c 79be 9076 68be 03b3 19bd 215b 7abd
000001c0: 9d55 4d3d 8a17 6ebe 7440 e8bd a8ae 793e
000001d0: 2c37 603e c64c 05bd 4836 953e 8a6f 36be
000001e0: cff7 acbd dc7d 71be 6faa 81be c693 72be
000001f0: 2448 853c 24f9 653d ac25 94be 1bb0 bcbd
00000200: 1b55 6f3e 8835 40be 54f0 6b3c 9b06 e03d
00000210: 2b08 503e 3131 3abd dd76 123e d4c7 90be
00000220: 0b68 7ebe 0b9c ebbd b6d4 ff3d ff9a 423e
00000230: 8ae9 84be bc35 3a3d dc58 d83d 3c75 173e
00000240: 0b36 513d 8ecc f03d fcb2 303e 7b7a d53d
00000250: 9823 21be d1f0 7ebe 8fd3 0fbe eb7d 55be
00000260: 8186 283e e820 9a3d 42be 99bd b08f 0e3e
00000270: 333b 4dbe b334 80be c293 953d c9dc 383e
00000280: 7a3c 0d3e ee55 283e 91e3 07be b7b2 efbd
00000290: 426d 4e3e 9fec 26be cb88 32be 068e af3d
000002a0: 10ae b23d 10ac 94be cfc2 26bc e707 543e
000002b0: 8105 6f3e de8b 0dbe b3f4 353c 36f6 8c3e
000002c0: dadc 84bd 724f d5bd 146e a3bd 768b b73d
000002d0: ad7b 993e 3f43 693e 373e e53d c14b 9cbd
000002e0: d86f 19be c464 433e 7e6c ef3d 3a70 383b
000002f0: 3879 88bd bbfa dabd 1461 67be bdcb 20bd
00000300: 3beb a83e 864f 9dbe 6741 063e dace 6fbe
00000310: 4a24 a93e 52e4 8ebe dd3d 51be 7823 d83d
00000320: 95e8 7cbe 0dba 883e 1e38 b8bd d0ad 2a3c
00000330: a318 3a3a a9ca 8b3e 9f3a 883e 2823 f43d
00000340: d64f 713e aa3c 4dbe 7b22 713e c041 903e
00000350: 0a28 83be 1356 603e 6c8b 943e 93c6 2dbe
00000360: 1715 83be 9020 12be 48ca 863e 1b33 00be
00000370: ddb0 8e3d 392f 953e 531c 99bd 37a4 893e
00000380: 04f4 8dbd 320f 13be d5f1 a9be 3928 c43d
00000390: 665b 97be f798 ae3a 3330 75be 1916 c4bd
000003a0: 02f4 913d aa5d dc3d 03e4 5dbc 8871 9cbe
000003b0: df09 6cbd 936a 3f3e 4f47 88be d734 763d
000003c0: cad5 0ebd d3f7 323d 7eca 413e 6835 d3bd
000003d0: 75f5 91be d5b9 0dbd f772 543e 5887 cc3d
000003e0: 2a87 1b3d 4943 17be c9c4 19be 109c 263d
000003f0: 2649 a23e f855 a83e 878b 19be fa0c 59be
-0.05716403 0.008360254 -0.16040483 -0.30848107 0.27835798 -0.22339511 -0.09227223 0.18203591
0.1214787 0.09808586 0.032808036 -0.18855652 -0.05828564 -0.008993433 -0.1659645 0.28993297
-0.26667932 -0.24571913 0.27539757 -0.13231924 -0.15013376 -0.0038333724 0.023907403 0.1301764
0.21839239 0.27891985 -0.2932972 0.012979271 0.09530052 0.25257856 0.1989842 0.25763452
-0.11845831 -0.26166725 -0.13908637 0.28843188 0.13518117 0.12205729 0.2025025 -0.0821922
0.1251022 -0.251187 0.29499215 0.047832154 0.28817588 -0.26029828 -0.2161004 0.037895296
0.23409264 -0.27994794 -0.22824217 0.2211545 -0.20593373 -0.16407557 0.2187547 0.22664139
-0.26257566 -0.23541215 -0.30456302 -0.26809278 0.20290653 -0.24562341 0.09122304 -0.124781534
-0.059675876 -0.058559306 0.2401442 -0.06626087 -0.12509511 -0.1391159 -0.023067778 0.15253164
0.056890156 0.06545376 -0.29664317 0.14849634 0.19922444 -0.075204246 -0.26986623 0.26304516
-0.11308168 0.2159418 -0.21243957 -0.0834114 0.22460712 0.10371376 0.028163822 0.09123437
-0.20741014 -0.25471666 -0.1045765 0.011840671 -0.29555815 -0.026517663 0.26010936 0.03646044
-0.30536297 -0.010094982 0.14288622 0.26127622 -0.2711099 0.033837836 -0.12599558 -0.3146523
0.30345485 -0.1991682 0.0794479 0.19339703 -0.24321358 -0.22701478 -0.037524235 -0.061122064
0.050130475 -0.23251167 -0.113404185 0.24383032 0.21896046 -0.03254392 0.29142976 -0.17815986
-0.08445703 -0.23583168 -0.25325343 -0.23689184 0.01626975 0.056145802 -0.2893499 -0.09213277
0.23372309 -0.1877042 0.01440056 0.1093876 0.20315616 -0.04545707 0.14303155 -0.28277457
-0.24844377 -0.11504372 0.12491743 0.19004439 -0.25959426 0.0454614 0.105638236 0.14790815
0.05107693 0.11757766 0.17255777 0.10423752 -0.15736234 -0.24896552 -0.14045547 -0.20848815
0.16457559 0.075258076 -0.07506992 0.13922 -0.20042114 -0.25040206 0.07303573 0.18052973
0.13792601 0.1643903 -0.13270403 -0.11704009 0.20158866 -0.16301201 -0.17434995 0.08572011
0.08724606 -0.29037523 -0.010178282 0.2070614 0.23341943 -0.13822886 0.011105704 0.27531594
-0.064874366 -0.104155436 -0.0797998 0.08962147 0.2997717 0.22779559 0.11193507 -0.076316364
-0.14984071 0.19081408 0.11690615 0.0028143064 -0.06663746 -0.10692354 -0.22595626 -0.0392568
0.32991967 -0.30724734 0.13110887 -0.23418751 0.330355 -0.2790857 -0.20433755 0.1055364
-0.24698098 0.26704445 -0.089950785 0.010417417 0.0007099008 0.27303055 0.26607224 0.11920768
0.23565611 -0.20042673 0.2354831 0.28175163 -0.25616485 0.21907835 0.2901262 -0.16970281
-0.25602028 -0.14270234 0.26326203 -0.12519495 0.06967328 0.2913759 -0.074761055 0.26883098
-0.06931308 -0.14361265 -0.33192316 0.09577984 -0.2956192 0.0013320734 -0.23944168 -0.09574527
0.07126619 0.107600525 -0.013543132 -0.30555367 -0.0576266 0.18692999 -0.26616904 0.060108986
-0.034871854 0.043693375 0.18924901 -0.10312921 -0.2850758 -0.03460105 0.2074698 0.09986752
0.0379707 -0.14771761 -0.15016474 0.040676177 0.31696433 0.3287809 -0.14994632 -0.21196356

sage.layer1.fc_self.bias f4 [64]
00000000: a7c4 ed3d e50c 803d 6065 6f3c 4a26 4d3d
00000010: 5c89 bf3d e764 b43d 21bd a7bd db0f cabd
00000020: 79b0 e73d ca5e c23d d65a c9bd 215b a4bd
00000030: f6bb a4bd 4a80 0abe f63d b5bd 285a 22bc
00000040: 4b4a 963c 4960 39bd 65c5 71bc e039 ef3b
00000050: 8945 0bbe 5a0e c5bd caad 9cbd 7e78 f33d
00000060: b8ca dfbd e1a7 fbbd aec3 393c 5cdf cc3d
00000070: 83d5 96bd 2ee0 043d 1903 623d bf70 6cbc
00000080: aa05 d73d 7b48 c93d f081 87bd 26f0 863b
00000090: 007d e83d 8d65 eabd 138a 9b3d e14a cebd
000000a0: 0b30 e4bd 5742 0abe b69a ba3d d76e de3d
000000b0: 3b71 debd 61b7 633d f57c 8a3d 547c ed3d
000000c0: e8f9 9cbd b035 df3d f53c ac3b 9d90 abbd
000000d0: 0992 da3d d1b3 16bd 69c3 cbbd ca99 8d3d
000000e0: 13bc 71bd 2b1e b63d 716f 09bd a47f cb3c
000000f0: d1d3 04be a026 f1bd 7056 0dbe b64d 27bd
0.11609774 0.062524594 0.014611572 0.050085343 0.09352371 0.08808308 -0.0819037 -0.098663054
0.11312956 0.09490736 -0.09831779 -0.08025194 -0.08043663 -0.13525501 -0.08849709 -0.00990919
0.018345973 -0.04525784 -0.014756535 0.0073006004 -0.13600744 -0.09621878 -0.07650335 0.118882164
-0.109273374 -0.1228788 0.011338158 0.1000354 -0.07364943 0.032440357 0.055178735 -0.014431178
0.10499127 0.09828278 -0.066165805 0.0041179834 0.11351967 -0.114451505 0.07594695 -0.10072876
-0.11141976 -0.13501869 0.0911154 0.10860985 -0.10861441 0.055594806 0.06762115 0.11595979
-0.07664853 0.10898912 0.00525629 -0.08377192 0.10672385 -0.03679258 -0.09949381 0.069140986
-0.059017252 0.08892473 -0.033553544 0.024841137 -0.12971427 -0.11774945 -0.13802505 -0.040845595

sage.layer2.fc_pool.weight f4 [64, 64]
00000000: a817 65bd 7b46 6d3b d727 4ebe 3dec 6cbe
00000010: 4aa4 1a3e 0044 893e 0bb0 89be e3e2 7bbe
00000020: 5b95 253e 85a5 c4bd 3f09 34be ee9c 72be
00000030: 1247 623e 00ac 663e 0701 70bc 6a7e 8a3e
00000040: 6074 47be 6591 f3bc 14c8 c5bc d1b0 d43d
00000050: bf5c fcbd d92f ccbd 4a0f 0cbd f85a 893e
00000060: a134 8a3d 0d6e 91bd 830d 91be c359 8fbe
00000070: 61c4 393e 90dc 623e e2b7 14bd 1309 0dbb
00000080: dc1e 2bbe 7898 f33c c06e 8c3d 2c9e 133e
00000090: e2a0 883e 2fbd f83d 27a1 2dbe 781b 193e
000000a0: d98c 133e cc42 493e 551c 61be 1be1 98be
000000b0: deba 67bc bc3e 4e3e 9b9a 223e 03a9 2dbe
000000c0: 24e1 72be 47fd 6cbe 0dda b83c 1977 80be
000000d0: edcd 553e 8024 8abe f57b b53b ed51 b13d
000000e0: 25de 8c3e ca39 893e 72cf 33be bdbe 1ebe
000000f0: 6574 da3d 003c 623e 3852 62be 3a3d 59be
00000100: c6ef 3bbe a77a 1c3e 8de7 c9bd c271 873e
00000110: 6545 a43d 5f9f 52be 57f9 5e3e 7292 9bbe
00000120: da41 9b3e 4db9 943e 6a0a ca3d abfb 883d
00000130: 992d 153d 6d06 bcbd 3fff e5bd da8f 303e
00000140: 8d55 583e 7496 c13d 5c96 22bc 17c4 023d
00000150: a228 1b3e 994e 4abe 8c29 763d 9c32 77be
00000160: bd73 8ebe d21e 703d abc4 293d e8fb ba3d
00000170: 5a17 46be 1f87 943e a153 2e3e 9bb8 9e3d
00000180: 4ad5 28be 9586 323e 370a 6b3e 3bd3 bfbd
00000190: da7b 47bd e76f dabd 4058 53bd 39a8 15be
000001a0: e2e5 34be 1395 53be d5c9 763d b5a4 983e
000001b0: 8e1c b93d d081 d43b a709 bbbc 3947 4dbe
000001c0: 0a82 06bc 35e1 d33d 2d53 cfbd 8799 53be
000001d0: ccb9 53be bb27 0ebe 646f bebd abb3 99bd
000001e0: 94d2 923e b539 7bbe a31e 693e 7faf 8dbe
000001f0: 9987 9cbd 7cdd 983e 15f6 bc3d 5b34 c33d
00000200: 53da 83be 2666 58be ab29 1bbd cc2a 2dbc
00000210: 7813 5d3e 77f8 f93d d983 823d 90ed 5abd
00000220: ab48 6a3e 2213 39be 96e5 833d 0724 8bbd
00000230: 57fd 22bd 091f 0f3d bcfe 34bc cddd 92be
00000240: 77a9 7abe 9ab9 80be 6402 193d 551b e5bd
00000250: 1bec 133e ac0b 8cbe 4984 5f3e 0593 cebd
00000260: e608 8fbe c888 4dbe ff5d f5bd e8ed dfbd
00000270: a0f0 d9bd 57da da3c 86d0 e83d a0cd e2bd
00000280: 276f 74bc e6f9 8abe c333 d0bc 32e7 883c
00000290: 4efc b5bd 34da aebd 86f4 88bd f6cf 48be
000002a0: ada3 863e c02b 2a3c a978 5f3c 46d4 22be
000002b0: d3e6 33be 52e1 e53d 1c9b 44be 3ea1 31be
000002c0: a137 d93d 640a 533e 93ed 263e ac03 0abe
000002d0: d834 65be 0196 313e 50dc 4e3e 036e a93c
000002e0: da42 2bbe 1b47 8cbe f50f 4abe e057 92bd
000002f0: 16ac 413a f198 3abc e2bf 273d 4c45 3b3e
00000300: 478e 073e 8eef fe3d 386f 22be a342 273e
00000310: 7447 3ebe 01d2 0b3d 1a33 563c 0301 393e
00000320: c27a c5bd 20fc 68be be12 94be 06c9 7cbe
00000330: 6db8 04bc a805 773e 6f38 7cbe 078f 0f3d
00000340: f8f6 37be 5498 21be 28f5 bfba 90dc 553e
00000350: 8ecb 003e 7b1c 433e cec1 083e 11fd 5e3e
00000360: 67ea 7c3d 7c88 213e 3663 c3bd 7873 5c3e
00000370: ea89 223e 73b6 963e bf33 913d f3de c73b
00000380: 2656 433e e5af f2bd 3655 d9bd a2c1 593e
00000390: 95ae 5bbd 953c 46be f0be e43d 9694 9fbe
000003a0: 14fe 3dbe 3b09 583e d4c6 febd 4817 8a3e
000003b0: b757 48be 2676 8abe d9aa 0fbd 34ec 17be
000003c0: 8a9a 99bd 5f4d 383c b0dc 103e 5034 8f3e
000003d0: 7246 64be 753a 983c 7e25 e23c cdfc 8abe
000003e0: fb0a 653e 3ac5 0a3b 62d0 8dbe db3f a83d
000003f0: 1f87 583d 941b a9bd 8b81 3e3e dcf7 953e
-0.055930763 0.003620534 -0.20132385 -0.23136993 0.15101734 0.26809692 -0.26892123 -0.24598269
0.16170256 -0.09601883 -0.17581652 -0.23692676 0.22097424 0.2252655 -0.014648682 0.2704957
-0.19477987 -0.029732415 -0.024143256 0.103852876 -0.123223774 -0.09970064 -0.03419427 0.26827216
0.067483194 -0.07101069 -0.2833062 -0.2799817 0.18141319 0.2215445 -0.036308177 -0.0021520301
-0.1671099 0.029735789 0.068570614 0.14415807 0.26685244 0.12145459 -0.16956006 0.14951885
0.14409198 0.19654387 -0.21983464 -0.29859242 -0.014143674 0.20141119 0.1587929 -0.16959004
-0.23718697 -0.23143493 0.022564912 -0.25090864 0.20879336 -0.26980972 0.0055384585 0.08658204
0.27513233 0.26801902 -0.17559603 -0.15502448 0.10666732 0.220932 -0.22101676 -0.21214762
-0.18353185 0.15281163 -0.09858618 0.26453978 0.080210485 -0.20568608 0.21774803 -0.30385166
0.30323678 0.29047623 0.098652676 0.06688627 0.03642044 -0.09180913 -0.11230325 0.17242375
0.21126385 0.09452525 -0.009923544 0.031925287 0.15152219 -0.19756545 0.060098216 -0.241404
-0.27822676 0.058623143 0.041447323 0.091300786 -0.19344845 0.2900934 0.1702409 0.077500544
-0.16487613 0.17434151 0.22953115 -0.09366461 -0.0487021 -0.10665875 -0.051597834 -0.14614953
-0.17665818 -0.20662336 0.060251076 0.29813161 0.090386495 0.0064852014 -0.022831751 -0.200467
-0.008209715 0.10345689 -0.101232864 -0.20664035 -0.20676345 -0.13882343 -0.0929859 -0.07504972
0.28676283 -0.24533732 0.22765593 -0.27672955 -0.07643051 0.2985648 0.09226624 0.095314704
-0.25752506 -0.21132717 -0.037881535 -0.010569286 0.21589458 0.12205594 0.06372804 -0.053449214
0.22879283 -0.18073705 0.064402744 -0.06793981 -0.039792385 0.034941707 -0.0110470615 -0.28684846
-0.24478708 -0.25141603 0.037355796 -0.11186854 0.14445536 -0.27352655 0.21827807 -0.100866355
-0.27936476 -0.20071709 -0.11980819 -0.10934049 -0.10641599 0.02671544 0.11367898 -0.11074376
-0.014919079 -0.27143782 -0.025415307 0.016711805 -0.08886014 -0.08537713 -0.06687264 -0.19610581
0.2629675 0.010386407 0.0136396075 -0.15901288 -0.17568521 0.11224617 -0.19199795 -0.17346665
0.106063135 0.20609432 0.16301565 -0.13477963 -0.2238344 0.17342378 0.2020123 0.02068234
-0.1672472 -0.27398 -0.1973265 -0.07145667 0.00073880085 -0.011389003 0.040954478 0.18288153
0.13237868 0.12448035 -0.15862739 0.16334014 -0.18581945 0.034135822 0.013073707 0.18066792
-0.09642555 -0.22752428 -0.2892055 -0.2468606 -0.008100611 0.24123251 -0.24630903 0.03504851
-0.17965305 -0.15780765 -0.0014645206 0.20884919 0.1257765 0.19053833 0.1335518 0.21776225
0.06174698 0.15774721 -0.09540407 0.21528423 0.15872923 0.29436073 0.07089948 0.0060995757
0.19075832 -0.118499555 -0.10611956 0.21265271 -0.05363329 -0.19359048 0.11169231 -0.3116805
-0.18553954 0.21097271 -0.12440267 0.26970887 -0.1956471 -0.27043265 -0.035075042 -0.14836198
-0.07500179 0.011248915 0.14146686 0.279696 -0.22292498 0.018582562 0.027605768 -0.27145997
0.2236747 0.0021174685 -0.27698046 0.082153045 0.052863237 -0.08257213 0.18604104 0.29290664

sage.layer2.fc_pool.bias f4 [64]
00000000: 0c1e f6bd 8b7e acbc c319 b23d ad5d dabb
00000010: aa7f 94bd 13d4 e4bd 4a16 d83c 28c4 f93d
00000020: 4840 e1bd 063e 433d 7caf 163d b141 2e3d
00000030: fbd7 ecbd 5dd8 573d 75c3 c1bc 81e4 97bd
00000040: 1a42 57bc 05fc c6bd 58d4 f6bc be31 dc3d
00000050: 88d6 f738 770c 8bbd cac6 d63c 3da2 f4ba
00000060: c073 c3bd b0e0 22ba bfd2 4bbb 0fc3 603c
00000070: 51ae 8abd 5504 643d 20d2 00bd 57ac 39bd
00000080: 59f2 ab3b feea b73c 1d7a e13d 5a8a febd
00000090: 69a2 9c3c 6003 2e3d 4449 e93d 435e f5ba
000000a0: c6a3 7e3d 03f2 1b3d e4a1 adbd 2568 a23d
000000b0: d5b4 eebd e281 9fbc 557e 0bbd 0041 133c
000000c0: 8542 983d 91c2 c63b e42d 663c 8548 ea3d
000000d0: 768b b03d 64cc af3d f75c 923d b9d3 6e3d
000000e0: 8d73 bf3d a4c9 74bd e7e9 ebbd d940 e23c
000000f0: 768c 2c3c d656 89bd f6dd 58bd f815 013e
-0.1201745 -0.021056434 0.0869632 -0.006663999 -0.072509125 -0.111732624 0.026377816 0.12195617
-0.10998589 0.047666572 0.03678845 0.042543117 -0.115646325 0.052696574 -0.023652771 -0.074166305
-0.013138318 -0.09716038 -0.03013055 0.10751675 0.000118178374 -0.06789487 0.026217837 -0.0018664073
-0.09543562 -0.00062132906 -0.0031100956 0.013718381 -0.067715295 0.055668194 -0.03145039 -0.04533037
0.005247396 0.02245092 0.110096194 -0.12428732 0.019120412 0.042483687 0.113909274 -0.0018720109
0.062167905 0.038072597 -0.08478144 0.0793002 -0.11655585 -0.019471113 -0.034056026 0.008987665
0.074345626 0.0060656746 0.014049027 0.11439613 0.0862035 0.08583906 0.07146638 0.058307383
0.093482114 -0.059762612 -0.11519223 0.027618812 0.010531535 -0.06706016 -0.052946053 0.12606037

sage.layer2.fc_neigh.weight f4 [128, 64]
00000000: cfdb 0a3d 1a10 6ebe 59dc abbb 5833 e1bd
00000010: 88de 27be 74a6 c73d ba5d a33d 1057 3dbe
00000020: 8fed 20be 7b04 263e 5e27 003d 3b04 26bc
00000030: 5906 803e da0d c33d 6ff2 323e d9de 0b3e
00000040: bd39 163e 4489 973c ea4b 42be ddb5 233e
00000050: d6c7 2a3d a11b 8b3d 7c37 abbd 0d12 ccbd
00000060: 1b37 853c f0ee 3a3e d5ce 3d3d 59e9 25be
00000070: 36b5 c33b 1bf3 05be 6632 883d 04ac 3bbe
00000080: 928e 24be b407 36be c140 f9bd f7e7 49be
00000090: 1878 3cbe 392c 5e3e 4419 edbd 2c51 18bd
000000a0: 3de3 18be 07a9 83bc da47 e53d 198b 2d3c
000000b0: a4df 10be e75f 1bbe b4a2 83bd 2700 7bbe
000000c0: 06df 473e 2e3e 68be a1ca bbbd c327 913c
000000d0: e3ce 023e eee4 4dbc 97b0 dd3d 0fd3 423e
000000e0: d6f2 62be c472 453d 1597 06be b192 013c
000000f0: f883 0dbe 46e7 0d3e 041f 0fbd 2060 813e
00000100: 4c2e 7d3e de59 743e b433 d2bd 749b 513e
00000110: fecb 833d fc5e 8c3e 85ee 693d 5bd4 373e
00000120: 64da d0bd 8102 313d 80c0 bbbc 00bb 62bd
00000130: 139f 81bd 4d50 3c3e 49e8 72be 0f55 dabd
00000140: 07c4 51be 1414 f63d c16f 69be feb0 683e
00000150: b6d2 f1bd 5167 2c3d 4cbc 963d afa6 713c
00000160: a4c4 163e 25c3 2dbe ed8c dc3d 2c36 d53d
00000170: e978 283e 74f8 453d e27a 67be 7d2d 56be
00000180: 9d6b 543e 052e 84bd 24a1 34bc dd57 37be
00000190: 37f1 2ebe 0daa 613d b219 28be 3560 b03d
000001a0: 203e b3bc ec53 073e b4b9 7fbc c210 353d
000001b0: 9a21 01be 67dd e83d 3cd8 423e d4f2 34be
000001c0: f501 8b3d a781 2c3e 4f5a 673e 87a0 33be
000001d0: 1fbd 2f3d 18a8 4abe 7f58 a43d e3af 56bb
000001e0: a45f 5c3e 3c95 873d f9e6 eebd 5250 26be
000001f0: 90ca 25be 4902 0c3e 2a17 6dbd 7588 2e3e
00000200: 81cf b3bd 15ff a83d f822 13bd 4e0b 0f3d
00000210: 0d52 803e 71a2 963e d11e 843b 9002 4fbe
00000220: 626d b0bd 55ff ac3c eab3 1abd 1874 7abd
00000230: 4457 b93d c269 bbbd 0174 663e b7c5 11be
00000240: 9d3d 503e 59c7 56be 21d5 42be ea3a bcbd
00000250: a5d7 053e 57d5 a73d 5e23 a8bd 6069 1fbe
00000260: 1ea1 943d 5ae5 c53d 86d5 39be 8254 453e
00000270: 4f41 09be 16ee 663e 9e59 4abe 4463 2ebe
00000280: 15f2 0d3e 1905 6ebe b723 24be 8e78 e33d
00000290: 068a 2abe 5f2e 33bc 9553 e83d b2a7 dfbd
000002a0: d4e4 223e 114e fbbd 6249 be3d ae56 bbbd
000002b0: 9c99 61be 5074 4dbe 0224 a9bd 8eef 6d3e
000002c0: d187 0f3e 27f9 543d bc47 1bbd 72d5 78be
000002d0: 0ec0 b23d 7638 86bd 9bfd 113e dbe1 19be
000002e0: 5d17 34bc 10d8 d13c 34cf 553e fdcf f4bc
000002f0: 8305 3a3e 84d8 7c3d 9776 613e 918b 8c3d
00000300: 0cb8 00be 6208 d13c 2595 533e ac51 77be
00000310: c68b 98bd 172c 3ebc 2c30 be3c 9121 d3bd
00000320: 7329 133e 5edf 5b3c 27fb 3cbe 5f15 e43d
00000330: 0f17 babd dbb8 42bd 989e 84bd 1cee 8e3d
00000340: 8f9c 9e3c 6bfa f4bd 321d 31be 4e0a c03b
00000350: a77a 32be 39f0 703e 7abf 1c3e 74c9 88bd
00000360: 0b40 b6bc 52db 00be 501d cd3d 6137 7abe
00000370: 0b94 393e e3be f6bd 74ec 9e3d 0ff5 32be
00000380: 0711 09be a825 803d aa6c 5f3e 0009 013d
00000390: 5793 a93d 1cee 60be ad42 d13d 8b40 ac3d
000003a0: 507e 03be 28c6 bb3d d678 623e b6d8 823d
000003b0: 35c0 0f3e 596c 95bc 67c4 37be d747 6abe
000003c0: e3b8 bd3d 15c0 c33d 2c67 66be 93ed 07be
000003d0: c4b2 5f3e 75d4 5f3e 9b14 2d3e 197c 33be
000003e0: e702 57be 6018 fcbd 1ef8 51be b584 3abe
000003f0: 6606 58bd 5fe2 d43c 66fa 4a3e b939 b33c
0.033901032 -0.2324833 -0.0052447733 -0.10996121 -0.16393483 0.09748545 0.07976861 -0.18490243
-0.15715621 0.16212647 0.031287543 -0.010132845 0.25004843 0.09524126 0.17475294 0.13659228
0.14670463 0.01849807 -0.18974271 0.15987344 0.041694485 0.06792379 -0.08360192 -0.099643804
0.016261628 0.1825521 0.04633983 -0.16202296 0.0059725298 -0.13081019 0.06650238 -0.18327338
-0.16070011 -0.17776376 -0.12170554 -0.19717394 -0.18405187 0.21696557 -0.11577085 -0.037186787
-0.14930435 -0.01607181 0.11195345 0.0105922455 -0.14147812 -0.15173303 -0.064275175 -0.24511777
0.1951867 -0.2267997 -0.09169508 0.017719155 0.12774234 -0.012566788 0.108246975 0.19025825
-0.22162947 0.048205152 -0.1314357 0.007908509 -0.13819873 0.13857755 -0.03494169 0.2526865
0.24724692 0.23862407 -0.10263768 0.20469457 0.06435393 0.27416217 0.057112236 0.17952101
-0.10197905 0.04321528 -0.02291894 -0.05535412 -0.06329169 0.18390007 -0.23721422 -0.10660755
-0.20484935 0.12015548 -0.22796537 0.22723767 -0.11807768 0.042090718 0.073601335 0.014749213
0.1472345 -0.16968973 0.10769067 0.10410723 0.16452374 0.048332646 -0.2260547 -0.2091579
0.20744176 -0.0645409 -0.011024747 -0.17904611 -0.17084204 0.055093814 -0.16416052 0.086121
-0.02188021 0.13215607 -0.01560824 0.044205435 -0.12610474 0.11370354 0.190278 -0.17670757
0.06787483 0.16846333 0.22593044 -0.17541705 0.04290497 -0.19790685 0.08024692 -0.0032758645
0.21520859 0.06620261 -0.11665148 -0.16241577 -0.16190553 0.13672747 -0.05788342 0.17044242
-0.087798126 0.08251778 -0.03592202 0.03492289 0.250626 0.29420808 0.004031994 -0.20215821
-0.08614613 0.021117846 -0.037769236 -0.061145872 0.09049848 -0.09151031 0.2250519 -0.14235578
0.20336004 -0.20974483 -0.19026615 -0.091909245 0.13070543 0.08194988 -0.08209871 -0.15567541
0.07257293 0.09662886 -0.18147859 0.19270518 -0.1340382 0.2255176 -0.19760749 -0.17030054
0.13861878 -0.23244132 -0.16029249 0.11106978 -0.16654214 -0.010936349 0.11344067 -0.10920657
0.15907604 -0.12270749 0.092913404 -0.09147392 -0.22031254 -0.20063901 -0.08258821 0.23235914
0.14016654 0.051995423 -0.037910208 -0.24300173 0.08728038 -0.06553738 0.14256899 -0.15027563
-0.010991898 0.025615722 0.20879823 -0.029884333 0.18166165 0.061729923 0.22017895 0.06862558
-0.12570208 0.025516693 0.20662363 -0.24152249 -0.07448535 -0.0116071915 0.02321633 -0.10309137
0.1437128 0.013419954 -0.18455182 0.11136889 -0.09086429 -0.047539573 -0.06475562 0.069790095
0.019361762 -0.11961826 -0.17296293 0.0058606034 -0.174296 0.23529138 0.15307418 -0.06679049
-0.022247335 -0.12583664 0.100153565 -0.24435188 0.1812288 -0.120481275 0.077599436 -0.17476295
-0.13385402 0.06257182 0.21818796 0.031502724 0.08280056 -0.21965832 0.102177955 0.08410748
-0.12841153 0.09168655 0.22116408 0.063889906 0.14038165 -0.01824014 -0.17946015 -0.22878967
0.0926378 0.09558121 -0.22500294 -0.13274221 0.21845537 0.2185839 0.16902392 -0.17527808
-0.20997201 -0.12309337 -0.20504805 -0.18214686 -0.052740477 0.025986848 0.19822082 0.02187811

sage.layer2.fc_self.weight f4 [128, 64]
00000000: f114 5e39 c6e8 2c3d 4b53 303e 5747 0c3e
00000010: 3c27 a43d ddf9 febd 1ecf d63d 92e7 593e
00000020: 9cc0 34be e572 83bd c136 e63d 9242 1e3e
00000030: 7c4e cabd f765 073e 19c8 0fbe e77d 473c
00000040: 970d 2bbb 97f3 e03d 16bf 5bbe 2c18 babd
00000050: 4b6f d43c 4ae0 413e 5c4a dbbc 8aa9 893d
00000060: 3dac e53c 21e7 0f3e aef9 0b3e 494a bf3d
00000070: 1bbb 613e a003 b0bc 8618 44be 9f60 f7bd
00000080: 00f6 e9bb 1399 f53c e371 2c3e cb8c cc3d
00000090: a2d2 58bd bb95 d1bd 47fe 023e b965 f5bd
000000a0: e4fa c03d fc26 55be 4c05 6ebe 787f 6abd
000000b0: 8c02 353e 37ef 36be ca81 1cbe 6408 873d
000000c0: 6318 2f3e 963b 4b3d 2917 813d bbf3 59be
000000d0: fda9 043e 44bf 8c3d 735e 0b3e 59d4 bebb
000000e0: 8250 6b3e b0e1 6bbe 3e7f 1a3d a98e 663e
000000f0: 213b 1cbe 4246 dc3d 9f42 723c ed5c 833e
00000100: 03cb ef3c 5ff7 783e 29b9 8e3c 74e3 ba3d
00000110: 5d0e c0bc 3713 523e e6c5 263e 6937 7d3e
00000120: 3ec2 a63d 652e 35be c47a 26be 2076 eabd
00000130: 9099 f8bd 6a6e 16be 7c89 37be d942 593d
00000140: e2bb 663e 88ab 4abe e416 ac3d 5ed2 01bd
00000150: 20cf 023e de4d 71bd aa56 6abd b5ca 733d
00000160: a2d7 0ebe 1615 74bc 3cc5 1f3d eb3d ae3c
00000170: 0240 35bd d4b1 31be 6ae0 633e 2fd3 5fbd
00000180: e512 45be dfff 60bc 06e1 f03d 53ca 9f3d
00000190: 411b a3bd 41e7 1f3d 2d09 9c3d fe09 883e
000001a0: 60e8 1a3d b81b b93d e8ce 9c3d a2b7 503e
000001b0: bfa3 bfbd 5a41 243d 441d 093e 87a3 1a3d
000001c0: 64fa 5f3e 3b32 583e 886f 66be 808e 993d
000001d0: aef0 523e f0cc 44be 622e 673e 88a1 53be
000001e0: fd83 37be 17ed b6bd 8245 1dbe b138 3f3d
000001f0: 6ae3 c8bd 06dc 1cbd 2c0b d3bd 0e47 513d
00000200: 2d87 ecbd a1ff 3d3e df39 a1bd 91e7 533e
00000210: 6070 10bb 60d9 57be fde3 c93d 49d8 d63d
00000220: 237f 1dbe 51b3 173e e239 14be d993 573e
00000230: a810 1cbe 631a 103d 09b8 1c3e 76e9 163e
00000240: edde 153e ee3f f2bd 5a8e 323c 62ed 6dbe
00000250: 0c77 593e 47bd 02bd 193f d33d d6b7 b3bd
00000260: 667f 543e 6eab 24be 334c 9c3d 3909 253e
00000270: 3434 b03c 9d26 743d 48e8 22be 7b7d a8bc
00000280: 564e ecbc d6b9 203d 0394 90bd f1d1 17be
00000290: 9189 f93d 3548 c3bd f7b5 3a3d 3917 ad3c
000002a0: f1bf 78be 7578 43be 41b5 63be 1517 5a3d
000002b0: a013 003c d888 cdbb a5e1 f93d 4f84 9f3d
000002c0: 3f0b 40be 80a5 5b3e f7c5 393e a04f 593e
000002d0: 9655 c43d 75b2 49be 9bbe bb3d a324 75be
000002e0: c975 26be 700d 3cbe 5783 0abe 3e9e ff3d
000002f0: 71bf 423c 9bed 0cbd ee33 a9bd de7c c53d
00000300: 1234 7abe e011 2e3e cb56 0fbe e51a 74be
00000310: ff7d a13c f736 4d3e bd91 a63d 3d34 aebd
00000320: b576 063c fbdd ad3d ada3 0ebe 5958 69be
00000330: cf95 ac3d 9be8 6c3e 4aa2 ddbd 571d 71be
00000340: be04 873c 0bba 78be 729b 5ebe ce89 023e
00000350: ed23 e0bd dfdf 68be b9e0 53be df3c 13be
00000360: 247d 82be 180d 12be 48ca 38be c384 28bb
00000370: 1fa2 e63d db96 143e 8d24 173d 5c4f 9dbd
00000380: b84a 2ebd ac97 13be 91e9 39bc f459 7dbd
00000390: 90e5 92bd 279e 32be 2967 5c3d 353b a63c
000003a0: 18da f4bd 0f44 8b3c 3911 473e 8cf7 153e
000003b0: 19c8 14be 6efa 38be 2843 d2bd e8ef 553e
000003c0: 8e54 79be 71d5 683e a2dc bebc acd3 6cbe
000003d0: 36e4 903d 256c 473e e824 763e a810 d23d
000003e0: 7692 e73c 164a 4d3e 52ee 813d c1cc 013e
000003f0: 89ee 62be e2ff f2bc a40a 3e3d 11ec 0ebe
0.00021179371 0.042214178 0.17219274 0.13699089 0.08015296 -0.124500014 0.10488723 0.21279743
-0.176516 -0.06418399 0.11240912 0.15455082 -0.09878251 0.1322249 -0.14041175 0.012176014
-0.002610063 0.10983961 -0.21459612 -0.09086642 0.025931975 0.18933216 -0.026768856 0.0672179
0.028036231 0.14053012 0.13669464 0.09340341 0.22044031 -0.021486104 -0.1914998 -0.12078976
-0.007139921 0.029980218 0.1684032 0.09987792 -0.05293525 -0.10233637 0.12792312 -0.11982293
0.094228536 -0.20815653 -0.23244208 -0.05725047 0.17676753 -0.1786469 -0.15283886 0.06593397
0.17099147 0.049617372 0.063032456 -0.21284382 0.1295547 0.068724185 0.13610248 -0.0058236537
0.2297993 -0.23035312 0.037719004 0.22515358 -0.15256931 0.10755588 0.0147863915 0.25656834
0.029271608 0.24313115 0.017422276 0.091254145 -0.023444349 0.20515142 0.1628643 0.24728169
0.081425175 -0.1769348 -0.16257769 -0.11448312 -0.12138665 -0.14690557 -0.1792354 0.053042267
0.22532609 -0.19791996 0.084028035 -0.031694762 0.12774324 -0.05891215 -0.057211556 0.05951949
-0.13949445 -0.014897605 0.039006457 0.02126976 -0.044250496 -0.17352992 0.22253576 -0.05464476
-0.19245489 -0.013732879 0.1176167 0.07802262 -0.07964183 0.0390389 0.07618938 0.26570123
0.037819266 0.0903849 0.07656652 0.2038255 -0.09357404 0.040101387 0.1339007 0.037753608
0.2187286 0.21112911 -0.22503483 0.07497883 0.20599625 -0.19218802 0.22576287 -0.20667088
-0.17921443 -0.0893194 -0.15358546 0.046684925 -0.09809001 -0.03829577 -0.10304865 0.051093154
-0.1154922 0.18554546 -0.07872366 0.20693804 -0.0022039637 -0.21079016 0.098579384 0.10490472
-0.1538053 0.14814498 -0.14475206 0.21052493 -0.15240729 0.035181414 0.15304579 0.14737496
0.1463582 -0.118286 0.010898197 -0.23235086 0.21236819 -0.03191879 0.10314769 -0.08775298
0.20751724 -0.1608102 0.07631721 0.161168 0.021509267 0.059607137 -0.15908921 -0.020567646
-0.028845947 0.039239727 -0.07059481 -0.1482618 0.12184442 -0.09535257 0.04558369 0.021129237
-0.2429197 -0.1908892 -0.22237112 0.05324467 0.007817179 -0.0062724166 0.122012414 0.07788908
-0.1875429 0.21449852 0.18141924 0.21221781 0.09586637 -0.19696982 0.091672145 -0.23939757
-0.16255869 -0.18364501 -0.13526665 0.12481354 0.0118864635 -0.034406286 -0.08261858 0.09642957
-0.24433926 0.16999006 -0.13997953 -0.23838384 0.0197134 0.20040499 0.08133266 -0.085060574
0.008207013 0.08489605 -0.13929625 -0.22787608 0.08427011 0.23135607 -0.1082197 -0.23546349
0.016481753 -0.2428972 -0.21738985 0.12747881 -0.10944352 -0.2274165 -0.20691194 -0.14378689
-0.254861 -0.14262807 -0.18045914 -0.0025713898 0.11261391 0.14510672 0.036900092 -0.07681152
-0.042551726 -0.14413327 -0.0113471905 -0.061853364 -0.07172692 -0.17443143 0.05380932 0.020291904
-0.119556606 0.017000226 0.19440164 0.14645213 -0.14529456 -0.18064281 -0.10266715 0.20892298
-0.24348661 0.22737671 -0.023298565 -0.23127621 0.07074778 0.19474848 0.24037516 0.10257083
0.02826808 0.20047793 0.06344284 0.12675764 -0.22161306 -0.02966303 0.046396866 -0.1395724

sage.layer2.fc_self.bias f4 [128]
00000000: 74a6 1ebd 9616 8c3d a12a 783d 4f80 a53d
00000010: 4f95 32bd 509b 953d 365e 37bd 14e1 d93d
00000020: 6e56 01bd 2f72 17bd 0ad9 14bd a97d 16bd
00000030: 08ca 3dbd 3041 99bd 1a68 913d aea6 20bd
00000040: fd4b 5a3c 0388 54bc 4e11 97bd 2c55 9d3c
00000050: 74f2 a6bd 7e6f e9bd 898e ddbd d536 feba
00000060: a2d7 6cbd e745 73bd 1491 a7bc 3be2 23bd
00000070: 0f6d e0bd a66d 43bd f737 a93c dcad 243a
00000080: 52c5 bf3d 41df 5cbd e2ac 4f3c f809 07be
00000090: b082 f53b 10cd 713d ff1b a1bd 53ce 4cbc
000000a0: 36fe c43d d65c 6fbc 9402 5c3d 026d 7b3d
000000b0: 434f acbd 7cde c9bd 4c01 85ba 4937 5b3d
000000c0: edc6 e2bd e179 c1ba 7aff 0a3d be0f e13d
000000d0: 4f94 993c 1a1f b9bc 93bf ed3d b746 263d
000000e0: 4841 a3bd 8efe b43d 1d34 0bbd 2570 973d
000000f0: 1f58 8bbc 2b75 8f3c 51f7 b9bc 26d2 8dbd
00000100: 7277 1fbd 84c8 be3d a51e 8c3c 56fb b53d
00000110: d339 d7bc 2d35 773d ff47 9cbd 101a ad39
00000120: adfe 083e c685 da3c 0df5 933d b6f1 e5bd
00000130: c842 543d 8ca1 1abc ba34 cebd e8a5 7c3d
00000140: bd2a 07be 0466 e9bc a899 f03c 53d6 b53d
00000150: 520d 923b 6f95 8dbd f7d1 09be 7e08 f73d
00000160: 3323 ba3d d204 ddbc 6a93 683d 6d03 5dbd
00000170: 42b3 de3c 06e4 fc3d 6fef b7bc 6a94 a63d
00000180: d2c1 b13c 92bd 2a3d 5437 a7bd 325e c53d
00000190: 8a61 e33c d3ce 84bc 5bd4 3d3d 021f d4bc
000001a0: 6a48 c83d ecc7 a43d fe22 733d b4fe 5dbd
000001b0: 48ad fc3c 2eb1 a73d 7707 b6bd 968b 98bd
000001c0: fe58 38bd 4128 d8bd 8b1c b83d ad42 e8bd
000001d0: 21ed 50bd 067c 6abd 2e97 c3ba 66e3 c6bd
000001e0: 7152 a2bd 73be 893d b05f 0cbc 8344 d3bd
000001f0: 18a0 7e3d 0da4 fdbc 1f49 3b3d 6fbc 65bd
-0.03873296 0.068402454 0.06058753 0.080811135 -0.043599423 0.07305014 -0.04476758 0.10638633
-0.031576566 -0.03697413 -0.036339797 -0.036740933 -0.04633525 -0.07483137 0.07099934 -0.039221458
0.013323781 -0.012971881 -0.073763475 0.019205652 -0.08151713 -0.113982186 -0.10818202 -0.0019395003
-0.05782283 -0.059392836 -0.02045492 -0.040010672 -0.10958301 -0.04771199 0.020656569 0.00062820106
0.09363808 -0.05392385 0.012675496 -0.13187397 0.007492386 0.059033453 -0.07866668 -0.012500363
0.096187994 -0.014609536 0.053713396 0.061383255 -0.084135555 -0.09856889 -0.0010147481 0.05351952
-0.11073098 -0.0014761054 0.033935048 0.10989331 0.018747477 -0.022597838 0.116088055 0.040594783
-0.07971436 0.08837615 -0.033985246 0.07394437 -0.017009793 0.017511925 -0.022700937 -0.06924848
-0.03893227 0.09315589 0.017104456 0.08885829 -0.02627269 0.060353447 -0.0763092 0.0003301655
0.13378401 0.026675116 0.07224474 -0.11227743 0.0518215 -0.00943793 -0.100686505 0.061681658
-0.13199897 -0.028491028 0.029370144 0.0887877 0.0044571543 -0.06913268 -0.13459001 0.12062167
0.09088745 -0.026979838 0.05678121 -0.053958345 0.027185086 0.123481795 -0.022453038 0.081337765
0.021698866 0.041684695 -0.0816485 0.09637107 0.027756471 -0.016211903 0.046345096 -0.025893692
0.09779437 0.080459446 0.059359543 -0.054197982 0.030844346 0.08188091 -0.088881426 -0.07448499
-0.045006745 -0.10554553 0.08989819 -0.113408424 -0.051007394 -0.057247184 -0.0014922374 -0.097113416
-0.07925881 0.067257784 -0.008567736 -0.10315802 0.062164396 -0.030962015 0.04572403 -0.056087907
