Paper/Synthesized/code/graphSAGE_exp3/checkpoint_graphSAGE/best_model_GraphSAGE_transE_256.pt (torch, 767761 bytes, 12 tensors)

sage.layer1.fc_pool.weight f4 [256, 256]
0	0xbc9159a9	-0.017742949
1	0x3dd791a2	0.10525824
2	0x3bad8377	0.005295213
3	0x3b45bb0b	0.00301713
4	0x3e1774d3	0.14790659
5	0x3e43ab16	0.19108233
6	0xbd5f50c2	-0.054520376
7	0xbe0ff511	-0.14058329
8	0x3df6a879	0.12043852
9	0xbd5f446f	-0.054508623
10	0x3d1a8888	0.037727863
11	0x3d2c874a	0.04212121
12	0x3e20c9dd	0.15702005
13	0x3d8ef660	0.06980586
14	0x3df08f26	0.117460534
15	0xbe16be07	-0.14720927
16	0xbdd3a80b	-0.10334786
17	0x3d114f06	0.035475753
18	0xbdcf56b4	-0.10123959
19	0x3e07cb9d	0.13261266
20	0x3c444bcf	0.011980965
21	0x3dd4185f	0.10356211
22	0x3d69e235	0.057100493
23	0xbb50f067	-0.0031881572
24	0xbe3f2be5	-0.18669088
25	0xbd3a0c1e	-0.045421712
26	0xbde1e1d1	-0.11029399
27	0x3d9fd12a	0.07803567
28	0xbcc114d3	-0.0235695
29	0xbd51d684	-0.05122997
30	0xba93171f	-0.0011222101
31	0x3daed079	0.08535857
32	0x3e279dd0	0.16368794
33	0xbd3d44ef	-0.04620832
34	0xbdaa88e0	-0.08326888
35	0x3e35391c	0.17697567
36	0x3c8129c2	0.015766982
37	0xbe0ac60e	-0.13552114
38	0xbe01149f	-0.12605523
39	0xbe170e05	-0.14751442
40	0xbce3bd31	-0.027800174
41	0x3de4960a	0.1116143
42	0xbdee51a7	-0.11636668
43	0x3e5c0f3b	0.21490185
44	0x3cadc918	0.021214053
45	0xbe3e3a6f	-0.18576978
46	0xbe43e72e	-0.19131157
47	0xbe23237e	-0.15931508
48	0xbdafb860	-0.085800886
49	0xbdd88981	-0.10573102
50	0x3b9f0ce6	0.0048538325
51	0x3d95af33	0.07308807
52	0xbd6778a6	-0.056511544
53	0x3c875e53	0.01652447
54	0xbdf8f2cc	-0.12155685
55	0x3cd888b6	0.026432376
56	0xbca37e89	-0.019957798
57	0x3dd70c50	0.10500395
58	0xbcb34494	-0.021883287
59	0x3df7dc95	0.121026196
60	0x3c400683	0.0117203025
61	0x3d928686	0.071545646
62	0xbe3c3a0c	-0.18381518
63	0xbe6ee11d	-0.23328061
64	0xbd437ac1	-0.04772449
65	0xbdde8ec3	-0.108670734
66	0x3c9a2b07	0.018819345
67	0xbd4e29c1	-0.05033279
68	0xbd8f2957	-0.06990307
69	0xbcc03eb5	-0.023467401
70	0xbdfe4149	-0.12414796
71	0xbc2ec8b1	-0.010667966
72	0xbe0ebc9b	-0.13939135
73	0xbd54818d	-0.05188136
74	0xbde1f539	-0.11033101
75	0xbe062a4a	-0.1310207
76	0xbcd652d5	-0.026162544
77	0xbdd58bd8	-0.10427064
78	0xbdc83863	-0.0977638
79	0xbc8e0c37	-0.017339809
80	0xbda7dcd9	-0.0819642
81	0xbded1c19	-0.11577625
82	0xbcc17e94	-0.023619927
83	0x3dea9fbb	0.114562474
84	0xbe31bf52	-0.17358139
85	0xbe297204	-0.165474
86	0x3d705ad5	0.058680374
87	0xbda98b3c	-0.0827851
88	0xbb3ae5e9	-0.0028518385
89	0xbcb23538	-0.021753892
90	0xbae067a8	-0.0017120736
91	0xbde9a757	-0.11408871
92	0x3ccfe397	0.025377078
93	0x3cb9bdce	0.022673514
94	0x3e6fd35e	0.23420474
95	0x3dffb606	0.1248589
96	0xbcfa990f	-0.030590562
97	0xbd985b54	-0.074392945
98	0x3c1a065c	0.00940093
99	0xbd7941cf	-0.060853776
100	0xbcbe1a21	-0.023205819
101	0xbe806dc1	-0.25083736
102	0x3d81c09c	0.063355654
103	0xbd4cfd04	-0.050045982
104	0x3e141b7d	0.14463611
105	0x3d5f0cc9	0.054455552
106	0x3db10710	0.08643925
107	0xbd4ca7c9	-0.0499647
108	0x3dba2afb	0.09090229
109	0x3e356912	0.17715862
110	0xbc70426d	-0.014664275
111	0x3db68302	0.089117065
112	0x3e904b60	0.28182507
113	0x3e06cc6c	0.13163918
114	0xbd5694d6	-0.052388035
115	0x3dfd1662	0.12357785
116	0x3dcbaa32	0.099445716
117	0x3e257557	0.16158043
118	0xbdef487b	-0.116837464
119	0xbb77160e	-0.0037702355
120	0xbddc73e8	-0.10764295
121	0xbd333afa	-0.043757416
122	0xbd1a54c1	-0.037678484
123	0x3e194238	0.14966667
124	0x3c90ede1	0.017691555
125	0xbc0f0fae	-0.008731766
126	0xbd91f87b	-0.07127472
127	0x3d846218	0.064640224
128	0xbcaeeb97	-0.021352572
129	0xbe14521f	-0.14484452
130	0x39c607ca	0.00037771306
131	0xbd4eb7f9	-0.05046842
132	0x3e03cd41	0.12871267
133	0x3e366cc4	0.17814928
134	0x3e1aa0ea	0.15100446
135	0x3d135cc2	0.035977133
136	0xbde4b518	-0.111673534
137	0xbcfe29a8	-0.031025723
138	0xbe2c5977	-0.16831003
139	0xbd56cc8f	-0.052441176
140	0x3d4126fa	0.04715631
141	0xbe0b9e35	-0.1363457
142	0x3d5a03e9	0.053226385
143	0x3c9f7262	0.019463722
144	0x3dbdfdca	0.09276922
145	0xbd7eaa5e	-0.062174194
146	0x3dc29887	0.095017485
147	0x3d589cbb	0.052883845
148	0xbd9d93fe	-0.07694243
149	0x3e26ddc9	0.16295542
150	0x3c11101f	0.008853941
151	0x3e070a4d	0.13187523
152	0xbd9176d9	-0.071027465
153	0xbd318a23	-0.043344628
154	0xbe36c944	-0.17850214
155	0x3c86fcda	0.01647799
156	0x3d079a18	0.03310594
157	0x3d17345b	0.036915164
158	0x3d9f3fdb	0.07775851
159	0x3d483bc4	0.048885122
160	0x3e435492	0.1907523
161	0xbc0a5b9e	-0.008444695
162	0x3ddfd420	0.109291315
163	0x3d7bd8c3	0.061486017
164	0x3eacc02a	0.3374036
165	0x3e108c3b	0.14115994
166	0xbe7fdd8a	-0.24986854
167	0xbda7f0ae	-0.08200203
168	0x3dc2ca4f	0.095112436
169	0x3e4dd2a3	0.20099883
170	0xbe2ffc70	-0.17186141
171	0x3e0bec2a	0.13664308
172	0x3db8f01d	0.09030173
173	0x3ddd83e2	0.1081617
174	0x3c876723	0.016528672
175	0xbd871747	-0.06596237
176	0x3d1032fb	0.03520487
177	0x3e3f6ca9	0.18693794
178	0xbe11574e	-0.1419346
179	0x3d4fab3e	0.05070042
180	0x3d68745c	0.056751594
181	0x3db3f0bf	0.08786153
182	0x3e21525d	0.15754075
183	0x3e5d3cc1	0.21605207
184	0x3d8bb6fe	0.06822012
185	0x3d69da74	0.0570931
186	0x3dc581a8	0.096438706
187	0x3ca89121	0.020577015
188	0x3e16c89b	0.14724962
189	0xbd2aeb16	-0.0417281
190	0xbe55b67a	-0.2087039
191	0x3e08e513	0.13368635
192	0xbc9e7fc4	-0.019348033
193	0xbcfa2c44	-0.030538686
194	0xbcf94a5f	-0.03043097
195	0x3b8ef87a	0.004363117
196	0x3dfbae3a	0.122890905
197	0x3e2266aa	0.15859476
198	0xbc7fd78c	-0.015615355
199	0xbbf35c35	-0.0074267634
200	0xbc348621	-0.011018307
201	0x3e152bb3	0.14567451
202	0xbd17682f	-0.03696459
203	0xbe1dad30	-0.15398097
204	0x3d5b418a	0.0535293
205	0xbe766296	-0.24061045
206	0x3caf1109	0.021370428
207	0xbd89986e	-0.06718527
208	0xbb5dae75	-0.0033825908
209	0xbd9ff37e	-0.07810114
210	0xbe00bc4a	-0.12571827
211	0xbb0f775e	-0.0021891217
212	0xbe42230a	-0.18958679
213	0x3e0a979f	0.13534401
214	0xbd5f4920	-0.054513097
215	0x3c803662	0.015650932
216	0xbd58a488	-0.052891284
217	0x3df4c9f3	0.11952581
218	0xbe32db11	-0.1746638
219	0xbc40885d	-0.011751262
220	0x3deea210	0.11652005
221	0xbd0f95b3	-0.035054874
222	0xbdf8a146	-0.121401355
223	0x3dba64b3	0.09101238
224	0x3caf5574	0.021403052
225	0x3cf2b508	0.029627338
226	0x3e14b011	0.14520289
227	0xbe5a507c	-0.21319765
228	0x3d12f3c6	0.03587701
229	0x3d9d6e15	0.07687012
230	0x3db509b9	0.08839745
231	0xbd8e302a	-0.0694278
232	0xbd15c207	-0.036561992
233	0x3d2a86c4	0.04163243
234	0xbdce820f	-0.100834005
235	0xbc4a26f3	-0.012338388
236	0xbd89c9cd	-0.067279436
237	0xbdd3e99a	-0.1034729
238	0x3d9d8619	0.07691593
239	0x3e4c2f90	0.19940019
240	0x3d8b4d2a	0.06801827
241	0xbd1b72bf	-0.037951227
242	0x3c7f6024	0.015586887
243	0xbda86d84	-0.082240134
244	0x3e03f91a	0.12887993
245	0xbe4e9249	-0.20172991
246	0x3c88777c	0.016658537
247	0xbd4d612e	-0.050141506
248	0x3daffe79	0.08593459
249	0xbdc7da4e	-0.09758435
250	0x3c3d180f	0.011541381
251	0x3de962fb	0.11395832
252	0x3d0029fb	0.031290036
253	0xbd8eff47	-0.06982284
254	0xbdefd527	-0.117105775
255	0x3cc311bc	0.023812167

sage.layer1.fc_pool.bias f4 [256]
0	0xbc22a23a	-0.009926373
1	0x3d0aa3f6	0.03384777
2	0xbdb2ef1e	-0.08737014
3	0xbdad4707	-0.08460813
4	0xbc90b70a	-0.017665405
5	0x3d2a9607	0.041646983
6	0xbd0d2a84	-0.034464374
7	0xbc8138ef	-0.015774218
8	0x3c3b80b7	0.011444262
9	0x3cc1fd1c	0.023680262
10	0x3bdf92ed	0.006822935
11	0xbd7fe088	-0.06246999
12	0x3d4989db	0.049203735
13	0xbcfec9fc	-0.031102173
14	0x3d34fae4	0.04418458
15	0x3c8260ba	0.015915263
16	0x3cbc186a	0.02296086
17	0x3d08c647	0.033392217
18	0x3cb3cdfb	0.021948805
19	0x3c7a315a	0.015270555
20	0xbd3a0e6a	-0.045423903
21	0x3cadd3ef	0.021219222
22	0xbd82b360	-0.06381869
23	0xbd913965	-0.07091025
24	0xbe029a03	-0.12754063
25	0x3ca8acec	0.020590268
26	0x3c8e772e	0.017390814
27	0x3c97c515	0.018526593
28	0xbb85e232	-0.0040858025
29	0x3bd82e96	0.0065973504
30	0xbcb2d5c8	-0.021830454
31	0xbced42aa	-0.028962452
32	0x3bca8e48	0.006181512
33	0xbdaed39f	-0.08536457
34	0xbd41ee81	-0.047346596
35	0x3c5b3f01	0.0133817205
36	0xbd0cd2b2	-0.034380622
37	0xbd911727	-0.07084494
38	0x3d0feeb9	0.035139773
39	0xbd796255	-0.060884792
40	0xbd61f085	-0.055161018
41	0xbd4ad3d7	-0.049518432
42	0xbdabaf72	-0.08383073
43	0xbdc8e1b4	-0.098086745
44	0x3c1a80a1	0.009430082
45	0xbd1d6980	-0.03843069
46	0xbd8553c9	-0.065101214
47	0xbd300c48	-0.042980462
48	0x3ce2c559	0.027681993
49	0x3d113759	0.035453174
50	0x3cb4f104	0.022087581
51	0xbd7123fd	-0.05887221
52	0x3c947950	0.018124253
53	0xbd17a42b	-0.037021797
54	0xbd6916f7	-0.056906667
55	0x36862977	3.9983383e-06
56	0xbd301137	-0.042985167
57	0xb9720f3a	-0.00023084591
58	0xbd97a3af	-0.07404267
59	0x3cd6ece0	0.026235998
60	0x3d16cb30	0.03681487
61	0x3c803f99	0.015655326
62	0x3c91d0ea	0.017799813
63	0x3c435ae1	0.011923523
64	0xbc1983be	-0.009369789
65	0x3aec3318	0.0018020598
66	0xbd362246	-0.04446628
67	0x3cea28d3	0.02858392
68	0x3c42aa22	0.011881383
69	0x3c69f11a	0.0142786745
70	0xbd2ffa33	-0.042963218
71	0x3c57fe07	0.013183123
72	0xbcaad481	-0.020853283
73	0x3c2e2ea9	0.010631242
74	0x39c26d32	0.0003708392
75	0x3cb8fcf1	0.02258155
76	0xbcafe82c	-0.021473013
77	0xbcde7caa	-0.027159054
78	0x3ca1f0b1	0.01976809
79	0x3d03d08e	0.032181315
80	0x3d1de114	0.03854473
81	0xbd84e9e9	-0.06489927
82	0x3c286a04	0.010279182
83	0xbb10ea95	-0.0022112478
84	0xbba30e59	-0.0049760756
85	0x3c8fd579	0.017557846
86	0x3cab270c	0.020892642
87	0xbd308a03	-0.04310037
88	0xbaf1999f	-0.0018432623
89	0xbbb5f28f	-0.005552597
90	0x3c52da06	0.012869364
91	0x3c6c68b0	0.014429256
92	0x3cf21400	0.029550552
93	0xbc9ec95f	-0.01938313
94	0xbc95b5c8	-0.018275157
95	0x3a4b4e4c	0.00077555026
96	0xbdb66409	-0.08905799
97	0xbd61bc30	-0.05511111
98	0x3c91acde	0.017782625
99	0x3bd89a81	0.006610215
100	0xbd579a8a	-0.052637614
101	0x3c59829a	0.013275767
102	0x3c26020e	0.010132326
103	0xbcdc4b4a	-0.02689137
104	0xbd559306	-0.052142166
105	0x3c6d95e1	0.014501066
106	0x3cb6faba	0.022336353
107	0xbd6e1765	-0.05812778
108	0x3d1c448a	0.0381513
109	0xbdb8c1f4	-0.090213686
110	0x3cc98b95	0.02460269
111	0x3d3a8417	0.045536127
112	0x3cb6eba8	0.022329167
113	0xbced7a25	-0.028988907
114	0x3bf49328	0.0074638315
115	0x3ca9718a	0.020684022
116	0xbc0992a6	-0.00839678
117	0x3c3c6c9d	0.011500505
118	0x3ce6408e	0.028106954
119	0xbd1d1220	-0.038347363
120	0xbd2e36dc	-0.042532787
121	0xbd86ddb8	-0.06585258
122	0xbd51f18d	-0.05125575
123	0x3c5f9585	0.013646488
124	0xbbdf2c1c	-0.006810678
125	0x3c7b45fe	0.015336512
126	0x3c6f2045	0.014595096
127	0x3c81e730	0.01585731
128	0x3cab99a8	0.020947292
129	0x3ca9ad40	0.020712495
130	0x3ba64c3f	0.005075007
131	0x3d01f1b1	0.031724636
132	0x3cccbd78	0.02499269
133	0x3cdf4dce	0.02725878
134	0x3cb822b0	0.022477478
135	0xbd8d7f50	-0.069090486
136	0x3cd880d6	0.026428621
137	0xbcae4f17	-0.021277947
138	0xbd8a1849	-0.06742913
139	0xbd85299c	-0.06502077
140	0xbd79e7dc	-0.061012134
141	0x3c913019	0.01772313
142	0xbaafe44d	-0.0013419479
143	0x3c7e1e8b	0.015510212
144	0x3c44f627	0.012021578
145	0x3c21cdba	0.009875709
146	0x3bd9adfe	0.006643056
147	0xbd2050e9	-0.039139662
148	0xbca29ad5	-0.01984922
149	0xbd239375	-0.039935548
150	0x3d15150a	0.036397018
151	0x3b1b142c	0.0023663146
152	0x3cbf052d	0.023317898
153	0x3c3a38f6	0.01136612
154	0x3c97ba00	0.018521309
155	0xbd821bc5	-0.06352953
156	0x3ca21d2d	0.019789303
157	0xbd192be1	-0.03739536
158	0x3cb1b23c	0.021691434
159	0xbd6110e9	-0.054947767
160	0x3d71fa5f	0.059076663
161	0x3c979da0	0.018507779
162	0xbd6413f1	-0.05568308
163	0xbb71e54f	-0.003691036
164	0xbd0fecdb	-0.035137992
165	0x3baa6a0b	0.0052006296
166	0xbc541cb9	-0.012946301
167	0xbc976955	-0.018482843
168	0x3cd8d2bb	0.026467672
169	0x3ced5bfd	0.028974527
170	0xbd70dacf	-0.058802422
171	0x3c6bce41	0.0143924365
172	0xbdbfe88f	-0.09370529
173	0x3c41199a	0.011785889
174	0x3c76196a	0.015020708
175	0x3c46a463	0.012124154
176	0x3d1abd93	0.03777845
177	0xbd0c1846	-0.034202836
178	0x3c8a42fc	0.016877644
179	0x3c237131	0.009975717
180	0xbcc19790	-0.023631841
181	0x3d165108	0.03669837
182	0x3c5f4d17	0.0136292195
183	0x3cea6b06	0.028615486
184	0xbcade0d7	-0.021225376
185	0x3d579bff	0.052639004
186	0xbb98eb7e	-0.0046667447
187	0x3c283eee	0.01026891
188	0xbbd23566	-0.006415057
189	0x3d03e570	0.03220123
190	0xbd962aee	-0.07332407
191	0x3ce5b0ed	0.028038466
192	0xbcb25f6a	-0.021774013
193	0x3c2270b5	0.009914567
194	0xbd573251	-0.05253822
195	0xbd90e064	-0.07074049
196	0xbd13927c	-0.03602837
197	0x3ce0eede	0.02745765
198	0xbcb75cce	-0.02238312
199	0xbcdd9afd	-0.027051443
200	0x3d408105	0.046998043
201	0x3b0374f4	0.0020058723
202	0x3c046f0c	0.008083116
203	0x3bde5bfe	0.0067858687
204	0x3c8bcacf	0.01706448
205	0xbdac2867	-0.08406144
206	0xbcf536fe	-0.029933449
207	0xbcb87fd0	-0.022521883
208	0xbdc5dc03	-0.096611045
209	0x3c51c0b2	0.01280229
210	0x3d06a084	0.032867923
211	0x3cf20ff1	0.029548617
212	0xbd994c8f	-0.074853055
213	0x3c571a65	0.013128852
214	0x3c5cb1db	0.013470138
215	0x3d353651	0.044241253
216	0xbd387700	-0.045035362
217	0x3cff52e7	0.03116746
218	0xbd6140de	-0.054993503
219	0x3c88522f	0.01664075
220	0xbccb59d5	-0.024823109
221	0x3caab393	0.02083758
222	0x3d332657	0.043737736
223	0xba87f633	-0.0010373056
224	0xbd24ea58	-0.04026255
225	0x3d0262e2	0.031832583
226	0x3d4ccca1	0.049999837
227	0x3ccbf657	0.024897737
228	0x3ccf3944	0.025295861
229	0xbdb6fbb7	-0.089347295
230	0xbbe4023f	-0.0069582756
231	0xbc16ef85	-0.009212379
232	0x3cdfbcc3	0.027311688
233	0x3a85bac8	0.001020276
234	0xbc94700d	-0.018119836
235	0x3d0585c4	0.032598272
236	0xbd8a59b2	-0.06755389
237	0xbcaf9dfc	-0.021437638
238	0xbcf8ac8a	-0.03035571
239	0xbcd49413	-0.025949514
240	0x3c5b8962	0.013399454
241	0xbd951beb	-0.072807156
242	0xbd11d2b8	-0.035601348
243	0xbd941986	-0.07231431
244	0x3d022cbb	0.03178094
245	0xbd8f896a	-0.070086315
246	0x3b92fe71	0.004485898
247	0x3c3115dd	0.010808435
248	0x3c1e4b48	0.009661503
249	0x3c1175aa	0.008878151
250	0xbc884fdb	-0.01663964
251	0x3ca46903	0.020069605
252	0xbd332e01	-0.043745045
253	0x3d08c71b	0.033393007
254	0xbd8a309d	-0.067475535
255	0x3c81ee07	0.01586057

sage.layer1.fc_neigh.weight f4 [64, 256]
0	0xbce06ffb	-0.027397146
1	0xbe00e30d	-0.12586613
2	0xbd640b1b	-0.055674654
3	0xbc98d9cb	-0.01865854
4	0xbc020533	-0.00793581
5	0x3d474c52	0.04865677
6	0xbd158587	-0.036504295
7	0xbe0b9118	-0.13629568
8	0xbd6e35f3	-0.05815692
9	0x3d7e35c3	0.06206299
10	0xbe2fc52e	-0.17165062
11	0xbd9877c5	-0.07444719
12	0x3e273187	0.16327487
13	0xbdb8a90d	-0.09016619
14	0x3bc727d2	0.006077745
15	0x3dc5438f	0.096320264
16	0xbd90302a	-0.070404366
17	0xbd33ac69	-0.043865595
18	0x3d042f60	0.032271743
19	0x3cf8c313	0.030366456
20	0xbcfd05a6	-0.030886482
21	0x3d848d8e	0.06472312
22	0xbdd0e8cf	-0.10200655
23	0x3d5bc5ef	0.05365556
24	0xbdfb9355	-0.12283961
25	0x3e469dce	0.19396135
26	0x3d8c3ca8	0.06847507
27	0x3e4b63c8	0.19862282
28	0x3ccb1d7b	0.02479433
29	0x3e1c3abf	0.15256785
30	0x3e25b305	0.16181572
31	0x3dc60b48	0.096701205
32	0x3e23a4f3	0.15980892
33	0x3c047586	0.00808466
34	0xbe39c0d2	-0.18139961
35	0xbe537cc7	-0.20653068
36	0xbc9d980d	-0.019237543
37	0xbd26ba1a	-0.040704824
38	0x3d671481	0.05641604
39	0x3d6fefeb	0.058578413
40	0x3da68959	0.08131666
41	0xbdd4343d	-0.10361526
42	0x3dc6998e	0.09697257
43	0xbdbb5803	-0.09147646
44	0x3b220564	0.0024722451
45	0x3e1bde9a	0.15221635
46	0x3e17bf90	0.14819169
47	0x3e37ec58	0.17961252
48	0xbd45d4fd	-0.048298825
49	0x3bf0a0fe	0.0073434105
50	0xbca8a4ae	-0.020586338
51	0xbd1d42a3	-0.038393628
52	0xbe2cfcaf	-0.16893266
53	0x3d5f0b04	0.054453865
54	0xbe135174	-0.1438654
55	0x3e81310b	0.2523273
56	0xbd85a328	-0.0652526
57	0x3d7a0daa	0.061048187
58	0x3d5f9ce9	0.054593
59	0x3e39b0e0	0.18133879
60	0xbdc840d0	-0.09777987
61	0x3e994e51	0.29942563
62	0xbc016b7a	-0.00789916
63	0x3d7e3859	0.062065456
64	0x3da5cf43	0.08096173
65	0xbe894567	-0.26810762
66	0x3e008db4	0.12554055
67	0xbe17eb9b	-0.1483597
68	0x3e0ace9e	0.1355538
69	0xbd908a01	-0.07057572
70	0xbc4227ee	-0.01185034
71	0xbdd02a80	-0.10164356
72	0xbd3dfc2c	-0.046383068
73	0x3cdf7810	0.02727893
74	0xbde4545d	-0.111489035
75	0x3e94c7f1	0.29058793
76	0x3d3b61a4	0.045747414
77	0x3d42fb70	0.04760307
78	0xbe632221	-0.22180988
79	0x3dfd4470	0.12366569
80	0x3db69428	0.08914977
81	0xbe1384f4	-0.14406186
82	0x3e2f0e7f	0.17095374
83	0x3dbdeb8b	0.09273442
84	0x3d374509	0.04474357
85	0x3d1a3c3f	0.03765511
86	0xbc2815a2	-0.010259064
87	0x3e0e11cd	0.13873978
88	0xbd8ff6db	-0.07029506
89	0xbe1c6f76	-0.15276894
90	0x3e159e19	0.1461109
91	0x3db88116	0.09008996
92	0xbe669841	-0.22519018
93	0x3e43c3ec	0.19117707
94	0x3de06daa	0.10958417
95	0x3dd7b1ce	0.105319604
96	0xbe1e0e8f	-0.15435241
97	0x3cb92b3d	0.022603625
98	0xbe17a388	-0.14808476
99	0x3eba4cb7	0.36386654
100	0x3ab0d3d0	0.001349086
101	0x3e81ac27	0.25326654
102	0x3d55f867	0.052238848
103	0x3e196af3	0.14982204
104	0x3d96635b	0.07343169
105	0x3dfc8dae	0.12331711
106	0xbe1f93dd	-0.15583749
107	0x3d8f4b31	0.069967635
108	0x3d9dacdf	0.07698988
109	0x3e1371be	0.14398858
110	0x3e86fc1e	0.26364225
111	0xbe3a1094	-0.18170387
112	0x3d522df1	0.051313344
113	0x3c037dc8	0.008025594
114	0xbbd60bc2	-0.0065321634
115	0x3de57eb7	0.112058096
116	0x3e9283b3	0.28616104
117	0xbddad01e	-0.106842265
118	0x3cf59f95	0.029983321
119	0x3e70ba09	0.23508467
120	0xbdafb0aa	-0.08578618
121	0xbe51b882	-0.2048054
122	0xbe1fbbac	-0.15598935
123	0x3d370f90	0.044692576
124	0x3e8482cd	0.25881043
125	0x3d98e5fd	0.07465742
126	0x3dffa056	0.124817535
127	0xbc8cea3d	-0.017201537
128	0x3e4b0a92	0.19828251
129	0x3ded7723	0.11594989
130	0xbd69c356	-0.057071052
131	0x3d97e492	0.07416643
132	0xbc2af55f	-0.010434478
133	0x3daa72cd	0.08322678
134	0x3d16c137	0.036805358
135	0x3dd61bbe	0.1045451
136	0xbcdf3635	-0.027247528
137	0x3e365905	0.17807396
138	0x3dedb02b	0.11605867
139	0xbdda2937	-0.10652392
140	0xbd05b421	-0.032642487
141	0x3d226bb6	0.039653502
142	0x3e7e230a	0.24818054
143	0x3dffe64f	0.124951
144	0x3c65323f	0.01398903
145	0xbe021a60	-0.12705374
146	0x3cab1723	0.020885056
147	0xbdc11dbf	-0.09429502
148	0x3e86ca7b	0.26326355
149	0xbdefc0b3	-0.11706676
150	0x3e852a56	0.26008862
151	0xbdd604a5	-0.104501046
152	0xbd6adc5f	-0.05733907
153	0x3e103f61	0.14086677
154	0x3d2ce8ee	0.042214327
155	0x3e03607f	0.12829779
156	0x3d5139b0	0.051080406
157	0xbca518e6	-0.020153474
158	0xbcf0899f	-0.029362498
159	0xbe073f16	-0.13207659
160	0xbe19c104	-0.15015036
161	0x3cb93d0c	0.022612117
162	0x3d819fc1	0.06329299
163	0x3e1c2fce	0.15252611
164	0x3e509105	0.2036782
165	0x3dcfdaff	0.10149192
166	0x3e175bb2	0.14781073
167	0xbdc763b1	-0.097358115
168	0x3dc4494b	0.09584292
169	0xbe05345f	-0.13008259
170	0x3e0e1179	0.13873853
171	0xbc8654e3	-0.016397899
172	0x3cc41b89	0.023938911
173	0xbc3ad39d	-0.011402992
174	0xbdcad26b	-0.09903415
175	0x3d96c433	0.07361641
176	0xbda157f4	-0.07878104
177	0x3ceadf5b	0.028670957
178	0x3de355a0	0.11100316
179	0x3ed29508	0.41129327
180	0x3e675064	0.2258926
181	0xbc80d0d2	-0.015724573
182	0x3d987b52	0.074453965
183	0x3e9194dd	0.28433886
184	0x3e0f15a3	0.13973098
185	0xbe598832	-0.2124336
186	0xbb266832	-0.0025391695
187	0xbe5d75de	-0.21626994
188	0x3e00928f	0.12555908
189	0xbe23dd4b	-0.16002385
190	0x3c130c02	0.008975031
191	0x3dc05be9	0.093925305
192	0xbd3fed1c	-0.046856984
193	0x3e0e3a9d	0.13889547
194	0x3c962de4	0.01833243
195	0xbdf2a843	-0.118484996
196	0xbd065834	-0.03279896
197	0xbe2660b8	-0.16247833
198	0xbd6841a7	-0.056703236
199	0x3e24630f	0.16053413
200	0xbdd3e809	-0.103469916
201	0xbe162988	-0.1466428
202	0xbdb22ba1	-0.08699728
203	0x3e32e09f	0.17468499
204	0xbd5926f8	-0.05301568
205	0x3d3978e4	0.045281306
206	0x3b87748e	0.0041337674
207	0x3dabc24b	0.08386668
208	0xbd9440a2	-0.0723889
209	0x3e9e4cb3	0.30917892
210	0x3dae8aea	0.085225895
211	0x3d911d09	0.07085616
212	0xbc98ae4d	-0.0186378
213	0x3d3e4aaf	0.046457943
214	0xbdaae25b	-0.08343955
215	0xbdf51ba5	-0.119681634
216	0xbdcbc5af	-0.099498145
217	0xbe189677	-0.14901148
218	0xbd521c14	-0.05129631
219	0xbdba8005	-0.09106449
220	0x3d7e961e	0.06215488
221	0x3d97fb6c	0.07421002
222	0x3ca930d5	0.020653168
223	0x3d883926	0.06651525
224	0xbcbbacf5	-0.02290962
225	0x3d82359e	0.06357883
226	0xbdc8e0be	-0.09808491
227	0x3e126b61	0.14298774
228	0xbcb36529	-0.021898823
229	0xbd6f9f37	-0.05850145
230	0x3e7f39b2	0.24924353
231	0x3e0c6394	0.13709861
232	0xbe212f53	-0.15740709
233	0x3e918a83	0.2842599
234	0x3e4032a3	0.18769316
235	0x3dac6322	0.084173456
236	0x3b34f5de	0.0027612369
237	0x385a8a80	5.210424e-05
238	0x3dd0a18a	0.10187061
239	0xbe52082d	-0.20510931
240	0xbdad68fe	-0.08467291
241	0x3c9dc175	0.019257287
242	0x3d63ee41	0.05564714
243	0xbdd07c44	-0.10179952
244	0xbe1095c7	-0.14119636
245	0xbdc5dfe6	-0.09661846
246	0xbe230f86	-0.1592389
247	0x3d9698b9	0.07353348
248	0xbe8575b7	-0.26066372
249	0x3d9c62d2	0.07636036
250	0xbd7b6e72	-0.061384626
251	0x3e184006	0.14868173
252	0xbd13bb9a	-0.036067583
253	0x3d6af138	0.05735895
254	0x3d0c438a	0.034244098
255	0xbe23eb92	-0.16007832

sage.layer1.fc_self.weight f4 [64, 256]
0	0x3e399b06	0.18125543
1	0x3e00c6dd	0.1257586
2	0xbe15951b	-0.1460766
3	0xbab26879	-0.0013611458
4	0x3d3bebba	0.045879103
5	0xbe27aa22	-0.16373494
6	0xbd9bbe62	-0.07604672
7	0xbd1e972a	-0.03871838
8	0x3ed78850	0.42096186
9	0x3e414744	0.18874842
10	0x3bc4f11e	0.0060101887
11	0x3e9fc711	0.31206563
12	0x3e78ed3c	0.24309248
13	0xbdc68cce	-0.09694825
14	0xbe035f09	-0.12829222
15	0x3e89df85	0.26928344
16	0x3e0ab3a4	0.1354509
17	0xbe26b1fc	-0.16278833
18	0x3e3acff7	0.18243395
19	0xbd2c3b13	-0.042048525
20	0xbd86c4ab	-0.0658048
21	0x3e010883	0.12600903
22	0xbeeded80	-0.4647026
23	0xbdf8a779	-0.12141318
24	0xbe210295	-0.15723641
25	0xbe658375	-0.22413428
26	0xbe3226df	-0.1739764
27	0x3e80fef6	0.2519452
28	0xbd8c1338	-0.06839603
29	0xbde10454	-0.10987154
30	0xbe1ffb88	-0.15623295
31	0x3d7afbf9	0.061275456
32	0x3ed4092c	0.41413248
33	0xbb85184b	-0.004061734
34	0xbc002769	-0.007821896
35	0x3cc28c2e	0.023748484
36	0xbd808b52	-0.06276573
37	0x3e29a971	0.16568543
38	0xbeb9cc49	-0.3628867
39	0x3d3404e3	0.043949973
40	0xbe89b6c5	-0.26897255
41	0x3d9a6fb8	0.0754084
42	0xbddf1bfc	-0.108940095
43	0x3f029668	0.5101075
44	0xbe346162	-0.17615274
45	0xbecc7b0d	-0.3993763
46	0x3e9813cf	0.29702613
47	0xbd5a5884	-0.05330707
48	0x3bd8c972	0.006615811
49	0x3e2952e6	0.1653553
50	0xbe7a86d1	-0.24465491
51	0xbe8c26cf	-0.2737336
52	0xbed23bd0	-0.41061258
53	0x3db59063	0.0886543
54	0xbd90ad0b	-0.07064255
55	0x3f069173	0.5256569
56	0xbd250af1	-0.040293638
57	0xbea9f28e	-0.33192867
58	0xbe129764	-0.14315563
59	0xbda35baf	-0.07976472
60	0xbde78688	-0.11304957
61	0xbe3bb89e	-0.18332145
62	0x3db511e7	0.08841305
63	0xbf1dd174	-0.61647725
64	0xbe16664b	-0.14687459
65	0xbc7ba35d	-0.015358773
66	0xbe0f847a	-0.1401538
67	0x3ea11f49	0.3146918
68	0x3e023b45	0.12717922
69	0x3d11a012	0.035553046
70	0xbe99be7d	-0.30028144
71	0x3e7ce67c	0.24697298
72	0xbde12cf5	-0.10994903
73	0x3de04db8	0.10952324
74	0xbccbc26a	-0.024872977
75	0x3da2181c	0.07914755
76	0x3e888526	0.26664084
77	0xbd0fa668	-0.035070807
78	0x3e94093e	0.289133
79	0xbdb45afb	-0.08806416
80	0xbd5d951a	-0.054097272
81	0xbc0be601	-0.008538724
82	0xbe69f6c2	-0.22848037
83	0x3c48b6f1	0.012250648
84	0xbeb321bc	-0.34986675
85	0xbdfc8ce9	-0.12331564
86	0xbc8408e5	-0.016117522
87	0x3e530e76	0.20610985
88	0x3d11dfe6	0.035613917
89	0xbe62cd56	-0.22148642
90	0x3a81312b	0.0009856572
91	0x3c07933b	0.008274849
92	0xbd0d2a43	-0.034464132
93	0x3e1177ec	0.14205903
94	0x3e38256a	0.17983022
95	0x3db8c6d8	0.090223014
96	0xbeb31f90	-0.34985018
97	0x3ce9d638	0.02854453
98	0xbe2e842c	-0.17042607
99	0x3d17b746	0.037040018
100	0xbdb6942b	-0.089149795
101	0x3dcf3104	0.10116771
102	0x3dc9f827	0.098617844
103	0xbdd8e5c9	-0.10590703
104	0xbe8a5fb1	-0.27026132
105	0xbd4d1ad4	-0.050074413
106	0x3de865b9	0.11347527
107	0xbd35a25b	-0.044344287
108	0x3d7b7c51	0.061397854
109	0x3e540006	0.20703134
110	0x3e8c4cd6	0.2740237
111	0xbe78279c	-0.2423386
112	0xbdb55644	-0.088543445
113	0x3e4ba636	0.19887623
114	0x3f0c488d	0.54798204
115	0xbec0e297	-0.37672874
116	0x3dbb47cc	0.091445535
117	0x3e983fdd	0.29736224
118	0xbda5f8ea	-0.08104117
119	0xbdf8ce9f	-0.12148785
120	0x3e47c325	0.19508035
121	0x3e9e09be	0.30866808
122	0xbcab080f	-0.020877866
123	0xbd620bc5	-0.055187006
124	0xbd8b2d68	-0.0679577
125	0xbde671b6	-0.112521574
126	0xbe511631	-0.20418622
127	0xbe7f88fb	-0.24954598
128	0xbd172f80	-0.036910534
129	0xbe0cb39b	-0.13740389
130	0xbd98294c	-0.07429752
131	0x3e86b6b1	0.26311257
132	0xbe37e241	-0.17957403
133	0x3d241dcf	0.04006749
134	0xbf1d713b	-0.615009
135	0x3e567f56	0.20947012
136	0xbd507f25	-0.050902504
137	0xbefa9e66	-0.48948973
138	0xbe2706fa	-0.16311255
139	0xbe55b9d3	-0.20871668
140	0x3dc1be27	0.09460097
141	0xbda010a3	-0.07815673
142	0x3b24b55a	0.0025132508
143	0x3e4ed8ab	0.2019984
144	0x3ea04dec	0.3130945
145	0x3ea2c3f0	0.31790113
146	0xbbfb1153	-0.0076619773
147	0xbe51da25	-0.20493372
148	0x3e5f201d	0.21789594
149	0x3c18346b	0.009289841
150	0x3e7de28c	0.24793452
151	0x3da437c8	0.08018452
152	0x3e76a6a0	0.24087
153	0x3e44f33e	0.19233415
154	0xbc564fcc	-0.0130805485
155	0xbd84446f	-0.06458365
156	0x3db569a4	0.0885804
157	0xbdb9f93a	-0.09080739
158	0xbe0bf0cb	-0.13666074
159	0x3e17d4a7	0.14827214
160	0x3dfaf439	0.12253613
161	0xbe82841f	-0.25491425
162	0xbede9e76	-0.4348027
163	0xbe1b138a	-0.15144172
164	0xbf23803a	-0.63867533
165	0x3edd40ec	0.43213594
166	0xbea4df27	-0.32201502
167	0x3dceb3bf	0.100928776
168	0x3e9a1969	0.3009751
169	0x3d66fc46	0.05639293
170	0xbe2bf35e	-0.16792056
171	0xbe94ef50	-0.2908883
172	0x3e5ee275	0.21766074
173	0xbeb9dae3	-0.3629981
174	0xbdd6481a	-0.10462971
175	0x3d97633e	0.07391976
176	0x3c5fd360	0.013661236
177	0x3e3a2200	0.18177032
178	0xbf0d4485	-0.5518268
179	0x3e3b0733	0.18264465
180	0xbaf7b37b	-0.0018898094
181	0x3f29877c	0.6622236
182	0x3da24e5c	0.07925102
183	0xbe9e216e	-0.3088488
184	0xbdd94dfc	-0.106105775
185	0x3e9b2722	0.30303293
186	0xbed44304	-0.4145738
187	0x3e8ee062	0.27905566
188	0x3df4c3ff	0.11951446
189	0x3dd36c2d	0.10323367
190	0xbdc1a411	-0.09455121
191	0x3e090eca	0.13384548
192	0xbc585a99	-0.013205194
193	0x3db6d6cd	0.08927689
194	0xbd6778c9	-0.056511674
195	0xbe547075	-0.20746024
196	0xbdb4a002	-0.088195816
197	0xbd87f036	-0.066376135
198	0xbe6b54cf	-0.2298157
199	0xbdf055b0	-0.117350936
200	0x3e135207	0.1438676
201	0x3cff52da	0.031167436
202	0x3def6489	0.116890974
203	0x3e91a189	0.28443554
204	0x3e00badf	0.12571286
205	0xbe80cb66	-0.2515518
206	0xbe5498e2	-0.20761445
207	0x3cbfa204	0.023392685
208	0x3d642973	0.05570359
209	0x3e05333b	0.13007824
210	0xbeaeb7bf	-0.34124562
211	0xbd385962	-0.045007117
212	0xbe8fbbf2	-0.28073078
213	0x3ec246fd	0.37944785
214	0xbf07fc00	-0.53118896
215	0x3dcb0986	0.09913926
216	0x3bf61a1d	0.007510437
217	0xbdcf99e7	-0.101367764
218	0xbea0b74c	-0.31389844
219	0x3dcff64b	0.101543985
220	0xbe928081	-0.28613666
221	0x3d6414ee	0.055684023
222	0x3e5fece4	0.2186771
223	0xbe9f3b4d	-0.3109993
224	0x3e442470	0.19154525
225	0x3eee5917	0.46552345
226	0x3ba5bb30	0.005057715
227	0x3c3984c0	0.011323154
228	0xbe9c14c4	-0.30484593
229	0x3deef87f	0.116684906
230	0xbe4d31db	-0.2003855
231	0xbeab681a	-0.3347786
232	0xbe3ff693	-0.18746404
233	0x3d0d3f78	0.034484357
234	0x3e279981	0.16367151
235	0x3caba3f6	0.020952206
236	0x3b8ff514	0.0043932293
237	0x3de74a34	0.1129345
238	0x3e1f0efc	0.1553306
239	0xbe8264b3	-0.25467452
240	0x3da3b0a7	0.07992678
241	0xbe618475	-0.22023185
242	0xbe77c4e7	-0.24196206
243	0x3e0ad0ff	0.13556288
244	0x3e9b232b	0.3030027
245	0xbe768901	-0.240757
246	0x3e2dddcd	0.16979142
247	0x3d6bfa10	0.057611525
248	0xbeea91eb	-0.45814452
249	0xbd3e91d2	-0.046525784
250	0x3df4e1e3	0.11957147
251	0xbd31e705	-0.043433208
252	0x3d216b62	0.03940905
253	0xbeed10f1	-0.46301988
254	0xbe470c36	-0.19438252
255	0x3e3fe5bc	0.1873998

sage.layer1.fc_self.bias f4 [64]
0	0x3d28476f	0.04108375
1	0x3ce1b44d	0.027551794
2	0xbc8a60a6	-0.016891789
3	0x3d85a1be	0.065249905
4	0xbcb17284	-0.02166105
5	0x3d0c2907	0.034218814
6	0xbcca2473	-0.024675583
7	0x3da24bd2	0.07924618
8	0x3d29a9cc	0.041421697
9	0x3cf6bc9f	0.030119238
10	0x3c1a0311	0.009400145
11	0x3d232c41	0.039837126
12	0x3be21ff3	0.0069007813
13	0x3b9fc3e6	0.004875648
14	0x3c507e2d	0.012725395
15	0x3d47557f	0.04866552
16	0xba313d51	-0.0006761151
17	0x3d6b2424	0.057407513
18	0x3cca6865	0.024707982
19	0x3ba74c92	0.0051055634
20	0x3c7c9da5	0.015418445
21	0x3c85e0f1	0.016342612
22	0x3d236410	0.03989035
23	0x3c2bf122	0.010494502
24	0x3d4e9e1b	0.05044375
25	0x3d87659a	0.06611176
26	0x3c8c2082	0.017105345
27	0xbba15ff4	-0.0049247686
28	0x3c8b3ad9	0.016995834
29	0x3d41b113	0.04728801
30	0x3d3d0121	0.046143655
31	0x3d645b68	0.055751234
32	0x3cacf7ae	0.021114197
33	0x3d801c15	0.06255356
34	0x3c394594	0.011308093
35	0x3cc5d782	0.024150614
36	0xba106bd9	-0.00055092346
37	0x3daa97ff	0.08329772
38	0x3cb3b86e	0.021938529
39	0xbc3cb591	-0.011517898
40	0x3ad193a7	0.0015989438
41	0xbc019cc3	-0.00791091
42	0x3d321c5f	0.043484088
43	0x3c392342	0.01129991
44	0x3d08655d	0.033299793
45	0x3a3e53b7	0.0007260399
46	0x3cf53a47	0.029935015
47	0x3dae9f8a	0.085265234
48	0x3bd7b742	0.0065831253
49	0x3cd54962	0.026035968
50	0x3d89b83c	0.06724593
51	0x3cefb831	0.029262634
52	0x3d7c3761	0.06157625
53	0x3d8b7550	0.06809485
54	0x3cc7efa5	0.024406264
55	0x3d043347	0.032275464
56	0x3d4e679c	0.05039178
57	0x3cbc2b10	0.022969753
58	0xbc9963b0	-0.018724293
59	0x3d9ff99c	0.07811281
60	0xbbf58568	-0.00749271
61	0x3c9496c7	0.018138302
62	0x3b359d9f	0.0027712358
63	0x3d3eef16	0.04661473

sage.layer2.fc_pool.weight f4 [64, 64]
0	0xbb88f33b	-0.004179386
1	0x3e1909fd	0.14945216
2	0xbdb00a94	-0.085957676
3	0xbdada499	-0.0847866
4	0xbe4a8ed8	-0.19781053
5	0x3e803c37	0.2504594
6	0xbd67d47c	-0.056599125
7	0xbd5f2d61	-0.054486636
8	0xbe2c92dd	-0.16852899
9	0x3d9ffbe2	0.07811715
10	0x3de9074d	0.11378346
11	0xbdfc21c8	-0.12311131
12	0xbc9936b9	-0.018702852
13	0x3dfc63c6	0.12323718
14	0xbe050afd	-0.12992473
15	0x3e531d0a	0.20616546
16	0xbe60532b	-0.21906726
17	0xbd44f56c	-0.048085615
18	0x3cc0bbec	0.023527108
19	0xbea192ec	-0.31557405
20	0xbea950ab	-0.33069357
21	0x3e8b07cb	0.27154383
22	0xbdf726ce	-0.12067948
23	0x3e574fc3	0.2102652
24	0xbec5c4ca	-0.386267
25	0xbd1d7c8d	-0.03844886
26	0x3d9de751	0.07710136
27	0xbe05df6c	-0.1307351
28	0xbcfeb89d	-0.03109389
29	0xbec1b07d	-0.37829962
30	0xbe50daa5	-0.20395906
31	0x3ebd8857	0.37018082
32	0xbd51e7b8	-0.051246375
33	0xbc7d02f5	-0.0154426
34	0xbcb659bc	-0.022259586
35	0x3e9163da	0.28396493
36	0x3c168fe0	0.009189576
37	0xbe76f633	-0.24117355
38	0x3e6c8afc	0.23099893
39	0x3e6a9a19	0.22910346
40	0x3e5830d4	0.21112376
41	0x3e342cae	0.17595169
42	0x3df27646	0.11838965
43	0xbe85600d	-0.26049843
44	0xbc7b0d7b	-0.015323038
45	0xbe164dad	-0.14678068
46	0xbe6475c3	-0.22310548
47	0xbcd13903	-0.02553988
48	0x3dd6af02	0.10482599
49	0x3d843b24	0.06456593
50	0xbe0362b4	-0.12830621
51	0x3e4803ee	0.19532749
52	0xbe298fad	-0.16558714
53	0x3da0026e	0.078129634
54	0xbe985e09	-0.29759243
55	0xbd66748a	-0.056263484
56	0x3ab77353	0.0013996161
57	0xbe8735e7	-0.26408312
58	0xbea962c6	-0.3308317
59	0x3e9a1938	0.30097365
60	0xbdacd504	-0.08439067
61	0xbe17f4a8	-0.14839423
62	0x3d8f3834	0.06993142
63	0xbef0d085	-0.47034088
64	0x3e066929	0.13126053
65	0xbe54dc61	-0.20787193
66	0xbbe2e027	-0.0069236937
67	0x3c430c96	0.011904856
68	0x3e8cf161	0.27527907
69	0x3e3366dc	0.17519706
70	0x39cbd306	0.00038876402
71	0xbdc2f02b	-0.09518465
72	0x3e4f702b	0.20257632
73	0xbd4cb537	-0.049977507
74	0x3daf2151	0.085512765
75	0x3de22286	0.11041741
76	0xbea7afc4	-0.32751286
77	0xbca79694	-0.020457543
78	0x3e2feb0b	0.17179506
79	0x3e7ba021	0.24572803
80	0x3e420f3b	0.18951122
81	0x3ea502e1	0.3222876
82	0x3e52a16a	0.20569387
83	0x3c821e6e	0.01588365
84	0x3e36dae6	0.1785694
85	0x3e3bb5de	0.18331096
86	0xbe0c7f5b	-0.13720457
87	0xbe76b054	-0.24090701
88	0x3b49c40a	0.0030787014
89	0xbe1886d8	-0.14895189
90	0xbd6faac9	-0.058512483
91	0xbe180068	-0.14843905
92	0x3df3e9ce	0.11909829
93	0x3da87cb5	0.08226911
94	0x3e8581d1	0.26075605
95	0x3d131955	0.03591283
96	0x3e186cef	0.14885305
97	0xbe049c10	-0.12950158
98	0x3d18f5b9	0.037343714
99	0x3bb1435d	0.0054096417
100	0xbb361754	-0.00277849
101	0x3eb68cb3	0.3565422
102	0x3e751bf6	0.23936448
103	0xbd60d46b	-0.054890078
104	0x3d540dd9	0.05177102
105	0x3e1bb3b4	0.1520527
106	0x3e6ad972	0.22934511
107	0xbdf34cda	-0.11879893
108	0xbe7e20d6	-0.24817213
109	0xbea57e4e	-0.32322925
110	0x3e3027c5	0.17202671
111	0x3eb8fb30	0.3612914
112	0x3d558a49	0.052133832
113	0xbe1d8bcf	-0.15385364
114	0x3e80a5e5	0.25126567
115	0xbe112bac	-0.14176816
116	0x3e68a13c	0.22717756
117	0x3ef949c1	0.48689082
118	0xbe13292e	-0.14371178
119	0x3d8c8c6a	0.06862719
120	0xbd7a04e7	-0.06103983
121	0x3d705e84	0.058683887
122	0xbe0219e9	-0.12705196
123	0x3e488c3d	0.19584747
124	0x3d125101	0.035721783
125	0x3db179a9	0.08665783
126	0xbc1f2937	-0.009714416
127	0x3d361c95	0.04446085
128	0x3e402318	0.18763387
129	0x3db335f3	0.08750524
130	0xbdbd4d17	-0.09243219
131	0x3d8d859d	0.0691025
132	0xbcf5c67b	-0.03000187
133	0x3e0f6aae	0.14005539
134	0xbe606adf	-0.21915768
135	0x3d4d3596	0.05009993
136	0xbe625d11	-0.22105815
137	0xbe49ff06	-0.1972619
138	0x3e109788	0.14120305
139	0x3d58ac90	0.052898943
140	0x3e73a61f	0.23793839
141	0xbc943836	-0.01809321
142	0x3d1375bb	0.03600095
143	0xbeab2d43	-0.3343297
144	0x3e6cab69	0.23112263
145	0xbe8fec12	-0.28109795
146	0x3ddd9c0c	0.10820779
147	0xbe3068e2	-0.1722751
148	0xbd84481b	-0.064590655
149	0x3e4d2d36	0.20036778
150	0x3e304743	0.17214684
151	0xbaa895c4	-0.0012862016
152	0x3e09889d	0.1343102
153	0x3c13c4a6	0.009019053
154	0xbec12aef	-0.37728068
155	0xbe80f609	-0.2518771
156	0x3d7abb30	0.061213672
157	0xbe72b9b8	-0.23703659
158	0x3d99d576	0.075114176
159	0x3ead6cb5	0.33872
160	0xbe4b6a87	-0.19864856
161	0xbe2bdddf	-0.16783856
162	0xbe7bcc1e	-0.24589583
163	0x3e9d4059	0.30713156
164	0xbef67638	-0.4813707
165	0xbe0206c7	-0.12697898
166	0xbc94b9c3	-0.018154984
167	0xbe2b590a	-0.16733184
168	0xbec7fc44	-0.3905965
169	0xbf1af421	-0.6052876
170	0xbc1c4a64	-0.0095392205
171	0x3d96dd0d	0.07366381
172	0xbe09d349	-0.13459505
173	0xbe91b957	-0.28461716
174	0xbc6b21a9	-0.014351287
175	0xbea4e205	-0.3220369
176	0xbc0fda9d	-0.008780149
177	0xbddc864a	-0.10767801
178	0xbd27183a	-0.04079459
179	0xbe2c80d0	-0.16846013
180	0xbd23179b	-0.039817434
181	0x3e1e206b	0.15442054
182	0xbe1ca0a0	-0.15295649
183	0xbe9021af	-0.281507
184	0xbe7095ab	-0.23494594
185	0x3e4d2cb5	0.20036586
186	0x3e4144a8	0.18873847
187	0x3d8c3804	0.06846622
188	0x3bec01cc	0.0072023626
189	0xbe8a6ae0	-0.27034664
190	0xbe8b5d8a	-0.27219802
191	0x3d74d53f	0.05977368
192	0xbe496687	-0.19668017
193	0xbdbe6a28	-0.092975914
194	0xbe4e5684	-0.2015019
195	0x3e9d4217	0.30714485
196	0x3e500f09	0.20318235
197	0x3d9f9de9	0.07793791
198	0x3d1f4baf	0.038890537
199	0xbcf043a2	-0.029329125
200	0xbe7c575c	-0.246427
201	0xbda86c49	-0.08223779
202	0xbe84f983	-0.25971612
203	0xbe81eeea	-0.2537759
204	0xbe6774d7	-0.22603165
205	0x3dc7b13d	0.097506024
206	0x3e1b0cc1	0.15141584
207	0xbe2d7cb0	-0.16942096
208	0xbe2e96f5	-0.17049773
209	0x3e585173	0.2112482
210	0xbe39e3c1	-0.18153287
211	0x3cc519ba	0.024060119
212	0xbe32b7b4	-0.1745289
213	0xbd1a02ea	-0.037600435
214	0x3e6d7449	0.2318889
215	0xbdf5b452	-0.11997284
216	0x3e60b221	0.21942951
217	0xbd152a18	-0.036417097
218	0x3c36998e	0.011145009
219	0x3e090fd3	0.13384943
220	0x3d183e0e	0.037168555
221	0xbc92e13f	-0.017929671
222	0x3e0443d4	0.129165
223	0x3b96682b	0.0045900545
224	0xbd010c64	-0.031505957
225	0x3e108d22	0.14116338
226	0xbe30b835	-0.1725777
227	0xbe69debd	-0.22838874
228	0xbcd26bde	-0.0256862
229	0xbe7c2207	-0.24622355
230	0xbcffe697	-0.031237883
231	0xbe67e2fb	-0.2264518
232	0x3d0f2c68	0.03495446
233	0x3a030dab	0.000499929
234	0x3b951533	0.0045496463
235	0xbe21fe8c	-0.15819758
236	0xbdf9fa54	-0.122059494
237	0x3e7c0ffe	0.24615476
238	0xbe7c833d	-0.24659438
239	0xbb40888b	-0.002937826
240	0x3d04a520	0.032384038
241	0x3d921be6	0.071342275
242	0x3e0d5ea6	0.13805637
243	0xbdb58670	-0.088635325
244	0xbe3ba2f8	-0.18323886
245	0x3e56de5c	0.20983261
246	0x3dcaa24e	0.098942384
247	0xbd68e701	-0.056860927
248	0x3c369322	0.011143478
249	0x3e5ea2c5	0.21741779
250	0xbe378931	-0.17923428
251	0x3d827388	0.06369692
252	0xbe81b22c	-0.25331247
253	0xbe72c55e	-0.23708102
254	0xbd9e11fe	-0.077182755
255	0xbe394296	-0.18091807

sage.layer2.fc_pool.bias f4 [64]
0	0x3e4a8659	0.19777812
1	0xbcd05ed8	-0.02543585
2	0x3e1c9f1e	0.15295073
3	0xbdddb876	-0.10826199
4	0xbd8f469f	-0.06995892
5	0x3dbb87e6	0.0915678
6	0x3e5a9142	0.21344474
7	0x3dd34466	0.1031578
8	0x3b58801c	0.0033035344
9	0x3e2c1cda	0.16807881
10	0x3d87484b	0.06605586
11	0x3d48210f	0.048859652
12	0x3e0ed53d	0.13948531
13	0x3dc1dbab	0.094657265
14	0xbd94c69c	-0.07264444
15	0x3e0ef330	0.13959956
16	0x3d314bbe	0.043285124
17	0x3c2d2f1e	0.010570316
18	0x3e173202	0.1476517
19	0x3c98d7ee	0.01865765
20	0x3d56d548	0.052449495
21	0x3d5f3c37	0.054500785
22	0xbd6517bf	-0.05593085
23	0x3e23914a	0.15973392
24	0x3e389713	0.1802638
25	0x3c2023aa	0.009774128
26	0x3d89b6da	0.06724329
27	0xbbf6cec3	-0.007531972
28	0x3d079854	0.033104256
29	0xbd9ad77a	-0.0756063
30	0x3dccebad	0.10005889
31	0x3e17efac	0.14837521
32	0xbd7ba9c9	-0.061441217
33	0xbc0a06f0	-0.008424506
34	0x3c7a3463	0.015271279
35	0xbdec2ec1	-0.11532355
36	0x3da46b65	0.080282964
37	0xbdd8ee06	-0.10592274
38	0x3e0bb9a7	0.1364504
39	0x3d2f2a10	0.042764723
40	0x3de4df31	0.11175383
41	0x3dc8b10a	0.097993925
42	0x3e45afd1	0.1930535
43	0x3b45d64f	0.0030187552
44	0x3d0719b3	0.032983493
45	0x3d0f622a	0.035005726
46	0x3e18ac2d	0.1490943
47	0x3dc1c657	0.094616584
48	0x3bc1f4c4	0.005919071
49	0xbd1ab274	-0.037767842
50	0xbd8512fa	-0.0649776
51	0x3b58c4a4	0.0033076191
52	0xbe0daed3	-0.13836221
53	0x3e0ae132	0.13562468
54	0x3d23f1c1	0.040025476
55	0x3e306f23	0.17229895
56	0x3de65224	0.11246136
57	0x3e4d8540	0.20070362
58	0x3de4bccd	0.111688234
59	0x3b9cd091	0.0047856052
60	0xbe50c8f0	-0.20389152
61	0x3d98879e	0.07447742
62	0x3d8d035e	0.06885408
63	0x3cd69f3e	0.02619898

sage.layer2.fc_neigh.weight f4 [128, 64]
0	0x3e07ed04	0.13274008
1	0xbe53277c	-0.20620531
2	0x3d8e6799	0.069533534
3	0x3d29bc0a	0.041439094
4	0xbe516374	-0.20448095
5	0xbe08bb74	-0.13352758
6	0xbddf4af0	-0.10902965
7	0x3d9df594	0.07712856
8	0x3d0d2c7b	0.034466248
9	0x3e5f988d	0.21835537
10	0x3e990db7	0.29893276
11	0xbd47c753	-0.048774075
12	0xbcef99d7	-0.029248161
13	0x3e222b32	0.1583679
14	0xbe8a4dc9	-0.2701247
15	0x3e1ab990	0.15109849
16	0x3e3dd9fd	0.18540187
17	0x3dae37b9	0.08506722
18	0x3d3aed23	0.045636307
19	0x3e0641e3	0.13111071
20	0x3db33ada	0.087514594
21	0xbd303b69	-0.043025408
22	0x3cade5d7	0.02122776
23	0xbded60d8	-0.11590737
24	0x3e20f38b	0.15717904
25	0xbe8d8b62	-0.27645403
26	0xbe044704	-0.12917715
27	0xbe3042d6	-0.17212996
28	0xbd8b288f	-0.06794845
29	0x3dae6ced	0.0851687
30	0x3da13d28	0.07872993
31	0xba295fbd	-0.00064611045
32	0x3e0f9851	0.14022948
33	0xbda0a09f	-0.07843136
34	0x3df7850f	0.12085926
35	0x3e578569	0.21046986
36	0x3e8e8d50	0.27842188
37	0x3bc6cec0	0.006067127
38	0x3e14519c	0.14484257
39	0x3e024dc2	0.12724975
40	0xbe200c92	-0.15629795
41	0xbe411c0f	-0.1885836
42	0x3e0e03d4	0.13868648
43	0x3c1b6a48	0.009485789
44	0x3e54461f	0.20729874
45	0xbe70a442	-0.2350016
46	0x3e14b61f	0.14522599
47	0x3df1fe21	0.11816049
48	0xbe0aafe4	-0.1354366
49	0xbd09f81b	-0.033683877
50	0x3d878a7a	0.06618209
51	0xbe5d36c7	-0.21602927
52	0xbd99e6b4	-0.07514706
53	0xbdd459e5	-0.103687085
54	0x3df941d4	0.12170759
55	0xbd518075	-0.051147897
56	0xbe3bc341	-0.18336202
57	0x3eac4395	0.3364531
58	0x3dfee045	0.1244512
59	0xbe454261	-0.19263603
60	0x3deb0d1d	0.114771105
61	0x3d05020b	0.03247265
62	0xbe494876	-0.19656548
63	0xbe019324	-0.12653786
64	0x3da71211	0.08157743
65	0x3e319c6b	0.17344825
66	0xbe66c282	-0.22535136
67	0x3d12bb18	0.035822958
68	0xbd214131	-0.039368812
69	0xbdca5ddb	-0.09881183
70	0xbe5693f4	-0.20954877
71	0x3dadcd73	0.08486452
72	0xbd9999b5	-0.075000204
73	0xbda53c45	-0.08068136
74	0x3e143893	0.14474706
75	0xbe2d4159	-0.1691946
76	0x3e4cb7ff	0.19992064
77	0x3e0dd6fb	0.1385154
78	0x3e0822c8	0.13294518
79	0xbe3adf9c	-0.18249363
80	0xbe10da3c	-0.1414575
81	0x3e86a5f8	0.262985
82	0xbd4edb25	-0.05050196
83	0xbe1bbb7a	-0.15208235
84	0x3e1124dc	0.14174217
85	0xbe2b2a40	-0.16715336
86	0x3e11040a	0.14161697
87	0x3dc496b0	0.09599054
88	0xbe01d567	-0.12679063
89	0xbe086295	-0.13318856
90	0x3e2b1f06	0.16711053
91	0x3e0c18aa	0.13681284
92	0x3e027898	0.12741315
93	0xbe53bd2c	-0.20677632
94	0xbe549bca	-0.20762554
95	0xbca4497c	-0.020054571
96	0x3bac3bf3	0.00525617
97	0xbd7adbe4	-0.06124486
98	0x3e0bda17	0.13657413
99	0x3d86cc48	0.06581932
100	0x3dd4ac87	0.103844695
101	0xbd68541a	-0.05672083
102	0xbe11cdc6	-0.14238653
103	0x3c08cc64	0.008349512
104	0xbdf52f13	-0.11971869
105	0xbe36e5e0	-0.17861128
106	0x3d595356	0.05305799
107	0x3d5f3521	0.054494027
108	0xbe584ba5	-0.21122606
109	0x3dbb55ef	0.0914725
110	0xbe1fcc77	-0.15605341
111	0x3e2a6576	0.16640267
112	0xbdd98629	-0.10621292
113	0xbe6f9e06	-0.23400125
114	0xbdbe0c13	-0.09279647
115	0xbe0582e8	-0.13038218
116	0x3c1c528f	0.009541168
117	0xbc90c544	-0.017672189
118	0x3e0d4c45	0.13798626
119	0xbe8e00a3	-0.2773486
120	0x3e1bcb4f	0.15214275
121	0xbe7326d8	-0.23745286
122	0x3e01149b	0.12605517
123	0x3e819d3d	0.25315276
124	0x3b656ebf	0.0035008637
125	0x3e090672	0.13381365
126	0x3da43764	0.080183774
127	0x3e5e3dfa	0.2170333
128	0xbe3a4443	-0.18190102
129	0xbda15bd7	-0.07878845
130	0x3e3a3b77	0.18186747
131	0xbdf835be	-0.121196255
132	0x3e86ad53	0.2630411
133	0xbe11a00b	-0.14221208
134	0xbdbb6461	-0.09150005
135	0x3e646548	0.2230426
136	0x3a98b072	0.0011649264
137	0x3ca65f68	0.020309165
138	0xbd0cffa1	-0.034423474
139	0xbd15ef8b	-0.0366054
140	0x3e456c38	0.19279563
141	0x3c640bb2	0.013918804
142	0xbd68565f	-0.056722995
143	0x3e16d712	0.1473048
144	0x3e7f279f	0.24917458
145	0x3e4bcf37	0.19903265
146	0xbe984294	-0.29738295
147	0xbe092e66	-0.13396606
148	0x3e830930	0.25592947
149	0xbd7e411a	-0.062073804
150	0xbe1893ae	-0.14900085
151	0xbe6a0598	-0.22853696
152	0x3dbdead9	0.09273309
153	0xbdd8875e	-0.10572694
154	0x3e5f7282	0.21821025
155	0x3e4e5a93	0.20151739
156	0xbce3deb1	-0.027816148
157	0x3de82476	0.11335079
158	0xbdbdddee	-0.09270845
159	0x3c05894b	0.008150409
160	0xbe4eefc7	-0.20208655
161	0xbd715b2d	-0.058924843
162	0x3e5a3a0b	0.21311204
163	0x3e1be2a8	0.15223181
164	0xbd9023dd	-0.070380904
165	0x3e326b69	0.17423786
166	0x3d6a375c	0.0571817
167	0xbdae393c	-0.0850701
168	0xbe6ac48f	-0.22926544
169	0x3c98967f	0.01862645
170	0xbeb894fc	-0.36051166
171	0x3e8d53be	0.27602953
172	0x3e570401	0.20997621
173	0x3e814b32	0.25252682
174	0xbe15a30f	-0.14612983
175	0xbe3600f4	-0.17773801
176	0x3dfd3b33	0.12364807
177	0xbddd99a5	-0.10820321
178	0x3e4571e5	0.19281729
179	0x3e00bf55	0.12572987
180	0xbd421188	-0.04738
181	0x3db07df9	0.086177774
182	0xbe2618fc	-0.16220468
183	0xbd61f5ab	-0.055165928
184	0x3d792a88	0.060831577
185	0xbe2b9af1	-0.16758324
186	0x3cbbb14b	0.022911688
187	0x3cc522be	0.024064418
188	0xbddfc203	-0.10925677
189	0xbe420b38	-0.18949592
190	0x3b1027ee	0.0021996456
191	0xbe0253d8	-0.12727296
192	0xbe5658fc	-0.20932382
193	0x3e2c731b	0.16840784
194	0xbdf4f830	-0.119614005
195	0x3da28e66	0.079373166
196	0xbdfb661c	-0.12275335
197	0xbe8051f9	-0.2506254
198	0xbc3eba4a	-0.011641094
199	0xbe017566	-0.1264244
200	0x3d5e5d6a	0.054288305
201	0x3e149902	0.14511493
202	0x3e02afcd	0.12762375
203	0x3d378f07	0.044814136
204	0x3db0e564	0.08637503
205	0xbe7efd9a	-0.24901429
206	0x3e202bf2	0.15641764
207	0xbe38f4b4	-0.18062097
208	0x3ddbb99e	0.10728763
209	0x3cf22002	0.029556278
210	0xbdab10c3	-0.083528064
211	0xbe2603e5	-0.16212423
212	0xbdc0ec13	-0.094200276
213	0xbd69d4a7	-0.057087567
214	0xbc209ec4	-0.009803478
215	0xbe84a469	-0.25906685
216	0x3ddf504c	0.10903987
217	0xbdab5351	-0.08365501
218	0xbbc3f493	-0.0059800833
219	0x3d6b2230	0.05740565
220	0x3e1ac15a	0.1511282
221	0x3dbfb196	0.09360044
222	0x3e227d85	0.15868194
223	0xbe2e0559	-0.16994227
224	0xbc136e77	-0.008998505
225	0xbe43a6c2	-0.19106582
226	0x3d6e6a79	0.05820701
227	0x3e1911b3	0.14948158
228	0x3e5313e4	0.20613056
229	0x3e179014	0.14801055
230	0x3ddbc5c1	0.10731078
231	0x3e18f25a	0.149362
232	0xbe1a5026	-0.15069637
233	0xbe3fcbbd	-0.18730064
234	0x3d328352	0.043582268
235	0xbd920c39	-0.071312375
236	0x3e3cebd5	0.18449338
237	0x3e9f600b	0.31127962
238	0x3dc98466	0.09839706
239	0x3e59fea1	0.2128854
240	0xbdb5f0aa	-0.08883794
241	0x3c843496	0.016138356
242	0x3d844b92	0.064597264
243	0x3a2d6a09	0.0006615227
244	0xbc612de6	-0.013743853
245	0xbe2e99c6	-0.17050847
246	0x3e385153	0.17999773
247	0xbe96c15f	-0.29444405
248	0xbe0be27b	-0.13660614
249	0x3e17ce79	0.14824857
250	0xbe814d88	-0.25254464
251	0x3def3135	0.11679307
252	0x3e48fde5	0.19628103
253	0xbe3b1c7f	-0.18272589
254	0x3e24490a	0.16043487
255	0x3e4e4143	0.20142083
