Paper/Synthesized/code/graphSAGE_exp3/checkpoint_graphSAGE/best_model_GraphSAGE_transE_256-best.pt (torch, 767831 bytes, 12 tensors)

sage.layer1.fc_pool.weight f4 [256, 256]
000000 5d de 57 3e 98 52 3e 3e 8d 2f c6 3d 19 38 48 bd
       0.21080919 0.18586195 0.09677038 -0.048881624
000010 98 d2 7e bd 7b b9 2a be 2b a7 85 be 10 ea d8 bd
       -0.062212557 -0.16672318 -0.26104102 -0.10591519
000020 86 6b 84 3d 41 b6 35 bc 8c dd 46 be e9 0c 63 3e
       0.06465821 -0.011090816 -0.19420451 0.22172894
000030 bc e4 75 3d 7e b2 29 3c 13 88 51 3e 57 23 2c 3d
       0.06003259 0.010357497 0.20462064 0.04202589
000040 3d be a9 3d 60 96 9b 3d ba d4 fb 3d 7a 38 34 3e
       0.08288238 0.07597041 0.12296434 0.17599669
000050 e1 14 76 3e df 06 96 3d 90 6c 35 be 89 b6 90 be
       0.24031402 0.07325529 -0.17717195 -0.28264263
000060 4d b4 db bd 65 68 e0 bd e4 f6 1e 3d 07 53 8f 3e
       -0.10727749 -0.10957412 0.038809672 0.27993032
000070 3d 44 f9 bd 7f da 40 bd 21 fe a8 bd a6 69 f1 3d
       -0.121712185 -0.047083374 -0.08251596 0.11787729
000080 04 8d 36 3c 33 08 93 bd c8 29 b1 bb ca 0a c0 3e
       0.011142019 -0.07179298 -0.005406592 0.3750823
000090 03 21 6b be 1a 89 30 3d f2 78 3a 3e 10 6c 29 3e
       -0.22961812 0.0430995 0.182102 0.16545129
0000a0 62 e7 e8 3d 04 7d bc 3e 8f 6d ab 3e be 2e e3 3d
       0.11372258 0.3681413 0.33482024 0.110929
0000b0 5e d4 cd 3d d0 a4 ff bd 7c 6d c6 3d 43 a6 56 be
       0.100502715 -0.12482607 0.09688851 -0.20961861
0000c0 5a e2 5c 3c 57 ec 8d 3d 93 69 b6 3e b0 07 fe bd
       0.013481701 0.06929844 0.35627422 -0.1240381
0000d0 fa 91 04 be c4 8b be bd 04 61 82 be 06 08 ea bd
       -0.1294631 -0.09304002 -0.25464642 -0.114273116
0000e0 58 c2 ba bd b9 6f c2 bd d6 24 ca bd 6e cb 2b 3e
       -0.091190994 -0.09493966 -0.09870307 0.16776821
0000f0 82 ff 88 bd b3 df db bd 17 94 ff bb a4 c8 b0 3e
       -0.06689359 -0.107360266 -0.007799636 0.34528077
000100 f1 de c9 bd 68 d0 49 bd ff fc bb bc a9 f3 32 bd
       -0.09856976 -0.049271017 -0.022947786 -0.043689404
000110 a7 57 48 be 52 d8 31 3e 46 b8 18 be fb a2 dc be
       -0.19564687 0.17367676 -0.14914045 -0.43093094
000120 4b c9 35 be 02 85 87 bd e8 8d c5 3d be b5 24 bd
       -0.17752568 -0.06617166 0.09646207 -0.040212385
000130 5f b6 17 bb 49 77 4a bd 41 21 4f 3e 08 4f 53 be
       -0.0023149473 -0.049430165 0.20227529 -0.20635617
000140 c5 ee d7 b9 1e 63 d6 bd 43 15 10 3e 79 75 42 bd
       -0.00041185893 -0.10468124 0.1407061 -0.047475312
000150 11 bb 39 3e fb 19 ed 3c 90 7b ef bb cf 76 f8 bd
       0.18137766 0.028943053 -0.007308431 -0.12132036
000160 63 82 54 bd 93 af 20 3d 20 a7 e2 bc 3b b6 6d bc
       -0.05188216 0.03922994 -0.027667582 -0.014508779
000170 b8 d7 9d 3e 8c 16 35 be 7e 2e 81 bd d2 32 19 be
       0.30828643 -0.17684382 -0.06307696 -0.14960793
000180 2c 74 09 bd 16 dd c5 3c 2c fd 8e 3e d8 05 04 3e
       -0.033558056 0.024153274 0.2792753 0.12892854
000190 34 67 f0 3d fd 82 b8 bd bb 86 18 bd 7d c1 0b 3e
       0.117384344 -0.09009359 -0.037237864 0.13648029
0001a0 c4 76 52 be c5 74 aa bd 89 ba b3 3c e6 5c 28 be
       -0.20553118 -0.08323053 0.021939533 -0.16441688
0001b0 dd b4 90 3d f0 67 1d be fe 5f db bc c7 09 c9 3d
       0.07065747 -0.1537168 -0.026779171 0.09816318
0001c0 ab 5f 5f be 9b e4 f3 3c b9 e9 6a bc fa 8f a7 3d
       -0.21813838 0.029772094 -0.01433795 0.08181758
0001d0 ef b6 80 bd 16 d1 61 be d9 65 f4 3c 6b 07 8e bd
       -0.06284892 -0.22052416 0.029833721 -0.069350086
0001e0 62 c0 9b bc dd 6a a2 bc a6 a4 0b be e4 81 3e 3e
       -0.019012634 -0.019826347 -0.13637027 0.18604237
0001f0 52 44 c9 3d 5a f1 f9 bd ad 58 3b be 08 98 ed be
       0.09827484 -0.12204237 -0.18295546 -0.46405053
000200 4e 9f dd 3d ad af 98 be a5 85 c3 bd 01 98 63 3e
       0.108214006 -0.2982153 -0.09546975 0.22225954
000210 1c 56 0d 3e d7 1b 50 bd 67 fb ee bb 20 7d 6b 3e
       0.1380238 -0.0508078 -0.007293153 0.2299695
000220 e9 2e 98 bd 14 6a c5 3c 4e dc 18 3d 71 33 15 be
       -0.074308224 0.024098434 0.037319474 -0.14570405
000230 4e 2c bb 3d 15 c6 99 3a 5f 2b 5a 3e 56 59 27 bd
       0.0913931 0.0011732007 0.21305607 -0.04085668
000240 8c 0e 32 3e 89 75 ab 3e c6 da 4c 3e b2 0b c5 bc
       0.17388362 0.3348811 0.2000533 -0.024053428
000250 96 0f c0 bd 50 b2 29 3d c7 b3 14 3e df f3 cc 3d
       -0.09377973 0.041429818 0.14521705 0.10007452
000260 aa eb f1 3d bf 6b 1f 3d 3b e8 75 3d 3a 56 09 3e
       0.118125275 0.038921114 0.060035925 0.13411799
000270 77 28 1d be b9 39 84 3e 06 13 83 bd da 33 00 bc
       -0.15347467 0.2582529 -0.06400113 -0.007824862
000280 cf 65 c9 3d 3b da 82 3d b8 f4 8b be c8 0f 2c 3c
       0.098338716 0.063892804 -0.27335143 0.010501809
000290 e0 31 a3 be f7 b4 c3 3c 5c d2 9b 3d 17 08 a3 3e
       -0.3187399 0.023890002 0.07608482 0.3184211
0002a0 fb 0f bd 3d 7b 86 ce 3c e4 d3 ea bc f4 43 15 be
       0.09231564 0.02521061 -0.02866549 -0.14576703
0002b0 9f 40 39 bd 79 cf fa bd 11 e6 70 3d 39 1d 41 bd
       -0.045227643 -0.122466035 0.05881316 -0.04714701
0002c0 79 54 10 3d b6 b1 83 3e 74 a0 a2 bd 06 99 76 3e
       0.03523681 0.2572152 -0.0794076 0.24081811
0002d0 52 25 41 3e 87 c5 71 3c 01 9c b2 bc 87 6b f9 3c
       0.18861893 0.014756567 -0.021802904 0.03044678
0002e0 a1 0d 1e 3d 39 ee 7f bc ed 12 8a 3e 12 e1 ca bd
       0.038587216 -0.015620762 0.26967564 -0.0990621
0002f0 f0 d8 ed 3b d1 5b 46 be c0 fe e3 bd d7 1b d2 3d
       0.007258527 -0.19370963 -0.11132574 0.10259216
000300 e8 2b 0b bd 4a 31 c6 bd de c3 3b 3d d3 dd 1a 3d
       -0.03397742 -0.0967737 0.04584109 0.037809204
000310 49 9e 91 bd ca 92 94 bd 85 16 27 3e 7c 37 1c be
       -0.071102686 -0.0725456 0.16317184 -0.1525554
000320 47 f0 20 3e cd a9 06 bd d6 47 80 bd 6f 39 53 3d
       0.15716659 -0.03287678 -0.062637016 0.051568445
000330 f9 b1 ae 3d 82 24 38 be b9 74 17 bd a5 c4 db 3d
       0.08530039 -0.17982677 -0.03697655 0.10730866
000340 b5 ec 0f be fd 84 45 3c 92 67 c1 3d 6f 9e 31 bd
       -0.1405514 0.012055633 0.094435826 -0.043363985
000350 4d 70 9e bc 6c f1 19 3e 21 6b a4 bd ac 1f 3e be
       -0.019340659 0.15033501 -0.08028246 -0.1856677
000360 91 1a 97 3e d5 e3 95 bd 34 15 1c be 6c f5 a1 3d
       0.29512456 -0.07318846 -0.15242463 0.07908139
000370 44 b8 e5 bd 7e bd 70 3c 57 08 eb bd 96 a4 19 3b
       -0.112167865 0.014693616 -0.114762 0.0023444048
000380 8c 2f 50 3c 46 29 54 bd d7 f6 91 3e b5 9a 9d be
       0.012706649 -0.051797174 0.28508636 -0.30782095
000390 73 82 19 3e 4e 1a 2d bd fe 3a b3 be b8 27 13 be
       0.14991169 -0.042261414 -0.35005945 -0.1437062
0003a0 b4 db 74 3e 5e a3 6d bd 94 3f 9c be 36 89 26 be
       0.23911935 -0.058017127 -0.30517256 -0.1626328
0003b0 48 bf 2a 3d ed 32 2e 3e 39 17 94 3e 38 b9 62 3e
       0.041686326 0.17011614 0.28923967 0.22140968
0003c0 29 5b 0d 3e d3 46 44 bd b5 d0 c2 be 45 f5 47 3e
       0.13804306 -0.047919106 -0.38049856 0.19527157
0003d0 c7 ae 4a 3e 56 0b c7 bd 96 6a df 3d d2 ae 2e be
       0.19793235 -0.09718959 0.109090015 -0.17058876
0003e0 42 9a 74 be de 41 7f 3d 6c c5 3a 3e 18 ed 90 3e
       -0.2388697 0.062318675 0.18239373 0.28305888
0003f0 68 4c 29 be 8f 86 8b bc 62 0e ab 3d 4b 27 95 bd
       -0.16533053 -0.017031936 0.08352353 -0.07282885

sage.layer1.fc_pool.bias f4 [256]
000000 d6 a6 12 3b 05 29 76 bd 92 51 e8 3c 15 bb ab bb
       0.0022377274 -0.060097713 0.028359208 -0.005240808
000010 53 ea 09 3c 3d 3f cc 3c ff 05 12 3c 09 80 97 b9
       0.008417684 0.024932498 0.008912562 -0.00028896358
000020 a4 fd 89 3c ef b2 18 3d 4d 19 51 bd 12 c6 cf 3b
       0.016844578 0.03728002 -0.05104952 0.0063407505
000030 0c 17 e5 3c 46 fd fe 3c 63 5c 20 3d 86 fd 17 3c
       0.027965091 0.03112663 0.039150607 0.009276753
000040 62 5e 55 bd c8 89 de bc 3c 8f 02 3d d1 b4 43 3c
       -0.052091964 -0.027165309 0.03187488 0.011944965
000050 8c 75 ad bd 3f 5d ec 3c de dc 21 bd c2 32 55 bd
       -0.08469686 0.028853057 -0.039517276 -0.05205036
000060 6a fa 6d bd ad dd 96 bd 2f dd 62 bd 80 8e 91 bc
       -0.05810014 -0.073665 -0.05538672 -0.017768145
000070 0e c8 fd ba a9 96 e5 3c 32 e3 14 3d c8 91 89 39
       -0.0019361989 0.028025942 0.036349483 0.00026239292
000080 b5 d5 02 3d a9 f1 19 bd 2e d1 75 3c f1 eb 17 bd
       0.03194209 -0.03758398 0.015003486 -0.037090246
000090 74 66 51 3d 27 da cf 3c ea e7 35 bc 6c 8b 09 3d
       0.051123098 0.025372578 -0.011102656 0.03358023
0000a0 e1 c9 3c bd c3 77 d6 bc 77 db 0c 3d ac 82 85 bd
       -0.046090964 -0.026180154 0.034388985 -0.06519064
0000b0 64 5e b7 3c 98 53 14 bd f7 a5 90 bd e9 4d af bd
       0.022383876 -0.036212534 -0.07062905 -0.08559782
0000c0 04 59 b1 3b 62 43 08 3d 13 4a 5b bd cb 09 4c bd
       0.005412223 0.033267386 -0.05353744 -0.049814027
0000d0 79 f1 89 bd 73 93 87 3c 0c ed f6 bc 3f 6d 1b 3c
       -0.067355104 0.016549801 -0.03014233 0.0094864955
0000e0 26 86 56 bd ff bc 6a bd 97 15 53 3c cf ac 7b 3d
       -0.052374028 -0.057309147 0.012883565 0.0614441
0000f0 d0 e5 20 ba 63 a0 5e bd 9b 78 35 3c 93 a7 ba bd
       -0.00061377604 -0.054352175 0.011076118 -0.091139935
000100 33 93 15 3c 66 81 cb 3c 24 fc a6 3c cc 40 0f 3d
       0.009129333 0.024841975 0.020383902 0.034973904
000110 49 85 9d bc b2 24 db bc d0 58 79 3b 99 ea 95 bc
       -0.019228594 -0.026750896 0.003804732 -0.018300341
000120 5d 1f 39 bd 67 1f 6e 3b 58 3e d4 bc f7 98 4e bc
       -0.045195926 0.0036334635 -0.025908634 -0.012609712
000130 67 fd 58 bd d9 d6 b5 3c 48 78 09 3d 04 d1 5a bb
       -0.05297604 0.022197174 0.033561975 -0.0033388743
000140 66 7d 9f bd 18 30 5d bd 03 e0 a9 3c 6e 72 27 bc
       -0.0778759 -0.054000944 0.0207367 -0.010220153
000150 5e 3d 7a bb 59 0d 5e bd 09 db 56 bd 43 6c 38 bd
       -0.003818355 -0.054211948 -0.052454982 -0.04502512
000160 3a 92 16 bd 98 17 07 3d 70 43 31 bc 87 63 21 bd
       -0.036760546 0.032981485 -0.010819301 -0.039401557
000170 d5 69 08 bd 9f 31 71 bd 2d 09 96 bc a5 fa 04 3d
       -0.033304054 -0.058885213 -0.018314922 0.032465596
000180 f1 e9 3f bd 0d 70 41 3c db 77 5a 3c 8d 7a 8b bd
       -0.046853963 0.0118065 0.01333424 -0.06810484
000190 36 d9 78 bd 60 e0 8f 3c 76 b3 7e 3c 10 ea bb 3c
       -0.060754023 0.017563045 0.0155457165 0.022938758
0001a0 fd 41 1a bd de 8f c1 3c af 5e e9 3c f4 ba 50 3c
       -0.037660588 0.023628172 0.028487531 0.012739886
0001b0 13 a5 92 bd f1 fa 90 bd 21 41 4a bb b2 3c 58 bd
       -0.07160392 -0.07079113 -0.0030861574 -0.05279226
0001c0 c5 ad 6e 3c e8 48 cf bc a8 98 19 bd a4 30 de 3c
       0.014567797 -0.02530332 -0.0374991 0.027122803
0001d0 9a 79 69 bd ad 2e f3 3c 49 23 d9 bc a2 7b 46 bd
       -0.057000734 0.029685343 -0.026506083 -0.04845775
0001e0 c9 c1 23 bd 27 1b b4 bd 03 5a f9 3c 61 5e 5a bd
       -0.03997973 -0.087942414 0.030438429 -0.053312663
0001f0 be ac c2 3c cf d9 ba 3b 81 16 48 3d 65 29 c6 3c
       0.02376401 0.0057022343 0.048849586 0.02418966
000200 d3 a8 40 3c 32 a6 a0 bd 2a 62 5d bd 00 15 ed 3c
       0.011759001 -0.07844199 -0.054048695 0.028940678
000210 e8 d0 37 3b a9 2f 9f bd c6 08 62 bc 8a ed b2 bd
       0.0028048102 -0.07772762 -0.013796037 -0.08736713
000220 53 49 b6 3c a3 41 ab bc 51 fa 1c bc da f2 44 bd
       0.02225176 -0.020905321 -0.009581164 -0.048083164
000230 0b 60 5c bd a8 f4 28 bd 3d 4c 12 3d a4 cc 36 3c
       -0.05380253 -0.041248947 0.035717238 0.011157189
000240 59 ac 9e bd 8a ea 55 bd be 05 88 3c d7 6f d5 bc
       -0.077477165 -0.052225627 0.0166043 -0.026054306
000250 09 06 85 bd 4d 27 a9 bc c7 86 96 bc c1 80 6c 3c
       -0.06495292 -0.020648623 -0.018374814 0.014434994
000260 e2 89 00 3b 9f 49 0a 3c 6d 4c d1 3c 47 17 4e ba
       0.0019613435 0.008440404 0.025549138 -0.0007861745
000270 6a b5 ab bd 19 a5 df ba 4c b8 cd 3c 22 4d 86 bd
       -0.08384211 -0.0017062753 0.025112294 -0.06557681
000280 ea e5 6b bd c1 da 7a bd 17 b4 fe bb f2 fd 81 3c
       -0.05759231 -0.061243776 -0.007772933 0.01586816
000290 34 f3 b7 bb 04 14 af 3b 0b bf a8 bd 9d e1 df bb
       -0.005613709 0.005342962 -0.082395636 -0.006832315
0002a0 ae 40 c5 bc 41 b2 a3 3c 41 4f 91 3b 0d 9f 19 3d
       -0.024078693 0.019982459 0.0044344966 0.0375052
0002b0 ca 4c c2 bc 27 86 1b 3d c4 da 34 3c 25 0b 43 bd
       -0.023718257 0.037969735 0.011038486 -0.04761805
0002c0 fc d2 de 3c ce 3d c4 3c 99 3f e1 3c 06 b2 e0 3a
       0.027200215 0.023955252 0.027496146 0.0017142899
0002d0 1c f1 e8 3c 99 df 24 bd 2a 47 9d 3c f9 8c a1 bd
       0.028435282 -0.0402523 0.019198973 -0.078882165
0002e0 06 f9 09 3d 98 ba 60 bd fd 77 3a 3c 3c 62 ad bd
       0.033684753 -0.05486545 0.0113811465 -0.08466002
0002f0 ab b6 8a 3c 58 eb 24 3c c2 89 84 bc f7 a1 87 bd
       0.016932806 0.010065876 -0.01617897 -0.06622689
000300 da e2 05 3d a4 10 2c 3c 9b d7 9f 3c ef 8c 4c bd
       0.032687046 0.010502014 0.019511988 -0.049939092
000310 e9 14 08 bd d5 03 92 bc e8 13 ae 3b 99 22 39 bd
       -0.033223066 -0.017824093 0.0053124316 -0.04519901
000320 93 ee 58 bd 9a 77 74 bd 47 e8 e3 bc e8 e9 6e bd
       -0.052961897 -0.059684373 -0.02782072 -0.05832854
000330 d6 8f 27 3c c6 e6 ab 3b 00 7b ef 3c 69 0e 2c bc
       0.010227164 0.005246016 0.029233456 -0.0105014825
000340 aa 38 0d 3d f7 80 a2 bd 8e c2 ad 3c 25 24 c8 3c
       0.034477867 -0.07934754 0.021210935 0.024431298
000350 97 22 e8 bc 9e 76 67 bd 2d f8 7f 3b 0e b0 9e bd
       -0.028336806 -0.056509607 0.0039057836 -0.077484235
000360 aa e2 17 3d 86 be 55 bd e1 71 de 3c b7 4b 7c bd
       0.037081398 -0.05218365 0.027153911 -0.061595645
000370 32 2e 8b bd 81 fc 07 3d 9a 72 54 bd 3a 71 9b bc
       -0.067959204 0.03319979 -0.051867105 -0.01897489
000380 07 41 80 bd 03 0c 92 bd b8 37 e0 3c 79 a3 26 bc
       -0.06262403 -0.07131197 0.027370319 -0.010170811
000390 f9 5c 11 bd fe a6 ba bb 1a 1f 8f 3c 18 76 e9 bc
       -0.035489056 -0.0056961766 0.017470885 -0.028498694
0003a0 6d c6 bb bd cc 98 0d 3d 17 08 98 3c 5c b6 d2 3c
       -0.09168706 0.034569547 0.018558545 0.025721721
0003b0 12 e3 8a bd 4d f9 04 3d 9e 60 bf 3c 5f b6 39 bd
       -0.067815915 0.032464314 0.0233615 -0.04533994
0003c0 b7 cb d8 3b f3 74 74 3c 44 1b 5b bd dc 32 d6 3c
       0.0066160816 0.014920461 -0.0534928 0.026147299
0003d0 50 4c a3 3a 00 94 75 bc 53 6b 6d bc f4 b6 35 bd
       0.0012458656 -0.014988899 -0.01449092 -0.04436393
0003e0 92 cc 33 3d 73 23 e9 bc 60 b1 d7 3c 79 c6 13 3d
       0.043896265 -0.028459286 0.026329696 0.03607795
0003f0 38 42 e8 3b fe 48 05 3c f6 ba bb 3c 18 c8 b9 3b
       0.007087972 0.0081350785 0.022916298 0.005669605

sage.layer1.fc_neigh.weight f4 [64, 256]
000000 f3 9d ce 3e f6 37 00 3c 12 4a 34 be be 5e a5 3d
       0.4035488 0.007825842 -0.1760638 0.08074711
000010 1c e0 06 3e 80 2e 14 3e 78 2f 86 3d 28 c5 02 3e
       0.13171428 0.14470863 0.06552023 0.12770522
000020 dd 56 da 3c 0f 17 3c bd e2 d9 80 bd 8e 8c 38 bc
       0.026652748 -0.045920428 -0.06291558 -0.01126398
000030 8c 48 9f 3b 64 b8 d0 3d fd a3 0d 3e ca b1 3d 3e
       0.004860943 0.1019142 0.13832088 0.18524852
000040 47 54 da bd 83 72 3d 3d 85 d4 61 3d d1 51 26 3e
       -0.10660606 0.046251785 0.055134315 0.16242148
000050 9c 0d 2a 3e af e6 e0 bd cf 82 29 be 27 62 1c be
       0.16606754 -0.109814994 -0.16553806 -0.15271817
000060 75 5a 1c be b9 2e 9e bd 54 8d 32 3c 08 3c 08 be
       -0.15268882 -0.077237554 0.010897953 -0.1330415
000070 03 ad 02 3f b3 78 23 be 47 12 29 bd 31 e8 cf bd
       0.51045245 -0.15964012 -0.041277196 -0.10151709
000080 db b7 8d 3d 5d 30 1e 3d 92 43 3c be 99 81 94 3e
       0.06919833 0.03862034 -0.18385151 0.29005125
000090 31 a7 fa bd 77 21 0c 3e 8d b5 4d 3e 33 1c d4 3d
       -0.122389205 0.13684641 0.20088787 0.10356941
0000a0 ee c3 47 be 39 70 1b 3e 7f f1 6a bd 9f 93 0c be
       -0.19508335 0.15179528 -0.057359215 -0.13728188
0000b0 5b 7f 43 3d a2 e1 52 bd bd 42 64 be 6a 45 17 3b
       0.047728878 -0.05148471 -0.22291084 0.0023082145
0000c0 c2 04 07 bd 8f ba ee 3e 92 a3 93 3d 27 10 c8 bd
       -0.03296352 0.46626708 0.07208933 -0.09768706
0000d0 60 3e c9 bd 06 cc 0d 3e 19 c4 63 bd 1a 5a 78 3d
       -0.0982635 0.1384736 -0.055606935 0.060632803
0000e0 b7 df c9 3d 1c ac 9f bd 9e 7e 84 bd 9a 6d ca 3c
       0.09857123 -0.07796499 -0.06469463 0.024710465
0000f0 23 1d 29 bd bb 22 24 3d 6e c3 91 bc de 6e 36 3e
       -0.041287553 0.040072184 -0.017793383 0.1781573
000100 eb e1 47 be 34 30 10 bd a2 c5 19 bd 87 44 5d be
       -0.19519775 -0.03520222 -0.037541993 -0.21608172
000110 73 2f d8 3c 1c c0 8a bd 9f 0a cc 3d 19 20 c3 bd
       0.026389813 -0.06774923 0.09962963 -0.095276065
000120 8e a7 64 3c fa 4d 3b be c3 44 12 be 33 3f 1b be
       0.013955964 -0.18291464 -0.14284043 -0.15160827
000130 54 ef e3 bd 75 9a 30 be fa 0c bb 3d d4 3b a5 3d
       -0.111296326 -0.1724642 0.091333345 0.08068052
000140 4b 9b 4f 3c f8 03 de bd a6 7d 87 be bb 25 99 3d
       0.012671302 -0.10840601 -0.2646305 0.074779
000150 58 fa fc 38 6f 61 5b 3d d9 3c 88 3d 84 0e 20 be
       0.000120629265 0.053559717 0.06652231 -0.15630537
000160 58 c2 68 3e 24 97 5b 3d 1d c0 31 3e 26 bb cb bc
       0.22730386 0.053610936 0.17358442 -0.024869513
000170 32 7d 35 3e 5c e3 ec bd b4 80 37 bd 16 6a 68 3d
       0.1772354 -0.11566803 -0.044800475 0.056741796
000180 58 01 09 3d 6a 5d 01 3e 33 c3 02 3e ab 2c c8 3d
       0.033448547 0.12633291 0.12769775 0.09774145
000190 ac f4 dd 3d c7 62 6d bd bf b5 35 be da 2e 9d 3e
       0.10837683 -0.05795553 -0.17745112 0.30699807
0001a0 71 b9 e8 3d 4b 6c 65 3d 29 b7 8c be e1 2d 96 bd
       0.11363495 0.05601148 -0.2748349 -0.073329695
0001b0 08 bc 2a bb c1 26 33 be 1e ee 55 bd 03 60 d1 bd
       -0.0026052017 -0.17495252 -0.05222904 -0.10223391
0001c0 9b 8a 32 3e 2b 25 dc 3d ea 0b 7a bd a2 dc d3 bd
       0.17435686 0.10749277 -0.06104652 -0.10344817
0001d0 1f 6b bd 3d 4c 0b 13 be 3e c7 c4 bd 07 58 31 bd
       0.09248947 -0.14359778 -0.09608315 -0.04329684
0001e0 a3 ef 38 3e b7 fc 74 bc 0b db 28 3e 3f 8a 76 bd
       0.18060164 -0.01495283 0.16489808 -0.060190435
0001f0 63 c6 a2 3d 17 c8 14 be b8 93 59 3d de 39 6d bd
       0.079479955 -0.14529453 0.05311939 -0.057916515
000200 06 01 9a 3e ef 85 d1 bd 22 4e ae bd 25 23 2c bd
       0.30078906 -0.10230624 -0.085109964 -0.042025704
000210 e6 4d b9 bd a1 d7 60 3c 23 1d 4e 3d ab e9 73 3d
       -0.09048061 0.013723285 0.050320756 0.059549015
000220 0b 61 18 be 38 f0 bb 3d e7 ba 73 be 23 8a ac 3c
       -0.14880769 0.091766775 -0.23801766 0.021061962
000230 de b2 55 be 86 66 8d 3c 21 36 72 3b 7a f7 9b bd
       -0.20869014 0.017260801 0.0036958533 -0.07615562
000240 40 e0 ac bc 25 3d d5 3d e8 28 c7 bd 0f c6 4f be
       -0.021103024 0.10412053 -0.09724599 -0.20290397
000250 c4 72 1a be 15 30 a4 bd ef a2 98 3d 94 46 12 bb
       -0.15082842 -0.080169834 0.07452952 -0.00223199
000260 16 40 dc bd 92 70 0a be 9d f2 80 3e 27 da 1e be
       -0.10754411 -0.13519505 0.251851 -0.15512906
000270 cf fd 5e be 9d cc ad bd 73 8a 5c be 3c f0 46 be
       -0.21776508 -0.084862925 -0.21537189 -0.1942758
000280 46 99 d7 3d 9c 84 3b 3c 06 20 d2 bd 8f 32 37 be
       0.105272815 0.011445191 -0.10260014 -0.1789038
000290 12 30 22 bb f2 1c 82 3d 92 2b 89 3d 19 96 b8 3c
       -0.002474789 0.06353177 0.066977635 0.02253251
0002a0 04 07 08 be 07 d9 e7 3d 78 4f 72 be ed 5b 35 bc
       -0.13283926 0.113206916 -0.23663127 -0.01106928
0002b0 78 bb a9 bd 1d ed 46 3e 4f ce 8f 3d 3d da cc 3d
       -0.0828771 0.19426389 0.07021772 0.10002563
0002c0 e9 2a 89 3d 00 fa f6 3d b4 ec f2 bd f2 86 27 be
       0.066976376 0.120594025 -0.11861554 -0.16360071
0002d0 50 0a 92 bd a7 0e c0 bd df 40 73 3e b2 cf 56 be
       -0.07130873 -0.09377795 0.23755215 -0.20977667
0002e0 7c 79 e7 3d d2 42 07 3d fa a1 dd bd a8 61 ac bc
       0.11302468 0.03302271 -0.1082191 -0.02104266
0002f0 69 78 5c b7 94 35 e9 3e 5f 5b 60 bb 1c ff e1 bc
       -1.3141057e-05 0.4554869 -0.003423415 -0.027587466
000300 ed 06 f0 3b af cb 10 bb b1 c2 0f 3e 2b 06 16 3e
       0.0073250444 -0.002209406 0.14039113 0.1465079
000310 e1 7e 88 bd 30 29 7c be b9 7e e0 bd c8 83 9a 3d
       -0.06664825 -0.24625087 -0.109616704 0.075446665
000320 dc a6 cd bd 9d 7d 7c 3d a2 4b 12 3e 7d 66 83 3d
       -0.100415915 0.06164323 0.14286664 0.064160325
000330 38 45 85 bd b2 ec a4 3c b0 ee a1 3e aa 4a 1a 3f
       -0.06507343 0.020132396 0.31627417 0.6027018
000340 a2 2e f8 bd 1d 68 ce 3d 66 fa 51 3e 68 aa c3 3d
       -0.121182695 0.10078452 0.20505676 0.09553987
000350 c7 22 0c be 47 98 2b 3e f0 ae 94 3d 1d 6d 24 3e
       -0.13685142 0.16757308 0.07259929 0.16057248
000360 0e b2 56 3d d3 73 35 be 2a 36 1f be a5 2d 6a bb
       0.0524159 -0.17719965 -0.15548006 -0.0035732773
000370 c6 75 33 3d 17 8e 84 3d 93 c9 a7 3d e8 88 8a bd
       0.04381349 0.06472414 0.08192744 -0.06764394
000380 c7 54 c0 bc 30 04 29 3b f0 ba fd bb 19 96 b4 3d
       -0.023477925 0.002578985 -0.007743232 0.08817691
000390 71 e9 55 3d f9 88 b1 3e 59 6a 8f 3c 0b 8c 9a bd
       0.05222458 0.34674814 0.017506765 -0.07546242
0003a0 4b 51 a9 3d a0 3c 23 be 50 31 63 bd 90 aa 48 3e
       0.082674585 -0.15941095 -0.05546695 0.19596314
0003b0 96 c6 19 3e f0 23 b5 3d 9a cb b3 3d 73 b9 e6 3d
       0.15017161 0.08844745 0.08779068 0.112658404
0003c0 d0 27 b8 bd 1c 24 75 3b 31 02 9c 3d c9 d6 92 3c
       -0.08991969 0.0037405556 0.076176055 0.017924683
0003d0 5a 4d f2 bd 78 bc 99 3d 1a 43 f9 bd f2 ab ae bc
       -0.1183116 0.07506651 -0.12171002 -0.021322224
0003e0 3f f3 6b bd 7c ee 4f 3d 9a 33 e9 3d cb 7c c3 bd
       -0.057605024 0.050764546 0.11386795 -0.09545287
0003f0 5d 9b 8c 3e 82 2a cf bd 2f 3d 9d 3d b2 bd 2d bd
       0.27462283 -0.101155296 0.076776855 -0.042417236

sage.layer1.fc_self.weight f4 [64, 256]
000000 e0 bd 81 be 20 91 3a 3f 3f 2a 5e bd 0c 2e 28 bd
       -0.25340176 0.72877693 -0.054239508 -0.04105954
000010 58 52 c7 3d d7 53 10 3d 92 6d 38 bd ee 39 e3 3c
       0.09732503 0.035236206 -0.04502637 0.027737584
000020 3c 2e 06 3f 8d d7 8e be f3 bc 59 3d 3e 16 1f 3f
       0.524143 -0.27898827 0.05315871 0.62143314
000030 9d 6b aa 3e b2 52 d0 be b5 e5 2c be 1d f8 c6 be
       0.33285227 -0.40688092 -0.16884501 -0.3886117
000040 6c c7 28 bf 7e bb 26 3e ef 8f d8 3d eb e7 85 3e
       -0.65929294 0.1628246 0.10574328 0.26153502
000050 ea dd 4a bd 99 31 b8 be b5 f2 ad bd 72 c6 b6 bd
       -0.04952804 -0.3597534 -0.08493558 -0.08924569
000060 08 80 82 be 7a bd 32 3e b2 4c 75 3e b4 13 02 3e
       -0.25488305 0.17455092 0.23955038 0.12702829
000070 89 49 08 3e 85 73 83 3e 5d 61 a7 3d 3e 32 8c bd
       0.13309301 0.25674072 0.081728674 -0.068455204
000080 3c e0 7a 3d 78 97 81 be 35 e4 ab 3d 89 c0 66 3d
       0.061249003 -0.25310874 0.083931364 0.05633596
000090 e6 43 3f 3e aa e5 8f be d1 8d 84 3e 2f cd 05 3e
       0.18678245 -0.28104907 0.25889447 0.13066553
0000a0 aa 70 5c bd b2 fa 08 3f c0 af 37 3e 8b d6 20 be
       -0.053818382 0.5350753 0.17938137 -0.15706842
0000b0 2c b4 16 be fe 68 e9 3d c7 e2 d0 bd 6d 55 bb 3d
       -0.14717168 0.11396979 -0.10199504 0.09147153
0000c0 2f 47 63 be 6b 2a ed bd c6 29 9d 3e c2 b3 3e be
       -0.22195123 -0.11580356 0.30695933 -0.1862326
0000d0 c8 12 a8 be 4d 54 63 be 3a 36 e5 bd cc 0b bb 3e
       -0.3282683 -0.22200127 -0.111919835 0.36532438
0000e0 70 df 04 bf a3 5c a4 bd 75 0a d8 be db d9 99 be
       -0.5190344 -0.080254816 -0.42195478 -0.30049023
0000f0 7b 61 99 bd b1 91 2b bd fe 46 9b bd c3 af 55 bb
       -0.07489296 -0.04188699 -0.075819 -0.0032605983
000100 bb fd 41 3d 56 92 bd 3c 3c 5b 80 be a1 9d f4 bd
       0.047361117 0.023141067 -0.25069606 -0.11944128
000110 0d 98 08 bc 73 55 ef 3e cb 14 90 3d 45 36 d1 be
       -0.008337033 0.4674488 0.07035216 -0.40861717
000120 40 35 32 be 8d 4e 17 3e 63 60 0b 3e 8e 66 5e be
       -0.17403126 0.14776058 0.13610987 -0.21718809
000130 41 5c af bd 3e 53 10 3e 01 f9 9a bd e8 a6 6e be
       -0.08562518 0.14094254 -0.07567025 -0.23305857
000140 42 75 6d be b7 c0 c2 3d 3c fa 6f 3e 92 87 b5 be
       -0.23189262 0.09509414 0.234353 -0.35454994
000150 15 eb 9f 3d fc e2 0e be 89 5d 97 3e af 41 85 be
       0.0780851 -0.13953775 0.2956355 -0.26026675
000160 bf 82 e3 3e dd 53 12 bf c0 b1 fd bd b6 fa 5d 3e
       0.4443569 -0.57159215 -0.12387419 0.2167767
000170 3a 67 be 3e 89 6d a4 bd cf 08 74 3e 4c 02 e3 3c
       0.3718813 -0.08028705 0.23831485 0.027711056
000180 1c 96 01 3f 0b 07 95 bd 86 60 25 3e 92 09 7a 3e
       0.50619674 -0.07276734 0.16150102 0.24417713
000190 43 6a aa 3c 31 bd 93 be 82 e8 5b 3d 5c 72 1a 3f
       0.020802623 -0.2885528 0.053688534 0.6033075
0001a0 4b 85 0f 3f 1f c4 05 3e d5 69 46 be c3 ab 56 3e
       0.56062764 0.13063096 -0.19376309 0.2096396
0001b0 1f 18 e0 3c 6d f5 01 be 1a 8d 31 3e 55 7f 69 3e
       0.027355252 -0.12691279 0.17338982 0.2280248
0001c0 96 2b 8e 3c f9 6b 10 be 58 ab 88 be 4b 7f e6 be
       0.017354768 -0.14103688 -0.26693225 -0.45018992
0001d0 0d ce 2f be 43 dc 1a bf 9d 9d 59 be f8 c0 b1 3e
       -0.17168446 -0.6049234 -0.21251531 0.34717536
0001e0 49 58 0c 3f 21 a0 8b 3b e1 e3 fa 3e e0 4d 8e 3e
       0.5482221 0.004261032 0.49001983 0.2779379
0001f0 6b f1 28 be 1b 2d 54 be 4c c1 1e be 2b 59 03 bf
       -0.16498344 -0.20720331 -0.15503424 -0.51307935
000200 e1 ec 6b be 4c 9b 98 be 49 9a ae bd 5a 58 a6 3e
       -0.23039581 -0.29805982 -0.08525521 0.32489282
000210 f0 77 73 3e b8 03 29 3e ca 4d cd 3d 42 c2 8f be
       0.23776221 0.16505325 0.10024603 -0.28077894
000220 1a 2c c5 3d 69 37 a2 be 66 62 0b 3e 22 96 a9 bc
       0.09627552 -0.316829 0.13611755 -0.020701472
000230 69 fa e1 3c 3a 95 12 be fc f0 da be ab 0b f1 3d
       0.027585225 -0.14314738 -0.4276198 0.117698036
000240 1f c5 0f 3f ef fd 75 be 0a ca b2 be 1f 5a e1 be
       0.5616016 -0.24022649 -0.3491977 -0.4401407
000250 f3 6c 0c 3e c0 b8 fc 3d 8f 7a 19 be 0c 24 05 3f
       0.13713436 0.12339926 -0.14988159 0.5200813
000260 4d 33 73 be bc 81 18 be 2e bd 38 bb 04 cc 18 be
       -0.23750038 -0.1489324 -0.0028188932 -0.14921576
000270 af a2 88 be d3 4c be 3d c3 4d 66 bd 89 a8 c1 3e
       -0.26686618 0.09291997 -0.056226503 0.37823895
000280 47 df 62 3d d3 a3 d7 3d 3e 46 88 3d 59 7a 9c bd
       0.055388715 0.10529294 0.06654023 -0.076405235
000290 d8 cb dc be 77 41 93 3e 5a 6f 63 bc 33 88 45 be
       -0.4312427 0.28760883 -0.013881529 -0.19290237
0002a0 5a 80 bd 3d 3d 90 a8 bd bb 4b 83 3e 87 8b 94 3c
       0.09252997 -0.08230636 0.25643715 0.018132938
0002b0 b1 dd d7 3d e8 69 86 be 2d b9 78 3e 29 22 9c bd
       0.10540331 -0.26252675 0.24289389 -0.07623703
0002c0 02 c7 27 be 25 04 8a 3e 47 65 09 3e 01 c7 56 3f
       -0.16384509 0.26956287 0.1341754 0.83897406
0002d0 33 59 0a 3f 8f 57 3c 3d b7 21 3e be f9 32 8d 3d
       0.5404236 0.04598194 -0.18567549 0.06894488
0002e0 1b 2a 6a bd 1a 76 80 be b4 00 2e 3f 84 5b aa bd
       -0.05716906 -0.25090104 0.6796982 -0.083182365
0002f0 81 f2 4d bd 6d c0 23 3d 3a ad 7a 3e 6e c9 89 3d
       -0.050280098 0.039978433 0.24480143 0.06727873
000300 ae 88 07 bf c8 02 5b 3e 18 23 cf be 90 62 c2 bd
       -0.5294293 0.2138778 -0.40456462 -0.094914556
000310 31 42 ca be 05 2a 84 be 5f a9 24 be 5e 51 5e be
       -0.39503625 -0.25813308 -0.16080235 -0.21710727
000320 44 d1 4b be 12 90 b6 be f8 0b 60 3e 4b 0f e7 3e
       -0.19904047 -0.35656792 0.21879566 0.45128855
000330 87 4b 8b 3e 06 33 74 bf 8b e5 e4 be 56 8e a3 bc
       0.2720606 -0.95390356 -0.44706377 -0.019965332
000340 3c 93 ff 3d 14 97 0f 3f 4a bc 0f 3d 66 92 16 bf
       0.124792546 0.560899 0.035091676 -0.58817136
000350 34 d3 8c bd ae fd b7 3d 03 38 ae 3e 44 cb 85 bd
       -0.06876221 0.089839324 0.3402711 -0.065329105
000360 59 7d bc 3e b3 9c d0 be 56 5b 7f be 00 47 9a bd
       0.36814383 -0.40744552 -0.24937186 -0.075330734
000370 e3 db 8b be 16 67 b4 3c 88 13 cf bd 5d 60 19 3f
       -0.27316198 0.022021811 -0.10111147 0.59912664
000380 f2 a8 96 be 7e ba e1 3d 83 6b eb 3e a0 87 87 be
       -0.2942577 0.11021899 0.45980462 -0.2647066
000390 7d 69 b9 3d f9 a1 98 be c3 98 60 3c 5e 1a 8d be
       0.090533234 -0.29811075 0.013708296 -0.2755918
0003a0 a7 3a d4 3e 14 00 df 3d 92 b3 1b 3e 91 3e 6d be
       0.41450998 0.10888687 0.1520522 -0.23168398
0003b0 2a 0c 2b bd ec d7 bb bb 73 b6 2a 3c 35 7e 9a be
       -0.041759647 -0.005732527 0.010419476 -0.30174413
0003c0 5d ab cf 3d 17 f0 b2 3d 41 60 38 bf 12 03 47 bb
       0.10140107 0.087372 -0.7202187 -0.003036682
0003d0 47 70 46 3d c6 3c 7d 3e 87 87 4b be 27 e1 93 be
       0.04844692 0.24730214 -0.19875918 -0.28882715
0003e0 f7 28 09 bf ac e3 74 3e eb df c3 bd 34 90 33 3f
       -0.5357813 0.23914975 -0.09564193 0.7014191
0003f0 b2 ae cc 3d af 8b 45 be a7 be 1e bc 2e b6 59 3e
       0.09994258 -0.19291566 -0.00968901 0.21260902

sage.layer1.fc_self.bias f4 [64]
000000 7a fd f8 3c 16 42 9a 3c 1f 13 3a 3d b7 52 79 3d
       0.030394305 0.01883034 0.04542839 0.0608699
000010 8a e7 da bb 39 22 be 3c 9a 03 12 3d 89 00 92 3d
       -0.0066804336 0.023209678 0.035647966 0.07129008
000020 15 52 0d 3d 88 96 41 3d 5b cd 7b bb 34 c4 6d 3c
       0.034502108 0.0472627 -0.0038421962 0.0145121105
000030 5b 16 a4 3d 13 a3 e4 bc cb 84 b8 3c ca a7 a8 3c
       0.080120765 -0.027909791 0.022524258 0.02058782
000040 17 a4 74 3d 15 0e 47 3d 98 e1 f0 3b 96 d0 b8 3d
       0.0597268 0.048597414 0.0073511116 0.090241596
000050 cc c3 61 3c 92 3a 02 3d b0 b9 eb 3c 67 04 30 3d
       0.013779592 0.03179414 0.028775066 0.04297295
000060 1e 9f 18 3c 2d 7c 91 bb f9 ff 53 3d 27 46 ea 3c
       0.00931528 -0.0044398517 0.051757786 0.028597904
000070 cf 7c 9b 3c c2 75 ad 3c ad 8f 38 bd 74 d5 6e 3c
       0.018980412 0.021174315 -0.045058895 0.014577258
000080 15 f1 a2 3b f8 1a a5 3c 57 f3 c4 3c 39 87 33 3d
       0.004972587 0.020154461 0.024041815 0.04383013
000090 da f1 35 3a 10 73 b5 bc 86 d8 72 3c 0b 4f fd 3a
       0.0006940641 -0.022149593 0.014822131 0.0019325925
0000a0 6a 94 15 3d 05 78 df 3c 4a 33 68 3c f0 49 02 bc
       0.03651849 0.02727891 0.0141723845 -0.007952198
0000b0 46 0b d9 3b 84 46 7e 3c 36 1f d6 3c cd 6b 64 3c
       0.0066236584 0.015519742 0.02613793 0.013941717
0000c0 7d 06 c5 3d a5 e4 2d 3c ea e8 da 3d 03 0f 4c 3d
       0.09620378 0.010613595 0.10688956 0.049819004
0000d0 4d a2 99 3c c6 34 28 3d 3b f1 bb 3d 94 48 f7 3b
       0.018754149 0.041065954 0.091768704 0.007546494
0000e0 89 5e 41 3d 9e 02 5a 3d ed b1 1f 3d 90 f7 97 bc
       0.047209296 0.053225152 0.038988043 -0.018550664
0000f0 65 2d 04 bc d1 4e 4a 3b 74 da 03 3d 9d e1 aa 3d
       -0.0080674635 0.0030869732 0.032190755 0.083438136

sage.layer2.fc_pool.weight f4 [64, 64]
000000 68 ae 27 3e c2 53 63 3e 65 f1 14 be 52 73 48 be
       0.16375124 0.2219992 -0.1454521 -0.19575241
000010 46 42 38 be 53 ed 49 be 9c b4 78 be 11 db 8d be
       -0.17994031 -0.19719438 -0.24287647 -0.27706197
000020 ec 85 8f bd d0 40 00 3d 2a 42 c4 be a2 8e 3e 3e
       -0.070079654 0.03131181 -0.3833173 0.18609098
000030 ab 6e 29 bd d3 a1 1f 3e 5b f9 a2 bd 66 ca 53 be
       -0.041365307 0.15589075 -0.07957717 -0.20682678
000040 f5 72 00 3e 99 a6 17 be 0a 9d 85 bd 72 27 f2 bc
       0.12543853 -0.14809646 -0.065240934 -0.029559825
000050 05 05 8b be 1a cb a8 be 1f 71 9c be a8 9f 19 3e
       -0.27152267 -0.32967454 -0.30555055 0.1500231
000060 93 76 4b be b8 54 0a bd e9 ed 99 3c 72 c3 01 3e
       -0.19869451 -0.0337722 0.018790202 0.12672213
000070 56 9d 2b be 79 df 69 3d 80 05 d1 3d 08 80 6b bc
       -0.16759238 0.057097886 0.10206127 -0.014373787
000080 bb c4 c7 3d 1c 5f 00 3e 80 78 97 be 9d 64 cc bd
       0.0975432 0.12536281 -0.29584122 -0.09980128
000090 20 ce 93 3e 50 41 a3 bd 44 80 08 3e ee 83 70 3d
       0.28868198 -0.07971442 0.1333018 0.058719568
0000a0 99 29 04 bd f6 b5 f0 bd 44 cb 90 bd 30 47 db 3d
       -0.032266233 -0.11753456 -0.0707002 0.10706937
0000b0 d8 fb 44 be 7e c6 2c 3e fb c0 9a 3e eb aa 36 be
       -0.19236696 0.16872594 0.30225357 -0.17838638
0000c0 49 8f 00 3d d6 57 9a be e5 a3 3e 3e 3d 42 87 be
       0.031386647 -0.30145139 0.18617208 -0.26417723
0000d0 37 54 63 bb 99 b2 bd bd 56 9e 08 3e ca 10 69 bd
       -0.0034687647 -0.092625804 0.1334165 -0.056900777
0000e0 7e 24 87 be 6e 33 4f be e4 5a 8f 3b b8 71 fb 3d
       -0.2639503 -0.20234463 0.0043748487 0.122775495
0000f0 5e 64 46 3e e7 d1 8a be 11 7f d3 3d f0 e7 85 bd
       0.19374225 -0.27113268 0.1032697 -0.06538379
000100 d3 33 79 3d f0 b5 18 3d a3 82 72 be 5f 74 ab 3e
       0.06084044 0.037282884 -0.23682646 0.33487222
000110 72 6a 43 3e 1c 43 c1 bd 59 8a 73 3e b1 b5 9a 3e
       0.19083574 -0.09436628 0.23783244 0.30216745
000120 11 cb 7d bd a6 26 8a be f8 97 2c be 39 5b b1 3e
       -0.061961237 -0.2698261 -0.16854846 0.3463991
000130 df 25 9a 3e e8 6f ea 3b dc b4 cb bd 6e b9 5c be
       0.30107018 0.0071544535 -0.099466056 -0.21555111
000140 a0 d9 a9 3e e8 f0 73 be 2e 13 05 be 8b cb c7 3e
       0.33173847 -0.23822367 -0.12995598 0.39022478
000150 05 7d a2 3d f0 78 af be 09 6b de bd c3 66 6a 3e
       0.07934002 -0.34271955 -0.10860259 0.22890763
000160 37 34 4f be 78 ba 22 3d 1d ab 6f 3d b6 00 6b 3d
       -0.20234762 0.03972861 0.058512796 0.057373725
000170 b2 d0 85 3e c2 1b 68 bd 84 0d bd bd 59 cd 8c 3e
       0.26135784 -0.056667097 -0.092310935 0.27500418
000180 3f bb 89 bd 33 1b 92 be 49 fe 01 bd 67 7b bd 3e
       -0.067251675 -0.28536376 -0.031736646 0.3700821
000190 84 9a 76 3e 99 2a 2f be 1f 13 c5 bd 3a 47 84 be
       0.2408238 -0.17106093 -0.09622788 -0.25835592
0001a0 54 2d 71 be 04 7b 3b 3e 3c 61 06 3e 14 0d 0a bd
       -0.23552448 0.18308645 0.1312303 -0.03370388
0001b0 18 8e a3 bd 92 c5 6a 3d 9c 27 1f 3e 81 e0 a6 3e
       -0.079860866 0.057317324 0.15542454 0.32593158
0001c0 26 45 c1 3d 53 00 db 3d 5c 3e 29 3f 37 c8 94 3d
       0.09437017 0.10693421 0.6611078 0.072647505
0001d0 b3 ab 11 be 78 80 45 be 59 10 bb 3e 93 f6 16 3f
       -0.14225654 -0.19287288 0.3653591 0.5896999
0001e0 00 9f 16 3e fa 2e eb 3e a4 ff e4 3e 8a 76 85 be
       0.14709091 0.45934278 0.44726288 -0.26067
0001f0 17 e6 04 3e 6a 61 9c 3d 5d ea 41 be fc 62 a2 3e
       0.12978397 0.07635768 -0.18937059 0.31716144
000200 39 e8 b6 3d 84 54 3f 3e 90 08 0d be e1 90 ff 3d
       0.08931012 0.18684584 -0.13772798 0.12478805
000210 4e 5a b4 be c1 51 2c 3e b9 0e a2 be d7 36 4b be
       -0.35225147 0.16828062 -0.31651857 -0.19845138
000220 a0 b5 0a 3c ca 3a 18 3e 9f 7b 45 3e 38 8a 5e bd
       0.008466154 0.14866176 0.19285439 -0.054331034
000230 f3 b7 7a 3e d5 e6 1f be 6a 44 d7 bd ce 22 88 be
       0.24484234 -0.15615399 -0.10511096 -0.26589054
000240 94 b4 69 be 67 39 bc bd b8 3d 0f 3e 00 3b 49 be
       -0.22822791 -0.09190636 0.13988388 -0.19651413
000250 a9 7a a0 bb 7d b9 78 bd 12 1b 6c 3d bb d3 74 3e
       -0.0048974347 -0.06072377 0.057643004 0.23908894
000260 7d 4f 65 3e c2 79 e7 3d 33 6c 8f be 5a 3b c0 be
       0.22393604 0.1130252 -0.28012237 -0.37545282
000270 04 5a c1 3e d3 ec 08 3e 52 ef df 3d 49 02 04 3e
       0.3776399 0.13371591 0.109343186 0.12891497
000280 be be 20 be 55 08 09 3d c9 0a 17 bd 3b 96 25 3e
       -0.15697762 0.03345521 -0.03687552 0.1617059
000290 65 9e dc bd 69 e8 39 3e 14 d0 7b be ca 62 91 bc
       -0.10772399 0.18155064 -0.24591094 -0.017747302
0002a0 9b 70 94 be b8 e6 14 be df e3 21 bc 77 3b ee 3d
       -0.2899216 -0.14541137 -0.009880989 0.11632436
0002b0 19 ae a1 bc 4f 39 87 be e4 0a 7d 3e de 9d 11 3c
       -0.019736337 -0.2641091 0.24711186 0.008887736
0002c0 39 8e 0e 3e eb 34 cb 3e d5 ec a6 3c aa 07 85 3e
       0.13921441 0.3968881 0.020376602 0.2598241
0002d0 da e5 3b 3e 18 3c ca bd 76 ff b3 bb 34 81 58 3d
       0.183494 -0.09874743 -0.0054931 0.052857593
0002e0 e6 59 be bd fd 5d 81 3d 38 cb b9 3b 06 21 40 3e
       -0.092944905 0.06316755 0.0056699775 0.18762597
0002f0 18 37 62 be 44 0b 45 bc 63 60 2b 3e d8 31 9d bd
       -0.22091329 -0.012026612 0.16735987 -0.076755226
000300 1d f9 91 be 57 38 7a 3e 92 bd 07 be 4c f3 27 3e
       -0.2851037 0.24435554 -0.13255909 0.16401404
000310 6f 4e ca 3d b9 fc 04 bd 71 63 49 3e 3c 84 95 bd
       0.09878241 -0.032467578 0.1966684 -0.07300612
000320 96 49 dc 3d cd 57 b3 3d 44 e1 90 3e 30 4e bd 3d
       0.10756223 0.08756981 0.28296864 0.09243429
000330 7a 6d ec 3b ce 73 25 3e 47 1c 8b 3d af 4b 46 3e
       0.007215199 0.16157457 0.06792503 0.19364808
000340 f0 86 53 be 3a 5d 1f 3e 32 15 5a bd 37 56 c1 bd
       -0.20656943 0.15562907 -0.05324287 -0.09440272
000350 98 f5 1d 3e 12 6d 5e 3e e0 86 38 be 71 fc cb bd
       0.15425718 0.21721295 -0.180202 -0.09960259
000360 7f 98 cb 3d a9 d2 55 3d f6 dc 47 3e d9 7a 1d 3d
       0.09941196 0.052202854 0.19517884 0.038447235
000370 ae 0c b5 3e 3c 15 0a 3e 9b 7a 69 bd 2f b9 a5 3e
       0.35361236 0.13484663 -0.05700169 0.32367846
000380 27 93 9f 3d 61 38 69 be 9a bf aa bc 4a 89 65 bd
       0.07791739 -0.22775413 -0.020843316 -0.056039132
000390 7c 8f 2e be 83 2e 78 bd 18 bd 13 be 92 8e 1f 3d
       -0.17046922 -0.060591232 -0.14427602 0.038954325
0003a0 e0 86 00 3e 72 45 67 bd de 48 67 3e 9b 36 44 be
       0.1255145 -0.056462713 0.2258639 -0.19161455
0003b0 73 e6 36 3e 30 57 24 be 01 92 6a 3e 0d a3 4d 3e
       0.17861347 -0.16048884 0.22907259 0.2008173
0003c0 3b 7e 39 3e 95 18 af bd 06 bb 91 3e cd aa b1 bd
       0.1811456 -0.085496105 0.28463 -0.08675156
0003d0 b8 84 9e 3d 80 0f 46 3e af bf 95 be 49 e8 5d bd
       0.07740158 0.1934185 -0.29247805 -0.054176603
0003e0 c0 8a d2 bd c3 90 40 be 7f 2c c6 3d a7 a0 0f 3e
       -0.10280371 -0.18805222 0.09676456 0.14026128
0003f0 b9 fb 35 be 27 3d ae bd 34 f9 4c 3d 08 9c 1d be
       -0.17771806 -0.08507758 0.050042346 -0.15391552

sage.layer2.fc_pool.bias f4 [64]
000000 cd 67 ce 3d c6 49 ce 3d 29 62 2e 3d b1 73 3e bb
       0.10078392 0.10072665 0.04257408 -0.0029060657
000010 d4 f3 e1 3d 45 e4 01 3e 44 e5 27 3c 19 62 18 3e
       0.11032835 0.12684734 0.010247532 0.14881171
000020 f8 f1 d3 bd de 70 07 be d2 89 7e 3e 0d 05 57 3c
       -0.10348886 -0.13226649 0.24857262 0.013123763
000030 34 a1 32 3d 08 7e a2 3d 52 5c cd 3d d5 41 a7 3d
       0.043610767 0.07934195 0.10027374 0.08166853
000040 aa 7f f7 bd a0 aa d4 bd 44 8e 40 bc fa 03 e5 3d
       -0.12084897 -0.10384107 -0.011752669 0.11182399
000050 8a ee d0 3d 94 5d 0e bc 82 18 13 3d 13 7c e1 3d
       0.10201748 -0.008689303 0.035912044 0.110099934
000060 8c 9f ef 3d e6 86 d0 3d 4a 60 dd 3d d1 d5 c8 bc
       0.11700353 0.1018198 0.10809381 -0.024516018
000070 55 23 72 3e 14 7a 26 3d 28 e8 08 3e 3c a5 8a 3c
       0.2364629 0.040643767 0.1336981 0.016924493
000080 b9 54 0a bd a5 7c 0c be bd df 2f bc d2 ae c3 bd
       -0.033772204 -0.13719423 -0.010734496 -0.09554829
000090 5d 27 aa 3c ab 26 9f 3e 33 ed e7 3d f8 35 95 bd
       0.020770723 0.3108419 0.11324539 -0.07285684
0000a0 9f 00 0d 3e 92 75 09 be 26 b0 e3 bd e4 20 65 3e
       0.13769768 -0.13423756 -0.11117582 0.22375828
0000b0 43 80 54 3d ea af 47 be 80 bd 29 be 4c 9f 5e bd
       0.051880132 -0.195007 -0.16576195 -0.054351136
0000c0 fe 77 7d ba fe 75 b9 bd 85 a7 1d 3e a9 94 84 bd
       -0.00096690643 -0.09055708 0.15395935 -0.06473667
0000d0 9d 06 9b bc eb 0c 5e bd e5 30 0b 3e 54 d7 9d 3c
       -0.018924052 -0.05421154 0.1359287 0.019267716
0000e0 51 49 26 be 04 69 28 3e 9f 25 ee bd 87 72 84 3c
       -0.16238905 0.1644631 -0.116282694 0.016167892
0000f0 d3 03 57 bd 02 b1 e4 ba b0 41 f3 3d ac fa 0e 3e
       -0.05249388 -0.0017447772 0.11877763 0.13962811

sage.layer2.fc_neigh.weight f4 [128, 64]
000000 40 59 8b bd af 81 b4 bb 92 14 6b bd 59 51 2a 3e
       -0.068041325 -0.0055086236 -0.057392664 0.16632594
000010 cd d7 03 be f8 42 13 3d c2 ab d2 bd 5e b9 e3 3d
       -0.1287529 0.03595254 -0.102866665 0.1111934
000020 60 ce cd bd b9 8c 33 3e 23 24 b6 3d bc 96 56 bc
       -0.100491285 0.1753415 0.08893611 -0.013097461
000030 3a 69 0a 3e 4b 38 51 3e 32 45 6c 3e bd 8f 99 3d
       0.13516703 0.2043163 0.23073271 0.07498119
000040 63 2d f3 bd e5 3c 2a be 50 ab ca 3d 3e 98 a8 3d
       -0.11873891 -0.16624792 0.098959565 0.08232163
000050 a3 0b 9a 3e 54 8e 15 be ce f8 32 be 6c 2f ce 3c
       0.30087003 -0.14605075 -0.17477724 0.025169097
000060 42 ec 68 bd 0b 81 87 3e 66 cc 67 3e 7f 15 08 3d
       -0.056865938 0.2646564 0.22636566 0.033223625
000070 93 e0 21 3e 67 c3 a5 be 99 07 a6 3e a9 51 25 3c
       0.15808325 -0.32375643 0.32427672 0.01009027
000080 6c b0 50 3e cb 6a 67 3c 70 6d 20 be c2 e4 79 bd
       0.203798 0.0141245825 -0.15666747 -0.061009176
000090 74 a4 d0 3d d1 5b 36 3e b1 ea b8 3d ce 81 72 be
       0.10187617 0.17808463 0.09029139 -0.23682329
0000a0 33 ea 9c 3e ea 8b 8b bd 39 a5 06 bb 1f 2f 81 3e
       0.3064743 -0.06813796 -0.0020545258 0.25231263
0000b0 2c b5 84 3d ce 9d f8 3b 9a d8 62 3d e0 0d 14 3e
       0.06479868 0.007587171 0.05538235 0.14458418
0000c0 5c c7 74 be 08 e2 81 bd eb 44 c3 3d 2a f2 37 be
       -0.23904175 -0.0634194 0.095346294 -0.17963472
0000d0 e6 84 72 be 82 f2 b0 3c 9f 3e 86 3e 2e e5 6d 3e
       -0.23683509 0.021600012 0.2621965 0.23231956
0000e0 04 1f 98 3d 3f 4d 42 3e 1b a3 06 3e ef b8 2c 3d
       0.07427791 0.1897478 0.13148157 0.042168554
0000f0 fd e6 d3 bd df 30 43 3e 7a 28 76 be f0 1d e7 3e
       -0.10346792 0.19061612 -0.24038878 0.45140028
000100 a3 84 2d 3e c4 05 45 be c9 1e 0d be 9c 27 15 3d
       0.16945128 -0.1924048 -0.13781275 0.036414728
000110 20 d2 77 3d 81 a9 89 3d 61 4b 0e 3e a4 74 97 3c
       0.060503125 0.067217834 0.13895942 0.018488236
000120 ba 9e f1 bd fb b9 97 bd 03 2b 89 be 7c 3c 58 bd
       -0.11797853 -0.0740852 -0.26790628 -0.052792057
000130 c5 22 a1 bd eb da 6d bc e1 c0 2e 3e 18 0e 1c be
       -0.0786796 -0.014517526 0.17065765 -0.15239751
000140 c3 af 3e be 99 8c f7 bd 74 49 21 be 5c d3 96 bd
       -0.18621735 -0.12087364 -0.15750676 -0.07364532
000150 a3 6f d5 3d 36 48 a3 3d 14 bd 80 3e 76 54 40 be
       0.10421684 0.079727575 0.25144255 -0.1878222
000160 55 93 18 be 30 43 0a be 05 f9 0e be 0c bb f7 bd
       -0.14899953 -0.13502192 -0.13962181 -0.12096223
000170 b0 b3 2e 3e 5c a3 54 bd 7e 1e d0 bd 8b f2 b3 bc
       0.17060733 -0.051913604 -0.10162066 -0.02196624
000180 0b 90 57 be c2 00 73 3e af 45 85 3d 35 0c 52 3e
       -0.21051042 0.23730758 0.06507432 0.20512469
000190 75 84 38 3e 29 40 8b be c0 3b 2a 3e 5d 6a 7b 3e
       0.18019278 -0.27197388 0.16624355 0.24552293
0001a0 51 79 c3 3c c8 cf 29 3e 0a 76 80 bd 34 0a 57 be
       0.02386156 0.16583169 -0.06272514 -0.20999986
0001b0 e6 fa ac 3d 9f ee 22 3e 67 4b 84 3d 02 2f 91 bd
       0.084462926 0.15911339 0.06459694 -0.07089044
0001c0 82 1d 30 be 11 27 28 3d e8 5a 35 3e df 6a 26 be
       -0.17198756 0.04105288 0.17710459 -0.16251706
0001d0 f6 e1 19 be d7 a4 0a 3e c7 dc 9b 3d 60 37 eb bd
       -0.15027604 0.13539444 0.07610469 -0.11485171
0001e0 22 b1 33 3d 4e 25 61 3e 82 c8 64 bd 4c b0 18 be
       0.0438701 0.21986887 -0.05585528 -0.14911002
0001f0 cd 40 ab 3d b0 1c e6 bd 5c 07 c7 bc 1b 91 24 3e
       0.08361969 -0.112359405 -0.024295501 0.16070978
000200 1c 25 27 be 00 d2 b5 bd 82 de cb 3c 48 11 05 3e
       -0.1632275 -0.08877945 0.024886373 0.12994874
000210 c8 ea 47 3e 37 b6 6a bd 46 0a 18 3e e2 ea 2c be
       0.19523156 -0.05730268 0.14847669 -0.16886476
000220 70 e0 f2 bd 82 ba 10 bd 0c 42 45 3d 53 31 c8 bc
       -0.11859214 -0.035334118 0.04815869 -0.024437582
000230 db c0 1e 3e 07 8c a5 3d a8 54 7d bc 4a d7 7c bd
       0.15503256 0.08083349 -0.015462078 -0.061728753
000240 b3 0b 14 3e 1e a7 46 3e ef 6d b8 bd 91 2b 4b 3e
       0.14457588 0.19399688 -0.09005343 0.19840838
000250 80 1f 19 be 57 aa 12 3e 8f 24 76 3d 8c 9b 1d 3e
       -0.14953423 0.14322792 0.06009346 0.15391368
000260 95 10 ed 3b ad 2a 0b 3e 9b 0b bc 3c 7a c7 39 be
       0.0072346427 0.13590498 0.022954753 -0.181425
000270 4d f3 71 bd 18 60 d4 3d 65 96 0b 3e 40 93 ef 3d
       -0.05906992 0.10369891 0.1363159 0.116980076
000280 97 ef 19 bd a2 8a 18 3e 20 6a ce 3d 5e a5 2f 3e
       -0.037582006 0.14896634 0.100788355 0.17152926
000290 55 14 8d be 15 8e db bc 3a 57 bf bd 06 19 08 be
       -0.27554575 -0.026801148 -0.09342809 -0.13290796
0002a0 e6 65 e6 3d 61 a3 b0 3d 72 4d b9 bd 87 62 ae be
       0.11249904 0.08624912 -0.09047975 -0.34059545
0002b0 b1 a7 e8 3c df d5 7d 3b 0d 30 e4 bd f4 75 01 be
       0.028400274 0.0038732213 -0.111419775 -0.12642652
0002c0 39 ab 95 3e cd f3 7c 3d fd 8f ce 3c 9d 27 fd bc
       0.29232195 0.061755944 0.025215143 -0.030902678
0002d0 39 91 c2 bd 8b d5 26 be b0 74 3a 3e 00 2f 29 3d
       -0.09500355 -0.16292398 0.18208575 0.04130459
0002e0 8b 4d b6 3d e5 10 0f 3e b7 6c ef 3d 58 49 8f 3d
       0.08901509 0.13971289 0.116906576 0.06996411
0002f0 b6 22 9d bb f0 56 c0 3d 7c 1a d7 bd ff ea a8 3d
       -0.0047953976 0.09391582 -0.10503098 0.08247947
000300 8e ef 77 bd 70 9c 84 3e 06 bc 1b be 30 03 ef 3d
       -0.06053119 0.25900602 -0.15208444 0.1167053
000310 2e 6d de bd 22 40 25 be e4 cc 0d 3e 41 52 82 3d
       -0.10860668 -0.16137746 0.13847691 0.06363345
000320 24 40 50 bd c4 83 d2 3d 36 52 b9 3b 37 f7 9d 3d
       -0.05084242 0.102790385 0.0056555523 0.07713168
000330 3f 5f 9e bd 91 02 80 3e 09 af 20 bd 19 f0 62 3e
       -0.077330105 0.25001958 -0.039229427 0.22161902
000340 21 1d 77 bd 99 08 0a 3e b6 0f 1b 3e 55 8e 4d be
       -0.060330514 0.13479842 0.15142712 -0.20073827
000350 8a 53 74 be c6 28 b7 3d b2 1a 87 3d c2 c0 f6 3d
       -0.23859993 0.08943324 0.065968886 0.120484844
000360 ce 07 2d bd 7c 2d cf bd a3 ad 09 3e e0 19 2c bd
       -0.04224377 -0.10116097 0.13445143 -0.042016864
000370 f9 10 13 be 86 9e 46 be 81 0a b4 3c 36 d0 35 3e
       -0.14361943 -0.1939641 0.021977665 0.17755207
000380 06 8e 00 be f8 f4 12 be 84 cf 63 3e b6 e3 1e 3e
       -0.12554178 -0.1435126 0.2224713 0.15516552
000390 b2 37 54 3e 00 69 f7 3c 87 cf ef bd 2b a0 ee 3c
       0.20724371 0.030201435 -0.117095046 0.029129108
0003a0 0e e5 d1 3d 91 d4 b9 3d d5 9b 22 3e 06 bd e6 bd
       0.10248767 0.09073747 0.15879758 -0.11266522
0003b0 33 a6 bb bb fd 6c 2e 3e 02 cb 53 3e 40 f0 2d 3e
       -0.0057265996 0.17033763 0.2068291 0.1698618
0003c0 5e a3 35 3e 34 03 65 3e f6 4e cb bd ef a9 26 be
       0.17738101 0.22364503 -0.0992717 -0.16275762
0003d0 dc 83 2c be c9 09 0f 3d ab b7 0c be 1c 0c 3a 3e
       -0.16847175 0.03492144 -0.13741939 0.18168682
0003e0 e2 29 51 be 8e 8b 7e 3d fc 9d 66 be 9f 20 0e be
       -0.20426133 0.06214481 -0.22521204 -0.13879631
0003f0 3d 43 27 bd b2 28 5b 3e 7c a8 af 3d b3 df 04 3e
       -0.040835608 0.21402243 0.08577058 0.1297596
