Paper/Synthesized/code/graphSAGE_exp3/checkpoint_graphSAGE/best_model_GraphSAGE_transE_50.pt (torch, 405313 bytes, 12 tensors)

sage.layer1.fc_pool.weight f4 [50, 50]
000000 de de ba 3e 16 44 26 3e a2 57 f3 bc 25 47 90 3d
       0.3649816 0.1623691 -0.029704873 0.0704482
000010 89 25 9f 3e 68 83 3d bd 26 d2 7e 3e 06 a9 9f bd
       0.31083325 -0.046267897 0.24884853 -0.077959105
000020 42 3b 83 bd 69 bd 49 bd f7 08 18 bd 91 50 a4 bd
       -0.06407787 -0.0492529 -0.037117925 -0.08023179
000030 9a e3 d3 bd 7d e7 98 3d f7 e7 b5 be 59 9d 8c be
       -0.10346146 0.07466028 -0.35528538 -0.27463797
000040 05 e1 cd 3d 12 98 48 be c1 6b c6 3e c4 80 64 be
       0.10052685 -0.1958926 0.38754085 -0.22314745
000050 61 22 80 be fc b8 46 be 09 b6 17 be 87 c1 af 3e
       -0.2502623 -0.19406503 -0.14815535 0.34327337
000060 c0 d6 0e 3d c8 bd 42 3e a1 28 08 be 53 20 03 be
       0.03487277 0.19017708 -0.13296749 -0.128053
000070 69 d4 18 3d 5c 95 3f be 05 ae 80 be 85 18 2a 3e
       0.037311945 -0.1870932 -0.25132766 0.16610916
000080 c7 98 95 be fc a5 39 be e0 f5 6a be 2a c0 55 bd
       -0.29218122 -0.18129724 -0.22945356 -0.052185215
000090 0f ff 8f 3d f5 bb 0b be 97 95 2d be f8 8c 9c 3e
       0.070310704 -0.13645919 -0.16951595 0.305763
0000a0 eb a4 b5 3e e1 5c b1 3d aa 1b 38 be f6 98 96 3e
       0.35477385 0.08660293 -0.17979303 0.29413575
0000b0 7e 52 04 3e dc 8f 94 3e 0e 69 b9 3d 14 d9 b3 be
       0.12922093 0.29016006 0.09053241 -0.35126555
0000c0 31 b6 57 bd 41 e5 26 be fa 47 7b 3e c8 57 dd 3d
       -0.052663986 -0.16298391 0.24539176 0.108077586
0000d0 e3 6b 52 3d 04 5d 86 3e f6 14 94 be e4 d3 7e 3e
       0.05137242 0.2624284 -0.28922242 0.24885517
0000e0 4d 77 84 be af d4 ed 3d 05 bd 1d 3e 0a 52 56 be
       -0.2587227 0.11612832 0.15404136 -0.20929733
0000f0 65 32 38 3e e6 ab 75 be b3 da 0c bd 81 3c 11 be
       0.17987974 -0.23991355 -0.034388255 -0.14183237
000100 5f 99 db 3b be 90 a7 3e e4 10 58 3e 6a b5 df 3d
       0.006701633 0.32727617 0.21100193 0.10923274
000110 04 c0 00 3e 16 ca a0 3c 4f 78 81 3d 84 2c 0a 3d
       0.12573248 0.019627612 0.06321775 0.03373386
000120 ad 1e c4 3d bc e5 57 be 98 d1 b6 be 1d eb 2c 3d
       0.095761634 -0.2108373 -0.35706782 0.04221641
000130 53 98 db 3e 99 85 df 3d b5 e2 83 3e 24 e6 66 be
       0.42889652 0.109141536 0.257589 -0.22548729
000140 57 87 01 3e a5 f5 08 be 50 a2 b7 bd 08 88 a0 3d
       0.12649284 -0.13374956 -0.089665055 0.07838446
000150 c4 6f 02 3e 1f 6b c1 bb 05 d8 71 be d8 dc bc 3e
       0.12737948 -0.0059026624 -0.23617561 0.3688724
000160 66 01 8f 3b 3d 34 c2 3d 54 97 40 bd 8d 9c 1e 3c
       0.0043641804 0.0948262 -0.047019318 0.009680879
000170 b1 47 91 3d 2f 3c 26 3e 7e 3d 74 bd 2d c5 22 bd
       0.07093752 0.16233896 -0.059628956 -0.039738823
000180 c4 aa d8 bc c6 94 07 be 8d 60 de bd 91 37 09 bc
       -0.026448615 -0.13240346 -0.10858259 -0.0083750645
000190 20 bc c2 3e 76 dd 79 be 96 be 91 3e eb d9 76 3e
       0.38034153 -0.24400887 0.28465718 0.24106567
0001a0 70 c1 96 3e 87 c8 d3 3d 72 42 95 3e c8 7c 28 be
       0.29444456 0.10340982 0.29152256 -0.1645385
0001b0 09 26 9a be c4 69 50 3d 2a 39 1d be 7f 1b 88 3b
       -0.30107144 0.050882116 -0.15353838 0.0041536684
0001c0 92 75 bf 3d 16 3b 5d 3d ff 71 49 3e b7 92 04 be
       0.09348597 0.054011427 0.19672392 -0.12946592
0001d0 02 94 7c 3e e9 b3 94 3d 8d 17 6e be 55 88 4b be
       0.24665835 0.07260878 -0.23251171 -0.19876225
0001e0 3a c4 6f bd 83 49 87 be 80 ed 7b be a4 6c 6c be
       -0.058536746 -0.26423272 -0.24602318 -0.23088318
0001f0 d0 aa 33 be cf 63 9a 3e 97 08 cf be 79 8d 17 3e
       -0.17545629 0.30154273 -0.4043624 0.14800061
000200 96 05 45 3e 70 34 0c bd 74 2d bf be 26 9f 90 3e
       0.19240412 -0.034229696 -0.37339365 0.2824642
000210 5e f4 c0 be 47 8b a8 bd cb a7 59 3b 77 e1 93 be
       -0.37686437 -0.0822969 0.0033211585 -0.28882954
000220 90 f4 8d 3d 36 26 01 3e cd 41 b8 3d 57 db 3d 3e
       0.06931412 0.12612233 0.089969255 0.18540703
000230 de f1 ef 3d 3e 0e a6 be ad 0a 33 3c f9 f2 62 3e
       0.117160544 -0.3243274 0.010927838 0.22162999
000240 13 ab 86 bd 12 d1 4d 3e 1d 6d 68 3d b4 dc 24 3e
       -0.065755986 0.20099285 0.056744684 0.16099817
000250 45 ce ca be 3e 66 86 3e 26 ac 6b be ae 02 bd bd
       -0.39610496 0.2624988 -0.23014888 -0.09229027
000260 10 13 b6 bd b3 0e 71 3e 00 c7 4e 3e ad bd 33 3e
       -0.08890355 0.23540764 0.201931 0.17552824
000270 a0 3e a3 be 95 23 94 be 2c c7 93 bc ec 82 a9 3e
       -0.31883717 -0.28933397 -0.018039308 0.33107698
000280 6d ab 99 be a2 32 1d 3e 78 b4 11 be 84 10 8b be
       -0.300136 0.15351346 -0.14229 -0.27161038
000290 7e c7 85 3d a3 29 9a bd 27 74 a6 3e df d3 03 3e
       0.06532191 -0.07527473 0.32510492 0.12873791
0002a0 10 2f 51 3d c3 48 12 be 11 f7 3c bd b5 41 a9 3e
       0.051070273 -0.14285569 -0.04613406 0.33057943
0002b0 60 ff 2f be 3e 2c 02 be 19 f6 a7 3e f8 70 ae be
       -0.17187262 -0.1271219 0.32804945 -0.34070563
0002c0 51 fa f7 3d 66 60 0c 3e ca 8b 76 be 05 a8 0f 3e
       0.12108291 0.13708648 -0.24076763 0.14028938
0002d0 1d 8d 9c 3e d4 ca d7 bd 91 ca df 3d 59 a5 c5 3d
       0.3057641 -0.10536733 0.10927308 0.09650678
0002e0 bc dd 5d 3e 8f e7 a9 ba 58 55 42 3e 69 2e 95 be
       0.21666616 -0.0012962687 0.18977869 -0.2913697
0002f0 8c 21 95 be cc ec a9 3e 17 26 24 3e e1 d5 dd 3d
       -0.29127157 0.33188474 0.16030155 0.1083181
000300 cd 78 a0 3e e2 a6 93 3e 53 ee 19 3e d3 67 a8 be
       0.31342164 0.2883826 0.1503232 -0.32891712
000310 4d 92 15 3e 89 3b a6 3e 13 9d 17 3e 24 c1 3c bd
       0.1460659 0.32467297 0.14806013 -0.04608263
000320 d8 dc 23 3e a6 c8 53 bc 7f 64 a9 be f3 97 1a be
       0.16002214 -0.012926256 -0.33084485 -0.15097027
000330 e1 70 b5 be cc 6e 19 be e4 11 b8 3e 18 df 78 3e
       -0.35437682 -0.14983672 0.3595115 0.24303854
000340 8e 47 9f 3e 3e 22 b8 be 4d 2e 49 be 3f b6 30 3e
       0.3110928 -0.35963625 -0.19646569 0.17257021
000350 3c 6b 59 3d cb f9 8a 3e eb 92 b4 3e de df 9b be
       0.053080782 0.27143702 0.3526834 -0.30444235
000360 4d 39 da 3d 54 ea aa be aa ec 09 be a9 cd fd bc
       0.106554605 -0.33381903 -0.13469186 -0.030981855
000370 7a e8 69 be a7 2b 27 be ad 13 22 3d 66 9b 41 3e
       -0.22842589 -0.16325246 0.039569546 0.18906936
000380 78 38 dc bd 24 e3 bd 3b b6 15 82 3d 83 ab 5d 3d
       -0.10752958 0.0057948995 0.06351797 0.054118644
000390 8f 01 d1 3d 16 3a 35 be da 01 a4 3d 4b 9b 83 bd
       0.102053754 -0.1769794 0.08008166 -0.06426104
0003a0 7f 21 79 be 0b 90 7e be c3 7c 5e 3e a8 9c aa 3d
       -0.24329184 -0.24859636 0.2172728 0.08330661
0003b0 d5 df a2 be 50 d9 97 be b2 8c 9a be bb 51 aa bd
       -0.31811395 -0.29657984 -0.30185467 -0.0831637
0003c0 e5 75 6b ba 42 06 5d 3e 43 2b 82 3e 8d ab 04 3e
       -0.0008982106 0.21584418 0.2542363 0.12956066
0003d0 fb 39 80 be c6 cf 36 3e 2b 86 55 be a9 7b 8e 3e
       -0.25044236 0.17852697 -0.20851962 0.2782872
0003e0 bf 14 37 3e df a1 db 3b 0e 07 a1 3d dc 5c c0 3e
       0.17879008 0.006702646 0.07862674 0.37570846
0003f0 93 d3 ae 3e 7a 75 69 be 52 9d cb bd c3 44 63 3e
       0.34145793 -0.2279872 -0.09942116 0.221942

sage.layer1.fc_pool.bias f4 [50]
000000 91 f6 b7 3c b4 c1 85 3d 1d 73 f6 3d 9a 69 01 bb
       0.02245644 0.065310866 0.12033675 -0.0019746781
000010 d8 aa f3 3d 14 d4 b0 3d 8c 34 a8 3d 86 a0 05 3e
       0.1189782 0.08634201 0.082131475 0.13049516
000020 63 2c 65 3c e7 00 07 3e 83 ae b8 3d c7 d0 52 3d
       0.013987633 0.13183938 0.090176605 0.051468637
000030 62 db c1 bd 95 d1 57 3d a8 fa a8 bd e4 a1 04 bd
       -0.09465672 0.052690107 -0.08250934 -0.032380953
000040 92 d9 fe bd 82 e2 ce 3d f6 7e f0 3b 53 a9 11 3e
       -0.12443842 0.10101797 0.0073393537 0.14224748
000050 f7 a5 f6 bd 87 7e 1c 3d fe 0c a1 3d a7 ad 3e bd
       -0.12043374 0.038206603 0.07863806 -0.046552327
000060 89 45 03 3e f2 83 9c 3d c4 cd de bd 49 33 e5 3d
       0.12819494 0.07642354 -0.108790904 0.111914225
000070 9f e5 01 be 6b c8 64 bd 23 48 e7 3d be eb fa bd
       -0.1268525 -0.055855196 0.11293056 -0.122519955
000080 b1 09 88 bd 85 15 11 3e 1d 3b a6 bc 73 82 04 3c
       -0.066424735 0.14168365 -0.02029186 0.008087742
000090 e9 f8 d9 3c ee 28 18 bd bf d4 ba bd 97 e9 12 3c
       0.026607947 -0.03714841 -0.09122609 0.008966825
0000a0 4d c6 b0 bd 5f be 02 3d 9d d0 1d bd 92 ba 4d 3d
       -0.08631573 0.031919833 -0.038529027 0.050226755
0000b0 6f 78 06 3e ed e8 c2 3d af 9f 02 3e 35 97 9a bd
       0.1313188 0.09517083 0.12756227 -0.07548372
0000c0 fb b0 13 bd c2 0a 80 bd
       -0.036057454 -0.06252052

sage.layer1.fc_neigh.weight f4 [64, 50]
000000 0c 96 b8 3e 61 0b 95 be 29 47 8a be 53 1a c7 3d
       0.36051977 -0.29110244 -0.27007416 0.09721818
000010 f1 d4 fc 3d e5 9c 98 be 48 ba 93 3c ab f7 23 be
       0.12345303 -0.298072 0.018033162 -0.16012447
000020 df 34 71 3d f1 7e 8e 3d 0d 2a b1 be 21 e2 04 be
       0.058888312 0.06957806 -0.34602395 -0.12976886
000030 5d 62 18 3e 8e 35 96 be 11 28 cc 3c 32 a0 80 3b
       0.14881273 -0.29337734 0.024921449 0.003925347
000040 3d 5f 39 3e 90 3b 6d be 6e 42 1a 3d 04 c8 31 bd
       0.18102737 -0.23167253 0.03766101 -0.04340364
000050 f2 00 1f 3c f8 2a 78 be 41 2e d8 3d 62 63 6f 3e
       0.009704815 -0.24235141 0.10555697 0.23377755
000060 ea 45 ae 3d 52 8e 92 3e bf 1a 5d 3e 4f 4b a6 bd
       0.08509429 0.28624207 0.21592234 -0.08119833
000070 ad 31 60 3e 2f f3 5e 3e ee 07 4f 3e 72 ee 2d be
       0.2189395 0.21772455 0.20217869 -0.16985491
000080 0c c0 43 3e fc ff 90 3d 0d fa fc 3c 9a f1 15 be
       0.19116229 0.07080075 0.030880952 -0.14642945
000090 7d 49 95 3d 01 a7 74 3d e4 1c 41 3e 91 05 84 3e
       0.072894074 0.05972958 0.18858677 0.25785497
0000a0 28 18 8b be d3 64 85 bd 5e 02 62 be 9b aa 24 3e
       -0.27166867 -0.06513371 -0.22071216 0.16080706
0000b0 b4 dc 7a 3d 1c 4b 88 3e 9c 0d 2e be 6f 26 93 3e
       0.061245635 0.26619804 -0.16997379 0.2874026
0000c0 6c 62 8d 3e 06 6c 5e 3e b0 d2 e4 bd 02 7f 0b be
       0.27614152 0.21720895 -0.11172998 -0.13622668
0000d0 d9 fb 90 3e 6f 24 7f be 60 16 ff bc 4a d2 04 be
       0.28317145 -0.24916242 -0.031138599 -0.12970844
0000e0 e0 85 03 3e 84 ff 33 be 49 42 de bd e3 bf db bd
       0.12844038 -0.1757794 -0.10852487 -0.10729959
0000f0 70 82 4c be 17 72 26 bd bd 39 81 3d 81 8d 96 be
       -0.19971633 -0.04063615 0.06309841 -0.29404834
000100 b9 d1 63 be 5f c4 35 3e 42 6f 98 3d e6 0a 75 3e
       -0.22247972 0.17750691 0.07443096 0.23929939
000110 b7 f6 24 3e 52 c8 65 be 94 f0 46 be 76 c1 71 3e
       0.16109739 -0.22439697 -0.19427711 0.23608956
000120 cf c8 30 3e d7 66 a2 3e 3a 41 88 be 98 46 8b be
       0.17264102 0.31719086 -0.26612264 -0.27202296
000130 1b a8 e8 bd e6 fb d9 bb 87 e7 39 be 90 d8 1a 3e
       -0.113601886 -0.006652343 -0.18154727 0.15121675
000140 f7 ed 89 3d ae 00 82 3d 82 59 46 be b2 79 56 3d
       0.06734841 0.06347786 -0.19370082 0.05236215
000150 aa fe b6 3c bf 20 7f 3d 03 fa 8f be 44 92 aa 3d
       0.02233823 0.06228709 -0.2812043 0.08328679
000160 da ec 36 be 4f f0 7d 3e bf 97 40 bd c0 d6 ad 3d
       -0.17863789 0.24798702 -0.047019716 0.08488226
000170 d1 d1 f5 3d 42 c5 ae bd b0 cb cd bc cb 5f 64 be
       0.1200291 -0.08533718 -0.02512154 -0.22302167
000180 46 e5 7f bd ce 30 59 be 80 0c 67 3e 07 24 25 bc
       -0.06247451 -0.21210024 0.22563362 -0.01007939
000190 b8 55 88 3d c2 de 9e be 98 96 8d 3e c0 41 72 3e
       0.066569746 -0.31029326 0.27653956 0.23657894
0001a0 c9 5f 0b be 23 73 be bc cf 88 af 3d fb 5e 25 bc
       -0.13610758 -0.02324826 0.08571016 -0.010093446
0001b0 b8 7f 9d be 38 62 8f be b9 53 bd be a8 b6 84 be
       -0.30761504 -0.28004622 -0.36977938 -0.25920606
0001c0 fc ac 83 be 31 7e 89 be 50 6b a2 3e 0c 11 43 bc
       -0.25717914 -0.2685409 0.31722498 -0.01190592
0001d0 44 ae 42 bd 9e 88 a5 be f9 9e 30 3e c5 e7 19 be
       -0.047529474 -0.32330793 0.17248143 -0.1502982
0001e0 65 71 5f be 83 65 ce bd a1 d4 24 be d5 e0 2b 3d
       -0.218206 -0.100779556 -0.16096736 0.041962463
0001f0 7f 96 ed 3d 5b 87 82 3e f3 19 fe 3a fa ee 21 3d
       0.116009705 0.25493893 0.0019386396 0.039534546
000200 2a 19 dd bc 90 e5 47 3d f7 73 ab 3e 21 d3 8a 3d
       -0.026989538 0.048802912 0.33486912 0.06778551
000210 08 b0 4d 3d f6 a5 a2 3e a5 18 75 3e 5c e3 30 be
       0.050216705 0.31767243 0.23935182 -0.1727423
000220 38 6b 8b be 21 e3 1f be ff 24 85 3c 68 26 a2 3e
       -0.2723024 -0.15613987 0.016252993 0.31669927
000230 dd 3d 23 3e a3 f1 2f 3e 7b a5 25 3b 53 12 b3 3d
       0.15941568 0.17182021 0.0025275636 0.087437294
000240 48 e2 b3 bd f3 39 cc bd ee 6b 29 3d 3b 49 f2 3d
       -0.08783394 -0.099719904 0.041362695 0.11830374
000250 56 72 25 be 04 ff a2 be 2d ac 56 3c 32 11 a1 be
       -0.16156897 -0.31835186 0.013102573 -0.3145843
000260 00 73 9f 3e 9c bc a0 be 8b e7 0e 3c 95 bc e7 3d
       0.31142426 -0.31393898 0.008722196 0.11315266
000270 fb 53 8f 3d 8b c2 14 bd e6 bd a6 3d ff d6 b2 be
       0.0699844 -0.036318343 0.08141689 -0.34929654
000280 3d 7d f1 bd 3d 12 5c be 40 20 2b be 49 6a 7a be
       -0.117914654 -0.21491332 -0.16711521 -0.24454607
000290 07 35 9c be 15 e1 66 3d 8e 0c 41 be bc 23 18 be
       -0.30509207 0.056367 -0.18852445 -0.14857382
0002a0 9d fd 32 3e bf 71 a9 3e f6 72 1a 3e 1c c7 c6 bd
       0.17479558 0.33094594 0.15082917 -0.09705946
0002b0 74 3e 38 bd 79 c3 d6 bd 35 30 33 3e 2b 05 5e 3e
       -0.044981435 -0.10486502 0.17498858 0.21681659
0002c0 8f 21 96 bd ad c0 53 bd 0b 32 7b 3d a3 68 95 be
       -0.073306195 -0.05169742 0.06132702 -0.29181394
0002d0 32 e8 a0 3e ac ec a3 3e f9 f2 a4 be 2b df 24 3e
       0.3142715 0.32016504 -0.32216623 0.16100757
0002e0 d9 fa 49 3e b2 a6 35 3e 1b ca 76 3e eb 66 85 be
       0.19724597 0.1773937 0.24100535 -0.26055083
0002f0 89 ad 0f be bc be a5 3e d3 60 a4 be e6 8d 56 3e
       -0.14031042 0.3237208 -0.3210512 0.20952567
000300 36 9d 0a be 24 0d 95 be 42 05 42 3e 24 37 8f be
       -0.13536534 -0.29111588 0.18947318 -0.27971756
000310 09 fb b4 ba 36 a3 3a 3e ac 17 21 bd 8b e5 00 3d
       -0.0013807724 0.18226323 -0.039329216 0.03146891
000320 34 97 6d be 32 48 8b 3e 12 87 8b be 47 6e 3f 3e
       -0.2320221 0.27203518 -0.27251488 0.18694411
000330 b4 87 6e 3d 3c b3 a0 3e 64 a5 85 be 10 c8 57 be
       0.058234885 0.31386745 -0.26102746 -0.21072412
000340 de 6c 62 be 81 70 80 3b f1 1f 8a 3e 3b 48 e1 3c
       -0.22111842 0.0039196615 0.26977494 0.027500262
000350 fd d9 fc 3d 7b 16 8d be 73 e9 5f be f9 c6 72 be
       0.123462655 -0.27556214 -0.21866398 -0.23708715
000360 e4 a7 33 be f1 9c 49 3d dc a7 49 3e ec 19 4f 3d
       -0.17544514 0.049221937 0.1969294 0.05056183
000370 5c e2 f8 bd 19 05 bc be cd f7 56 bd 8c f5 06 3e
       -0.121525496 -0.3672264 -0.052482415 0.13179606
000380 93 91 92 be 83 61 a4 3e b9 7e 34 be 6e d5 94 3e
       -0.2862669 0.32105646 -0.17626466 0.29069084
000390 af 0c 1e be 29 6d 8e be 1a 1f bb 3d 50 09 10 be
       -0.15434526 -0.27817658 0.091367915 -0.14066052
0003a0 7b 49 54 bd cb a9 a7 bd d0 74 2a 3d c5 e8 65 3e
       -0.05182789 -0.08186682 0.041615307 0.22452076
0003b0 6e 25 33 3e c1 ff 92 3e 29 92 fb 3d 46 60 60 3e
       0.17494747 0.2871075 0.12283737 0.21911725
0003c0 90 4d 07 bd 47 fe 90 3d bb 35 be 3d 95 63 10 3e
       -0.033032954 0.070797496 0.09287592 0.14100488
0003d0 aa 18 f1 bd 31 fd 44 be d9 fc 1c 3e 29 b8 6e bd
       -0.117722824 -0.1923721 0.15330829 -0.058281098
0003e0 f9 01 8a 3e 60 70 92 3d ba fe ba 3d 93 78 49 3e
       0.2695463 0.0715034 0.091306165 0.19674902
0003f0 34 35 d6 3d fc 24 7e be 97 86 01 bd e7 32 75 bd
       0.104593664 -0.24818796 -0.031622496 -0.059862997

sage.layer1.fc_self.weight f4 [64, 50]
000000 f6 04 03 3c 6f bc 7f 3d b1 4b cf bd 90 dd ba be
       0.007996788 0.062435564 -0.10121859 -0.36497164
000010 41 93 b4 3e 30 23 96 be 53 62 de bc 28 41 6f 3e
       0.35268596 -0.2932372 -0.027146494 0.23364699
000020 d9 c0 d7 3d 2b 34 cd 3d be 8d 78 3c a9 97 7f be
       0.1053483 0.10019716 0.015170513 -0.24960198
000030 23 56 ba bd f2 c7 53 bd f4 02 57 be b0 72 6b 3e
       -0.090984605 -0.051704355 -0.2099722 0.22992969
000040 b9 e9 8d be 80 44 2c be f2 2b ac 3e d0 3d 10 be
       -0.2771738 -0.16823006 0.33627278 -0.1408608
000050 46 1d 38 be bb 2e 1c 3d 39 55 a9 bb ef d3 47 3e
       -0.17979917 0.038130503 -0.00516763 0.1951444
000060 bb 1e 92 3e 10 95 a7 3e f4 2e c9 be 2d 43 c0 3a
       0.2853907 0.32730913 -0.39293635 0.0014668457
000070 0d 18 e1 3d d3 e5 6e 3e ec 17 0a 3e f6 8b ab 3e
       0.109909154 0.23329858 0.13485688 0.3350522
000080 16 75 3f be 1b 50 69 be 13 29 5c be ff 9c 8c 3e
       -0.18697008 -0.22784464 -0.21500044 0.2746353
000090 f7 30 99 3d cf 91 20 3d e7 87 91 3e c1 dd 9a bc
       0.074800424 0.039201554 0.28423998 -0.018904569
0000a0 e3 cd 29 3e 65 ad 91 be 8e 82 b4 3e 74 2f 85 3c
       0.16582446 -0.28452602 0.35255855 0.016257979
0000b0 71 27 66 3e 12 fb 96 be 1b 50 1f be 11 af f4 bc
       0.22475983 -0.29488426 -0.15557902 -0.029868634
0000c0 a4 90 e4 3d cd dc c2 be 63 37 6c be 2e 87 65 3e
       0.111604005 -0.38059083 -0.23068003 0.22414848
0000d0 d6 c3 4e be dc 23 2b be a7 29 5c 3e fb 81 73 3e
       -0.20191893 -0.16712898 0.21500264 0.23780052
0000e0 63 e9 87 be 3a 17 78 be 5a 3c 94 be 65 5e 8f be
       -0.26545247 -0.2422761 -0.28952295 -0.28001705
0000f0 4d c0 53 3e 88 3d 6d be b4 c8 d5 3d 6c 15 fb bd
       0.20678826 -0.23168004 0.10438672 -0.12259945
000100 e3 5d 71 bd e2 13 3c bd 7b b1 6f 3e 26 6b 90 bd
       -0.058927428 -0.0459174 0.23407547 -0.07051687
000110 c3 43 03 be 76 54 11 be 23 c6 54 bc a2 9b 1e 3e
       -0.12818818 -0.14192376 -0.012986693 0.15489057
000120 55 c1 61 3d 15 59 79 3d f6 c1 9b be 58 71 17 3e
       0.055116016 0.06087597 -0.30421418 0.14789331
000130 a9 38 3e 3e 64 37 a3 bd 5c b0 8d be 69 45 7e 3e
       0.18576302 -0.07969549 -0.27673614 0.24831165
000140 b2 d9 d5 bd c7 3c 54 3e 0f e9 55 be 80 e8 c0 bd
       -0.10441913 0.2072631 -0.20889686 -0.09419346
000150 0b 97 64 3e e8 39 b4 3d 92 b8 2c 3d bf 76 b6 3d
       0.22323243 0.08800107 0.042168207 0.08909368
000160 e5 20 60 be d2 4e 82 be d9 49 de bd ba 81 03 3c
       -0.21887548 -0.2545076 -0.10853929 0.008026535
000170 cb 87 a2 be 85 57 16 bd b2 bc 85 3e 3b 3c 18 3d
       -0.31744227 -0.03670456 0.26120526 0.037166815
000180 9a a9 9e be d6 92 d3 ba 7f 56 24 3e 98 57 89 3e
       -0.3098877 -0.0016141783 0.1604862 0.2682464
000190 98 67 61 be e2 5e 96 3d 23 c2 a9 bd c2 60 b7 be
       -0.22012174 0.07342316 -0.08288982 -0.35816008
0001a0 67 3d b3 3e d1 e1 6c be 2a 91 96 3d d6 2f 67 3e
       0.35007784 -0.23133017 0.073519066 0.22576842
0001b0 76 92 7c be a3 4e 69 be e2 be 18 bd bd 40 c6 bd
       -0.24665245 -0.22783904 -0.037291415 -0.096803166
0001c0 da 0f 03 3d 7f 81 6f be c5 23 1a be 09 63 56 3e
       0.03199754 -0.23389243 -0.15052707 0.20936216
0001d0 60 1f 41 3e c0 67 0d 3d b2 dd a4 3e 08 fb 42 be
       0.18859625 0.03452277 0.3220039 -0.19041073
0001e0 32 c5 e7 bd fc 42 6a be 46 9f 88 be 04 bf 5c be
       -0.11316909 -0.22877115 -0.26684016 -0.21557242
0001f0 77 9f 8d 3d 58 c3 77 3d 1f c3 bc be 47 60 d0 bd
       0.06915181 0.06048903 -0.36867616 -0.101746134
000200 ca 33 45 3e 5c d8 4e be 99 41 6d bc 41 49 1a 3e
       0.19258037 -0.20199722 -0.014480972 0.15067007
000210 b5 37 30 3e 93 2a ae bc a4 95 16 3e 37 9d 7d be
       0.1720875 -0.021260535 0.14705521 -0.24767004
000220 c6 41 91 be c7 7c 19 be 39 93 36 3e 2f ce 73 3e
       -0.28370494 -0.14989005 0.17829598 0.23809122
000230 78 f7 57 be 67 f0 a0 3a b5 f9 32 3e e5 9b 09 3e
       -0.21090496 0.0012278677 0.17478068 0.13438375
000240 46 af 9d 3b a3 38 ae 3d ff d5 49 3e 94 af d9 3c
       0.004812154 0.08506896 0.1971054 0.02657298
000250 88 df 74 be c6 1a 96 be df f5 96 bd f6 74 2e be
       -0.23913395 -0.29317302 -0.07371115 -0.17036805
000260 f9 72 72 3e 4e e8 28 3d 21 48 b6 bc 4c 58 a5 3d
       0.23676671 0.041237168 -0.02225119 0.08073482
000270 51 fa b3 bd 2f 00 4c be be dd 9a 3d c3 d4 29 3e
       -0.087879784 -0.19921945 0.07561825 0.16585068
000280 1a d8 04 3e 50 60 de 3d 56 07 30 be 0a 00 4c be
       0.12973061 0.10858214 -0.17190298 -0.1992189
000290 39 f4 4d 3e ef 61 6c be 19 42 46 be 0e 8b e8 3d
       0.20112695 -0.23084234 -0.19361152 0.113546476
0002a0 79 03 1f 3e 58 d8 8f be a7 31 ae bc 47 8a 86 3e
       0.15528668 -0.28094745 -0.02126391 0.26277372
0002b0 30 1c 4b 3e ad cf a9 bd c0 91 0d 3d 02 86 b7 3e
       0.19834971 -0.08291564 0.034562826 0.35844427
0002c0 c3 27 18 be fd 92 c4 bd f0 21 32 bd b4 07 cc 3d
       -0.14858918 -0.09598348 -0.043489397 0.09962407
0002d0 d1 e5 7a 3e b3 62 95 3e 3d 4d 1e 3d f8 bc 66 bd
       0.2450173 0.29176864 0.03864788 -0.05633256
0002e0 71 9f 88 be 80 f1 08 3e 67 56 69 3d 9f 37 7b bd
       -0.26684144 0.13373375 0.056967165 -0.06133234
0002f0 cb f3 94 3c 91 12 96 bd 3c af 54 be 40 ec 56 bd
       0.018182656 -0.0732776 -0.20769972 -0.0524714
000300 94 84 b4 3e 11 c3 ab be 45 0e c0 3d 15 8d 90 be
       0.352574 -0.3354726 0.09377722 -0.28232637
000310 2f fb c4 3e b3 a5 8e be 49 0e b4 be f3 fa 0b bc
       0.38472888 -0.27860793 -0.3516715 -0.008543718
000320 a6 1a 65 be 80 cb 91 3e 6c ac 94 bd 66 6a 97 bb
       -0.22373447 0.2847557 -0.07259449 -0.004620838
000330 09 3f fb bc 44 7a 89 3e ca c0 bb 3e ce 49 fb 3d
       -0.030669706 0.26851094 0.36670524 0.122699365
000340 45 c8 86 3e ea 65 70 be 4e 78 7e 3e f5 ee 8b 3e
       0.2632467 -0.23476377 0.2485058 0.27330747
000350 e8 39 88 be 1c b6 16 3e 83 06 98 3e 56 73 30 be
       -0.2660668 0.14717907 0.29692468 -0.17231497
000360 b6 06 5f be 19 13 6e be 15 76 8c 3e 53 bb b8 bd
       -0.21779904 -0.23249473 0.2743384 -0.09020104
000370 9e d5 f8 3d 6a 3b ac 3e d4 5c 03 be 43 32 91 3e
       0.12150119 0.3363908 -0.1282838 0.2835866
000380 91 85 e6 bd fa b6 b0 bd 57 9e 85 be 4e 9e 0a 3e
       -0.112559445 -0.0862865 -0.26097366 0.13536951
000390 59 06 95 be 51 04 f9 3c 7c 69 6c be a7 6b 64 bd
       -0.29106405 0.030397566 -0.23087114 -0.055766728
0003a0 59 ac 59 3d 57 cc 9f 3d e1 ae 78 bd dd 8d c4 be
       0.05314288 0.078026466 -0.060713653 -0.38389483
0003b0 10 0b 7b bd 76 59 2b 3e c7 73 88 be dc 28 43 3d
       -0.061289847 0.16733345 -0.2665083 0.04764639
0003c0 d1 f7 f6 bd 00 a6 7a 3d 79 a0 fb 3d 97 75 03 be
       -0.12058986 0.061193466 0.12286467 -0.12837826
0003d0 8c 99 95 be 99 44 05 bd d8 14 85 3e 86 62 42 3e
       -0.2921871 -0.032536123 0.25992465 0.18982896
0003e0 5a 8c a7 3d a8 51 3b be ee d9 0c be 4e 6c f3 3c
       0.08181067 -0.18292868 -0.13755009 0.02971473
0003f0 3d 5c 98 3e 98 2d 9b 3e 0c fd 51 be f7 b7 20 be
       0.29757872 0.30308223 -0.20506686 -0.15695177

sage.layer1.fc_self.bias f4 [64]
000000 a4 18 09 3e ee 1c 8d 3d f9 7f 37 3d 9a 01 6f 3d
       0.13388306 0.068902835 0.04479978 0.058351137
000010 30 43 e2 3d dd 7c d6 3d a2 14 62 bd 50 e6 b3 bd
       0.11047971 0.104730345 -0.05519546 -0.08784163
000020 1d ad 07 3e f7 a7 03 3e c7 69 b7 bd 58 4c 93 bd
       0.13249631 0.12857042 -0.08955722 -0.07192296
000030 ba fc 8a bd d3 eb e3 bd 4f e6 a2 bd 01 70 11 bd
       -0.06786485 -0.11128964 -0.07954084 -0.035507206
000040 96 33 cc 3c d7 1c 20 bd 5c 44 d7 3b a4 7a e6 3c
       0.024926942 -0.039090004 0.0065694284 0.028134651
000050 96 ad 0d be c6 4b b0 bd 62 70 87 bd 98 0a e3 3d
       -0.13835749 -0.08608203 -0.06613232 0.11086005
000060 a8 01 a3 bd 10 53 f9 bd 10 e6 09 3d b9 8a de 3d
       -0.079593 -0.12174046 0.03366667 0.10866303
000070 60 49 a5 bc 63 9e 1d 3d 65 0b 44 3d 1a b4 71 bc
       -0.02017659 0.038481127 0.04786243 -0.014752412
000080 2d 4c d0 3d 73 45 da 3d 6a 03 71 bd d3 2c 1d 3a
       0.101707794 0.10657778 -0.058841147 0.0005995754
000090 70 c7 00 3e 7e dc fe bd 7a 30 8f 3d 15 c3 00 be
       0.1257608 -0.12444399 0.06991668 -0.12574418
0000a0 46 ab c2 bd 3d 2d 08 be 25 ac 05 3e 37 28 16 3e
       -0.09505324 -0.13298507 0.13053949 0.14663778
0000b0 c3 1e d4 bd 40 d4 92 3d 81 8c 57 3d 02 63 00 3e
       -0.1035743 0.0716939 0.05262423 0.12537768
0000c0 f2 6b a3 bd 53 31 01 3e 16 d3 5d 3b 67 8e c5 bd
       -0.07979573 0.12616472 0.003384774 -0.09646302
0000d0 7d c5 fe 3d f6 ad 07 bd d8 ec 9b bd a4 c4 75 3d
       0.12440012 -0.033124886 -0.07613534 0.060001984
0000e0 92 89 31 bd ff cb ca 3d 27 05 b1 bc 4d ba 01 3d
       -0.043344088 0.099021904 -0.021608902 0.03167181
0000f0 b9 0e 00 be 6c 71 ea bd e5 4e ef bd f1 cd 21 bd
       -0.12505616 -0.11447415 -0.1168497 -0.03950304

sage.layer2.fc_pool.weight f4 [64, 64]
000000 78 86 4b bc 57 07 d6 3c ce c8 37 be 4d 42 45 be
       -0.012422197 0.026126547 -0.17947695 -0.19263573
000010 ec cd 42 3e c4 d8 93 3e f4 2a 72 be 7f eb 77 be
       0.19023865 0.28876317 -0.23649198 -0.24210928
000020 c3 69 4e 3e 60 a2 89 bd 08 a8 2e be 40 26 59 be
       0.20157532 -0.06720424 -0.17056286 -0.21205997
000030 66 f7 7f 3e bd 06 81 3e 10 f2 a2 3c 45 af 94 3e
       0.24996719 0.25200453 0.019890815 0.2903997
000040 25 60 35 be be 21 09 bd f2 ca 9d 3c db 09 0a 3e
       -0.17712457 -0.033479445 0.01926181 0.13480322
000050 7d 8f dc bd 01 0d f3 bd 1d e3 06 bd b9 c8 91 3e
       -0.10769556 -0.11867715 -0.032931436 0.28473452
000060 3c e4 9c 3c 04 c7 69 bd db d1 8d be 13 3b 8a be
       0.0191518 -0.05707456 -0.2769917 -0.26998195
000070 d7 82 62 3e 21 18 7f 3e 7e c8 90 bd 66 56 3c 3c
       0.22120224 0.24911548 -0.07069491 0.011495208
000080 6d 71 0d be 5a db 64 3d 2a 69 e7 3d c2 11 3e 3e
       -0.138128 0.055873252 0.11299355 0.18561462
000090 b2 52 92 3e 9c 5d e7 3d f0 39 0a be 41 c3 1a 3e
       0.28578717 0.112971514 -0.13498664 0.15113546
0000a0 8b 47 29 3e 6d 0e 51 3e 66 ec 41 be 74 27 8f be
       0.16531198 0.20415659 -0.18937835 -0.27959788
0000b0 bb b6 20 3d 10 e5 74 3e 54 1f 3c 3e a2 96 fb bd
       0.039236765 0.23915505 0.18371326 -0.1228459
0000c0 7a 0e 71 be 5b f2 4a be 13 b7 0c 3d 8c 2b 7e be
       -0.23540679 -0.19819014 0.03435428 -0.248213
0000d0 42 22 7f 3e d9 af 89 be 13 f4 4d 3d 28 58 97 3d
       0.24915412 -0.26891974 0.050281595 0.07389861
0000e0 28 a8 8d 3e fa f1 94 3e ce a8 ff bd c4 51 1a be
       0.27667356 0.29090863 -0.12483369 -0.15070254
0000f0 1a bd db 3d 35 b7 69 3e 77 72 27 be c7 fb 5e be
       0.10729428 0.22823794 -0.16352259 -0.21775733
000100 d3 5c 34 be d6 ab 1e 3e e7 8b 20 be c5 ec 6a 3e
       -0.17613535 0.15495238 -0.15678369 0.22941883
000110 a9 95 c2 3d c7 10 3d be bf f2 29 3e 86 a0 95 be
       0.09501202 -0.18463431 0.16596507 -0.29224032
000120 07 c7 9c 3e bc 00 b2 3e b0 3e e9 3d 9b e7 87 3d
       0.30620596 0.34766185 0.1138891 0.06635972
000130 54 b4 ba 3c f2 e8 1a be f2 b0 dc bd db fc e8 3d
       0.022791065 -0.15127924 -0.10775937 0.11376353
000140 6f f9 25 3e fc 0a 36 3d 5a d0 cc 3c 53 64 14 3d
       0.16208433 0.04444407 0.025001694 0.03622849
000150 b9 66 11 3e 37 57 61 be 58 91 5a 3d 2f 83 88 be
       0.14199342 -0.22005926 0.053361267 -0.26662585
000160 79 7a a5 be 3d fd 65 3d 5c ef 9c bc b2 ec c6 3d
       -0.32320002 0.05614971 -0.019157104 0.09713115
000170 73 53 22 be c3 4a 99 3e ae 37 ad 3d 84 97 95 3d
       -0.15852146 0.2993985 0.08457886 0.0730429
000180 b4 f5 1f be c3 09 30 3e f3 49 5e 3e 91 b1 86 bd
       -0.15621072 0.17191224 0.21707897 -0.06576837
000190 b8 3b 3b bd 80 db d3 bd 6d ef 67 bd 50 fd 2a be
       -0.04571125 -0.10344601 -0.05662482 -0.16698194
0001a0 dd 75 69 be 05 44 53 be f5 3d e3 3d a2 08 76 3e
       -0.22798868 -0.20631416 0.11095802 0.2402673
0001b0 31 aa 0a 3e 3e ec fd 3b ab 4b 7e bd b7 25 55 be
       0.13541485 0.0077491095 -0.06208388 -0.20815168
0001c0 29 a7 32 38 53 04 e2 3d cb da bf bd 4b 63 4a be
       4.2594187e-05 0.11035981 -0.09367903 -0.1976444
0001d0 a2 35 59 be fe 76 39 be 90 62 02 be 77 8d 7a bd
       -0.21211866 -0.18111798 -0.12732911 -0.061170068
0001e0 35 a1 97 3e ea ed 75 be 4e 1e 6b 3e bc c7 8f be
       0.2961518 -0.24016538 0.22960779 -0.28082073
0001f0 cd 5d a2 bd de ca 9a 3e 16 a0 99 3d 13 d6 3d 3d
       -0.07928047 0.302329 0.07501237 0.046346735
000200 04 13 5a be 39 73 45 be f7 b0 55 bd 42 59 5d 3b
       -0.21296316 -0.19282235 -0.05217072 0.0033775126
000210 54 ab 79 3e 28 59 16 3e 07 bf b1 3d 3d 73 3e bd
       0.24381763 0.14682448 0.08679014 -0.04649662
000220 12 dd 82 3e fd 35 3a be 9b d9 6b 3d 7e d8 88 bd
       0.25559288 -0.18184657 0.05758057 -0.066819176
000230 83 c2 d9 bc 29 1b 0e 3d c2 7c d9 3c 3d 3c 92 be
       -0.026582008 0.03469387 0.026548747 -0.28561583
000240 02 02 73 be af 63 7f be 74 1d 7f 3d 4d e1 b7 bd
       -0.23731235 -0.2494037 0.062283948 -0.089785196
000250 92 a4 14 3e 02 80 8b be 85 72 54 3e e7 16 9a bd
       0.14515904 -0.272461 0.2074681 -0.075238995
000260 ef 33 94 be 7f 71 45 be aa f7 f2 bd af d2 d1 bd
       -0.28945872 -0.19281577 -0.118636444 -0.10245263
000270 86 f1 ba bd fe bf 4d 3d cc 39 cb 3d 68 64 d2 bd
       -0.09128098 0.050231926 0.09923133 -0.10273057
000280 38 12 82 3c 6d 90 77 be 6e b4 28 3a 3d bc 47 3d
       0.015877828 -0.24176188 0.00064355775 0.048763502
000290 8f 07 76 bd 2b 2e ae bd 9c c3 0d bd a4 54 47 be
       -0.060065802 -0.085048996 -0.034610376 -0.19465882
0002a0 ff 0e 8c 3e 77 8a 95 3c 6e 95 16 3d b2 57 09 be
       0.2735519 0.018254502 0.0367636 -0.1341236
0002b0 25 93 1e be 43 69 0e 3e d5 20 3b be df d6 0f be
       -0.15485819 0.13907342 -0.18274243 -0.1404681
0002c0 42 fb bc 3d 10 f6 69 3e fe 94 2e 3e 34 1f df bd
       0.09227611 0.22847772 0.17049024 -0.108946234
0002d0 a6 75 52 be 3f 4f 2e 3e 5d e4 52 3e 5a 62 a4 3c
       -0.20552692 0.17022417 0.20594926 0.020066429
0002e0 3f 5d 2d be ea aa 85 be 8c a9 32 be d4 b1 8b bd
       -0.16930102 -0.2610696 -0.1744749 -0.068210274
0002f0 a3 1c ed b9 8c f0 6c bb 68 ef b2 3d 6c 8b 21 3e
       -0.000452255 -0.003615412 0.08737069 0.15775841
000300 45 f9 33 3e 3d d0 f4 3d 2d 37 ba bd cc d7 47 3e
       0.17575558 0.11953781 -0.09092555 0.19515914
000310 02 8d 28 be 2c c9 3c 3d ef f3 bd 3d 5b d3 38 3e
       -0.1646004 0.04609029 0.09275042 0.18049376
000320 ba 30 96 bd 57 c4 81 be ec 08 92 be 2e ee 68 be
       -0.073335126 -0.25345108 -0.28522432 -0.22747108
000330 2d a3 af 3c 75 16 a1 3e a9 7c 49 be 7c 67 d0 3d
       0.021440113 0.31462446 -0.1967646 0.10175988
000340 af 6d fb bd 8d f8 d2 bd a7 89 04 3c d2 d2 5c 3e
       -0.1227678 -0.103013135 0.0080894595 0.21564797
000350 25 45 09 3e 6d b1 7b 3e 9c 5b 1a 3e 18 98 69 3e
       0.13405283 0.24579401 0.15074009 0.22811925
000360 36 5a 89 3d 0c 5b 1c 3e 47 d5 17 bc b6 1a 4d 3e
       0.067066595 0.15269107 -0.009267158 0.2002972
000370 3e f7 0d 3e 00 6f 9f 3e de 59 5a 3e 0e 3d 46 3c
       0.13863847 0.31139374 0.21323344 0.0120995175
000380 ec 3d 46 3e 6f b6 9c bd cd ce 82 bd 9c c5 64 3e
       0.19359559 -0.07651984 -0.063871 0.22341007
000390 39 1c 48 bd b9 2d 4c be cf a7 1b 3e eb b8 8a be
       -0.04885504 -0.19939317 0.15200733 -0.27094206
0003a0 74 19 02 be fd 35 65 3e bf a1 14 be 37 57 b5 3e
       -0.12705022 0.22383876 -0.14514826 0.35418102
0003b0 ff d4 3c be 9a ea 7b be dc 45 b5 3c 2d 62 ea bd
       -0.18440627 -0.24601212 0.022128038 -0.11444507
0003c0 e8 38 69 bd af b5 06 3d 51 cd 04 3e 1e 3b 8c 3e
       -0.056939036 0.03288811 0.12968947 0.27388853
0003d0 e6 a9 47 be bd be d8 3d 92 90 f5 3d 97 7f 92 be
       -0.19498405 0.105832554 0.11990465 -0.28612968
0003e0 1b c4 5b 3e 9c 44 9b 3c 5e d5 71 be 1f 34 e4 3d
       0.21461527 0.018953614 -0.2361655 0.11142754
0003f0 84 0d 4c 3d 8c 7e be bd fc 28 8c 3e 72 ca 90 3e
       0.049817577 -0.09301481 0.2737502 0.28279454

sage.layer2.fc_pool.bias f4 [64]
000000 57 12 83 bd 75 4b 4b 3a a7 e9 00 3e 41 8d c1 3c
       -0.063999824 0.00077550794 0.12589131 0.023626925
000010 95 71 33 bd 32 07 fb bd f2 58 2e 3d 6e 09 28 3e
       -0.043809492 -0.12257232 0.042565294 0.16409847
000020 c8 04 6a bd f1 55 da 3d 06 1c a6 3d 60 60 ce 3d
       -0.057133466 0.10660923 0.08110814 0.10076976
000030 ea 68 05 be 43 bf fb 3d 1c cb 20 3b ec 0f 81 bd
       -0.13028303 0.1229234 0.0024535125 -0.06301865
000040 7a 6f 98 bb ea 92 70 bd 63 5b 19 bb be 81 24 3e
       -0.004651961 -0.05873386 -0.0023400418 0.16065118
000050 30 ce 51 3d ca d1 89 bd 52 8e 85 3d ad d9 a2 3c
       0.051222026 -0.06729467 0.06521286 0.019879187
000060 62 bb f5 bd f6 b5 0b 3d e5 9a 37 3c 0d 96 52 3d
       -0.11998631 0.03410908 0.011206363 0.05141263
000070 9c a1 3b bd 70 7b aa 3d 00 2f d1 3c 0b 73 cc bc
       -0.04580842 0.08324325 0.025535107 -0.0249572
000080 1a 91 18 3d 33 70 62 3c d7 21 2a 3e 7d ce f5 bd
       0.037247755 0.013820696 0.16614471 -0.12002275
000090 3e 2d 7b 3d ea 9e 9e 3d d0 2d f0 3d 6b 49 12 3d
       0.061322443 0.07745154 0.11727488 0.035714548
0000a0 10 01 d1 3d 0c c2 88 3d a7 4f 98 bd 85 07 e9 3d
       0.10205281 0.066776365 -0.074370675 0.11378387
0000b0 1a 89 d5 bd ae 82 5d bc 22 c6 84 bc 07 f0 13 3d
       -0.10426541 -0.013519926 -0.016207758 0.03611758
0000c0 8a 13 e6 3d e8 bc d2 3c 52 37 22 3d 72 c8 2c 3e
       0.112341955 0.025724843 0.03960354 0.16873339
0000d0 46 7b d1 3d 1e 6d fb 3d cc 8b b6 3d 57 e8 d6 3d
       0.10228591 0.12276672 0.08913383 0.10493534
0000e0 67 e5 02 3e e6 d4 0b bd d3 93 e1 bd 95 3d 04 3d
       0.12782823 -0.034138583 -0.11014523 0.03228529
0000f0 ae a4 90 3d 51 14 8e bd fc fd 4d bd 5b ae 28 3e
       0.0706266 -0.06937469 -0.050291047 0.16472761

sage.layer2.fc_neigh.weight f4 [128, 64]
000000 eb d7 00 3d ea 30 4d be 41 eb 1b 3d 5e db ca bd
       0.031455915 -0.2003819 0.038066152 -0.09905122
000010 72 55 51 be c8 db 07 3e b2 8b ea 3d 39 bd 36 be
       -0.20442751 0.13267434 0.11452426 -0.1784562
000020 66 5e d9 bd cc fc 32 3e a8 36 2b 3d d0 12 67 3d
       -0.10613708 0.17479247 0.04180017 0.056414425
000030 7d 92 84 3e cc 5a 8d 3d d5 df 21 3e 90 89 27 3e
       0.25893012 0.06902084 0.15808041 0.1636107
000040 5e 2f 1c 3e 2c d8 8e 3d 25 88 25 be e1 25 34 3e
       0.15252444 0.06974825 -0.16165216 0.17592575
000050 07 55 6c 3c 89 9a 7f 3d 5b 4d b6 bc b3 09 97 bd
       0.014424569 0.062403236 -0.022253683 -0.07374897
000060 1f 88 00 3c a3 7e 50 3e c4 18 a3 3d 18 38 20 be
       0.007844954 0.20360808 0.07963708 -0.15646398
000070 a5 ce 56 3c a9 5b be bd ee 4b d0 3d 59 58 2a be
       0.013110791 -0.092948265 0.101707324 -0.16635264
000080 f5 4b 08 be 09 83 34 be b9 23 0d be 2b 2d 3f be
       -0.13310225 -0.17628111 -0.13783158 -0.18669574
000090 c3 40 23 be 26 86 65 3e 6e be 52 bd 43 e6 76 bb
       -0.15942673 0.22414455 -0.05145114 -0.0037673868
0000a0 ec 39 e6 bd 01 91 c4 bc 46 f0 e0 3d 96 f0 14 3d
       -0.112415165 -0.023994925 0.109833285 0.036362253
0000b0 f3 61 01 be 96 b5 eb bd a5 59 0f bd 4f 5d 64 be
       -0.12635021 -0.11509244 -0.0349976 -0.2230122
0000c0 8d bf 5f 3e 21 60 55 be 1f bc a7 bd 84 ff 06 3d
       0.21850415 -0.20837452 -0.08190178 0.032958522
0000d0 9f 9e 1d 3e 45 78 24 3d 04 71 18 3e d9 60 3a 3e
       0.1539254 0.04015376 0.14886862 0.18201007
0000e0 35 e6 62 be 53 74 87 3d 40 fc b5 bd 35 73 c4 3c
       -0.2215813 0.06613984 -0.088860035 0.023980716
0000f0 8e 3a d2 bd 64 21 34 3e 45 7e dc bb f6 e1 7e 3e
       -0.10265075 0.17590863 -0.0067289197 0.24890885
000100 e9 4a 88 3e ae 00 85 3e 6a 9c 93 bd 62 0b 55 3e
       0.26619652 0.2597708 -0.07207568 0.20805123
000110 33 7c e1 3d 5c ff 57 3e e2 f1 9f 3d b2 35 59 3e
       0.11010017 0.21093506 0.07809807 0.2121189
000120 72 d9 e8 bd 59 b7 87 3d 9c cc c6 3c 38 41 d5 bd
       -0.113695994 0.06626768 0.024267487 -0.1041283
000130 28 34 28 bd cf c7 84 3e b6 a4 52 be cd b0 e4 bd
       -0.041065365 0.25933692 -0.20570645 -0.111665346
000140 29 98 43 be 7b ca d3 3d 0a a8 6d be 24 db 92 3e
       -0.19101013 0.103413545 -0.23208633 0.28682816
000150 65 af a1 bd 14 8d 17 3d bd 25 81 3d 21 9f 22 3d
       -0.07894782 0.036999777 0.06306026 0.03970254
000160 29 97 2d 3e fc 20 1f be 64 b9 0d 3e e4 88 11 3e
       0.16952194 -0.15539926 0.13840252 0.14212376
000170 ec 65 3c 3e a4 a0 7b 3d 9d fd 4b be 30 2e 43 be
       0.18398255 0.061432496 -0.19920965 -0.19060588
000180 46 9c 58 3e 3f 8c 20 bd da 47 28 3d a8 92 3b be
       0.21153364 -0.03919625 0.041084148 -0.18317664
000190 2b 60 22 be 18 57 df 3d bf a2 3c be 6a 2f a6 3d
       -0.15856998 0.10905284 -0.18421458 0.08114512
0001a0 06 0a e3 3c 88 28 1e 3e 2d a1 06 3a 7b 07 48 3d
       0.02771474 0.15445149 0.00051357114 0.04883526
0001b0 58 a4 07 be 83 b2 dd 3d b5 c7 3b 3e a5 3e 21 be
       -0.13246286 0.10825064 0.18337901 -0.15746553
0001c0 9b 90 94 3d 60 4b 2a 3e 74 7a 6c 3e d5 51 0f be
       0.07254144 0.16630316 0.23093587 -0.1399606
0001d0 21 0d 9b 3d d5 4f 68 be 5a 43 8f 3d e8 d5 0d 3d
       0.075708635 -0.22686704 0.06995268 0.034627825
0001e0 ca cf 7f 3e 63 75 8e 3d d8 64 03 be aa 1d 18 be
       0.24981609 0.069559835 -0.12831438 -0.14855066
0001f0 6c 2f 2b be 55 55 df 3d d4 6e 82 bd c5 74 5b 3e
       -0.16717309 0.10904948 -0.06368795 0.21431263
000200 42 5e ca bd 71 f1 69 3d 1e 50 b8 bd 2e e8 e8 3b
       -0.098812595 0.057115022 -0.08999656 0.007107756
000210 75 11 89 3e 1b cd 69 3e 00 3d 35 bd d1 fa 5d be
       0.2677113 0.22832148 -0.044247627 -0.2167771
000220 54 6f 10 be e3 f3 4c bc 94 2f 50 bd 25 0b 0a be
       -0.14104968 -0.012509319 -0.050826624 -0.13480814
000230 75 2a 82 3d 7f 7e 71 bd c0 c9 5a 3e 32 4f 44 be
       0.06355754 -0.058958527 0.21366024 -0.19170836
000240 ac d9 43 3e ab 3e 8c be f8 04 74 be e5 bb eb bd
       0.19126004 -0.27391562 -0.2383002 -0.115104474
000250 8f 74 2d 3e bf 5c 9a 3d d8 98 0c be 2f ab 4c be
       0.16938995 0.07537221 -0.1373018 -0.19987176
000260 14 ce 99 3d 28 d3 82 3d c8 33 64 be de 1e 32 3e
       0.075100094 0.06387931 -0.22285378 0.17394587
000270 40 58 33 be 2f 40 2f 3e 2c 37 83 be 32 c1 58 be
       -0.17514133 0.17114328 -0.2562803 -0.21167448
000280 77 f2 be 3d 45 f0 66 be 4d fd 1d be 42 c7 8e 3d
       0.0932359 -0.22552593 -0.15428658 0.06971599
000290 e9 6b 4f be 14 0b 00 bc 7c 85 03 3d c7 95 13 be
       -0.20256008 -0.007815141 0.032109722 -0.14412604
0002a0 f4 c5 04 3e 15 aa 05 be d1 f7 a7 3d ad 6d 05 be
       0.12966138 -0.13053162 0.08201564 -0.13030119
0002b0 b7 8a 7d be aa b6 72 be 00 52 00 be 43 3d 53 3e
       -0.24759947 -0.23702493 -0.1253128 0.20628838
0002c0 0e f9 ce 3d 36 a3 71 3c c2 91 95 bd e0 b6 88 be
       0.10106097 0.014748385 -0.07303192 -0.26702023
0002d0 b7 55 61 3d 85 32 1c be c3 b8 ad 3d 56 9a 15 be
       0.055013385 -0.15253647 0.08482506 -0.14609656
0002e0 b5 af 1a bd 73 8c 84 bc 39 80 2e 3e 01 90 9e bd
       -0.037765224 -0.016180253 0.170411 -0.0774231
0002f0 12 ac 0b 3e 1c ef c6 3b 60 58 36 3e d0 79 75 3d
       0.13639858 0.0060709845 0.1780715 0.059930623
000300 d6 47 08 be 22 c9 a5 bc fa 51 26 3e 8b 13 82 be
       -0.13308653 -0.02023751 0.16242209 -0.25405535
000310 c3 db 8f bd ef 1d 0c bb 28 d4 0e bc 8d 54 07 be
       -0.07024338 -0.0021380146 -0.008717574 -0.13215847
000320 84 71 fc 3d 22 b4 22 bc 20 90 66 be db 97 f9 3d
       0.12326339 -0.009930642 -0.22515917 0.12187167
000330 f5 11 e4 bd fe 9c b5 bd d0 69 9e bd c1 38 5a 3d
       -0.111362375 -0.088678345 -0.07735026 0.05327678
000340 83 94 98 bb b9 d6 04 be 3c 24 36 be 19 d6 32 bd
       -0.004656376 -0.12972535 -0.1778726 -0.04366121
000350 3e 6d 51 be 9f 91 6d 3e 49 64 dc 3d 66 f0 ba bd
       -0.20451829 0.23200081 0.107613154 -0.091278836
000360 e2 92 60 bd f4 bf 1a be c0 d5 6e 3d b4 88 8e be
       -0.05482758 -0.15112287 0.058309317 -0.2783867
000370 ff c9 28 3e 77 d8 2e be ba ba 12 3d 7d 7b 4c be
       0.16483305 -0.17074762 0.035822608 -0.19968982
000380 97 9b 1c be f2 3b 30 3d 6d e4 42 3e 81 66 26 3c
       -0.15293728 0.04302592 0.1903245 0.010156275
000390 54 93 70 3d b0 da 87 be 98 3c ba 3d ba 2a 74 3d
       0.058734253 -0.26534033 0.090935886 0.05961106
0003a0 b2 c3 3f be af 89 97 3d 0e f9 51 3e 14 bd 35 3d
       -0.18726996 0.07399308 0.20505163 0.044369772
0003b0 8b 5c 0e 3e f7 ad 4f bd b7 ff 43 be f3 57 84 be
       0.1390249 -0.050703015 -0.19140516 -0.2584835
0003c0 68 bc 9d 3d 15 0c b4 3d 87 70 6e be 4c 8b 2a be
       0.07701951 0.08791367 -0.23285113 -0.166547
0003d0 c6 90 32 3e 11 ab 49 3e 52 15 19 3e 61 40 50 be
       0.17438039 0.19694163 0.1494954 -0.20337059
0003e0 e1 9b 76 be 53 aa 06 be 7e 42 60 be 46 d3 52 be
       -0.240829 -0.13150911 -0.21900365 -0.20588407
0003f0 7a 02 90 bd 18 94 ee 3c 5e fc 24 3e 85 a7 dc bb
       -0.07031722 0.029123351 0.16111895 -0.006733837

sage.layer2.fc_self.weight f4 [128, 64]
000000 17 59 7a 3c 4e 96 a4 3c f4 14 68 3e 60 47 2c 3e
       0.01528003 0.020091202 0.22664243 0.16824102
000010 d4 e3 ac 3d 34 5a f1 bd 54 ad 36 3e 58 c6 4b 3e
       0.08441892 -0.11784783 0.17839557 0.19899881
000020 ad 29 27 be 67 78 df bd 80 aa cd 3d fc 1a 21 3e
       -0.16324492 -0.10911637 0.10042286 0.1573295
000030 33 09 99 bd bd c2 4a 3e d5 08 cc bd 40 65 96 3a
       -0.07472458 0.1980085 -0.09962622 0.0011474267
000040 79 d8 03 3d a0 f9 24 3e 75 1b 65 be 38 ab af bd
       0.032188866 0.1611085 -0.22373755 -0.08577579
000050 29 c4 8b 3c 85 04 35 3e 30 93 16 bd c9 9a 6b 3d
       0.01706131 0.17677505 -0.036761463 0.05752066
000060 d9 bc 1e 3c da d7 06 3e 7a 6f 4d 3e 6c a4 a1 3d
       0.0096885795 0.13168278 0.20062056 0.07892689
000070 2c 0b 3e 3e 0c c0 5d bc 54 bc 2d be 96 de 00 be
       0.18558949 -0.013534557 -0.16966373 -0.1258491
000080 2a 66 a9 bb 1e 46 51 3d 0d 34 48 3e 58 e0 c4 3d
       -0.0051696496 0.05109226 0.19551106 0.09613103
000090 4f 5b 67 bd 60 ee f4 bd 3c bb 24 3e f8 56 08 be
       -0.056483563 -0.11959529 0.16087049 -0.13314426
0000a0 dd 5e 12 3e d3 9f 59 be 48 16 93 be 9c 58 95 3c
       0.14294 -0.21252374 -0.28727937 0.018230729
0000b0 01 31 2b 3e c2 d1 33 be f4 b7 08 be 66 73 85 3d
       0.16717912 -0.17560485 -0.13351423 0.06516151
0000c0 84 ac 20 3e 4e dc 7a 3d 32 a5 57 3d 58 aa 69 be
       0.1569081 0.061245255 0.052647777 -0.22818887
0000d0 7f 07 0e 3e 14 4a 93 3d ae 05 46 3e 98 21 0d bd
       0.13870047 0.07191864 0.19338104 -0.034455866
0000e0 0c 82 58 3e a2 36 67 be b8 fe 9d 3d f7 4b 63 3e
       0.21143359 -0.22579435 0.07714599 0.22196947
0000f0 e0 03 2a be e0 84 c0 3d 53 ca c8 3d 51 9f 6e 3e
       -0.1660304 0.09400344 0.09804215 0.23302962
000100 60 b8 ed 3c 0f 42 7b 3e eb 57 60 bd 2b 0a b9 3d
       0.02901858 0.24536918 -0.054771345 0.090351425
000110 1f 61 67 3b 76 69 5f 3e 1e 3e c2 3d f8 d9 74 3e
       0.0035305691 0.21817574 0.09484504 0.23911273
000120 85 0e ce 3d 5c b6 76 bd c8 90 2d be 1d a7 eb bd
       0.10061363 -0.060232505 -0.16949761 -0.11506484
000130 15 b1 ff bd 9e 39 5a be f6 1f 49 be 00 90 09 bb
       -0.124849476 -0.21311042 -0.19641098 -0.0020990372
000140 8e aa 35 3e de 1d 88 be af 2e 06 3e c5 67 8f bc
       0.17740843 -0.26585287 0.13103746 -0.017505536
000150 05 c3 06 3e 7f 4a 48 bd 5c 92 93 bd bd 23 8f 3d
       0.13160332 -0.04889917 -0.0720565 0.069892384
000160 52 40 2d be 80 4b 68 bc 44 01 81 bc 45 2a 3a 3d
       -0.16919068 -0.014178157 -0.015747674 0.045450468
000170 13 28 5b 3d 9a 3a 1e be 12 6b 4c 3e 20 15 67 bd
       0.053505015 -0.15452042 0.19962719 -0.05641663
000180 5b 24 2e be fa 4c ed ba e4 29 d8 3d 08 c1 ec 3d
       -0.17006056 -0.0018104606 0.10554865 0.11560255
000190 78 30 86 bd 20 51 46 3d 59 64 90 3d 56 c8 6c 3e
       -0.065522134 0.04841721 0.0705039 0.23123297
0001a0 f0 18 88 bc 6a bf 96 3d 20 00 36 3e 46 cc 11 3e
       -0.016613454 0.07360728 0.17773485 0.1423808
0001b0 ed 6a 08 bd 26 ea 7c 3d ee 0d 0f 3e a1 b3 54 3d
       -0.033305097 0.06174674 0.13970158 0.05192912
0001c0 da ed 4d 3e eb ec 6b 3e a0 78 63 be b4 fb 98 3d
       0.20110264 0.23039596 -0.22213984 0.074698836
0001d0 91 95 6a 3e de 5d 6b be d6 69 34 3e 7a 99 37 be
       0.22908618 -0.22985026 0.17618498 -0.1792964
0001e0 2c f7 35 be 7c 66 aa bd 78 2a 1e be f8 94 e8 3b
       -0.1777007 -0.083203286 -0.15445888 0.0070978366
0001f0 49 cd ce bd 26 34 0f bd 5d 91 17 be 4e e9 d9 3c
       -0.10097749 -0.034961842 -0.14801545 0.026600506
000200 60 59 2e be cb fb 44 3e 3b 79 1e be da 78 2f 3e
       -0.17026281 0.19236676 -0.15475933 0.17135945
000210 db 4d 8a bc 02 5a 5f be 91 c2 48 3c 2c 10 ca 3d
       -0.016882828 -0.21811679 0.0122534195 0.09866366
000220 6c 21 2c be a3 89 4a 3e bc e4 08 be 1d 46 49 3e
       -0.16809624 0.19779067 -0.13368505 0.19655652
000230 81 42 49 be bd 41 1c bd 47 b3 ab 3d 80 8f f9 3d
       -0.19654275 -0.03814863 0.08383804 0.121855736
000240 47 a8 f1 3d 24 2d 36 be b0 76 9c 3c 16 5a 76 be
       0.117996745 -0.17790657 0.019099563 -0.24057803
000250 ec 77 45 3e ec c7 1e bd c0 59 e6 3d 30 b8 c4 bd
       0.19284028 -0.03876488 0.11247587 -0.096054435
000260 17 dd 03 3e 3e ee 27 be 97 42 98 3a 44 4b 29 3e
       0.12877308 -0.16399476 0.0011616525 0.16532618
000270 5d 65 8f 3d 01 85 e8 3c 12 78 37 be e0 30 e1 bc
       0.070017554 0.028383734 -0.17916897 -0.027489126
000280 29 9d 92 bc da 4f 81 3c 4e 64 df bd d9 00 1e be
       -0.017897205 0.015785147 -0.109078035 -0.15430011
000290 c2 71 e0 3d 98 da b5 bd 5a 03 6b bc 00 a2 87 39
       0.109591976 -0.08879584 -0.014344061 0.00025869906
0002a0 fb 3d 9b be 60 9e 4f be 74 1e 32 be 24 73 fc bc
       -0.30320725 -0.20275259 -0.1739443 -0.030816622
0002b0 cf 65 dd bb b1 75 d5 bc 18 ba 8d 3d c4 95 69 3d
       -0.0067565213 -0.026057096 0.0692026 0.057027593
0002c0 4e 7a 46 be ba 28 41 3e 1b 33 46 3e 40 76 5c 3e
       -0.19382593 0.18863192 0.19355433 0.21529484
0002d0 04 9d 9c 3d 7f b2 63 be 55 58 03 3d 25 50 70 be
       0.07647136 -0.2223606 0.032066662 -0.23468073
0002e0 2c 12 26 be f4 63 56 be 1e be 2d be ff a5 b5 3d
       -0.1621787 -0.20936567 -0.16967055 0.08869552
0002f0 e0 a0 2c 3c 40 a1 8f bc d0 0e 2b be 81 21 f1 3d
       0.010536402 -0.017532945 -0.1670487 0.117739685
000300 72 f7 80 be d9 3c 1f 3e 2d 84 bd bd fe 9c 84 be
       -0.25188786 0.15550555 -0.09253726 -0.25901026
000310 55 0c a3 bb f1 92 40 3e a0 e7 00 3e 3c 5f 91 bd
       -0.0049758353 0.18806054 0.12588358 -0.07098243
000320 c2 e0 9d bc af 89 2a 3d 48 fb 00 be 98 24 6a be
       -0.019272212 0.04163521 -0.12595856 -0.22865522
000330 10 17 91 3d 38 35 8a 3e 65 ad ff bd f2 b6 52 be
       0.07084477 0.26993728 -0.12484244 -0.205776
000340 19 5b 61 3d 3a d4 40 be 13 2b 7c be f0 a2 e8 3d
       0.055018518 -0.18830958 -0.24625807 0.11359203
000350 62 b6 c4 bd 89 74 6b be 34 60 44 be 51 54 14 be
       -0.09605099 -0.22993673 -0.19177324 -0.14485289
000360 77 59 39 be 22 84 07 be 53 ea 19 be f5 a9 b1 bc
       -0.18100534 -0.13233998 -0.15030794 -0.021687487
000370 76 61 65 3d f5 a9 0b 3e 21 d1 66 3d 54 14 93 bd
       0.05600115 0.13639052 0.056351785 -0.07181612
000380 bc bb 5c bd e3 72 24 be a9 5c ef bc fe 1a ac bd
       -0.053889975 -0.16059451 -0.029218988 -0.08403586
000390 76 8f a9 bd 10 ef 2a be 67 20 e9 3c 10 56 1a 3d
       -0.08279316 -0.16692758 0.028457833 0.03767973
0003a0 6e c1 aa bd 88 f3 e2 3c f9 4e 37 3e db 12 36 3e
       -0.08337675 0.027704015 0.1790122 0.1778063
0003b0 c6 e6 29 be bb 58 44 be 36 25 e8 bd 8e 8e 4d 3e
       -0.1659194 -0.19174473 -0.113352224 0.20073912
0003c0 e8 43 6a be 19 f8 4f 3e 59 00 f1 bb 42 c6 62 be
       -0.22877467 0.20309485 -0.007354778 -0.22145942
0003d0 88 7a 63 3d 7f 18 45 3e ad 77 73 3e 66 35 c1 3d
       0.055536777 0.19247626 0.23776121 0.09434013
0003e0 d8 81 23 3d 14 80 4e 3e 52 63 d9 3c 46 23 09 3e
       0.03991875 0.20166045 0.026536617 0.13392362
0003f0 b2 2b 57 be e0 8e 75 bc cc 98 11 3d cf 8d ff bd
       -0.21012762 -0.014987677 0.03554611 -0.1247822
